main/continuous_time_inference (Schrodinger)/models_iters/pt_model_Schrodinger_2700.pt (torch, 209136 bytes, 14 tensors)

linear_in.weight f4 [100, 2]
0	0x3e2b6ce4	0.16740757
1	0x3dd8517e	0.105624184
2	0xbd4d0de2	-0.050062068
3	0xbdfe99ba	-0.12431665
4	0x3c361bd3	0.011115032
5	0x3d94f881	0.07273961
6	0xbb0a6750	-0.0021118708
7	0x3e1a07c1	0.1504202
8	0x3e1cbfb9	0.15307511
9	0x3ccb43ea	0.024812657
10	0xbdbf74a5	-0.0934842
11	0x3e3a47d5	0.18191464
12	0x3dd0d74d	0.10197315
13	0xbba4c7e7	-0.005028713
14	0xbe978a56	-0.2959773
15	0xbdfdeac3	-0.12398293
16	0xbd918590	-0.07105553
17	0x3e2f895e	0.17142245
18	0xbdc62f3a	-0.096769765
19	0x3e295d7f	0.16539572
20	0xbe00bc75	-0.1257189
21	0x3ddb4835	0.10707132
22	0xbd2291d5	-0.039689858
23	0x3e43c382	0.19117549
24	0xbe2d689c	-0.16934437
25	0x3bf550fa	0.00748646
26	0xbb9147e3	-0.0044336184
27	0xbe3f325c	-0.18671554
28	0x3cb674ac	0.02227243
29	0xbdb7df0d	-0.089780904
30	0x3e2f6f9f	0.17132424
31	0x3e565651	0.20931365
32	0x3e6c40d1	0.230716
33	0xbc9468b5	-0.018116334
34	0x3e823c12	0.25436455
35	0xbd0f0ea6	-0.03492608
36	0xbd92c2f3	-0.0716609
37	0xbd607f9e	-0.054809205
38	0x3dcfcd0a	0.1014653
39	0xbc39ebfd	-0.011347768
40	0xbe8540aa	-0.26025897
41	0xbde54bf7	-0.1119613
42	0xbe04478f	-0.12917922
43	0x3e96d418	0.2945869
44	0xbd44bd1d	-0.048031915
45	0xbc9ac273	-0.018891549
46	0x3de8dcf9	0.11370272
47	0x3dba2015	0.090881504
48	0x3dbc0cfc	0.09182164
49	0xbd865d33	-0.06560745
50	0xbe3b4600	-0.18288422
51	0xbbd16d18	-0.006391179
52	0x3e25aec7	0.16179954
53	0xbe0c19cc	-0.13681716
54	0x3d9be248	0.07611519
55	0xbd9144e1	-0.07093216
56	0x3e53df44	0.20690638
57	0x3e23e5c5	0.16005619
58	0xbe914a16	-0.28376836
59	0x3e14749a	0.14497605
60	0x3df6246a	0.12018664
61	0x3e288b4f	0.16459392
62	0x3d1b5741	0.03792501
63	0xbc2723b3	-0.010201382
64	0x3cf3a7ae	0.029743042
65	0x3dc78a47	0.09743171
66	0x3d83bbf3	0.06432333
67	0x3cbf5fe1	0.023361148
68	0x3e8d7385	0.27627197
69	0xbe9cd115	-0.30628267
70	0xbc491b51	-0.012274579
71	0x3d693927	0.05693927
72	0x3c8680cc	0.016418837
73	0x3e13c695	0.14431222
74	0x3cc3ea27	0.023915363
75	0x3d3db3e3	0.04631413
76	0xbcf66c9a	-0.030081082
77	0xbe989595	-0.29801622
78	0xbda3e1f4	-0.080020815
79	0x3e400a8e	0.18754026
80	0x3e47cad4	0.19510967
81	0xbe2f6da2	-0.17131665
82	0xbe1e440f	-0.1545565
83	0x3dc54fa6	0.09634332
84	0xbdcb4167	-0.09924584
85	0xbe31b024	-0.17352349
86	0xbe7c8074	-0.24658376
87	0x3dd40728	0.103529274
88	0xbde1cb7a	-0.11025138
89	0xbdeacadc	-0.114644736
90	0xbe08984c	-0.13339347
91	0xbe13c627	-0.14431058
92	0x3d3244c6	0.04352262
93	0xbe12ba59	-0.14328898
94	0x3e300c41	0.17192174
95	0x3dd106c6	0.1020637
96	0xbe2e80dd	-0.17041345
97	0xbdacb071	-0.08432091
98	0xbdb96d58	-0.09054059
99	0xbe344ee0	-0.17608213
100	0x3df77dd4	0.12084547
101	0xbdeb3b00	-0.11485863
102	0xbce95698	-0.028483674
103	0x3dab7724	0.08372334
104	0xbcce9955	-0.025219599
105	0xbe3f0e95	-0.18657906
106	0x3e16519a	0.14679566
107	0xbdd19a15	-0.10234467
108	0x3d947995	0.072497524
109	0xbe93cc1b	-0.28866658
110	0x3d3342e4	0.043764964
111	0xbe0d2f5f	-0.13787602
112	0x3eab5f99	0.33471373
113	0xbea3c810	-0.31988573
114	0xbdb8a70b	-0.09016236
115	0x3dcc4b3c	0.09975287
116	0xbb616cfb	-0.0034397233
117	0x3d81fb63	0.06346776
118	0xbe400c81	-0.1875477
119	0x3d4f2e3f	0.050581213
120	0x3d699d93	0.05703504
121	0xbd831a07	-0.06401449
122	0xbd0c5d15	-0.034268457
123	0x3e589d80	0.21153831
124	0xbde41027	-0.11135893
125	0xbe31ec55	-0.1737531
126	0x3dd9b74e	0.10630666
127	0x3cb39008	0.021919265
128	0x3c92d73a	0.017924894
129	0x3dd3be2b	0.10339006
130	0xbe2cf6bd	-0.16890998
131	0xbc2baefc	-0.010478731
132	0xbde555cf	-0.11198007
133	0x3e514684	0.20437056
134	0x3d8ac6ce	0.067762
135	0x3cbe8347	0.023255957
136	0x3e47f228	0.19525969
137	0x3c1e287a	0.009653205
138	0x3b7e9562	0.0038846363
139	0x3e12afed	0.14324923
140	0x3e5b93da	0.2144312
141	0x3d33008c	0.043701693
142	0xbd33abb2	-0.043864913
143	0x3d255e8c	0.04037337
144	0x3baa9548	0.005205784
145	0xbe940a9a	-0.28914338
146	0xbcb32c80	-0.021871805
147	0xbcb3167a	-0.021861304
148	0xbe6d0e70	-0.23150039
149	0xbdc73271	-0.09726418
150	0x3dcdf94e	0.10057317
151	0x3d14a149	0.036286626
152	0xbe007278	-0.12543666
153	0xbd883971	-0.06651581
154	0x3e143c3a	0.144761
155	0x3e11bdff	0.14232634
156	0xbd012dcc	-0.031537816
157	0x3de5b7e0	0.11216712
158	0xbe848e19	-0.25889662
159	0xbe32985b	-0.17440931
160	0x3daf1371	0.0854863
161	0xbdde2ae1	-0.10848022
162	0x3d914266	0.070927426
163	0x3c24d8dc	0.010061469
164	0xbb70b19b	-0.0036726955
165	0x3d931cd7	0.07183235
166	0x3c558c5b	0.013033952
167	0x3e104746	0.14089689
168	0x3d6500b1	0.055908863
169	0x3c7253e8	0.014790513
170	0x3e00ae3f	0.1256647
171	0x3e94a6b2	0.29033428
172	0xbe2820b8	-0.16418731
173	0x3e8bf5ab	0.27335867
174	0x3e502bc0	0.2032919
175	0xbdb2e6f7	-0.08735459
176	0xbde56768	-0.11201364
177	0x3d6d14d8	0.057881206
178	0x3d80fc5d	0.062981345
179	0xbe2952ad	-0.16535445
180	0x3d53cad0	0.05170709
181	0xbab9f164	-0.001418632
182	0xbcaf207d	-0.021377796
183	0x3e2da28a	0.16956535
184	0x3e98496e	0.29743522
185	0xbda93014	-0.08261123
186	0xbdafb41c	-0.08579275
187	0x3dbc3c42	0.09191181
188	0xbb97141a	-0.0046105506
189	0x3ce43300	0.02785635
190	0xbda659fa	-0.081226304
191	0x3e86ad12	0.26303917
192	0x3dd4108e	0.1035472
193	0x3c2f9665	0.010717009
194	0xbdee02f3	-0.11621656
195	0xba72fc6f	-0.0009269183
196	0xbe46ebf5	-0.19425948
197	0x3da14fd5	0.07876555
198	0xbc8a7043	-0.016899234
199	0x3cf3f4bf	0.02977979

linear_in.bias f4 [100]
0	0x3c1f5d0e	0.009726776
1	0x3c45fe56	0.012084564
2	0xbc8cb318	-0.017175242
3	0x3c69a316	0.014260074
4	0x3c80ae54	0.015708126
5	0xbc7d7917	-0.015470765
6	0x3ce7ed3b	0.028311362
7	0xbc5d4f9a	-0.013507748
8	0x3ca4b601	0.020106317
9	0xbcb07090	-0.021538049
10	0x3cded0de	0.027199205
11	0x3c466e28	0.012111224
12	0x3c4cecae	0.012507601
13	0x3cabbd96	0.020964425
14	0x3c515f91	0.012779132
15	0x3cb6a13d	0.022293681
16	0x3c7c471e	0.015397815
17	0xbc72499b	-0.014788057
18	0x3c53d556	0.012929281
19	0xbc3e22e3	-0.011604997
20	0xbc5e911c	-0.013584401
21	0xbc9fd632	-0.019511316
22	0x3ce92d44	0.028463967
23	0x3bca59d6	0.00617526
24	0xbbf445ec	-0.0074546244
25	0x3c3b6052	0.011436539
26	0x3c7a2938	0.015268616
27	0xbc201175	-0.009769787
28	0x3c3373f0	0.010952935
29	0x3c921386	0.017831575
30	0x3c487f07	0.012237317
31	0x3c8c4c88	0.017126337
32	0xbc7471ef	-0.014919742
33	0x3c41f0e8	0.011837222
34	0x3c56a04c	0.013099741
35	0xbc8c791e	-0.017147597
36	0xbc59e5a1	-0.013299377
37	0xbc8be69e	-0.01707774
38	0x3c8a6925	0.01689584
39	0x3c984f10	0.018592387
40	0x3cb9ed32	0.022696111
41	0x3c383a3b	0.011244352
42	0xbc38713d	-0.011257467
43	0x3c6c62d1	0.014427857
44	0x3c00f23c	0.007870253
45	0x3c39971c	0.011327531
46	0x3c5317b2	0.012884067
47	0xbc923409	-0.017847078
48	0x3c754d9a	0.014972115
49	0x3c663e41	0.014052928
50	0xbc55ae9a	-0.013042117
51	0x3c6ed3b1	0.014576838
52	0xbc56bb24	-0.013106141
53	0x3c5433a6	0.012951767
54	0x3c276509	0.01021696
55	0xbc5d2848	-0.013498373
56	0xbc8ab4fc	-0.016932003
57	0x3c756255	0.014977057
58	0x3c27119d	0.01019707
59	0xbc90a30c	-0.017655872
60	0xbce6bde8	-0.028166726
61	0x3c3414b1	0.010991261
62	0xbc5bed1c	-0.0134232305
63	0x3c5f9cdd	0.013648239
64	0xbc6c0b03	-0.014406922
65	0x3b4a6bf7	0.0030887106
66	0xbc6e3234	-0.014538337
67	0xbc62a97d	-0.0138343545
68	0xbc620cd4	-0.013797004
69	0x3c4f0d3f	0.012637435
70	0x3c8844e5	0.016634414
71	0x3c4fa698	0.012673996
72	0x3c881ff8	0.016616806
73	0x3cd86ff5	0.026420573
74	0x3c87f3a6	0.016595673
75	0x3c6bfe86	0.014403945
76	0x3c31e8ce	0.010858728
77	0xbc52ee82	-0.0128742475
78	0xbc9bf7c5	-0.019039044
79	0x3c8693e0	0.016427934
80	0x3c83eafe	0.016103264
81	0xbc0c98f2	-0.008581387
82	0x3cba7471	0.022760602
83	0x3c4e8992	0.0126060415
84	0x3c4c8c6e	0.012484653
85	0x3c635fad	0.013877791
86	0x3c8c629c	0.017136864
87	0xbc8e1d5e	-0.017347988
88	0x3c657f5e	0.0140074175
89	0x3c4826b4	0.012216259
90	0x3c89722c	0.016778074
91	0xbc7b5205	-0.015339379
92	0x3c5e1105	0.013553862
93	0x3c9d5a9b	0.019208243
94	0xbcb4cb80	-0.022069693
95	0x3b85cff8	0.0040836297
96	0xbc75b80a	-0.014997492
97	0xbc1adf2e	-0.009452624
98	0xbc73d255	-0.01488169
99	0xbc3d3cf5	-0.011550178

linear_out.weight f4 [2, 100]
0	0x3e371db7	0.17882429
1	0x3ea03b6c	0.31295335
2	0x3eb95b28	0.3620236
3	0x3dbaa645	0.09113745
4	0xbd778cbe	-0.060436957
5	0x3dfe5863	0.12419202
6	0xbdb80112	-0.08984579
7	0xbe709bb3	-0.23496895
8	0xbe352b8a	-0.1769239
9	0x3e7020fb	0.23450081
10	0x3ec99225	0.39369312
11	0xbd41fea7	-0.047361996
12	0x3e08ddfe	0.13365933
13	0x3e900589	0.28129223
14	0xbe12fc2a	-0.14354005
15	0x3d256fd1	0.04038984
16	0x3d9dd722	0.07707049
17	0x3d8f6129	0.07000954
18	0xbe39b9cb	-0.1813728
19	0xbe002027	-0.12512265
20	0xbd725ca2	-0.059170373
21	0x3d764832	0.060127445
22	0xbdf0010f	-0.11718952
23	0xbd1b60d9	-0.037934158
24	0xbdca90ca	-0.098908976
25	0x3cfe79c9	0.031063931
26	0xbd330e87	-0.043715026
27	0xbd867c1c	-0.06566641
28	0x3d4ab656	0.049490295
29	0x3e1038fd	0.1408424
30	0x3dc5067f	0.0962038
31	0xbbae89bc	-0.005326478
32	0x3bdaa1d4	0.0066721234
33	0x3de514b3	0.11185589
34	0xbe178ad3	-0.14799051
35	0x3ddb399f	0.1070435
36	0xbd1cebe4	-0.0383109
37	0xbda58981	-0.080828674
38	0xbd781444	-0.0605662
39	0xbdfef3cb	-0.124488436
40	0x3e2d9324	0.16950661
41	0xbdb45132	-0.08804549
42	0xbe30cb92	-0.17265156
43	0xbe31b29c	-0.1735329
44	0xbd07b32f	-0.033129867
45	0xbd42f264	-0.047594443
46	0xbdd9798a	-0.10618885
47	0x3e1647ec	0.14675874
48	0xbdcab797	-0.09898298
49	0xbc9e1542	-0.019297246
50	0xbe82fdf5	-0.2558438
51	0xbcafa7f0	-0.021442384
52	0x3e05bf04	0.13061148
53	0xbe9a5123	-0.30140027
54	0xbc931b16	-0.017957252
55	0xbd978a3a	-0.073994115
56	0x3e0a57ea	0.13510099
57	0xbe1297ec	-0.14315766
58	0xbe21444a	-0.15748706
59	0x3e5ed20d	0.21759816
60	0xbd83ed47	-0.064417414
61	0xbc3c0636	-0.01147609
62	0xbd845de7	-0.06463223
63	0x3d0fc9ad	0.035104442
64	0x3cfd0838	0.030887708
65	0xbde69f4a	-0.11260851
66	0xbd6a7e67	-0.057249453
67	0x3d9732cc	0.073827356
68	0x3db5af9a	0.08871384
69	0x3df4e9b3	0.11958637
70	0xbd650d43	-0.05592085
71	0x3d85484c	0.0650793
72	0x3e103c79	0.14085568
73	0xbda970a4	-0.082734376
74	0xbd4b9a95	-0.049707968
75	0x3e679980	0.2261715
76	0xbdd05516	-0.10172479
77	0xbe5ae7df	-0.21377514
78	0x3da45dce	0.08025704
79	0xbbd90764	-0.0066231955
80	0x3de04c11	0.109520085
81	0xbe184a9f	-0.14872216
82	0xbc6eaa53	-0.014566976
83	0x3eb3b71d	0.35100642
84	0x3ea18759	0.31548575
85	0xbdb0c47c	-0.086312264
86	0xbe6e79fd	-0.23288722
87	0x3d97f461	0.074196585
88	0xbd7756b8	-0.060385436
89	0xbea5ece8	-0.32407308
90	0xbd42e78c	-0.0475841
91	0xbe180b5e	-0.14848086
92	0x3e0c999e	0.13730475
93	0xbe4646f6	-0.19363007
94	0xbe0f0071	-0.13965012
95	0xbd975d2d	-0.07390819
96	0xbe4aa83c	-0.19790739
97	0x3e1e0c5b	0.154344
98	0xbd2826ef	-0.041052755
99	0xbe5993ab	-0.21247737
100	0x3e4b1d93	0.198355
101	0xbda255fb	-0.07926556
102	0x3e009cb7	0.12559782
103	0xbd3b3755	-0.045707066
104	0xbc32f40c	-0.010922443
105	0xbcbaa61e	-0.022784289
106	0xbe8e1183	-0.27747735
107	0xbdf0028e	-0.11719237
108	0xba001fd4	-0.0004887555
109	0x3dc7b6ac	0.09751639
110	0xbe76e0f1	-0.24109246
111	0x3dd9705c	0.10617134
112	0x3e78b850	0.2428906
113	0xbe72857b	-0.23683731
114	0x3dbbca37	0.09169429
115	0xbcc67837	-0.024227245
116	0x3e8f5ca6	0.28000373
117	0xbc461113	-0.012089032
118	0xbd7d238e	-0.061801486
119	0x3ce6a100	0.028152943
120	0x3e10fe10	0.14159417
121	0xbd55291a	-0.05204115
122	0x3decca5b	0.11562034
123	0x3d1472ad	0.036242176
124	0xbd08062b	-0.033209007
125	0xbbb7baf2	-0.0056070024
126	0xbe206fe9	-0.1566769
127	0x3e1850fa	0.1487464
128	0xbe3c7ff9	-0.18408193
129	0x3d22b8e5	0.03972711
130	0x3e265e52	0.16246918
131	0xbde044ec	-0.10950646
132	0xbda2db7f	-0.07952022
133	0xbe3de5b6	-0.18544659
134	0xbc8f24da	-0.017473627
135	0x3db533ce	0.088477716
136	0x3e0afd35	0.13573153
137	0x3eb0c3c0	0.34524345
138	0x3cee0d3c	0.029059045
139	0xbcf848da	-0.030308176
140	0x3e5b6a85	0.21427353
141	0xbddc9500	-0.10770607
142	0x3cb28bc4	0.021795161
143	0xbd88ef1e	-0.06686233
144	0xbe1f9c7c	-0.15587038
145	0x3d30d0df	0.043167945
146	0x3c0ded95	0.008662601
147	0x3d8a5402	0.067543045
148	0x3e2adf9b	0.16686861
149	0xbcd0c3d3	-0.025484001
150	0x3ea5194d	0.32245865
151	0xbe48b848	-0.19601548
152	0xbc4b6b77	-0.012415758
153	0x3e431da4	0.19054276
154	0xbd8682c0	-0.06567907
155	0x3e1833f6	0.14863572
156	0xbd9eb022	-0.077484384
157	0xbe0c78ac	-0.13717908
158	0x3dd66b48	0.10469681
159	0xbe5a1223	-0.21295981
160	0x3e236e3e	0.15960023
161	0xbbffa05c	-0.0078010987
162	0xbcf1cf58	-0.029517815
163	0xbd9b04b6	-0.07569258
164	0xbe3dd290	-0.18537354
165	0x3c82c5d2	0.015963469
166	0x3df699e5	0.12041072
167	0xbd4f821e	-0.0506612
168	0xbda7a030	-0.0818485
169	0xbcc4566f	-0.023966996
170	0xbce2a8c8	-0.027668372
171	0x3ca3fd8b	0.02001836
172	0x3c5d58d3	0.013509947
173	0x3dad39d2	0.08458294
174	0xbec3fa90	-0.38277102
175	0xbe848400	-0.25881958
176	0x3dc86ef9	0.09786791
177	0xbe7564e5	-0.2396427
178	0xbe40c24d	-0.1882412
179	0xbe805b7b	-0.25069794
180	0xbda98ab9	-0.08278412
181	0x3daa5a3a	0.083179906
182	0xbd3182f4	-0.043337777
183	0xbda324e3	-0.0796602
184	0xbe90c904	-0.28278363
185	0x3e1e064f	0.15432094
186	0xbe55ef56	-0.2089208
187	0xbe609183	-0.21930508
188	0x3e0c6bcb	0.13712995
189	0xbd00f5e2	-0.031484492
190	0xbc3ee80d	-0.011652005
191	0x3ddbdd56	0.10735576
192	0x3e08fca1	0.1337762
193	0xbeb2f274	-0.34950602
194	0xbd7018f4	-0.058617547
195	0xbdae6513	-0.08515372
196	0xbc1dd658	-0.009633623
197	0x3e2c90f6	0.16852173
198	0xbea19049	-0.31555393
199	0xbe0bf6f4	-0.13668424

linear_out.bias f4 [2]
0	0x3b7a106e	0.0038156766
1	0x3c61d352	0.013783293

layers.0.weight f4 [100, 100]
0	0xbd392aa6	-0.04520669
1	0xbdc594b7	-0.09647506
2	0x3e122584	0.14272124
3	0x3bc7dfd6	0.0060996814
4	0x3d3efd2e	0.04662817
5	0x3de26e5e	0.11056207
6	0x3e1558af	0.14584611
7	0xbda6b648	-0.08140236
8	0x3de34243	0.11096623
9	0xbd5999d1	-0.053125206
10	0xbda7f43f	-0.08200883
11	0xbe1f16c3	-0.15536027
12	0x3df47c16	0.1193773
13	0xbd632cb6	-0.05546256
14	0x3e0d6ab5	0.13810237
15	0x3e41d6cd	0.18929596
16	0x3df59e5f	0.119930975
17	0x3c50387a	0.012708778
18	0x3e01d832	0.12680128
19	0x3e01d44a	0.12678638
20	0xbe628480	-0.22120857
21	0xbd920bc0	-0.071311474
22	0x3d89009e	0.06689571
23	0xbcb431e4	-0.021996446
24	0x3d868fe7	0.06570416
25	0xbdb02013	-0.08599868
26	0xbd966abd	-0.073445775
27	0x3c9146dc	0.017733984
28	0xbe079127	-0.13238965
29	0x3da50c97	0.08059042
30	0xbe4b7830	-0.19870067
31	0xbdf96d24	-0.1217902
32	0xbe2a0310	-0.16602731
33	0x3dced29f	0.100987665
34	0x3e7668ab	0.24063365
35	0x3d61eef0	0.05515951
36	0x3db467a6	0.08808832
37	0xbda752c1	-0.08170081
38	0x3e04e334	0.12977296
39	0x3d428046	0.047485612
40	0x3c8813ca	0.016610999
41	0x3e4ccd51	0.20000197
42	0x3c06d6b9	0.008229905
43	0xbb10e529	-0.0022109246
44	0x3e2f1031	0.1709602
45	0x3d62f2e2	0.055407412
46	0xbe69d28f	-0.22834228
47	0x3b824630	0.003975652
48	0x3d1a8721	0.037726525
49	0x3df56a77	0.11983197
50	0xbd1669e9	-0.036722098
51	0x3dda8564	0.106699735
52	0xbdbda978	-0.09260839
53	0x3d978dae	0.0740007
54	0x3d85d557	0.06534832
55	0xbe23e1d4	-0.16004115
56	0x3e29e5a1	0.16591503
57	0xbe082cab	-0.1329829
58	0xbd7ae6e2	-0.061255343
59	0xbd85fc8c	-0.0654231
60	0xbc35cd4d	-0.011096311
61	0xbd99df10	-0.07513249
62	0x3d5f82a1	0.054567937
63	0x3dabd24c	0.0838972
64	0x3dac9f93	0.08428874
65	0xbd9d15da	-0.076701835
66	0xbb6c9d74	-0.0036104592
67	0xbe7ae8a0	-0.24502802
68	0xbd1b56c5	-0.037924547
69	0xbe291366	-0.16511306
70	0x3debfd5b	0.11522933
71	0xbd8703a1	-0.06592489
72	0x3d8d38f4	0.068956286
73	0x3c760b18	0.015017293
74	0xbd7b9ccf	-0.06142884
75	0xba1734f2	-0.00057680823
76	0x3deab2cb	0.11459883
77	0xbce753ed	-0.028238261
78	0x3d8b0116	0.067873165
79	0xbe255c25	-0.16148432
80	0xbde83033	-0.11337318
81	0x3d1ffe18	0.039060682
82	0xbb58abcb	-0.003306138
83	0x3d3b8c84	0.045788303
84	0xbdecc25a	-0.11560507
85	0xbd56f3eb	-0.052478712
86	0xbcd26527	-0.025682999
87	0xbda5db51	-0.08098472
88	0x3d590ceb	0.052990835
89	0xbcb03dd0	-0.02151385
90	0x3e39c3dc	0.1814112
91	0xbca49abc	-0.020093314
92	0xbde596e2	-0.11210419
93	0xbcd27ce3	-0.025694316
94	0xbd04c232	-0.03241176
95	0xbdd94030	-0.10607946
96	0x3d8c8f74	0.06863299
97	0xbddc77e6	-0.10765056
98	0xbdef1de8	-0.11675626
99	0x3cbb7c4c	0.022886418
100	0xbc82bc86	-0.015959036
101	0x3dcd95c3	0.100383304
102	0xbd47aa0d	-0.048746157
103	0x3cecbfcb	0.028900048
104	0x3e17176c	0.14755028
105	0xbd88e76d	-0.06684766
106	0x3e5342f4	0.2063101
107	0x3d0b8c9c	0.034069642
108	0xbd97aa3f	-0.07405519
109	0xbcd3cc51	-0.025854262
110	0xbd2c76b7	-0.042105403
111	0x3d4fff99	0.050780866
112	0x3e72d246	0.23713025
113	0xbcedf347	-0.029046668
114	0xbdcc5af8	-0.099782884
115	0x3dbf12a7	0.093297295
116	0xbe05c4f4	-0.13063413
117	0xbdb066d2	-0.086133614
118	0x3d92e94a	0.071734026
119	0x3cd6c4ff	0.026216982
120	0x3e52b019	0.20574988
121	0x3df24c1c	0.11830923
122	0x3d67c186	0.056581043
123	0xbda4fbea	-0.08055861
124	0x3e4401ea	0.19141355
125	0x3cafa67f	0.021441696
126	0x3c3c5936	0.011495879
127	0xbe21a56f	-0.15785764
128	0x3d0a93db	0.033832412
129	0x3dfa0b72	0.12209214
130	0xbd5a834c	-0.05334787
131	0xbb2f3b4c	-0.0026738225
132	0xbe0bec9f	-0.13664483
133	0xbdec3556	-0.115336105
134	0xbd8d4832	-0.06898536
135	0xbd545d48	-0.051846772
136	0xbcf9126e	-0.030404296
137	0x3ce4df1d	0.02793842
138	0x3e1ba79f	0.15200661
139	0xbdaa3d86	-0.08312516
140	0x3d8d8331	0.069097884
141	0x3daf2a5f	0.085530035
142	0xbc3f3f65	-0.011672829
143	0x3cfb538f	0.030679492
144	0xbdfe7ea5	-0.12426499
145	0x3dbba7f9	0.091628976
146	0xbde06b23	-0.10957935
147	0xbbe034dc	-0.006842239
148	0x3dcc84ba	0.09986253
149	0xbdf9abf8	-0.121910036
150	0x3cb90a22	0.02258784
151	0xbd51535e	-0.051104896
152	0xbd8ba96c	-0.06819424
153	0xbd0fa6e8	-0.035071284
154	0x3dad8603	0.08472826
155	0xbd0466ab	-0.032324474
156	0xbd8ce9ce	-0.06880532
157	0x3e261793	0.1621993
158	0xbe175e12	-0.14781979
159	0xbdbc0f59	-0.09182615
160	0xbd9f8182	-0.077883735
161	0x3d6b86e2	0.05750168
162	0x3d678af4	0.056529
163	0xbe3c50b8	-0.18390167
164	0x3d121f33	0.035674285
165	0xbe432d8f	-0.19060348
166	0xbd1b57c1	-0.037925486
167	0xbd21acce	-0.03947144
168	0x3d420b5f	0.047374126
169	0x3b926027	0.0044670287
170	0xbdcdab62	-0.10042454
171	0x3e142c3c	0.14469999
172	0x3e3b8186	0.18311128
173	0x3d9b2204	0.07574847
174	0x3d661567	0.056172755
175	0xbc2cc8d9	-0.010545933
176	0x3d39a2a5	0.045321126
177	0x3cb92578	0.022600874
178	0x3e0736f9	0.13204564
179	0xbdd76fc1	-0.10519362
180	0xbe3befb6	-0.18353161
181	0x3ddb9c21	0.107231386
182	0x3e141a8b	0.1446325
183	0xbd44299a	-0.047891237
184	0xbe32b7a7	-0.1745287
185	0xbd85afa3	-0.06527641
186	0xbd70e0e8	-0.058808237
187	0xbd20c225	-0.03924765
188	0xbbdf8692	-0.006821462
189	0xbd32d509	-0.043660197
190	0x3db9e11e	0.09076141
191	0xbb916bf4	-0.004437918
192	0x3d59dd85	0.053189773
193	0xbd6d1975	-0.057885606
194	0xbe7dce2a	-0.24785677
195	0xbe445338	-0.1917237
196	0xbe5ef62e	-0.21773598
197	0x3e253715	0.16134293
198	0x3cbcc3d0	0.02304259
199	0x3dfa0750	0.12208426
200	0xbe02b215	-0.12763245
201	0xbcc2964e	-0.023753311
202	0x3c70294c	0.014658283
203	0xbb926540	-0.0044676363
204	0xbd5b974a	-0.053611077
205	0x3d8cc6e9	0.068738766
206	0xbe1bcbf3	-0.15214519
207	0xbd864666	-0.06556396
208	0xbda32393	-0.079657696
209	0x3e0650c4	0.13116747
210	0xbda53d16	-0.08068292
211	0x3cff3f36	0.031158071
212	0x3b63401f	0.003467567
213	0x3cf48789	0.029849784
214	0xbce82f75	-0.028342942
215	0x3ceb3d79	0.028715836
216	0xbdde49a1	-0.10853887
217	0xbc06db22	-0.008230956
218	0x3d8597a4	0.06523064
219	0xbd0d1d0b	-0.034451526
220	0xbce67fa3	-0.028137034
221	0xbd0fa03f	-0.035064932
222	0xbd772f53	-0.060347866
223	0xbccea7ca	-0.025226492
224	0x3d9e5fbc	0.07733104
225	0xbd9237d7	-0.07139557
226	0xbe12553b	-0.14290325
227	0xbd1b9da7	-0.037992146
228	0x3ccc4515	0.024935285
229	0x3d54167f	0.051779266
230	0x3d832de8	0.0640524
231	0x3d9ea744	0.07746747
232	0x3e4229a5	0.18961199
233	0x3cd83192	0.026390824
234	0x3b11bb28	0.0022236798
235	0x3e3d8d4d	0.18510933
236	0x3d22a9a5	0.039712567
237	0x3d361292	0.044451304
238	0x3e221ea0	0.15831995
239	0xbc1809c6	-0.009279674
240	0x3df2a907	0.11848646
241	0x3cd07279	0.02544521
242	0xbe7d1681	-0.24715616
243	0x3de4daf2	0.11174573
244	0x3d54b093	0.051926207
245	0xbdd0f20e	-0.10202418
246	0xbd0a3d9a	-0.033750154
247	0x3daf42a1	0.0855763
248	0xbd8d7a58	-0.06908101
249	0x3d809cae	0.06279884
250	0xbdd92b75	-0.10603992
251	0xbe0a076c	-0.13479394
252	0x3dd880df	0.10571455
253	0xbd254513	-0.040349077
254	0xbd454a25	-0.048166413
255	0xbba9580b	-0.0051679662

layers.0.bias f4 [100]
0	0x3c901d2a	0.017592032
1	0x3c894bb6	0.016759735
2	0xbc683970	-0.01417385
3	0x3c508482	0.012726905
4	0xbcc62c99	-0.024191188
5	0x3ca6a3a4	0.020341702
6	0xbc6ffb59	-0.014647328
7	0x3c121228	0.008915462
8	0xbcb399c6	-0.02192391
9	0x3c716485	0.014733438
10	0xbc4fa4b7	-0.012673548
11	0x3bccf3f7	0.006254669
12	0x3c56c140	0.013107598
13	0x3c99d75e	0.018779453
14	0xbd0160aa	-0.031586327
15	0xbcaec48b	-0.021333953
16	0x3c65698d	0.014002216
17	0xbc4ef263	-0.012631032
18	0x3c6f2f5f	0.0145986965
19	0xbc7a86e1	-0.015290947
20	0xbc5f8b38	-0.013644032
21	0x3c3669f6	0.0111336615
22	0xbca45c47	-0.020063533
23	0xbca5ab19	-0.020223187
24	0xbc084b80	-0.008318782
25	0x3c807d39	0.01568471
26	0xbc8245d8	-0.015902445
27	0xbc1819aa	-0.009283463
28	0xbc50a53b	-0.0127347065
29	0xbc63d13f	-0.013904869
30	0xbc5c94c6	-0.013463205
31	0x3c6e5570	0.014546737
32	0xbc4ba94e	-0.012430502
33	0xbc8baa0a	-0.017048854
34	0x3c560f5c	0.013065185
35	0xbc832a54	-0.016011395
36	0x3c954d84	0.018225439
37	0x3c0f65c2	0.008752288
38	0x3c61e5c9	0.013787695
39	0xbc911eb6	-0.01771484
40	0x3ca6f790	0.020381719
41	0x3b4172f0	0.002951797
42	0xbca6b58f	-0.020350246
43	0xbc4204e8	-0.01184199
44	0xbc276c04	-0.010218624
45	0xbcf09a24	-0.029370375
46	0x3c771eac	0.015082996
47	0x3c146334	0.009056855
48	0x3c9cb871	0.019130917
49	0x3c013112	0.007885234
50	0xbc37851a	-0.0112011675
51	0xbc34b2cd	-0.011028958
52	0x3c76868e	0.015046729
53	0xbc8c49c0	-0.01712501
54	0x3c569aff	0.013098477
55	0x3cc015c8	0.023447886
56	0x3bed5f31	0.0072440137
57	0xbc4e557b	-0.012593622
58	0x3c2852d2	0.010273652
59	0x3c25f7ad	0.010129851
60	0xbc509d6b	-0.012732844
61	0xbc7d89fa	-0.015474791
62	0xbc6bb37f	-0.014386057
63	0x3c2fa16b	0.010719637
64	0x3c786a31	0.015162037
65	0xbc805bb6	-0.015668731
66	0xbc82d898	-0.01597242
67	0x3c30ee79	0.010799044
68	0xbc331409	-0.01093007
69	0xbc4f8b7a	-0.012667531
70	0xbbf25cac	-0.0073963013
71	0xbcbbf0c9	-0.022941964
72	0x3c99e0f7	0.01878403
73	0xbc8e287d	-0.01735329
74	0xbc69f29a	-0.014279032
75	0x3caf7955	0.02142016
76	0x3cb30b0e	0.021855857
77	0x3c8baf60	0.017051399
78	0xbc4ced09	-0.012507685
79	0x3c58d292	0.013233798
80	0x3cd6fa94	0.026242532
81	0x3c5b6bfa	0.013392443
82	0xbc3b55b9	-0.011434012
83	0xbc2070c9	-0.009792515
84	0xbc555aab	-0.013022105
85	0x3c88af3a	0.016685117
86	0xbc405391	-0.011738674
87	0x3c3e4f89	0.011615642
88	0xb99cfa45	-0.00029941104
89	0xbc5ba0f3	-0.0134050725
90	0x3c8dc8e8	0.017307714
91	0x3c87c954	0.016575493
92	0x3c4c885b	0.012483682
93	0xbc54f48d	-0.012997759
94	0xbc3ea04a	-0.011634896
95	0x3c2ce733	0.010553169
96	0x3c957262	0.018243019
97	0xbc3b4e82	-0.011432292
98	0xbc26efd1	-0.010189013
99	0xbc427cf1	-0.011870609

layers.1.weight f4 [100, 100]
0	0x3d976975	0.07393161
1	0xbe0bddd3	-0.13658838
2	0x3d9a4072	0.07531823
3	0x3d36c6d9	0.04462323
4	0x3e00d68e	0.12581846
5	0xbd495734	-0.04915543
6	0x3e04f423	0.12983756
7	0xbd4fb79a	-0.050712205
8	0xbe0818a1	-0.13290645
9	0x3da10119	0.078615375
10	0xbd6ceb41	-0.057841543
11	0x3e60fa38	0.21970451
12	0x3e4a6071	0.19763352
13	0x3d98bb50	0.07457602
14	0x3d4a8b49	0.04944924
15	0xbc380e5d	-0.011233893
16	0xbe08c5c2	-0.13356689
17	0xbdc17309	-0.09445769
18	0xbddadd05	-0.106866874
19	0x3e0a73a0	0.1352067
20	0x3cd695f7	0.026194556
21	0xbde627bd	-0.11238048
22	0x3e0b1e12	0.1358569
23	0xbe0f02be	-0.1396589
24	0x3d179e40	0.037016153
25	0xbb81899f	-0.0039531733
26	0x3d37581b	0.04476176
27	0x3df5a47a	0.11994262
28	0x3dafb78b	0.0857993
29	0xbd532360	-0.051547408
30	0xbe50668b	-0.20351617
31	0xbe30adfe	-0.17253873
32	0xbd30bf08	-0.04315093
33	0x3d548b5c	0.051890716
34	0xbe228b50	-0.15873456
35	0x3e75b2b4	0.23993951
36	0x3df67f47	0.12035995
37	0xbcc8daa9	-0.024518328
38	0x3d0ed867	0.034874346
39	0x3cc1301a	0.023582507
40	0xbdd68d66	-0.10476188
41	0xbc23d0b6	-0.009998491
42	0x3df0b36d	0.11752973
43	0x3e2ae1fb	0.16687767
44	0xbe732b06	-0.23746881
45	0x3dbcb8a5	0.09214906
46	0x3e3de6e0	0.18545103
47	0x3d6e47f9	0.058174107
48	0x3e16e664	0.14736325
49	0x3d4aa833	0.049476814
50	0x3e4ea1a1	0.20178844
51	0x3da9b8f5	0.08287231
52	0x3d4993d0	0.04921323
53	0x3df84466	0.12122421
54	0x3cf4f902	0.029903892
55	0x3e207a15	0.1567157
56	0xbd8fb9fd	-0.07017896
57	0xbd312de8	-0.04325667
58	0x3c96d2b8	0.018411025
59	0x3cd29ffb	0.02571105
60	0xbb0c95a1	-0.002145149
61	0x3d9aa06e	0.07550131
62	0x3bf23a2d	0.007392189
63	0xbde81036	-0.11331217
64	0x3b6c9885	0.003610165
65	0x3d94577d	0.072432496
66	0x3cf228e2	0.02956051
67	0x3d2efe0a	0.04272274
68	0x3bca5505	0.006174686
69	0xbe3f0c68	-0.18657076
70	0x3cb5eba2	0.022207085
71	0xbd06ba65	-0.032892603
72	0xbd0aa690	-0.033850253
73	0xbe488347	-0.19581328
74	0xbcce239b	-0.025163462
75	0xbcaceb1c	-0.021108203
76	0xbd25333a	-0.040332057
77	0xbe578a65	-0.21048887
78	0xbdde1738	-0.108442724
79	0x3e1ec867	0.15506135
80	0x3e3dfcd8	0.18553483
81	0x3d585af2	0.052821107
82	0xbde5f32a	-0.112280205
83	0x3ce3bc25	0.027799675
84	0x3e0a0ec2	0.13482192
85	0x3e1d0022	0.15332082
86	0x3dc4f7e2	0.096175924
87	0x3c838ad3	0.016057407
88	0x3d82962c	0.06376299
89	0x3cd71b55	0.02625815
90	0xbe7be4d2	-0.24599007
91	0xbbca994b	-0.0061828247
92	0x3b9eac21	0.0048422967
93	0xbd83a5b8	-0.06428093
94	0xbdd0507a	-0.101716
95	0xbd42f08c	-0.047592685
96	0x3d1574cf	0.03648835
97	0x3da5a323	0.080877565
98	0xbb50b23a	-0.0031844513
99	0x3d9f0d1a	0.07766171
100	0xbca440b5	-0.020050386
101	0x3e0b9781	0.13632013
102	0xbd861fa0	-0.06549001
103	0xbdd973d2	-0.10617794
104	0xbd0d6245	-0.034517545
105	0xbd182330	-0.037142932
106	0xbe119ea7	-0.14220677
107	0x3d37a951	0.044839207
108	0x3e1dc100	0.15405655
109	0x3dec5cfe	0.11541174
110	0x3e6c0d85	0.23052032
111	0xbcd1317d	-0.025536293
112	0x3d6f7157	0.0584577
113	0xbd88f05b	-0.06686469
114	0x3d2a7821	0.04161847
115	0xbd3fba32	-0.04680843
116	0x3de3e192	0.111270085
117	0xbdd6eb51	-0.10494102
118	0x3d20e390	0.03927952
119	0x3daf80ca	0.085694864
120	0x3e164e12	0.14678219
121	0xbba65ac1	-0.0050767367
122	0x3c9c93c7	0.019113434
123	0xbbb183fc	-0.005417345
124	0x3e414700	0.1887474
125	0x3d981767	0.07426339
126	0x3dae24ac	0.08503088
127	0xbe1389fc	-0.14408106
128	0xbddb61ad	-0.107119896
129	0xbda92cb5	-0.0826048
130	0x3e968536	0.29398507
131	0xbcef1fb1	-0.029189916
132	0xbcead622	-0.02866656
133	0xbd9077c7	-0.07054096
134	0xbce557a7	-0.027995897
135	0xbdc2633a	-0.09491582
136	0x3dde013b	0.108400784
137	0xbd884f5d	-0.06655762
138	0xbcf38e17	-0.02973084
139	0xbd7971cc	-0.06089954
140	0x3dfefc69	0.12450487
141	0xbd8c269c	-0.06843302
142	0xbdf0502f	-0.11734044
143	0x3d9d79cb	0.07689246
144	0x3d6f0e9d	0.058363546
145	0x3d3e6133	0.046479415
146	0x3d3bc674	0.045843557
147	0x3d8a8068	0.06762773
148	0xbdd3925d	-0.10330651
149	0x3c8d3923	0.017239159
150	0xbc3a43e8	-0.011368729
151	0xbe232026	-0.15930232
152	0x3d674c53	0.056469273
153	0xbcdb24ab	-0.026750883
154	0xbe071cbb	-0.13194554
155	0xbc31b32f	-0.010845943
156	0x3ddc8daa	0.10769208
157	0xbc8e2926	-0.017353605
158	0xbdf9bc50	-0.12194121
159	0x3d031010	0.03199774
160	0x3d7b94fa	0.061421372
161	0x3b8a1dd5	0.004214982
162	0x3beccbf8	0.0072264634
163	0xbd194501	-0.037419323
164	0xbe8959c7	-0.26826307
165	0xbd393dbf	-0.0452249
166	0x3e30810a	0.17236724
167	0x3c8b068f	0.0169709
168	0xbe1ee511	-0.1551707
169	0x3d1cf67d	0.038321007
170	0xbe6c93d7	-0.23103271
171	0xbdb49d59	-0.08819074
172	0xbe1c7daa	-0.15282312
173	0x3d7974bd	0.060902346
174	0x3baba50f	0.0052381824
175	0xbd994de3	-0.07485559
176	0xbdcef593	-0.10105433
177	0x3c865638	0.016398534
178	0x3e4bbd3c	0.19896406
179	0xbdbfd094	-0.09365955
180	0xbd18e358	-0.037326187
181	0xbd8f00b7	-0.06982558
182	0xbcfa1046	-0.030525338
183	0x3e06b7ac	0.13156003
184	0x3db3007f	0.08740329
185	0x3e252c62	0.16130212
186	0x3e763c31	0.24046399
187	0xbd1603e9	-0.036624823
188	0xbcd26155	-0.025681177
189	0x3d95c40a	0.07312782
190	0xbb6c0592	-0.0036014062
191	0x3df985da	0.12183733
192	0xbe45c344	-0.19312769
193	0x3df42968	0.1192196
194	0x3e01d491	0.12678744
195	0xbde03aa4	-0.10948685
196	0x3b5db817	0.003383165
197	0x3db63f0b	0.08898743
198	0x3dd0acdd	0.10189221
199	0x3d4bc459	0.0497478
200	0xbe3623d2	-0.17787102
201	0x3d9d7ec1	0.07690192
202	0xbe3da15e	-0.18518588
203	0xbdfe6d93	-0.124232434
204	0x3c67fbeb	0.014159183
205	0x3d9b40ce	0.0758072
206	0x3d78a770	0.060706556
207	0x3cd27ba7	0.025693728
208	0x3e0584d4	0.13038951
209	0x3deaf8c0	0.114732265
210	0x3dd24370	0.10266769
211	0x396fdeb2	0.00022875777
212	0xbda97d5f	-0.08275866
213	0xbde01564	-0.1094158
214	0x3d220d34	0.039563373
215	0xbd90913c	-0.07058951
216	0xbca434f1	-0.020044776
217	0xbd206d43	-0.0391667
218	0xbdf0f141	-0.117647655
219	0x3c8bd2b0	0.017068237
220	0xbd326403	-0.04355241
221	0xbcc958e4	-0.02457852
222	0x3cbc29c2	0.02296913
223	0x3c099f60	0.008399814
224	0x3c9d8ebd	0.019233102
225	0xbdb47d05	-0.08812908
226	0xba5ba2c7	-0.0008378443
227	0xbc8a56bc	-0.016887061
228	0x3d8737f3	0.06602468
229	0xbd75bf0d	-0.059996653
230	0xbd8cb563	-0.06870534
231	0x3e1ff152	0.156194
232	0x3e19dd49	0.1502582
233	0x3d4d4121	0.05011094
234	0xbc604f06	-0.013690716
235	0xbd08d344	-0.033404604
236	0xbd9b9d55	-0.07598368
237	0xbdf387ac	-0.11891112
238	0x3bb545e7	0.0055320146
239	0xbd63869d	-0.0555483
240	0xbca0f46a	-0.019647796
241	0xbdd652a6	-0.10464983
242	0xbdd29436	-0.10282175
243	0x3e0f23bf	0.1397848
244	0xbcdfd92a	-0.027325232
245	0x3dae5d8b	0.08513936
246	0x3e22557b	0.1585292
247	0x3dafb23c	0.085789174
248	0x3cbcdaa0	0.023053467
249	0x3b2e5106	0.0026598587
250	0x3d7a021e	0.061037175
251	0x3e4415e1	0.19148971
252	0x3e120f6d	0.14263697
253	0xbbacba43	-0.0052712276
254	0x3ded1d64	0.115778714
255	0xbdfc70df	-0.12326216

layers.1.bias f4 [100]
0	0xbc5abb29	-0.0133502865
1	0xbc561a0e	-0.013067735
2	0xbc2cec4d	-0.010554385
3	0xb912abd3	-0.00013987655
4	0xbc4c78ee	-0.012480004
5	0x3c2a47de	0.010393111
6	0xbc0afcfc	-0.008483168
7	0x3be1548f	0.0068765352
8	0xbc5a76ee	-0.013334019
9	0xbc476414	-0.012169857
10	0x3c9209fb	0.017827025
11	0x3be66014	0.0070304964
12	0x3c4becf1	0.012446628
13	0xbc3dfb2a	-0.011595527
14	0x3c7066c9	0.014672943
15	0xbc86c006	-0.016448986
16	0x3be0e6ba	0.0068634422
17	0xbbedd68a	-0.007258241
18	0xbc773b6a	-0.015089849
19	0xbc5f9d4d	-0.013648343
20	0x3ca2e6be	0.019885417
21	0x3c17e03d	0.009269771
22	0x3c422f0e	0.011852039
23	0x3bf29075	0.0074024745
24	0x3c5b17a3	0.013372335
25	0xbc1d1fcd	-0.009590101
26	0xbc905ab5	-0.017621377
27	0xbc460c8c	-0.012087952
28	0xbc330722	-0.010926994
29	0x3c56565a	0.013082111
30	0xbc5ada7a	-0.013357753
31	0x3c5e89c5	0.0135826515
32	0x3c563518	0.013074182
33	0xbc4573e4	-0.012051556
34	0xbc50b395	-0.012738128
35	0x3c05e35c	0.0081718825
36	0xbcde8b91	-0.02716616
37	0xbc5371fb	-0.012905593
38	0x3b12eb8b	0.0022418227
39	0x3c192fa1	0.0093497345
40	0x3c48b7b5	0.01225083
41	0xbbb94f63	-0.0056552156
42	0x3c195f3c	0.009361085
43	0xbc67c733	-0.014146614
44	0x3c649273	0.013950932
45	0xbc44f0dc	-0.012020316
46	0xbc5ad5e0	-0.013356656
47	0x3cb838ca	0.022488017
48	0xbb2e39b4	-0.0026584687
49	0x3c3ccd5c	0.011523571
50	0x3c721f7a	0.014778012
51	0xbc0c7878	-0.008573644
52	0xbc247f2c	-0.010040086
53	0x3bde44a2	0.006783084
54	0xbc706494	-0.014672417
55	0xbc5742d1	-0.013138489
56	0x3cef8a1e	0.029240664
57	0xbb98672b	-0.0046509705
58	0xbc9d5b46	-0.019208562
59	0x3c7d1f1e	0.015449313
60	0x3c95f019	0.018302964
61	0x3cb3ce8a	0.021949071
62	0xbbe9b12f	-0.0071317176
63	0x3c4f0921	0.012636454
64	0x3c15abcc	0.009135198
65	0x3c30110e	0.010746254
66	0xbbd4de6e	-0.0064962422
67	0x3c759e97	0.014991424
68	0x3ceb000b	0.028686544
69	0x3c6ac086	0.014328128
70	0xbc6c8f30	-0.014438435
71	0x3c3f2173	0.01166569
72	0xbc547794	-0.012967963
73	0xbc59f472	-0.013302909
74	0x3c7bd4be	0.015370546
75	0xbc8eabc9	-0.017415898
76	0xbc67e5f0	-0.0141539425
77	0xbc054277	-0.008133522
78	0x3c283189	0.010265716
79	0xbbfbbc2b	-0.0076823435
80	0x3beaea90	0.0071690753
81	0xbccb7e99	-0.02484064
82	0x3c7d962a	0.015477696
83	0xbc5ad473	-0.013356316
84	0xbc44d2ff	-0.012013196
85	0xbc5f1611	-0.013616101
86	0x3c207f9c	0.009796049
87	0xbc08c596	-0.008347889
88	0xbc50b150	-0.012737587
89	0x3b38f661	0.0028223025
90	0xbc6684d5	-0.014069756
91	0xbc53cb6b	-0.012926917
92	0x3c5feb3a	0.013666922
93	0x3c9b3b49	0.018949168
94	0xbc1b2f72	-0.009471761
95	0x3c673ae7	0.0141131645
96	0xbc41e3bd	-0.011834082
97	0x3c428c4d	0.011874271
98	0x3c2eed89	0.01067675
99	0xbc25ca1c	-0.010118987

layers.2.weight f4 [100, 100]
0	0x3d8c5169	0.06851465
1	0x3a4c6609	0.0007797187
2	0x3b17cf1c	0.0023164218
3	0x3de5718d	0.11203299
4	0x3dd49910	0.10380757
5	0x3b42c396	0.002971863
6	0x3c57706f	0.013149365
7	0xbd708d49	-0.05872849
8	0xbda77b35	-0.08177797
9	0x3d902cab	0.0703977
10	0xbd8b4a71	-0.06801308
11	0xbc84386d	-0.016140187
12	0xbd5cd065	-0.053909678
13	0xbe295617	-0.16536747
14	0xbd1ead88	-0.03873971
15	0x3e376f94	0.17913657
16	0xbdb930a1	-0.09042478
17	0x3e20de98	0.15709913
18	0x3afd6c41	0.001933463
19	0xbd7122a3	-0.058870923
20	0xbe184136	-0.14868626
21	0xbda9feb2	-0.083005324
22	0xbe4246df	-0.18972348
23	0xbb9bef1d	-0.004758729
24	0xbde5935b	-0.112097465
25	0x3e4e3c6e	0.2014024
26	0x3d9ad19f	0.07559513
27	0x3d02abfd	0.031902302
28	0xbc9e52b0	-0.019326538
29	0xbd7a52ca	-0.06111411
30	0x3d9ae8dc	0.07563946
31	0x3b3df7d1	0.0028986821
32	0x3e01f4be	0.12691018
33	0x3db7b49e	0.08969997
34	0x3cb50695	0.022097865
35	0x3da53585	0.08066849
36	0xbcbd95d6	-0.023142736
37	0x3e281a59	0.16416301
38	0x3dca1dc0	0.098689556
39	0xbd2c4270	-0.042055547
40	0xbac11239	-0.0014730162
41	0xbb8e0d07	-0.004335049
42	0xbd2c408b	-0.04205374
43	0xbe8c4a32	-0.27400357
44	0xbd0dc4b6	-0.034611426
45	0xbc90351e	-0.017603453
46	0x3e5ed9e8	0.21762812
47	0x3d49b7ea	0.04924766
48	0x3d85d59b	0.06534883
49	0x3e2396a7	0.15975438
50	0x3e973531	0.2953277
51	0x3e984890	0.2974286
52	0xbd86219b	-0.065493785
53	0x3dd0c89c	0.10194513
54	0xbdf4acd3	-0.11947026
55	0x3d9051ea	0.07046874
56	0xbd1eb697	-0.03874835
57	0xbde7a0e8	-0.11309987
58	0xbe6636dd	-0.22481866
59	0xbe12e53d	-0.1434526
60	0xbb11cdf5	-0.0022248004
61	0xbdf68c56	-0.12038486
62	0x3d04e983	0.032449257
63	0x3d115a26	0.035486363
64	0x3cd1b2f6	0.02559803
65	0x3cae9698	0.021312043
66	0x3c573c54	0.013136942
67	0xbd8c5eb6	-0.06854002
68	0xbe894635	-0.26811376
69	0x3e053c75	0.13011344
70	0x3e0479d6	0.12937102
71	0xbdc614bd	-0.09671924
72	0xbbb6461f	-0.0055625583
73	0xbe0e43b9	-0.13893022
74	0x3e26b262	0.16278985
75	0x3d8c1606	0.06840138
76	0x3cb07636	0.021540742
77	0xbd05c815	-0.032661516
78	0x3d1319d2	0.035913296
79	0x3d538228	0.0516378
80	0x3c893788	0.016750112
81	0x3d96819c	0.0734894
82	0xbd14c843	-0.036323797
83	0x3b422d46	0.0029629036
84	0x3d88cccc	0.06679687
85	0xbc756465	-0.014977549
86	0x3d95ae12	0.07308592
87	0xbe064e80	-0.13115883
88	0xbc9358ad	-0.01798662
89	0x3dd969bd	0.10615871
90	0x3d4b07a5	0.049567837
91	0x3be3c07d	0.0069504366
92	0xbcda7c34	-0.026670553
93	0x3d53d1b3	0.051713657
94	0x3d20d7d0	0.039268315
95	0x3d611e83	0.05496074
96	0x3de3cf6e	0.111235484
97	0xbc26d0ea	-0.010181645
98	0x3dbb0f1a	0.0913374
99	0xbc844f6d	-0.016151154
100	0xbd0f6417	-0.035007562
101	0x3cbb80b8	0.022888526
102	0x3e4eda9b	0.20200579
103	0x3cb1be17	0.021697087
104	0x3da8f578	0.082499444
105	0x3e54b908	0.20773709
106	0xbb0ceb35	-0.00215025
107	0x3d6dc244	0.058046594
108	0xbda06da7	-0.078334145
109	0x3ddc069d	0.10743449
110	0xbd8995e0	-0.067180395
111	0xbdb33d1d	-0.08751891
112	0xbd7da4e3	-0.061924826
113	0xbbf352c7	-0.0074256393
114	0xbcab6976	-0.020924311
115	0xbda488fe	-0.08033942
116	0xbd8fbd7a	-0.07018562
117	0xbdb79401	-0.089637764
118	0x3e12f35b	0.14350645
119	0x3dac8c4e	0.084251985
120	0xbc4e817a	-0.012604112
121	0x3e54ce3d	0.20781799
122	0xbda1b148	-0.07895142
123	0xbe003843	-0.12521462
124	0xbc01489e	-0.007890848
125	0xbd6a699a	-0.057229616
126	0x3d8c710a	0.06857498
127	0x3d0f4abe	0.03498339
128	0x3cb66818	0.022266433
129	0x3d2d440e	0.04230123
130	0x3df92a7f	0.121663086
131	0xbdda059b	-0.106456004
132	0x3dd7ace1	0.10531021
133	0x384f3657	4.9403254e-05
134	0x3e2745ec	0.16335267
135	0xbdc1cc47	-0.09462791
136	0xbd9d8011	-0.07690442
137	0xbd86f256	-0.06589191
138	0x3d7afa4a	0.06127385
139	0xbda9d06a	-0.08291705
140	0x3ccafecc	0.0247797
141	0x3daf1214	0.0854837
142	0xbd4a1617	-0.049337473
143	0x3d039473	0.032123994
144	0xbd7b31f8	-0.06132695
145	0xbdd0319d	-0.10165713
146	0xbcc9fb65	-0.024656007
147	0x3e1608c9	0.14651789
148	0xbd158e4f	-0.03651267
149	0xbd8dc3e5	-0.069221295
150	0xbd9abb68	-0.07555276
151	0x3cfa7041	0.030571105
152	0xbe0604c4	-0.13087755
153	0xbd859b7a	-0.065237954
154	0xbd64a2b3	-0.055819225
155	0xbdcd4a84	-0.10023978
156	0xbc53441a	-0.012894655
157	0x3bd6b386	0.0065521626
158	0xbe310689	-0.17287649
159	0xbdddfe87	-0.10839563
160	0x3cc88e61	0.024481954
161	0xbd2009fd	-0.039072026
162	0x3e7b756d	0.24556513
163	0x3d54a458	0.051914543
164	0xbdb40ca1	-0.08791471
165	0xbd106c35	-0.035259444
166	0x3df6b962	0.12047078
167	0xbe0e758e	-0.13912031
168	0x3d93ba5c	0.072132796
169	0x3dd31efd	0.10308645
170	0xbd4ef44c	-0.05052595
171	0x3caaf40d	0.020868326
172	0x3bea117a	0.0071431966
173	0x3d2539b9	0.04033825
174	0xbddb6fb4	-0.10714665
175	0xbc61001f	-0.013732939
176	0xbd4a6eae	-0.04942196
177	0xbe25df4c	-0.16198462
178	0x3d457485	0.048206825
179	0x3ac2f8ae	0.0014875138
180	0x3d9b71f0	0.07590091
181	0xbb45f3ed	-0.0030205206
182	0xbdcaf629	-0.099102326
183	0xbd0ba8e0	-0.0340966
184	0xbd491c2b	-0.04909913
185	0x3d81656e	0.06318174
186	0xbcd327a2	-0.025775734
187	0x3d671af1	0.056422178
188	0xbe25a3cf	-0.1617577
189	0xbdaf55a2	-0.08561255
190	0xbe2fc625	-0.1716543
191	0x3dc579a3	0.09642341
192	0x3d714495	0.058903296
193	0x3da5e319	0.08099956
194	0xbdc6e688	-0.09711939
195	0x3d8de3cc	0.069282144
196	0x3cc971c2	0.024590377
197	0x3ce5ca7c	0.028050654
198	0xbd3a1146	-0.04542663
199	0x3d7819fd	0.06057166
200	0xbe196aeb	-0.14982192
201	0x3e795224	0.2434774
202	0xbc4315f4	-0.0119070895
203	0xbd0f4709	-0.034979854
204	0x3e0838d6	0.13302931
205	0xbba93dba	-0.005164829
206	0xbd3059bd	-0.04305433
207	0xbd340792	-0.043952532
208	0x3de9f1fd	0.11423109
209	0xbd4e8dc3	-0.050428163
210	0xbe10055c	-0.14064544
211	0xbc868fbc	-0.01642596
212	0x3d9b9f50	0.07598746
213	0x3e1d4326	0.15357646
214	0xbc41e411	-0.01183416
215	0xbdf76ceb	-0.12081321
216	0x3d999bea	0.07500441
217	0xbd1556a7	-0.03645959
218	0x3bb16835	0.005414034
219	0xbcc60c86	-0.024175894
220	0xbd33ab40	-0.04386449
221	0xbc1d57e5	-0.009603475
222	0xbd9450fc	-0.07242009
223	0x3dbbcf30	0.09170377
224	0xbe2f5c7b	-0.17125122
225	0x3e4ee8b3	0.20205955
226	0xbbcea271	-0.0063059856
227	0x3de02233	0.10944023
228	0xbc8760f9	-0.016525732
229	0x3e79da4a	0.24399677
230	0xbadab33a	-0.0016685494
231	0xbd8082a0	-0.06274915
232	0x3a028262	0.0004978535
233	0x3d6d9131	0.057999793
234	0xbda823d8	-0.08209962
235	0x3b044a71	0.0020185972
236	0xbd73b93a	-0.059502818
237	0xbe958f60	-0.2921095
238	0xbda2bc92	-0.07946123
239	0x3d293993	0.041314673
240	0xbc10442c	-0.008805316
241	0x3e28ddf2	0.16490915
242	0x3d2fab4a	0.042887963
243	0x3e2efe90	0.17089295
244	0x3c2a3bfd	0.010390279
245	0x3d9f05d4	0.077647835
246	0xbd9360f2	-0.07196225
247	0x3d13a682	0.036047466
248	0x3dd5b6d8	0.10435265
249	0x3da7b32c	0.08188471
250	0xbdd0efed	-0.10202012
251	0xbddb1389	-0.106970854
252	0xbdaf53dc	-0.08560917
253	0xbd605935	-0.054772574
254	0x3e0e566e	0.13900158
255	0x3e327af7	0.1742972

layers.2.bias f4 [100]
0	0xbc47734d	-0.012173486
1	0xbc092a2c	-0.008371871
2	0xbc191bb3	-0.009344983
3	0x3c10752a	0.008816997
4	0x3c2030c9	0.009777256
5	0xbc245cbc	-0.010031875
6	0xbc2ba9c2	-0.010477485
7	0xbbf54973	-0.0074855625
8	0x3c8bcdc4	0.01706589
9	0xbc280e6f	-0.0102573475
10	0x3c6af9a6	0.014341747
11	0x3c09881f	0.00839427
12	0xbc153b51	-0.00910838
13	0x3c078f7d	0.008273956
14	0x3c67a476	0.014138332
15	0x3c9e8459	0.019350218
16	0x3b0d5a55	0.0021568735
17	0xbc22c5a9	-0.009934821
18	0xbbf8d931	-0.0075942506
19	0x3c1ba1ac	0.009498995
20	0xbbe76030	-0.007061027
21	0xbc3a171d	-0.01135805
22	0xbc2f07a2	-0.010682972
23	0xbc7e416e	-0.015518529
24	0xbbef6a7b	-0.0073063946
25	0x3c8e9c52	0.017408524
26	0x3c0eceb9	0.008716279
27	0xbc488032	-0.012237595
28	0xbc356bc8	-0.01107306
29	0xbc366ab8	-0.011133842
30	0xbba87a41	-0.005141527
31	0x3bb4ca96	0.005517314
32	0x3bc9811e	0.006149425
33	0x3c818ba5	0.015813658
34	0xbc1997d1	-0.009374575
35	0x3c11d433	0.00890069
36	0x3c3c0977	0.011476866
37	0xbb894d32	-0.0041901106
38	0x3c15022c	0.009094756
39	0xbc276a9a	-0.010218287
40	0xbc561359	-0.013066136
41	0x3b01043b	0.001968636
42	0x3ca9b2cb	0.020715138
43	0x3b33a384	0.0027410695
44	0x3c1da397	0.009621522
45	0x3c6651a0	0.014057547
46	0x3c1a65e6	0.009423709
47	0xbc3d43a6	-0.011551773
48	0x3c1eb9ee	0.009687884
49	0x3c8018fb	0.015636912
50	0xbc94b7e9	-0.018154101
51	0x3c2b8d3e	0.0104706865
52	0x3c3ff6ed	0.011716587
53	0xbc3b52c0	-0.011433303
54	0xbc1bcbbd	-0.009509024
55	0xbbfd2a95	-0.0077260234
56	0xbbf19d82	-0.0073735127
57	0xbbeae0ec	-0.007167926
58	0xbbfffe91	-0.007812329
59	0x3c639d94	0.01389255
60	0xbc3089be	-0.010775028
61	0xbc5f4d21	-0.013629229
62	0x3c331f86	0.010932809
63	0x3c315756	0.010824045
64	0x3c2b389d	0.010450509
65	0xbc078549	-0.008271524
66	0xbbc8faba	-0.0061334046
67	0xbbe2d88b	-0.0069227866
68	0x3ce2629a	0.027634908
69	0x3c2f7301	0.010708571
70	0xbc0a3d76	-0.008437505
71	0x3c84f0be	0.016228076
72	0xbc26f22d	-0.010189575
73	0xbc6a23e9	-0.014290788
74	0xbb86f8c1	-0.0041190092
75	0xbc746ff6	-0.014919272
76	0xbb511ba8	-0.0031907354
77	0x3beced6b	0.007230451
78	0x3cad4995	0.02115325
79	0x3c6bc63f	0.014390527
80	0x3c6d404c	0.014480662
81	0x3c821b7b	0.015882244
82	0x3c5e9f6e	0.013587816
83	0xbc0a4c1f	-0.008441
84	0x3c289576	0.0102895405
85	0x3c2f65d1	0.010705427
86	0xbc2a74b3	-0.0104038
87	0x3c3149ac	0.010820787
88	0x3be17eb6	0.00688156
89	0x3c64f657	0.013974748
90	0x3c365e26	0.011130845
91	0xbca9f6c1	-0.020747544
92	0xbc81b9dc	-0.015835695
93	0xbc04a6c0	-0.008096397
94	0xbc42e8fe	-0.01189637
95	0x3c215598	0.009847067
96	0x3a8961be	0.00104814
97	0x3ae0c89b	0.0017149629
98	0xbc2bb24a	-0.010479519
99	0xbbf8cd43	-0.0075928285

layers.3.weight f4 [100, 100]
0	0x3c4175b9	0.011807852
1	0x3e109840	0.14120579
2	0xbc8ad420	-0.016946852
3	0xbe01a5ef	-0.12660955
4	0x3e3812ab	0.17975871
5	0x3d93f5db	0.072246276
6	0xbdb3c69f	-0.08778118
7	0xbd93f9da	-0.0722539
8	0x3da993ce	0.08280145
9	0x3d881f20	0.066465616
10	0xbcdcc17d	-0.026947731
11	0xbe321484	-0.17390639
12	0xba8084c6	-0.0009805195
13	0x3c47f601	0.012204648
14	0x3c221efd	0.0098950835
15	0x3cad5de1	0.021162929
16	0x3d9d8e12	0.076931134
17	0xbe68f04f	-0.2274792
18	0xbc66d820	-0.014089614
19	0x3d8f2bd9	0.06990785
20	0x3db8acaa	0.09017308
21	0xbd0d38ca	-0.034477986
22	0x3ad4f410	0.0016247053
23	0xbde42844	-0.111404926
24	0xbd820937	-0.06349414
25	0x3e226290	0.15857911
26	0x3d95d63b	0.07316252
27	0x3d3544ce	0.04425507
28	0x3d64a821	0.055824403
29	0x3d96e5d5	0.07368056
30	0xbdfbe525	-0.12299565
31	0x3c007b4f	0.007841899
32	0xbd8fccee	-0.07021509
33	0xbd67f3fd	-0.05662917
34	0xbde54188	-0.1119414
35	0xbd07242b	-0.032993477
36	0x3de77ddc	0.11303303
37	0x3e069a25	0.13144739
38	0x3d8ca85e	0.06868051
39	0xbde5bcfd	-0.11217687
40	0xbdb22b84	-0.08699706
41	0x3e28af9f	0.16473244
42	0xbdedd0c5	-0.11612085
43	0x3d9d197b	0.07670876
44	0xbd125600	-0.035726547
45	0x3d235d77	0.039884057
46	0xbc538269	-0.01290951
47	0x3c00b0e2	0.007854672
48	0x3ccb1d72	0.024794314
49	0xbd8b93ef	-0.068153255
50	0x3e1aa3eb	0.15101592
51	0xbd8f15d7	-0.069865875
52	0x3d60d0ab	0.0548865
53	0xbdf5cbcf	-0.12001764
54	0xbddbd3a0	-0.10733724
55	0x3d39b430	0.045337856
56	0xbe1edbea	-0.15513578
57	0xbd31fcba	-0.04345391
58	0xbe21c271	-0.1579683
59	0xbd8660f8	-0.06561464
60	0xbd214c4b	-0.0393794
61	0x3e14e9c3	0.14542298
62	0xbcb8ee39	-0.02257453
63	0x3dcc52b9	0.099767156
64	0x3e3a97e9	0.18222012
65	0xbc095c38	-0.008383803
66	0xbd13d279	-0.036089394
67	0x3d36fd7b	0.04467533
68	0x3cdafdd1	0.026732357
69	0xbd595e15	-0.05306824
70	0x3d6e7c98	0.05822429
71	0x3e807f22	0.25096995
72	0x3e0e102b	0.13873355
73	0xbc7d38e5	-0.015455459
74	0xbcc0e9c2	-0.023548964
75	0x3ddb392b	0.10704263
76	0xbb09960c	-0.0020993976
77	0xbdcaca8d	-0.09901915
78	0xbd35033e	-0.044192545
79	0x3ddad59d	0.10685275
80	0xbd3b03db	-0.045657974
81	0xbe452278	-0.1925143
82	0xbd1f865b	-0.03894649
83	0x3c565427	0.013081587
84	0x3e1270b3	0.14300804
85	0xbe560855	-0.20901616
86	0x3dcf392e	0.10118328
87	0xbe337b2d	-0.17527457
88	0x3c60c341	0.013718427
89	0x3cd00e03	0.025397306
90	0x3dbeead0	0.09322131
91	0x3cdc3625	0.026881287
92	0x3d74f5c9	0.05980471
93	0xbc6b1e0a	-0.014350424
94	0x3cf8b814	0.030361213
95	0xbdbf2610	-0.09333432
96	0xbdb4a01f	-0.08819603
97	0xbd5d6689	-0.054052863
98	0x3de0e204	0.10980609
99	0x3ce4a8f3	0.027912593
100	0x3d780460	0.060551047
101	0x3e2c8281	0.16846658
102	0xbd97edc4	-0.07418397
103	0xbdfb182f	-0.12260472
104	0xbcf09a1e	-0.029370364
105	0xbd0268e4	-0.031838313
106	0xbc2b9c75	-0.010474314
107	0xbd4205a0	-0.047368646
108	0xbc0f0ab7	-0.008730582
109	0xbd5fd7fa	-0.05464933
110	0xbd95fc53	-0.07323518
111	0xbd7ae1af	-0.061250385
112	0x3d9808a3	0.07423522
113	0xbdad5aa5	-0.08464555
114	0x3c65665a	0.014001453
115	0xbce58e0c	-0.028021835
116	0xbccb6a79	-0.024831044
117	0x3d0b6797	0.034034338
118	0xbe2e4078	-0.1701678
119	0x3d9fcfdd	0.07803319
120	0xbddf06bb	-0.108899556
121	0x3c44327e	0.011974929
122	0xbdd78ff5	-0.105255045
123	0x3df3df3d	0.11907814
124	0x3d4af00b	0.04954533
125	0x3db9449b	0.090462886
126	0x3c5e21de	0.013557879
127	0x3db16bd3	0.08663144
128	0xbd5096e8	-0.050925165
129	0x3d732bbe	0.059367888
130	0xbd5e273a	-0.054236628
131	0x3cf0765d	0.029353315
132	0xbd1ca173	-0.038239907
133	0x3d15e3be	0.036594145
134	0xbc86d911	-0.016460927
135	0xbd036a06	-0.032083534
136	0xbe5f876c	-0.21829003
137	0x3ca6cdfa	0.02036189
138	0x3c8802bf	0.016602872
139	0xbdc8cca0	-0.09804654
140	0x3e058f91	0.13043047
141	0x3d6d5aaf	0.05794781
142	0x3d5b8426	0.053592823
143	0xbcf9bdf2	-0.03048608
144	0xbd68bf96	-0.056823336
145	0xbd7252d4	-0.059161022
146	0xbd919047	-0.07107597
147	0x3e170bf5	0.14750655
148	0x3affc908	0.0019514868
149	0x3d8c0064	0.06836012
150	0xbd641488	-0.055683643
151	0x3d5d491f	0.05402481
152	0x3ba7a3e8	0.0051159747
153	0xbdf5339b	-0.119727336
154	0xbe358838	-0.17727745
155	0x3d2d4a01	0.042306904
156	0x3dc88bb5	0.09792272
157	0xbe47b43e	-0.1950235
158	0x3da83b43	0.08214428
159	0xbd5aa5c7	-0.053380754
160	0xbc96a167	-0.01838751
161	0xbe6b4e5f	-0.22979115
162	0xba0beae5	-0.0005337431
163	0xbd9a41c5	-0.07532076
164	0xbea155ce	-0.31510776
165	0xbdf87a76	-0.121327326
166	0xbd0f6b58	-0.03501448
167	0x3ce66e98	0.028128907
168	0xbcbe4725	-0.023227284
169	0x3dbbe7cf	0.09175073
170	0x3db4f9dc	0.088367194
171	0xbaed7500	-0.0018116534
172	0xbcaa751b	-0.020807793
173	0xbe2629fe	-0.16226956
174	0xbd57c2ed	-0.05267613
175	0x3e2d5c22	0.16929677
176	0x3cdca389	0.026933448
177	0x3bacae34	0.00526979
178	0x3dafd906	0.08586316
179	0xbe2ba363	-0.16761546
180	0xbd8b0484	-0.06787971
181	0x3df66d09	0.120325156
182	0xbda5fc74	-0.08104792
183	0x3e19c403	0.15016179
184	0xbdff9c14	-0.124809414
185	0xbd24a113	-0.040192675
186	0xbddfbbb0	-0.109244704
187	0x3e4bc5fc	0.19899744
188	0xbd743c9b	-0.05962811
189	0x3e2a33db	0.16621344
190	0xbddec7bc	-0.1087794
191	0x3ceeb7b7	0.029140336
192	0x3e1e5755	0.15463002
193	0x3d96e3d7	0.07367676
194	0xbdb63ff7	-0.08898919
195	0xbd10c069	-0.035339747
196	0xbde93a30	-0.113880515
197	0xbd7dc1d1	-0.061952416
198	0xbe5a0427	-0.21290646
199	0xbda307ba	-0.07960458
200	0x3e0c3280	0.13691139
201	0xbe269176	-0.16266426
202	0x3b2d02e7	0.0026399435
203	0xbe7d4362	-0.24732736
204	0x3d7a2e37	0.06107923
205	0xbcd4c479	-0.025972592
206	0x3d1daed6	0.038496815
207	0xbdf6913e	-0.120394215
208	0x3dbedc14	0.0931932
209	0x3db4b495	0.08823506
210	0x3d21481b	0.039375406
211	0x3deb2b36	0.11482851
212	0xbdd9e5e7	-0.106395535
213	0x3e1a9857	0.15097176
214	0x3e3c518a	0.1839048
215	0x3e005f46	0.12536344
216	0x3d71dc03	0.05904771
217	0xbe2fbc54	-0.17161685
218	0xbd3d8c30	-0.04627627
219	0x3d906c75	0.070519365
220	0x3dae2ea8	0.08504993
221	0x3e10fc65	0.14158781
222	0xbdf567d7	-0.119826965
223	0xbdcc57e3	-0.099777006
224	0xbdf275a4	-0.118388444
225	0xbdf34f60	-0.11880374
226	0xbdf05444	-0.117348224
227	0x3c22f1da	0.009945357
228	0xbe27e5e8	-0.16396296
229	0xbe1a78b2	-0.15085104
230	0x3dce153d	0.10062645
231	0x3e2026c7	0.15639792
232	0xbc1ebd70	-0.00968872
233	0xbda738e5	-0.08165149
234	0xbcb26be9	-0.021779971
235	0xbe08ecbe	-0.1337156
236	0xbde4a39a	-0.11164017
237	0x3d3a93bf	0.045551058
238	0xbe5d9a4e	-0.21640894
239	0x3d2e4c6e	0.042553358
240	0x3d9210df	0.07132124
241	0x3d4694fd	0.04848193
242	0xbdb5b943	-0.088732265
243	0x3e2d49be	0.16922662
244	0x3daee3f1	0.0853957
245	0xbd729396	-0.05922278
246	0x3d136862	0.03598822
247	0xbe29e511	-0.16591288
248	0xbdfd8586	-0.12378983
249	0xbe027f03	-0.12743764
250	0xbda88dd2	-0.08230175
251	0xbc0b0fc1	-0.008487643
252	0xbd8936c5	-0.066998996
253	0xbdfcb733	-0.1233963
254	0xbd6a844e	-0.05725508
255	0xbde343ae	-0.11096893
