main/continuous_time_inference (Schrodinger)/models_iters/pt_model_Schrodinger_2100.pt (torch, 209136 bytes, 14 tensors)

linear_in.weight f4 [100, 2]
000000 b5 2a 2b 3e 0d f2 d8 3d 52 7d 4f bd 7a cd f9 bd
       0.1671551 0.105930425 -0.050656624 -0.12197395
000010 f6 58 2a 3c 21 d7 89 3d 31 9d 12 bb e0 2b 17 3e
       0.0103971865 0.06730486 -0.0022371525 0.1476283
000020 ca 59 1c 3e 68 70 dc 3c 9c 8d be bd 88 af 32 3e
       0.15268627 0.026909068 -0.093043536 0.17449772
000030 51 a7 c7 3d cc 6a 43 bb d2 71 97 be 57 95 f6 bd
       0.0974871 -0.0029818295 -0.29579026 -0.12040203
000040 dc 6d 91 bd de 96 2b 3e 9b 00 c0 bd 16 45 22 3e
       -0.07101032 0.1675677 -0.093751155 0.15846667
000050 45 60 00 be 92 39 ef 3d 9a 58 22 bd 47 ff 42 3e
       -0.12536724 0.116809025 -0.03963528 0.19042693
000060 8b d8 2d be bb 0d 09 3c 01 60 78 bb 10 aa 34 be
       -0.16977136 0.00836509 -0.003789902 -0.17642999
000070 7d 25 b9 3c 29 d0 ae bd 90 f9 2d 3e e6 f7 56 3e
       0.022600884 -0.08535797 0.16989732 0.20993003
000080 b3 2c 6c 3e 0e c9 3e bc 4d b5 81 3e ae ae 1e bd
       0.23063926 -0.011644615 0.25333634 -0.038740806
000090 33 0c 92 bd e6 25 4c bd b8 e6 cf 3d 3c 79 a3 bb
       -0.07131233 -0.04984083 0.10151428 -0.0049888175
0000a0 3c 15 85 be 0b 96 e4 bd 4d e1 04 be 04 fd 93 3e
       -0.25992763 -0.11161431 -0.1297657 0.28903973
0000b0 fa 9a 43 bd 63 f5 49 bc ea 93 e8 3d 5f b9 c3 3d
       -0.04775522 -0.012326571 0.11356337 0.09556841
0000c0 a8 f9 bb 3d 23 10 8e bd e4 9f 3a be bc 98 dd 3a
       0.091784775 -0.069366716 -0.18225056 0.001690648
0000d0 28 a4 25 3e c7 fe 08 be e4 b9 9b 3d 49 23 91 bd
       0.16175902 -0.1337844 0.07603815 -0.07086808
0000e0 70 f2 53 3e 09 60 20 3e 33 fd 90 be f1 ba 1c 3e
       0.20697951 0.15661635 -0.28318176 0.15305687
0000f0 66 0a f6 3d bc 1b 26 3e 41 ae 1a 3d 15 9a e8 ba
       0.12013702 0.16221517 0.037763838 -0.0017746115
000100 52 5f f4 3c fd 1b bb 3d 69 42 83 3d 74 78 b6 3c
       0.029830609 0.09136198 0.06409151 0.022274233
000110 81 39 8d 3e c1 e2 96 be 17 3b 4b bc d6 ed 59 3d
       0.27582934 -0.29469875 -0.012404225 0.053205334
000120 ac 7a 88 3c 25 23 10 3e 57 58 c5 3c 95 34 2b 3d
       0.016660057 0.14075907 0.024089975 0.041798193
000130 9a 7c ec bc 42 f8 96 be 65 9c a3 bd 89 35 3c 3e
       -0.028868008 -0.2948628 -0.07988814 0.18379797
000140 bd 62 46 3e 77 b2 32 be 6d 1e 1c be bd aa c6 3d
       0.19373603 -0.17450891 -0.15245982 0.097005345
000150 6c 61 ca bd 6c 0a 29 be ec 6e 7c be 69 95 dd 3d
       -0.09881863 -0.16507882 -0.24651688 0.10819513
000160 01 a7 e0 bd f7 a4 e6 bd 0c c3 08 be e4 3a 0f be
       -0.109693535 -0.11261933 -0.13355654 -0.13987309
000170 9d 0b 32 3d 0b db 0f be 03 2a 2e 3e fb aa c1 3d
       0.043468107 -0.14048402 0.17008214 0.0945644
000180 9b 08 2f be 86 15 a9 bd 4e 71 b9 bd c7 e2 2c be
       -0.17093126 -0.082560584 -0.09054814 -0.16883384
000190 79 5a f6 3d 62 a5 f0 bd b6 f4 ec bc c7 49 b1 3d
       0.12028975 -0.11750294 -0.028925281 0.0865665
0001a0 6a 43 cb bc 90 e6 39 be fd af 15 3e 82 0d dd bd
       -0.024812419 -0.18154359 0.14617915 -0.10793592
0001b0 c8 0d 94 3d 5d a0 8f be c1 64 39 3d 66 53 09 be
       0.07229191 -0.28052035 0.045262102 -0.1341072
0001c0 92 8b a9 3e b8 3e a4 be 48 b3 b8 bd ee c3 ca 3d
       0.33114296 -0.320791 -0.0901857 0.09900652
0001d0 9a 36 6c bb 58 ba 8f 3d ca 9f 3e be 5b 4f 5b 3d
       -0.0036043287 0.07017964 -0.18615642 0.053542476
0001e0 6b 91 68 3d 21 de 91 bd ca ba 0d bd 42 38 58 3e
       0.056779306 -0.07122446 -0.034601964 0.2111521
0001f0 6f f9 e3 bd f6 e2 2e be 86 a1 d9 3d 9a be a3 3c
       -0.1113156 -0.17078766 0.10626511 0.019988347
000200 6d aa 93 3c 5a 80 da 3d 14 24 2a be d4 14 2b bc
       0.018025601 0.10669012 -0.16615325 -0.0104419775
000210 05 e2 e5 bd bb e2 4c 3e eb 07 8b 3d d5 3a bb 3c
       -0.112247504 0.20008366 0.067886196 0.022855202
000220 a9 2f 49 3e 8f ef 3a 3c 0d f7 72 3b 71 1b 0c 3e
       0.19647087 0.011409654 0.0037073523 0.13682343
000230 fb 49 59 3e 9f 95 3a 3d 58 6f 33 bd 90 8a 29 3d
       0.21219628 0.045552846 -0.043807358 0.04139191
000240 34 37 b7 3b 89 fe 8f be b2 aa ae bc bf 2b ac bc
       0.0055912975 -0.28123882 -0.021321628 -0.021016954
000250 5f 3f 6c be 0e 4d b5 bd 8d 9e cc 3d fc 07 16 3d
       -0.23071049 -0.08852588 0.09991179 0.03662871
000260 39 87 00 be de 12 7a bd 13 45 14 3e 34 b4 10 3e
       -0.12551583 -0.06105315 0.14479475 0.14131242
000270 50 93 01 bd 6d b1 d0 3d 66 16 84 be 9e c8 29 be
       -0.03163463 0.10190091 -0.2579834 -0.16580436
000280 23 2d ae 3d 02 e1 d3 bd 09 2e 91 3d 58 da 32 3c
       0.08504703 -0.10345651 0.07088859 0.010916315
000290 87 8f bf ba 69 e8 9b 3d 8c a7 52 3c f3 eb 09 3e
       -0.0014614918 0.07612688 0.012857329 0.13468914
0002a0 bf 9a 66 3d 64 27 80 3c c4 27 01 3e 34 a3 96 3e
       0.05629992 0.015643783 0.12612826 0.2942139
0002b0 35 66 28 be b5 8b 8e 3e 30 9e 4f 3e c6 df c3 bd
       -0.16445239 0.27840963 0.20275187 -0.09564166
0002c0 a1 60 e5 bd 6b 14 7e 3d 52 a3 80 3d 9c 17 28 be
       -0.11200071 0.06203119 0.06281151 -0.16415256
0002d0 bf 90 50 3d 29 96 79 3b 90 e9 ad bc 52 3f 29 3e
       0.05091929 0.0038083887 -0.021229535 0.16528061
0002e0 33 33 98 3e 52 4a a9 bd d8 db af bd a6 93 bd 3d
       0.29726562 -0.082661286 -0.08586854 0.09256677
0002f0 44 2c a8 bb d1 82 ad 3c 83 1b a6 bd 94 da 85 3e
       -0.00513223 0.021180542 -0.08110716 0.26143324
000300 7c 7b d2 3d bd 9f 1d 3b f8 a3 ed bd 5f 71 01 3b
       0.10277459 0.002405151 -0.1160354 0.0019751412
000310 13 93 45 be 76 56 98 3d 62 1d 87 bc 6d 0d f8 3c
       -0.19294386 0.07438366 -0.016493503 0.03027984

linear_in.bias f4 [100]
000000 96 b3 1a 3c 24 24 35 3c c8 a1 6c bc 56 45 51 3c
       0.009442231 0.01105598 -0.0144428685 0.012772879
000010 b5 df 63 3c ba 59 5a bc 6c 54 b4 3c 16 db 4b bc
       0.013908316 -0.013327057 0.022012912 -0.012442371
000020 20 b4 68 3c 0e ab 92 bc 0e d1 bf 3c c6 4b 35 3c
       0.014203101 -0.01790383 0.023415115 0.011065429
000030 8d b1 39 3c 7e 0e 07 3c 54 03 31 3c 2d a9 92 3c
       0.011333835 0.008243201 0.010804016 0.017902935
000040 25 a1 58 3c 87 38 52 bc 2d eb 3c 3c c3 aa 26 bc
       0.013222014 -0.01283086 0.01153068 -0.010172549
000050 7e 12 4a bc f4 3e 88 bc aa 63 c9 3c 0c 3e 88 3b
       -0.01233351 -0.01663158 0.024583656 0.004157787
000060 d6 2e ee bb 58 72 39 3c f3 de 5a 3c 6b 43 f8 bb
       -0.007268767 0.011318766 0.013358819 -0.007576396
000070 8e 87 28 3c 04 ba 6f 3c fa 28 37 3c e3 28 70 3c
       0.010286225 0.014631752 0.011179203 0.014658186
000080 8a af 50 bc 88 ca 32 3c d6 02 41 3c e3 fe 6b bc
       -0.012737164 0.010912545 0.011780461 -0.014404031
000090 bb ec 40 bc 87 d1 6c bc 69 1a 32 3c fc 8f 58 3c
       -0.011775191 -0.014454252 0.0108705545 0.013217922
0000a0 f4 17 b0 3c cf b4 0b 3c 3b d8 25 bc 34 99 4e 3c
       0.021495797 0.008526995 -0.010122354 0.012609769
0000b0 2d 1c d4 3b 87 ba 13 3c 1d 58 3c 3c 07 ac 6f bc
       0.0064730854 0.00901664 0.011495617 -0.014628417
0000c0 e2 d6 54 3c 2a 29 4a 3c c0 d6 3f bc c3 21 27 3c
       0.012990685 0.012338916 -0.011708915 0.0102009205
0000d0 95 58 43 bc 0e 9e 44 3c 27 2e 12 3c dd 22 4a bc
       -0.011922975 0.012000574 0.008922136 -0.012337414
0000e0 99 d6 63 bc 50 61 53 3c 34 c3 0e 3c 3a e7 7b bc
       -0.013906145 0.012901619 0.008713532 -0.015374953
0000f0 a4 3f ca bc ef ac 29 3c e0 6a 59 bc d1 24 43 3c
       -0.02468855 0.010356172 -0.01327011 0.011910633
000100 28 95 4d bc 4d 51 c4 3b 87 f1 4b bc c5 68 46 bc
       -0.012547769 0.005991137 -0.012447721 -0.01210994
000110 f2 e0 4e bc 1d e6 3c 3c 7a 9d 6f 3c 5a 4d 36 3c
       -0.012626873 0.011529473 0.014624948 0.0111268405
000120 e9 66 67 3c 07 6d a7 3c a7 6f 60 3c ad 3b 53 3c
       0.014123657 0.02043773 0.013698495 0.012892646
000130 4f ae 1d 3c 4e 8f 37 bc 2c dd 85 bc 40 d9 66 3c
       0.009624078 -0.0112036 -0.016340815 0.014089882
000140 83 1b 61 3c 42 52 0c bc 0b 1e 90 3c bc 73 37 3c
       0.013739469 -0.008564534 0.01759245 0.011197027
000150 40 8a 1f 3c 07 a2 48 3c 60 46 6c 3c ef bb 74 bc
       0.009737551 0.012245662 0.014421076 -0.014937385
000160 e4 aa 4f 3c 19 01 36 3c cf 38 72 3c 9b ca 52 bc
       0.012675021 0.01110866 0.014784052 -0.012865688
000170 68 4c 49 3c a6 9b 82 3c 21 c4 92 bc a9 2f 7d 3b
       0.012286283 0.01594336 -0.017915787 0.0038633144
000180 97 46 59 bc c1 93 12 bc 11 41 64 bc 91 0c 25 bc
       -0.013261459 -0.00894636 -0.013931529 -0.010073797

linear_out.weight f4 [2, 100]
000000 8d 6f 35 3e 01 2b a0 3e 2c 02 b8 3e e4 72 ba 3d
       0.17718334 0.3128281 0.35939157 0.09103945
000010 dd 90 71 bd 32 3b 00 3e 69 24 b6 bd b7 a0 70 be
       -0.058976043 0.12522581 -0.088936634 -0.23498808
000020 02 87 34 be 91 e0 6e 3e ff 05 c9 3e 7d e5 3f bd
       -0.17629626 0.23327853 0.39262387 -0.046849716
000030 68 bc 08 3e f8 ba 8f 3e 8f 38 12 be 1a f6 21 3d
       0.13353121 0.28072333 -0.14279388 0.03954134
000040 2f fb 9d 3d 69 3e 8f 3d 9c 2c 3a be aa 9e fe bd
       0.07713925 0.06994326 -0.1818108 -0.124326065
000050 f1 c8 68 bd 16 36 77 3d 31 53 ef bd 99 fe 19 bd
       -0.056832258 0.060354315 -0.116857894 -0.03759632
000060 d7 44 ca bd b8 0d 00 3d eb ef 30 bd 39 ef 87 bd
       -0.098764114 0.031263083 -0.043197554 -0.06637425
000070 f1 80 4a 3d 6a 55 10 3e cd cc c3 3d 88 df af bb
       0.049439374 0.14095083 0.09560547 -0.005367223
000080 f7 84 c2 3b 23 ba e3 3d d3 4d 17 be 17 40 da 3d
       0.005936261 0.11119487 -0.14775781 0.106567554
000090 c8 69 09 bd 7a 47 a4 bd e7 1e 78 bd a8 4d 00 be
       -0.033548146 -0.080214456 -0.060576346 -0.12529624
0000a0 18 70 2d 3e 83 2a b4 bd 7e 82 30 be f3 71 31 be
       0.16937292 -0.08797171 -0.17237279 -0.17328624
0000b0 dd 5f 07 bd 7b 79 45 bd d0 98 db bd 84 03 17 3e
       -0.033050407 -0.048211556 -0.10722506 0.14747435
0000c0 74 40 cb bd 72 58 a1 bc d5 c0 82 be 83 1a ab bc
       -0.09924403 -0.019695494 -0.25537744 -0.020886665
0000d0 25 bf 04 3e 2a 17 9a be c7 82 96 bc 52 2f 98 bd
       0.12963541 -0.30095798 -0.018372906 -0.07430901
0000e0 f4 3f 0a 3e dd 73 12 be cb 61 21 be dd 8e 5e 3e
       0.13500959 -0.14302011 -0.15759961 0.21734186
0000f0 2b 49 84 bd fe b7 44 bc 98 28 83 bd 27 62 0e 3d
       -0.06459268 -0.012006758 -0.06404227 0.034761574
000100 61 81 fd 3c 46 4e e6 bd 7f 2c 6c bd 72 29 97 3d
       0.030945482 -0.11245398 -0.057659622 0.07380952
000110 dd 4d b4 3d 19 cd f4 3d 19 ef 62 bd 4b 15 8a 3d
       0.08803914 0.11953182 -0.055403803 0.067423426
000120 36 7e 0e 3e 02 0b aa bd d1 5a 42 bd ab 19 67 3e
       0.13915333 -0.08302881 -0.04744989 0.22568385
000130 a8 1c d0 bd 02 fd 5a be d2 b2 a3 3d 35 ee e2 bb
       -0.10161716 -0.21385577 0.07993092 -0.006925369
000140 bb 55 df 3d 10 d9 17 be 3a 04 2f bc d2 76 b2 3e
       0.10905024 -0.14828897 -0.01068216 0.34856278
000150 9a cf a0 3e 2c 5f b2 bd bb bc 6d be 30 dd 97 3d
       0.31408387 -0.08709559 -0.23216526 0.07415235
000160 1a 9e 76 bd c7 72 a4 be 87 52 3f bd cf 8a 16 be
       -0.06020937 -0.32118818 -0.046709564 -0.14701389
000170 de 68 0c 3e d9 ce 45 be 01 2b 0f be 22 72 97 bd
       0.13711879 -0.19317187 -0.13981248 -0.07394816
000180 eb ef 48 be 35 af 1d 3e 36 4d 26 bd 5c ff 58 be
       -0.19622771 0.15398867 -0.040600978 -0.21191162
000190 3e 5b 4b 3e 10 b6 a4 bd 6b 8d 02 3e fa 35 2e bd
       0.19859025 -0.08042538 0.12749259 -0.042531945
0001a0 7b c1 45 bc 8c bf 9d bc c8 03 8f be bc 25 ef bd
       -0.012070055 -0.019256376 -0.27932572 -0.11677119
0001b0 d3 95 6b bb e4 62 c8 3d b1 c0 75 be 20 10 d8 3d
       -0.0035947456 0.09784487 -0.23999287 0.105499506
0001c0 86 c8 78 3e a9 c9 72 be 75 8f bb 3d 21 45 c1 bc
       0.24295244 -0.2370974 0.09158222 -0.023592534
0001d0 76 01 8f 3e 82 29 39 bc d1 91 78 bd 4d ec f7 3c
       0.27930802 -0.0113014 -0.060685936 0.030264044
0001e0 c9 57 0c 3e 6c 7b 4c bd d8 13 de 3d 56 84 15 3d
       0.13705362 -0.04992239 0.10843629 0.03650316
0001f0 99 b9 0a bd 2f 26 b3 bb c7 3f 21 be b2 f1 18 3e
       -0.033868406 -0.0054671983 -0.15746985 0.1493595
000200 09 a2 37 be 57 0c 20 3d d9 dc 23 3e 87 ae de bd
       -0.17932905 0.03907427 0.16002215 -0.10873132
000210 41 6f a1 bd aa 81 3d be ae bd 81 bc 2a b3 b4 3d
       -0.07882548 -0.18506494 -0.015837517 0.08823235
000220 e4 c6 0b 3e 95 03 b0 3e 37 a2 eb 3c 75 ed e9 bc
       0.1365009 0.34377733 0.028763874 -0.028555611
000230 4b 5c 5a 3e 8b 37 dc bd 29 26 b5 3c 10 e0 88 bd
       0.2132427 -0.107527815 0.022112923 -0.066833615
000240 c7 89 1e be d7 5f 37 3d ca aa 59 3c 1f 95 90 3d
       -0.15482245 0.044769134 0.013285348 0.070596926
000250 60 dc 2c 3e d1 b1 c8 bc 54 e8 a4 3e 14 d2 47 be
       0.16880941 -0.024498852 0.32208502 -0.19513732
000260 28 03 37 bc 1a 51 41 3e 8a cc 84 bd d0 68 18 3e
       -0.011170186 0.18878594 -0.06484325 0.14883733
000270 39 5d a0 bd 2c 54 0b be b6 9c da 3d 90 7d 58 be
       -0.07830281 -0.13606328 0.106744215 -0.21141648
000280 d5 ed 23 3e 0a ae c2 bb 86 70 e5 bc 09 94 99 bd
       0.16008694 -0.005941157 -0.028007757 -0.074989386
000290 05 42 3d be ec f1 84 3c 1b 6d f8 3d 71 74 4d bd
       -0.18482216 0.016228639 0.12130185 -0.050159875
0002a0 52 ff a5 bd e2 1c a8 bc 6c 74 ee bc 95 6e 6f 3c
       -0.08105339 -0.020521585 -0.029108249 0.014613767
0002b0 38 c3 6b 3c 4a 97 ac 3d ff fa c5 be a9 97 84 be
       0.0143898055 0.084272936 -0.38668057 -0.25896958
0002c0 12 2c c8 3d 7b c7 74 be 42 da 40 be 18 a9 7f be
       0.09774031 -0.23904221 -0.18833259 -0.24966848
0002d0 5a 1d ac bd 94 34 aa 3d 6f aa 31 bd c4 ea 9b bd
       -0.08404036 0.0831081 -0.04337543 -0.07613137
0002e0 2a 14 90 be c9 7d 19 3e cf cd 56 be 31 d8 5f be
       -0.28140384 0.1498939 -0.20976947 -0.21859814
0002f0 3c e9 0b 3e cb ed 15 bd f9 07 56 bc 51 8d d0 3d
       0.1366319 -0.03660373 -0.013063424 0.10183204
000300 dc e2 08 3e 10 fe b2 be 22 2e 76 bd 31 ea ae bd
       0.1336779 -0.3495946 -0.06010259 -0.08540762
000310 75 46 21 bc 9d 93 2c 3e 39 75 a1 be f9 f5 0b be
       -0.009843458 0.16853185 -0.31534746 -0.1366805

linear_out.bias f4 [2]
000000 9b 73 b4 3b 6d cb 72 3c
       0.0055069453 0.014819008

layers.0.weight f4 [100, 100]
000000 86 4c 40 bd a9 58 c4 bd 1b e6 15 3e b8 e4 d2 ba
       -0.04694798 -0.09587223 0.1463856 -0.0016089892
000010 69 2c 37 3d 93 a0 e6 3d 99 a4 12 3e 98 3a a3 bd
       0.044720087 0.11261096 0.14320602 -0.0797016
000020 23 1b e5 3d 60 0d 50 bd 71 eb a5 bd d1 5d 1e be
       0.111868165 -0.050794005 -0.081015475 -0.15465476
000030 18 44 f7 3d b7 10 80 bd 58 b2 0a 3e 7d f0 3f 3e
       0.12073535 -0.06253188 0.13544595 0.18744083
000040 40 fb f1 3d 69 cc 38 3c 5a da 02 3e e4 93 00 3e
       0.118155 0.011279204 0.12778607 0.12556416
000050 47 c2 60 be 7c f7 8d bd 5d b2 88 3d 1c 12 c0 bc
       -0.21949111 -0.069319695 0.06674645 -0.023446135
000060 58 de 83 3d b6 46 ad bd 6b 40 9a bd a0 73 87 3c
       0.06438893 -0.08460753 -0.07531818 0.016534626
000070 55 52 09 be 10 fc a7 3d 40 52 4d be 32 09 ff bd
       -0.13410313 0.08202374 -0.20050907 -0.12452926
000080 b0 c1 29 be 49 85 ca 3d d9 98 74 3e dd a3 6f 3d
       -0.16577792 0.098887034 0.23886432 0.05850588
000090 65 d0 b7 3d 73 c4 a5 bd 5a 9b 03 3e 8a 4a 46 3d
       0.08975295 -0.0809411 0.1285223 0.04841093
0000a0 4c 2a 71 3c e8 1c 4e 3e 1d 44 25 3c 84 7d 4a ba
       0.014719557 0.20128214 0.01008704 -0.0007724392
0000b0 7d 55 30 3e 42 da 67 3d dd 24 6c be ec 2e 31 3b
       0.17220111 0.05660463 -0.23060937 0.0027036024
0000c0 24 d6 1f 3d fc 69 f7 3d b2 cb 1b bd d4 62 da 3d
       0.03902258 0.12080762 -0.038036056 0.10663381
0000d0 1b 67 b8 bd 67 b8 93 3d 0a ce 81 3d 93 8c 24 be
       -0.09004041 0.07212906 0.06338127 -0.1606925
0000e0 10 5c 28 3e ce ff 06 be 26 59 86 bd 4b 2f 82 bd
       0.16441369 -0.13183519 -0.065599725 -0.06356677
0000f0 e1 23 38 bc ed ac 98 bd 28 1d 67 3d 97 d6 a7 3d
       -0.011239023 -0.07454858 0.05642429 0.08195227
000100 18 8c af 3d a8 d0 99 bd dc 2b d9 ba ea de 7b be
       0.08571643 -0.07510501 -0.0016568857 -0.24596754
000110 d8 ed 20 bd a8 1d 2e be 1c 43 e8 3d 43 95 85 bd
       -0.039289325 -0.170035 0.11340925 -0.0652261
000120 39 75 7b 3d 1e 23 48 3c 8a fd 75 bd 7f e0 27 bb
       0.06139109 0.012215404 -0.060056247 -0.0025615988
000130 ad 4e ed 3d 63 94 f1 bc cf d7 90 3d b0 f3 23 be
       0.11587272 -0.029489702 0.07072412 -0.16010928
000140 00 8d ec bd 2d 44 1b 3d 5e 37 24 bc bb 2e 2e 3d
       -0.11550331 0.037906814 -0.010022966 0.042525034
000150 c6 4b f1 bd 49 3a 5e bd a6 6e c7 bc 52 ab a8 bd
       -0.11782031 -0.054254804 -0.024344753 -0.08235802
000160 00 26 5e 3d f8 8d c1 bc 15 4c 37 3e 40 4e 94 bc
       0.05423546 -0.023627266 0.17900117 -0.018103719
000170 ba 20 e9 bd 64 82 ca bc 06 85 e4 bc 87 90 d6 bd
       -0.11383195 -0.024720378 -0.027895462 -0.10476785
000180 fd 2b 8a 3d 37 ac d8 bd 08 60 eb bd 85 7e d5 3c
       0.06746671 -0.105797224 -0.11492926 0.026061306
000190 ea 1a 40 bc 36 86 c2 3d 0b d1 2d bd 04 03 06 3d
       -0.011725167 0.09498255 -0.042435687 0.03271772
0001a0 87 f4 1a 3e 7b 40 8c bd 5e 63 56 3e 83 fc f4 3c
       0.15132342 -0.06848236 0.20936343 0.029905563
0001b0 02 ee 9d bd b1 5d e2 bc 94 0f 3d bd 26 e3 4c 3d
       -0.07711412 -0.027632566 -0.046157435 0.050021313
0001c0 dd 89 6e 3e 1d 90 13 bd 1e be d2 bd 65 52 c8 3d
       0.23294778 -0.03602611 -0.10290168 0.097813405
0001d0 31 e7 01 be d6 f9 a7 bd 77 09 89 3d 5d 6b f9 3c
       -0.12685849 -0.08201949 0.066912584 0.030446703
0001e0 82 6e 4e 3e 9e 98 ef 3d 9a 16 53 3d 5d 9a 9b bd
       0.20159343 0.11699031 0.051535226 -0.07597802
0001f0 62 e9 47 3e 6b 15 8d 3c 6f a7 6e 3c bd bb 1d be
       0.19522622 0.017222127 0.0145662865 -0.15403648
000200 3a 4d 1c 3d 45 1b f2 3d 43 02 48 bd 7b 81 37 ba
       0.038159586 0.118216075 -0.048830282 -0.000700019
000210 58 f6 05 be b8 b8 e4 bd 9b 19 87 bd 2d 60 3f bd
       -0.13082254 -0.11168045 -0.06596681 -0.04672258
000220 5a 7d c4 bc 6c 55 09 3d 66 af 14 3e 45 82 b0 bd
       -0.023985554 0.03352873 0.14520034 -0.08618597
000230 3c e8 93 3d 03 c4 a6 3d 52 0c 86 bc d5 52 db 3c
       0.072220296 0.08142855 -0.016363297 0.026772896
000240 0c 30 04 be f9 d1 b1 3d ac 5f e2 bd 6e 95 0e bb
       -0.12908953 0.08682627 -0.11053404 -0.0021756548
000250 4b 4b c3 3d 49 30 02 be bc 60 d7 3c 90 c6 5f bd
       0.09535845 -0.12713732 0.026291244 -0.054632723
000260 6c 72 96 bd 84 70 02 bd 43 8d ab 3d cb bf f5 bc
       -0.07346043 -0.031845585 0.08376553 -0.02999868
000270 91 86 85 bd 5f 46 22 3e 36 b8 17 be 8e 6b c3 bd
       -0.06519807 0.15847157 -0.14816365 -0.09541999
000280 ad 98 96 bd 0b e1 6d 3d 8c af 54 3d bf 78 38 be
       -0.07353339 0.058075946 0.051925227 -0.18014811
000290 4b 1e 2b 3d f9 8b 47 be f6 56 23 bd 85 ad 0e bd
       0.041776937 -0.19486989 -0.039877854 -0.03483345
0002a0 e7 3b 53 3d da b7 05 3c 6f 7c c5 bd 3b ec 0f 3e
       0.0515708 0.008161509 -0.096428744 0.14054959
0002b0 c4 e7 35 3e 03 5a 8e 3d 15 cb 53 3d 52 99 db bb
       0.17764193 0.06950762 0.051707346 -0.006701627
0002c0 96 fc 26 3d 02 20 e0 3c 16 47 0a 3e 46 d1 e0 bd
       0.04076823 0.027359013 0.1350368 -0.10977416
0002d0 70 9d 39 be 63 88 e4 3d 52 d6 0f 3e 4e d1 30 bd
       -0.18126464 0.11158826 0.140466 -0.04316836
0002e0 a2 61 2f be 45 85 77 bd 01 8e 7d bd f6 6e 10 bd
       -0.17127088 -0.06042983 -0.061903004 -0.03526207
0002f0 33 b7 31 bc a4 bf 30 bd 2d 20 c0 3d 76 93 93 3a
       -0.010846901 -0.043151513 0.09381137 0.0011259157
000300 3e 08 69 3d ac 10 7d bd f9 fb 77 be e9 ef 45 be
       0.056892626 -0.061783478 -0.24217214 -0.193298
000310 e6 65 5a be 68 60 21 3e fd 9b 9f 3c 68 90 fd 3d
       -0.21327934 0.15759432 0.01948356 0.12381059
000320 34 4a 02 be 62 80 c1 bc ce 75 4d 3c b0 73 91 bb
       -0.12723619 -0.023620788 0.012540294 -0.00443884
000330 0c 90 59 bd ef 50 8b 3d 36 00 1b be 33 18 87 bd
       -0.05311589 0.06802546 -0.15136799 -0.065964125
000340 14 ef a3 bd 48 80 05 3e 97 d8 a5 bd d6 11 fb 3c
       -0.08004585 0.13037217 -0.08097952 0.030648153
000350 13 aa 4d 3b 5d 24 1b 3d f8 d5 de bc f8 50 ee 3c
       0.003138189 0.037876476 -0.027201638 0.029091343
000360 fa 55 dd bd fc f2 00 bc ff 48 85 3d b2 f4 0b bd
       -0.10807414 -0.007870432 0.065080635 -0.034168907
000370 40 cc e9 bc 52 97 12 bd 3f af 76 bd df 6e cc bc
       -0.028539777 -0.03578884 -0.06022572 -0.024955211
000380 e3 24 9f 3d 6e ea 92 bd 67 c1 11 be 9a 2d 1a bd
       0.077707075 -0.0717362 -0.14233933 -0.037641145
000390 2f 59 cf 3c cf 75 52 3d 27 e5 83 3d c3 53 a0 3d
       0.02531108 0.051381882 0.06440192 0.07828476
0003a0 42 af 41 3e f2 a8 dc 3c bd b0 35 3b d4 cf 3b 3e
       0.18914512 0.026936028 0.0027723752 0.18340999
0003b0 83 11 1c 3d 5a 45 34 3d b6 40 25 3e 19 3f 1e bc
       0.038102638 0.04401145 0.16137967 -0.009658598
0003c0 13 d8 f3 3d 9f 92 cd 3c 75 6f 7d be 43 0e e4 3d
       0.11906447 0.025094328 -0.24749549 0.11135533
0003d0 3e e8 53 3d c3 4f d1 bd 52 74 06 bd 8d c6 af 3d
       0.051735155 -0.102202915 -0.032825775 0.085827924
0003e0 7c 04 8e bd 75 8a 80 3d cf 5d d8 bd 8d 33 0a be
       -0.06934449 0.062764086 -0.105647676 -0.13496228
0003f0 13 4e d9 3d c2 fa 22 bd dc c6 41 bd 8c 45 9e bb
       0.106105946 -0.039789923 -0.047308788 -0.004830068

layers.0.bias f4 [100]
000000 88 5e 7b 3c 2d 4b 71 3c 1b 05 46 bc 20 f6 4c 3c
       0.015342362 0.014727396 -0.012086178 0.012509853
000010 cb bc a6 bc 4d 55 78 3c 50 9d 47 bc 19 f8 14 3c
       -0.020353695 0.015157056 -0.012183502 0.009092354
000020 3e d4 9b bc c3 29 53 3c 2e d9 3a bc 56 26 e6 3b
       -0.019022103 0.012888375 -0.011404319 0.007023613
000030 0f 05 45 3c f0 00 87 3c 92 c7 ce bc ff 05 8e bc
       0.012025132 0.01647994 -0.025241647 -0.017336844
000040 86 c9 50 3c 4d e5 3a bc b8 71 4e 3c ef 06 69 bc
       0.012743359 -0.011407209 0.012600355 -0.0142228445
000050 8d 67 45 bc 78 98 2d 3c 47 54 83 bc 92 6f 7d bc
       -0.012048614 0.010595433 -0.016031398 -0.015468495
000060 c1 a6 0a bc 9c ac 61 3c 1f 06 63 bc 93 d8 15 bc
       -0.008462609 0.013774063 -0.01385644 -0.009145874
000070 63 b4 3e bc 6b e6 49 bc f0 4c 42 bc 18 4f 49 3c
       -0.011639687 -0.012323002 -0.011859164 0.012286924
000080 c1 c6 3a bc 35 e1 76 bc 15 33 3f 3c 87 45 5f bc
       -0.011399926 -0.015068342 0.011669894 -0.013627416
000090 bb d7 70 3c 5b 3e e7 3b 66 d2 48 3c 2a 8e 6d bc
       0.014699872 0.007056994 0.012257194 -0.014499227
0000a0 35 21 90 3c 00 d3 b5 3b 9d f5 8b bc c2 92 31 bc
       0.01759396 0.005548835 -0.017084891 -0.010838212
0000b0 6c 10 21 bc 93 da c2 bc bb 87 53 3c b1 cd 9f 3b
       -0.009830575 -0.023785865 0.012910779 0.0048768152
0000c0 19 74 88 3c d8 ab fa 3b 62 31 26 bc 38 6a 27 bc
       0.016656922 0.00764988 -0.01014361 -0.010218196
0000d0 62 8c 57 3c 43 aa 77 bc 33 4d 3f 3c db 9a 9f 3c
       0.013156028 -0.015116277 0.011676121 0.01948302
0000e0 22 d6 f8 3b 97 09 37 bc b7 6e 10 3c a2 55 29 3c
       0.007593886 -0.01117172 0.008815459 0.010335358
0000f0 1c 38 3d bc d1 51 61 bc ba 09 4b bc 4c 43 03 3c
       -0.011549022 -0.013752417 -0.012392456 0.00801165
000100 69 60 5e 3c 9c 63 82 bc 92 f9 60 bc 6b 60 1b 3c
       0.013572791 -0.015916638 -0.013731377 0.009483437
000110 a2 cd 23 bc fe eb 38 bc d7 4e 02 bc 2c c5 98 bc
       -0.009997757 -0.011286734 -0.007953367 -0.018648706
000120 02 1c 83 3c 83 ac 6c bc 19 77 4f bc 14 78 88 3c
       0.016004566 -0.014445427 -0.012662672 0.01665882
000130 75 0d 9f 3c 5f 74 69 3c 8c 4b 39 bc 6f 33 4b 3c
       0.019415597 0.014248936 -0.011309516 0.012402399
000140 30 eb b9 3c a4 b1 4a 3c 6f 66 32 bc 10 5e 11 bc
       0.022695154 0.012371454 -0.01088868 -0.008872524
000150 8d f3 3a bc fb e3 6e 3c 1c 3b 2b bc da ff 28 3c
       -0.011410606 0.014580722 -0.0104511045 0.010314906
000160 0c b0 97 ba ee c1 47 bc bb ce 62 3c 1d f2 71 3c
       -0.0011572852 -0.0121922325 0.013843234 0.014767197
000170 87 68 31 3c 70 48 3e bc a2 ce 12 bc 61 37 2a 3c
       0.010828144 -0.01161395 -0.008960398 0.01038918
000180 32 d6 7f 3c 4e 9c 2b bc b4 83 13 bc b2 be 30 bc
       0.015615033 -0.010474278 -0.009003568 -0.010787653

layers.1.weight f4 [100, 100]
000000 ce 29 99 3d e3 fa 0c be 8f 5a 97 3d a0 8c 38 3d
       0.07478677 -0.1376758 0.073903196 0.045055985
000010 2e 88 01 3e 45 71 4d bd 34 70 09 3e 5c 86 4b bd
       0.12649605 -0.05015685 0.13421708 -0.049688682
000020 c4 2a 09 be 6c 4b 9f 3d 1f d0 78 bd 79 8f 61 3e
       -0.1339522 0.077780575 -0.060745355 0.22027387
000030 5a 20 4b 3e 17 96 99 3d 14 c9 4c 3d e9 5f 2d bc
       0.1983656 0.074993305 0.04999645 -0.010581949
000040 4c 74 09 be a5 1d c2 bd 62 3b dc bd ab bf 06 3e
       -0.1342327 -0.094783105 -0.10753514 0.13159053
000050 92 1f dd 3c e8 59 e7 bd 29 4f 07 3e 03 6d 10 be
       0.026992593 -0.11296445 0.13213791 -0.14104085
000060 c2 ca 12 3d 10 99 42 bb 9a ae 31 3d a5 ac f9 3d
       0.035837896 -0.0029693283 0.043379404 0.121911325
000070 46 98 ad 3d f1 08 50 bd 68 00 51 be c4 ae 2f be
       0.084763095 -0.050789777 -0.20410311 -0.17156512
000080 1f ed 34 bd 1b 7c 50 3d 02 26 21 be d7 02 76 3e
       -0.04417145 0.050899606 -0.15737155 0.24024521
000090 79 98 f4 3d e7 7b cc bc 2d 97 0c 3d ea 02 c2 3c
       0.11943144 -0.024961425 0.03432386 0.02368303
0000a0 29 09 d7 bd ad ad 2f bc bd 43 ee 3d a2 b1 29 3e
       -0.10499794 -0.01072256 0.11634014 0.16571668
0000b0 79 62 72 be e9 9c bc 3d 3b 5c 3d 3e 39 ca 6a 3d
       -0.23670377 0.09209616 0.18492214 0.05732176
0000c0 5c a2 17 3e 20 d3 4f 3d 97 73 4e 3e fe e6 a7 3d
       0.14808029 0.050738454 0.20161282 0.08198355
0000d0 f7 2e 45 3d 3c 69 f9 3d 30 ff ef 3c db d8 1f 3e
       0.048140492 0.12178275 0.029296488 0.15610068
0000e0 fa a4 90 bd 50 76 34 bd ff cc 9f 3c f7 fd d7 3c
       -0.07062717 -0.044058144 0.01950693 0.026366217
0000f0 8e 8b f5 ba 86 42 99 3d 03 8f c2 3b d2 95 e6 bd
       -0.0018733607 0.074833915 0.0059374585 -0.11259045
000100 11 84 96 3b 68 d2 91 3d 60 90 f0 3c 73 99 32 3d
       0.0045933803 0.0712021 0.029365718 0.04360337
000110 b7 6c ca 3b 81 47 43 be 3a 9a af 3c bb b5 05 bd
       0.0061775106 -0.19070245 0.021435846 -0.032644015
000120 e1 44 0a bd 80 c0 46 be 9d 16 db bc df 40 aa bc
       -0.033757094 -0.1940937 -0.026744181 -0.020782886
000130 db 56 21 bd 8b d8 55 be ad 45 e1 bd a1 47 1e 3e
       -0.039389472 -0.20883386 -0.10999618 0.15457012
000140 59 dd 3d 3e 4f 87 5b 3d e1 2d e7 bd 93 64 dc 3c
       0.18541469 0.053595837 -0.112880476 0.026903426
000150 4e 0a 09 3e fe 54 1c 3e ad b0 c4 3d 58 f7 7c 3c
       0.13382837 0.15266797 0.09604011 0.015439831
000160 61 77 81 3d e3 8e d0 3c 77 4e 7a be 3f bf de bb
       0.06321598 0.025458759 -0.24443994 -0.0067977007
000170 a5 79 c1 3b f1 b1 85 bd 95 4d ce bd 34 2c 46 bd
       0.0059043937 -0.0652808 -0.10073391 -0.048382
000180 a6 66 13 3d 90 4f a7 3d 6d da 2f bb 31 40 a0 3d
       0.035986565 0.08169472 -0.0026833073 0.078247435
000190 21 88 9c bc 65 ee 0a 3e f5 80 88 bd 81 6f d8 bd
       -0.01910788 0.13567503 -0.066652216 -0.10568143
0001a0 34 ba 0b bd d2 5c 1a bd 6e 83 11 be 74 8b 3b 3d
       -0.034113124 -0.037686177 -0.14210293 0.04578729
0001b0 cd be 1c 3e ee 76 eb 3d d4 6e 69 3e 46 23 d0 bc
       0.1530716 0.114972934 0.22796184 -0.025407445
0001c0 b1 c2 72 3d 1c fa 87 bd a8 bc 2b 3d bc 99 3e bd
       0.059267703 -0.066395015 0.041927963 -0.04653333
0001d0 f5 d3 e2 3d 0a d4 d7 bd 81 cb 1e 3d 29 09 a9 3d
       0.11075584 -0.1053849 0.038768295 0.082537
0001e0 af a5 16 3e 2b 02 bd bb 7a 2f 85 3c a1 af e0 bb
       0.14711641 -0.0057680807 0.01625799 -0.006856874
0001f0 aa 20 40 3e 36 60 9a 3d 1f 6a ab 3d be 40 11 be
       0.1876246 0.07537882 0.0836985 -0.14184853
000200 17 1d dd bd 84 45 a8 bd 47 2d 96 3e 67 6d e7 bc
       -0.10796564 -0.08216384 0.2933142 -0.02825041
000210 1c 07 f4 bc 07 42 92 bd b4 ac db bc 3c eb c1 bd
       -0.029788546 -0.071415 -0.02681575 -0.094686955
000220 f8 25 dd 3d 07 c5 88 bd fd 36 f7 bc 60 60 79 bd
       0.107982576 -0.06678205 -0.030177588 -0.060882926
000230 2b 9b fe 3d c7 98 8d bd 51 68 f2 bd 69 e0 9a 3d
       0.1243194 -0.069139056 -0.11836303 0.07562334
000240 11 28 71 3d d8 d2 3e 3d 0b 2a 3a 3d 55 1a 89 3d
       0.0588761 0.046587795 0.04545025 0.066944756
000250 db e1 d1 bd 7a 7b 94 3c 24 63 3e bc a2 0b 24 be
       -0.10248157 0.018125284 -0.011620317 -0.16020063
000260 3d c9 64 3d 88 0f d7 bc 53 74 07 be dc 98 33 bc
       0.05585598 -0.026252523 -0.13227968 -0.0109617375
000270 24 81 db 3d 20 2a 95 bc a3 e7 f7 bd b9 b1 05 3d
       0.10717991 -0.018208563 -0.12104728 0.032640193
000280 15 13 7c 3d 14 5b 68 3b 07 ef c0 3b 1e 43 16 bd
       0.061541636 0.0035454677 0.0058878693 -0.0366851
000290 6a d9 88 be 04 29 3d bd f6 25 30 3e 92 f7 8d 3c
       -0.26728374 -0.046181694 0.17201981 0.017329965
0002a0 f9 d2 1e be 05 66 0f 3d aa 47 6d be e1 71 b4 bd
       -0.15510167 0.035009403 -0.23171869 -0.08810783
0002b0 ad 9a 1c be 9a d5 7d 3d 67 05 88 3b ad 84 98 bd
       -0.15293379 0.061971284 0.0041510346 -0.07447181
0002c0 35 d0 cc bd e3 f6 91 3c 78 78 4a 3e f3 b7 c0 bd
       -0.1000065 0.01781792 0.19772518 -0.094100855
0002d0 36 59 19 bd 83 6e 8d bd 33 99 fd bc d3 19 06 3e
       -0.037438594 -0.06905844 -0.03095684 0.13095789
0002e0 bc 6d b1 3d 73 f0 24 3e b3 3a 76 3e db 5f 18 bd
       0.08663508 0.16107349 0.2404583 -0.03720079
0002f0 f6 49 d1 bc cf 08 94 3d 32 84 16 bb 13 b1 f8 3d
       -0.025547963 0.072282426 -0.0022966978 0.12143149
000300 97 d1 44 be b1 49 f2 3d 3b 81 02 3e 34 73 e1 bd
       -0.19220577 0.11830462 0.1274461 -0.110083014
000310 4c 12 36 3b 08 66 b7 3d b3 4c d1 3d 6e 06 4e 3d
       0.0027781902 0.08955008 0.10219707 0.0502991
000320 5b 0e 36 be 25 3a 9e 3d d8 9f 3d be 9e 72 fe bd
       -0.17778914 0.07725934 -0.18518007 -0.12424205
000330 26 c3 63 3c 52 1c 9c 3d 4f e1 70 3d ad 21 d2 3c
       0.0139015075 0.07622589 0.05880862 0.025650823
000340 52 8b 05 3e 54 9c eb 3d 17 ec cf 3d 26 fd 73 39
       0.13041428 0.115044266 0.101524524 0.00023268591
000350 b9 5d a9 bd e5 fa df bd b9 1a 21 3d 70 4a 91 bd
       -0.08269829 -0.10936526 0.039332125 -0.07094276
000360 2c f2 a2 bc 15 7d 20 bd 10 9f f0 bd 57 75 87 3c
       -0.019890867 -0.039181788 -0.11749089 0.016535444
000370 00 7f 33 bd ad 49 c9 bc 15 f7 b1 3c e1 4b 05 3c
       -0.04382229 -0.024571264 0.021724263 0.008135767
000380 f8 67 9c 3c 58 22 b4 bd 71 ec 7f ba 4e 75 8a bc
       0.019092545 -0.08795613 -0.00097627105 -0.016901638
000390 60 39 87 3d df bb 76 bd 66 de 8c bd 51 09 20 3e
       0.0660274 -0.06023776 -0.06878357 0.15628554
0003a0 c1 aa 19 3e fc 92 4d 3d 29 08 5f bc 45 96 09 bd
       0.15006544 0.050189003 -0.013612785 -0.033590574
0003b0 83 a0 9a bd 38 06 f3 bd 9d 9d b9 3b 1e cf 63 bd
       -0.075501464 -0.118664205 0.005664541 -0.055617444
0003c0 43 a1 9f bc 8f 40 d6 bd 10 67 d2 bd 88 dd 0e 3e
       -0.019486075 -0.10461532 -0.10273564 0.13951695
0003d0 aa 65 e1 bc 13 00 ae 3d bf 8e 22 3e 35 02 b0 3d
       -0.027514298 0.08496108 0.15874766 0.08594171
0003e0 86 aa bd 3c f6 81 28 3b 93 e0 78 3d 5d 04 44 3e
       0.023152601 0.0025712228 0.060761046 0.1914229
0003f0 71 56 12 3e 9c dd af bb 3f 8a ed 3d 97 83 fb bd
       0.14290787 -0.005366994 0.11598634 -0.12280958

layers.1.bias f4 [100]
000000 d5 5a 3c bc a8 5d 43 bc 1b 4c 24 bc 94 0c c1 3b
       -0.011496265 -0.011924185 -0.010027911 0.005891392
000010 fd 0e 3f bc 33 7d 20 3c a2 86 0b bc 15 53 dd 3b
       -0.011661288 0.009795475 -0.008515986 0.006754289
000020 15 69 3f bc d7 ec 34 bc 21 c3 84 3c 6b 4f 46 3b
       -0.011682768 -0.011042795 0.016206326 0.003025974
000030 c5 8a 42 3c a7 33 2c bc 75 54 54 3c 2b c7 66 bc
       0.011873906 -0.010510362 0.012959589 -0.014085571
000040 a1 a2 f3 3b 8e bc e6 bb 5e 47 58 bc 40 8c 3f bc
       0.0074351584 -0.0070415204 -0.013200609 -0.011691153
000050 59 b9 78 3c a1 b4 0e 3c 22 07 31 3c 5e 5e 02 3b
       0.015180909 0.0087100575 0.010804923 0.0019892673
000060 3d a6 43 3c 4d 30 12 bc d0 f1 5a bc a9 30 38 bc
       0.01194149 -0.008922649 -0.013363317 -0.01124207
000070 bd 96 28 bc a5 cd 3b 3c 10 eb 3e bc 61 7f 49 3c
       -0.010289845 0.011462604 -0.011652723 0.012298436
000080 a6 c3 3d 3c 1e 75 29 bc 95 42 3c bc 72 a9 03 3c
       0.011582291 -0.010342864 -0.011490484 0.008036004
000090 7d 34 a6 bc d5 b8 32 bc d5 48 73 3b 1b b1 10 3c
       -0.0202887 -0.010908325 0.0037122269 0.008831288
0000a0 62 6e 35 3c 14 7f ea bb 77 86 0b 3c 37 29 49 bc
       0.011073681 -0.007156262 0.008515946 -0.012277893
0000b0 a4 61 49 3c be 9c 2f bc e8 21 43 bc 0b ae 86 3c
       0.012291346 -0.010718523 -0.011909939 0.016440412
0000c0 03 92 0f ba 6a 9e 23 3c ee eb 51 3c a9 b4 07 bc
       -0.00054767745 0.009986499 0.012812598 -0.008282819
0000d0 36 76 1b bc 06 b6 f2 3b c3 20 49 bc c9 f7 46 bc
       -0.009488633 0.007406953 -0.012275877 -0.0121440375
0000e0 6d b6 b8 3c 9d e7 bc bb 77 85 88 bc 5c ca 5e 3c
       0.022547925 -0.005764915 -0.016665203 0.013598051
0000f0 18 ba 81 3c 4b 85 a6 3c d5 50 ec bb 86 24 59 3c
       0.015835807 0.02032723 -0.0072117844 0.013253337
000100 86 7a 11 3c bf 30 1c 3c 79 95 c6 bb f1 92 5f 3c
       0.0088793095 0.009533106 -0.006060299 0.013645873
000110 f0 98 c2 3c fb 76 35 3c a0 cf 53 bc 85 e7 2b 3c
       0.023754567 0.01107573 -0.01292792 0.01049221
000120 9a 85 3f bc 7f 7f 41 bc f7 8c 58 3c 75 f1 36 bc
       -0.011689568 -0.011810183 0.013217202 -0.011165966
000130 f9 32 51 bc e3 ae fd bb be 3d 1e 3c 85 e2 e7 bb
       -0.0127685005 -0.0077417954 0.009658275 -0.007076564
000140 06 15 d5 3a 5e 81 ab bc ee 69 61 3c ff a1 3d bc
       0.0016256876 -0.02093571 0.013758166 -0.011574267
000150 b7 61 39 bc 5f 66 4c bc 03 f0 12 3c 56 7c 03 bc
       -0.011314801 -0.012475579 0.008968356 -0.0080252495
000160 25 67 39 bc bb c8 83 3b 0f 4d 4f bc 5a a9 37 bc
       -0.0113160955 0.0040217317 -0.01265265 -0.01120981
000170 b4 34 4a 3c 30 c9 b4 3c 92 88 10 bc b2 ea 54 3c
       0.012341667 0.02206859 -0.008821623 0.012995409
000180 43 9b 35 bc 7f 31 32 3c 08 92 1e 3c 0e 2e 18 bc
       -0.011084381 0.010876059 0.009678371 -0.009288324

layers.2.weight f4 [100, 100]
000000 3f 40 7d 3d 36 91 5b bb 35 2c f2 3b 28 5d f1 3d
       0.061828848 -0.00335033 0.007390524 0.11785346
000010 5c 40 cc 3d 94 b9 ea 3b 39 c8 8f 3c d2 48 62 bd
       0.09973213 0.007163236 0.017551528 -0.055245228
000020 16 68 9b bd 6b 2a 88 3d 06 aa 90 bd ac e7 37 bc
       -0.07588212 0.066487156 -0.070636794 -0.0112246685
000030 bd a7 4b bd 0f aa 23 be 70 25 2f bd c3 14 3c 3e
       -0.049720515 -0.15982841 -0.042760313 0.18367295
000040 46 93 bf bd ab 22 1b 3e 57 20 c1 3b 16 84 5f bd
       -0.09354262 0.15149944 0.005893748 -0.054569326
000050 a9 07 1c be a6 cc 9d bd 67 68 46 be 87 69 1e bc
       -0.15237297 -0.07705049 -0.19375764 -0.009668714
000060 2c 4e dc bd 85 ab 51 3e 35 82 a4 3d 10 9d 14 3d
       -0.107570976 0.20475586 0.080326475 0.0362826
000070 2b e5 c3 bc 00 08 89 bd 23 0d 92 3d 9d ea e4 3b
       -0.023912987 -0.06690979 0.07131412 0.006985976
000080 f1 c6 fb 3d 8d 1e b0 3d 4c 7d d9 3c 76 82 ae 3d
       0.122938044 0.08599577 0.026549004 0.08520977
000090 d3 40 ac bc 36 f9 22 3e 3d 1e c3 3d 1b 7f 26 bd
       -0.021027004 0.15915379 0.09527252 -0.04064856
0000a0 7c 22 9f ba f3 b4 ac b9 f0 ad 1a bd 1b a5 8e be
       -0.0012141014 -0.00032941214 -0.037763536 -0.2786034
0000b0 00 88 fa bc dc 92 54 bc 1a ca 62 3e 72 14 59 3d
       -0.030582428 -0.012974467 0.22147408 0.052998014
0000c0 4b 4e 7b 3d eb f4 1e 3e fd ab 94 3e 85 0f 96 3e
       0.061353963 0.15523116 0.29037467 0.29308715
0000d0 b1 d8 7f bd ab 93 c4 3d e1 41 e8 bd 43 ad 87 3d
       -0.062462512 0.09598478 -0.113406904 0.06624844
0000e0 1d ad 2e bd 70 bc e0 bd 3e 1c 62 be 17 d0 17 be
       -0.042645562 -0.109734416 -0.22081086 -0.14825474
0000f0 20 5b 8c 3b 62 0e ed bd a8 e3 06 3d 29 10 27 3d
       0.004283324 -0.11575009 0.032931954 0.040786896
000100 e6 e8 ae 3c 2e 0f 8d 3c fb 72 06 3c 1f 27 85 bd
       0.021351289 0.017219152 0.008206124 -0.065016024
000110 a9 0a 8d be f9 dc ff 3d 9f 62 00 3e a2 1d b9 bd
       -0.27547196 0.12493319 0.12537621 -0.09038855
000120 76 88 26 bc 8e bd 13 be eb 16 2a 3e f2 f5 84 3d
       -0.010164371 -0.14427778 0.16610305 0.06492223
000130 7f 2c 8f 3c 8e 8d 12 bd 00 ce 24 3d f7 bf 45 3d
       0.017477272 -0.03577953 0.04023552 0.048278775
000140 eb 67 a2 3c 79 6a 8c 3d 87 6a 02 bd 7c e1 3e bb
       0.019824943 0.068562455 -0.031839874 -0.0029126098
000150 83 a9 80 3d 0a 31 2c bc 0f f5 91 3d 38 1c ff bd
       0.06282332 -0.010509739 0.07126819 -0.12456554
000160 c6 84 a7 bc da 53 d0 3d 88 66 5c 3d af 25 1c 3c
       -0.020449053 0.101722434 0.05380872 0.009530469
000170 63 85 b7 bc 35 77 62 3d 49 cc 32 3d 14 f1 71 3d
       -0.022402471 0.055289466 0.043651853 0.0590678
000180 79 b5 eb 3d 75 fe 6c bc 94 9a c4 3d f7 4c b8 bc
       0.115092225 -0.014464964 0.09599796 -0.022497637
000190 bf a1 0f bd 77 1b ba 3c 9c 81 4e 3e 66 7d b3 3c
       -0.035066362 0.022718174 0.2016663 0.02191038
0001a0 0d 8c a8 3d a1 ff 54 3e e4 45 01 bb e2 9a 6e 3d
       0.082298376 0.2080064 -0.0019725496 0.058253177
0001b0 52 4f a1 bd f7 d9 db 3d 7d 17 8a bd fe 4c b3 bd
       -0.07876457 0.10734933 -0.06742761 -0.087549195
0001c0 18 50 7d bd 2a ab f7 bb c1 aa aa bc 12 f5 a4 bd
       -0.06184396 -0.007558246 -0.020833375 -0.08054556
0001d0 09 e6 8c bd 83 9f b7 bd af e1 12 3e 44 69 ac 3d
       -0.06879813 -0.08965971 0.14343904 0.08418515
0001e0 a6 92 4a bc b8 f3 54 3e be 53 a1 bd d1 f8 ff bd
       -0.012364065 0.20796096 -0.07877301 -0.1249863
0001f0 72 a0 fd bb e8 a0 6a bd c7 d5 8b 3d 40 45 0f 3d
       -0.007740074 -0.05728236 0.06827884 0.03497815
000200 bb e4 b4 3c 6e 98 2f 3d bf cc f8 3d aa ca d9 bd
       0.022081723 0.042869978 0.12148427 -0.10634358
000210 62 e8 d7 3d 2a e6 77 38 63 33 27 3e 03 45 c1 bd
       0.105423704 5.9103746e-05 0.16328196 -0.09436991
000220 2e 9c 9d bd dc 85 86 bd eb 7c 7a 3d 65 2b a5 bd
       -0.076958045 -0.065685004 0.061154287 -0.080649175
000230 98 b5 cd 3c 0d ef ae 3d 82 f5 49 bd b6 d7 02 3d
       0.025111005 0.08541689 -0.0493064 0.031944
000240 50 da 7a bd f8 1c d0 bd 05 8c c9 bc 55 ee 15 3e
       -0.061243355 -0.10161775 -0.0246029 0.14641698
000250 fa 24 15 bd e6 71 8d bd 5f ee 99 bd 9a dd fb 3c
       -0.036412217 -0.0690649 -0.07516169 0.030745316
000260 e9 eb 05 be c7 6d 86 bd 19 f9 68 bd 5d 7f cd bd
       -0.13078274 -0.06563907 -0.056878183 -0.10034058
000270 90 69 51 bc 42 80 dc 3b c3 41 31 be c8 c2 dd bd
       -0.012781516 0.0067291567 -0.17310242 -0.10828167
000280 df d6 cb 3c ca 94 1f bd e1 d6 7a 3e 75 36 55 3d
       0.024882732 -0.038960256 0.24496032 0.052053887
000290 09 6d b3 bd 9a a2 10 bd f9 6a f6 3d 89 72 0e be
       -0.08761031 -0.03531132 0.12032122 -0.13910879
0002a0 71 1a 95 3d ea 1d d3 3d a4 72 4f bd 44 4f ae 3c
       0.07280434 0.1030844 -0.05064644 0.021278031
0002b0 22 d4 de 3b 85 30 24 3d 0a d9 db bd 8e 53 63 bc
       0.0068001905 0.040085334 -0.10734756 -0.013874901
0002c0 df ff 4a bd 82 c1 25 be 8a d9 45 3d 34 33 c7 3a
       -0.049560424 -0.16187099 0.048303165 0.0015197755
0002d0 e6 5a 9b 3d 05 4f 51 bb 6b 93 ca bd 11 7f 0f bd
       0.07585697 -0.0031937968 -0.09891399 -0.03503329
0002e0 6c bb 4a bd 54 9c 81 3d e6 de d0 bc c5 43 64 3d
       -0.049495146 0.06328645 -0.025496911 0.055728693
0002f0 32 ac 25 be 75 26 af bd b6 e1 2f be 9b d9 c4 3d
       -0.16178969 -0.08552257 -0.17175946 0.096118174
000300 3d ff 71 3d 31 c6 a5 3d 09 76 c7 bd af 70 8e 3d
       0.059081305 0.08094443 -0.0973931 0.069550864
000310 44 bb c2 3c 56 10 e5 3c c0 91 3b bd 3a e9 74 3d
       0.023770936 0.027961891 -0.045793295 0.059792735
000320 13 11 19 be 75 1f 79 3e 89 3d 49 bc 4a 45 0f bd
       -0.1494792 0.24328406 -0.0122827375 -0.03497819
000330 20 f9 07 3e 7a b6 98 bb 41 f2 2f bd 8c 80 33 bd
       0.13278627 -0.004660425 -0.04295564 -0.043823764
000340 cc ea e6 3d bf 30 4f bd bf 23 10 be 04 da 82 bc
       0.11275253 -0.050583597 -0.14076136 -0.015973099
000350 fc bb 9c 3d 02 e1 1c 3e 28 bd 40 bc 56 1d f8 bd
       0.07653043 0.15320209 -0.011763848 -0.121149704
000360 02 7a 98 3d b0 6d 16 bd 0c 74 ae 3b 6d d4 c6 bc
       0.07445146 -0.0367257 0.0053238925 -0.024271214
000370 f5 6c 32 bd 9c 9d 15 bc 30 95 93 bd 1a 72 bc 3d
       -0.04356094 -0.009131815 -0.0720619 0.09201451
000380 be 44 2f be 61 b7 4e 3e 84 b7 d7 bb f7 1e e0 3d
       -0.17116067 0.20187141 -0.006583156 0.10943406
000390 6e d9 89 bc 86 c7 7a 3e bc f4 fd ba 38 80 80 bd
       -0.016827311 0.24490175 -0.0019375305 -0.06274456
0003a0 ff 66 1e 3a 7c a9 6d 3d 52 57 a8 bd de cf 11 3b
       0.00060425693 0.05802296 -0.0821978 0.0022249143
0003b0 c8 6c 75 bd e4 78 95 be 69 c7 a2 bd 12 b9 29 3d
       -0.059918195 -0.29193795 -0.07948191 0.041436262
0003c0 7d c8 0a bc 0d c1 28 3e f7 61 2e 3d d6 b9 2e 3e
       -0.008470652 0.16479893 0.042573895 0.17063078
0003d0 8b 78 2b 3c ad 1f 9f 3d d3 cc 93 bd 50 a5 12 3d
       0.010465751 0.077697136 -0.072168015 0.035802186
0003e0 07 e0 d5 3d 9f 96 a8 3d 2b e0 cf bd e1 8e da bd
       0.104431204 0.08231854 -0.101501785 -0.10671783
0003f0 38 42 af bd 76 f9 61 bd f1 ed 0d 3e 80 4b 32 3e
       -0.08557552 -0.055169545 0.13860299 0.17411613

layers.2.bias f4 [100]
000000 b4 c8 24 bc 5b df 09 bc 07 a0 11 bc f3 09 0f 3c
       -0.010057617 -0.0084150685 -0.008888251 0.008730399
000010 b2 4a f9 3b 0c a5 1b bc 82 bb 13 bc a0 ae fa bb
       0.0076077813 -0.009499799 -0.009016873 -0.0076502115
000020 23 e6 6a 3c eb c2 1f bc 50 5b 52 3c 70 8a 02 3c
       0.014337095 -0.009751062 0.012839153 0.007967576
000030 bb b0 12 bc 1c d3 0a 3c 10 7c 53 3c ff a5 70 3c
       -0.008953269 0.008473184 0.012907997 0.014688014
000040 dc 5f a7 3b 4c e5 1f bc 4f 00 f7 bb 50 b3 14 3c
       0.005107863 -0.0097592585 -0.0075378786 0.009075955
000050 6a 8f e1 bb bb 49 12 bc 3d 10 25 bc 52 77 43 bc
       -0.0068835514 -0.0089287115 -0.010074672 -0.011930304
000060 99 80 fe bb 5f bb 78 3c b6 f0 08 bb b2 78 33 bc
       -0.007766795 0.0151813915 -0.0020895428 -0.010954069
000070 55 b4 29 bc 1a df 2c bc 45 fc c2 bb 0f a9 d4 3b
       -0.010357936 -0.010551238 -0.005950483 0.00648988
000080 18 53 71 3b e2 40 73 3c e6 7a 11 bc 6e fa 0b 3c
       0.003682321 0.014847012 -0.008879399 0.008543594
000090 09 0b 2b 3c ed f8 b5 bb 2f bc 0d 3c 2e b5 16 bc
       0.010439643 -0.005553356 0.0086508235 -0.00919847
0000a0 9c c8 3f bc 61 5e c6 ba bb 9d 75 3c 04 e6 ad 3b
       -0.011705544 -0.0015134328 0.014991219 0.005306961
0000b0 0e 1c 1d 3c db 13 4b 3c e2 0c 07 3c f3 fb 2c bc
       0.009589208 0.012394871 0.008242818 -0.010558116
0000c0 2a 7b 15 3c 73 b8 61 3c 4a 7b 7c bc d7 a0 22 3c
       0.009123603 0.013776886 -0.015410254 0.0099260425
0000d0 8e 89 3c 3c 01 26 2b bc 3d 63 15 bc 06 b2 f8 bb
       0.011507405 -0.010446073 -0.0091178985 -0.0075895814
0000e0 8e b8 f8 bb 47 ea ae bb 6b 80 04 bc aa 80 3f 3c
       -0.00759036 -0.0053379866 -0.008087258 0.011688391
0000f0 71 97 15 bc 37 49 3e bc 4c 59 26 3c 80 1c 2d 3c
       -0.009130345 -0.0116141355 0.010153126 0.010565877
000100 da 0d 1e 3c 0f df 0f bc 9a 6e dc bb d8 4c ea bb
       0.009646857 -0.008781209 -0.006727052 -0.007150274
000110 50 d4 c2 3c 2e 45 21 3c 24 45 07 bc 9a 76 62 3c
       0.02378288 0.009843154 -0.0082562305 0.013822222
000120 fe 3e 10 bc 75 5a 48 bc 86 28 9c bb 44 7d 54 bc
       -0.008804081 -0.012228598 -0.004765573 -0.012969319
000130 a6 34 a8 bb 27 d1 fd 3b 4f 24 7e 3c aa a4 55 3c
       -0.0051332293 0.00774588 0.015511586 0.013039747
000140 87 4f 59 3c 32 3b 5d 3c 08 20 41 3c 20 33 06 bc
       0.01326359 0.013502883 0.011787422 -0.0081909
000150 85 56 19 3c 28 a8 16 3c 3b f8 1e bc 89 d3 22 3c
       0.009359007 0.009195365 -0.009702737 0.009938129
000160 dd 8d f5 3b 1b f8 42 3c f2 a2 2d 3c 1a e6 80 bc
       0.007493718 0.011899973 0.010597931 -0.015734721
000170 0d 32 62 bc a7 9a 0f bc e6 f2 2f bc 4d 9f 14 3c
       -0.013805878 -0.008764899 -0.010739064 0.009071183
000180 17 b3 13 bb c7 e7 e8 ba b1 79 1a bc b3 46 fa bb
       -0.0022537166 -0.001776927 -0.009428428 -0.0076378225
