main/continuous_time_inference (Schrodinger)/models_iters/pt_model_Schrodinger_1900.pt (torch, 209136 bytes, 14 tensors)

linear_in.weight f4 [100, 2]
0	0x3e2b1c4f	0.16710018
1	0x3dd58922	0.10426547
2	0xbd502212	-0.050813742
3	0xbdfb8ee2	-0.12283112
4	0x3c27a7bb	0.010232861
5	0x3d88c496	0.06678121
6	0xbb199b52	-0.0023438525
7	0x3e164cc4	0.14677721
8	0x3e1c7152	0.15277603
9	0x3ce368ff	0.027760027
10	0xbdbeac55	-0.093102135
11	0x3e3558e3	0.17709689
12	0x3dc6f540	0.097147465
13	0xbaddfa77	-0.0016935606
14	0xbe9762c6	-0.29567546
15	0xbdf9647b	-0.12177368
16	0xbd918d1c	-0.071069926
17	0x3e2a1162	0.16608194
18	0xbdbd7875	-0.09251491
19	0x3e21e6c3	0.15810685
20	0xbe007d17	-0.12547718
21	0x3dea224d	0.114323236
22	0xbd224483	-0.03961612
23	0x3e428e31	0.18999554
24	0xbe2df501	-0.16987993
25	0x3bf3be53	0.00743846
26	0xbb585288	-0.0033008177
27	0xbe354b37	-0.17704473
28	0x3cba1728	0.02271612
29	0xbdacd079	-0.084382005
30	0x3e2d8d40	0.16948414
31	0x3e549f2f	0.20763849
32	0x3e6c343c	0.23066801
33	0xbc402e51	-0.011729793
34	0x3e819c14	0.2531439
35	0xbd24b2ea	-0.04020969
36	0xbd91ccd4	-0.07119146
37	0xbd48de85	-0.049040336
38	0x3dcfdf55	0.10150019
39	0xbbb15f2a	-0.005412956
40	0xbe85036c	-0.25979173
41	0xbde62815	-0.11238114
42	0xbe054297	-0.13013683
43	0x3e93cf23	0.2886897
44	0xbd43bce3	-0.04778756
45	0xbc51469a	-0.01277318
46	0x3de83e73	0.11340036
47	0x3dc135f7	0.09434121
48	0x3dbbd2ed	0.0917109
49	0xbd8dc9d7	-0.069232635
50	0xbe3a8db0	-0.18218112
51	0x3b7ebc55	0.003886958
52	0x3e2598e3	0.16171603
53	0xbe09ae35	-0.13445361
54	0x3d9b3e5f	0.07580256
55	0xbd914751	-0.07093681
56	0x3e53f9b4	0.20700723
57	0x3e20917b	0.15680496
58	0xbe90dfa0	-0.28295612
59	0x3e1dcca9	0.15410103
60	0x3df617de	0.12016271
61	0x3e2751db	0.16339819
62	0x3d1a7b6f	0.03771537
63	0xba6e7642	-0.0009096601
64	0x3cf470cf	0.029838948
65	0x3dbd13ce	0.09232293
66	0x3d83386a	0.064072445
67	0x3cb4a7df	0.022052703
68	0x3e8d3df1	0.2758632
69	0xbe97d9d6	-0.29658383
70	0xbc4d004e	-0.01251228
71	0x3d5d69ad	0.05405586
72	0x3c88ff42	0.016723279
73	0x3e0dc81f	0.13845871
74	0x3cc6604d	0.024215842
75	0x3d2def8c	0.042464778
76	0xbce90f0e	-0.028449561
77	0xbe968d88	-0.29404855
78	0xbda3420d	-0.079715826
79	0x3e3bc2b5	0.18335994
80	0x3e45cdaa	0.19316736
81	0xbe311256	-0.17292151
82	0xbe1c414c	-0.15259284
83	0x3dc6e0e3	0.097108625
84	0xbdca1ab1	-0.09868372
85	0xbe2b7137	-0.16742407
86	0xbe7c6549	-0.24648012
87	0x3de2f959	0.110827155
88	0xbde02fcc	-0.109466165
89	0xbde5861c	-0.1120722
90	0xbe08feb6	-0.13378415
91	0xbe10ac14	-0.14128143
92	0x3d3224e2	0.043492205
93	0xbe10082b	-0.14065616
94	0x3e2dac7b	0.16960327
95	0x3dbf0e55	0.093289055
96	0xbe2f25a3	-0.17104201
97	0xbdad9a9a	-0.084767535
98	0xbdb94e93	-0.0904819
99	0xbe2da29e	-0.16956565
100	0x3df5c9b6	0.12001364
101	0xbdf29a2a	-0.11845811
102	0xbcf041dc	-0.02932828
103	0x3db3128e	0.087437734
104	0xbcc9b0f1	-0.024620505
105	0xbe386540	-0.18007374
106	0x3e15827e	0.1460056
107	0xbddfadcb	-0.1092182
108	0x3d940a67	0.072285466
109	0xbe904410	-0.28176928
110	0x3d3b7ce5	0.045773406
111	0xbe0af5d9	-0.13570346
112	0x3ea8e9d6	0.32990903
113	0xbea40124	-0.3203212
114	0xbdb8bf8d	-0.090209104
115	0x3dc787fc	0.09742734
116	0xbb71011d	-0.0036774345
117	0x3d8d7e9c	0.069089144
118	0xbe3e5e9f	-0.18590783
119	0x3d5bbe71	0.053648416
120	0x3d696493	0.05698068
121	0xbd94075c	-0.07227966
122	0xbd0db9f1	-0.034601156
123	0x3e551434	0.20808488
124	0xbde35e11	-0.11101926
125	0xbe2d6912	-0.16934612
126	0x3dd98bee	0.106223926
127	0x3c9d8ec6	0.019233119
128	0x3c93c5ed	0.018038714
129	0x3dda2599	0.106517024
130	0xbe285ad6	-0.16440901
131	0xbbf963d7	-0.007610779
132	0xbde61c39	-0.11235852
133	0x3e4b5c04	0.1985932
134	0x3d8b0380	0.06787777
135	0x3cbe2e30	0.023215383
136	0x3e496b5b	0.19669859
137	0x3c4710ae	0.012149973
138	0x3b6fb900	0.0036578774
139	0x3e0b02ae	0.13575241
140	0x3e58807f	0.21142767
141	0x3d397fe9	0.045288
142	0xbd334a38	-0.043771952
143	0x3d25ab8e	0.04044681
144	0x3bbec006	0.005821231
145	0xbe8fe4b5	-0.28104177
146	0xbcaf3e9f	-0.021392165
147	0xbcad0930	-0.021122545
148	0xbe6bd672	-0.23031023
149	0xbdb688c8	-0.08912808
150	0x3dcc0ee2	0.09963776
151	0x3d0ef999	0.034906004
152	0xbe006539	-0.12538613
153	0xbd7ef1b5	-0.06224223
154	0x3e143439	0.14473046
155	0x3e113c50	0.14183164
156	0xbd00279c	-0.031287774
157	0x3dd131cb	0.102145754
158	0xbe840074	-0.25781596
159	0xbe2870db	-0.16449301
160	0x3dadd1d0	0.08487284
161	0xbdd2fd80	-0.103022575
162	0x3d910061	0.070801504
163	0x3c272d80	0.010203719
164	0xba2a7c3c	-0.0006503498
165	0x3d9fb687	0.07798486
166	0x3c52eb6e	0.012873514
167	0x3e08c92b	0.1335799
168	0x3d6782cc	0.056521222
169	0x3c7b2b8d	0.0153302075
170	0x3e014938	0.12625587
171	0x3e966092	0.29370552
172	0xbe286d0e	-0.16447851
173	0x3e8f037c	0.27932346
174	0x3e4fad6c	0.20280999
175	0xbdbf7609	-0.09348685
176	0xbde562df	-0.11200499
177	0x3d7ec2ad	0.062197376
178	0x3d8081b1	0.06274737
179	0xbe2963f8	-0.16542041
180	0x3d4f8085	0.050659675
181	0x3b81acc7	0.0039573642
182	0xbcad75d1	-0.021174343
183	0x3e2a230c	0.16614932
184	0x3e983097	0.2972457
185	0xbdaabea8	-0.08337146
186	0xbdb01cc9	-0.0859924
187	0x3dbf1296	0.09329717
188	0xbbb78eab	-0.005601724
189	0x3ca99fd3	0.020706093
190	0xbda61163	-0.08108785
191	0x3e854a70	0.26033354
192	0x3dd1dde1	0.10247398
193	0x3b13b440	0.0022537857
194	0xbded984b	-0.11601313
195	0x3b30cb15	0.0026976515
196	0xbe4521f3	-0.19251232
197	0x3d9aaafd	0.07552145
198	0xbc8704f0	-0.016481847
199	0x3cfa3dbd	0.030547017

linear_in.bias f4 [100]
0	0x3c14e29b	0.00908723
1	0x3c2cc2a0	0.010544449
2	0xbc5d0dde	-0.013492076
3	0x3c422c17	0.011851332
4	0x3c64c40e	0.013962759
5	0xbc448b3a	-0.011996085
6	0x3cad064f	0.021121172
7	0xbc3f25ab	-0.011666696
8	0x3c4830be	0.012218652
9	0xbc7dc040	-0.0154877305
10	0x3cb3370e	0.021876838
11	0x3c2f8732	0.010713385
12	0x3c3022fe	0.01075053
13	0x3c22f2ba	0.009945566
14	0x3c28b98d	0.010298145
15	0x3c7990aa	0.0152322445
16	0x3c48df34	0.012260247
17	0xbc4f54d9	-0.012654507
18	0x3c362bc5	0.011118834
19	0xbc274c22	-0.010211023
20	0xbc3c456a	-0.011491159
21	0xbc7aa4ca	-0.015298078
22	0x3cb49c86	0.022047292
23	0xba89cdd5	-0.0010513613
24	0xbc04570d	-0.008077395
25	0x3c39e3c7	0.01134581
26	0x3c4b1e5a	0.012397373
27	0xbc04f23c	-0.008114394
28	0x3c27b691	0.010236398
29	0x3c680131	0.01416044
30	0x3c2edfce	0.010673476
31	0x3c5fdfc1	0.013664187
32	0xbc40e440	-0.011773169
33	0x3c2a8bcf	0.0104093095
34	0x3c3aaefa	0.011394257
35	0xbc55c582	-0.013047578
36	0xbc386f53	-0.0112570105
37	0xbc5924aa	-0.01325337
38	0x3c445bd2	0.011984782
39	0x3c5415c4	0.012944642
40	0x3c9784a2	0.018495861
41	0x3c42a76a	0.011880735
42	0xbc29bff0	-0.010360703
43	0x3c4419f3	0.011969077
44	0x3c0762df	0.008263319
45	0x3c2036b4	0.009778667
46	0x3c30e3ff	0.010796546
47	0xbc66b7ba	-0.01408189
48	0x3c44ab06	0.012003666
49	0x3c3ffddd	0.011718241
50	0xbc3bd3a1	-0.0114640305
51	0x3c279f6e	0.010230882
52	0xbc369214	-0.011143226
53	0x3c36cc4f	0.011157109
54	0x3c0f5b84	0.008749846
55	0xbc4a2cf1	-0.012339816
56	0xbc6ac682	-0.0143295545
57	0x3c43532a	0.011921683
58	0x3c273e74	0.010207761
59	0xbc5db65f	-0.01353225
60	0xbcbb3714	-0.022853412
61	0x3c21f9ac	0.009886187
62	0xbc45ea66	-0.012079811
63	0x3c3960eb	0.011314611
64	0xbc3f0adc	-0.011660304
65	0x3c01b6b2	0.007917093
66	0xbc3e9cca	-0.011634061
67	0xbc3a7cd0	-0.011382297
68	0xbc3e36aa	-0.011609713
69	0x3c32ee74	0.0109211095
70	0x3c548c56	0.012972912
71	0x3c30a991	0.010782615
72	0x3c5b0da8	0.013369955
73	0x3ca63667	0.020289613
74	0x3c4d090a	0.012514362
75	0x3c4172c2	0.011807146
76	0x3c1d3b50	0.009596661
77	0xbc311392	-0.010807889
78	0xbc7a1410	-0.015263572
79	0x3c5a6b88	0.0133313015
80	0x3c50d7b4	0.01274674
81	0xbc11fae8	-0.008909918
82	0x3c88fefa	0.016723145
83	0x3c29a5ea	0.010354498
84	0x3c23518c	0.009968173
85	0x3c45c5a6	0.012071049
86	0x3c5fe922	0.013666423
87	0xbc6294af	-0.013829394
88	0x3c441d8d	0.011969936
89	0x3c2ccac8	0.010546394
90	0x3c545e75	0.012961973
91	0xbc465f3f	-0.012107669
92	0x3c3a7cfb	0.011382337
93	0x3c72913b	0.014805133
94	0xbc86ae1b	-0.016440442
95	0x3bd6b10c	0.0065518674
96	0xbc526c33	-0.0128431795
97	0xbc138ff5	-0.00900649
98	0xbc4c355a	-0.012463892
99	0xbc232cbc	-0.009959396

linear_out.weight f4 [2, 100]
0	0x3e354816	0.1770328
1	0x3ea04320	0.31301212
2	0x3eb7c2c8	0.35890794
3	0x3dba0004	0.09082034
4	0xbd70b8ec	-0.058770105
5	0x3e01c6b7	0.1267346
6	0xbdb6a4f1	-0.08918179
7	0xbe70d79f	-0.23519753
8	0xbe3479a6	-0.1762453
9	0x3e6eee42	0.23333076
10	0x3ec8ef13	0.392449
11	0xbd3f97b2	-0.046775527
12	0x3e08b4be	0.13350198
13	0x3e8fac07	0.28060934
14	0xbe125462	-0.14290002
15	0x3d21912a	0.03944508
16	0x3d9dfd9a	0.07714386
17	0x3d8f32dd	0.06992123
18	0xbe3a364e	-0.18184778
19	0xbdff2221	-0.124576814
20	0xbd6a44cf	-0.057194527
21	0x3d778a7d	0.060434807
22	0xbdf00d97	-0.11721342
23	0xbd19e68a	-0.037573375
24	0xbdcad314	-0.09903541
25	0x3d002bf4	0.031291917
26	0xbd30ec62	-0.043194182
27	0xbd88cd77	-0.06679814
28	0x3d4ab799	0.0494915
29	0x3e1075ac	0.14107388
30	0x3dc3978a	0.09550388
31	0xbbad3190	-0.0052854493
32	0x3bbdf20c	0.0057966765
33	0x3de3c44b	0.11121424
34	0xbe17994b	-0.1480457
35	0x3dda52c7	0.1066032
36	0xbd058362	-0.032596
37	0xbda43073	-0.080170535
38	0xbd783310	-0.060595572
39	0xbe00d586	-0.12581453
40	0x3e2d4104	0.16919333
41	0xbdb43573	-0.08799257
42	0xbe308c96	-0.1724113
43	0xbe315a78	-0.17319667
44	0xbd07562e	-0.03304117
45	0xbd46777c	-0.048453793
46	0xbddc0d6d	-0.10744748
47	0x3e173fed	0.1477048
48	0xbdcb30dd	-0.09921429
49	0xbca28fc4	-0.019843943
50	0xbe82c0b5	-0.2553765
51	0xbca9013e	-0.020630475
52	0x3e04ac35	0.12956317
53	0xbe9a11e7	-0.30091783
54	0xbc964146	-0.018341672
55	0xbd9834b4	-0.07431927
56	0x3e0a4b6a	0.1350533
57	0xbe124562	-0.1428428
58	0xbe212062	-0.1573501
59	0x3e5eab32	0.21744993
60	0xbd8468fa	-0.06465335
61	0xbc474bc0	-0.012164056
62	0xbd82b123	-0.063814424
63	0x3d0e61f0	0.03476137
64	0x3cfe1810	0.031017333
65	0xbde693da	-0.11258669
66	0xbd6c7168	-0.05772534
67	0x3d9719bf	0.073779576
68	0x3db45112	0.088045254
69	0x3df54d1d	0.11977599
70	0xbd62bc37	-0.055355277
71	0x3d8b3886	0.0679789
72	0x3e0e4bd6	0.13896117
73	0xbdaa551c	-0.083170146
74	0xbd4285cf	-0.04749089
75	0x3e67072c	0.2256133
76	0xbdcff832	-0.101547614
77	0xbe5b104d	-0.21392937
78	0x3da38c3c	0.07985732
79	0xbbe77394	-0.0070633385
80	0x3ddf3407	0.10898595
81	0xbe17cb24	-0.14823586
82	0xbc30d362	-0.010792585
83	0x3eb225cf	0.3479447
84	0x3ea0d8ee	0.31415504
85	0xbdb2d8ed	-0.087327816
86	0xbe6da725	-0.23208292
87	0x3d97b54c	0.074076265
88	0xbd7680ac	-0.060181305
89	0xbea426ae	-0.3206076
90	0xbd3eb657	-0.04656061
91	0xbe166b08	-0.14689267
92	0x3e0c5f78	0.13708293
93	0xbe45a837	-0.1930245
94	0xbe0f263c	-0.13979429
95	0xbd979f19	-0.07403392
96	0xbe4942ad	-0.19654341
97	0x3e1da0c1	0.15393354
98	0xbd26294a	-0.04056672
99	0xbe58e948	-0.2118274
100	0x3e4b6f27	0.1986662
101	0xbda3e65d	-0.08002923
102	0x3e0246ee	0.1272237
103	0xbd2adcae	-0.041714363
104	0xbc43975c	-0.011937942
105	0xbc945639	-0.01810752
106	0xbe8f7fda	-0.2802723
107	0xbdef1a4a	-0.11674936
108	0xbb5c012e	-0.003357004
109	0x3dc885fb	0.0979118
110	0xbe759a45	-0.2398463
111	0x3dd76228	0.10516769
112	0x3e78cffe	0.24298093
113	0xbe72e835	-0.23721392
114	0x3dbaedf7	0.091274194
115	0xbcc0a1fc	-0.02351474
116	0x3e8eec69	0.27914742
117	0xbc36f170	-0.011165962
118	0xbd77b0b7	-0.060471263
119	0x3cff276a	0.031146724
120	0x3e0b339d	0.13593908
121	0xbd4adc79	-0.049526665
122	0x3ddc6a51	0.10762466
123	0x3d164c46	0.036693834
124	0xbd0df0ba	-0.034653403
125	0xbbc19322	-0.005907432
126	0xbe216f1a	-0.15765038
127	0x3e193710	0.14962411
128	0xbe36fe4e	-0.17870447
129	0x3d1e74ca	0.038685597
130	0x3e238ff0	0.15972877
131	0xbdde9c3a	-0.108696416
132	0xbda13b07	-0.07872587
133	0xbe3d8367	-0.18507157
134	0xbc819236	-0.01581679
135	0x3db49b3a	0.088186696
136	0x3e073fcf	0.13207935
137	0x3eafe31d	0.3435296
138	0x3cecc6d7	0.028903408
139	0xbce788c3	-0.028263455
140	0x3e5a5354	0.2132085
141	0xbddc771b	-0.10764905
142	0x3cb4b1ce	0.02205744
143	0xbd893162	-0.06698872
144	0xbe1e586c	-0.15463418
145	0x3d37a392	0.044833727
146	0x3c63b5bf	0.013898312
147	0x3d935c69	0.0719536
148	0x3e2cc889	0.16873373
149	0xbcc5b02d	-0.024131859
150	0x3ea4e02e	0.32202286
151	0xbe47f209	-0.19525923
152	0xbc3460bd	-0.011009392
153	0x3e41161e	0.18856093
154	0xbd849e28	-0.064754784
155	0x3e18d10a	0.14923492
156	0xbda0c62a	-0.07850297
157	0xbe0b9e7e	-0.13634679
158	0x3dda7511	0.1066686
159	0xbe57f5b9	-0.2108983
160	0x3e242726	0.16030559
161	0xbbb8693b	-0.005627779
162	0xbce0df58	-0.027450249
163	0xbd997618	-0.07493228
164	0xbe3d4962	-0.18485025
165	0x3c866d15	0.016409436
166	0x3df8c644	0.12147191
167	0xbd4cc22c	-0.049989864
168	0xbda5b906	-0.08091931
169	0xbca68f7f	-0.020332096
170	0xbcf16a88	-0.029469743
171	0x3c6d0623	0.014466795
172	0x3c72b0c1	0.014812649
173	0x3dac9079	0.084259935
174	0xbec65da4	-0.38743317
175	0xbe84934f	-0.25893638
176	0x3dc7bc75	0.09752742
177	0xbe748dd2	-0.23882225
178	0xbe40d362	-0.18830636
179	0xbe7f3d53	-0.24925737
180	0xbdac219c	-0.08404848
181	0x3daa0c96	0.08303182
182	0xbd318e44	-0.043348566
183	0xbd9e0414	-0.077156216
184	0xbe8fa35e	-0.28054327
185	0x3e19acaf	0.1500728
186	0xbe56f33a	-0.20991221
187	0xbe5f89df	-0.21829937
188	0x3e0bb26b	0.1364228
189	0xbd1dbb83	-0.038508903
190	0xbc5a3e75	-0.013320555
191	0x3dce6afe	0.10079001
192	0x3e08c088	0.13354695
193	0xbeb30b6a	-0.34969646
194	0xbd76a5ee	-0.060216837
195	0xbdaee34c	-0.08539447
196	0xbc1b626b	-0.009483914
197	0x3e2cad22	0.1686292
198	0xbea195cc	-0.31559598
199	0xbe0c2aff	-0.13688277

linear_out.bias f4 [2]
0	0x3bd36d6c	0.006452253
1	0x3c5f7986	0.013639813

layers.0.weight f4 [100, 100]
0	0xbd4237e5	-0.047416586
1	0xbdc3ad14	-0.095544964
2	0x3e15b922	0.14621404
3	0xb9a0e5b7	-0.0003068873
4	0x3d352b97	0.044231024
5	0x3de838e2	0.113389745
6	0x3e12199d	0.14267583
7	0xbda23be4	-0.079215795
8	0x3de63488	0.11240488
9	0xbd4c692c	-0.049904987
10	0xbda4fed8	-0.0805642
11	0xbe1d80b5	-0.15381129
12	0x3df83c60	0.121208906
13	0xbd78ce3d	-0.06074356
14	0x3e098bde	0.13432261
15	0x3e3f66a2	0.18691495
16	0x3df0e71c	0.117628306
17	0x3c30b58b	0.010785471
18	0x3e034375	0.12818702
19	0x3e0017ae	0.12509033
20	0xbe60421d	-0.2190022
21	0xbd8c4865	-0.06849746
22	0x3d88d1a8	0.06680614
23	0xbcc5652f	-0.0240961
24	0x3d82b705	0.063825645
25	0xbdac4b84	-0.08412841
26	0xbd9b81d4	-0.07593122
27	0x3c8298ad	0.015941942
28	0xbe09c9c5	-0.13455875
29	0x3da9108b	0.082551084
30	0xbe4dc500	-0.20094681
31	0xbe0025cf	-0.12514423
32	0xbe2a0515	-0.16603501
33	0x3dc96fc6	0.09835772
34	0x3e73f998	0.23825681
35	0x3d766dff	0.060163494
36	0x3db70add	0.08937619
37	0xbda60b19	-0.081075855
38	0x3e044764	0.12917858
39	0x3d492e6f	0.04911655
40	0x3c654bd5	0.013995131
41	0x3e4ec458	0.20192087
42	0x3c2bfb32	0.010496901
43	0xb9898321	-0.00026228375
44	0x3e30d20a	0.17267624
45	0x3d699f95	0.057036955
46	0xbe6d32b6	-0.23163876
47	0x3b14440d	0.002262357
48	0x3d2197a9	0.039451275
49	0x3df825ff	0.12116622
50	0xbd1e0339	-0.038577292
51	0x3ddbc8af	0.10731637
52	0xbdb7e4f2	-0.08979215
53	0x3d927905	0.07151989
54	0x3d7f683c	0.062355265
55	0xbe251747	-0.16122161
56	0x3e27c1da	0.16382542
57	0xbe067bb7	-0.13133131
58	0xbd88e029	-0.0668338
59	0xbd80fd7f	-0.062983505
60	0xbc3c31ec	-0.011486512
61	0xbd969966	-0.07353477
62	0x3d690139	0.05688593
63	0x3da6c359	0.08142728
64	0x3daeffef	0.08544909
65	0xbd98c370	-0.07459152
66	0xba73f371	-0.000930599
67	0xbe7c47c2	-0.24636748
68	0xbd22ca94	-0.039743975
69	0xbe2dbe3a	-0.16967097
70	0x3de72c84	0.112877876
71	0xbd84a147	-0.06476074
72	0x3d83ae41	0.06429721
73	0x3c4f0456	0.012635311
74	0xbd7427da	-0.059608318
75	0xbb4af295	-0.0030967344
76	0x3dee3e88	0.11633021
77	0xbcf50049	-0.029907363
78	0x3d9354cf	0.0719391
79	0xbe23816a	-0.15967336
80	0xbdedfd69	-0.116206
81	0x3d195a20	0.037439466
82	0xbc1c3ac0	-0.0095354915
83	0x3d2daa39	0.042398665
84	0xbdf23526	-0.118265435
85	0xbd5fba38	-0.05462095
86	0xbcc277e0	-0.023738801
87	0xbda9ad1e	-0.082849726
88	0x3d6021bb	0.054719668
89	0xbcc8d9de	-0.02451795
90	0x3e369422	0.17829946
91	0xbc7feb6c	-0.015620094
92	0xbdea3c27	-0.114372544
93	0xbcc69454	-0.02424065
94	0xbcd7fc44	-0.026365407
95	0xbdd49cca	-0.10381468
96	0x3d8942e4	0.067022115
97	0xbdd79e4d	-0.1052824
98	0xbdea2c8f	-0.1143428
99	0x3cdc9db4	0.026930667
100	0xbc36c53a	-0.011155421
101	0x3dc10c96	0.09426229
102	0xbd294c1a	-0.04133234
103	0x3d143d4e	0.036191277
104	0x3e1b7c38	0.15184104
105	0xbd8c17b5	-0.06840459
106	0x3e570aa2	0.2100015
107	0x3cf0e803	0.029407507
108	0xbd9deeac	-0.07711539
109	0xbce1a0dc	-0.027542524
110	0xbd3e1866	-0.046409987
111	0x3d4ff28d	0.050768424
112	0x3e6e22e8	0.23255503
113	0xbd1eec63	-0.038799655
114	0xbdd3f84f	-0.103500955
115	0x3dc9780d	0.09837351
116	0xbe017c47	-0.12645064
117	0xbda733c6	-0.08164172
118	0x3d87f5ff	0.06638717
119	0x3cfc938f	0.03083208
120	0x3e4deacd	0.201091
121	0x3deff31f	0.117162935
122	0x3d5051d9	0.050859306
123	0xbd9b067e	-0.07569598
124	0x3e481cc1	0.19542219
125	0x3c89c5fa	0.016818035
126	0x3c725eed	0.01479314
127	0xbe1d9796	-0.15389857
128	0x3d1eb351	0.03874523
129	0x3df17f75	0.117918886
130	0xbd452656	-0.048132263
131	0xb96b7936	-0.00022456501
132	0xbe052a3e	-0.13004395
133	0xbde39f05	-0.11114315
134	0xbd86b949	-0.06578309
135	0xbd3b0ac8	-0.04566458
136	0xbcbc091e	-0.022953566
137	0x3d0c39ce	0.034234814
138	0x3e1381b8	0.14404953
139	0xbdb016b4	-0.0859808
140	0x3d940914	0.07228294
141	0x3da6941c	0.08133718
142	0xbc8c6c60	-0.017141521
143	0x3cd8a5d7	0.026446266
144	0xbe04b5f8	-0.1296004
145	0x3db0ba8a	0.086293295
146	0xbde36bd1	-0.11104549
147	0xbad9997b	-0.0016601527
148	0x3dc245e3	0.09485986
149	0xbe02e743	-0.12783532
150	0x3cd91bcf	0.026502518
151	0xbd5db6ad	-0.05412929
152	0xbd9a814f	-0.07544195
153	0xbd016c7c	-0.0315976
154	0x3daa476c	0.08314404
155	0xbcf72e2f	-0.03017339
156	0xbd8524f7	-0.06501191
157	0x3e22121e	0.15827224
158	0xbe162b14	-0.1466487
159	0xbdc4147a	-0.09574218
160	0xbd95f199	-0.07321472
161	0x3d72b39c	0.05925332
162	0x3d51b92f	0.051201995
163	0xbe37f95e	-0.1796622
164	0x3d2f158f	0.04274517
165	0xbe480c2b	-0.19535892
166	0xbd232ff9	-0.039840672
167	0xbd0cba10	-0.03435713
168	0x3d54fe7a	0.0520005
169	0x3c4aff9c	0.012390044
170	0xbdc48bb1	-0.095969565
171	0x3e0fb208	0.14032757
172	0x3e32776c	0.17428368
173	0x3d8df3b8	0.06931251
174	0x3d51c9c3	0.051217806
175	0xbbcaf016	-0.0061931713
176	0x3d25105c	0.040298805
177	0x3ce4ccd6	0.027929705
178	0x3e0ada16	0.13559756
179	0xbde1e8fe	-0.11030768
180	0xbe397dbb	-0.18114369
181	0x3de560c8	0.112001
182	0x3e11a4eb	0.14223067
183	0xbd25db90	-0.040492594
184	0xbe2eb1b9	-0.17059983
185	0xbd73d93a	-0.059533335
186	0xbd7db855	-0.06194337
187	0xbd0f1bbd	-0.034938563
188	0xbc36bebd	-0.011153874
189	0xbd31dfc7	-0.0434263
190	0x3dc0ce6e	0.09414373
191	0x3b41e09f	0.0029583347
192	0x3d6a7b49	0.05724648
193	0xbd7dff7d	-0.06201123
194	0xbe76cefb	-0.24102394
195	0xbe4549ca	-0.1926643
196	0xbe59f4a4	-0.21284729
197	0x3e20e71e	0.15713164
198	0x3c9d10d8	0.01917307
199	0x3dfd41db	0.123660766
200	0xbe01fb22	-0.12693456
201	0xbcc52413	-0.024065053
202	0x3c4c696c	0.012476306
203	0xbb4a7ce5	-0.0030897197
204	0xbd589234	-0.052873805
205	0x3d8b3d68	0.06798822
206	0xbe1ac225	-0.15113123
207	0xbd87a881	-0.066239364
208	0xbda3bf1f	-0.07995438
209	0x3e0566ea	0.1302754
210	0xbda5efb8	-0.08102363
211	0x3cfd5fbd	0.03092944
212	0x3b41877c	0.0029530218
213	0x3d094cac	0.033520386
214	0xbcdf6e23	-0.027274197
215	0x3cf1da32	0.029522989
216	0xbddce233	-0.107853316
217	0xbbfc1003	-0.0076923384
218	0x3d84c80b	0.06483468
219	0xbd0b3347	-0.03398445
220	0xbcec19b0	-0.028820843
221	0xbd1297eb	-0.03578941
222	0xbd76cb7b	-0.060252648
223	0xbcc939aa	-0.02456363
224	0x3d9f5e46	0.07781653
225	0xbd934aaf	-0.07191979
226	0xbe119dd9	-0.1422037
227	0xbd19c4c1	-0.037541155
228	0x3cd1efa2	0.025626961
229	0x3d51ee41	0.051252607
230	0x3d84c1e9	0.06482298
231	0x3da10ab9	0.07863373
232	0x3e4221bd	0.18958183
233	0x3cdf26a1	0.0272401
234	0x3b3bf16b	0.0028677832
235	0x3e3bc69e	0.18337485
236	0x3d1f93c2	0.038959272
237	0x3d34fd18	0.04418668
238	0x3e228d7c	0.15874285
239	0xbc1da9bb	-0.009622986
240	0x3df429f5	0.11922065
241	0x3ccc4a6a	0.024937827
242	0xbe7de943	-0.24796014
243	0x3de3c545	0.111216106
244	0x3d528089	0.051392112
245	0xbdd1fca3	-0.10253265
246	0xbd06bef1	-0.03289694
247	0x3db0492c	0.086077064
248	0xbd8e851f	-0.069589846
249	0x3d7f6c91	0.062359396
250	0xbdd8360d	-0.10557184
251	0xbe0a17ae	-0.13485596
252	0x3dd48ca3	0.10378387
253	0xbd226571	-0.039647523
254	0xbd4277bc	-0.04747747
255	0xbba2895d	-0.0049602226

layers.0.bias f4 [100]
0	0x3c626849	0.013818809
1	0x3c6142f7	0.013748876
2	0xbc36894b	-0.011141132
3	0x3c4dd8b8	0.012563877
4	0xbc985e3f	-0.018599628
5	0x3c719585	0.014745121
6	0xbc3d2d1b	-0.0115463985
7	0x3c0b86ad	0.008515996
8	0xbc8ea30c	-0.017411731
9	0x3c47cb46	0.01219446
10	0xbc33356e	-0.010938032
11	0x3bf46f40	0.007459551
12	0x3c38a765	0.011270379
13	0x3c73412f	0.014847084
14	0xbccf2765	-0.02528734
15	0xbc81a676	-0.015826445
16	0x3c49ac43	0.012309137
17	0xbc349579	-0.011021965
18	0x3c494365	0.0122841345
19	0xbc5da3ee	-0.013527853
20	0xbc3aafbe	-0.011394439
21	0x3c2ed5a2	0.010671051
22	0xbc752692	-0.014962809
23	0xbc719b77	-0.014746538
24	0xbc0ee7fd	-0.0087223025
25	0x3c50b31a	0.012738014
26	0xbc4f5ca3	-0.012656364
27	0xbc1c3dab	-0.009536187
28	0xbc3613f3	-0.011113155
29	0xbc3ae317	-0.0114066815
30	0xbc3a929c	-0.011387493
31	0x3c3dcc2d	0.011584324
32	0xbc350692	-0.01104893
33	0xbc5f8bc1	-0.01364416
34	0x3c3624ab	0.011117141
35	0xbc53d141	-0.012928308
36	0x3c6b6331	0.014366911
37	0x3c110b26	0.008852756
38	0x3c41af3a	0.011821562
39	0xbc52f785	-0.012876396
40	0x3c8f0aec	0.017461263
41	0x3bbf25d1	0.0058333655
42	0xbc71b965	-0.014753674
43	0xbc2c0cf3	-0.010501134
44	0xbc1b057a	-0.009461755
45	0xbcbca5df	-0.023028312
46	0x3c4046b0	0.011735603
47	0x3bd9ddca	0.006648754
48	0x3c74df8f	0.014945879
49	0x3bf62eb8	0.0075128935
50	0xbc229536	-0.00992327
51	0xbc22ca45	-0.00993592
52	0x3c51f5fb	0.012814994
53	0xbc66f0f7	-0.014095536
54	0x3c302bf9	0.010752671
55	0x3c9202f3	0.017823672
56	0x3c122b76	0.008921495
57	0xbc312e5b	-0.010814275
58	0x3c173cd4	0.009230811
59	0x3c2a00a6	0.010376131
60	0xbc3785f8	-0.011201374
61	0xbc4f5fd4	-0.012657125
62	0xbc3e4559	-0.011613213
63	0x3c22065b	0.009889211
64	0x3c4d3245	0.012524192
65	0xbc4e1b56	-0.01257976
66	0xbc4dc710	-0.012559667
67	0x3c1564dc	0.009118285
68	0xbc2294c7	-0.009923167
69	0xbc349c0d	-0.0110235335
70	0xbc077a23	-0.008268866
71	0xbc87d495	-0.01658086
72	0x3c6b220c	0.014351379
73	0xbc5fab26	-0.013651645
74	0xbc43a21d	-0.011940506
75	0x3c5db1da	0.013531173
76	0x3c8b1cc3	0.016981488
77	0x3c53cde4	0.012927506
78	0xbc3424be	-0.010995088
79	0x3c3ec6b9	0.011644059
80	0x3cb1fae6	0.021726083
81	0x3c35c386	0.01109398
82	0xbc3c5aa9	-0.011496224
83	0xbc10a80d	-0.008829129
84	0xbc2dc8fb	-0.0106069995
85	0x3c5b0ced	0.013369781
86	0xbc289f4f	-0.010291888
87	0x3c23218b	0.009956728
88	0x3ae031d6	0.0017104696
89	0xbc3b1917	-0.011419556
90	0x3c4788fb	0.012178655
91	0x3c5dc958	0.013536774
92	0x3c28e44b	0.010308336
93	0xbc38c8af	-0.011278315
94	0xbc169289	-0.00919021
95	0x3c249cbf	0.010047137
96	0x3c620bbc	0.013796743
97	0xbc2a75b1	-0.010404036
98	0xbc014d1e	-0.007891921
99	0xbc29e643	-0.01036984

layers.1.weight f4 [100, 100]
0	0x3d998000	0.07495117
1	0xbe0d196f	-0.13779233
2	0x3d96d012	0.07363905
3	0x3d38c6c5	0.045111436
4	0x3e01ade5	0.12663992
5	0xbd4e85e5	-0.05042066
6	0x3e0c0bf4	0.13676435
7	0xbd4a822d	-0.04944055
8	0xbe0980c1	-0.13428022
9	0x3d9f12f1	0.07767285
10	0xbd7bd797	-0.0614849
11	0x3e61b96a	0.22043386
12	0x3e4b48d2	0.19851997
13	0x3d99ccd7	0.07509773
14	0x3d4d2624	0.0500852
15	0xbc2a276d	-0.010385376
16	0xbe099464	-0.13435513
17	0xbdc21710	-0.09477055
18	0xbddc66e2	-0.10761811
19	0x3e05bcef	0.13060354
20	0x3cde636b	0.027147016
21	0xbde76af7	-0.11299699
22	0x3e0568d3	0.13028269
23	0xbe108589	-0.1411344
24	0x3d122e36	0.0356886
25	0xbb381fa8	-0.002809504
26	0x3d30ba5e	0.043146484
27	0x3dfe36e3	0.124128126
28	0x3dad40f9	0.08459658
29	0xbd4f8595	-0.050664503
30	0xbe510822	-0.20413259
31	0xbe2f80ba	-0.17138949
32	0xbd355a5e	-0.044275634
33	0x3d4f5ae1	0.05062378
34	0xbe20e1e2	-0.15711167
35	0x3e760d4d	0.24028511
36	0x3df4015f	0.11914324
37	0xbcce308f	-0.025169639
38	0x3d0c416d	0.034242082
39	0x3cc15d3d	0.02360403
40	0xbdd6fcde	-0.10497449
41	0xbc323625	-0.010877167
42	0x3dedb213	0.116062306
43	0x3e299e65	0.16564329
44	0xbe724708	-0.23659909
45	0x3dbc6b3b	0.0920014
46	0x3e3d60a8	0.18493903
47	0x3d6a0e11	0.05714232
48	0x3e17c540	0.14821339
49	0x3d50b999	0.05095825
50	0x3e4e5bf7	0.2015227
51	0x3da79f35	0.08184663
52	0x3d44204a	0.047882356
53	0x3df97bf4	0.12181845
54	0x3cef8316	0.029237311
55	0x3e1fbd0b	0.15599458
56	0xbd90d3de	-0.070716605
57	0xbd345d2a	-0.04403416
58	0x3ca15439	0.01969348
59	0x3cd7d6d5	0.026347557
60	0xbaf0a209	-0.0018358837
61	0x3d98f36b	0.07468303
62	0x3bbb9576	0.0057246042
63	0xbde67d59	-0.11254377
64	0x3b9df4a6	0.004820424
65	0x3d9125f1	0.07087315
66	0x3ceefaff	0.029172419
67	0x3d33d4f8	0.043904275
68	0x3bc852c8	0.006113384
69	0xbe44ad71	-0.19206788
70	0x3caeda81	0.021344425
71	0xbd055bb8	-0.032558173
72	0xbd09330e	-0.033495955
73	0xbe46725d	-0.19379564
74	0xbcdee0db	-0.027206829
75	0xbca8e568	-0.020617202
76	0xbd1fee62	-0.0390457
77	0xbe558d31	-0.20854641
78	0xbde1fcba	-0.11034532
79	0x3e1e3654	0.15450412
80	0x3e3e11ac	0.18561429
81	0x3d5c4aae	0.053782158
82	0xbde75ebf	-0.11297368
83	0x3cdb079b	0.026737025
84	0x3e08ddba	0.13365832
85	0x3e1c4243	0.15259652
86	0x3dc491c7	0.09598117
87	0x3c7c3510	0.01539351
88	0x3d7fc109	0.062439952
89	0x3ccf4f22	0.025306288
90	0xbe7a11c1	-0.24420835
91	0xbbe1ca94	-0.0068906043
92	0x3bc5c820	0.0060358196
93	0xbd861945	-0.065477885
94	0xbdce2311	-0.10065282
95	0xbd46da65	-0.04854812
96	0x3d138502	0.036015518
97	0x3da7aa19	0.081867404
98	0xbb2b62e8	-0.0026151482
99	0x3da0721d	0.078342654
100	0xbc9b0d10	-0.018927127
101	0x3e0ae22d	0.13562842
102	0xbd88c63f	-0.066784374
103	0xbdd83680	-0.1055727
104	0xbd0b622f	-0.034029182
105	0xbd1b319c	-0.037889108
106	0xbe0fe5bb	-0.14052479
107	0x3d3c6b06	0.046000503
108	0x3e1c7457	0.15278755
109	0x3deb5f85	0.11492828
110	0x3e693864	0.22775418
111	0xbcd00911	-0.025394948
112	0x3d737f46	0.05944755
113	0xbd87b963	-0.066271566
114	0x3d2c0e24	0.042005673
115	0xbd3e1750	-0.04640895
116	0x3de29dba	0.1106524
117	0xbdd7f074	-0.1054391
118	0x3d1e6c29	0.03867737
119	0x3da7bd12	0.08190359
120	0x3e16c668	0.14724123
121	0xbbc0d197	-0.00588436
122	0x3c87687b	0.016529312
123	0xbbe18063	-0.00688176
124	0x3e400fc0	0.18756008
125	0x3d9ab6ac	0.07554373
126	0x3dab0de1	0.083522566
127	0xbe0f1e7e	-0.13976476
128	0xbddd4917	-0.108049564
129	0xbda82696	-0.08210485
130	0x3e962825	0.29327503
131	0xbce671e2	-0.028130475
132	0xbcf4e0dd	-0.02989238
133	0xbd92c063	-0.07165601
134	0xbcda924c	-0.026681088
135	0xbdc1c10b	-0.09460648
136	0x3ddcad90	0.10775292
137	0xbd8914fa	-0.06693454
138	0xbcf7e994	-0.030262746
139	0xbd79d04e	-0.06098967
140	0x3dfe944c	0.12430629
141	0xbd8ddf22	-0.06927325
142	0xbdf2eb45	-0.1186128
143	0x3d9ac413	0.075569294
144	0x3d716e28	0.058942944
145	0x3d3ee80e	0.046608023
146	0x3d3a1812	0.04543311
147	0x3d88c62e	0.06678425
148	0xbdd18442	-0.10230304
149	0x3c950162	0.018189136
150	0xbc3dd1c1	-0.011585654
151	0xbe2429d0	-0.16031575
152	0x3d63e58e	0.055638842
153	0xbcd6cb1a	-0.026219893
154	0xbe07799e	-0.13229987
155	0xbc338804	-0.010957722
156	0x3ddb3a8e	0.10704528
157	0xbc965394	-0.0183504
158	0xbdf7ab7f	-0.12093257
159	0x3d05403d	0.032531966
160	0x3d7c626a	0.061617292
161	0x3b5def6c	0.003386463
162	0x3bbcc95d	0.005761309
163	0xbd1606fb	-0.03662775
164	0xbe88c094	-0.26709425
165	0xbd3e57ac	-0.04647033
166	0x3e3009e3	0.17191271
167	0x3c8f6fd3	0.017509377
168	0xbe1ec777	-0.15505777
169	0x3d0f282a	0.034950413
170	0xbe6d5562	-0.23177102
171	0xbdb474cc	-0.0881134
172	0xbe1c7389	-0.15278448
173	0x3d7ea00c	0.06216435
174	0x3b7c36b2	0.003848475
175	0xbd982762	-0.07429387
176	0xbdcc1a3e	-0.09965943
177	0x3c937fb1	0.018005224
178	0x3e4a58e6	0.19760475
179	0xbdc0da8c	-0.094166845
180	0xbd18dc0a	-0.03731922
181	0xbd8d1106	-0.068880126
182	0xbcfde88c	-0.030994676
183	0x3e0604da	0.13087788
184	0x3db136dc	0.08653042
185	0x3e24ec30	0.16105723
186	0x3e764a0c	0.24051684
187	0xbd18b316	-0.037280165
188	0xbcd8cba3	-0.026464289
189	0x3d93b865	0.07212905
190	0xbb10a86c	-0.0022073044
191	0x3df894b5	0.121377386
192	0xbe44c1e7	-0.19214593
193	0x3df1fd4e	0.11815892
194	0x3e02848a	0.12745872
195	0xbde1b5ec	-0.11021027
196	0x3b35d329	0.002774427
197	0x3db7abf1	0.08968342
198	0x3dd16baa	0.102256134
199	0x3d4e74ee	0.05040448
200	0xbe3605ec	-0.17775697
201	0x3d9e5e3a	0.07732816
202	0xbe3d8a7b	-0.18509857
203	0xbdfe5228	-0.12418014
204	0x3c633112	0.01386668
205	0x3d9c2870	0.076249
206	0x3d6d5e59	0.057951305
207	0x3cd23afc	0.025662892
208	0x3e058d73	0.1304224
209	0x3debc75f	0.115126364
210	0x3dd05d7e	0.10174082
211	0x38d28742	0.00010038774
212	0xbda94807	-0.08265691
213	0xbddfecf0	-0.10933864
214	0x3d21105b	0.03932224
215	0xbd915953	-0.07097115
216	0xbca2d5c1	-0.019877316
217	0xbd20b312	-0.039233275
218	0xbdf094f7	-0.11747163
219	0x3c883451	0.016626509
220	0xbd33c56f	-0.04388946
221	0xbcc9b6ce	-0.0246233
222	0x3cb7ca3a	0.022435296
223	0x3c0672ea	0.008206109
224	0x3c9cee7d	0.019156689
225	0xbdb41967	-0.087939076
226	0xba7a7e32	-0.0009555548
227	0xbc8199a6	-0.015820336
228	0x3d8758e2	0.0660875
229	0xbd770348	-0.060305864
230	0xbd8cdb94	-0.06877819
231	0x3e200118	0.15625417
232	0x3e19af1b	0.15008204
233	0x3d4d8fd0	0.05018598
234	0xbc601c70	-0.013678655
235	0xbd097391	-0.03355748
236	0xbd9a99a9	-0.075488396
237	0xbdf31664	-0.11869505
238	0x3bb9d0a4	0.005670624
239	0xbd63efd6	-0.055648647
240	0xbc9ff194	-0.019524373
241	0xbdd64384	-0.10462096
242	0xbdd25d74	-0.10271731
243	0x3e0ee8e2	0.13956025
244	0xbce1c9ad	-0.027561987
245	0x3dae3f26	0.08508138
246	0x3e228fc0	0.15875149
247	0x3db0082e	0.0859531
248	0x3cbdf978	0.023190245
249	0x3b214957	0.0024610364
250	0x3d78f7f9	0.06078336
251	0x3e44067a	0.19143096
252	0x3e126420	0.14296007
253	0xbbb05aa2	-0.005381898
254	0x3dedabd9	0.11605043
255	0xbdfb635f	-0.12274813

layers.1.bias f4 [100]
0	0xbc2da634	-0.010598708
1	0xbc3815e5	-0.011235689
2	0xbc2401a8	-0.0100101605
3	0x3b1b5046	0.002369897
4	0xbc34d3b8	-0.011036806
5	0x3c216b6d	0.009852272
6	0xbc0c6255	-0.008568366
7	0x3bf08872	0.0073404843
8	0xbc32a7dc	-0.010904279
9	0xbc31cbbb	-0.010851796
10	0x3c703f2c	0.014663499
11	0x3a76c64d	0.00094137044
12	0x3c41bbc1	0.011824549
13	0xbc29340e	-0.010327352
14	0x3c47d33a	0.012196356
15	0xbc59d6f0	-0.013295874
16	0x3c01b1e2	0.007915946
17	0xbbec24cb	-0.0072065345
18	0xbc4cc435	-0.012497951
19	0xbc3c032e	-0.0114753675
20	0x3c5ee44c	0.013604235
21	0x3bf54f9e	0.0074862977
22	0x3c2c73ba	0.010525638
23	0x3bbd5340	0.0057777464
24	0x3c37db63	0.011221739
25	0xbc104b8c	-0.008807074
26	0xbc5c8eff	-0.013461827
27	0xbc40cb7b	-0.0117672635
28	0xbc24985b	-0.01004609
29	0x3c33c72c	0.010972779
30	0xbc36bb5d	-0.011153069
31	0x3c3a0aaf	0.011355086
32	0x3c390596	0.011292836
33	0xbc061921	-0.008184702
34	0xbc34be0e	-0.011031641
35	0x3c06e4a1	0.00823322
36	0xbc9f93cf	-0.01947966
37	0xbc23d5f4	-0.009999741
38	0x3baac7aa	0.00521179
39	0x3c1888a7	0.009309924
40	0x3c2e2fe9	0.01063154
41	0xbbdbc66e	-0.0067070043
42	0x3c0f1de9	0.0087351585
43	0xbc37e1da	-0.011223281
44	0x3c3e94bd	0.011632142
45	0xbc28630f	-0.010277524
46	0xbc395f14	-0.011314172
47	0x3c7dd5eb	0.015492897
48	0x3b0fff04	0.002197207
49	0x3c1c9087	0.009555942
50	0x3c48f88c	0.012266289
51	0xbc093e52	-0.008376675
52	0xbc1a1108	-0.009403475
53	0x3c0a6bf1	0.008448587
54	0xbc368ae5	-0.0111415135
55	0xbc388ed4	-0.011264522
56	0x3caf7e03	0.021422392
57	0xbbd2206d	-0.006412557
58	0xbc803d6e	-0.015654292
59	0x3c4e2a56	0.012583336
60	0x3c679dae	0.014136715
61	0x3c895ff6	0.01676939
62	0xbc067bfe	-0.008208273
63	0x3c429072	0.011875259
64	0x3c1398c8	0.009008594
65	0x3c192aff	0.00934863
66	0xbbd8f42a	-0.0066209035
67	0x3c4e5af8	0.012594931
68	0x3cb1197a	0.021618593
69	0x3c2cb983	0.010542276
70	0xbc424765	-0.011857842
71	0x3c25eb11	0.010126845
72	0xbc337bb4	-0.010954786
73	0xbc352e24	-0.011058364
74	0x3c483064	0.0122185685
75	0xbc0f661f	-0.008752375
76	0xbc425a33	-0.0118623255
77	0xbbee550a	-0.007273321
78	0x3c1c3836	0.009534886
79	0xbbfffdc6	-0.0078122346
80	0xba6d7c79	-0.00090593804
81	0xbc96fdc5	-0.018431554
82	0x3c4e765a	0.012601459
83	0xbc34cef3	-0.011035669
84	0xbc2f464a	-0.010697911
85	0xbc54672c	-0.012964051
86	0x3c173f96	0.009231469
87	0xbc0dcb73	-0.008654463
88	0xbc2efa8b	-0.010679851
89	0x3bc3abac	0.0059713926
90	0xbc4250a0	-0.011860043
91	0xbc2e0937	-0.010622314
92	0x3c3cea3e	0.011530457
93	0x3c5be1d8	0.013420545
94	0xbc119870	-0.008886442
95	0x3c45878e	0.012056245
96	0xbc34daed	-0.011038524
97	0x3c2969d4	0.010340173
98	0x3c19e864	0.009393785
99	0xbc15dc4f	-0.009146764

layers.2.weight f4 [100, 100]
0	0x3d779fce	0.060455136
1	0xbb914d2c	-0.0044342484
2	0x3c15fabe	0.00915402
3	0x3df677f9	0.12034602
4	0x3dc9ee65	0.09859923
5	0x3c017860	0.007902235
6	0x3c9ad42e	0.018900003
7	0xbd5e732c	-0.054309055
8	0xbd982a10	-0.07429898
9	0x3d8603f3	0.06543722
10	0xbd92c3ad	-0.071662284
11	0xbc1c5bd9	-0.009543383
12	0xbd458ebb	-0.04823182
13	0xbe21ceb5	-0.15801509
14	0xbd335dd2	-0.043790646
15	0x3e3d56ea	0.18490186
16	0xbdbe1171	-0.092806704
17	0x3e193b47	0.14964019
18	0x3be42caa	0.006963332
19	0xbd5b2be1	-0.053508643
20	0xbe1cbce8	-0.15306437
21	0xbd9a84fe	-0.075448975
22	0xbe47704b	-0.1947643
23	0xbc3446bf	-0.011003195
24	0xbdd9a6ae	-0.10627495
25	0x3e52dd15	0.20592149
26	0x3da6f2b4	0.08151761
27	0x3d194ffc	0.037429795
28	0xbccd45e1	-0.025057735
29	0xbd8b9d1d	-0.06817076
30	0x3d8fb123	0.07016208
31	0x3c05bf3c	0.00816327
32	0x3df97710	0.121809125
33	0x3dadf1ff	0.08493423
34	0x3ce38c16	0.02777676
35	0x3db0f4e2	0.08640458
36	0xbca64beb	-0.020299872
37	0x3e21cf0b	0.15801637
38	0x3dc04872	0.09388818
39	0xbd202457	-0.039097156
40	0x38faac9d	0.00011953081
41	0x3a3efb57	0.00072853774
42	0xbd15089c	-0.036385164
43	0xbe8f52d5	-0.27992883
44	0xbcf17c47	-0.029478205
45	0xbc43c9c0	-0.011949956
46	0x3e6395d5	0.22225125
47	0x3d5e5a36	0.05428525
48	0x3d768bb4	0.060191825
49	0x3e1d88cb	0.15384214
50	0x3e93bbb4	0.28854144
51	0x3e95e2f5	0.29274717
52	0xbd7a10d7	-0.061051216
53	0x3dc0d29d	0.09415171
54	0xbde7023d	-0.11279724
55	0x3d855234	0.065098196
56	0xbd32070a	-0.043463744
57	0xbddeba48	-0.10875374
58	0xbe610c2d	-0.21977301
59	0xbe194abb	-0.14969914
60	0x3bb6dd2b	0.0055805645
61	0xbdea0be0	-0.11428046
62	0x3d0d0feb	0.03443901
63	0x3d2f39db	0.042779785
64	0x3ca344b3	0.01993022
65	0x3c827faa	0.015930016
66	0x3bf00866	0.00732522
67	0xbd82ff1d	-0.06396315
68	0xbe8c6626	-0.27421683
69	0x3dfc999a	0.12333985
70	0x3dfe56c1	0.12418891
71	0xbdb6d426	-0.08927183
72	0xbc40c727	-0.011766232
73	0xbe157256	-0.14594397
74	0x3e2ad204	0.16681677
75	0x3d82a2f7	0.06378739
76	0x3c83792e	0.016048994
77	0xbd150d9e	-0.03638994
78	0x3d283546	0.04106643
79	0x3d4333f6	0.047656976
80	0x3cab16e2	0.020884935
81	0x3d897d78	0.067133844
82	0xbcfadc15	-0.030622521
83	0xbba9161b	-0.005160106
84	0x3d7d4af9	0.061839078
85	0xbc1afbcb	-0.009459446
86	0x3d8f95a8	0.070109665
87	0xbdfa9fb1	-0.1223749
88	0xbcab3366	-0.020898532
89	0x3dcd4a45	0.100239314
90	0x3d616f7e	0.055037968
91	0x3c22cd9f	0.009936719
92	0xbcad47f2	-0.02115247
93	0x3d683274	0.05668874
94	0x3d3981f8	0.045289963
95	0x3d76a671	0.060217325
96	0x3dee5dae	0.11638962
97	0xbc8142f5	-0.015778998
98	0x3dc5ab8a	0.09651859
99	0xbcc90d30	-0.024542421
100	0xbd0e4589	-0.034734283
101	0x3cba6fd6	0.022758406
102	0x3e4e6789	0.20156683
103	0x3cb42ed0	0.021994978
104	0x3da88ba4	0.08229759
105	0x3e54e9c5	0.20792301
106	0xbb05bc29	-0.0020406342
107	0x3d6e0fee	0.05812066
108	0xbda166af	-0.078809135
109	0x3ddc0110	0.1074239
110	0xbd8a10b3	-0.067414664
111	0xbdb35035	-0.08755533
112	0xbd7d702f	-0.061874565
113	0xbbf4ad75	-0.0074669668
114	0xbcaa5631	-0.020793052
115	0xbda50762	-0.08058049
116	0xbd8dfbf4	-0.06932822
117	0xbdb7a86d	-0.089676715
118	0x3e12d9a4	0.14340836
119	0x3dac5a5e	0.08415674
120	0xbc49ac6c	-0.012309175
121	0x3e551efe	0.20812604
122	0xbda134b1	-0.07871378
123	0xbdfffdb8	-0.12499565
124	0xbbff4e4e	-0.007791317
125	0xbd6abef9	-0.057311032
126	0x3d8bcc4b	0.06826075
127	0x3d0f4c42	0.034984834
128	0x3cb53a79	0.022122608
129	0x3d2fcd1e	0.042920224
130	0x3df8d827	0.12150603
131	0xbdd9edd9	-0.10641069
132	0x3dd7f683	0.10545065
133	0x38c28b40	9.276578e-05
134	0x3e272ed4	0.16326457
135	0xbdc19a89	-0.09453303
136	0xbd9dc552	-0.077036515
137	0xbd863c17	-0.0655443
138	0x3d7a28ba	0.061073996
139	0xbda756a5	-0.08170823
140	0x3ccb98f6	0.02485321
141	0x3daed6b4	0.08537045
142	0xbd4a457b	-0.049382668
143	0x3d031560	0.032002807
144	0xbd7af3c7	-0.06126764
145	0xbdd00ca9	-0.10158665
146	0xbcca293d	-0.024677867
147	0x3e15df92	0.14636067
148	0xbd1529c7	-0.036416795
149	0xbd8d5dcd	-0.06902657
150	0xbd9a1193	-0.07522883
151	0x3cfb3af4	0.03066776
152	0xbe05ee96	-0.13079295
153	0xbd86bcc6	-0.065789744
154	0xbd68d33a	-0.056842066
155	0xbdcd5d93	-0.100276135
156	0xbc50fa56	-0.012754997
157	0x3bd99b8f	0.0066408585
158	0xbe314b6a	-0.17313924
159	0xbddda24e	-0.10821973
160	0x3ccb91df	0.02484983
161	0xbd1fbce8	-0.038998514
162	0x3e7b0ba5	0.24516161
163	0x3d54eae2	0.051981814
164	0xbdb34c77	-0.08754819
165	0xbd10dff0	-0.035369813
166	0x3df6b357	0.12045925
167	0xbe0e74ac	-0.13911694
168	0x3d95674a	0.072950915
169	0x3dd332e1	0.10312439
170	0xbd4f86be	-0.05066561
171	0x3cac38ef	0.021023242
172	0x3be0abb6	0.006856407
173	0x3d2607ff	0.04053497
174	0xbddc084d	-0.10743771
175	0xbc626a39	-0.013819271
176	0xbd4aa354	-0.049472168
177	0xbe25a496	-0.16176066
178	0x3d456bdf	0.048198577
179	0x3ad08feb	0.0015912032
180	0x3d9b399a	0.07579346
181	0xbb4df33a	-0.0031425492
182	0xbdcaa21b	-0.098942004
183	0xbd0f0023	-0.03491224
184	0xbd4ab406	-0.04948809
185	0x3d81980b	0.06327828
186	0xbcd63154	-0.026146568
187	0x3d66e53a	0.05637095
188	0xbe25a9e6	-0.16178092
189	0xbdaf1887	-0.085496
190	0xbe2fe60f	-0.17177604
191	0x3dc51621	0.096233614
192	0x3d71bd7d	0.0590186
193	0x3da6acec	0.08138451
194	0xbdc7898b	-0.09743031
195	0x3d8e8837	0.06959575
196	0x3cc5176d	0.024059022
197	0x3ce56002	0.027999882
198	0xbd3c29a4	-0.04593815
199	0x3d74d7f3	0.059776258
200	0xbe18eca2	-0.14934018
201	0x3e79162d	0.24324866
202	0xbc491027	-0.012271917
203	0xbd0d5475	-0.034504373
204	0x3e07e6fb	0.13271706
205	0xbb97194e	-0.004611171
206	0xbd2ffc1d	-0.042965043
207	0xbd33a71a	-0.043860532
208	0x3de67168	0.11252099
209	0xbd4f35fb	-0.05058859
210	0xbe10266a	-0.14077154
211	0xbc810f44	-0.01575435
212	0x3d9cd7d5	0.07658354
213	0x3e1cf3dd	0.15327401
214	0xbc40ddb6	-0.01177161
215	0xbdf827f9	-0.12116999
216	0x3d976c4c	0.07393703
217	0xbd16812d	-0.036744285
218	0x3baeedd5	0.0053384104
219	0xbcc70455	-0.024294058
220	0xbd3239d8	-0.043512195
221	0xbc11b91a	-0.008894229
222	0xbd938790	-0.07203591
223	0x3dbc55ac	0.09196028
224	0xbe2f3ee0	-0.17113829
225	0x3e4eb807	0.20187388
226	0xbbd74826	-0.00656988
227	0x3de02f07	0.1094647
228	0xbc8a19cb	-0.016858002
229	0x3e7ae403	0.24501042
230	0xbb031e3e	-0.002000704
231	0xbd80738e	-0.0627204
232	0x3a1bf70e	0.0005949595
233	0x3d6d7ecf	0.057982262
234	0xbda84bed	-0.08217607
235	0x3b1055da	0.0022023828
236	0xbd758faa	-0.05995146
237	0xbe9567f6	-0.29180878
238	0xbda315eb	-0.07963165
239	0x3d27dd76	0.040982686
240	0xbc09fa42	-0.0084214825
241	0x3e28c01b	0.16479532
242	0x3d2e4a73	0.04255147
243	0x3e2eb186	0.17059907
244	0x3c2c2944	0.010507885
245	0x3d9f2421	0.07770563
246	0xbd93cb3e	-0.072165
247	0x3d12b528	0.035817295
248	0x3dd5c198	0.10437316
249	0x3da8a7bb	0.08235117
250	0xbdcfff2c	-0.10156092
251	0xbddab451	-0.10678924
252	0xbdaf3321	-0.08554674
253	0xbd631fcd	-0.05545025
254	0x3e0de9fc	0.13858789
255	0x3e324f6e	0.17413113

layers.2.bias f4 [100]
0	0xbc1cc823	-0.009569201
1	0xbc103786	-0.0088023
2	0xbc1229fd	-0.008921144
3	0x3c0f93fa	0.008763308
4	0x3bffbb5f	0.007804319
5	0xbc186533	-0.0093014715
6	0xbc110e87	-0.008853561
7	0xbbfdaf35	-0.0077418336
8	0x3c5a598d	0.013327015
9	0xbc1e765e	-0.009671776
10	0x3c3f3391	0.011670009
11	0x3c06c457	0.008225522
12	0xbc14c17b	-0.009079332
13	0x3c0d6247	0.008629388
14	0x3c41bb22	0.011824401
15	0x3c5c5573	0.013448107
16	0x3be152e6	0.0068763373
17	0xbc1f8df0	-0.00973843
18	0xbc01d20a	-0.007923612
19	0x3c15bcfd	0.009139297
20	0xbbff2179	-0.0077859727
21	0xbc0a5f76	-0.008445611
22	0xbc1ff2d0	-0.009762481
23	0xbc37b8d2	-0.011213498
24	0xbc0332bf	-0.008007704
25	0x3c63b7ec	0.013898831
26	0x3b0a0ae0	0.002106361
27	0xbc2941de	-0.010330645
28	0xbc24b200	-0.010052204
29	0xbc3a2c0c	-0.011363041
30	0xbbdfc8e7	-0.0068293693
31	0x3bf1f3c2	0.0073837945
32	0x3b16d42c	0.0023014648
33	0x3c5c6406	0.013451582
34	0xbc0f6695	-0.008752485
35	0x3c0ddcf6	0.008658638
36	0x3c251a44	0.010077063
37	0xbbc73d21	-0.006080285
38	0x3c0c76be	0.008573232
39	0xbc1654bd	-0.009175477
40	0xbc338029	-0.010955849
41	0xbb6bd036	-0.0035982258
42	0x3c426190	0.011864081
43	0x3be2a233	0.0069163083
44	0x3c1b3125	0.009472166
45	0x3c3cf80e	0.01153375
46	0x3c0c6a6e	0.008570297
47	0xbc263d52	-0.010146456
48	0x3c11b0c7	0.008892245
49	0x3c5073a5	0.012722884
50	0xbc550aeb	-0.013003091
51	0x3c21b745	0.009870355
52	0x3c3aa0e7	0.011390901
53	0xbc28deb1	-0.010307
54	0xbc14c0a8	-0.009079136
55	0xbc04d6fe	-0.008107899
56	0xbc0c31ab	-0.008556764
57	0xbbc31683	-0.0059536113
58	0xbc07be14	-0.008285064
59	0x3c2fce4e	0.010730339
60	0xbc151030	-0.009098098
61	0xbc30fd25	-0.010802542
62	0x3c217f2b	0.009856979
63	0x3c2e2411	0.010628716
64	0x3c0881c9	0.008331724
65	0xbc15309d	-0.009105829
66	0xbbee6587	-0.0072752866
67	0xbbf0799a	-0.007338715
68	0x3cb04373	0.021516537
69	0x3c1d413f	0.009598075
70	0xbc0bd7de	-0.0085353535
71	0x3c4ac2b7	0.012375525
72	0xbc2c5fb4	-0.010520864
73	0xbc3b2aee	-0.011423809
74	0xbbc0f3c6	-0.005888435
75	0xbc47e8c7	-0.012201495
76	0xbbe6264b	-0.007023608
77	0x3c099028	0.008396186
78	0x3c4de0f0	0.012565836
79	0x3c49c115	0.012314101
80	0x3c46fa70	0.01214467
81	0x3c4dce09	0.01256133
82	0x3c35440d	0.011063588
83	0xbc075e8a	-0.008262286
84	0x3c19bd2a	0.009383479
85	0x3c1541b1	0.0091099
86	0xbc1ba09a	-0.00949874
87	0x3c1e4590	0.00966014
88	0x3c03e461	0.008050055
89	0x3c34cfc3	0.011035862
90	0x3c27e271	0.010246859
91	0xbc6494c8	-0.013951488
92	0xbc4fc133	-0.01268034
93	0xbc0e6692	-0.008691447
94	0xbc2aa747	-0.010415859
95	0x3c14676f	0.009057864
96	0xbba6ab0a	-0.0050863074
97	0xbb4833c4	-0.0030548433
98	0xbc12d4b1	-0.008961842
99	0xbc01ee34	-0.007930327

layers.3.weight f4 [100, 100]
0	0x3c4eefa3	0.012630376
1	0x3e10ac07	0.14128123
2	0xbc8f4b2b	-0.017491898
3	0xbe01ac13	-0.12663297
4	0x3e37b9a5	0.17941912
5	0x3d934879	0.071915574
6	0xbdb5419f	-0.08850407
7	0xbd944607	-0.07239919
8	0x3da6c036	0.0814213
9	0x3d88a19f	0.06671452
10	0xbcdaf35b	-0.026727369
11	0xbe31f11f	-0.17377137
12	0xba39665b	-0.0007072442
13	0x3c42dbde	0.011893241
14	0x3c1e5f93	0.009666341
15	0x3cace9dd	0.021107608
16	0x3d9c90b7	0.0764479
17	0xbe68bc6b	-0.22728126
18	0xbc66389c	-0.014051583
19	0x3d8ec26f	0.06970679
20	0x3db9db07	0.09074979
21	0xbd0cf4aa	-0.034413017
22	0x3aec84ab	0.0018044909
23	0xbde424a7	-0.111398034
24	0xbd820037	-0.06347697
25	0x3e21af60	0.15789557
26	0x3d8faf72	0.070158854
27	0x3d35bcbf	0.044369455
28	0x3d65479d	0.0559765
29	0x3d97b8a8	0.07408267
30	0xbdfbe1fd	-0.12298963
31	0x3bf1c79c	0.0073785316
32	0xbd9036dd	-0.07041714
33	0xbd684975	-0.05671068
34	0xbde5a952	-0.11213936
35	0xbd06b4a8	-0.03288713
36	0x3de7a5ec	0.11310944
37	0x3e0689df	0.13138531
38	0x3d8e2c42	0.06942035
39	0xbde48e04	-0.111599
40	0xbdb1fcda	-0.08690806
41	0x3e299432	0.16560438
42	0xbdee0310	-0.11621678
43	0x3d9d3abf	0.076772206
44	0xbd12a9c8	-0.035806447
45	0x3d22eb5a	0.03977523
46	0xbc576202	-0.0131459255
47	0x3c012ffe	0.007884977
48	0x3ccaf0ae	0.024772968
49	0xbd8c34ac	-0.06845984
50	0x3e1af3ca	0.1513206
51	0xbd8ced7b	-0.06881233
52	0x3d5962ad	0.05307262
53	0xbdf4fe50	-0.11962569
54	0xbddbba3f	-0.10728883
55	0x3d38e336	0.04513856
56	0xbe1d7b13	-0.1537898
57	0xbd31ec1a	-0.043438055
58	0xbe21a307	-0.15784846
59	0xbd861ca7	-0.06548434
60	0xbd228e65	-0.03968658
61	0x3e1503bd	0.14552207
62	0xbcbb266f	-0.022845475
63	0x3dcd49f2	0.100238696
64	0x3e3a97e4	0.18222004
65	0xbbea315a	-0.0071469964
66	0xbd14c884	-0.03632404
67	0x3d368526	0.044560574
68	0x3cd893ab	0.026437601
69	0xbd5a0acc	-0.053232953
70	0x3d6f6099	0.058441732
71	0x3e80b0b7	0.25134823
72	0x3e0e18c0	0.13876629
73	0xbc775639	-0.015096241
74	0xbcbead9f	-0.023276148
75	0x3ddab241	0.106785305
76	0xbb14d8f7	-0.002271233
77	0xbdcb14fe	-0.09916113
78	0xbd35b189	-0.044358764
79	0x3ddab952	0.10679878
80	0xbd3c8c4a	-0.046032228
81	0xbe45c1dc	-0.19312233
82	0xbd1f97b8	-0.03896305
83	0x3c5582b2	0.0130316485
84	0x3e1209b3	0.14261512
85	0xbe56109e	-0.20904776
86	0x3dcb7c6d	0.09935842
87	0xbe33ab52	-0.17545822
88	0x3c640433	0.013917017
89	0x3ccf26ad	0.025286997
90	0x3dbf20d2	0.09332432
91	0x3cd9b4a9	0.026575403
92	0x3d74e40b	0.05978779
93	0xbc6a9481	-0.014317633
94	0x3cf7620c	0.03019812
95	0xbdc0b7fb	-0.094100915
96	0xbdb43601	-0.08799363
97	0xbd5d115d	-0.053971637
98	0x3de09572	0.109660044
99	0x3ce55593	0.027994907
100	0x3d582cd3	0.052777123
101	0x3e31273d	0.17300124
102	0xbd9f7c8c	-0.07787427
103	0xbdfc3471	-0.1231469
104	0xbcfa626f	-0.030564515
105	0xbd0d3413	-0.03447349
106	0xbc4af2b2	-0.012386965
107	0xbd3720dc	-0.04470907
108	0xbc990d55	-0.018683115
109	0xbd5aaa78	-0.053385228
110	0xbd912e5a	-0.07088919
111	0xbd75bdef	-0.059995588
112	0x3d9262b5	0.07147733
113	0xbd9f7c4b	-0.07787379
114	0x3c87c64a	0.016574044
115	0xbcfde952	-0.030995045
116	0xbcc4af66	-0.024009418
117	0x3d126c22	0.035747655
118	0xbe2ae88a	-0.16690269
119	0x3da94fde	0.082671866
120	0xbdd9db99	-0.10637588
121	0x3c862d92	0.016379151
122	0xbddc6e46	-0.107632205
123	0x3ded3479	0.11582274
124	0x3d4b63b1	0.04965562
125	0x3dacb44a	0.08432825
126	0x3b3fca14	0.0029264735
127	0x3dacc0ed	0.08435235
128	0xbd467a3a	-0.048456408
129	0x3d7b4ea7	0.061354306
130	0xbd540d8e	-0.05177074
131	0x3cde78e4	0.027157255
132	0xbd02760b	-0.031850856
133	0x3d1fdea7	0.039030697
134	0xbca2993a	-0.019848455
135	0xbcfb8854	-0.030704655
136	0xbe5d33fa	-0.21601859
137	0x3c9497ac	0.018138729
138	0x3c4ec8d0	0.01262112
139	0xbdc44b7b	-0.09584709
140	0x3e02d221	0.1277547
141	0x3d76f6ef	0.060294088
142	0x3d6a7e1d	0.057249177
143	0xbce3f862	-0.0278284
144	0xbd6312fe	-0.055438034
145	0xbd6840be	-0.056702368
146	0xbd95f082	-0.07321264
147	0x3e1d2f0d	0.1534998
148	0x3b7a45ff	0.0038188694
149	0x3d877a64	0.06615141
150	0xbd7654ae	-0.06013935
151	0x3d6fb7ae	0.05852478
152	0xbb0203a1	-0.0019838589
153	0xbdef7bce	-0.11693536
154	0xbe3266e0	-0.17422056
155	0x3d204e20	0.039137006
156	0x3ddb3cb0	0.107049346
157	0xbe4a7805	-0.19772346
158	0x3daca864	0.084305555
159	0xbd6ca052	-0.05777008
160	0xbca26ee3	-0.019828266
161	0xbe66c6da	-0.22536793
162	0xbaf97c94	-0.001903432
163	0xbd9db852	-0.07701172
164	0xbea002b0	-0.3125205
165	0xbdedddde	-0.116145834
166	0xbd185fa7	-0.037200596
167	0x3cd54df4	0.026038148
168	0xbc9fe6ae	-0.019519176
169	0x3db7e0cb	0.08978423
170	0x3dbf43a2	0.09339072
171	0x3a3802c2	0.0007019454
172	0xbcb5c3bc	-0.02218806
173	0xbe25c70a	-0.16189209
174	0xbd344e61	-0.04402006
175	0x3e2a7c5b	0.16649
176	0x3d0af550	0.033925354
177	0x3b23d79b	0.0025000337
178	0x3db78dc7	0.08962589
179	0xbe2db7d7	-0.1696466
180	0xbd857f6b	-0.06518444
181	0x3dedd27c	0.11612412
182	0xbda0e9b6	-0.07857077
183	0x3e1813d2	0.14851311
184	0xbe00184b	-0.12509267
185	0xbd2eb448	-0.0426524
186	0xbdd4cff7	-0.10391229
187	0x3e4ed4b3	0.20198326
188	0xbd6dfa04	-0.05809976
189	0x3e2ca26a	0.16858831
190	0xbde351bf	-0.11099576
191	0x3cf3b3a9	0.029748755
192	0x3e17fd5f	0.14842747
193	0x3d9256ac	0.071454376
194	0xbdb04d6b	-0.08608516
195	0xbd17c404	-0.03705217
196	0xbdebde6f	-0.11517035
197	0xbd83b1ba	-0.06430383
198	0xbe5c4369	-0.2151009
199	0xbda9fed8	-0.08300561
200	0x3e078516	0.13234362
201	0xbe24ef4f	-0.16106914
202	0x3ab41cde	0.0013741513
203	0xbe7c638e	-0.24647352
204	0x3d77d78b	0.060508292
205	0xbce332d6	-0.027734201
206	0x3d11e71a	0.035620786
207	0xbdf6617d	-0.12030313
208	0x3dad0c54	0.08449617
209	0x3db56566	0.08857231
210	0x3d2519d9	0.040307853
211	0x3dec2e76	0.11532299
212	0xbde12160	-0.10992694
213	0x3e1ddd33	0.15416412
214	0x3e3d23df	0.18470715
215	0x3dfe6819	0.12422199
216	0x3d70c373	0.058780145
217	0xbe2f202d	-0.17102118
218	0xbd383a14	-0.044977263
219	0x3d9645cc	0.073375314
220	0x3daed30a	0.08536346
221	0x3e12a3a6	0.1432024
222	0xbdf7205f	-0.12066721
223	0xbdcf7763	-0.10130193
224	0xbdf2e9be	-0.11860989
225	0xbdf68af9	-0.12038226
226	0xbe034b03	-0.12821583
227	0x3c196e2e	0.009364648
228	0xbe26d0a0	-0.16290522
229	0xbe19d7c1	-0.1502371
230	0x3dcf8d57	0.1013438
231	0x3e1e27a4	0.15444809
232	0xbbf8e733	-0.0075959205
233	0xbda5e39e	-0.08100055
234	0xbcb70d11	-0.022345098
235	0xbe07ad15	-0.1324962
236	0xbddfebb1	-0.109336264
237	0x3d367fbc	0.04455541
238	0xbe5d9d4e	-0.21642038
239	0x3d305634	0.04305096
240	0x3d8fde5b	0.07024833
241	0x3d5485d3	0.051885437
242	0xbdb2c5ee	-0.08729158
243	0x3e2e1aa9	0.17002358
244	0x3dafb792	0.08579935
245	0xbd6ea451	-0.058262173
246	0x3d0fa80d	0.035072375
247	0xbe273fde	-0.16332957
248	0xbdfc2a4c	-0.12312755
249	0xbe03ccf3	-0.1287115
250	0xbdabb356	-0.08383815
251	0xbbb20df6	-0.005433793
252	0xbd8c7112	-0.06857504
253	0xbdf8f88a	-0.1215678
254	0xbd66feac	-0.056395218
255	0xbde70eb8	-0.11282104
