main/continuous_time_inference (Schrodinger)/models_iters/pt_model_Schrodinger_9300.pt (torch, 209136 bytes, 14 tensors)

linear_in.weight f4 [100, 2]
0	0x3e36f2e7	0.17866097
1	0x3e55754a	0.20845523
2	0xbd0c71ae	-0.0342881
3	0xbe215995	-0.15756829
4	0x3e144852	0.14480713
5	0x3e14a390	0.14515519
6	0xbd486392	-0.048923083
7	0x3d003104	0.031296745
8	0x3e86b2ca	0.2630828
9	0x3d6e168c	0.05812697
10	0xbe2412ee	-0.16022846
11	0x3e7cca8a	0.24686638
12	0x3d793f09	0.06085113
13	0xbdc24d70	-0.09487426
14	0xbef7b7d2	-0.4838243
15	0xbdfa21a2	-0.12213446
16	0x3d87d704	0.06632808
17	0x3dc70824	0.097183496
18	0xbe011c1f	-0.12608384
19	0x3ea75a44	0.32686055
20	0xbe484112	-0.19556072
21	0x3d8f17c0	0.06986952
22	0xbd1fa476	-0.0389752
23	0x3e061bc4	0.13096529
24	0xbe5c897f	-0.21536826
25	0xbde7b1c5	-0.11313204
26	0x3d719b4e	0.058986
27	0xbe818896	-0.2529952
28	0x3dbe3123	0.09286716
29	0xbd874caa	-0.066064194
30	0x3e313262	0.17304376
31	0x3e7a680d	0.24453755
32	0x3e80f4b1	0.25186685
33	0xbe51d455	-0.20491154
34	0x3ea91168	0.33021092
35	0x3dc5507a	0.0963449
36	0xbd7b1856	-0.061302505
37	0xbe194e60	-0.14971304
38	0x3db47665	0.088116445
39	0xbd9c887f	-0.07643222
40	0xbe7fb608	-0.24971783
41	0xbd5e8408	-0.054325134
42	0xbe6a46c8	-0.22878563
43	0x3ea8556e	0.32877678
44	0xbe385399	-0.1800064
45	0xbe7cefc6	-0.24700841
46	0x3deef230	0.11667287
47	0x3d3a7282	0.04551936
48	0x3dfac44b	0.12244471
49	0xbdfa415a	-0.12219496
50	0xbe05edf7	-0.13079058
51	0xbd7f227d	-0.06228875
52	0x3e0abe56	0.1354917
53	0xbd888a6c	-0.06667027
54	0x3de15b10	0.11003697
55	0xbd9b8c99	-0.07595176
56	0x3dea1066	0.11428909
57	0x3d853d2a	0.06505807
58	0xbe9a263f	-0.30107304
59	0x3e00a8db	0.12564413
60	0x3eb3e1f5	0.3513333
61	0x3e3f226e	0.18665478
62	0xbcc7a1bb	-0.024369111
63	0xbd3b4aa2	-0.045725472
64	0x3d98ef83	0.07467558
65	0x3e5ec74c	0.21755713
66	0x3e47ebcf	0.19523548
67	0x3d4b4b37	0.049632277
68	0x3ec8f1d7	0.3924701
69	0xbe695c05	-0.22789009
70	0x3deee646	0.11665015
71	0x3e5358fd	0.20639415
72	0x3e05f2ef	0.13080953
73	0x3e8dea1f	0.27717683
74	0x3d0ecfc0	0.034866095
75	0x3e0f0082	0.13965037
76	0xbd718e13	-0.058973383
77	0xbecc6b49	-0.39925602
78	0xbd90eda9	-0.0707658
79	0x3d8f0222	0.06982829
80	0x3e86576a	0.26238567
81	0xbda9ce2a	-0.08291276
82	0xbea7c9fd	-0.32771292
83	0xbcf98449	-0.030458586
84	0xbe38bb6a	-0.18040243
85	0xbe2bc332	-0.1677368
86	0xbeaf8cf8	-0.34287238
87	0xbd8252a9	-0.063634224
88	0xbdb3c1a6	-0.0877717
89	0xbd809a4c	-0.0627943
90	0xbe854b52	-0.26034027
91	0xbe07d44f	-0.13264583
92	0xbb0d3b2e	-0.0021550166
93	0xbe6a7ed2	-0.2289994
94	0x3e66973c	0.22518629
95	0x3e5f5fd0	0.21813893
96	0xbe3945dd	-0.18093057
97	0xbc9d8b67	-0.019231511
98	0x3d145afc	0.036219582
99	0xbea9f0de	-0.3319158
100	0x3dfa408a	0.12219341
101	0xbdbb5318	-0.09146708
102	0x3c6238a6	0.013807451
103	0x3ddeb23e	0.10873841
104	0xbcfd85ea	-0.030947644
105	0xbe53ae28	-0.20671904
106	0x3e26d49e	0.16292045
107	0xbe3f9b9d	-0.18711706
108	0x3e2dc30a	0.16968933
109	0xbe9bbe12	-0.3041845
110	0xbc861de7	-0.01637168
111	0xbe6555cd	-0.22396012
112	0x3f03d1dd	0.514921
113	0xbe3dfc3b	-0.1855325
114	0xbe22b2db	-0.1588854
115	0x3cd34b0f	0.025792627
116	0x3da7b618	0.081890285
117	0xbc0b9490	-0.008519307
118	0xbedbc6fd	-0.42925254
119	0x3df3ce4d	0.11904583
120	0x3e4b003e	0.19824311
121	0x3db41e9b	0.087949
122	0xbd956cb2	-0.072961226
123	0x3db6b9fb	0.08922192
124	0xbe41710e	-0.18890783
125	0xbe39a0c2	-0.1812773
126	0x3dbd7d2c	0.0925239
127	0xbd6b4396	-0.0574375
128	0xbdf491e5	-0.1194189
129	0x3e0dfc5e	0.13865802
130	0xbe6c887a	-0.23098937
131	0xbe3794ad	-0.17927809
132	0xbe133c12	-0.14378384
133	0x3e83622a	0.2566083
134	0xbd7896fe	-0.060690872
135	0x3dbd4cb7	0.09243148
136	0x3e0bbeb0	0.1364696
137	0xbd1ca405	-0.03824236
138	0xbd9fb4b3	-0.077981375
139	0x3e45bdf4	0.19310743
140	0x3eab1703	0.33415994
141	0x3bf7150c	0.007540351
142	0xbe1fc5e5	-0.15602835
143	0xbda6bc00	-0.08141327
144	0xbdc37984	-0.09544662
145	0xbe664930	-0.22488856
146	0x3d4731f3	0.04863162
147	0x3d8d0c20	0.06887078
148	0xbe87c6e6	-0.26518935
149	0xbe0fcc4b	-0.14042775
150	0x3da98f09	0.08279235
151	0xbb90d801	-0.004420281
152	0xbe309de2	-0.17247728
153	0xbbaf5061	-0.005350158
154	0x3e640e20	0.22271013
155	0x3e8c8c88	0.27450967
156	0xbd9f1c54	-0.07769075
157	0x3e68a927	0.22720776
158	0xbeb64c0b	-0.3560489
159	0xbecb32c6	-0.39687175
160	0x3e6b3a15	0.22971375
161	0xbe110c28	-0.14164793
162	0xbd5a306a	-0.053268827
163	0x3dbadbd5	0.09123961
164	0x3e14ddff	0.1453781
165	0x3b07fc0e	0.0020749602
166	0xbc379c15	-0.011206646
167	0x3dc03099	0.09384269
168	0x3d33e41d	0.043918718
169	0xbe302ba5	-0.17204149
170	0x3e55f81d	0.20895429
171	0x3e884aab	0.26619467
172	0xbded38cb	-0.11583098
173	0x3e8eca4d	0.27888718
174	0x3e1037bc	0.14083761
175	0xbd48e238	-0.049043864
176	0xbdc5da94	-0.09660831
177	0x3db9467f	0.09046649
178	0xbc7f573b	-0.015584762
179	0xbe881f9a	-0.2658661
180	0x3decdbcf	0.11565363
181	0xbdbd0486	-0.092293784
182	0xbd9c7cd8	-0.076409996
183	0x3e8d3471	0.27579072
184	0x3ef71e0a	0.48265105
185	0x3dc6ddc9	0.09710271
186	0x3d63dff4	0.0556335
187	0x3df92c6a	0.121666744
188	0x3c50bf74	0.0127409585
189	0x3e276e9a	0.16350785
190	0x3b39927a	0.0028316067
191	0x3e7a6f13	0.24456434
192	0x3e7bad09	0.24577726
193	0x3cd45d41	0.025923373
194	0xbe48c31d	-0.1960568
195	0xbac8c113	-0.001531633
196	0xbea18e7a	-0.31554013
197	0x3dfe73b0	0.124244094
198	0xbdab6085	-0.08368019
199	0x3d9a65aa	0.07538922

linear_in.bias f4 [100]
0	0x3e0e7053	0.13910036
1	0x3d5d080b	0.05396275
2	0xbe7941ca	-0.24341503
3	0x3e73c68e	0.23806211
4	0x3e3e8f96	0.18609461
5	0xbe11adf6	-0.14226517
6	0x3dbfaaaa	0.093587235
7	0x3dc80225	0.09766034
8	0x3e09515a	0.1340994
9	0xbe451f1d	-0.1925015
10	0x3dcf2da3	0.101161264
11	0x3d65006d	0.05590861
12	0x3d209ff5	0.039215047
13	0x3e1314d5	0.14363416
14	0x3e22e353	0.1590703
15	0x3df71e4d	0.12066326
16	0x3e5334a2	0.20625547
17	0xbdd736c1	-0.1050849
18	0x3dcdf512	0.10056509
19	0xbdb7c353	-0.08972802
20	0xbdac4b18	-0.084127605
21	0xbc20c482	-0.009812476
22	0x3e544a76	0.2073153
23	0x3e453961	0.1926017
24	0x3d249051	0.040176693
25	0xbe0c3b0a	-0.13694397
26	0x3ddf033c	0.10889289
27	0xbc98419e	-0.018585976
28	0xbd1a8146	-0.03772094
29	0x3de788c4	0.11305383
30	0x3cf9a1aa	0.030472595
31	0x3c1c9bed	0.00955866
32	0xbdd6a1bb	-0.104800664
33	0x3e43c49d	0.19117971
34	0xbe1ba425	-0.15199335
35	0xbebbb22f	-0.3665938
36	0x3b893b30	0.004187964
37	0xbe9eae00	-0.30992126
38	0x3e19527e	0.14972875
39	0x3e3a5ac8	0.18198693
40	0x3da15272	0.07877053
41	0xbe002543	-0.12514214
42	0xbc812172	-0.015763018
43	0x3e180847	0.14846908
44	0xbd043640	-0.0322783
45	0xbce57e70	-0.028014392
46	0x3d9b5942	0.07585384
47	0xbe5c4032	-0.21508864
48	0x3df40102	0.11914255
49	0x3d992f92	0.074797764
50	0xbdc81d25	-0.09771184
51	0xbd60a5aa	-0.05484549
52	0xbe052fc6	-0.13006505
53	0x3d319540	0.043355227
54	0x3aeb71e8	0.0017963024
55	0x3c788008	0.015167244
56	0xbdfd9788	-0.12382418
57	0x3e324bf2	0.17411783
58	0x3da44766	0.08021431
59	0xbe3a0590	-0.18166184
60	0xbe21fd4a	-0.15819278
61	0x3d8e5482	0.06949712
62	0xbe3e4732	-0.18581846
63	0x3e4d7aef	0.20066427
64	0xbdc9ccf2	-0.09853543
65	0x3d6318ff	0.05544376
66	0xbe17daf2	-0.14829615
67	0xbe7eabd4	-0.24870235
68	0xbcd129e2	-0.025532667
69	0x3d98cbe4	0.07460764
70	0x3d909e50	0.07061446
71	0x3e887a86	0.26655978
72	0xbd029d58	-0.031888336
73	0x3e626cf8	0.22111881
74	0x3e4e2385	0.20130737
75	0x3db9984c	0.090622514
76	0x3d0825cd	0.033239175
77	0xbd9a14b8	-0.07523483
78	0xba55d752	-0.00081573904
79	0x3daa062d	0.08301959
80	0x3d80312f	0.06259381
81	0xbd967598	-0.07346648
82	0x3d9d97ee	0.07694994
83	0x3d5c5a32	0.053796954
84	0x3db810b5	0.089875616
85	0xbddae2d0	-0.10687792
86	0x3d23f180	0.040025234
87	0xbe5a2694	-0.21303779
88	0x3e1c7b70	0.15281463
89	0x3dfd7228	0.12375289
90	0x3e320fb5	0.17388804
91	0xbd83ea9f	-0.06441235
92	0x3def2137	0.11676257
93	0xbb63b2cf	-0.003474403
94	0xbdc4c20c	-0.09607324
95	0x3cd48730	0.025943369
96	0xbcf9a7e9	-0.030475574
97	0xbd9033f8	-0.07041162
98	0xbd2f2a57	-0.042764988
99	0x3cf1dca6	0.029524159

linear_out.weight f4 [2, 100]
0	0x3e959fbd	0.29223433
1	0x3f07737f	0.5291061
2	0x3f251024	0.64477754
3	0x3e0c5b4d	0.13706703
4	0x3d25ca29	0.040475998
5	0x3e14c435	0.14527972
6	0xbe419b59	-0.18906917
7	0xbea0c0ec	-0.31397188
8	0xbf2c275a	-0.67247546
9	0xbd90a41c	-0.070625514
10	0x3f3eb186	0.7448963
11	0x3d410509	0.047123943
12	0x3e7ee928	0.2489363
13	0x3ee464ba	0.44608098
14	0xbeae8c55	-0.3409144
15	0xbd2df427	-0.04246917
16	0x3d0f5358	0.034991592
17	0x3e231655	0.15926488
18	0x3dc1f42f	0.094704024
19	0xbe8ccc36	-0.2749955
20	0xbe8f74b4	-0.28018725
21	0xbc7517ed	-0.014959318
22	0xbea6f2e7	-0.32607195
23	0xbd0f687e	-0.03501176
24	0xbe21948a	-0.1577932
25	0x3dcf9c1e	0.10137199
26	0x3dda98ea	0.10673697
27	0xbdf976a8	-0.12180835
28	0x3e4fdc28	0.20298827
29	0x3ea078f1	0.3134227
30	0x3e5a20c8	0.21301568
31	0xbe6b803f	-0.22998141
32	0x3e725dd2	0.23668602
33	0xbd2633b7	-0.040576663
34	0xbe3ae1fa	-0.18250266
35	0xbd2b528e	-0.041826777
36	0xbee436ea	-0.44573146
37	0xbecc94af	-0.39957187
38	0xbe3f434c	-0.18678015
39	0xbdae8a9e	-0.08522533
40	0x3e5828bb	0.21109287
41	0xbc2ed6a2	-0.01067129
42	0xbe7f9210	-0.24958062
43	0xbe40a119	-0.18811454
44	0x3df51e5c	0.11968681
45	0xbc67224d	-0.014107299
46	0xbe3ad780	-0.18246269
47	0x3dea07c2	0.11427261
48	0xbe3a1858	-0.18173349
49	0x3e197f8a	0.14990059
50	0xbebe794b	-0.37201914
51	0xbf276d92	-0.65401566
52	0x3e924703	0.28569803
53	0xbf29f856	-0.66394556
54	0xbd93664b	-0.07197245
55	0x3e10af1e	0.14129302
56	0x3e9d1859	0.30682638
57	0xbe3ffbd2	-0.18748406
58	0xbe668338	-0.22510993
59	0x3f416dde	0.7555827
60	0xbe813dd0	-0.25242472
61	0xbce5ef06	-0.028068077
62	0xbd646d80	-0.05576849
63	0x3eacd89e	0.33759016
64	0x3e2b57c0	0.16732693
65	0xbc496511	-0.0122921625
66	0x3bed96bc	0.007250635
67	0x3e09a90c	0.13443393
68	0x3e61f9b8	0.22067916
69	0x3e111bfe	0.14170834
70	0xbd5889b4	-0.0528657
71	0x3e7ad027	0.24493466
72	0x3e39bf4e	0.18139383
73	0xbea3f83d	-0.32025328
74	0x3da2b94b	0.07945498
75	0x3eb1323e	0.34608644
76	0xbec9ea93	-0.39436778
77	0xbedfb7b9	-0.43694857
78	0x3e876a18	0.2644813
79	0x3cd037ca	0.025417227
80	0x3e81b27d	0.25331488
81	0xbed6e8a7	-0.41974375
82	0xbe82aa62	-0.25520617
83	0x3ee859d3	0.4538103
84	0x3f1d61bd	0.6147726
85	0xbde19a91	-0.11015809
86	0xbea69636	-0.32536477
87	0x3e458908	0.19290555
88	0xbdf5492d	-0.11976848
89	0xbf1d25e4	-0.6138594
90	0xbe0b52ad	-0.13605757
91	0xbe527fb4	-0.20556527
92	0x3e0718ac	0.13193005
93	0x3e49fd59	0.1972555
94	0xbe2de109	-0.16980375
95	0xbe3d5cfd	-0.18492503
96	0xbe9f6418	-0.31131053
97	0x3d5df313	0.05418689
98	0xbeda3b5a	-0.42623407
99	0xbeda7d88	-0.42673898
100	0x3e983c4d	0.29733506
101	0x3cee3a11	0.029080423
102	0x3ea9e4b7	0.33182308
103	0x3db18ce2	0.086694494
104	0xbe4db76d	-0.20089503
105	0xbdd966f3	-0.10615339
106	0xbf01211b	-0.5044114
107	0xbe87fd77	-0.26560566
108	0xbe4281ec	-0.18994874
109	0x3effec42	0.49984938
110	0xbe74e063	-0.23913722
111	0x3e23b958	0.15988672
112	0x3ed4da60	0.41572857
113	0xbca6dc02	-0.02036858
114	0x3df84754	0.1212298
115	0x3d0baa97	0.034098234
116	0x3edb9459	0.42886618
117	0x3e2a469b	0.16628496
118	0x3c9f9d4b	0.019484183
119	0x3dd1b004	0.102386504
120	0x3e22f353	0.15913133
121	0xbcea6161	-0.028610887
122	0x3e25c314	0.16187698
123	0xbcd85445	-0.02640737
124	0x3e42c01a	0.19018593
125	0xbe16428f	-0.14673828
126	0x3c084805	0.008317952
127	0x3e2d8dd7	0.16948639
128	0xbe714646	-0.23561963
129	0x3e708f7e	0.23492238
130	0x3e296f36	0.1654633
131	0xbedddec3	-0.43334016
132	0xbd59a8cb	-0.05313949
133	0xbee2cde4	-0.44297707
134	0x3b3556a2	0.0027670045
135	0x3e7e564a	0.24837604
136	0x3e083e67	0.13305055
137	0x3f1b5661	0.6067868
138	0x3d858097	0.06518667
139	0xbe33432b	-0.17506091
140	0x3ebe373c	0.37151515
141	0xbe1b80af	-0.15185808
142	0x3b4e92c9	0.0031520596
143	0xbe3a6147	-0.18201171
144	0xbe6babae	-0.2301471
145	0x3d768696	0.060186945
146	0xbdcb7bc6	-0.09935717
147	0x3dcd5c2e	0.100273475
148	0x3e49c5b1	0.1970432
149	0xbdb010f8	-0.085969865
150	0x3ecd0059	0.40039328
151	0xbeaacf06	-0.3336107
152	0x3bff6fdd	0.0077953176
153	0x3e0fd1ec	0.14044923
154	0xbe578cca	-0.210498
155	0x3e981c48	0.29709077
156	0x3c20cf80	0.009815097
157	0xbdba3642	-0.0909238
158	0x3db57d4e	0.088617906
159	0xbe5b89d8	-0.21439302
160	0x3e8cb40c	0.27481115
161	0x3e3eb9f0	0.18625617
162	0x3be09fe5	0.0068549984
163	0x3d6c5491	0.057697836
164	0xbf03b0b4	-0.514415
165	0xbe30d794	-0.17269737
166	0x3e7c2ea2	0.24627164
167	0xbe35a3ba	-0.17738238
168	0xbe94bb5c	-0.29049194
169	0x3d75d880	0.060020924
170	0x3c64d275	0.0139661925
171	0x3dc38cc3	0.095483325
172	0x3cf2ed69	0.029654222
173	0x3e333143	0.1749926
174	0xbf14aade	-0.5807322
175	0xbeb29bfd	-0.34884635
176	0x3e27973b	0.16366284
177	0xbea9870c	-0.33110845
178	0xbe9254ca	-0.28580314
179	0xbeb817ab	-0.35955557
180	0xbdf0c590	-0.11756432
181	0xbebbb123	-0.36658582
182	0x3d167b85	0.03673889
183	0xbd12c47c	-0.035831913
184	0xbe848998	-0.25886226
185	0x3e825ac0	0.25459862
186	0xbe8a696a	-0.2703355
187	0xbeb18a63	-0.34675893
188	0x3e38ce31	0.18047406
189	0xbe6729a0	-0.22574472
190	0x3ad19201	0.0015988947
191	0x3dd2d06f	0.10293662
192	0x3ebe78da	0.37201577
193	0xbf063e42	-0.5243875
194	0xbe1a74f9	-0.15083684
195	0xbdf8c19a	-0.121463016
196	0xbde5e592	-0.11225428
197	0x3f09230a	0.5356909
198	0xbe698838	-0.2280587
199	0xbe799cb4	-0.24376184

linear_out.bias f4 [2]
0	0xbe8ed2c9	-0.2789519
1	0x3d225b45	0.039637823

layers.0.weight f4 [100, 100]
0	0xbce8d216	-0.02842049
1	0xbdac1738	-0.08402866
2	0x3df76963	0.12080648
3	0x3c9a71d1	0.0188531
4	0x3d6efec5	0.058348436
5	0x3daf4394	0.085578114
6	0x3e276ea8	0.16350806
7	0xbdbdd89a	-0.09269829
8	0x3dc130b2	0.09433116
9	0xbda892e0	-0.08231139
10	0xbdb5b5aa	-0.0887254
11	0xbe264544	-0.1623736
12	0x3de23a87	0.110463195
13	0xbd1f4bba	-0.038890578
14	0x3e12c73c	0.14333814
15	0x3e4b1925	0.1983381
16	0x3e1773e6	0.14790305
17	0x3cf912d9	0.030404495
18	0x3e04c585	0.12965973
19	0x3e0c6af9	0.13712682
20	0xbe723159	-0.23651637
21	0xbddcab7e	-0.10774897
22	0x3da9376a	0.082625225
23	0xbbbdb313	-0.0057891696
24	0x3da3f30b	0.08005341
25	0xbdd30048	-0.10302788
26	0xbd33c3fd	-0.04388808
27	0x3cdc8351	0.026918085
28	0xbde2c296	-0.110722706
29	0x3d48cd25	0.049023766
30	0xbe55edce	-0.20891497
31	0xbddf32fa	-0.10898395
32	0xbe2eab77	-0.17057596
33	0x3dcdc0f3	0.10046568
34	0x3e8e072d	0.2773985
35	0x3d092799	0.03348503
36	0x3d8d9449	0.06913049
37	0xbdbb1f7c	-0.091368645
38	0x3e19e75b	0.15029661
39	0x3d1adf16	0.037810408
40	0x3d4b47b1	0.049628917
41	0x3e3c3ee2	0.18383363
42	0x3bfb452a	0.007668157
43	0xbcc1a0f6	-0.023636322
44	0x3e286db7	0.16448103
45	0x3d6ad8fc	0.05733584
46	0xbe4e8236	-0.20166859
47	0x3c194a04	0.009356026
48	0x3cb832cb	0.022485157
49	0x3df0c740	0.11756754
50	0xbca7cf02	-0.020484451
51	0x3dcf2e71	0.1011628
52	0xbdbb74de	-0.0915315
53	0x3dc977f2	0.09837331
54	0x3dabcfd6	0.08389251
55	0xbe11cc69	-0.14238133
56	0x3e5233d3	0.20527582
57	0xbe0c7ef6	-0.13720307
58	0xbd6f68a3	-0.0584494
59	0xbda9015e	-0.08252214
60	0xbcda55d0	-0.026652247
61	0xbdb15f74	-0.08660784
62	0x3d4c8e01	0.049940113
63	0x3dd488a6	0.10377626
64	0x3da57a4a	0.080799654
65	0xbdab1c7a	-0.08355041
66	0xbcf6af09	-0.03011276
67	0xbe6d7e4f	-0.23192714
68	0xbc829965	-0.015942285
69	0xbe1f6ae4	-0.1556812
70	0x3e0bd1d5	0.13654263
71	0xbd7e31bf	-0.06205916
72	0x3dab208a	0.08355816
73	0x3c8164fb	0.015795222
74	0xbd8d282c	-0.06892428
75	0x3bfcb17a	0.0077115865
76	0x3de44a66	0.11147003
77	0xbcfa32e8	-0.030541852
78	0x3d5bffc1	0.053710703
79	0xbe275735	-0.1634186
80	0xbdc50468	-0.09619981
81	0x3d47574f	0.04866725
82	0x3ab5c796	0.0013868685
83	0x3d44fed9	0.048094604
84	0xbdd06667	-0.10175782
85	0xbd7258ae	-0.059166603
86	0xbd70fec0	-0.0588367
87	0xbd52d26e	-0.051470213
88	0x3d0e096d	0.034676958
89	0x3bc3d9ee	0.005976907
90	0x3e475e9e	0.19469687
91	0xbd1e8f5c	-0.038710937
92	0xbdac93b2	-0.08426608
93	0xbd2b881c	-0.04187785
94	0xbd4ca246	-0.049959444
95	0xbe080b44	-0.13285547
96	0x3d8bdcc5	0.06829218
97	0xbdf1693a	-0.117876485
98	0xbe0f5175	-0.13995917
99	0x3c6ca769	0.014444211
100	0xbd265cd4	-0.04061587
101	0x3de7cd4a	0.11318453
102	0xbd76c096	-0.060242258
103	0x3cb2618c	0.02177503
104	0x3df3e9f9	0.11909861
105	0xbd32f886	-0.04369404
106	0x3e34d824	0.17660576
107	0x3dbcde41	0.09222079
108	0xbd6658aa	-0.0562369
109	0x3b124688	0.0022319872
110	0xbc27a6ce	-0.01023264
111	0x3d7620a4	0.060089722
112	0x3e8aae1d	0.27085963
113	0xbcbbde5b	-0.022933176
114	0xbdc77848	-0.09739739
115	0x3d83e48b	0.064400755
116	0xbe38ebd3	-0.1805871
117	0xbe0cf7b5	-0.13766368
118	0x3db02f40	0.08602762
119	0xbb0b316d	-0.0021239177
120	0x3e8371e5	0.25672832
121	0x3e1ee510	0.15517068
122	0x3d883a8a	0.066517904
123	0xbdd1f944	-0.10252622
124	0x3e2b606a	0.16735998
125	0x3d65b5f1	0.056081716
126	0xbcac42f6	-0.021028023
127	0xbe35329d	-0.17695089
128	0xbbd0a723	-0.0063675805
129	0x3e3f06db	0.18654959
130	0xbd98f831	-0.07469214
131	0xbc3d5a26	-0.011557138
132	0xbe1058ec	-0.14096421
133	0xbe04c1ca	-0.1296455
134	0xbe0cb6e0	-0.13741636
135	0xbd6c8f4b	-0.057753842
136	0xbd071c86	-0.032986186
137	0x3c86d3f8	0.016458496
138	0x3e1d6ec9	0.15374292
139	0xbd722df4	-0.059125856
140	0x3cc51927	0.024059845
141	0x3de8e273	0.11371317
142	0x3bf49a12	0.0074646557
143	0x3da4968b	0.08036526
144	0xbdd04379	-0.101691194
145	0x3df1504d	0.11782894
146	0xbdf229ae	-0.11824356
147	0xbd29b4af	-0.04143208
148	0x3e0d8a14	0.13822204
149	0xbde30ba2	-0.11086203
150	0xbbfeb8da	-0.007773501
151	0xbd3a5028	-0.0454866
152	0xbd86346e	-0.06552969
153	0xbd95818e	-0.07300101
154	0x3d853229	0.06503708
155	0xbd388919	-0.04505262
156	0xbe13bd3c	-0.14427656
157	0x3e4154cf	0.18880008
158	0xbe1b182f	-0.15145944
159	0xbd4431d9	-0.0478991
160	0xbdbe2027	-0.09283476
161	0x3d765e32	0.060148425
162	0x3d918e08	0.071071684
163	0xbe505160	-0.20343542
164	0x3ceb49fc	0.028721802
165	0xbe21c624	-0.15798241
166	0xbc34e94d	-0.011041951
167	0xbd6c1160	-0.057633758
168	0x3bd83146	0.0065976707
169	0xbb001fb4	-0.0019550147
170	0xbe1546dd	-0.14577813
171	0x3e24b708	0.16085446
172	0x3e39bfa3	0.1813951
173	0x3dbd262f	0.092357986
174	0x3dd6238d	0.104559995
175	0xbd12996a	-0.03579084
176	0x3d9a8e64	0.0754669
177	0xbb2aa7fa	-0.0026040063
178	0x3e0c04f2	0.13673761
179	0xbd7ccb6f	-0.061717447
180	0xbe51cb91	-0.2048781
181	0x3dbb8969	0.09157068
182	0x3e123f31	0.14281918
183	0xbd614c5a	-0.055004455
184	0xbe457bc3	-0.19285493
185	0xbdacc147	-0.08435302
186	0xbc80a6a2	-0.015704457
187	0xbdb2d4da	-0.087320045
188	0x3cc20799	0.023685263
189	0xbd6a8e1f	-0.057264443
190	0x3da031a6	0.0782197
191	0xbb257794	-0.0025248276
192	0xba90248c	-0.001099722
193	0xbd141305	-0.03615095
194	0xbe8154bc	-0.2525996
195	0xbe2cb8fa	-0.16867438
196	0xbe78c3c0	-0.24293423
197	0x3e3d93cb	0.1851341
198	0x3d8765d3	0.06611218
199	0x3dfe05fd	0.12403486
200	0xbe0400d1	-0.12890936
201	0xbd1b2ca7	-0.03788438
202	0x3d27ee47	0.040998723
203	0xbb92bc41	-0.004478008
204	0xbd885194	-0.06656185
205	0x3dc0fd40	0.094233036
206	0xbe22f4fa	-0.15913764
207	0xbda3ab21	-0.079916246
208	0xbd98e6c3	-0.07465889
209	0x3e1f8673	0.15578632
210	0xbda4a8ec	-0.08040032
211	0x3d2a6a9c	0.041605577
212	0x3b0816d8	0.002076557
213	0x3a62875d	0.00086413865
214	0xbd3b40b7	-0.045716014
215	0x3d19e4cf	0.037571725
216	0xbdfdc56e	-0.12391172
217	0xbb899db9	-0.00419971
218	0x3d68bb28	0.05681911
219	0xbce8b882	-0.028408293
220	0xbcf08a86	-0.029362928
221	0xbc239c2e	-0.009985967
222	0xbd955148	-0.07290894
223	0xbcfa9a5f	-0.030591188
224	0x3d8d38b9	0.068955846
225	0xbd84bc86	-0.064812705
226	0xbe26e493	-0.16298132
227	0xbd32e625	-0.043676514
228	0x3d179f94	0.03701742
229	0x3d64fba4	0.055904046
230	0x3d92907c	0.071564645
231	0x3d92271a	0.07136364
232	0x3e4c5280	0.19953346
233	0x3cadb6e6	0.021205377
234	0xbc66e78b	-0.01409329
235	0x3e589d4b	0.21153753
236	0x3d5ca4f9	0.053868268
237	0x3d88717f	0.06662273
238	0x3dfe69ab	0.12422498
239	0xbbe9e15d	-0.007137461
240	0x3dd2e5fe	0.10297774
241	0x3d277fd2	0.040893383
242	0xbe83fe55	-0.25779977
243	0x3dea01c7	0.1142612
244	0x3d302105	0.04300024
245	0xbde8ce36	-0.113674566
246	0xbd4d62e2	-0.05014313
247	0x3ddf6080	0.10907078
248	0xbda94174	-0.08264437
249	0x3d3d88fa	0.04627321
250	0xbde21bf5	-0.11040489
251	0xbe008786	-0.12551698
252	0x3dcdd02c	0.10049471
253	0xbd50ee4e	-0.051008515
254	0xbd958fc9	-0.073028155
255	0xbc9725f0	-0.018450707

layers.0.bias f4 [100]
0	0x3e4d5737	0.20052801
1	0x3c8fc699	0.017550753
2	0xbe351e2e	-0.17687294
3	0xbd4b95f5	-0.049703557
4	0xbd856b90	-0.065146565
5	0x3de69bb7	0.11260169
6	0x3cc7c875	0.024387578
7	0xbcb72741	-0.022357585
8	0xbd852620	-0.065014124
9	0x3e73e286	0.2381688
10	0xbe77afcc	-0.24188155
11	0xbdb21f08	-0.08697325
12	0x3deb5197	0.114901714
13	0x3d1d4365	0.03839435
14	0xbe2583c3	-0.16163544
15	0xbe126b19	-0.14298667
16	0x3e49e5f7	0.19716631
17	0xbd605655	-0.054769833
18	0xbd49a6c1	-0.049231295
19	0x3d81716d	0.063204624
20	0xbcf93a62	-0.030423347
21	0x3abab21a	0.0014243752
22	0xbe4944e8	-0.19655192
23	0xbdad36fd	-0.08457754
24	0x3d765dda	0.060148098
25	0x3c7c4fbd	0.01539987
26	0xbe0dbf58	-0.13842523
27	0x3c681595	0.014165302
28	0xbdb64674	-0.089001566
29	0xbdaab524	-0.08335331
30	0xbc57fae3	-0.013182375
31	0x3e09332b	0.13398425
32	0xbb69fb7c	-0.0035702875
33	0xbe6b2ca2	-0.22966245
34	0x3e6771cf	0.22602008
35	0x3c018699	0.007905626
36	0x3d66fae7	0.056391623
37	0x3bfe2b32	0.007756614
38	0x3de5057f	0.11182689
39	0xbe3ac4e4	-0.1823917
40	0x3e3fec28	0.1874243
41	0x3ca3981e	0.019969996
42	0xbb440ea0	-0.0029915944
43	0xbdf0b96b	-0.11754116
44	0xbc893e6c	-0.016753398
45	0xbd09b1b7	-0.033616748
46	0x3e225dc3	0.1585608
47	0xbcf82670	-0.030291766
48	0x3d89e17c	0.06732461
49	0x3c872d37	0.016501052
50	0xbd4d87e2	-0.050178416
51	0x3c52fe67	0.012878037
52	0xbd2273fc	-0.039661393
53	0xbe36539c	-0.17805332
54	0x3d330957	0.04371008
55	0x3e37bb85	0.17942627
56	0x3c29ca64	0.010363195
57	0xbcaff99e	-0.021481331
58	0x3dc17b13	0.09447303
59	0xbde9ea41	-0.114216335
60	0x3e51e035	0.20495684
61	0xbe4149b3	-0.1887577
62	0xbe46b54f	-0.19405101
63	0xbe2b2873	-0.16714649
64	0xbc85afc7	-0.016319169
65	0xbe85259e	-0.26005262
66	0xbd494c1b	-0.049144845
67	0x3df34df0	0.118801
68	0xbca29080	-0.019844294
69	0xbe1b8649	-0.15187944
70	0xbb9678dd	-0.0045920447
71	0xbe73e005	-0.23815925
72	0x3e21222f	0.15735696
73	0xbd81540c	-0.06314859
74	0xbe0adac7	-0.1356002
75	0x3dedfa75	0.116200365
76	0x3e38b71a	0.18038598
77	0x3e02ad71	0.12761475
78	0x3db324fb	0.08747288
79	0x3cca2658	0.024676487
80	0x3c806b63	0.015676206
81	0x3c2d20a4	0.010566864
82	0x3d88bc73	0.06676569
83	0xbcb46830	-0.022022337
84	0xbe19c53c	-0.15016645
85	0x3e13d5ac	0.14436978
86	0xbe004717	-0.12527119
87	0x3e2c9f10	0.16857553
88	0xbc8922db	-0.016740253
89	0xbd302d3f	-0.0430119
90	0x3daaa6ad	0.08332572
91	0x3e302b21	0.17203952
92	0x3dd523e9	0.1040724
93	0x3cfa0e5b	0.030524423
94	0xbda0e2c8	-0.07855755
95	0x3c878548	0.016543046
96	0x3da59b7c	0.08086297
97	0x3d4b974a	0.049704827
98	0xbce98a93	-0.02850846
99	0xbdcaed0e	-0.09908496

layers.1.weight f4 [100, 100]
0	0x3dd372c7	0.103246264
1	0xbe23f612	-0.16011837
2	0x3dba996d	0.09111295
3	0x3dcca089	0.09991557
4	0x3e1c32a1	0.15253688
5	0xbda9e4cc	-0.08295593
6	0x3dd21fc4	0.10259965
7	0xbcaf58f8	-0.021404728
8	0xbe2d5cc2	-0.16929916
9	0x3da33b19	0.07970256
10	0xbd6a7e56	-0.05724939
11	0x3e5407ba	0.20706072
12	0x3e5b3cba	0.21409884
13	0x3db1503d	0.08657882
14	0x3d6c28c8	0.05765608
15	0x3c8cc461	0.017183485
16	0xbe1ceb79	-0.153242
17	0xbdd87718	-0.1056959
18	0xbde03d1a	-0.10949154
19	0x3e1105cb	0.14162366
20	0x3cb7efe8	0.022453263
21	0xbdfd69f4	-0.123737246
22	0x3e4ad46e	0.19807598
23	0xbe163ab3	-0.1467083
24	0x3d00ac5e	0.031414382
25	0x3b98cff7	0.004663463
26	0x3d31218f	0.043244895
27	0x3e111863	0.14169459
28	0x3dbc05e2	0.091808096
29	0xbd714f06	-0.058913253
30	0xbe5f0d41	-0.217824
31	0xbe31811d	-0.17334409
32	0xbd645154	-0.055741623
33	0x3d42c6b9	0.047552798
34	0xbe3114ac	-0.17293042
35	0x3e86ae46	0.26304835
36	0x3da3e472	0.08002557
37	0xbd9d60fe	-0.076845154
38	0x3c725eb9	0.014793091
39	0x3c946a41	0.018117072
40	0xbe0f3b37	-0.13987432
41	0xbd63b55c	-0.05559288
42	0x3deec662	0.11658932
43	0x3e21e576	0.15810189
44	0xbe705c7e	-0.23472783
45	0x3de06b41	0.10957957
46	0x3e24c2da	0.16089955
47	0x3d40c3bf	0.047061678
48	0x3e27fe23	0.16405539
49	0x3d1e933e	0.03871464
50	0x3e5823fa	0.21107474
51	0x3d9c6543	0.07636502
52	0x3d61dc27	0.055141594
53	0x3e1c4006	0.15258798
54	0x3cd150b5	0.02555118
55	0x3dfca2d1	0.12335742
56	0xbdd463b5	-0.1037058
57	0xbda059f8	-0.0782966
58	0xba9f2f91	-0.0012144913
59	0x3cbd6f5c	0.02312439
60	0x3bc1055a	0.0058905305
61	0x3d788b1b	0.060679536
62	0x3b5064e6	0.0031798421
63	0xbd832854	-0.06404176
64	0x3cc771e2	0.024346296
65	0x3da7ee38	0.081997335
66	0x3d0fd563	0.03511561
67	0x3cdfb9ee	0.027310338
68	0x3d36c5c9	0.044622216
69	0xbe19e6dd	-0.15029474
70	0x3ca865a9	0.020556288
71	0xbd89810e	-0.06714068
72	0xbd8e49fb	-0.069477044
73	0xbe4b2498	-0.19838178
74	0xbbfb2fef	-0.0076656262
75	0xbb2a2ee4	-0.002596789
76	0xbc67fee9	-0.014159896
77	0xbe64f74d	-0.22359963
78	0xbdc639d4	-0.096789986
79	0x3e04c92f	0.1296737
80	0x3e251d12	0.1612437
81	0x3d899ef9	0.06719775
82	0xbde8c5d1	-0.113658555
83	0x3d2ef8bf	0.04271769
84	0x3e1028b9	0.14078034
85	0x3e131d69	0.14366688
86	0x3de47347	0.111548
87	0x3c2259f9	0.009909146
88	0x3d688e93	0.056776594
89	0x3c911850	0.017711788
90	0xbe880922	-0.26569468
91	0xbcc5ac08	-0.024129882
92	0xba3430b5	-0.0006873713
93	0xbd98f5d4	-0.07468763
94	0xbdec1b46	-0.115286395
95	0xbd66ba99	-0.056330297
96	0x3c32475a	0.010881269
97	0x3da9e30e	0.0829526
98	0x3b874c43	0.004128964
99	0x3dd31b0a	0.10307892
100	0xbd7bd514	-0.061482504
101	0x3e114e10	0.14189935
102	0xbd8f0f64	-0.069853574
103	0xbe00a668	-0.12563479
104	0xbd46b8c3	-0.048516046
105	0xbd94b4ee	-0.07261072
106	0xbe132f4d	-0.14373513
107	0x3d6fe993	0.058572363
108	0x3e64090f	0.2226908
109	0x3dd5cfb6	0.10440008
110	0x3e6b33aa	0.22968927
111	0xbc93211e	-0.017960127
112	0x3cc94eab	0.024573645
113	0xbda4e391	-0.08051217
114	0x3d37d3f3	0.044879865
115	0xbd8ae43b	-0.06781813
116	0x3e0e885a	0.13919201
117	0xbdc905bf	-0.09815549
118	0x3d1709c4	0.036874548
119	0x3d9e5803	0.07731631
120	0x3e1d0f98	0.1533798
121	0x3bf960b8	0.0076104067
122	0x3d024d1a	0.03181181
123	0x3d0563ad	0.03256576
124	0x3e4fe83d	0.20303436
125	0x3d145f84	0.036223903
126	0x3db1b535	0.086771406
127	0xbe2db232	-0.16962507
128	0xbde5a892	-0.11213793
129	0xbd804db1	-0.062648185
130	0x3e9eaddf	0.30992028
131	0xbceae227	-0.028672291
132	0xbc413965	-0.011793469
133	0xbd6b2b1d	-0.057414163
134	0xbcc641fe	-0.02420139
135	0xbde8d893	-0.11369433
136	0x3dba10e0	0.0908525
137	0xbe016ee0	-0.12639952
138	0xbc1c91ed	-0.009556276
139	0xbd5f68bc	-0.05454324
140	0x3e0dc632	0.13845137
141	0xbc6ed7e3	-0.014577839
142	0xbddb61ef	-0.10712039
143	0x3db09ddd	0.0862386
144	0x3d41fda5	0.047361035
145	0x3d3c6603	0.045995723
146	0x3d7cca86	0.06171658
147	0x3dceae68	0.10091859
148	0xbe0068a0	-0.12539911
149	0x3d00132b	0.03126828
150	0xbc83d592	-0.01609305
151	0xbe188b26	-0.14896831
152	0x3d483dcd	0.048887063
153	0xbd2d739e	-0.04234659
154	0xbe10b2aa	-0.14130655
155	0xbc4fc972	-0.012682306
156	0x3e0867eb	0.13320892
157	0x3c6bf0a1	0.014400632
158	0xbdd74e5f	-0.10512995
159	0x3d11f7c4	0.03563668
160	0x3d91ba8f	0.07115661
161	0x3c925e11	0.01786712
162	0x3d207803	0.039176952
163	0xbd5a2973	-0.053262185
164	0xbea2aba6	-0.31771582
165	0xbd2b0627	-0.041753914
166	0x3e2c6de6	0.16838798
167	0x3ca41dfa	0.020033825
168	0xbe301d6a	-0.1719872
169	0x3d189206	0.037248634
170	0xbe67c26e	-0.22632763
171	0xbd3b8bc3	-0.045787584
172	0xbe2071d4	-0.15668422
173	0x3d304071	0.043030206
174	0x3b98c1ed	0.0046617896
175	0xbdb753b3	-0.08951511
176	0xbe191684	-0.14949995
177	0x3ce01be8	0.027357057
178	0x3e47d6ce	0.19515535
179	0xbd67d718	-0.056601614
180	0xbcfe4578	-0.031038985
181	0xbdbe5d30	-0.09295118
182	0xbd1c5bc2	-0.038173445
183	0x3de31483	0.11087897
184	0x3dbbd343	0.09171154
185	0x3e183322	0.14863256
186	0x3e6cca8b	0.23124139
187	0xbcd9ccd0	-0.02658692
188	0xbcbaad43	-0.022787696
189	0x3dcddb5b	0.10051604
190	0xbbab1932	-0.0052215094
191	0x3e182879	0.14859189
192	0xbe41956e	-0.18904659
193	0x3e11e3f3	0.14247112
194	0x3e18c0ae	0.14917251
195	0xbdb5f0d2	-0.088838235
196	0x3ccd4aee	0.025060143
197	0x3d86f676	0.065899774
198	0x3ddaff1d	0.1069319
199	0x3cd814e1	0.026377143
200	0xbe438cbc	-0.19096655
201	0x3d8292c2	0.06375648
202	0xbe52b25c	-0.20575851
203	0xbdc4f6c8	-0.09617382
204	0x3c9537a5	0.01821501
205	0x3dafa079	0.085755296
206	0x3d5363e9	0.051608954
207	0x3ce4c3e3	0.027925437
208	0x3e1b5c23	0.15171866
209	0x3de03dd1	0.109492905
210	0x3dd89f6f	0.105772845
211	0xbc30acf6	-0.010783425
212	0xbd6c5a05	-0.057703037
213	0xbdbc3246	-0.091892764
214	0x3cfcfdbe	0.030882712
215	0xbd9ffc2f	-0.07811772
216	0xbcf65fb4	-0.030074932
217	0xbd82e570	-0.06391418
218	0xbdffa2fe	-0.1248226
219	0x3aaed8f9	0.0013339809
220	0xbd0e0cd4	-0.034680203
221	0xbd32921a	-0.043596365
222	0x3cdb54b4	0.026773788
223	0xbc074510	-0.008256212
224	0xbba2ecea	-0.00497209
225	0xbd8fdc37	-0.070244245
226	0xbc212186	-0.009834653
227	0x3c175d4e	0.009238554
228	0x3d955557	0.07291668
229	0xbd8f5249	-0.069981165
230	0xbda82e27	-0.08211928
231	0x3e2cfa8b	0.1689245
232	0x3e0e40f4	0.13891965
233	0x3d26b564	0.04070033
234	0x3cae0922	0.02124459
235	0xbcf356a1	-0.029704394
236	0xbdda801a	-0.10668965
237	0xbd9da1de	-0.07696889
238	0xbc5e5483	-0.013569954
239	0xbd7c83dc	-0.06164919
240	0xbbf397a1	-0.007433847
241	0xbda05d94	-0.078303486
242	0xbde1a12d	-0.1101707
243	0x3df1c560	0.118052244
244	0xbca0e72a	-0.019641478
245	0x3dc0d7fd	0.094161965
246	0x3e20e140	0.15710926
247	0x3d9abd61	0.075556524
248	0x3d421fc5	0.04739358
249	0x3ae7cedb	0.0017685549
250	0x3d8f5b46	0.06999831
251	0x3e24e266	0.16101989
252	0x3e0a6775	0.13516028
253	0xbc40dcd7	-0.011771402
254	0x3dd78014	0.10522476
255	0xbe14d954	-0.14536029

layers.1.bias f4 [100]
0	0xbddce585	-0.10785965
1	0xbd779d90	-0.060452998
2	0xbd281102	-0.041031845
3	0xbdcd12dc	-0.10013363
4	0x3c63fa08	0.013914593
5	0xbdb88901	-0.090105064
6	0xbd9e71b1	-0.07736529
7	0x3cba5b4f	0.022748617
8	0xbe3cf6de	-0.18453547
9	0x3d874fda	0.06607027
10	0x3e11295b	0.14175932
11	0xbba49ac0	-0.0050233305
12	0x3d357465	0.044300456
13	0xbdaa0c19	-0.08303089
14	0xbd11d040	-0.035598993
15	0xbd47f936	-0.04882165
16	0x3daf6064	0.08563307
17	0x3c22fd19	0.0099480385
18	0x3c5b44ca	0.0133831
19	0xbd37286b	-0.04471628
20	0x3dbc34b3	0.09189739
21	0x3d4f24e1	0.05057228
22	0x3e16b8c9	0.14718927
23	0x3dd1f8d9	0.10252542
24	0x3d92e7d2	0.071731225
25	0x3d582b14	0.052775458
26	0x3d7035d1	0.058645073
27	0xbccaa64c	-0.0247375
28	0x3cfd9fe4	0.03096003
29	0x3e033e47	0.12816726
30	0xbdc43715	-0.095808186
31	0x3d553814	0.052055433
32	0x3e2651d0	0.16242146
33	0xbcfa10be	-0.030525561
34	0x3b976923	0.0046206876
35	0x3d400759	0.046882007
36	0xbd67b769	-0.056571398
37	0xbbc08831	-0.0058756103
38	0x3ca29695	0.019847194
39	0x3ca67c19	0.020322846
40	0xbd3aefb1	-0.045638744
41	0x3cceacc5	0.025228867
42	0x3e114bfa	0.14189139
43	0x3d05f61b	0.032705408
44	0x3d0602e8	0.032717615
45	0xbda82777	-0.08210652
46	0x3c9cd198	0.01914291
47	0x3e436540	0.19081593
48	0xbdb76512	-0.089548245
49	0x3e017135	0.12640841
50	0xbe01b6ac	-0.1266734
51	0x3dd3ad88	0.10335833
52	0xbe052659	-0.1300291
53	0x3d3ceea8	0.046126038
54	0xbe5d3986	-0.21603975
55	0x3dfba516	0.12287347
56	0x3e229556	0.1587728
57	0x3bc4de11	0.0060079177
58	0xbcc0a009	-0.02351381
59	0xbcd80f8f	-0.026374606
60	0xbd378547	-0.044804838
61	0x3d230c86	0.039806865
62	0xbd996a1e	-0.07490943
63	0xbcb116ff	-0.02161741
64	0xbc50a89d	-0.012735513
65	0xbcbbcffa	-0.02292632
66	0xbd9c7140	-0.07638788
67	0x3c578e94	0.013156552
68	0x3e3bf6b6	0.18355832
69	0x3de0d361	0.10977817
70	0xbd3ebe91	-0.046568457
71	0x3c904809	0.017612474
72	0xbdbc52f7	-0.09195512
73	0xbe4f9e3a	-0.20275202
74	0x3dbd79f7	0.092517786
75	0xbd162ed6	-0.03666576
76	0xbc3e1f27	-0.011604107
77	0xbce2e1e8	-0.027695611
78	0xbd0a8490	-0.033817828
79	0x3da8d078	0.08242887
80	0x3e46535e	0.1936774
81	0xbdee7e69	-0.116452046
82	0x3debba28	0.11510116
83	0xbde8ce14	-0.11367431
84	0xbc762787	-0.0150240725
85	0x3d375a61	0.044763926
86	0xbe105a59	-0.14096965
87	0xbcbbac74	-0.02290938
88	0xbcf7a9c2	-0.030232314
89	0x3caffece	0.021483805
90	0xbe1287e6	-0.14309654
91	0xbd0cd542	-0.034383066
92	0x3d6cee83	0.05784465
93	0x3c54b890	0.012983456
94	0x3cabed81	0.020987274
95	0x3e30ba2d	0.1725852
96	0xbcf269e1	-0.029591503
97	0x3d043adb	0.03228269
98	0x3e3200aa	0.17383066
99	0xbdd18b86	-0.1023169

layers.2.weight f4 [100, 100]
0	0x3de47ea8	0.1115697
1	0x3c3f598f	0.011679067
2	0x388a2deb	6.588906e-05
3	0x3dacb7c8	0.08433491
4	0x3e00c96b	0.12576835
5	0x3ca22d8c	0.019797109
6	0xbb60c563	-0.003429734
7	0xbdb2d99f	-0.08732914
8	0xbdc22bea	-0.09481032
9	0x3d8958c1	0.067063816
10	0xbd6bc58d	-0.057561446
11	0xba64b876	-0.00087249966
12	0xbb919c36	-0.0044436706
13	0xbe3e64cf	-0.18593143
14	0xbd4835dc	-0.04887949
15	0x3e2160b1	0.15759541
16	0xbe2d0d9b	-0.16899721
17	0x3e07ac7a	0.13249388
18	0xbaebcf4f	-0.001799086
19	0xbda34a17	-0.07973116
20	0xbe230387	-0.15919314
21	0xbd96efa8	-0.073699296
22	0xbe481559	-0.19539393
23	0xb896d307	-7.191864e-05
24	0xbdf623a0	-0.12018514
25	0x3e289f20	0.16466951
26	0x3da12ae0	0.07869506
27	0x3cfb694b	0.030689856
28	0xbc8c93f6	-0.017160397
29	0xbd659832	-0.056053348
30	0x3db5ef73	0.08883562
31	0xbc5082f2	-0.012726532
32	0x3debae58	0.11507863
33	0x3dbddfce	0.09271203
34	0x3c82dfcd	0.015975857
35	0x3d5cfa85	0.05394985
36	0xbc7f06e7	-0.0155656105
37	0x3e48a090	0.195925
38	0x3d992faf	0.07479798
39	0xbd9fa7a3	-0.07795646
40	0xb99f8c1f	-0.00030431242
41	0xbcb7e4b2	-0.022447918
42	0xbd5f351a	-0.054494
43	0xbe7a3ff2	-0.24438456
44	0xbd171171	-0.036881868
45	0xbcd1fc1b	-0.025632909
46	0x3e3cc74b	0.18435399
47	0x3cd61f41	0.02613795
48	0x3d5017ab	0.05080382
49	0x3e1a7fc1	0.15087797
50	0x3e9ebb3d	0.31002226
51	0x3ea0b35c	0.3138684
52	0xbd56cce2	-0.052441485
53	0x3de60410	0.112312436
54	0xbda09d1e	-0.07842468
55	0x3d940d42	0.07229091
56	0xbc935b22	-0.017987791
57	0xbde5bf5d	-0.1121814
58	0xbe69bada	-0.22825184
59	0xbded4f66	-0.1158741
60	0x3a8b4e34	0.0010628165
61	0xbe0d806b	-0.13818519
62	0x3d193537	0.037404265
63	0x3c6cffdb	0.014465298
64	0x3d4b57c1	0.049644236
65	0x3c9a6766	0.018848132
66	0x3d3970fa	0.04527376
67	0xbd8f7442	-0.07004596
68	0xbe8129d6	-0.2522723
69	0x3e1b7da1	0.15184642
70	0x3ddff65f	0.109356634
71	0xbdc5a622	-0.09650828
72	0x3d0a4086	0.03375294
73	0xbe15ac75	-0.14616568
74	0x3e2efbb8	0.1708821
75	0x3da471e6	0.08029537
76	0x3d038ace	0.032114796
77	0xbc4630c3	-0.012096587
78	0x3b1c0983	0.002380938
79	0x3d2e1cab	0.04250781
80	0x3c82c16e	0.015961375
81	0x3dd42b91	0.10359872
82	0xbcff5741	-0.031169536
83	0x3c0edb72	0.008719312
84	0x3dd88df8	0.105739534
85	0xbb836fdc	-0.0040111374
86	0x3d3a8963	0.04554118
87	0xbe140e79	-0.14458646
88	0xbc8ef3b0	-0.017450184
89	0x3d82fb9c	0.06395647
90	0x3d0e6dd0	0.034772694
91	0xbb83fabd	-0.004027693
92	0xbcb1dac0	-0.021710753
93	0x3d1688e3	0.03675164
94	0x3d27f124	0.041001454
95	0x3d2ef2e1	0.042712096
96	0x3e005ce5	0.12535436
97	0x3bbea5de	0.0058181128
98	0x3dbd201b	0.09234639
99	0x3c6cbea6	0.014449751
100	0xbd6bc341	-0.057559256
101	0x3c4483e3	0.011994335
102	0x3e622fd9	0.22088565
103	0x3d0f32bc	0.034960493
104	0x3d82d74d	0.063887216
105	0x3e5fc1e5	0.21851309
106	0xbbf6bca5	-0.0075298124
107	0x3da8820b	0.08227929
108	0xbd420cc6	-0.047375463
109	0x3deafff8	0.114746034
110	0xbd70a3e4	-0.05875005
111	0xbd9be30b	-0.076116644
112	0xbdaa0be7	-0.083030514
113	0x3c9178a8	0.017757729
114	0xbd0ba9d7	-0.03409752
115	0xbd62bdfa	-0.055356957
116	0xbd8a1f95	-0.06744305
117	0xbdabdb47	-0.08391433
118	0x3e17d859	0.14828624
119	0x3de41176	0.11136143
120	0xbc803b1b	-0.015653184
121	0x3e46cd36	0.1941422
122	0xbd5d9df9	-0.054105733
123	0xbdf88ee2	-0.12136628
124	0xbb055f66	-0.0020351051
125	0xbd0d6cbc	-0.034527525
126	0x3db76954	0.089556366
127	0x3d049ae6	0.032374285
128	0x3c9d0a22	0.01916987
129	0x3cbfb316	0.023400825
130	0x3dde0d9c	0.108424395
131	0xbdc3cef9	-0.09560961
132	0x3e02f14f	0.12787364
133	0xbccc564a	-0.02494349
134	0x3e27b8b5	0.16379054
135	0xbd43ff4e	-0.0478509
136	0xbd7d1f6a	-0.061797537
137	0xbdb6a4e6	-0.08918171
138	0x3db1cf77	0.08682149
139	0xbd826b02	-0.06368066
140	0x3d75cdd5	0.06001075
141	0x3dd3107a	0.10305877
142	0xbdbc1892	-0.09184374
143	0xb9894d78	-0.00026188395
144	0xbd8954c5	-0.06705622
145	0xbdf41b46	-0.119192645
146	0x39be41a1	0.0003628852
147	0x3e2172e3	0.15766482
148	0xbd0d810e	-0.034546904
149	0xbd85aaf5	-0.06526748
150	0xbda77274	-0.08176127
151	0x3c8a43f3	0.016878104
152	0xbe0b5788	-0.1360761
153	0xbda11895	-0.07866017
154	0xbd8d144a	-0.068886355
155	0xbdbf937c	-0.09354302
156	0xbcec5aa0	-0.028851807
157	0x3cd7c800	0.026340485
158	0xbe1a841d	-0.1508946
159	0xbe0bedf2	-0.13664988
160	0x3cc562e6	0.02409501
161	0xbd2f965c	-0.042868003
162	0x3e7f9814	0.24960357
163	0x3d003bd7	0.031307068
164	0xbda9e15a	-0.082949355
165	0xbcae45aa	-0.021273453
166	0x3dbe0326	0.09277944
167	0xbe0c6ddb	-0.13713782
168	0x3d528680	0.0513978
169	0x3db79abd	0.08965061
170	0xbd246736	-0.040137492
171	0x3d0f617b	0.035005074
172	0xbc200726	-0.009767329
173	0x3d15d788	0.0365825
174	0xbde09cf0	-0.109674335
175	0xbd154ca8	-0.03645006
176	0xbd0ea928	-0.03482929
177	0xbe34a503	-0.17641072
178	0x3d98cf8d	0.07461462
179	0x3c40b730	0.011762425
180	0x3db891eb	0.09012207
181	0xbd0faf0e	-0.035079055
182	0xbe0174c7	-0.12642203
183	0xbc5a8e75	-0.013339628
184	0xbd8c17e3	-0.068404935
185	0x3dc9672a	0.0983413
186	0xbad79765	-0.0016448317
187	0x3d646584	0.055760875
188	0xbe318787	-0.17336856
189	0xbd863ac4	-0.065541774
190	0xbe13656f	-0.14394163
191	0x3df0f38e	0.11765204
192	0x3dc264c8	0.09491879
193	0x3daf8de3	0.085719846
194	0xbdbbf434	-0.091774374
195	0x3dc660d5	0.09686438
196	0x3cd450e0	0.02591747
197	0xbb5b6d0a	-0.003348174
198	0xbc98177f	-0.018565891
199	0x3d7bb565	0.06145229
200	0xbe215606	-0.15755472
201	0x3e7546cb	0.23952787
202	0xbc00396f	-0.007826193
203	0xbd253636	-0.040334903
204	0x3e01c14c	0.12671393
205	0x3c5b5fbc	0.013389524
206	0xbd68e9d8	-0.056863636
207	0xbd55f716	-0.052237593
208	0x3dc7664b	0.09736308
209	0xbd064f36	-0.032790385
210	0xbe065e11	-0.13121821
211	0x3c4ac1ee	0.012375338
212	0x3d8339ea	0.064075306
213	0x3e15a7b5	0.14614756
214	0x3c2a6dee	0.010402186
215	0xbdf76ea4	-0.1208165
216	0x3da61b3e	0.08110665
217	0xbd24b110	-0.040207922
218	0xbaf2f55a	-0.0018536255
219	0xbd1af9a1	-0.03783572
220	0xbd77bea1	-0.060484532
221	0xbbf39adc	-0.007434232
222	0xbd5c2c45	-0.053753156
223	0x3ddccbd9	0.10781068
224	0xbe300c8d	-0.17192288
225	0x3e3db85a	0.18527356
226	0xbc0e08d6	-0.008669099
227	0x3de439f4	0.11143866
228	0xbcad581c	-0.021160178
229	0x3e87837c	0.26467502
230	0xbae1bd2a	-0.0017222513
231	0xbd91d3e8	-0.07120496
232	0x3bcfd1a4	0.00634213
233	0x3d806d9a	0.06270905
234	0xbdbb8fa9	-0.091582604
235	0xbb914a0a	-0.004433875
236	0xbda8d100	-0.082429886
237	0xbe94c5de	-0.2905721
238	0xbd7865e8	-0.06064406
239	0x3d3c094a	0.045907296
240	0xbbcd46c7	-0.006264541
241	0x3e1499eb	0.1451184
242	0x3d5777ae	0.05260437
243	0x3e2c2e77	0.168146
244	0x3b769c62	0.0037629833
245	0x3daa68d3	0.08320775
246	0xbd5f326b	-0.05449144
247	0x3d1707e7	0.03687277
248	0x3dda90c5	0.10672144
249	0x3db7f5cf	0.08982431
250	0xbdc53dd8	-0.096309364
251	0xbdc4f710	-0.09617436
252	0xbdbc3881	-0.09190465
253	0xbd7e26a6	-0.062048577
254	0x3e051846	0.12997541
255	0x3e402595	0.18764336

layers.2.bias f4 [100]
0	0xbd557eb7	-0.052122798
1	0x3d7b0716	0.061286055
2	0xbc23b5d3	-0.009992081
3	0x3df54d78	0.119776666
4	0xbcb3e8d6	-0.02196161
5	0x3d9598ab	0.0730451
6	0xbddf16ee	-0.10893045
7	0x3daf9d14	0.08574882
8	0x3b754494	0.003742491
9	0xbd12177b	-0.035666924
10	0xbd1ca40b	-0.03824238
11	0x3b4185bf	0.0029529182
12	0x3d723069	0.0591282
13	0x3d1dfd20	0.038571477
14	0xbabaa9be	-0.0014241261
15	0x3d4e06bb	0.050299387
16	0xbe67b6a3	-0.22628264
17	0x3d28f12f	0.041245636
18	0x3e4e7a26	0.20163783
19	0x3df0fadd	0.117665984
20	0xbc86d5e6	-0.016459417
21	0x3d3c8959	0.046029422
22	0xbd6dbf63	-0.05804385
23	0xbd3dea70	-0.046366155
24	0x3cd0b856	0.025478523
25	0x3c3526cf	0.011056616
26	0x3e548002	0.20751956
27	0x3db8cfe6	0.090240285
28	0x3d2fb248	0.04289463
29	0x3de6aa41	0.11262942
30	0x3d3ae66e	0.04562991
31	0xbd05b3f9	-0.03264234
32	0xbc82a9ce	-0.01595011
33	0xbdcaf95a	-0.09910841
34	0xbd010785	-0.03150131
35	0xbd0e581a	-0.03475199
36	0x3d79e9a6	0.06101384
37	0x3d84686a	0.06465228
38	0x3d0778e2	0.033074267
39	0xbd7ab0a3	-0.06120361
40	0xbd3807f4	-0.04492946
41	0x3dd78958	0.10524243
42	0xbd842767	-0.06452828
43	0xbdbcc88a	-0.09217937
44	0x3ce4c737	0.027927024
45	0x3dde215c	0.108462065
46	0x3d710180	0.05883932
47	0xbd826452	-0.06366791
48	0xbd277994	-0.04088743
49	0x3da4e02e	0.080505714
50	0xbddc0e4c	-0.107449144
51	0xbc30c599	-0.010789298
52	0x3de2c63e	0.11072968
53	0xbc03d940	-0.008047402
54	0xbca46efe	-0.020072456
55	0xbd660aea	-0.056162752
56	0x3c1ae766	0.009454584
57	0xbd0faa1c	-0.03507434
58	0x3dd9a927	0.106279664
59	0x3d0b9194	0.03407438
60	0xbcc40049	-0.023925917
61	0x3dd14957	0.102190666
62	0xbc81b264	-0.015832134
63	0x3d1342fb	0.03595255
64	0x3db68182	0.089114204
65	0xbe3050a1	-0.17218257
66	0xbdd8d103	-0.10586741
67	0x3d04ca0b	0.032419246
68	0x3d13ec55	0.036114056
69	0x3d1e31a6	0.038621567
70	0x3de9ff52	0.114256516
71	0x3e6184dd	0.2202334
72	0xbce725c6	-0.028216254
73	0xbd5b1b43	-0.053492796
74	0x3d6a8db7	0.057264056
75	0xbcdc1cb7	-0.026869161
76	0xbd5365da	-0.051610805
77	0xbc4df994	-0.012571711
78	0xbd0c7fea	-0.034301676
79	0x3d9aae8a	0.07552822
80	0x3df16008	0.11785895
81	0x3caeee93	0.021353995
82	0x3cfbaccc	0.030722044
83	0x3c9fd4ca	0.019510645
84	0x3d9b59d0	0.0758549
85	0xbdc380d1	-0.09546054
86	0x3c214803	0.009843829
87	0x3d9f5154	0.07779184
88	0xbd18527f	-0.03718805
89	0xbdde2d59	-0.10848493
90	0x3d4e85c3	0.050420534
91	0xbdb30658	-0.08741444
92	0xbbcb97e0	-0.0062131733
93	0xbdac5916	-0.08415429
94	0xbdc205c0	-0.09473753
95	0xbcd38868	-0.02582188
96	0xbcbd11b7	-0.023079736
97	0xbd7425c4	-0.05960633
98	0x3d68d029	0.056839142
99	0xbdcdb460	-0.100441694

layers.3.weight f4 [100, 100]
0	0xbca19f5d	-0.01972931
1	0x3e1d2889	0.15347494
2	0xbd076747	-0.033057477
3	0xbda72aef	-0.08162486
4	0x3e3addcd	0.18248673
5	0x3d973e96	0.07384984
6	0xbdd2bcc0	-0.102899075
7	0xbd7943fe	-0.060855858
8	0x3d8de8c9	0.06929166
9	0x3d3d6b53	0.04624493
10	0xbba8aeea	-0.0051478045
11	0xbe3fbec8	-0.18725121
12	0xbc3f9f22	-0.011695655
13	0x3cf63ef2	0.030059312
14	0x3d896e9c	0.0671055
15	0x3ca72100	0.020401478
16	0x3daa391b	0.08311673
17	0xbe63ae06	-0.22234353
18	0xbcc0975c	-0.023509674
19	0x3de56eac	0.112027496
20	0x3dbef2ee	0.09323679
21	0xbcbbe5ed	-0.022936786
22	0x39a3078b	0.00031095403
23	0xbe06db88	-0.13169682
24	0xbd96604e	-0.073425874
25	0x3e3705dc	0.17873329
26	0x3dcc147c	0.099648446
27	0x3daa36ef	0.08311259
28	0x3d931652	0.07181992
29	0x3d7eeea1	0.062239293
30	0xbdf3fe09	-0.11913688
31	0x3c8e2d68	0.017355636
32	0xbd88b6bd	-0.066754796
33	0xbd46b71c	-0.04851447
34	0xbdc7dac8	-0.09758526
35	0xbc74a66b	-0.014932255
36	0x3e30dbb6	0.17271313
37	0x3e21b421	0.1579137
38	0x3d4eca82	0.050486095
39	0xbd92893f	-0.07155084
40	0xbdb2bc09	-0.08727271
41	0x3e26cbc9	0.16288675
42	0xbdcf63e1	-0.10126472
43	0x3d3730de	0.044724338
44	0xbd16eda1	-0.036847714
45	0x3d52c3e5	0.05145635
46	0xbc1ab506	-0.009442573
47	0xbbc88adc	-0.006120069
48	0x3cd60795	0.026126662
49	0xbd9834d6	-0.07431953
50	0x3e372466	0.17884979
51	0xbd99567e	-0.074872
52	0x3d82d9c4	0.06389192
53	0xbda2a39f	-0.079413645
54	0xbe0e4282	-0.13892558
55	0x3d9a6350	0.075384736
56	0xbe3198a7	-0.17343388
57	0xbd3f80d2	-0.046753712
58	0xbe20afc3	-0.15692048
59	0xbd79ee12	-0.061018057
60	0xbd420e97	-0.047377195
61	0x3e23dbd3	0.16001825
62	0xbc8838b5	-0.016628603
63	0x3dc3f407	0.09568029
64	0x3e41316b	0.18866508
65	0xbceefae9	-0.029172378
66	0xbd31e750	-0.043433487
67	0x3d2f4b5a	0.04279647
68	0x3de214f7	0.11039155
69	0xbda06721	-0.0783217
70	0x3d7f58cb	0.06234054
71	0x3e809c29	0.2511914
72	0x3e096f85	0.13421448
73	0xbd214090	-0.039368212
74	0xbc5be9a2	-0.013422402
75	0x3dc19d09	0.0945378
76	0x3a06599c	0.0005125047
77	0xbdd9bb1b	-0.10631391
78	0xbd1e3ad0	-0.038630307
79	0x3df2932a	0.118444756
80	0xbd258dbd	-0.040418375
81	0xbe4d0291	-0.2002051
82	0xbd2683ff	-0.040653225
83	0x3c8ff9fb	0.017575255
84	0x3e2d05c0	0.16896725
85	0xbe656443	-0.22401528
86	0x3df8a050	0.12139952
87	0xbe1e4cb4	-0.15458947
88	0xbc7a5163	-0.015278193
89	0x3d1a491e	0.037667386
90	0x3d4fb378	0.050708264
91	0x3cc74fd8	0.024330065
92	0x3d6cac52	0.057781525
93	0xbb3dbdaf	-0.0028952172
94	0x3d1f7e9d	0.038939107
95	0xbde40506	-0.11133771
96	0xbdde4b9e	-0.108542666
97	0xbd9a92f1	-0.07547558
98	0x3e06db13	0.13169508
99	0x3ca83382	0.020532373
100	0x3d38123f	0.044939276
101	0x3e27f54e	0.1640217
102	0xbd9c7898	-0.07640189
103	0xbe00ad43	-0.12566094
104	0xbd23c902	-0.039986618
105	0xbd006490	-0.031345904
106	0x3bf278ad	0.0073996396
107	0xbd693e6d	-0.0569443
108	0xbc7b1767	-0.015325404
109	0xbd96065a	-0.0732543
110	0xbcd39393	-0.025827205
111	0xbd96ab0b	-0.073568426
112	0x3da3247d	0.07965944
113	0xbdb12008	-0.086486876
114	0xba008a15	-0.00049033883
115	0xbca8f9d5	-0.020626942
116	0xbc3d3ac6	-0.011549657
117	0x3d9972f1	0.074926265
118	0xbe5734bd	-0.21016212
119	0x3da485dc	0.08033344
120	0xbdf138b5	-0.11778394
121	0x3d280863	0.041023623
122	0xbdc67ee6	-0.09692173
123	0x3de5fc50	0.112297654
124	0x3d8a6ad0	0.06758654
125	0x3d907260	0.07053065
126	0xbd077c18	-0.03307733
127	0x3dcbd7bd	0.09953258
128	0xbd17d825	-0.037071366
129	0x3dd14692	0.10218538
130	0xbd9672bc	-0.073461026
131	0x3d3bce50	0.04585105
132	0xbd172d3a	-0.036908366
133	0x3d989659	0.074505515
134	0xbd3e34f8	-0.046437234
135	0xbcd05b21	-0.025434079
136	0xbe5675e8	-0.20943415
137	0x3cfd09c5	0.030888448
138	0x3abacbd0	0.0014251415
139	0xbd7d5e23	-0.061857354
140	0x3e00e956	0.1258901
141	0x3d0b57b9	0.034019206
142	0x3da1867a	0.078869775
143	0xbd5a5253	-0.053301167
144	0xbda6b783	-0.08140471
145	0xbd604adc	-0.05475889
146	0xbddc8fe8	-0.107696354
147	0x3e2138bf	0.15744303
148	0xbcb8f2ed	-0.022576774
149	0x3d1328cf	0.03592759
150	0xbd5ee398	-0.05441627
151	0x3d451d69	0.04812375
152	0xbc51d937	-0.012808136
153	0xbde15034	-0.11001626
154	0xbe39a6ac	-0.18129987
155	0x3cffcb2d	0.031224811
156	0x3d90251c	0.07038328
157	0xbe664bf7	-0.22489916
158	0x3d6b7e7b	0.057493668
159	0xbd7392ec	-0.059466287
160	0x3c1b7163	0.009487483
161	0xbe85bca4	-0.26120484
162	0x3c8e359a	0.017359544
163	0xbd9270b9	-0.071504064
164	0xbea83ce1	-0.32858947
165	0xbdfae200	-0.12250137
166	0xbd15face	-0.03661614
167	0x3cbb1880	0.022838831
168	0xbd4b07fa	-0.049568154
169	0x3dba22ec	0.09088692
170	0x3d6348aa	0.05548922
171	0xbd0b8a96	-0.034067713
172	0xbca1208c	-0.01966884
173	0xbe10fc74	-0.14158803
174	0xbda52a2a	-0.08064683
175	0x3e3158be	0.17319009
176	0x3ca1e3a8	0.019761875
177	0x3d0a3741	0.0337441
178	0x3dd76261	0.10516811
179	0xbe2a69bc	-0.16641897
180	0xbcf92a72	-0.030415747
181	0x3dec353a	0.1153359
182	0xbdaadbdc	-0.08342716
183	0x3e1c69eb	0.1527478
184	0xbe029399	-0.12751617
185	0xbcc7398f	-0.024319438
186	0xbdf6e8b2	-0.12056102
187	0x3e558c13	0.20854215
188	0xbd815b80	-0.0631628
189	0x3e3f4ac1	0.1868086
190	0xbdd4627f	-0.10370349
191	0x3ce6c74c	0.028171204
192	0x3e1000e8	0.14062846
193	0x3d984c29	0.074364014
194	0xbd9d9398	-0.07694167
195	0xbd58e5e7	-0.052953627
196	0xbdc1b431	-0.09458197
197	0xbd7eb4f8	-0.062184304
198	0xbe5f3859	-0.21798839
199	0xbd312a3d	-0.043253172
200	0x3df84578	0.12122625
201	0xbe2c49ec	-0.16825074
202	0xbc38c5e1	-0.011277647
203	0xbe87de77	-0.26536915
204	0x3d5d0735	0.05396195
205	0xbbb721d4	-0.0055887494
206	0x3db62f66	0.08895759
207	0xbe3003c9	-0.17188944
208	0x3dc3e403	0.09564974
209	0x3de1ca7d	0.1102495
210	0x3d339c5f	0.0438503
211	0x3d7d82a3	0.061892163
212	0xbd6c1da9	-0.057645474
213	0x3e0ebe3a	0.13939753
214	0x3e44bfd9	0.19213809
215	0x3e1102a8	0.1416117
216	0x3dd357fe	0.103195176
217	0xbe1a3919	-0.15060844
218	0xbdcc2ca8	-0.09969455
219	0x3dc574c4	0.09641412
220	0x3de998c8	0.11406094
221	0x3e1e23b5	0.15443309
222	0xbd9eadc7	-0.07747989
223	0xbd8f68f0	-0.07002437
224	0xbdf54835	-0.11976663
225	0xbe0b7e22	-0.13622335
226	0xbdefe203	-0.1171303
227	0xbc8b8fcf	-0.017036347
228	0xbe142feb	-0.14471404
229	0xbe118762	-0.142118
230	0x3d5efa1d	0.054437745
231	0x3def0e83	0.1167269
232	0x3aea4526	0.0017873391
233	0xbde1a616	-0.110180065
234	0xbbfdfdcb	-0.0077512017
235	0xbe3211c7	-0.17389594
236	0xbdeb0c2c	-0.11476931
237	0x3d951aca	0.072805
238	0xbe8ce011	-0.275147
239	0x3dcfcf5b	0.10146972
240	0x3df9aa25	0.121906556
241	0xbbbb0e69	-0.005708505
242	0xbd7f5c46	-0.06234386
243	0x3e4add9a	0.19811097
244	0x3d7e81ff	0.062135693
245	0xbd943ea1	-0.07238508
246	0xbd5ec5d9	-0.0543879
247	0xbe0eb537	-0.13936315
248	0xbe1bc7b2	-0.15212896
249	0xbe95a723	-0.29229078
250	0x3cd989b9	0.02655493
251	0xbd995757	-0.07487362
252	0xbcfc9c17	-0.030836148
253	0xbd3219df	-0.043481704
254	0xbd54d965	-0.051965136
255	0xbdcee350	-0.1010195
