main/continuous_time_inference (Schrodinger)/models_iters/Schrodinger_48000.pt (torch, 209056 bytes, 14 tensors)

linear_in.weight f4 [100, 2]
00000000: b481 313e 1936 0c3e a929 3abd f2db 42be
00000010: 0484 143d 1bf8 c93d d6e3 9039 e1a8 683e
00000020: 3ec6 263e 7f75 fe3c 91d8 d3bd 0c82 763e
00000030: 2341 1e3e 2025 22bd 17f2 a2be 3a70 1bbe
00000040: 28a2 80bd 95b8 643e 560a 02be 7aac 613e
00000050: 2d87 0abe 8fbf fe3d 06cc 22bd 37df 4e3e
00000060: 44c6 31be 3c3a 27bd 9e22 833b 4b76 92be
00000070: b247 0a3d 183e abbd 5ec9 3c3e 4a8e 903e
00000080: dc77 7c3e 1ed6 90bd f5d6 8c3e 0513 82ba
00000090: 7295 bbbd 2a20 30be c908 e33d e5ef 97bd
000000a0: 9005 8dbe 92c3 1cbe e211 22be 2832 d93e
000000b0: 0057 afbd 3a1b a3bd 653d ee3d 0b11 b33d
000000c0: 351b 0f3e 3eb9 a0bd 1a20 40be 5b9b 8abd
000000d0: c396 433e 7f28 ebbd acce b13d afb5 d9bd
000000e0: 63fc 553e 0fe8 2d3e bb60 99be c443 a43d
000000f0: 1250 103e 920a 863e 3d1c 793d a047 48bd
00000100: 6dc2 ee3c c26d 333e 9e76 a03d 5724 5e3d
00000110: 1926 a23e 12a3 b0be c5bc 1ebc fb65 fb3d
00000120: bbe9 a03c b09a 593e 3bf9 dd3c 1ff2 1f3c
00000130: 2465 72bd dc54 b8be 0d5c cbbd d598 7a3e
00000140: 40e9 573e f3ff 56be 4d8f 2fbe 02c9 fd3d
00000150: 8eb4 03be bce7 63be e852 8bbe a066 a93c
00000160: af7b 08be 6ec2 2fbe 4f8b 20be 30f3 43be
00000170: 6113 1a3d 527c 42be 61eb 713e e09d fc3d
00000180: 00b7 3bbe 161a 26bd 7332 adbd 57ba 85be
00000190: 10a3 1c3e 5846 f2bd 216f febd dac6 883d
000001a0: 5d74 14bd ccfb 8cbe 03f3 243e 5549 0fbe
000001b0: ec93 b33d 7129 a5be cdbc 413d e320 4bbe
000001c0: 9ac2 c33e 9dbe b0be e10c d2bd 8905 063e
000001d0: 0626 33ba e286 e93d f613 66be c700 9a3d
000001e0: 2ce5 923d 89da 393c 9102 2cbc 835a 423e
000001f0: 8d99 15be 02a8 85be b5d6 d13d 1072 2f3c
00000200: aec5 513c 8d21 183e c45f 3fbe 48bf fabd
00000210: d907 f2bd 61f0 693e 367a 843d 7787 073d
00000220: cb66 613e 57df c03b 5cd9 9d3c 7733 4a3e
00000230: 34ce 893e e80d e1bd 2703 94bd 3c41 973d
00000240: 06c0 cd3b 3d9a a4be a327 913c d40c 433d
00000250: c7b8 7bbe a4c6 07be 06a6 dc3d 375d fa3d
00000260: a997 0fbe 978d 06be 6b94 273e 30d4 4c3e
00000270: 2e22 41bd f023 353e a5b5 8abe e398 5ebe
00000280: e81d 053e 4673 1bbe 6a75 9c3d cc74 973d
00000290: f53c b43b 5610 3d3d f8e9 da3c 2684 463e
000002a0: 4fe9 9f3d fc43 acbc 8cc3 0b3e ad4b 8f3e
000002b0: 844b 32be 4fa0 923e 6e6a 553e 2744 1abe
000002c0: bfee f7bd b0eb d93d c216 a93d c6dd 6dbe
000002d0: ce3f b43d 017a febc 354e bebc 68ae 6f3e
000002e0: b3f4 a33e 7994 73bd d700 98bd 7b92 fe3d
000002f0: f69b 053b d102 c73d 2a3a aebd 74dc 943e
00000300: 5c9c 183e 6e8e c43d de86 00be 86e7 b2bc
00000310: 488f 80be b406 fd3d 5215 b4bc 09bf bf3d
0.17334634 0.13692512 -0.045449886 -0.19029215 0.036258712 0.098617755 0.0002763557 0.22720672
0.16286561 0.031061886 -0.10344041 0.24073046 0.15454535 -0.039586186 -0.31825325 -0.1517953
-0.06280929 0.22336037 -0.12699255 0.22038451 -0.13528128 0.12438881 -0.039745353 0.20202337
-0.17360789 -0.04082702 0.0040019294 -0.28605875 0.03375978 -0.08361453 0.1843619 0.28233558
0.24655098 -0.070720896 0.2750775 -0.0009923881 -0.09159364 -0.1719977 0.1108566 -0.07418803
-0.27543306 -0.15308979 -0.15827134 0.4242108 -0.08561516 -0.079641774 0.11632804 0.08743485
0.13975222 -0.07847832 -0.18762246 -0.06767913 0.1910048 -0.114823334 0.08681998 -0.106303565
0.20897059 0.16983055 -0.29956612 0.08020738 0.14093044 0.2617994 0.060817946 -0.048896432
0.029145444 0.17522338 0.078351244 0.054233875 0.3166969 -0.34499413 -0.009688561 0.122753106
0.019642701 0.21250415 0.027096381 0.009762316 -0.059178486 -0.36002243 -0.09929667 0.24472363
0.21085072 -0.20996074 -0.17144509 0.12391855 -0.12861845 -0.22256368 -0.2721169 0.020678818
-0.13328432 -0.17164013 -0.15678142 -0.19135737 0.037616137 -0.18992737 0.23624946 0.123348
-0.18331528 -0.04055222 -0.08456888 -0.2611873 0.15296578 -0.11829823 -0.1242354 0.06678553
-0.036243785 -0.27535856 0.16108327 -0.13992818 0.08768448 -0.3225818 0.047299195 -0.19836764
0.38234407 -0.34520426 -0.10256363 0.13088049 -0.0006833974 0.1140268 -0.22468552 0.075196795
0.07172617 0.011343607 -0.010498659 0.1897984 -0.14609356 -0.26104742 0.1024603 0.010708347
0.012803478 0.14856549 -0.18688875 -0.12243515 -0.11817903 0.22845604 0.064686224 0.033088174
0.22011869 0.005885999 0.019268684 0.19746195 0.26915133 -0.109889805 -0.07227164 0.07385489
0.0062789945 -0.32148924 0.017719096 0.047619656 -0.24582206 -0.13259369 0.10773854 0.122248106
-0.14022698 -0.1313995 0.1636521 0.20002818 -0.047151737 0.1768949 -0.2709171 -0.21738009
0.1299969 -0.15180692 0.076395825 0.07395324 0.0055004307 0.046158157 0.026722893 0.19386348
0.07808172 -0.021028511 0.13648814 0.27987424 -0.1741162 0.2863793 0.20841381 -0.1506506
-0.12106084 0.10640657 0.08256294 -0.23229131 0.08801232 -0.031064035 -0.023230651 0.23406374
0.32022628 -0.059467766 -0.07422035 0.12430283 0.002038715 0.09717334 -0.08507188 0.29074442
0.14903396 0.09597479 -0.12551448 -0.021838915 -0.25109315 0.12354794 -0.021982823 0.09362609

linear_in.bias f4 [100]
00000000: 9a42 823c 2ae2 d93b 988d 52bd c1ce 4a3d
00000010: 7c01 923d 658e 62bd bd0a 4c3d c28e a8bc
00000020: da3b c73d 437c 6bbd 5610 413d 1041 bc3c
00000030: 0032 0a3d 440b a63d 40b3 9f3d abb7 c43d
00000040: 4573 8a3d 97fc 0cbd a9d9 483d cd0f 8ebc
00000050: 1d80 c2bc 0e46 4dbd 8ac9 d83d 41f6 723d
00000060: 6b3a 493b 0651 4dbd a4db fb3c a9c3 88bd
00000070: 5055 533c f844 a43d 0f9f 4a3d e888 1c3d
00000080: 3de7 96bd 13ab 1a3d e1d4 6cbc 8db2 b8bd
00000090: 652d a4bc 6d6f 4fbd f1f2 6f3d 54f0 df3d
000000a0: a91a 843d a0eb 46bd d029 edbc 1fe8 3d3d
000000b0: 7926 f2bc 050f afbc aa2b 033d ea69 2abd
000000c0: 4d92 2a3d 2ca1 103d 407c 3abd 3e26 3cbc
000000d0: ad45 7fbd ebfb cc3c 98be 883c cec6 81bc
000000e0: b6e7 08bd 5e48 993d 1b75 eb3c 451b 86bd
000000f0: 33c8 b8bd 2aa9 753d 9a23 8bbd ca88 763d
00000100: fee5 0bbd 8e02 b63c 5448 2abd e479 72bd
00000110: f22e 9abc 7d4f 5b3c ac8b aa3d be99 f83c
00000120: cf08 9c3c 9b09 c53d e323 4a3d fcfa 683d
00000130: 5488 763c b4e5 18bd 4b6e 3bbd d284 d63c
00000140: 999b 113d 0b92 c9bc d341 153e 2aff 323d
00000150: 592e 4c3d ffa8 593c 5ea6 2f3d d6e6 5abd
00000160: c136 9c3d a029 483d 6495 503d 71cc 2ebd
00000170: 7c74 213d a018 c23c c421 ddbd 8a2e 38bb
00000180: d28d d6bc a782 c6bc 9694 f1bc 37c8 e2bc
0.015900899 0.0066492753 -0.051404566 0.049513582 0.07129189 -0.05531158 0.04981493 -0.020575885
0.09728213 -0.057491552 0.04713472 0.022980243 0.03373909 0.081076175 0.07797861 0.096053444
0.06760267 -0.034420576 0.049035702 -0.017341519 -0.02374273 -0.050115637 0.105853155 0.059316877
0.0030704986 -0.050126098 0.030744381 -0.06677944 0.012898758 0.08020967 0.049468096 0.0382165
-0.07368324 0.037760805 -0.014455051 -0.09018431 -0.020041177 -0.050643373 0.058581296 0.10934511
0.064503975 -0.048564553 -0.028950602 0.046363946 -0.02955936 -0.021369467 0.032024063 -0.041604914
0.04164343 0.035309955 -0.04552865 -0.011483727 -0.062322307 0.025022468 0.016692445 -0.015841868
-0.0334241 0.07484506 0.028742364 -0.0654817 -0.0902256 0.05997578 -0.067939 0.060189046
-0.034154885 0.022218015 -0.041572884 -0.059198275 -0.018821213 0.013385651 0.083274215 0.030346747
0.019047169 0.09620973 0.04935063 0.056879982 0.015047152 -0.037328437 -0.04575948 0.02618638
0.03554878 -0.024605772 0.14575891 0.043700375 0.049848888 0.013284921 0.04288327 -0.0534428
0.07627631 0.04886782 0.05092372 -0.04267544 0.03941773 0.023693383 -0.10797456 -0.0028103911
-0.026190672 -0.024232222 -0.029489797 -0.02768336

linear_out.weight f4 [2, 100]
00000000: 30b7 5d3e e151 be3e 94e1 d63e 05f9 f23d
00000010: 67d5 8dbd 7c7f 173e dc20 d1bd e9f2 7abe
00000020: 0f7d 65be 4c93 7d3e 7795 d43e fefc 71bd
00000030: eff4 163e 6d11 a73e fcc8 2cbe cf2c 4a3d
00000040: a0f4 a83d 0cd5 b43d 9c32 36be 0c1d 4cbe
00000050: f025 c9bd 22a2 853d 112b 14be 2833 39bd
00000060: 6e6a dcbd 7caf 683d 12a8 4cbd 740a b4bd
00000070: 5700 bb3d 2aa7 483e 935b ec3d f5f7 453b
00000080: e58d f93c d871 023e 4809 29be 1a18 f73d
00000090: 54cb 1dbe 0e9b c8bd 9085 a6bd a34f 07be
000000a0: f31b 303e e967 d6bd 5a0c 3fbe eee5 3abe
000000b0: 6a17 29bd 5bf3 4dbd 12f3 fcbd a0e0 253e
000000c0: 2556 e0bd 1ecf f1bc 415b 8ebe d22c 2abd
000000d0: d6d2 1d3e 3bd1 adbe 84c0 1fbd ef44 84bd
000000e0: f829 273e 3a17 2abe 263e 30be 83ba 923e
000000f0: e96b cabd ad60 1bbd ca85 86bd 9df5 713d
00000100: fd94 433d 4148 f2bd 6e67 8abd 5745 9c3d
00000110: 73ae df3d 0f09 103e f87e 7bbd d55d e53d
00000120: 396b 123e 5fac dcbd a1ec 87bd 1ba3 753e
00000130: 0e28 05be df1e 67be c2a4 ba3d 9cf8 6f3c
00000140: 585d f33d c4e1 38be d29c 89bc 42c5 dc3e
00000150: e4bc ae3e 28c5 03be 410b 83be 2d12 ad3d
00000160: 7de5 94bd 14fa c7be be3f 71bd 6bf2 1ebe
00000170: 70cf 193e a984 3dbe 34e8 21be b7cc a4bd
00000180: 8d1b 7abe 5e2a 1f3e aea5 54bd 755f 6fbe
00000190: 27de 4b3e a616 6ebc 93a7 4d3e 708c 92bc
000001a0: 3662 8abd 2bf7 15bd 0e53 cbbe 0791 38be
000001b0: 1c4a 9b3c afdb 113e 00ec 76be cb79 e83d
000001c0: c050 973e 12f1 2ebe 7c9a b73d 879d aabc
000001d0: 6ee7 b23e 802d 243d 8d8f 7fbd 22f6 ba3d
000001e0: d039 583e 068a 98bd 791d 273e 99a5 3f3c
000001f0: 6503 86bc c32a fcbc 94aa 2abe 3a26 373e
00000200: 4bfb 8bbe edb5 c53d 15f4 353e ae38 06be
00000210: e210 e8bd b53b 55be 10fa c0ba 5f87 063e
00000220: a77c 843e c535 c33e ea6a 353d 1d1a a5bd
00000230: c054 933e 93d2 08be a330 e03c bffd e0bd
00000240: 7acc 8cbe 6902 6b3d d259 bcbc af0b a23d
00000250: de7c 273e 697a ddbd c8ca ac3e c966 5abe
00000260: ee6c 00bc f0aa 5f3e 3fff 34be f819 363e
00000270: db9d 88bc 449e dbbd 2dcb db3d 17be 77be
00000280: 8be2 5e3e 764b 733d f5aa bfbb 9d00 babd
00000290: 8f95 86be cbf6 12bc 38b5 133e 9da5 79bd
000002a0: d6e8 c8bd 9269 03bc 306b 27bd b062 263d
000002b0: 47ae 183d 4d27 f43d 6791 ecbe fcb8 8cbe
000002c0: c307 c43d 306f 93be 7c45 6bbe cfe8 a4be
000002d0: df0e b8bd 0aef 2e3d 3c76 89bd c118 ddbd
000002e0: f3e5 a1be 6696 5a3e 0994 86be 6631 86be
000002f0: 8405 1a3e 1a7d b0bd 96a9 9abc 8673 0a3e
00000300: b6e9 373e 7d9b c8be c2d3 bfbd 5935 f3bd
00000310: 1232 f63b 278b 7b3e e7b1 acbe bfb3 44be
0.21651912 0.37171844 0.41968977 0.11863903 -0.06925469 0.14794725 -0.102113456 -0.24506725
-0.22410987 0.2476322 0.41520283 -0.059079163 0.14741872 0.32630482 -0.16873544 0.04935914
0.082497835 0.08829698 -0.17792743 -0.19932956 -0.09821689 0.06525065 -0.14469554 -0.045214802
-0.10762487 0.05680798 -0.04996497 -0.08791056 0.09130924 0.19595018 0.11540904 0.0030207608
0.030463168 0.1273874 -0.16507447 0.12065144 -0.15409595 -0.09795199 -0.08130944 -0.13213973
0.17198162 -0.10469038 -0.18657055 -0.18251774 -0.041282095 -0.05028091 -0.123510495 0.16198969
-0.10953931 -0.029517706 -0.27803996 -0.04154665 0.15412459 -0.33948693 -0.039001957 -0.064584605
0.16324604 -0.16610423 -0.17211208 0.28657922 -0.098838635 -0.037933994 -0.06568487 0.059072126
0.04774951 -0.118301876 -0.06758009 0.07630413 0.109219454 0.14065956 -0.061400384 0.11199538
0.14298715 -0.10775065 -0.0663693 0.23988001 -0.13003561 -0.2257037 0.09113456 0.014646675
0.11883038 -0.18054873 -0.01679841 0.43119246 0.34128487 -0.12868178 -0.25594524 0.084507324
-0.07270334 -0.39057982 -0.05889868 -0.15522163 0.15020537 -0.18507637 -0.15811235 -0.08046859
-0.24424572 0.15543506 -0.051915817 -0.23376258 0.19908963 -0.014531767 0.20083456 -0.017889231
-0.067570135 -0.03661267 -0.39711803 -0.18024074 0.018956237 0.14243959 -0.24113464 0.11351355
0.29553795 -0.17084149 0.089650124 -0.020827068 0.34942192 0.040082455 -0.06239276 0.09128977
0.21115804 -0.07448201 0.16319837 0.011697196 -0.01635904 -0.03078211 -0.16666633 0.17885676
-0.2734016 0.0965384 0.17768891 -0.13107559 -0.11331345 -0.20823558 -0.0014722962 0.13137577
0.25876352 0.3812696 0.044291414 -0.08061621 0.28775597 -0.13361578 0.027366942 -0.10985898
-0.27499753 0.057375345 -0.022992048 0.07912385 0.16356227 -0.108143635 0.3374846 -0.21328272
-0.007838471 0.21842551 -0.17675494 0.17783344 -0.016676834 -0.10723546 0.10732112 -0.24193607
0.21766107 0.059398137 -0.005849237 -0.09082148 -0.2628598 -0.008969973 0.14424598 -0.060948957
-0.09810035 -0.008020775 -0.040873706 0.04062146 0.03727558 0.119215585 -0.46204683 -0.27484882
0.09571793 -0.28795767 -0.22975725 -0.3220887 -0.089872114 0.042708434 -0.067120045 -0.10795737
-0.3162075 0.21346435 -0.26284817 -0.26209563 0.15041167 -0.08617611 -0.018879693 0.13520631
0.17960247 -0.39181128 -0.093665615 -0.1187541 0.007513293 0.24564801 -0.3372948 -0.19209193

linear_out.bias f4 [2]
00000000: a442 b2ba aaf8 a13b
-0.0013600183 0.004942973

layers.0.weight f4 [100, 100]
00000000: 945e 04bd 2db3 c1bd b710 dc3d f2e0 013d
00000010: 56f9 a03d c360 ad3d 62b9 633e 6e11 cbbd
00000020: 380e ea3d 1e79 afbd 9ed0 b7bd ba05 20be
00000030: d998 c73d 6af7 28bd 9727 6d3e 4587 4e3e
00000040: 3a4a 3c3e 8f59 2a3d 893e 083e e725 123e
00000050: efef 72be 221d bfbd e107 f83d 99d6 e9ba
00000060: f2dc b63d ff55 e1bd d1b4 22bd a28b cc3c
00000070: bccb f5bd 37b4 833d 25d9 42be 84e3 22bd
00000080: 9970 3cbe 888a f53d 19a2 843e 8ab8 17bc
00000090: 6a12 a93d 2575 e2bd 48cf 0b3e 1d61 4c3d
000000a0: dd4d 483d a7c6 243e e576 97b9 6e66 d2bc
000000b0: b5cc 253e 9b95 3b3d df3d 52be 4f44 193c
000000c0: 5b34 883c 6f5b fb3d 5428 c1bc 2e40 bb3d
000000d0: 2c1b d6bd d81e d23d 3b58 a43d 22ba 1cbe
000000e0: 948e 3b3e ff0d 0fbe 2f38 fabc fd72 06be
000000f0: 63e0 edbc e90f 8bbd 82fc 2e3d d915 ed3d
00000100: e3c1 8e3d 18b3 b7bd 3f51 e6bc 71f7 7ebe
00000110: d337 71bb ad1c 19be c58b 333e 7171 8cbd
00000120: fddd 8a3d 9106 413d cf8d 8ebd cda8 833c
00000130: d871 dd3d d702 dbbc 5e53 193d 10f0 2cbe
00000140: 32f5 abbd 9ce5 243d ad68 163d e3b9 7f3d
00000150: 9b3c 6dbd b35c 3ebd 3c8a 18bd 1810 89bd
00000160: 3195 363d e189 0e3b 5488 803e c811 25bd
00000170: 6b08 79bd df2a 11bd 8746 febd 41a7 f4bd
00000180: c399 ac3d 7eb0 0fbe 8205 1cbe 9826 0ebc
00000190: 3d10 64bd 2e18 0b3e 24ed 9fbd 6d00 8fbb
000001a0: 8dd5 dd3d 106d 48bd ed1b 333e 6542 953d
000001b0: d8f7 83bd 8655 18bb 90ee 7ebc e1ff 493d
000001c0: e7f5 8b3e 2d7e 3bbb dc89 38bd 6b02 5a3d
000001d0: 3b41 24be 62b6 00be 1db6 e23d d33a f6bb
000001e0: 44c1 7a3e 9c51 0c3e f4ba c83d 7aa6 f4bd
000001f0: 792a 233e ae11 763d 480d bebc ae19 3bbe
00000200: a8ed bdbb d860 273e ad6c bebd 45b4 d4bc
00000210: a9fe 2ebe f7f3 1fbe 5dc6 c3bd d355 69bd
00000220: d2df 78bd 0484 5dbb 7e58 3a3e 4daf 94bd
00000230: f1ef 1b3d 893d f63d 9bc1 e53c f0a4 923d
00000240: 5553 afbd c5b0 053e f39f f0bd a7ef 33bd
00000250: 87bd 0b3e f72f aebd 0719 bbbb eb6a 1abd
00000260: 7913 f9bc 18ca 88bd 7af6 a23d fe05 17bd
00000270: 5bee c8bd b7bb 3e3e 7623 38be 114a 78bd
00000280: ee32 e8bd 316c 4a3d e815 c63d 2329 64be
00000290: ed7e bb3b 811a 19be 395e 8fbc 5966 a9bd
000002a0: 458a 313c 99d8 01bd 53ad 0bbe 4069 273e
000002b0: 83f7 533e e791 9c3d eeb7 bf3d 521a 54bd
000002c0: 3ef7 ac3d 1ce1 80bc 4b2e 0f3e 8624 88bd
000002d0: 983a 55be d134 8a3d 2634 f43d 5f1c afbd
000002e0: 013d 57be 6a34 d4bd 425e 1fbd 79b7 93bd
000002f0: 69c3 ab3c 3b45 6bbd 4932 6d3d 6936 78bc
00000300: 1006 983c 801e 16bd 3117 8abe 7cf0 3bbe
00000310: e3cb 83be f6b9 4b3e 7ae2 783d 823e 0a3e
00000320: 7901 fdbd 8323 24bd 4f58 893d 76f1 7e3c
00000330: d363 6abd 00af ae3d 4f00 27be f5a0 8abd
00000340: 4d90 97bd 36ef 183e e9f7 9bbd 9a76 303d
00000350: 754f bc3a 544a 9bbc 01d9 a0bd 1e60 0c3d
00000360: f6bd eebd fcc9 20bc e12d 513d 61f3 23bd
00000370: ff65 fcbc fafb a4bc c119 aebd 41ac cabc
00000380: fe29 8c3d 8ce1 91bd 7ccb 1dbe 5e6f 30bd
00000390: eaac f13c 9cd3 623d 4e37 933d 3f1a 613d
000003a0: adc4 5e3e beef e13c eb3d eabb bf6c 703e
000003b0: bb9f 9e3d e03b 783d 11a2 e03d f762 7fbb
000003c0: 4960 d83d 488b 1b3d f9d9 82be 1f25 eb3d
000003d0: 120e 393d 9609 debd 66be 56bd b085 bd3d
000003e0: 5cb9 93bd a192 433d 032d e6bd 8484 fabd
000003f0: bed2 ab3d 6133 53bd afb6 82bd 20c7 8cbc
-0.03231676 -0.09458003 0.107453756 0.031708665 0.07860057 0.084657215 0.22238687 -0.09915434
0.11428493 -0.08568023 -0.089753374 -0.15627185 0.0974595 -0.041251577 0.23159634 0.20168789
0.1838769 0.041589316 0.13305105 0.14272271 -0.2372434 -0.093317285 0.12110878 -0.0017840444
0.08928861 -0.110027306 -0.03972322 0.024968926 -0.1200175 0.06430858 -0.19028147 -0.039767757
-0.18402328 0.11989313 0.2590492 -0.009260306 0.08255465 -0.110575 0.1365329 0.049897302
0.04890238 0.16091405 -0.00028889548 -0.025683608 0.16191371 0.04579697 -0.20531414 0.009354665
0.016626528 0.12273299 -0.0235788 0.09143101 -0.104544014 0.10259789 0.08024641 -0.15305379
0.18316108 -0.13970183 -0.030544369 -0.13129802 -0.02903766 -0.06790144 0.04272128 0.11576433
0.06970575 -0.08969706 -0.028114913 -0.24899079 -0.0036806955 -0.14952345 0.17533787 -0.06857575
0.06780622 0.047125403 -0.069606416 0.016071701 0.108127296 -0.026734753 0.03743302 -0.16888452
-0.08396377 0.040258035 0.03672092 0.062433135 -0.057919126 -0.046475124 -0.037241206 -0.06692523
0.044575874 0.0021749663 0.2510401 -0.04030016 -0.060799044 -0.035441276 -0.12415796 -0.11945964
0.08427765 -0.1403217 -0.15236476 -0.008676194 -0.05567955 0.13583443 -0.07808903 -0.0043640644
0.10831747 -0.048932135 0.17491122 0.072880544 -0.06443757 -0.0023244335 -0.015559807 0.04931629
0.27336046 -0.0028609142 -0.045053348 0.053224962 -0.16040508 -0.12569574 0.110698916 -0.0075143366
0.24487787 0.13703007 0.098012835 -0.119458154 0.15934171 0.060075454 -0.023199692 -0.18271515
-0.005796153 0.16345537 -0.09298072 -0.025964865 -0.17089333 -0.15620409 -0.09559319 -0.056966614
-0.060760327 -0.0033800611 0.1819782 -0.072599985 0.038070623 0.12023456 0.02804642 0.071603656
-0.08560816 0.13055713 -0.11749258 -0.043929722 0.13646518 -0.08505242 -0.0057097706 -0.03769962
-0.030404793 -0.06679171 0.07957168 -0.03687095 -0.09811088 0.18626295 -0.17982277 -0.06061751
-0.11337839 0.049419586 0.09672147 -0.22281317 0.005721918 -0.14951517 -0.017500984 -0.082714744
0.010836189 -0.031700704 -0.13640337 0.16348743 0.20699887 0.07645016 0.09361254 -0.051782914
0.08445595 -0.01573234 0.13982503 -0.06647591 -0.20823133 0.06748355 0.11924009 -0.08550333
-0.21019365 -0.1036156 -0.03890825 -0.07212729 0.020967202 -0.05743907 0.057909284 -0.015149691
0.018557578 -0.03665018 -0.2697082 -0.18353456 -0.2574149 0.19895157 0.06076286 0.13500407
-0.123537965 -0.04007293 0.06706297 0.015560498 -0.057224106 0.08529472 -0.16308711 -0.06768981
-0.0740057 0.14935002 -0.076156445 0.043081857 0.0014366942 -0.01895634 -0.0785389 0.034271352
-0.11657326 -0.009813782 0.051069144 -0.040027026 -0.030810354 -0.020139683 -0.08501006 -0.02474034
0.06843947 -0.07123098 -0.15409654 -0.043074958 0.029501397 0.055377588 0.07188283 0.05495667
0.21754713 0.027580138 -0.0071484945 0.23478983 0.0774531 0.060603976 0.10968412 -0.00389689
0.1056524 0.037974626 -0.25556925 0.1148169 0.045179434 -0.10841672 -0.05242767 0.092540145
-0.07213089 0.047747258 -0.11239054 -0.122323066 0.08389805 -0.05156267 -0.063825004 -0.017184794

layers.0.bias f4 [100]
00000000: 1d5a 5a3d 9edc 3a3c 3591 0fbd d320 69bc
00000010: 7424 9dbd 0279 da3c fb58 03bd bb6c b13d
00000020: 9915 3fbd 8726 163d 8f4c 04bd 0d53 71bc
00000030: 762b 5a3d af5c 5a3d d32a abbd 04c0 5dbd
00000040: f062 073d 8fbb c0bc ef4e bd3b 3abb 2abc
00000050: bb11 11bd ba45 4e3c 6e07 c7bd a0b5 7fbd
00000060: c13e 033b 6016 d03c 8ee9 99bd 35cd 523c
00000070: 2042 f8bc 86b5 28bd 24cd adbc 2476 123d
00000080: d675 e4bc a9a9 44bd 9143 ea3c cf91 0bbd
00000090: b6e7 ff3c 4583 8fbb 302c da3c eea3 56bd
000000a0: e5b9 9e3d d8b5 0cbc 9ed2 1bbd 48bb 52bd
000000b0: 4d6a c2bc af3b 68bd b4fd 943d a9ab 0fbc
000000c0: dbfc 5b3d fd3f f03b 5c9f eabc fc33 19bd
000000d0: d790 823c 8d9e 11bd 8ef2 213d 48f9 913d
000000e0: fe3d 7cba 9c01 b1bc 2140 0c3d 422a 4cbb
000000f0: 5813 48bc a2c1 11bd 1c91 1dbd b018 90bd
00000100: 33c7 a03c 7647 94bd 487b d9bc c6b0 103d
00000110: 7222 58bc cb72 08bd f503 8cbc c19f 95bd
00000120: f5a7 3d3d 2587 f1bc bee1 28bd 4bb8 6f3d
00000130: 4046 323d fee9 563d e122 44bc f934 5c3c
00000140: 5f46 f03c 5c67 333c 2ecf 0a3d 4e43 eabc
00000150: 0e11 a7bc debd 233d fd13 afbc 8fef bc3c
00000160: 6780 0a3d e4d4 d5bc 7946 9a3d 4c43 883d
00000170: a8a9 bc3c 707b b2bb 19b2 66bc 4bc6 00bd
00000180: dd45 403d b9ae 84bb 1ab9 fdbc c1db dbbc
0.053308595 0.011405138 -0.03505059 -0.014229017 -0.076729685 0.02666903 -0.03206728 0.08663317
-0.046651457 0.036657836 -0.032299574 -0.0147292735 0.053264104 0.053311046 -0.083577774 -0.0541382
0.03305334 -0.023526935 0.005777232 -0.010420615 -0.0354173 0.012589866 -0.09718214 -0.06242907
0.0020026418 0.025401294 -0.0751525 0.012866308 -0.030304968 -0.04118874 -0.021215983 0.0357572
-0.02788822 -0.048013363 0.028596671 -0.0340746 0.031238418 -0.004379662 0.026632398 -0.05240243
0.077503 -0.008588277 -0.038042657 -0.051448137 -0.023732329 -0.056697544 0.072749525 -0.008768954
0.05370794 0.0073318467 -0.028640442 -0.03740309 0.015938206 -0.035551596 0.03953796 0.07127625
-0.00096222747 -0.021607213 0.034240846 -0.0031153117 -0.012211643 -0.035585053 -0.038468465 -0.07035959
0.019626236 -0.072401926 -0.026548043 0.035324834 -0.013191806 -0.0333126 -0.01709173 -0.07305861
0.046302754 -0.029483387 -0.04123091 0.058525365 0.043524027 0.052469246 -0.011971206 0.013440364
0.02933043 0.010949936 0.03388899 -0.028596547 -0.020393874 0.039975993 -0.021371836 0.02306345
0.03381386 -0.02610249 0.07532973 0.06653461 0.023030117 -0.005446844 -0.014080548 -0.031439107
0.046941627 -0.004049149 -0.030972052 -0.026838185

layers.1.weight f4 [100, 100]
00000000: 5486 a93d 965b 13be 260a aa3d e0cb 6c3d
00000010: 2095 063e 02ae 58bd 885d c03d e12c 41bd
00000020: 23ec 17be cbc3 ad3d 623f a4bd c780 543e
00000030: dd83 523e de83 a93d 0166 503d 911f c4bb
00000040: 60df 0dbe c18f c7bd f369 d6bd 2eb4 173e
00000050: 1a4f 4d3c 1b69 ecbd 874c 3e3e 87f6 16be
00000060: 3427 213d 4630 ff3a 946a 133d 1fff 073e
00000070: 9a97 b73d 4073 75bd 0576 5dbe eecc 2fbe
00000080: 49e3 65bd be4c 4f3d 85c1 2dbe d553 7b3e
00000090: 8da0 eb3d 456f 44bd 26f7 fb3c 2d17 bb3c
000000a0: fa6e f0bd a57c d3bc 1b24 ef3d 6b59 1e3e
000000b0: f202 74be ad27 d83d db3d 373e 6ac2 523d
000000c0: 0d5a 1e3e 3040 123d b25d 493e bf5b a83d
000000d0: de62 7e3d 61ed 053e d63c 143d 01b2 1b3e
000000e0: 48b8 a1bd 72e1 86bd aab2 ea3b f150 173d
000000f0: d8fb e1bb fb7f 973d 8d29 b83b eaef c1bd
00000100: 4245 413c 10a4 a63d dd68 ee3c 4584 cd3c
00000110: c894 9d3c d10d 22be a00e ba3c cfda 4bbd
00000120: 998d 7dbd 6b0e 44be 890a 30bc 87b5 62bc
00000130: ada2 12bd 8c33 5bbe da75 c5bd 113e 173e
00000140: 8b9c 383e 17c5 6e3d 428d dbbd e62f 223d
00000150: f36a 0f3e 0347 1c3e 4cd0 d93d 7e55 803c
00000160: a510 8c3d 2dfa b93c 5afd 7cbe 7db0 21bc
00000170: 9673 27bb edbd 92bd 4966 e1bd 5941 54bd
00000180: 8d6e d53c ceea a73d 573f 16bc c84e ac3d
00000190: 2d6b 67bd d1bc 1a3e 699a 5abd 7ca4 edbd
000001a0: 4be5 9dbd fe9f 1cbd 6611 f8bd 58f8 413d
000001b0: d92d 4f3e 35a8 d33d d000 8e3e 6256 f3bb
000001c0: f030 193d a7c0 b3bd cba5 323d 86a4 83bd
000001d0: ea01 053e 559d 89bd 15fa 143d 2354 c43d
000001e0: 3213 263e 5fad 0a3d 9e22 e63c ac84 bb3c
000001f0: 54b5 503e 36f6 383d 62a0 ef3d 60da 42be
00000200: 8842 8fbd c0d6 97bd 8339 9e3e 9804 9ebd
00000210: aff9 37bc ee5c 7dbd 740c fabc 2297 fcbd
00000220: 670a 0a3e 8583 afbd 5340 3abc 5efc 74bd
00000230: 3b67 003e 4526 8bbc 67b7 dabd dab3 dc3d
00000240: 0336 663d 98c6 263d 3718 493d 03f4 d13d
00000250: 7a7d 09be c318 e83c ef6a e73b fecc 03be
00000260: c925 3e3d 6974 14bd fd6a 14be fef0 81ba
00000270: c5f8 023e 94f2 2d3a b360 01be 8d19 9e3c
00000280: 8270 8e3d 2a59 493d d8a9 0f3d f9c5 01bd
00000290: 3541 9abe 2f58 11bd 4d67 2b3e ce98 c23c
000002a0: 7958 2bbe 1227 133d 7e6a 5cbe 4a95 80bd
000002b0: 302b 28be 5e26 073d e167 913b 95c1 d6bd
000002c0: 1438 f3bd 6db8 e2bc 8ac1 443e 3436 99bd
000002d0: dd8a 71bc 6369 c9bd 2fd5 22bd f283 f93d
000002e0: 2dfc b63d ddc3 1e3e ab7d 6a3e 6905 0dbc
000002f0: 452e 0ebd 1562 c93d 0a7d 06bc fae7 1b3e
00000300: a0b7 45be 201c 0a3e e5eb 0a3e 1b9b c1bd
00000310: 9103 7b3c ec94 9a3d c650 ee3d cb27 0c3d
00000320: e999 36be a342 9b3d 0c1c 40be dae7 fcbd
00000330: 11d2 7a3c bdb7 9a3d 105f c63d 3a09 b43c
00000340: de0b 093e 386c d43d 9dfb 193e f368 943c
00000350: 5519 b3bd 89dc f2bd bc69 2b3d 1280 87bd
00000360: 031c c0bc f429 12bd 1739 f6bd 36dc fb3b
00000370: b3e8 dbbc f618 d1bc e748 a83c c3fe 3c3c
00000380: 5890 8a3c 33f8 b6bd b81e 843c ce51 01bd
00000390: c80d 873d 429a 57bd 0bd6 6cbd 093c 1a3e
000003a0: 3df8 243e 526b 513d 689a f8bb 3fd5 fdbc
000003b0: a7cf a0bd c40c fdbd 515d 7e3b e89d 5cbd
000003c0: bb29 afbc 8ec9 d0bd 9100 d6bd 8fab 203e
000003d0: b06a b5bc 5b6a 973d 1b28 1a3e 294a ad3d
000003e0: ab38 893c 433e 903c 1cc9 9c3d cf6c 473e
000003f0: 05ac 043e 6518 08bc 53e9 d33d 87e2 05be
0.08277574 -0.14390406 0.08302717 0.057811618 0.13142824 -0.05290032 0.0939284 -0.04716194
-0.14836173 0.0848461 -0.08019902 0.2075225 0.20558114 0.08277105 0.05087853 -0.0059852083
-0.13854742 -0.09744216 -0.10469427 0.14814827 0.012531066 -0.11543485 0.1858388 -0.1474248
0.039344028 0.0019469343 0.035990313 0.13280915 0.089644626 -0.059924364 -0.21627052 -0.17168018
-0.05612496 0.050610296 -0.16968353 0.24543698 0.11505232 -0.047957677 0.030757498 0.0228382
-0.11739917 -0.025816271 0.116768084 0.15463798 -0.23829249 0.105544426 0.1789469 0.05145494
0.15464039 0.035705745 0.19664648 0.08220624 0.062106006 0.13078834 0.03619083 0.15204622
-0.07896477 -0.06585969 0.0071624117 0.036942426 -0.006896477 0.07397457 0.0056201876 -0.09469588
0.0117962975 0.08136761 0.029102737 0.025087485 0.019235983 -0.15825583 0.022712052 -0.04976922
-0.061902616 -0.19146125 -0.010744699 -0.013837225 -0.03579967 -0.21406382 -0.09641619 0.1476977
0.18028466 0.05829343 -0.10720302 0.03959646 0.14005642 0.15261464 0.106354326 0.015665766
0.06839112 0.0227023 -0.24706021 -0.009868738 -0.0025551072 -0.07165132 -0.110058375 -0.051820133
0.026053691 0.08199082 -0.009170375 0.08413464 -0.056498695 0.1511109 -0.053369913 -0.116036385
-0.0770975 -0.038238518 -0.121126935 0.04735598 0.20232333 0.10334817 0.27734995 -0.007426069
0.037400186 -0.0877698 0.043615144 -0.06427865 0.12989011 -0.06719462 0.03637131 0.0958636
0.1621826 0.033856746 0.028092679 0.022890411 0.20381671 0.04515668 0.117005125 -0.19028616
-0.06995112 -0.07414007 0.30903253 -0.0771572 -0.011228963 -0.061856203 -0.030523516 -0.12333514
0.1348053 -0.08570007 -0.011367875 -0.05981099 0.1253938 -0.016986022 -0.106795125 0.107764915
0.056203853 0.040716738 0.04909536 0.1025162 -0.13426772 0.02833212 0.007062308 -0.12871167
0.046422753 -0.03624383 -0.14493938 -0.000991374 0.1279021 0.0006635573 -0.12634544 0.019299293
0.06955053 0.0491573 0.035074085 -0.031682942 -0.30127874 -0.03548449 0.16738625 0.023754504
-0.16732968 0.035925932 -0.21524999 -0.06278475 -0.16422725 0.032995574 0.004437432 -0.104861416
-0.118759304 -0.027675832 0.19214454 -0.074810416 -0.01474258 -0.09834554 -0.03975409 0.1218337
0.089348175 0.15504403 0.22899501 -0.008607247 -0.034712095 0.09833161 -0.008208523 0.15225211
-0.19308329 0.13487291 0.13566549 -0.09453412 0.0153206745 0.07547936 0.116365 0.034217637
-0.1783215 0.07581069 -0.18760699 -0.1234891 0.015308873 0.075545765 0.096861005 0.021977056
0.13383433 0.103722036 0.15037389 0.01811645 -0.08745066 -0.1185847 0.041848883 -0.06616224
-0.023450857 -0.03568454 -0.12022608 0.0076861633 -0.026844358 -0.025524598 0.020542575 0.011535349
0.016914532 -0.08934059 0.01612793 -0.031572156 0.065944254 -0.052637346 -0.057821315 0.15061964
0.1611032 0.05112774 -0.007586766 -0.030985473 -0.078521065 -0.123559505 0.0038812945 -0.05386153
-0.021382203 -0.101946935 -0.10449327 0.15690444 -0.0221456 0.073933326 0.15054362 0.084614106
0.016750654 0.017607814 0.07655546 0.19475101 0.12956245 -0.008306597 0.103472374 -0.13074695

layers.1.bias f4 [100]
00000000: b3b1 adbc 7969 b9bc 8edd 83bc aade ebbc
00000010: f858 0bbc c897 393c 9f45 86bb 372a a63c
00000020: 352e 04bd ccc9 5dbb bc3c 203d ce3e 113d
00000030: 6646 9a3c 5194 bdbc a986 733c 61ef 20bd
00000040: f705 3d3d 957a e1bb 3e0c 56bc a26c 48bd
00000050: eacf 363d 04fc 043d 5df9 2f3c e894 543d
00000060: cb81 a13c 940d 57ba 0d10 b7b8 2619 f6bc
00000070: 6df2 96bc 28e9 1b3d 203a a9bc 8949 dc3c
00000080: 47cc b93c 6010 42bd ed52 a5bc b926 923c
00000090: dc7c 21bd 1b28 21bc 115c c63b 8a2e b43c
000000a0: bad2 363c caa1 88bc d718 233d 66bc c1bc
000000b0: b213 ef3c b54c b3bc ea14 bebc 5a89 0e3e
000000c0: d5af d5bc 73bd ab3c 23e4 f3ba 6858 3f3b
000000d0: e266 a3bc 7cae 21ba 1d48 31bd 898a 143c
000000e0: 7c5c 983d 4983 5d3b 37b3 1abd 7f72 ca3c
000000f0: d10d 63bc 4033 3e3d 5770 79bc 7601 82bc
00000100: 4e69 d33b f0d5 743c d870 f5bc eb63 103d
00000110: cf92 b13d f12b 143d d6bd b0bc cbd6 553c
00000120: 40c0 a8bc d11d edbc d95b 383d c779 21bd
00000130: 1db4 a1bc 1445 99bc ce03 913c a7c2 7d3c
00000140: 9718 233d d412 75bd db41 d63c 1b09 0cbd
00000150: 712d eebc 9e43 823c 7a8a 233c ac73 d5bb
00000160: 7231 c6bc 06c3 183d 31d0 febc dbcf 62bc
00000170: e07d a53c 9887 dd3c 3d4e d9bb 9191 2b3d
00000180: ae31 a6bc e98a 973c 305d 183d 1825 daba
-0.021202898 -0.022633301 -0.016096856 -0.028792698 -0.0085050985 0.011327691 -0.004097655 0.020283801
-0.03227063 -0.0033842204 0.03912042 0.035460286 0.018832397 -0.023142012 0.014863648 -0.03929079
0.046148267 -0.006881068 -0.013064442 -0.048931725 0.044631876 0.032466903 0.010740605 0.05189982
0.01971521 -0.00082036224 -8.72911e-05 -0.030041289 -0.018426144 0.038064152 -0.020657599 0.026890533
0.022680415 -0.047378898 -0.020181144 0.01784073 -0.039425716 -0.009836222 0.0060534556 0.021994848
0.01115864 -0.01667871 0.03981861 -0.023649406 0.029184196 -0.021887163 -0.023203332 0.13919583
-0.02608482 0.02096436 -0.0018607419 0.0029196981 -0.01994652 -0.0006167663 -0.043281663 0.0090662325
0.07439515 0.0033800176 -0.03776857 0.0247128 -0.013858275 0.046435595 -0.015224538 -0.015869837
0.0064517623 0.014943585 -0.029961035 0.03525154 0.0867058 0.03617472 -0.021574896 0.013051699
-0.020599484 -0.028944882 0.045009468 -0.039422777 -0.019739205 -0.018709697 0.01770201 0.015488303
0.039818373 -0.05983241 0.02615445 -0.03418837 -0.029074403 0.015901383 0.009981746 -0.0065140333
-0.0241935 0.037295364 -0.031105133 -0.013843502 0.020201623 0.027042195 -0.006631641 0.04188687
-0.020287361 0.018498855 0.037198246 -0.0016643135

layers.2.weight f4 [100, 100]
00000000: c1f5 c63d da11 1cbc 4f87 a23b 7739 bf3d
00000010: e46f e93d c8a2 2d3d 3018 ae3c 1267 6ebd
00000020: 3dfa e0bd 79ae 813d 3471 5ebc 96c4 493d
00000030: 03e5 1abc fa18 47be 3755 35bd 6e3e 213e
00000040: bd91 20be f491 183e 7699 fb3a c654 02be
00000050: 7a88 1cbe 1542 86bc 13de 40be 4e77 cb3c
00000060: 3ed6 edbd a928 3e3e 69d1 af3d 777a 203d
00000070: 2711 0abd 2fc7 53bd 4348 5f3d 1a54 ff3b
00000080: 86c5 1d3e 73b0 853d bc1a 943c b767 9c3d
00000090: 80f9 17bd b55a 4e3e c288 983d b5da 92bd
000000a0: 8e9a 043d 4298 d3bc 40e7 24bd 95ee 82be
000000b0: c54b debc 4f49 97bc fd68 563e e702 423d
000000c0: add2 493d 93d3 153e dc2e a93e 6225 c63e
000000d0: fd62 d7bd 9b25 be3d 9fb3 c8bd 4115 b53d
000000e0: 7b1d 363d 3e99 acbd f6cd 6dbe 35e1 dbbd
000000f0: 0268 c8bc 1739 03be 2c7b fb3c 0763 383c
00000100: 768a f73d 3712 243d 4b85 213d aec6 3abc
00000110: 75e2 63be 2d8a 1d3e 3101 d93d d5bd 2cbd
00000120: 30b0 473c b8fd 47be 8141 563e 1480 fb3c
00000130: 4825 193c cbf6 18bd ad55 893c e14b 2b3d
00000140: 1292 3f3d c37a ac3d 0318 67bd 5b0a 0dbc
00000150: d4f2 d93d b466 eebb 41b5 f33c 9f69 3cbe
00000160: 760f 5abd 63ec c23d 516f f13c 1844 30bd
00000170: f093 703c 4d30 923d 211c 1d3d cc43 983d
00000180: a4ba fb3d 1acf dfbb 0303 fe3d 4bd6 a93b
00000190: 0509 3bbd 693a 983c dc78 523e e965 0a3d
000001a0: df46 aa3d d717 573e bf67 a53b f5a1 733d
000001b0: 8994 92bd fdb4 d33d d2ad 87bd 4ef5 acbd
000001c0: 93c4 8fbd db69 0abb 9c08 d3bc ca0a a5bd
000001d0: c33d 85bd f05d b5bd 4851 173e 8d4a b13d
000001e0: a43a 3dbc 3a3c 5c3e bcb3 9fbd 408d fcbd
000001f0: c1a1 bdbb 3194 5ebd 7057 993d 197a 0c3d
00000200: 0a70 773c 5e08 113d 3e0b eb3d 3f0e c2bd
00000210: cbad d53d 1750 47bb 25cb 273e ed70 afbd
00000220: 6510 bfbd 8ab3 94bd 5714 8d3d afd6 a0bd
00000230: 521c 143d 10bd ac3d 1c10 65bd fca6 b43c
00000240: f521 66bd d36c d8bd 9e2e a7bc bfc9 163e
00000250: f5b8 22bd 851e 87bd c104 a1bd 69de 243d
00000260: 6aa6 00be c735 97bd fa7c 83bd 76b3 cdbd
00000270: 96bf 9ebc 24df 233c c3cb 2dbe ffb8 e4bd
00000280: 5874 a03c 7ccc 16bd e910 7e3e 19a8 5c3d
00000290: b386 b4bd 2604 11bd 9a4d ea3d 9242 07be
000002a0: e60f 723d 09d1 c83d e5e0 50bd a2c2 ca3c
000002b0: 3cac 893a 35e8 0c3d 767b cbbd 364b c9bc
000002c0: 7917 5ebd ae7b 2dbe 4b90 563d 3ab6 1eba
000002d0: 3038 b73d c65b 6bbc ebcc d1bd f669 e8bc
000002e0: 2ddf 5fbd 7095 8f3d e1d3 d5bb cd7c 5e3d
000002f0: 02eb 2cbe 728f aebd 38e2 2ebe ade2 d73d
00000300: 633e 933d 2ed5 c53d 19c2 b9bd 968c 933d
00000310: 196b 003d 81d6 c33c e70a 1abd 8d7f 763d
00000320: b0b7 1dbe 0c50 743e 0ef6 c1bc 69ae 49bd
00000330: f6fd 0b3e 5235 04bb 62ec 40bd 421d 41bd
00000340: 0438 cd3d 0ebd 4dbd 0295 09be d85b d33c
00000350: f9e3 913d 859f 153e 11c6 483b 50dc 03be
00000360: 42cf c93d 03c9 0dbd be3e 19bb 18d0 37bd
00000370: 6966 3dbd 4a50 75bc 5290 98bd b2f4 e73d
00000380: fcdf 32be 4444 4d3e ba68 19bc 5d61 e83d
00000390: 8236 92bc c737 873e cd83 58bb 7c1f 69bd
000003a0: d17a 943b 9e78 663d 8293 b5bd 6e06 37bb
000003b0: b0ce aebd 12a7 95be a71d a6bd 9fed 663d
000003c0: a4b4 07bd 5cc5 1a3e a015 493d d432 2f3e
000003d0: 57ee ba3b c293 c43d dce8 8bbd 35a4 1a3d
000003e0: 5baf e43d 7ce2 973d 11a5 b4bd f89a b4bd
000003f0: e0f9 bbbd 4549 93bd 8269 063e 2721 383e
0.097148426 -0.0095257405 0.0049599777 0.093371324 0.113982946 0.04239157 0.021251768 -0.058203764
-0.10985229 0.06332106 -0.013576794 0.049259745 -0.009454015 -0.19443122 -0.04427072 0.15746471
-0.15680595 0.14899427 0.0019195515 -0.12727651 -0.15286437 -0.016388932 -0.18834715 0.024837162
-0.11613129 0.18570198 0.08584864 0.03917929 -0.033707764 -0.05170363 0.054512274 0.007792008
0.1540738 0.06527796 0.018079154 0.076369695 -0.037103176 0.2015179 0.074479595 -0.07170621
0.032373957 -0.025829438 -0.0402596 -0.2557265 -0.02713574 -0.018467573 0.20938487 0.04736605
0.04927318 0.1463149 0.33043563 0.38700396 -0.105169274 0.092845164 -0.09799885 0.088419445
0.04446171 -0.08427666 -0.23223099 -0.10736314 -0.024463657 -0.12814747 0.030698381 0.011254079
0.12086956 0.040056434 0.03943376 -0.011399908 -0.22254355 0.15384741 0.1059593 -0.042173225
0.0121880025 -0.1953038 0.20923425 0.03070072 0.009347267 -0.037344735 0.016764486 0.04182041
0.046770163 0.084218524 -0.056419384 -0.008608426 0.10642019 -0.0072754268 0.029749515 -0.18399666
-0.0532374 0.095177434 0.029472025 -0.04303369 0.014683709 0.07138119 0.038356904 0.07434806
0.12291458 -0.0068301084 0.12402918 0.0051830164 -0.0456629 0.01858254 0.20553917 0.033788595
0.08314299 0.21005188 0.005047768 0.059480626 -0.07157237 0.10337255 -0.066249505 -0.08445226
-0.070199154 -0.0021120224 -0.025760941 -0.080586985 -0.06505921 -0.08855808 0.147771 0.086567976
-0.011549626 0.2150735 -0.077979535 -0.12331629 -0.005787105 -0.054340545 0.074873805 0.03429613
0.015102396 0.03540837 0.11476754 -0.094753735 0.10433539 -0.0030412728 0.16386087 -0.08566461
-0.09329299 -0.07260807 0.06888645 -0.07853448 0.03615982 0.08434498 -0.055923566 0.02205228
-0.056184728 -0.105676316 -0.020407971 0.14725398 -0.03972717 -0.06597618 -0.07862235 0.04025117
-0.12563482 -0.07383304 -0.06420322 -0.10043995 -0.019378465 0.010001931 -0.1697226 -0.11168098
0.019586727 -0.036816105 0.24811138 0.053871248 -0.08814754 -0.035404347 0.114405826 -0.13208988
0.059097193 0.09805495 -0.050995726 0.024751011 0.00105036 0.034401137 -0.09935658 -0.024571996
-0.054221604 -0.16941711 0.052383702 -0.00060543756 0.08946264 -0.014365142 -0.10244163 -0.028370839
-0.054656196 0.07010925 -0.006525502 0.054318238 -0.16886523 -0.08523454 -0.17078483 0.10541282
0.07189634 0.096598014 -0.09070224 0.07204549 0.031352136 0.023905994 -0.037608054 0.060180236
-0.15402102 0.2385866 -0.023676898 -0.049238596 0.13671097 -0.0020173383 -0.047100432 -0.047147043
0.1002045 -0.050229125 -0.13435748 0.02580063 0.071235605 0.14611633 0.0030635635 -0.12877011
0.098539844 -0.034615528 -0.0023383345 -0.044876188 -0.046240244 -0.014972756 -0.07449402 0.11325969
-0.17468256 0.20045573 -0.009363348 0.113466956 -0.017848257 0.26409742 -0.0033037544 -0.05691479
0.0045312424 0.056267373 -0.088660255 -0.0027927416 -0.08535516 -0.29229027 -0.081111245 0.056378957
-0.033131257 0.15114349 0.04909289 0.17109233 0.005704682 0.09598495 -0.06831524 0.037754256
0.11166259 0.07416245 -0.088205464 -0.088186204 -0.09178519 -0.071917094 0.13126186 0.17981397

layers.2.bias f4 [100]
00000000: bab3 ae3b e9e4 8b38 65a3 2cbc a07a 4a3c
00000010: 08a6 373b e32b 383c 46f8 6bbc 172e 4ebb
00000020: cf27 803c de7d 2cbc fc12 a33c 6ff8 463c
00000030: 6677 adbb 5050 383c 0609 833c 27da 423d
00000040: ef69 ecbc f86e a7bc 0f8e 4f3b 4722 7c3c
00000050: 5863 84bd fbd5 2dbd c8a7 3bbc 2b03 fdbc
00000060: 2c02 0cbc 032a dd3c fe7b 613d cf0d 36bb
00000070: f405 1abc 8664 2d3c fa90 fb3b 6000 9a3b
00000080: 9c90 1abc c068 24bc 4191 04bc 507b 373c
00000090: ea9e bd3c 993b a4bb 5276 373c 6ec6 04bd
000000a0: 29c3 94bb 5542 e13c 57b7 67bb fea8 00bd
000000b0: 75fc 923c d18d 8f3c c090 793b f4c1 99bc
000000c0: 3716 983b 5706 fb3c b333 41bd 3132 4b3c
000000d0: 7e82 643c 0d47 5abc e1cc f5bb eef0 98bc
000000e0: 153b 36bc ffe9 e9bc b339 86bb d78a ba3c
000000f0: e729 1fbc 4234 63bc 57d5 953b ac17 8e3c
00000100: 26ac a43c ba70 75bc 6313 89bc 01a4 cfbb
00000110: 1407 333d 26e7 8e3b c7f9 533a c952 833d
00000120: 0761 11bd f10b c3bc a88d c2bb 8064 1ebd
00000130: df29 a7ba 5a71 cf3b 6c41 a4ba aa36 893c
00000140: 1b9f ca3c 690b 413c e908 8a3c 0077 193b
00000150: 65de 143c e214 87bc a350 8d3b 6c97 8b3c
00000160: 024a 863c 1511 f53b 09c3 2c3c 0f90 72bd
00000170: 8863 debc 06c7 9dbc 2196 1cba ad52 813b
00000180: 7c58 9cba 9dd4 b2bc 8423 0bbc d1b1 01bc
0.0053314837 6.670674e-05 -0.010537003 0.012358338 0.0028022546 0.011240932 -0.014402455 -0.0031460577
0.015643982 -0.010528056 0.019906513 0.012144192 -0.0052937744 0.011249617 0.015995514 0.047571328
-0.028859107 -0.020438656 0.0031670367 0.015389032 -0.06464261 -0.042440396 -0.011453576 -0.0308853
-0.00854544 0.026997572 0.05504989 -0.0027779227 -0.009400833 0.010583049 0.0076771947 0.0046997517
-0.009433892 -0.01003474 -0.008091272 0.011198834 0.023147065 -0.0050119874 0.011197643 -0.0324158
-0.0045398665 0.02749745 -0.0035357082 -0.031411164 0.017942647 0.017523678 0.0038080662 -0.018769242
0.00464132 0.030642672 -0.047168445 0.012402103 0.013947127 -0.013322604 -0.00750123 -0.018669572
-0.011122485 -0.02855396 -0.0040962338 0.022771282 -0.00971458 -0.01386744 0.004572551 0.017345272
0.020101618 -0.014980489 -0.016732877 -0.0063366895 0.043707922 0.004361051 0.0008086231 0.064122744
-0.035492923 -0.023809405 -0.005937297 -0.038670063 -0.0012753567 0.006330651 -0.0012531704 0.016749699
0.02473407 0.011782506 0.016849952 0.0023416877 0.009086226 -0.01648945 0.004312591 0.017039977
0.016392712 0.007478843 0.010544547 -0.059219416 -0.02714707 -0.01925994 -0.00059732987 0.0039466233
-0.0011928226 -0.021829898 -0.008492354 -0.00791593

layers.3.weight f4 [100, 100]
00000000: 0df6 713c b6fd 163e c70b 93bc 0972 08be
00000010: f118 443e a311 b83d 4f8c a9bd 75cf 8fbd
00000020: 4e1f a73d 9ece 813d b55a 18bd 0022 2fbe
00000030: 87da 8cbc f7a7 0d3d 4e72 1a3c 927c e03c
00000040: 36e7 963d a32d 62be 3afd 4bbd 22c9 8b3d
00000050: d3f8 c23d 8ac9 18bd a325 e03b dba9 e8bd
00000060: f3ff 93bd 5c15 263e 6ea8 e23d b325 553d
00000070: 8e47 893d 5e3c 933d 9943 f5bd 0fa7 0c3c
00000080: a651 b0bd d0b8 83bd 8562 f3bd 2cf6 1fbd
00000090: aa49 f83d 7c13 083e 8738 993d 6dcd e1bd
000000a0: 4e04 a6bd 6160 263e 3abe fdbd 2a71 ab3d
000000b0: 075c 5dbc 4194 0d3d 65b2 17bc 5fda ae3b
000000c0: d23b a13c 80be 95bd 3c5a 493e db8a 83bd
000000d0: 237f 6e3d 8402 debd 62ee d9bd e3ab 173d
000000e0: c79c 40be ab7e 28bd 4663 21be b2ad 5abd
000000f0: eb93 f1bc bd11 243e 56ec 37bd 7467 9f3d
00000100: 8c07 2d3e 3152 e9bc 68a5 12bd 8180 453d
00000110: e666 163d 3557 6cbd 23f7 553d ae55 723e
00000120: ad8b 0b3e d0fc 19bc c9f5 1abd cd93 f83d
00000130: b404 3ebc 2d87 d0bd e521 50bd a96d e63d
00000140: fb0b 74bd 1704 50be 8e9a a3bd 2394 8b3c
00000150: 656a 113e cfa2 4fbe 07a9 e73d e805 3bbe
00000160: 5895 873c 61fe f33c 27aa c73d c4e6 2d3d
00000170: 432b 8a3d a585 b53b 5041 123d f905 bcbd
00000180: c0c7 b2bd a4ea 7ebd fe1c f03d d96e e23c
00000190: ce80 113d a06d 223e c795 afbd e5ec ebbd
000001a0: d4d5 23bd ea2b 44bd 8a18 163a 1ff5 44bd
000001b0: e9db 7a3c b429 8bbd 3c42 83bd fcd7 70bd
000001c0: c9f9 5d3d 4ee8 fcbd 28ef eb3b 032d 7fbc
000001d0: c6e8 f0bc a2c2 db3c 7611 35be aa38 a93d
000001e0: 8c62 0abe 8ccf 333c 98b0 d6bd e086 fb3d
000001f0: 1ad9 6c3d af07 9f3d ade0 e93c e860 933d
00000200: 6f91 5abd 0e2e 943d 8569 63bd cd22 913c
00000210: 108e 71bd 9b5d 173d 94fe a1bc b590 30bd
00000220: 8a50 68be b501 b13c be2a 933c 7b9c edbd
00000230: 55cd ff3d 909d 983d cebe 973d 54b2 90bc
00000240: 5c9c 00be 3bcc 8dbd 0d06 8ebd 97f3 1e3e
00000250: 05bd 90bb 1861 8b3d 8068 92bd 3e80 183d
00000260: c321 f23c 7fc7 0cbe d5d6 31be 8a1b 033d
00000270: c166 013e fed3 43be 59e6 a23d 6643 40bd
00000280: 9e2a b9bc e711 83be 68cb 9c3c e0c3 a8bd
00000290: fd81 9fbe a203 00be 5a1c 25bd c269 e73c
000002a0: 047c 4dbd 18ab d33d df06 a23d 9b59 0c3c
000002b0: 92c2 82bc 8a73 1ebe 62f3 20bd 7cbb 2d3e
000002c0: 7d00 043d d6ec ad3b 717f d53d 4ece 22be
000002d0: 8235 94bd b6a9 093e 7a81 a3bd e4c2 163e
000002e0: c21b 0bbe ba30 d7bc 558a 0abe 7929 543e
000002f0: fb1b 63bd 4920 353e ba09 dabd eb26 783c
00000300: 5d62 283e 1929 893d ff91 b8bd 2742 e8bc
00000310: ded7 e1bd 6a6b 5abd 02c6 68be 2e56 a5bd
00000320: 869e f23d bdb0 32be 3043 a43b 1d89 81be
00000330: a7e6 5c3d b2ef 9abc 0003 923d ee62 11be
00000340: 96ba c23d 7a90 ca3d 659f c83c 635f cb3d
00000350: 915b 89bd 6677 043e 9cdd 383e 470e 063e
00000360: 4381 bb3d 6dd0 34be 899d c8bd d35d c63d
00000370: 6898 063e f3f8 233e f8ce c2bd ae24 b0bd
00000380: 4e68 e5bd 3074 00be 31be dcbd e130 2c3a
00000390: 0e8a 23be 95bf 1fbe 2003 ae3d 0ab1 e53d
000003a0: 4cb2 2ebc 323d b7bd 6cf4 b6bc bf10 24be
000003b0: 1110 e5bd 87d3 513d 598b 6bbe 00b0 953d
000003c0: b7c6 973d 2c76 f93b 160e acbd 714f 493e
000003d0: ca2e 983d 3f6a 8fbd 2298 0c3d a98d 08be
000003e0: bab9 0dbe 1250 1bbe ba62 34bd 6063 41bd
000003f0: 5f74 57bd 4064 f4bd b13c 62bd f965 f3bd
0.014768136 0.1474522 -0.017949952 -0.13324751 0.1915014 0.08987739 -0.08278715 -0.07021991
0.08160268 0.06338237 -0.03719588 -0.17102814 -0.017194046 0.034584012 0.009426666 0.02740315
0.07368319 -0.22087722 -0.049802043 0.068254724 0.09520116 -0.037301578 0.006840424 -0.11360522
-0.07226553 0.16219085 0.11067282 0.052037906 0.06703101 0.071892485 -0.11975784 0.008584752
-0.08609323 -0.064317346 -0.118840255 -0.039053127 0.12123425 0.13288683 0.07481485 -0.1102551
-0.0810629 0.16247703 -0.123897985 0.08371194 -0.013510711 0.034565214 -0.009258841 0.0053360905
0.019681845 -0.073117256 0.19663328 -0.06422969 0.058226716 -0.108403236 -0.10641171 0.03702916
-0.18809806 -0.041136425 -0.15760526 -0.053388305 -0.029489478 0.16022392 -0.044903122 0.07783404
0.1689741 -0.028481575 -0.035802275 0.048218254 0.036719225 -0.057700355 0.05223764 0.23665497
0.13627501 -0.009398654 -0.037832055 0.12137566 -0.011597801 -0.10182033 -0.050813574 0.11251385
-0.059581738 -0.2031406 -0.07988463 0.01703841 0.14200743 -0.2027695 0.11311536 -0.18263972
0.016550705 0.029784383 0.09749251 0.042456403 0.06746533 0.0055396133 0.035706818 -0.09180827
-0.087295055 -0.06223549 0.1172428 0.027640747 0.03552323 0.15862131 -0.0857349 -0.115197934
-0.039998844 -0.047893442 0.00057257025 -0.04808533 0.01531122 -0.067950636 -0.064091176 -0.05879973
0.05419329 -0.12348996 0.0072001405 -0.0155746965 -0.02940787 0.026826207 -0.17682442 0.08262761
-0.13514155 0.010974776 -0.10482901 0.12281585 0.05782423 0.077651374 0.028549517 0.07196218
-0.053361353 0.07235347 -0.055520553 0.01771679 -0.058973372 0.036954504 -0.019774713 -0.043106753
-0.22686973 0.02160726 0.017964717 -0.11602112 0.12490336 0.07451928 0.0740944 -0.017663158
-0.12559646 -0.069237195 -0.06934748 0.1552261 -0.004417064 0.068056285 -0.07148838 0.037231676
0.029557114 -0.13747977 -0.17367108 0.032008685 0.12636854 -0.19123837 0.079540916 -0.046939276
-0.02260333 -0.25599596 0.01913996 -0.08240485 -0.3115386 -0.12501386 -0.04031024 0.028248671
-0.0501671 0.10335368 0.07911467 0.0085662855 -0.015961919 -0.15473762 -0.039294608 0.16966051
0.03222703 0.005307774 0.10424698 -0.15899011 -0.07236768 0.13443646 -0.0798368 0.14722782
-0.13584808 -0.026268352 -0.13529332 0.20718946 -0.055446606 0.17688097 -0.106463864 0.0151459975
0.16443773 0.06697292 -0.090122215 -0.028351856 -0.110275015 -0.053325094 -0.22731784 -0.08073078
0.11846642 -0.17450233 0.005012892 -0.25299922 0.053930905 -0.018913124 0.071294785 -0.14197895
0.09508245 0.09890838 0.024490068 0.09930303 -0.06706918 0.12936172 0.18053287 0.13091384
0.09155514 -0.17657633 -0.097956724 0.09685864 0.13144076 0.16012935 -0.095121324 -0.08600746
-0.11201535 -0.12544322 -0.10778464 0.0006568563 -0.15970632 -0.15600426 0.0849669 0.11215408
-0.0106626265 -0.08947219 -0.022333346 -0.16022013 -0.11184705 0.05122712 -0.23002376 0.0730896
0.07410949 0.007612964 -0.08401124 0.1965921 0.07430799 -0.07002687 0.034324773 -0.13335289
-0.1384038 -0.15167263 -0.044039465 -0.047213912 -0.052601214 -0.11933184 -0.05523366 -0.11884684

layers.3.bias f4 [100]
00000000: ea01 f23b f1e0 0abc 66ba cdbc 1dfe 61bd
00000010: af8b 90bb d566 fa3b c156 83bc 8421 57bc
00000020: b4ba e93b 9416 03bb 3fbe 213d 270f d03a
00000030: 1e14 12bc 37a4 0cbd 7149 08bc 99fc 94bb
00000040: 111b 85bb 355e 07bd 6489 e2ba 5d5e 5a3b
00000050: c24d aabc 962e 323c 0e5e 87bc 5766 dbba
00000060: 7669 55bc 9124 753b 144f eabb 6991 a93b
00000070: ff4f 01bc 2d8c 05bc 11b5 453b 22e5 dcbc
00000080: 7e72 d0bc f29c 34bb 75cb cbbb ff8d 5dbd
00000090: e054 9e3b 55ed 6bbc c0bb 863c ed3d 803b
000000a0: 99b3 36bc ee40 1f3b aead 22bc e383 9abc
000000b0: 9e52 05bc b97a 2cbc 3e93 99ba 2704 943c
000000c0: da56 57bb 4f47 633c b243 f2bb 2b27 013c
000000d0: f2dc 0b3c 25d5 2c3c cd5c 423d 04a4 883c
000000e0: 0e12 47bb 00c2 6cbc 27a9 fcba 3a10 ae3b
000000f0: 8cd6 e3bb 8ed0 d5bb a7fc 11bc a81c 9ebb
00000100: 7957 bb3b 7aa9 0fbd f482 53bc be60 f63b
00000110: 0c9b 47bb 17e8 35bc 1ac7 093b b187 cf3b
00000120: ac81 003c 7439 023c 9a5a 233b ce0b ebb6
00000130: 9fd2 7b3d 7d40 9e3a d390 2ebb 44b9 c83b
00000140: 46fe 403b ad7f 643c 3da1 363c 4a5c 46bc
00000150: 0d33 643c ea1e b63c 79e3 e8bc 400e 2ebc
00000160: 70cb 8bbc 0346 7ebc 3fd7 37bb 9342 04bc
00000170: 910c 2bbc 2559 06bb 777e 723c 2811 c23c
00000180: 5f7b bf3b 19a7 2f3c 6454 42bc 341f 8ebc
0.007385482 -0.008476482 -0.025113296 -0.055173982 -0.004411183 0.007641653 -0.016032578 -0.013130549
0.0071328525 -0.0020002471 0.039488073 0.0015873656 -0.008915929 -0.034336295 -0.008318291 -0.0045467135
-0.0040620645 -0.033048827 -0.0017283377 0.0033320405 -0.020789031 0.010875365 -0.016524341 -0.0016738874
-0.013025632 0.0037405828 -0.00715054 0.005174805 -0.007892608 -0.008151096 0.0030167738 -0.026964728
-0.02544522 -0.0027559367 -0.0062193223 -0.054090496 0.004831895 -0.014399846 0.016446948 0.003913632
-0.011151218 0.0024300176 -0.009929104 -0.018861717 -0.008137373 -0.010527306 -0.0011716855 0.018068386
-0.0032858164 0.013871982 -0.007393324 0.0078828735 0.008536564 0.0105488645 0.047451783 0.016679771
-0.0030375752 -0.01445055 -0.0019276486 0.005311993 -0.006953066 -0.006525106 -0.008910335 -0.0048251934
0.0057172147 -0.035073735 -0.01290964 0.007518857 -0.0030457405 -0.011102698 0.0021023215 0.0063333143
0.007843416 0.007948268 0.002492583 -7.00492e-06 0.06148016 0.0012073662 -0.0026636615 0.006125601
0.0029448434 0.013946456 0.011146841 -0.012106964 0.013928187 0.022231538 -0.02842878 -0.010623515
-0.01706478 -0.015519622 -0.002805188 -0.008072513 -0.010440008 -0.0020499912 0.014800659 0.023689821
0.0058435644 0.0107209915 -0.011860941 -0.017348863
