main/continuous_time_inference (Schrodinger)/models_iters/Schrodinger_9600.pt (torch, 209038 bytes, 14 tensors)

linear_in.weight f4 [100, 2]
0.17575964 0.13748212 -0.04030346 -0.2627656 0.03429075 0.14025857 0.0113263475 0.25797993
0.13007516 0.0013573432 -0.094893545 0.2951258 0.0943821 -0.024060367 -0.30944458 -0.110033534
-0.062111434 0.19921295 -0.10820663 0.29105854 -0.13139448 0.15522783 -0.0491988 0.1727111
-0.16477033 -0.03008681 -0.006084936 -0.43270016 0.028916432 -0.045230076 0.1991499 0.24629934
0.22765958 -0.120093234 0.27188262 0.012111508 -0.08395192 -0.16347766 0.09767364 -0.107911125
-0.27207062 -0.19166946 -0.14835098 0.4338621 -0.06399372 -0.05946205 0.116000995 -0.019647032
0.09433214 -0.03502861 -0.20918933 -0.21173628 0.15980941 -0.15055652 0.07757711 -0.055219404
0.20909615 0.12155931 -0.29630235 0.06268648 0.12475681 0.2063196 0.047001626 -0.028139938
0.042146552 0.14036277 0.07215399 -0.05750941 0.29071358 -0.35878462 0.008066044 0.09966611
0.016828416 0.30917445 0.03364017 0.026595047 -0.05266748 -0.38650537 -0.085356355 0.17729305
0.22089201 -0.16335437 -0.15472575 0.108013704 -0.1216727 -0.19480053 -0.25821045 -0.03087531
-0.12781437 -0.14543886 -0.14351095 -0.17162839 0.03904896 -0.21379684 0.19986343 0.11084443
-0.14513308 -0.069575734 -0.095667504 -0.24342248 0.13499597 -0.07505582 0.00849939 0.097851776
-0.046807863 -0.28701136 0.15730265 -0.14600168 0.076220594 -0.3267725 0.017525958 -0.21677339
0.38882238 -0.3225221 -0.092035644 0.07700907 0.017760782 0.31024033 -0.2064226 0.15437938
0.064592846 0.058546986 -0.0387842 0.14983656 -0.15174225 -0.28183946 0.108528525 0.029766984
0.021528248 0.16000557 -0.16612312 -0.004450283 -0.110214524 0.23929276 0.06620362 0.056055095
0.17026234 0.021391334 0.013829702 0.36684114 0.24824104 -0.012195742 -0.048699796 0.054527618
-0.01791848 -0.36868334 -0.01118255 0.09150012 -0.2581602 -0.117724545 0.1107541 0.020750502
-0.12561676 -0.1091719 0.15129714 0.20620611 -0.044312965 0.22597328 -0.2812311 -0.262362
0.10133676 -0.11657631 0.07734345 0.14152497 -0.015227002 0.07461577 0.024033675 0.31051195
0.029368017 0.013168328 0.11431564 0.29513475 -0.13880531 0.2952212 0.21640609 -0.09764304
-0.11578417 0.14369693 0.07086465 -0.21468672 0.061280657 -0.080688655 -0.01771071 0.28650543
0.3011117 -0.08198396 -0.06730615 0.07615449 0.022432048 0.12648591 -0.08632802 0.27485758
0.13062283 0.008444626 -0.12189722 -0.014386213 -0.21949416 0.16910332 -0.024461556 0.11772449
00000000: 56fa 333e 1dc8 0c3e 3e15 25bd 3689 86be
00000010: 7574 0c3d f19f 0f3e 2592 393c f215 843e
00000020: 6c32 053e e1e8 b13a 8c57 c2bd bb1a 973e
00000030: 674b c13d 3f1a c5bc 856f 9ebe 4359 e1bd
00000040: 8f68 7ebd 7bfe 4b3e 709b ddbd a005 953e
00000050: 468c 06be 0bf4 1e3e ae84 49bd 2edb 303e
00000060: 8eb9 28be 9d78 f6bc 2564 c7bb e08a ddbe
00000070: 27e2 ec3c 2c43 39bd f4ed 4b3e e535 7c3e
00000080: 981f 693e 71f3 f5bd 3334 8b3e 596f 463c
00000090: fcee abbd b066 27be 1e09 c83d 8200 ddbd
000000a0: d74c 8bbe 0045 44be 52e9 17be 2c23 de3e
000000b0: 240f 83bd 7b8e 73bd ee91 ed3d d0f2 a0bc
000000c0: 3631 c13d 297a 0fbd ba35 56be 65d1 58be
000000d0: 14a5 233e 7d2b 1abe bfe0 9e3d be2d 62bd
000000e0: 4d1d 563e 16f4 f83d f1b4 97be c561 803d
000000f0: 8080 ff3d 7245 533e c784 403d ba85 e6bc
00000100: dda1 2c3d 42bb 0f3e 79c5 933d fd8e 6bbd
00000110: 69d8 943e 9eb2 b7be 7127 043c bf1d cc3d
00000120: bfdb 893c 1d4c 9e3e 46ca 093d dbdd d93c
00000130: dbb9 57bd 08e4 c5be 50cf aebd 4f8c 353e
00000140: 8431 623e 5e46 27be 6d70 1ebe 4a36 dd3d
00000150: 892f f9bd ca79 47be 2934 84be 38ee fcbc
00000160: c5e1 02be eded 14be 89f4 12be 5abf 2fbe
00000170: cdf1 1f3d 8fed 5abe 00a9 4c3e 6802 e33d
00000180: c49d 14be b97d 8ebd 53ed c3bd be43 79be
00000190: 623c 0a3e deb6 99bd 0741 0b3c 8366 c83d
000001a0: 9ab9 3fbd 27f3 92be f213 213e 7781 15be
000001b0: 8b19 9c3d ba4e a7be 9992 8f3c d8f9 5dbe
000001c0: ba13 c73e 9e21 a5be 2f7d bcbd eeb6 9d3d
000001d0: 0f7f 913c d2d7 9e3e 7260 53be a115 1e3e
000001e0: 4149 843d f7ce 6f3d 2edc 1ebd c16e 193e
000001f0: 5262 1bbe 434d 90be 3444 de3d e4d9 f33c
00000200: 025c b03c 80d8 233e 2e1c 2abe aed3 91bb
00000210: 27b8 e1bd 2909 753e c395 873d 079a 653d
00000220: 4059 2e3e e13c af3c f995 623c 9ad2 bb3e
00000230: e632 7e3e a6d0 47bc 7079 47bd 5a58 5f3d
00000240: c7c9 92bc 10c4 bcbe 0437 37bc 6a64 bb3d
00000250: 932d 84be 9119 f1bd 0cd3 e23d f5fc a93c
00000260: aea1 00be 8495 dfbd a3ed 1a3e b227 533e
00000270: 8381 35bd 8a65 673e 86fd 8fbe 5054 86be
00000280: a689 cf3d 8fbf eebd 3e66 9e3d eceb 103e
00000290: ad7a 79bc 27d0 983d 45e2 c43c 6cfb 9e3e
000002a0: 3295 f03c f9bf 573c 511e ea3d e71b 973e
000002b0: fb22 0ebe 3c27 973e 8f99 5d3e 13f9 c7bd
000002c0: 4020 edbd 4a25 133e 7c21 913d d6d6 5bbe
000002d0: 6d01 7b3d 1840 a5bd 0d16 91bc d7b0 923e
000002e0: 502b 9a3e 35e7 a7bd cfd7 89bd e3f6 9b3d
000002f0: 6ac3 b73c 8685 013e bfcc b0bd 22ba 8c3e
00000300: fec1 053e 545b 0a3c 40a5 f9bd 27b4 6bbc
00000310: 14c3 60be 6c29 2d3e 9a63 c8bc 8a19 f13d

linear_in.bias f4 [100]
0.05588822 0.051455464 -0.13064685 0.06787052 0.029647034 -0.19510998 0.12581071 0.014040032
0.020076947 -0.15171258 -0.022841962 0.038640633 0.07439322 -0.031929523 0.08472161 -0.004657894
0.115252934 -0.016369656 0.05761979 -0.04590201 -0.05744004 -0.010706979 0.1353934 0.08991263
0.032842595 -0.06779137 0.10577496 -0.033461664 -0.0064557176 -0.027276972 0.0919063 0.014444774
-0.121460944 0.10760034 -0.043888982 -0.23100786 -0.09317502 -0.15297306 -0.004346201 0.056789324
-0.005971694 0.026966883 -0.0680678 0.0918423 -0.034482043 -0.058157995 0.11210408 -0.06441594
0.08863426 0.13824473 -0.043285087 -0.060963504 0.0200015 0.0715774 0.045065034 0.09183819
-0.046546064 0.05472498 -0.31579173 -0.14567102 -0.024128513 0.13662302 0.039204646 0.045110073
-0.11049285 -0.022522118 -0.11684237 -0.105677575 -0.053460345 0.024426812 0.07135408 0.07015171
0.10849894 -0.09437199 0.1803273 0.07250943 0.08488912 -0.07769051 0.029786631 0.04474716
0.083298154 -0.048436593 0.0254384 0.07416467 0.09510766 0.0024725308 -0.0675829 -0.09884259
0.0652614 0.077638425 0.09362542 -0.10005312 0.08115984 0.017959274 0.13402769 -0.011089961
0.028253127 -0.061890207 -0.08534844 -0.075059555
00000000: 0ceb 643d f7c2 523d 4ac8 05be b3ff 8a3d
00000010: 56de f23c e9ca 47be 86d4 003e 2a08 663c
00000020: 6978 a43c 8b5a 1bbe 111f bbbc a445 1e3d
00000030: 795b 983d 88c8 02bd 8682 ad3d 3fa1 98bb
00000040: bb09 ec3d a819 86bc bb02 6c3d bf03 3cbd
00000050: 3f46 6bbd 536c 2fbc 91a4 0a3e 1d24 b83d
00000060: f585 063d 34d6 8abd 8ba0 d83d 190f 09bd
00000070: 7c8a d3bb f573 dfbc 5f39 bc3d c6a9 6c3c
00000080: 84c0 f8bd 915d dc3d efc4 33bd 538d 6cbe
00000090: 8bd2 bebd f8a4 1cbe 946a 8ebb ec9b 683d
000000a0: 33ae c3bb a7e9 dc3c 2167 8bbd d117 bc3d
000000b0: 0b3d 0dbd 1437 6ebd d396 e53d 81ec 83bd
000000c0: e185 b53d 0790 0d3e b44b 31bd deb4 79bd
000000d0: 30da a33c 2c97 923d 1d96 383d a915 bc3d
000000e0: 16a7 3ebd 4d27 603d 74af a1be c92a 15be
000000f0: 29a9 c5bc e8e6 0b3e 0d95 203d 57c5 383d
00000100: 134a e2bd 4e80 b8bc 0d4b efbd 7c6d d8bd
00000110: 3cf9 5abd bd1a c83c 1722 923d b3ab 8f3d
00000120: b134 de3d 1a46 c1bd b8a7 383e d37f 943d
00000130: 59da ad3d 341c 9fbd 1803 f43c cc48 373d
00000140: 3998 aa3d 7365 46bd 3164 d03c a6e3 973d
00000150: cec7 c23d 2f0a 223b e768 8abd fc6d cabd
00000160: c5a7 853d e500 9f3d afbe bf3d a6e8 ccbd
00000170: 2137 a63d 541f 933c 8e3e 093e abb2 35bc
00000180: 1a73 e73c 9680 7dbd 2acb aebd d3b8 99bd

linear_out.weight f4 [2, 100]
0.15996778 0.29748902 0.33638382 0.10596544 -0.019901335 0.11753283 -0.06043857 -0.22375949
-0.191852 0.19529033 0.39991736 -0.053851504 0.12905307 0.28136218 -0.06822679 0.014876137
0.08367925 0.058662143 -0.12539387 -0.054570463 -0.03321237 0.06728044 -0.1286974 -0.038467437
-0.047728844 0.022797212 -0.03303731 -0.05447543 0.06790142 0.1189009 0.10504546 0.021830222
0.030245084 0.11292063 -0.11892604 0.096704766 -0.046375543 -0.09462291 -0.08772903 -0.11296011
0.16608621 -0.09970515 -0.18277054 -0.15606527 -0.032733813 -0.036668904 -0.09331824 0.15092042
-0.11025646 -0.013013364 -0.2518434 -0.015117713 0.153232 -0.31904596 -0.030954154 -0.07238453
0.11404908 -0.12337363 -0.17233048 0.22711958 -0.07053998 0.00073696324 -0.0340155 0.04122655
0.038861394 -0.09277812 -0.07558541 0.08448481 0.0975622 0.1388676 -0.0356992 0.038953703
0.05314209 -0.08577182 -0.029423358 0.2380606 -0.115977675 -0.20602322 0.0853079 0.008106206
0.106641896 -0.16507077 0.0020581218 0.36527917 0.31269023 -0.069022834 -0.22272846 0.08598964
-0.06576252 -0.3015262 -0.052433196 -0.17738836 0.14264967 -0.18560886 -0.13870533 -0.07324026
-0.14509903 0.12976298 -0.043792553 -0.15237992 0.21220759 -0.04923515 0.1377931 -0.03822637
-0.0104796095 -0.016922828 -0.29561388 -0.13056983 -0.0033852078 0.13339785 -0.21990885 0.11497869
0.24523218 -0.20176774 0.06045065 -0.007665848 0.27692792 -0.001530346 -0.037809994 -0.023494026
0.10406065 -0.055745024 0.101524636 0.021143043 -0.04678678 0.00049868406 -0.1471377 0.11914547
-0.19499108 0.07152056 0.18056144 -0.11485712 -0.059159778 -0.1725889 -0.025297083 0.1047758
0.114322595 0.34367964 0.04740488 -0.04530685 0.21444188 -0.10475369 0.0047457106 -0.07439449
-0.15500392 0.015678605 -0.009543641 0.078378215 0.16439408 -0.028909896 0.3230957 -0.17902565
-0.004709236 0.1786026 -0.058203477 0.14244843 -0.04356298 -0.13566855 0.10812268 -0.19533552
0.09449217 0.00044535226 -0.016045216 -0.05388623 -0.17701037 -0.0010293765 0.13530359 -0.06909242
-0.075339936 -0.02726906 -0.0224103 0.020291403 -0.024019228 0.07660412 -0.35693038 -0.24167559
0.07946232 -0.22576806 -0.18886091 -0.24056925 -0.07162473 0.04339249 6.735676e-05 -0.08147557
-0.2588862 0.16387157 -0.2188749 -0.22235385 0.12012985 -0.042897437 -0.032707237 0.10438771
0.14262041 -0.356953 -0.06379246 -0.09304123 -0.025596976 0.17384844 -0.32213336 -0.17401782
00000000: 98ce 233e 7b50 983e 803a ac3e 6904 d93d
00000010: 2008 a3bc 0db5 f03d 6f8e 77bd 3521 65be
00000020: da74 44be 30fa 473e f8c1 cc3e 6593 5cbd
00000030: 7d26 043e b40e 903e 7dba 8bbd 0abb 733c
00000040: 0760 ab3d b747 703d 4067 00be 4785 5fbd
00000050: b209 08bd 54ca 893d 40c9 03be 0890 1dbd
00000060: 527f 43bd 38c1 ba3c 2152 07bd a121 5fbd
00000070: e60f 8b3d 5182 f33d 1322 d73d 4bd5 b23c
00000080: 8ac4 f73c ee42 e73d 7f8f f3bd 260d c63d
00000090: 48f4 3dbd a8c9 c1bd 47ab b3bd a157 e7bd
000000a0: 8112 2a3e 3732 ccbd 3328 3bbe 93cf 1fbe
000000b0: e413 06bd 2232 16bd a21d bfbd e28a 1a3e
000000c0: 24ce e1bd 0136 55bc 9ef1 80be 49b0 77bc
000000d0: d9e8 1c3e fe59 a3be 9193 fdbc 573e 94bd
000000e0: 9092 e93d 50ab fcbd 6777 30be 0992 683e
000000f0: 4477 90bd c430 413a d653 0bbd 2cdd 283d
00000100: 202d 1f3d 7402 bebd 86cc 9abd 5f06 ad3d
00000110: b1ce c73d 4f33 0e3e 5339 12bd eb8d 1f3d
00000120: 85ab 593d 23a9 afbd 4109 f1bc 28c6 733e
00000130: b485 edbd c0f7 52be e9b5 ae3d e4cf 043c
00000140: 1167 da3d 5008 29be 8ee1 063b df05 bb3e
00000150: ef18 a03e d85b 8dbd ee12 64be 561b b03d
00000160: 80ae 86bd a461 9abe 31c4 56bd 4ba5 35be
00000170: c112 123e 4010 3ebe c508 0ebe fdfe 95bd
00000180: d794 14be 96e0 043e d25f 33bd 7b09 1cbe
00000190: f24c 593e ccaa 49bd a219 0d3e 4193 1cbd
000001a0: abb2 2bbc bea1 8abc b45a 97be 19b4 05be
000001b0: 5dda 5dbb 7299 083e c92f 61be f379 eb3d
000001c0: 251e 7b3e 349c 4ebe 1a9b 773d cb31 fbbb
000001d0: 7fc9 8d3e e495 c8ba a7de 1abd 8b76 c0bc
000001e0: c01d d53d e554 64bd 26ec cf3d 2d34 ad3c
000001f0: 7fa3 3fbd 1fba 023a 44ab 16be 8a02 f43d
00000200: beab 47be 5f79 923d 19e5 383e 363a ebbd
00000210: 8651 72bd 25bb 30be d43b cfbc b294 d63d
00000220: f721 ea3d c7f6 af3e 9f2b 423d ad93 39bd
00000230: a796 5b3e 1a89 d6bd e881 9b3b 235c 98bd
00000240: 59b9 1ebe 6b70 803c ee5c 1cbc c284 a03d
00000250: ec56 283e 72d4 ecbc cd6c a53e 8052 37be
00000260: ef4f 9abb 9ae3 363e c566 6ebd 00de 113e
00000270: 186f 32bd b2ec 0abe 6c6f dd3d 0906 48be
00000280: 1c85 c13d 2b7e e939 4271 83bc cfb7 5cbd
00000290: 3542 35be 25ec 86ba 068d 0a3e 5480 8dbd
000002a0: d34b 9abd 5d63 dfbc ce95 b7bc 283a a63c
000002b0: f9c3 c4bc 9fe2 9c3d 94bf b6be ce79 77be
000002c0: 24bd a23d be2f 67be c164 41be c957 76be
000002d0: fdaf 92bd 53bc 313d e341 8d38 aadc a6bd
000002e0: bb8c 84be f3cd 273e be20 60be bab0 63be
000002f0: a406 f63d 39b5 2fbd 06f8 05bd 39c9 d53d
00000300: 160b 123e 8bc2 b6be 9fa5 82bd 678c bebd
00000310: c0b0 d1bc 5305 323e aaee a4be ba31 32be

linear_out.bias f4 [2]
0.023749985 0.0049587693
00000000: 548f c23c 2c7d a23b

layers.0.weight f4 [100, 100]
-0.028795114 -0.07677766 0.05015018 0.024146149 0.08371187 0.06061097 0.19262289 -0.11311176
0.085433304 -0.10891669 -0.11331031 -0.17815953 0.09203039 -0.075529784 0.22303922 0.19105248
0.16444962 0.04729713 0.14068142 0.15481453 -0.23984954 -0.10338636 0.08165552 0.019587198
0.103443824 -0.09708297 -0.026390765 0.052726973 -0.10791986 0.042905346 -0.19720504 -0.07624398
-0.21019049 0.15857229 0.2715164 -0.09402387 0.049918234 -0.11201701 0.143407 0.019391747
0.050307997 0.16819753 0.010517787 -0.032231126 0.16637275 0.050242037 -0.1770388 0.028719667
0.0140396925 0.14023796 -0.006291578 0.0759349 -0.07792917 0.11639057 0.09746124 -0.11373079
0.19822428 -0.15827303 -0.20636415 -0.114705846 0.011812332 -0.07868535 0.062362574 0.117333755
0.036027603 -0.11241658 -0.049063418 -0.23968014 -0.0065687504 -0.163333 0.1586271 -0.078598015
0.098151475 -0.05783645 -0.08270996 0.033415314 0.09666567 -0.030296285 0.044180706 -0.16979955
-0.062231448 0.028809823 -0.022131557 0.039987914 -0.08871407 -0.05893977 -0.060727205 -0.053352635
0.026468024 0.023647232 0.24673814 -0.06428951 -0.069317564 -0.047504384 0.017367126 -0.1387178
0.10754711 -0.14569174 -0.16022779 -0.02575971 -0.06641143 0.12609345 -0.07567128 0.029011605
0.087918475 -0.0016426934 0.15384988 0.090304226 -0.03133912 0.050331444 0.03247284 0.084425114
0.30445144 -0.03832179 -0.16189912 0.047798913 -0.19773048 -0.15624873 0.11690285 -0.03498758
0.25677735 0.17121053 0.119357914 -0.13500229 0.11336362 0.07081306 -0.067870714 -0.23289311
-0.019067707 0.19777215 -0.09176077 -0.0737972 -0.16346587 -0.17419277 -0.14112692 -0.011767291
-0.036140326 0.008961449 0.15464194 -0.034421917 -0.013119012 0.1574739 0.02740712 0.10263727
-0.08070841 0.13450983 -0.16621691 -0.064795 0.15846871 -0.085823245 -0.055059977 -0.010398366
-0.055367284 -0.1176782 0.03688973 -0.08423246 -0.14990136 0.22700259 -0.1584278 -0.018130053
-0.1495045 0.0890407 0.09562293 -0.24203141 0.022052463 -0.13024299 0.033521373 -0.10681115
-0.018558256 0.002941446 -0.16263057 0.1903817 0.1599112 0.12967016 0.1213097 -0.062876016
0.09906974 -0.023868345 0.16820168 -0.052038744 -0.26697025 0.053844623 0.119827695 -0.053741556
-0.2209585 -0.097955935 0.0077784685 -0.11441787 0.052818794 -0.10764056 0.01991102 0.034539323
-0.0154042775 0.0040647495 -0.23061503 -0.13724926 -0.2827541 0.22354949 0.10223358 0.17311913
-0.11951082 -0.0387218 0.09378884 0.0006107237 -0.05177833 0.08524363 -0.15590535 -0.06945895
-0.07472868 0.14654572 -0.07720766 0.038113754 0.00028644103 0.033408202 -0.0394503 0.040904585
-0.113321014 -0.0064327545 0.047446493 -0.037304685 -0.03566892 -0.0263292 -0.07685563 -0.025093734
0.076593995 -0.07929282 -0.15027729 -0.041870996 0.03401448 0.054180898 0.07195625 0.073235184
0.22760336 0.01999264 -0.002699993 0.23407537 0.08079931 0.06451058 0.14036213 -0.0033726762
0.11420004 0.028471984 -0.25687477 0.109265104 0.041744325 -0.11097438 -0.050358128 0.0934048
-0.07560105 0.042209502 -0.10829172 -0.1227315 0.09008724 -0.04661368 -0.05749007 -0.020383162
00000000: bbe3 ebbc 9b3d 9dbd 466a 4d3d 25ce c53c
00000010: 2171 ab3d 3543 783d ef3e 453e 23a7 e7bd
00000020: a8f7 ae3d b70f dfbd 3c0f e8bd 746f 36be
00000030: 6e7a bc3d 5caf 9abd 6564 643e 43a3 433e
00000040: 7b65 283e a3ba 413d ca0e 103e b387 1e3e
00000050: 1e9b 75be 3abc d3bd 023b a73d 5575 a03c
00000060: 5bda d33d 70d3 c6bd 7231 d8bc 3df8 573d
00000070: 1605 ddbd 84bd 2f3d 1ef0 49be ce25 9cbd
00000080: 2d3c 57be c660 223e 3304 8b3e 968f c0bd
00000090: 1077 4c3d 2d69 e5bd 49d9 123e 71db 9e3c
000000a0: c20f 4e3d f93b 2c3e cc52 2c3c c904 04bd
000000b0: 9e5d 2a3e 98ca 4d3d a949 35be 8245 eb3c
000000c0: bd06 663c 8a9a 0f3e 9529 cebb c283 9b3d
000000d0: 5499 9fbd 2e5e ee3d c299 c73d b0eb e8bd
000000e0: 4efb 4a3e 5312 22be 2051 53be e6ea eabd
000000f0: 8388 413c c925 a1bd e66f 7f3d ae4c f03d
00000100: ae91 133d aa3a e6bd b9f6 48bd b66e 75be
00000110: ac3e d7bb c440 27be 246f 223e fff7 a0bd
00000120: a403 c93d eae5 6cbd d763 a9bd 7fde 083d
00000130: a7f8 c53d ea2f f8bc d4f6 343d efdf 2dbe
00000140: 67e6 7ebd 9402 ec3c 3d4d b5bc 5eca 233d
00000150: b9af b5bd d46a 71bd 17bd 78bd 4b88 5abd
00000160: 78d3 d83c d7b7 c13c eca8 7c3e 38aa 83bd
00000170: 5ef6 8dbd f593 42bd 8145 8e3c 0a0c 0ebe
00000180: a941 dc3d 3730 15be c112 24be 0706 d3bc
00000190: b702 88bd a41e 013e 8bf9 9abd bfa9 ed3c
000001a0: 9a0e b43d a54f d7ba d38a 1d3e 6cf1 b83d
000001b0: 735d 00bd 5828 4e3d 3e02 053d 13e7 ac3d
000001c0: 0fe1 9b3e 4ff7 1cbd e2c8 25be cbc8 433d
000001d0: dc79 4abe abff 1fbe c36a ef3d 234f 0fbd
000001e0: 5278 833e d051 2f3e ec71 f43d 0a3e 0abe
000001f0: 302b e83d 7006 913d cdff 8abd 887b 6ebe
00000200: e133 9cbc c884 4a3e 12ed bbbd fd22 97bd
00000210: 9963 27be 975f 32be 9383 10be 99cb 40bc
00000220: e107 14bd 0bd3 123c 755a 1e3e fffd 0cbd
00000230: 20f1 56bc d740 213e e684 e03c 7d33 d23d
00000240: 734a a5bd f2bc 093e c434 2abe 3eb3 84bd
00000250: 9f45 223e 19c4 afbd 9286 61bd e85d 2abc
00000260: cec8 62bd 4501 f1bd af19 173d 1182 acbd
00000270: be7f 19be 5e73 683e e63a 22be 7a85 94bc
00000280: b517 19be f85a b63d f4d5 c33d 15d7 77be
00000290: 5ea7 b43c 6b5e 05be b54d 093d cebf dabd
000002a0: 7c07 98bc 46c5 403b a188 26be 6cf3 423e
000002b0: c3bf 233e 41c8 043e 3871 f83d 24c5 80bd
000002c0: 13e5 ca3d 8c87 c3bc 103d 2c3e 9426 55bd
000002d0: 53b0 88be 2e8c 5c3d 3968 f53d 1b20 5cbd
000002e0: f242 62be 1f9d c8bd 86e2 fe3b eb53 eabd
000002f0: 8558 583d a772 dcbd 6f1c a33c 1b79 0d3d
00000300: 3962 7cbc 9731 853b 5926 6cbe 128b 0cbe
00000310: 25c5 90be 28ea 643e d75f d13d 2446 313e
00000320: 17c2 f4bd c09a 1ebd 5d14 c03d f918 203a
00000330: 8415 54bd 3694 ae3d a7a5 1fbe 7e40 8ebd
00000340: 5a0b 99bd 1510 163e 0d1f 9ebd 2b1d 1c3d
00000350: 772d 9639 0ad7 083d a396 21bd 918b 273d
00000360: d914 e8bd dbc9 d2bb 4157 423d cccc 18bd
00000370: 9319 12bd 56b0 d7bc 7c66 9dbd 6091 cdbc
00000380: 50dd 9c3d 4664 a2bd 4ae2 19be ec80 2bbd
00000390: c452 0b3d caec 5d3d cc5d 933d 54fc 953d
000003a0: db10 693e 9bc7 a33c 5ef2 30bb 74b1 6f3e
000003b0: 1c7a a53d 1f1e 843d 17bb 0f3e 1e08 5dbb
000003c0: b6e1 e93d 143e e93c 1785 83be 62c6 df3d
000003d0: 19fc 2a3d 8946 e3bd 5344 4ebd 044b bf3d
000003e0: b9d4 9abd dfe3 2c3d 0dc8 ddbd a75a fbbd
000003f0: a97f b83d fced 3ebd b57a 6bbd 97fa a6bc

layers.0.bias f4 [100]
0.11227742 0.022331726 -0.06742482 -0.2457801 -0.08813874 0.09775613 -0.09635029 -0.03975863
0.022699283 0.1334574 -0.07841456 0.02042089 0.047535732 0.11608813 -0.11839165 -0.07742494
0.02784688 -0.0012572041 -0.064162195 0.045958444 -0.09415113 -0.043975104 0.05170827 -0.11757322
-0.009323375 0.06837359 -0.14883071 -0.01600549 -0.03900226 -0.060063414 -0.079510145 0.064737216
-0.015991315 -0.10895125 0.059355322 0.053525086 0.08630097 -0.026112756 0.056937803 -0.14399725
0.0024975627 0.021835027 -0.060607765 -0.05195543 -0.022055533 -0.10634073 0.10459225 -0.06760936
0.10172563 0.047722418 -0.06885663 -0.016519805 0.028991748 -0.11765619 0.08589359 -0.0015966037
0.0042103464 -0.04251352 0.024786672 0.0043982035 -0.033931427 -0.06264373 -0.09788694 -0.13176061
0.052274317 -0.119281985 -0.017420666 0.03485333 -0.036151726 -0.014450356 0.030102957 -0.14319913
0.114663474 -0.0011801802 -0.0753925 0.1228394 0.13945208 0.03739587 -0.026116943 -0.024962166
-0.06537905 0.074246585 0.071380086 -0.05424028 -0.05003232 0.07287851 -0.050056454 0.07106597
-0.06810164 -0.060878366 0.16705473 0.07605678 0.038206235 0.025628429 0.09191732 -0.025081692
0.05100955 0.0052193636 -0.060040895 -0.08551198
00000000: b4f1 e53d 06f1 b63c 0616 8abd c7ad 7bbe
00000010: 1582 b4bd 5e34 c83d 4d53 c5bd f2d9 22bd
00000020: d9f3 b93c 0fa9 083e d097 a0bd b649 a73c
00000030: d4b4 423d 9dbf ed3d 5277 f2bd f890 9ebd
00000040: 241f e43c c5c8 a4ba 7867 83bd ec3e 3c3d
00000050: 4fd2 c0bd 3d1f 34bd 0dcc 533d 3aca f0bd
00000060: 12c1 18bc 7407 8c3d 1467 18be f21d 83bc
00000070: d5c0 1fbd 0e05 76bd 37d6 a2bd f294 843d
00000080: 3800 83bc d521 dfbd 911e 733d 1f3d 5b3d
00000090: 90be b03d 6bea d5bc 9d37 693d 0474 13be
000000a0: 26ae 233b 5fdf b23c d93f 78bd 38cf 54bd
000000b0: cead b4bc 2bc9 d9bd 7634 d63d c776 8abd
000000c0: 8755 d03d 9578 433d b404 8dbd 8b54 87bc
000000d0: 1a80 ed3c bbf5 f0bd fae8 af3d 2145 d1ba
000000e0: f2f6 893b a822 2ebd 6b0d cb3c ce1e 903b
000000f0: aefb 0abd 5b4b 80bd f378 c8bd 41ec 06be
00000100: 981d 563d 1d4a f4bd c9b5 8ebc 5ec2 0e3d
00000110: d513 14bd 30c1 6cbc 7a9a f63c cba2 12be
00000120: afd4 ea3d 47b0 9aba 6267 9abd 3993 fb3d
00000130: 87cc 0e3e 692c 193d 33f3 d5bc 757d ccbc
00000140: 74e5 85bd 980e 983d b92f 923d 0e2b 5ebd
00000150: b1ee 4cbd 5441 953d ff07 4dbd 098b 913d
00000160: df78 8bbd 985b 79bd 6510 2b3e a8c3 9b3d
00000170: 247e 1c3d b6f2 d13c 263f bc3d 1f78 cdbc
00000180: 64ef 503d 3207 ab3b 71ed 75bd e820 afbd

layers.1.weight f4 [100, 100]
0.12627521 -0.16285259 0.12273227 0.13558131 0.14002933 -0.05393957 0.019473359 -0.060089506
-0.17647032 0.10678588 -0.09827241 0.14801605 0.25227338 0.096183695 0.059071008 0.0014934823
-0.16989993 -0.10903516 -0.08527825 0.21445948 -0.013911583 -0.1465659 0.24455117 -0.18163595
0.048500326 0.041931953 0.0064833197 0.23715928 0.10633728 -0.089429855 -0.25594372 -0.13542171
-0.116248615 0.06622904 -0.20203385 0.2855529 0.10797794 -0.10630304 0.010529655 -0.0019358677
-0.15766056 -0.032029055 0.12886545 0.15310383 -0.22857065 0.14435916 0.18629757 0.02343682
0.19138424 -0.026635095 0.21016611 0.08628519 0.085263796 0.1665405 0.06192622 0.16137739
-0.12310049 -0.1466606 -0.039786197 0.08795831 -0.051439922 0.06097581 -0.05155019 -0.08831219
0.027487975 0.13448253 0.041319046 -0.031323146 0.059450462 -0.03807527 0.053290367 -0.099046126
-0.15651917 -0.25572655 -0.02244885 0.017045854 -0.042823102 -0.21770138 -0.058822773 0.11713374
0.17357674 0.06616872 -0.11865356 0.09945391 0.097470835 0.18615815 0.13547866 0.043963697
0.08746306 -0.002546001 -0.29286674 0.009944329 -0.025734268 -0.1095128 -0.1301986 -0.045329176
0.011557833 0.10572344 -0.025770146 0.12399818 -0.027691487 0.14131315 -0.05912188 -0.07381849
-0.037813846 -0.068170264 -0.14691675 0.057987366 0.1571392 0.10236049 0.2550646 -0.010913348
0.054825697 -0.08642736 0.05619335 -0.05018475 0.11373889 -0.07302187 0.036277525 0.07706379
0.17012583 0.00846788 0.025792774 0.008619974 0.18543649 0.05948437 0.10987731 -0.144629
-0.10678575 -0.083172165 0.30075517 -0.050375693 -0.0267952 -0.05951656 -0.033208095 -0.10677412
0.108974166 -0.09531754 -0.02371594 -0.057428826 0.12762195 -0.05731587 -0.10651329 0.06776917
0.07283449 0.048195105 0.03516932 0.07958581 -0.117029026 0.01696093 -0.006870922 -0.16941164
0.054265488 -0.022653794 -0.13962924 -0.031379588 0.10736219 -0.036236845 -0.13816866 0.04005477
0.054439962 0.008303508 0.019154737 -0.033776715 -0.27758628 -0.020211872 0.20480908 0.027398815
-0.15634634 0.05027718 -0.22773695 -0.07315158 -0.19163124 0.07038305 0.019009091 -0.08783044
-0.10617622 0.03143555 0.1925679 -0.085653506 -0.040798604 -0.07244749 -0.02043844 0.13436478
0.097865276 0.1565623 0.23432367 -0.06582685 -0.034849346 0.08364142 -0.007110464 0.115239784
-0.20058963 0.12516347 0.127571 -0.11055545 0.0066412324 0.07425843 0.102934994 0.049227834
-0.1669911 0.06544965 -0.18639258 -0.13886853 0.01901879 0.07442202 0.038065795 0.028020829
0.11930513 0.11667622 0.08283336 0.00092045084 -0.075006545 -0.10680805 0.043990172 -0.0669295
-0.02667909 -0.048414104 -0.120311834 0.002636619 -0.046764318 -0.031193193 0.050371636 -0.0021027932
0.0092977295 -0.0791378 -0.0135059515 0.010425417 0.061656732 -0.062198207 -0.078770444 0.16352698
0.13578911 0.04704761 -0.01072595 -0.026377881 -0.08022124 -0.15423013 -0.0031597728 -0.053005133
-0.027459309 -0.11066557 -0.10665312 0.13030532 -0.022579998 0.103707455 0.15595442 0.079910494
0.031462688 0.0009075361 0.06713285 0.18354824 0.14167893 0.0041446853 0.11502538 -0.12600227
00000000: 4a4e 013e d4c2 26be 0e5b fb3d d4d5 0a3e
00000010: d963 0f3e bdef 5cbd 9886 9f3c 6a20 76bd
00000020: a3b4 34be 8eb2 da3d 0c43 c9bd 8591 173e
00000030: fa29 813e f5fb c43d 71f4 713d f3c0 c33a
00000040: 3ffa 2dbe d34d dfbd 5da6 aebd 449b 5b3e
00000050: 69ed 63bc 5f15 16be 9f6b 7a3e c6fe 39be
00000060: 47a8 463d d7c0 2b3d 0772 d43b e2d9 723e
00000070: 5cc7 d93d 0027 b7bd 0e0b 83be fdab 0abe
00000080: c113 eebd 17a3 873d f6e1 4ebe fd33 923e
00000090: 8a23 dd3d 69b5 d9bd 9384 2c3c f1bc fdba
000000a0: c571 21be e630 03bd 4ef5 033e 40c7 1c3e
000000b0: 6d0e 6abe e3d2 133e cac4 3e3e 93fe bf3c
000000c0: 3bfa 433e d831 dabc c935 573e 4ab6 b03d
000000d0: c99e ae3d 9889 2a3e 59a6 7d3d 1d40 253e
000000e0: 1c1c fcbd 322e 16be daf6 22bd 7d23 b43d
000000f0: abb2 52bd c5c1 793d 4b26 53bd 05dd b4bd
00000100: 762e e13c cab5 093e 293e 293d b34c 00bd
00000110: 5482 733d d0f4 1bbd 0047 5a3d b2d8 cabd
00000120: 9046 20be 97ee 82be a7e6 b7bc bfa3 8b3c
00000130: 4767 2fbd 1ced 5ebe 26f0 70bd d0e3 ef3d
00000140: 1abe 313e 7783 873d a300 f3bd 7eae cb3d
00000150: ca9e c73d 3ea0 3e3e ebba 0a3e 4713 343d
00000160: d51f b33d cfda 26bb a1f2 95be 8aed 223c
00000170: acd0 d2bc 3f48 e0bd c852 05be 16ab 39bd
00000180: 115d 3d3c 8885 d83d ea1b d3bc c2f2 fd3d
00000190: 42d9 e2bc 65b4 103e c929 72bd 262e 97bd
000001a0: b1e2 1abd da9c 8bbd 5871 16be 2984 6d3d
000001b0: 19e9 203e 60a2 d13d d497 823e e6cd 32bc
000001c0: e990 603d d400 b1bd 002b 663d 868e 4dbd
000001d0: efef e83d 7d8c 95bd be97 143d 9fd3 9d3d
000001e0: 7735 2e3e ddbc 0a3c 5e4b d33c cb3a 0d3c
000001f0: 10e3 3d3e e2a5 733d 5b07 e13d a019 14be
00000200: 7db2 dabd 2b56 aabd 95fc 993e be56 4ebd
00000210: 9b81 dbbc a3c7 73bd 3605 08bd 64ac dabd
00000220: d92d df3d d835 c3bd ee47 c2bc 7d3a 6bbd
00000230: 54af 023e 0cc4 6abd a423 dabd 90ca 8a3d
00000240: 402a 953d 3b68 453d b40d 103d e3fd a23d
00000250: eaac efbd a6f1 8a3c 7925 e1bb 3f7a 2dbe
00000260: 7d45 5e3d 7394 b9bc f8fa 0ebe e287 00bd
00000270: b5e0 db3d 166d 14bd 167c 0dbe 7810 243d
00000280: 70fc 5e3d 700b 083c 65ea 9c3c 7459 0abd
00000290: ca1f 8ebe 5e93 a5bc 79b9 513e 7b73 e03c
000002a0: 4119 20be 72ef 4d3d e033 69be 7fd0 95bd
000002b0: fb3a 44be fd24 903d f4b8 9b3c 72e0 b3bd
000002c0: eb72 d9bd 90c2 003d 8530 453e 1b6b afbd
000002d0: 701c 27bd 5a5f 94bd 846e a7bc ec96 093e
000002e0: 976d c83d de51 203e 8bf2 6f3e 3ad0 86bd
000002f0: 30be 0ebd 314c ab3d e5fe e8bb d602 ec3d
00000300: 5e67 4dbe da2a 003e f9a1 023e e56a e2bd
00000310: b29e d93b ce14 983d 95cf d23d 20a3 493d
00000320: b7ff 2abe 770a 863d b2dd 3ebe 8d33 0ebe
00000330: 4bcd 9b3c 926a 983d e1ea 1b3d f08b e53c
00000340: 3f56 f43d f1f3 ee3d 89a4 a93d 694a 713a
00000350: 089d 99bd 2ebe dabd 0a2f 343d 5512 89bd
00000360: 1b8e dabc de4d 46bd 0d66 f6bd 20cb 2c3b
00000370: f18b 3fbd de88 ffbc 7d52 4e3d 04cf 09bb
00000380: 8155 183c 0013 a2bd 1148 5dbc 5ecf 2a3c
00000390: c58b 7c3d 8cc3 7ebd 6652 a1bd 9e73 273e
000003a0: 4d0c 0b3e ffb4 403d e5bb 2fbc 6d16 d8bc
000003b0: 094b a4bd 81ee 1dbe 3114 4fbb e91b 59bd
000003c0: 58f2 e0bc a1a4 e2bd f36c dabd c26e 053e
000003d0: b0f9 b8bc 9364 d43d 84b2 1f3e 1da8 a33d
000003e0: 05df 003d b7e7 6d3a f37c 893d 12f4 3b3e
000003f0: 4814 113e 24d0 873b 6d92 eb3d bd06 01be

layers.1.bias f4 [100]
-0.09582427 -0.04197353 -0.041567843 0.061351787 -0.003219706 0.012863768 -0.06735855 0.0036626065
-0.066454574 0.013102435 0.062203325 0.025608389 0.0022049106 -0.02747116 0.0016048335 -0.048381634
0.103430375 -0.0042680376 -0.018549347 -0.05826473 -0.032359798 0.035685945 -0.015623585 0.039634414
0.012700903 -0.0486912 0.0079895 -0.003566724 -0.02715739 0.03583977 -0.06485804 0.046415705
0.060768805 0.00059426273 -0.006182823 0.057478003 -0.113658495 -0.018825293 -0.014093823 -0.01819469
0.028313197 -0.019269213 0.15527785 -0.030385675 0.061257616 -0.042402443 -0.042999025 0.069194995
0.025969584 0.097190306 0.026041945 -0.011405118 -0.03702696 -0.033874214 -0.09790752 0.033978097
0.08348428 0.01234815 -0.06634122 0.0639691 0.010093452 0.042497624 -0.025784736 0.04367264
0.018132072 0.0066946945 -0.014876288 -0.0025379236 -0.046930578 0.031002546 -0.054912146 0.038206737
-0.06944844 -0.09966508 0.020096457 -0.042528782 -0.064347364 -0.009209312 -0.012720439 0.027772812
0.08580146 -0.054489058 0.08311925 -0.04643026 -0.10237615 -0.0023981398 0.03057478 0.019171229
-0.068531126 -0.012378778 -0.06690935 -0.011832452 0.024697736 0.015427871 0.018770512 0.046141546
-0.007724187 0.028643524 0.07469752 -0.033967666
00000000: 843f c4bd 70ec 2bbd 0b43 2abd 034c 7b3d
00000010: b401 53bb 8ec2 523c 48f3 89bd 5708 703b
00000020: 5619 88bd 98ab 563c eac8 7e3d afc8 d13c
00000030: 4380 103b 330b e1bc 4759 d23a d22b 46bd
00000040: 4ed3 d33d e5da 8bbb cdf4 97bc ffa6 6ebd
00000050: b58b 04bd 6d2b 123d 11fa 7fbc b257 223d
00000060: 7317 503c 6c70 47bd 64e6 023c b3bf 69bb
00000070: 2d79 debc b9cc 123d 4bd4 84bd 651e 3e3d
00000080: b6e8 783d 4cc8 1b3a 4799 cabb 0e6e 6b3d
00000090: c9c5 e8bd 8037 9abc c7e9 66bc 080d 95bc
000000a0: 14f1 e73c 78da 9dbc 2801 1f3e 61eb f8bc
000000b0: 44e9 7a3d 2fae 2dbd bf1f 30bd 1bb6 8d3d
000000c0: 2abe d43c b60b c73d eb55 d53c 88dc 3abc
000000d0: 95a9 17bd b0bf 0abd bd83 c8bd 9e2c 0b3d
000000e0: cef9 aa3d e54f 4a3c e8dd 87bd 3b02 833d
000000f0: 025f 253c fd11 2e3d 833a d3bc 15e2 323d
00000100: b689 943c 2b5f db3b adbb 73bc 4b53 26bb
00000110: 473a 40bd 0df9 fd3c 8feb 60bd ab7e 1c3d
00000120: fc3a 8ebd 351d ccbd 53a1 a43c a932 2ebd
00000130: 8dc8 83bd a7e2 16bc 6369 50bc cf83 e33c
00000140: adb8 af3d eb2f 5fbd 6d3a aa3d a82d 3ebd
00000150: 96aa d1bd 1c2a 1dbb f677 fa3c fb0c 9d3c
00000160: 0c5a 8cbd 5cd0 4abc c507 89bd e7dc 41bc
00000170: e852 ca3c 2ec5 7c3c 9ec4 993c ebfe 3c3d
00000180: 2d1b fdbb d3a5 ea3c 03fb 983d ae21 0bbd

layers.2.weight f4 [100, 100]
0.040694583 0.0021010006 0.04877209 0.11477369 0.09475951 0.06719446 -0.027914468 -0.07649518
-0.16305798 0.10037488 -0.027676519 0.06648475 -0.070368886 -0.1987364 -0.012499467 0.15507516
-0.0832328 0.1964465 -0.04268124 -0.11742752 -0.15354341 -0.06021627 -0.19654416 0.06303419
-0.13796769 0.17459598 0.09332848 0.035341334 -0.04062907 0.026812011 0.064668775 -0.035652652
0.19403899 0.07577994 0.021115292 0.094676346 -0.080398664 0.15416883 0.08688036 -0.0736692
-0.04308753 -0.06730652 -0.0044553196 -0.25689492 -0.02873934 0.018369997 0.23570864 0.06550049
0.18300359 0.20449197 0.35491118 0.37833318 -0.11500532 0.020533185 -0.14503954 0.12753305
0.0011015648 -0.097402945 -0.26690614 -0.10784281 0.09200691 -0.11561423 -0.011757421 0.096234016
0.081381746 0.02031911 0.043487236 -0.03308899 -0.26683983 0.16786353 0.0911447 0.009627225
-0.02023373 -0.24433458 0.20330918 0.057966344 -0.07844209 -0.038008578 0.026980985 0.0699154
0.07289111 0.044647906 -0.04395126 0.02711587 0.022310348 -0.061164517 0.056250524 -0.13269818
-0.12855904 0.122587495 0.01639377 -0.020283973 0.02446413 0.13002096 0.094890326 0.12740117
0.023935277 0.0050521726 0.2098178 -0.00655805 -0.036347467 0.020789888 0.18936567 0.010406015
0.07948652 0.1978321 0.015724408 0.066540025 -0.05819 0.09835969 -0.0742209 -0.112702556
-0.057407297 -0.0037033637 -0.0020543274 -0.08853557 -0.058532946 -0.102312155 0.1359798 0.09943986
-0.02203771 0.18725196 -0.07068385 -0.1280048 -0.007036562 -0.0519517 0.054840658 0.042501893
0.034603655 0.029733222 0.13051404 -0.11312734 0.09112683 0.00891462 0.15375733 -0.10735451
-0.071067296 -0.08053787 0.063433364 -0.06476569 0.001067045 0.09104044 -0.065787055 0.03548647
-0.06482198 -0.080514565 -0.036822062 0.13852876 -0.044370223 -0.08424226 -0.08766946 0.013978503
-0.1288327 -0.054542527 -0.05103969 -0.1170262 -0.02156131 -0.011877989 -0.17454612 -0.104532264
0.033546366 -0.034541644 0.23372164 0.045236606 -0.09220832 -0.033472937 0.12971419 -0.13853574
0.0605801 0.09794414 -0.040590078 0.016101023 0.014814661 0.068700835 -0.09870979 -0.0028992638
-0.04698245 -0.15372168 0.051202517 -0.00067855057 0.053826556 0.0075832745 -0.0936058 -0.054275885
-0.043771088 0.07165509 -0.024777165 0.03500561 -0.15804283 -0.092320584 -0.17258206 0.08535561
0.05530238 0.08868006 -0.112220965 0.06623669 -0.0065367008 0.037367243 -0.07522922 0.058694903
-0.21090312 0.24504726 -0.008906941 -0.04024916 0.13132398 -0.014354888 -0.03476314 -0.025678976
0.088969424 -0.043693233 -0.14540772 -0.02876506 0.05398261 0.12781276 0.012159953 -0.13680504
0.14993113 -0.020468602 -0.015143505 -0.04156012 -0.026641369 -0.025641816 -0.09250447 0.11582183
-0.18993554 0.19975919 -0.026483038 0.105612054 -0.005325811 0.26046667 -0.0045946096 -0.08250368
0.0101890545 0.060423378 -0.0915542 -0.0017351812 -0.085891664 -0.29815665 -0.07680064 0.020319639
-0.04058274 0.15205988 0.07257129 0.1823902 -1.9055185e-05 0.09711829 -0.06572161 0.06910754
0.12053367 0.09171349 -0.078623585 -0.08389364 -0.10964121 -0.08632383 0.12615529 0.18295453
00000000: 5daf 263d f1b0 093b 3ec5 473d 780e eb3d
00000010: 4611 c23d 409d 893d e2ac e4bc 81a9 9cbd
00000020: acf8 26be 5891 cd3d deb9 e2bc 2829 883d
00000030: 901d 90bd 8e81 4bbe 90ca 4cbc 06cc 1e3e
00000040: f575 aabd 4529 493e 86d2 2ebd d77d f0bd
00000050: 7c3a 1dbe 56a5 76bd df42 49be 1218 813d
00000060: 6747 0dbe 4ac9 323e 0123 bf3d 13c2 103d
00000070: ab6a 26bd dda4 db3c 1071 843d 8408 12bd
00000080: 28b2 463e 8332 9b3d faf9 ac3c ace5 c13d
00000090: 0ea8 a4bd 6fde 1d3e 55ee b13d e1df 96bd
000000a0: 8d7c 30bd 00d8 89bd eefd 91bb bb87 83be
000000b0: c46e ebbc ad7c 963c 9b5d 713e 1f25 863d
000000c0: 4b65 3b3e 5866 513e ebb6 b53e e3b4 c13e
000000d0: e987 ebbd 3635 a83c 3f85 14be 0698 023e
000000e0: 6262 903a 327b c7bd eca7 88be b1dc dcbd
000000f0: 1e6e bc3d 27c7 ecbd 33a2 40bc 5716 c53d
00000100: 79ab a63d 4374 a63c ac1f 323d 5288 07bd
00000110: 3b9f 88be 6be4 2b3e 13aa ba3d 82bb 1d3c
00000120: 35c1 a5bc d832 7abe 4830 503e 1e6e 6d3d
00000130: 3fa6 a0bd e2ae 1bbd 3a07 dd3c ce2f 8f3d
00000140: ef47 953d b9e0 363d 3d06 34bd 1a22 de3c
00000150: 31c4 b63c a587 7abd f366 663d 08e2 07be
00000160: fba4 03be 270f fb3d 3a4c 863c 932a a6bc
00000170: 0069 c83c 3724 053e dc55 c23d 7475 023e
00000180: ea13 c43c b28c a53b 7ada 563e e9e4 d6bb
00000190: 15e1 14bd 8e4f aa3c 13e9 413e fe7d 2a3c
000001a0: d4c9 a23d 7f94 4a3e 79d0 803c 2346 883d
000001b0: a358 6ebd ce70 c93d 2101 98bd 99d0 e6bd
000001c0: ea23 6bbd 22b4 72bb e5a1 06bb 2352 b5bd
000001d0: 3ec0 6fbd 0989 d1bd 4a3e 0b3e 20a7 cb3d
000001e0: 6d88 b4bc fabe 3f3e b2c2 90bd b113 03be
000001f0: f692 e6bb 4ecb 54bd 99a0 603d 7716 2e3d
00000200: 90bc 0d3d 1693 f33c 79a5 053e 4faf e7bd
00000210: b4a0 ba3d a00e 123c 9072 1d3e aedc dbbd
00000220: bb8b 91bd 0af1 a4bd 5ae9 813d e0a3 84bd
00000230: 17dc 8b3a 6973 ba3d 5dbb 86bd 435a 113d
00000240: 63c1 84bd d2e4 a4bd bbd2 16bd 7cda 0d3e
00000250: 8dbd 35bd 3587 acbd 0c8c b3bd 1706 653c
00000260: b8ec 03be fc67 5fbd fe0e 51bd 6fab efbd
00000270: 58a1 b0bc e69b 42bc 38bc 32be 0315 d6bd
00000280: ea67 093d 8a7b 0dbd ba54 6f3e 054a 393d
00000290: b7d7 bcbd eb1a 09bd ccd3 043e 50dc 0dbe
000002a0: d722 783d f096 c83d c841 26bd 4be6 833c
000002b0: 31b9 723c 06b3 8c3d 5c28 cabd 9301 3ebb
000002c0: ab70 40bd 3769 1dbe bbb9 513d c2e0 31ba
000002d0: 3c79 5c3d 1e7d f83b 66b4 bfbd 6450 5ebd
000002e0: 5049 33bd e7bf 923d 7bf9 cabc 0b62 0f3d
000002f0: fbd5 21be 9312 bdbd 5ab9 30be ecce ae3d
00000300: c084 623d e49d b53d 1bd4 e5bd 1aa7 873d
00000310: d231 d6bb 650e 193d c711 9abd 116a 703d
00000320: fdf6 57be abed 7a3e 6bee 11bc 4edc 24bd
00000330: cb79 063e c430 6bbc cb63 0ebd b75c d2bc
00000340: 9a35 b63d adf7 32bd c3e5 14be b4a4 ebbc
00000350: df1c 5d3d 59e1 023e 8a3a 473c 9f16 0cbe
00000360: 8c87 193e c5ad a7bc 771c 78bc f23a 2abd
00000370: 003f dabc c90e d2bc fc72 bdbd ff33 ed3d
00000380: 767e 42be ac8d 4c3e f5f2 d8bc 224b d83d
00000390: 2484 aebb e35b 853e 618e 96bb b0f7 a8bd
000003a0: feef 263c 817e 773d c580 bbbd 056f e3ba
000003b0: f8e7 afbd fda7 98be a749 9dbd 5f75 a63c
000003c0: 163a 26bd 96b5 1b3e 42a0 943d 7fc4 3a3e
000003d0: b3d8 9fb7 f4e5 c63d 0d99 86bd 4188 8d3d
000003e0: 5bda f63d 48d4 bb3d 6705 a1bd 6ed0 abbd
000003f0: 928b e0bd 8cca b0bd da2e 013e 6f58 3b3e

layers.2.bias f4 [100]
0.032456618 -0.029447373 -0.036444604 0.028204069 -0.016410025 0.0032938572 -0.05048438 0.0012525677
0.055364378 -0.01171666 0.011419432 0.022904664 -0.01839716 0.024146259 0.027408257 0.04749949
0.027943453 -0.031454485 -0.00862947 0.02767028 -0.07345835 0.030273674 -0.02406195 -0.04986508
-0.045391914 0.045526836 -0.009961391 0.00538833 0.0034237497 0.0076772333 0.055520095 0.031158239
0.005768374 -0.05783562 -0.02870149 0.029118042 0.025284065 0.04198399 0.03196527 -0.0014925114
-0.033776924 0.036417328 0.021163179 -0.0576722 0.04634213 0.046773687 0.020173877 -0.025283782
0.0022022468 -0.007061132 -0.074148975 0.0069139963 0.010735486 0.0068109543 -0.014516076 -0.0182665
-0.041141152 -0.028582292 -0.011212293 0.0946828 -0.018423554 -0.007564753 0.023502609 0.022679785
0.023114458 -0.030360198 -0.042613875 -0.020705104 0.09406301 0.02130979 -0.0003199258 0.1568185
-0.028852288 -0.01177182 -0.024401704 -0.02985913 0.0112077445 -0.020477384 -0.037288133 0.034658253
0.06599252 0.049071252 0.031019751 -0.009351946 0.014136817 -0.009140472 -0.021104936 0.026845548
0.01646549 0.023163691 0.027895233 -0.022485252 -0.011034794 -0.03772784 -0.00899134 0.021742545
-0.0010955747 -0.025042865 0.016500931 -0.022513183
00000000: 3bf1 043d 9e3b f1bc f046 15bd 380c e73c
00000010: 516e 86bc c1dd 573b b6c8 4ebd 332d a43a
00000020: c2c5 623d 3cf7 3fbc 9218 3b3c 90a2 bb3c
00000030: a4b5 96bc 60ce c53c 4887 e03c d38e 423d
00000040: abe9 e43c 6bd6 00bd 9f62 0dbc c8ac e23c
00000050: 5571 96bd 7f00 f83c 911d c5bc 533f 4cbd
00000060: dfec 39bd 597a 3a3d 1a35 23bc 9790 b03b
00000070: fd60 603b 4d91 fb3b 0a69 633d 903f ff3c
00000080: a104 bd3b 0be5 6cbd 631f ebbc f688 ee3c
00000090: 8720 cf3c 68f7 2b3d 04ee 023d 5fa0 c3ba
000000a0: ac59 0abd 562a 153d 675e ad3c af39 6cbd
000000b0: 3fd1 3d3d c495 3f3d b043 a53c ef1f cfbc
000000c0: 9253 103b 1261 e7bb 6bdb 97bd ce8e e23b
000000d0: e4e3 2f3c 6d2e df3b d6d4 6dbc a1a3 95bc
000000e0: a083 28bd 6925 eabc c4b3 37bc 0ee9 c13d
000000f0: feec 96bc bfe1 f7bb 8b88 c03c f5ca b93c
00000100: 885a bd3c f3b5 f8bc e38b 2ebd c09d a9bc
00000110: 1ba4 c03d de91 ae3c b7bb a7b9 0795 203e
00000120: a25b ecbc 97de 40bc 15e6 c7bc 229b f4bc
00000130: b0a0 373c 30c0 a7bc 71bb 18bd d0f5 0d3d
00000140: 1627 873d f0fe 483d 221d fe3c e838 19bc
00000150: 1c9e 673c ebc1 15bc 42e4 acbc 32eb db3c
00000160: a3e2 863c c8c1 bd3c 8b84 e43c fe32 b8bc
00000170: 48cb 34bc 8288 1abd 6a50 13bc 6c1d b23c
00000180: 6399 8fba b226 cdbc f62c 873c 916d b8bc

layers.3.weight f4 [100, 100]
0.019062603 0.16175029 -0.016186073 -0.12133056 0.18315119 0.09993763 -0.113572724 -0.06363562
0.08921434 0.10218468 -0.015057558 -0.1788758 -0.0035959654 -0.0060460786 0.019146768 0.010472255
0.085067146 -0.22389704 -0.004357777 0.07398843 0.11208676 -0.04872471 0.016430866 -0.12632708
-0.059087276 0.15027122 0.042538386 0.0597916 0.074401155 0.06415134 -0.1075803 -0.007971568
-0.07269605 -0.05524371 -0.10936395 -0.017464668 0.1266436 0.13454965 0.051974613 -0.11458526
-0.08175742 0.16818471 -0.117781125 0.07763244 -0.034337394 0.030494565 -0.03349304 0.02465292
0.026780022 -0.063103236 0.18241936 -0.06544434 0.019816171 -0.10873598 -0.105039775 0.044303216
-0.1549642 -0.04527162 -0.13133024 -0.061321024 -0.03233491 0.16796099 -0.048200928 0.10232006
0.18468457 0.012600718 -0.035151027 0.04707262 0.04201542 -0.07786254 0.06956822 0.23643896
0.16846175 -0.01781511 -0.051716067 0.12638296 0.0051675593 -0.10991386 -0.04069302 0.10763381
-0.0392476 -0.21263261 -0.036492705 0.023132546 0.14393574 -0.2061837 0.11705806 -0.17996117
-0.008894076 0.035249077 0.08827173 0.012008336 0.059769146 0.0075076357 0.05919005 -0.106015444
-0.08619591 -0.063159436 0.13074796 0.017780308 0.073512875 0.1294903 -0.08726412 -0.14241317
-0.023356836 -0.07590263 0.04446214 -0.055109687 0.03075787 -0.097628996 -0.093850695 -0.046048332
0.0626921 -0.07959204 -0.00706104 -0.0074447626 -0.061147727 0.04057326 -0.18819144 0.043495987
-0.17735583 0.014777658 -0.1568948 0.12924379 0.036288943 0.09421598 0.059139196 0.076287195
-0.07657829 0.0791559 -0.06780973 0.0679179 -0.061624628 0.019052308 -0.02431527 -0.04645471
-0.26272434 0.033278093 0.045368582 -0.1299058 0.13541016 0.06689462 0.043275747 -0.029202655
-0.04878212 -0.04420564 -0.037782278 0.1086624 -0.020046238 0.07304387 -0.08338777 0.04800363
0.022291351 -0.14111154 -0.15843618 0.03306128 0.0988678 -0.19450589 0.031746827 -0.043104466
-0.023625778 -0.2740547 0.04374378 -0.049228843 -0.3368422 -0.14299698 -0.037988864 -0.029949836
-0.058878772 0.12564392 0.097344995 0.016541991 -0.0905399 -0.14715955 0.006887833 0.16563605
0.01282782 0.030392889 0.07377101 -0.15789582 -0.0536224 0.16549265 -0.10933211 0.13780604
-0.13953102 -0.045921557 -0.13116652 0.19079387 -0.016547326 0.12787776 -0.097414784 0.06946245
0.1604511 0.025937177 -0.13616572 -0.016255066 -0.11372856 -0.04517291 -0.2251298 -0.06453511
0.15081592 -0.18187264 0.03948259 -0.26091287 0.0528791 0.014143344 0.079541676 -0.1404073
0.10089168 0.10344132 0.01583158 0.107685216 -0.08573612 0.11769123 0.16576257 0.15234272
0.05267778 -0.17944974 -0.076779395 0.03952682 0.083981924 0.11112526 -0.10086898 -0.0910794
-0.10135263 -0.10518935 -0.09614139 0.018399263 -0.17611125 -0.1613778 0.076103896 0.15595588
-0.033518147 -0.11279091 -9.870313e-05 -0.13664496 -0.089808814 0.07687743 -0.22470738 0.042884577
0.08392109 0.011936096 -0.115174524 0.17854679 0.10114363 -0.08736891 0.040093947 -0.16822474
-0.16010855 -0.11447547 -0.040200602 -0.041046735 -0.076108925 -0.1355973 -0.047909614 -0.11326615
00000000: 2d29 9c3c dea1 253e a898 84bc 287c f8bd
00000010: fc8b 3b3e 1aac cc3d d198 e8bd 6453 82bd
00000020: 02b6 b63d 3446 d13d fab3 76bc 382b 37be
00000030: 4aaa 6bbb 2f1e c6bb afd9 9c3c d293 2b3c
00000040: af37 ae3d 4445 65be afcb 8ebb 3f87 973d
00000050: be8d e53d 9093 47bd 069a 863c e35b 01be
00000060: 8005 72bd b3e0 193e bb3c 2e3d 09e8 743d
00000070: a25f 983d c761 833d 0f53 dcbd 2e9b 02bc
00000080: abe1 94bd 3a47 62bd 35fa dfbd 1012 8fbc
00000090: dcae 013e 62c7 093e 55e3 543d adab eabd
000000a0: 6f70 a7bd 9d38 2c3e 3b37 f1bd c2fd 9e3d
000000b0: 5ea5 0cbd bdcf f93c ff2f 09bd ecf4 c93c
000000c0: c761 db3c 453c 81bd 24cc 3a3e af07 86bd
000000d0: 8655 a23c f8b0 debd 181f d7bd 4a77 353d
000000e0: efae 1ebe bc6e 39bd 6f7b 06be c12b 7bbd
000000f0: 9c71 04bd f7fd 2b3e 566e 45bd 2e8d d13d
00000100: f41d 3d3e 3e73 4e3c 86fa 0fbd 38cf 403d
00000110: 5c18 2c3d 6576 9fbd c879 8e3d 0e1d 723e
00000120: 3d81 2c3e fef0 91bc 3ad4 53bd 896a 013e
00000130: a154 a93b 851a e1bd b9ad 26bd 1d6f dc3d
00000140: 17c2 20bd 5dbc 59be 6079 15bd 7780 bd3c
00000150: e463 133e d221 53be 23bc ef3d be47 38be
00000160: 75b8 11bc 5661 103d cfc7 b43d 9dbe 443c
00000170: 7ed0 743d 9d02 f63b 4471 723d a01e d9bd
00000180: 7b87 b0bd bc59 81bd cbe2 053e 02a8 913c
00000190: eb8d 963d 1b99 043e 88b7 b2bd c2d4 11be
000001a0: d656 bfbc d772 9bbd ef1d 363d b2ba 61bd
000001b0: eef7 fb3c b6f1 c7bd cb34 c0bd 2d9d 3cbd
000001c0: b764 803d 2701 a3bd 4c60 e7bb 32f3 f3bb
000001d0: 0a76 7abd 2630 263d 42b5 40be d928 323d
000001e0: c49c 35be fd1d 723c 08a9 20be 7c58 043e
000001f0: b7a3 143d 4ff4 c03d f13b 723d 763c 9c3d
00000200: 14d5 9cbd 7d1c a23d d4df 8abd 8a18 8b3d
00000210: 1b6a 7cbd 9613 9c3c d130 c7bc 4b47 3ebd
00000220: ce83 86be 9c4e 083d 68d4 393d 0706 05be
00000230: f6a8 0a3e 0c00 893d e941 313d 683a efbc
00000240: c3cf 47bd f910 35bd 97c1 1abd 648a de3d
00000250: 0238 a4bc 0698 953d 35c7 aabd 749f 443d
00000260: 5a9c b63c 8b7f 10be 183d 22be 446b 073d
00000270: 337b ca3d 8d2c 47be f608 023d 4f8e 30bd
00000280: d98a c1bc e650 8cbe ae2c 333d 2fa4 49bd
00000290: 9576 acbe cd6d 12be 369a 1bbd 5c59 f5bc
000002a0: de2a 71bd cda8 003e d05c c73d 1283 873c
000002b0: fc6c b9bd feb0 16be 55b3 e13b 7f9c 293e
000002c0: c72b 523c 82fa f83c 4115 973d 71af 21be
000002d0: 29a3 5bbd e876 293e 83e9 dfbd 071d 0d3e
000002e0: 38e1 0ebe 3e18 3cbd 8450 06be 785f 433e
000002f0: 428e 87bc 63f2 023e 6781 c7bd 5442 8e3d
00000300: 4b4d 243e 347a d43c 076f 0bbe 5829 85bc
00000310: 85ea e8bd 3b07 39bd 6d88 66be fc2a 84bd
00000320: 7d6f 1a3e d23c 3abe 7fb8 213d 5f96 85be
00000330: c197 583d 7cb9 673c bfe6 a23d eec6 0fbe
00000340: 4ca0 ce3d 0bd9 d33d 3bb1 813c 118a dc3d
00000350: 6b96 afbd 1908 f13d aabd 293e bbff 1b3e
00000360: a8c4 573d acc1 37be 843e 9dbd e0e6 213d
00000370: b7fe ab3d a495 e33d 6594 cebd d687 babd
00000380: f891 cfbd 846d d7bd c7e5 c4bd 0dba 963c
00000390: 8256 34be 3940 25be 5cdc 9b3d e6b2 1f3e
000003a0: 534a 09bd ecfe e6bd d7fe ceb8 a8ec 0bbe
000003b0: afed b7bd ea71 9d3d b119 66be bda7 2f3d
000003c0: d2de ab3d 9d8f 433c 9fe0 ebbd f8d4 363e
000003d0: 6424 cf3d 79ee b2bd 8d39 243d 1b43 2cbe
000003e0: 7ff3 23be 1d72 eabd 63a9 24bd 9f20 28bd
000003f0: ffde 9bbd 05da 0abe df3c 44bd 15f8 e7bd

layers.3.bias f4 [100]
0.04067093 -0.034061477 -0.023414759 0.02209899 -0.012154604 0.028643157 0.0027970998 -0.0064953235
0.030019213 -0.017245676 0.07199609 0.054220285 0.026200855 -0.015638748 -0.07594088 -0.017575094
-0.0059576295 -0.049120966 -0.025052736 -0.029168999 -0.018429406 0.014945545 -0.032796293 0.006473767
-0.0233345 -0.026739744 0.019905632 -0.018812671 -0.05851172 -0.025290808 0.022943415 0.023761822
-0.063292086 -0.02879721 -0.038352408 -0.069441736 0.0709706 -0.04340216 0.06369372 0.001886404
-0.027243253 -0.062907465 -0.028011508 -0.054272626 -0.042189375 -0.042515222 0.009755376 0.05121114
-0.007613839 0.012763278 0.010830714 0.030838476 -0.0059047313 -0.04093664 0.07649064 0.02932888
-0.023318365 -0.038242 0.007310788 0.037519045 -0.021114688 -0.01329564 -0.015447565 0.018295424
-0.004863354 -0.12117772 -0.07747546 0.002175601 0.030321438 -0.076496765 -0.020243881 0.01504657
0.011686126 0.016624242 0.01370342 0.031637426 -0.00041441814 0.03980271 -0.018785372 0.02777746
0.03181912 0.017046379 -0.015086699 -0.005498474 0.032919396 -0.013397358 -0.027026623 -0.019194873
-0.012664047 -0.067179374 -0.027664693 -0.035066087 -0.005921739 -0.035157815 0.032708704 -0.002382722
-0.0053361487 0.01880617 -0.07479374 -0.010164562
00000000: 9096 263d 0c84 0bbd 4fd0 bfbc f108 b53c
00000010: 1b24 47bc 0ea5 ea3c 8c4f 373b b9d6 d4bb
00000020: daea f53c ce46 8dbc b072 933d 1716 5e3d
00000030: 2da3 d63c d51c 80bc e486 9bbd a5f9 8fbc
00000040: 3838 c3bb 1133 49bd 653b cdbc d3f3 eebc
00000050: 44f9 96bc 29de 743c 6855 06bd e521 d43b
00000060: fe27 bfbc 4f0d dbbc 2311 a33c 081d 9abc
00000070: fca9 6fbd ab2e cfbc d4f3 bb3c 27a8 c23c
00000080: 489f 81bd 20e8 ebbc 6a17 1dbd 7837 8ebd
00000090: 0959 913d 77c6 31bd da71 823d 3741 f73a
000000a0: 3e2d dfbc a1d5 80bd 6478 e5bc f94c 5ebd
000000b0: c4ce 2cbd 7124 2ebd 03d5 1f3c c6c2 513d
000000c0: 837d f9bb 111d 513c 4f73 313c f9a0 fc3c
000000d0: 7a7c c1bb 2ead 27bd 20a7 9c3d 1f43 f03c
000000e0: 2806 bfbc a5a3 1cbd 568f ef3b 92ad 193d
000000f0: b6f8 acbc f5d5 59bc c917 7dbc 49e0 953c
00000100: c55c 9fbb 062c f8bd 74ab 9ebd 8794 0e3b
00000110: aa64 f83c 56aa 9cbd 7fd6 a5bc e485 763c
00000120: 2a77 3f3c 902f 883c 4f84 603c 3f96 013d
00000130: 4346 d9b9 2b08 233d c8e3 99bc 8e8d e33c
00000140: c454 023d d9a4 8b3c 342e 77bc 8b2c b4bb
00000150: 7dd6 063d 9880 5bbc f066 ddbc 913e 9dbc
00000160: dd7c 4fbc 5795 89bd 11a1 e2bc 75a1 0fbd
00000170: 260b c2bb a401 10bd 90f9 053d 7127 1cbb
00000180: dcda aebb 660f 9a3c 762d 99bd 4389 26bc
