main/continuous_time_inference (Schrodinger)/models_iters/Schrodinger_15000.pt (torch, 208864 bytes, 14 tensors)

linear_in.weight f4 [100, 2]
0.1733606 0.14066948 -0.0476929 -0.18323524 0.021127736 0.09796672 0.001900989 0.20851842
0.16721252 0.02623328 -0.09837357 0.23426186 0.122091696 -0.027547603 -0.30632764 -0.13095848
-0.07579048 0.219976 -0.12430548 0.22141154 -0.13345295 0.131521 -0.042307645 0.20817858
-0.17174938 -0.043634314 0.004913956 -0.26636976 0.024584023 -0.06252452 0.1821857 0.26255044
0.23261532 -0.045997627 0.26524416 0.02264241 -0.07734138 -0.1444917 0.109323196 -0.06328512
-0.26806894 -0.16224033 -0.15556699 0.37922907 -0.06565408 -0.0636495 0.120039366 0.08546533
0.10439613 -0.083615564 -0.18808281 -0.059432022 0.17209344 -0.12103953 0.079278775 -0.11428045
0.20817971 0.17142826 -0.29098463 0.1073705 0.13051568 0.22188012 0.050978553 -0.046834335
0.031167474 0.16118123 0.0717577 0.05918686 0.29334858 -0.3335247 -0.009587079 0.08833684
0.019001132 0.20993194 0.025218189 0.019017756 -0.042268496 -0.36197057 -0.08365972 0.23847522
0.20547347 -0.19849074 -0.1658003 0.10449619 -0.11299289 -0.21836174 -0.2564241 0.023245664
-0.12271618 -0.16713528 -0.14737889 -0.19339983 0.04363715 -0.18342634 0.19576903 0.12438662
-0.17718288 -0.027752526 -0.085676186 -0.24790773 0.12878297 -0.14058156 -0.052142613 0.055176318
-0.035571378 -0.24124296 0.15473019 -0.1389468 0.08246855 -0.33116564 0.044596188 -0.19299345
0.36191928 -0.33184198 -0.094638124 0.11993111 0.0011058343 0.10284892 -0.21361947 0.05402264
0.075931706 0.0049321414 -0.03202694 0.20283638 -0.14960434 -0.23571445 0.10440655 0.011357222
0.013123078 0.15012252 -0.17505439 -0.08233171 -0.11434133 0.22324193 0.06792992 0.018795397
0.19684342 -0.0063861907 0.005636398 0.19265045 0.25598055 -0.024718983 -0.05192867 0.08169512
0.002056142 -0.31675828 -0.007611169 0.03871762 -0.2428661 -0.120976955 0.107889965 0.07472306
-0.13073544 -0.098575674 0.14977053 0.20940183 -0.03827098 0.18202269 -0.2678609 -0.21680672
0.100501046 -0.14523579 0.07143473 0.027669659 0.00075637223 0.048736725 0.015645271 0.19337556
0.0635428 -0.01732428 0.13718987 0.28256845 -0.16739306 0.30590943 0.21360521 -0.13745315
-0.11228126 0.12019904 0.06396495 -0.20772852 0.057838768 -0.03558188 -0.017662818 0.23187478
0.30726817 -0.059918676 -0.08079422 0.12233546 -0.0009813496 0.09067479 -0.08449702 0.2772303
0.12125779 0.053062826 -0.12251825 -0.024254296 -0.21387266 0.12047854 -0.020132806 0.081399135
00000000: 7185 313e a90b 103e a159 43bd 05a2 3bbe
00000010: 1314 ad3c c7a2 c83d 9b2a f93a da85 553e
00000020: c239 2b3e 2de7 d63c 1578 c9bd 57e2 6f3e
00000030: 360b fa3d 83ab e1bc fad6 9cbe fb19 06be
00000040: 0a38 9bbd 6341 613e df93 febd b5b9 623e
00000050: e4a7 08be 71ad 063e c84a 2dbd c42c 553e
00000060: 12df 2fbe e5b9 32bd 4005 a13b 9e61 88be
00000070: 6f64 c93c db0c 80bd e38e 3a3e 036d 863e
00000080: b632 6e3e 0268 3cbd 15ce 873e 937c b93c
00000090: 2865 9ebd a2f5 13be d7e4 df3d a19b 81bd
000000a0: 5540 89be 5422 26be f44c 1fbe 502a c23e
000000b0: a575 86bd ab5a 82bd 33d7 f53d 7208 af3d
000000c0: a3cd d53d a33e abbd c898 40be fe6e 73bd
000000d0: 4339 303e 93e3 f7bd e95c a23d de0b eabd
000000e0: 102d 553e e48a 2f3e f0fb 94be 11e5 db3d
000000f0: e7a5 053e 8b34 633e e3ce 503d 5cd5 3fbd
00000100: ee52 ff3c b10c 253e b3f5 923d ec6d 723d
00000110: c931 963e c0c3 aabe 2013 1dbc f2e9 b43d
00000120: 43a8 9b3c 66f8 563e 6096 ce3c 20cb 9b3c
00000130: bb21 2dbd 3554 b9be ca55 abbd d932 743e
00000140: a367 523e 2841 4bbe 8ec7 29be 1902 d63d
00000150: d168 e7bd 389a 5fbe 054a 83be b16d be3c
00000160: 9f52 fbbd 8325 2bbe 7eea 16be 9b0a 46be
00000170: debc 323d 1dd4 3bbe ad77 483e 6abe fe3d
00000180: 6e6f 35be 4459 e3bc ff76 afbd 86db 7dbe
00000190: afdf 033e 9df4 0fbe 7e93 55bd 9000 623d
000001a0: 4bb3 11bd 6508 77be 9771 1e3e 1248 0ebe
000001b0: 45e5 a83d 8b8e a9be 7eaa 363d 13a0 45be
000001c0: 7c4d b93e 31e7 a9be a2d1 c1bd 719e f53d
000001d0: a4f1 903a 74a2 d23d 10bf 5abe d846 5d3d
000001e0: 1582 9b3d cd9d a13b ae2e 03bd 57b4 4f3e
000001f0: e131 19be 215f 71be 1ad3 d53d a413 3a3c
00000200: 2e02 573c b8b9 193e 7541 33be 879d a8bd
00000210: ca2b eabd 8899 643e d81e 8b3d cef8 993c
00000220: 5291 493e 4043 d1bb 89b1 b83b 2946 453e
00000230: e20f 833e 777f cabc 28b3 54bd c54f a73d
00000240: 57c0 063b 242e a2be 1d67 f9bb 5e96 1e3d
00000250: e4b1 78be c4c2 f7bd 6af5 dc3d 6708 993d
00000260: 83df 05be 0be2 c9bd 725d 193e 6f6d 563e
00000270: 08c2 1cbd 2864 3a3e 1025 89be 9502 5ebe
00000280: 7ed3 cd3d b1b8 14be 5f4c 923d 7bab e23c
00000290: 4847 463a 29a0 473d 832a 803c 3e04 463e
000002a0: ba22 823d a6eb 8dbc 807b 0c3e d0ac 903e
000002b0: 1669 2bbe 29a0 9c3e 53bb 5a3e 85c0 0cbe
000002c0: b8f3 e5bd ea2a f63d 0e00 833d c9b6 54be
000002d0: 58e8 6c3d 4ebe 11bd 9db1 90bc 9570 6d3e
000002e0: 4152 9d3e 496d 75bd 7177 a5bd 038b fa3d
000002f0: a1a0 80ba b4b3 b93d c60c adbd 21f1 8d3e
00000300: 0156 f83d 6858 593d d9ea fabd f2b0 c6bc
00000310: 6f01 5bbe 74bd f63d 8eed a4bc 97b4 a63d

linear_in.bias f4 [100]
0.02205926 0.017707093 -0.050103243 0.035095908 0.0689522 -0.050752416 0.06906079 -0.0271417
0.072835214 -0.05421184 0.018982034 0.026408186 0.03839871 0.072785005 0.0517574 0.059726197
0.048660576 -0.038288213 0.041785255 -0.024885358 -0.018338576 -0.035590474 0.086768016 0.02917879
0.008956238 -0.025749546 0.037343107 -0.04325046 0.019843316 0.05855554 0.029489573 0.04498431
-0.05775248 0.025215147 0.0029911017 -0.05697058 -0.02691152 -0.044744298 0.05557475 0.092377074
0.07174545 -0.025787642 -0.010715745 0.04516576 -0.029701898 0.032210097 0.02961392 -0.042761836
0.04532147 0.037691083 -0.029331703 -0.018041847 -0.03160101 0.03044157 0.03338915 -0.020137152
-0.03708722 0.05006018 0.032716684 -0.056972828 -0.068402916 0.059058476 -0.0402049 0.05188057
-0.03250875 -0.006169533 -0.03439101 -0.035232134 -0.02381712 0.011462168 0.04660726 0.026118102
0.040299892 0.081855915 0.04970475 0.02587428 0.016254004 -0.039169755 -0.055140037 0.029636305
0.03812467 -0.013317428 0.0823202 0.033383083 0.06465046 0.021544745 0.03858047 -0.044407845
0.054955553 0.042306677 0.04927548 -0.042874847 0.032045774 0.022488771 -0.08198808 0.0010209064
-0.027437055 -0.020569092 -0.03857712 -0.028906442
00000000: 9fb5 b43c 770e 913c 0f39 4dbd bac0 0f3d
00000010: d036 8d3d c4e1 4fbd be6f 8d3d 4558 debc
00000020: a12a 953d 3c0d 5ebd 3680 9b3c fb55 d83c
00000030: f747 1d3d 4e10 953d 91ff 533d 75a3 743d
00000040: 5050 473d 1ad4 1cbd 0427 2b3d 61dc cbbc
00000050: c83a 96bc 51c7 11bd 6eb3 b13d 5c08 ef3c
00000060: 2fbd 123c b6f0 d2bc 16f5 183d 6527 31bd
00000070: 738e a23c efd7 6f3d 1e94 f13c 7841 383d
00000080: dd8d 6cbd ff8f ce3c 5c06 443b fc59 69bd
00000090: 8c75 dcbc cc45 37bd 59a2 633d 3130 bd3d
000000a0: 47ef 923d 9b40 d3bc 1891 2fbc bbff 383d
000000b0: 6551 f3bc bcee 033d e498 f23c 0927 2fbd
000000c0: 01a3 393d f761 1a3d 0a49 f0bc 7fcc 93bc
000000d0: 1070 01bd 9960 f93c 10c3 083d abf6 a4bc
000000e0: c5e8 17bd e70b 4d3d ee01 063d 575c 69bd
000000f0: d416 8cbd 4de7 713d e5ad 24bd b880 543d
00000100: e527 05bd cb29 cabb 96dd 0cbd 924f 10bd
00000110: 1f1c c3bc d1cb 3b3c 41e7 3e3d a1f5 d53c
00000120: 8011 253d 13a4 a73d 3597 4b3d 4cf6 d33c
00000130: 1e27 853c 7770 20bd 85da 61bd d6c7 f23c
00000140: 9d28 1c3d 5731 5abc 7e97 a83d b3bc 083d
00000150: 7667 843d 9b7e b03c 8e06 1e3d 00e5 35bd
00000160: 1319 613d c449 2d3d 16d5 493d 899d 2fbd
00000170: 6e42 033d 5f3a b83c 5ee9 a7bd efcf 853a
00000180: adc3 e0bc 8380 a8bc 0b03 1ebd 34cd ecbc

linear_out.weight f4 [2, 100]
0.20522864 0.33623207 0.4121396 0.102341756 -0.06471874 0.13014087 -0.104368396 -0.23939285
-0.20037743 0.24058254 0.40891936 -0.043463543 0.13193002 0.31190696 -0.16657309 0.052427385
0.08033621 0.07827418 -0.16717714 -0.14257126 -0.08977384 0.060280696 -0.13695352 -0.04141637
-0.101860076 0.046349842 -0.051522896 -0.07699588 0.03915098 0.1710429 0.11916144 -0.0030333465
0.020828635 0.11425115 -0.1589245 0.13182923 -0.10440145 -0.09289079 -0.067245 -0.12744388
0.17472036 -0.08673073 -0.18100937 -0.18257232 -0.036308464 -0.052566733 -0.11734384 0.15333506
-0.108158976 -0.019110655 -0.26784223 -0.045193627 0.14417876 -0.33033124 -0.016884763 -0.060872685
0.14637326 -0.15981834 -0.15811086 0.26081702 -0.07543053 -0.030960057 -0.07266576 0.044196364
0.038031608 -0.11439293 -0.059727535 0.07395261 0.10619724 0.12246582 -0.05701003 0.07600958
0.14690101 -0.093505144 -0.045200735 0.23763351 -0.11854844 -0.22645216 0.089037746 0.0005697052
0.11542452 -0.1709828 -0.031479202 0.42909583 0.32761443 -0.10808415 -0.24247245 0.07855404
-0.06752132 -0.35044312 -0.058658622 -0.1448201 0.15117073 -0.19057266 -0.1541435 -0.07436613
-0.24451122 0.15798685 -0.039611094 -0.22679216 0.19112019 -0.079636514 0.16754314 -0.029600726
-0.06587847 -0.023192398 -0.32517892 -0.12814471 0.023954777 0.11029036 -0.24221599 0.107101284
0.25847647 -0.19309172 0.11213154 -0.026226802 0.3167167 -0.0011380707 -0.049500525 0.08548149
0.1996762 -0.0741048 0.14461224 0.02144985 -0.008181796 -0.036040165 -0.15403414 0.18154135
-0.20804708 0.0780925 0.15873674 -0.1433221 -0.11098629 -0.21699746 0.011788901 0.13756691
0.21646184 0.37990898 0.03473828 -0.073235944 0.25072587 -0.12595554 0.027657816 -0.09553239
-0.20098855 0.06511458 -0.004822214 0.07269679 0.17204845 -0.058779765 0.34214374 -0.2016018
-0.011772145 0.22378613 -0.13587873 0.17195287 -0.07033212 -0.0996682 0.1405362 -0.25611898
0.21044007 0.04165307 -0.013028487 -0.083957605 -0.22985089 -0.014122145 0.124004774 -0.058005806
-0.094704986 -0.04186208 -0.029726157 0.011323672 0.027873823 0.106917955 -0.4506148 -0.27374503
0.10562765 -0.26132882 -0.20917057 -0.29943708 -0.09559809 0.05991834 -0.08106424 -0.11324223
-0.31283987 0.21675104 -0.21564654 -0.23788276 0.15262192 -0.06285348 -0.009040295 0.13190433
0.15597266 -0.35601333 -0.086976364 -0.09878241 0.014718612 0.21364279 -0.3248328 -0.14629166
00000000: 7527 523e 9c26 ac3e f603 d33e 8e98 d13d
00000010: 428b 84bd a643 053e 19bf d5bd 6623 75be
00000020: be2f 4dbe 455b 763e e15d d13e d406 32bd
00000030: aa18 073e 45b2 9f3e 2392 2abe 19be 563d
00000040: 5087 a43d 374e a03d 7c30 2bbe 33fe 11be
00000050: 59db b7bd e4e8 763d 8b3d 0cbe 36a4 29bd
00000060: 049c d0bd 55d9 3d3d ac09 53bd 04b0 9dbd
00000070: c75c 203d df25 2f3e ea0a f43d 1ccb 46bb
00000080: d0a0 aa3c 82fc e93d 1bbd 22be 3efe 063e
00000090: 6dd0 d5bd 873d bebd bfb7 89bd a680 02be
000000a0: e5e9 323e e29f b1bd 855a 39be 3df4 3abe
000000b0: 2fb8 14bd 3750 57bd f851 f0bd de03 1d3e
000000c0: 7482 ddbd f38d 9cbc 9e22 89be f41c 39bd
000000d0: 99a3 133e 2d21 a9be ea51 8abc a355 79bd
000000e0: dfe2 153e 6ba7 23be d0e7 21be cf89 853e
000000f0: 527b 9abd f29f fdbc c9d1 94bd 3f07 353d
00000100: 08c7 1b3d d746 eabd dca4 74bd 7774 973d
00000110: f07d d93d 5ccf fa3d 5983 69bd e9aa 9b3d
00000120: 386d 163e a07f bfbd 6824 39bd 3356 733e
00000130: 86c9 f2bd 13e3 67be 6c59 b63d 4558 153a
00000140: b163 ec3d 1d16 2fbe 56f0 00bd 73b2 db3e
00000150: 14bd a73e 395b ddbd b34a 78be f1e0 a03d
00000160: 9e48 8abd 486d b3be 0644 70bd b84b 14be
00000170: 80cc 1a3e 7b25 43be cbd7 1dbe 454d 98bd
00000180: 2661 7abe 4ec7 213e 3e3f 22bd 343c 68be
00000190: 03b5 433e 7818 a3bd 6e90 2b3e 397d f2bc
000001a0: 4beb 86bd fcfd bdbc da7d a6be 5e38 03be
000001b0: cf3c c43c eadf e13d 7807 78be eb57 db3d
000001c0: 0757 843e d6b9 45be 39a5 e53d 97d9 d6bc
000001d0: b128 a23e 512b 95ba 10c1 4abd eb10 af3d
000001e0: eb77 4c3e 42c4 97bd 3b15 143e 99b7 af3c
000001f0: f10c 06bc da9e 13bd 20bb 1dbe fae5 393e
00000200: 4b0a 55be f6ee 9f3d e28b 223e 07c3 12be
00000210: c84c e3bd 9534 5ebe 3c26 413c 57de 0c3e
00000220: 2ca8 5d3e 6e83 c23e ba49 0e3d bafc 95bd
00000230: 245f 803e 7dfa 00be a592 e23c 7ca6 c3bd
00000240: f1cf 4dbe cb5a 853d aa03 9ebb 0ee2 943d
00000250: 782d 303e 0dc3 70bd 772d af3e b470 4ebe
00000260: f4df 40bc 3128 653e cb23 0bbe 6a14 303e
00000270: 490a 90bd d71e ccbd b9e8 0f3e 0722 83be
00000280: 9a7d 573e 699c 2a3d 6f75 55bc f7f1 abbd
00000290: 085e 6bbe 9260 67bc 37f6 fd3d 7f97 6dbd
000002a0: b0f4 c1bd 9377 2bbd 4584 f3bc ec86 393c
000002b0: a557 e43c cdf7 da3d fcb6 e6be 4f28 8cbe
000002c0: 4f53 d83d e4cc 85be cf30 56be d14f 99be
000002d0: eec8 c3bd ef6c 753d 0205 a6bd 8beb e7bd
000002e0: 8c2c a0be fcf3 5d3e 72d2 5cbe 8a97 73be
000002f0: ec48 1c3e 53b9 80bd bf1d 14bc ee11 073e
00000300: 4cb7 1f3e 6147 b6be aa20 b2bd 6f4e cabd
00000310: 5526 713c 2dc5 5a3e 7c50 a6be 7bcd 15be

linear_out.bias f4 [2]
0.0028473232 -0.0064921356
00000000: 289a 3a3b fbbb d4bb

layers.0.weight f4 [100, 100]
-0.0342649 -0.09546587 0.11447606 0.03788529 0.07119044 0.095108055 0.18646553 -0.09445682
0.12008959 -0.07310932 -0.08568304 -0.15037309 0.11662913 -0.040618945 0.17631891 0.20195623
0.1405581 0.019878741 0.13022412 0.13104793 -0.2321488 -0.08403959 0.111360654 -0.008095593
0.0767111 -0.10105061 -0.057119835 0.019422209 -0.122369274 0.07520457 -0.18901367 -0.08224604
-0.1783864 0.11638443 0.24998961 0.015127757 0.08334089 -0.11931842 0.1325713 0.055461884
0.035287328 0.18449701 -0.0002936082 -0.008584499 0.16091211 0.053506497 -0.21307935 0.0043496517
0.035534304 0.12039013 -0.032468136 0.09883434 -0.1089963 0.08853834 0.07656572 -0.15890114
0.17239755 -0.1329297 -0.024268324 -0.09004029 -0.031729948 -0.062154416 0.04215219 0.10849473
0.0730594 -0.08964816 -0.017123424 -0.25394145 -0.030472318 -0.14257202 0.13954887 -0.062250443
0.07218358 0.050974593 -0.06403682 0.013976981 0.11040093 -0.026401082 0.044186093 -0.1659912
-0.095948435 0.043690465 0.042888854 0.06701578 -0.07704004 -0.043804068 -0.029249895 -0.07609534
0.05075654 -0.0075622923 0.22193345 -0.03650937 -0.09561565 -0.027145082 -0.085216865 -0.111617364
0.06858903 -0.12734647 -0.1326443 -0.0030855949 -0.052478544 0.13444275 -0.08679055 0.0044532353
0.11429586 -0.04981359 0.17395936 0.07161957 -0.050521426 -0.005233267 -0.010607101 0.057399966
0.28095585 -5.283957e-05 -0.08833895 0.058193978 -0.16855547 -0.1315665 0.110929385 -0.009623541
0.24309096 0.13722508 0.11639024 -0.11506618 0.16150326 0.05845257 -0.018447781 -0.18683457
-0.0029970163 0.1627834 -0.08871621 -0.00622947 -0.17269416 -0.15093829 -0.09723928 -0.070577316
-0.06057561 -0.028093563 0.1835711 -0.05984466 0.04227213 0.11798802 0.024514653 0.083716884
-0.09008883 0.12997341 -0.11507394 -0.048264615 0.14500299 -0.086077556 -0.008145701 -0.033991907
-0.03607152 -0.064577736 0.08010273 -0.044260528 -0.100517586 0.19236143 -0.16139294 -0.05545864
-0.12635446 0.059591364 0.09148307 -0.21766639 0.0039828047 -0.1521355 -0.017929895 -0.090773314
0.0014954132 -0.024778968 -0.13900281 0.17233384 0.20655893 0.10671368 0.09757794 -0.046986904
0.08385463 -0.015085642 0.13074997 -0.06661636 -0.20609203 0.06677911 0.14371522 -0.07715007
-0.201124 -0.09970767 -0.034021422 -0.07434355 0.025365496 -0.05640337 0.07127358 -0.019427124
0.011998963 -0.02995413 -0.29008332 -0.17905395 -0.2612545 0.19869952 0.057895478 0.12824157
-0.124294624 -0.037043426 0.057455204 0.015208051 -0.054743342 0.0794146 -0.15769352 -0.06825742
-0.07560692 0.14298175 -0.07898744 0.040873263 -0.0011541581 -0.019841673 -0.05012003 0.03259834
-0.109246284 -0.0050232247 0.055350356 -0.0344352 -0.031371232 -0.025065595 -0.08159936 -0.023020012
0.07382627 -0.07350162 -0.14729095 -0.040987972 0.028739251 0.05119078 0.06937262 0.06431618
0.21034281 0.027968662 -0.0024484047 0.21581753 0.073521875 0.06350227 0.11731201 -0.0054775896
0.11221186 0.028651897 -0.2538512 0.10986862 0.04734534 -0.10966095 -0.047661122 0.09278714
-0.0741737 0.05164525 -0.10857766 -0.12754236 0.08730764 -0.04511104 -0.0613213 -0.014136901
00000000: 5a59 0cbd 9c83 c3bd 6d72 ea3d 9b2d 1b3d
00000010: 4bcc 913d 03c8 c23d d2f0 3e3e 9472 c1bd
00000020: 88f1 f53d 57ba 95bd 977a afbd 67fb 19be
00000030: 41db ee3d 0d60 26bd f28c 343e 9dcd 4e3e
00000040: 76ee 0f3e bed8 a23c 7959 053e 6e31 063e
00000050: 6ab8 6dbe f31c acbd 0e11 e43d 61a3 04bc
00000060: b61a 9d3d 9ff3 cebd 7df6 69bd 531b 9f3c
00000070: be9c fabd db04 9a3d cd8c 41be 9d70 a8bd
00000080: edaa 36be f65a ee3d 47fd 7f3e 69da 773c
00000090: a1ae aa3d 375d f4bd c5c0 073e 002c 633d
000000a0: 7289 103d c9ec 3c3e 6def 99b9 00a6 0cbc
000000b0: 25c6 243e a129 5b3d 7931 5abe 8687 8e3b
000000c0: 6b8c 113d 1a8f f63d 4ffd 04bd a969 ca3d
000000d0: 7439 dfbd 9753 b53d 7dce 9c3d fbb6 22be
000000e0: fc88 303e b91e 08be 5dce c6bc 0b67 b8bd
000000f0: 43f7 01bd a195 7ebd c6a7 2c3d 7c32 de3d
00000100: 2ba0 953d 7499 b7bd 6c46 8cbc 9d04 82be
00000110: 15a1 f9bc 66fe 11be e6e5 0e3e 52fa 7ebd
00000120: fcd4 933d bcca 503d bc25 83bd b5ff 643c
00000130: e219 e23d 1547 d8bc 7afc 343d 99f9 29be
00000140: 9d80 c4bd c6f4 323d 39ac 2f3d 923f 893d
00000150: 2bc7 9dbd e56b 33bd 7a9d efbc e0d7 9bbd
00000160: 17e6 4f3d 1bcd f7bb 8642 633e d98a 15bd
00000170: 23d2 c3bd 5d5f debc 2e86 aebd a597 e4bd
00000180: 6878 8c3d 1d67 02be e8d3 07be b137 4abb
00000190: bef3 56bd 5cab 093e 3ebf b1bd 72ec 913b
000001a0: f313 ea3d 5609 4cbd 6722 323e 48ad 923d
000001b0: 8eef 4ebd d37b abbb 68c9 2dbc 3a1c 6b3d
000001c0: 72d9 8f3e 0ea0 5db8 0deb b4bd cf5c 6e3d
000001d0: ce99 2cbe 5eb9 06be f22e e33d 0eac 1dbc
000001e0: d6ec 783e bb84 0c3e 025e ee3d d1a7 ebbd
000001f0: 1c61 253e f66b 6f3d cd1f 97bc 9051 3fbe
00000200: 9769 44bb b1b0 263e d8b0 b5bd 9520 ccbb
00000210: bdd6 30be 918f 1abe 6325 c7bd d78a 90bd
00000220: 211e 78bd 7924 e6bc 10fa 3b3e ad1f 75bd
00000230: 8a25 2d3d b4a3 f13d f4d2 c83c c273 ab3d
00000240: 7e80 b8bd c017 053e e3ab ebbd 1eb1 45bd
00000250: aa7b 143e 6e49 b0bd 8c75 05bc 193b 0bbd
00000260: bbbf 13bd 5541 84bd e60c a43d 874a 35bd
00000270: 2adc cdbd 65fa 443e 3144 25be 9928 63bd
00000280: 1063 01be 1316 743d 7a5b bb3d f0e3 5ebe
00000290: 3082 823b 69c9 1bbe b7e1 92bc 5ce7 b9bd
000002a0: be01 c43a 43fd cabc c156 0ebe 4878 303e
000002b0: 2f84 533e b48c da3d f1d6 c73d 5775 40bd
000002c0: fabb ab3d c529 77bc 52e3 053e 286e 88bd
000002d0: ca09 53be 7cc3 883d 152a 133e db00 9ebd
000002e0: 73f3 4dbe 8933 ccbd 0c5a 0bbd 6e41 98bd
000002f0: 4dcb cf3c 3807 67bd e2f7 913d a225 9fbc
00000300: 4c97 443c 5d62 f5bc cd85 94be eb59 37be
00000310: 26c3 85be e377 4b3e cf23 6d3d c251 033e
00000320: 2e8e febd d9ba 17bd 2656 6b3d 302b 793c
00000330: 8e3a 60bd 1fa4 a23d 697a 21be 8cca 8bbd
00000340: cdd7 9abd cf69 123e 2bc4 a1bd b96a 273d
00000350: 1f47 97ba 018b a2bc a94a 4dbd d685 053d
00000360: 84bc dfbd dd99 a4bb 0eb7 623d ed0b 0dbd
00000370: 1f7f 00bd 5d56 cdbc 911d a7bd 7794 bcbc
00000380: 3a32 973d 0488 96bd 70d3 16be 01e3 27bd
00000390: 946e eb3c 6cad 513d 3b13 8e3d 34b8 833d
000003a0: 1b64 573e 891e e53c 6a75 20bb 45ff 5c3e
000003b0: a392 963d 7a0d 823d 4741 f03d 5a7d b3bb
000003c0: 55cf e53d 62b7 ea3c c9f8 81be cd02 e13d
000003d0: 30ed 413d ec95 e0bd 4f38 43bd 2f07 be3d
000003e0: 61e8 97bd f889 533d f75d debd 779a 02be
000003f0: 59ce b23d 5bc6 38bd 0b2c 7bbd 769e 67bc

layers.0.bias f4 [100]
0.050196312 0.033260223 -0.03231012 -0.014428468 -0.0617746 0.049815703 -0.032246765 0.025546985
-0.054552764 0.03116728 -0.028745202 -0.00084010273 0.04098177 0.052205563 -0.07175264 -0.069239154
0.022090303 -0.015512985 0.020821601 -0.015086963 -0.03561206 0.019428138 -0.064307906 -0.06614365
-0.005356106 0.029298104 -0.06199661 0.0067407084 -0.029240634 -0.048814964 -0.032972477 0.036024526
-0.020134712 -0.040447157 0.02633175 -0.040997572 0.031449128 -0.01653172 0.029714072 -0.05329129
0.064308666 -0.022551918 -0.03747839 -0.03815657 -0.00967952 -0.07673358 0.046685863 -0.012746406
0.044681884 -0.0007641766 -0.030977882 -0.018863916 0.026728205 -0.035809897 0.030584924 0.053024393
0.003212376 -0.018929489 0.034568883 0.016432278 -0.026838746 -0.026637865 -0.027216036 -0.05851474
0.02309436 -0.063193664 -0.024624798 0.049735013 -0.020165283 -0.029408734 -0.008104994 -0.07044493
0.04301403 -0.027468784 -0.0438156 0.04326438 0.04069395 0.05557599 -0.018224472 0.007930305
0.033454094 0.01891662 0.025730299 -0.029581139 -0.012834689 0.03805835 -0.020376932 0.021173395
0.03552866 -0.021378657 0.072425775 0.053699646 0.01316982 -0.0147451125 0.014960745 -0.017384104
0.02468507 -0.009785928 -0.035225958 -0.025240276
00000000: a69a 4d3d df3b 083d 9e57 04bd 6265 6cbc
00000010: 5d07 7dbd 8d0b 4c3d 2f15 04bd e947 d13c
00000020: b872 5fbd 8652 ff3c 0f7b ebbc 573a 5cba
00000030: 80dc 273d 80d5 553d 0cf3 92bd 42cd 8dbd
00000040: b9f6 b43c 2d2a 7ebc 1092 aa3c 4f2f 77bc
00000050: f4dd 11bd c227 9f3c ddb3 83bd 5276 87bd
00000060: 4682 afbb 9402 f03c 28f0 7dbd 29e1 dc3b
00000070: 0e8a efbc 33f2 47bd 260e 07bd 748e 133d
00000080: 8df1 a4bc ebab 25bd afb5 d73c 12ed 27bd
00000090: cdd0 003d 886d 87bc ed6a f33c f847 5abd
000000a0: 43b4 833d cdbe b8bc f182 19bd 104a 1cbd
000000b0: d996 1ebc 7f26 9dbd ad39 3f3d 4dd6 50bc
000000c0: 5a04 373d 0653 48ba 54c5 fdbc 8088 9abc
000000d0: 1cf5 da3c 66ad 12bd 3c8d fa3c 1b30 593d
000000e0: ba86 523b 0412 9bbc 1a98 0d3d fc9c 863c
000000f0: eedc dbbc a737 dabc 2af4 debc 27ad 6fbd
00000100: 6230 bd3c ae6b 81bd f2b9 c9bc f1b6 4b3d
00000110: aa31 a5bc 96ea f0bc cfca 04bc 6e45 90bd
00000120: 7b2f 303d 3706 e1bc fd77 33bd fe35 313d
00000130: b3ae 263d a6a3 633d 7d4b 95bc 1cee 013c
00000140: 2907 093d 07f7 9a3c 59c8 d23c 2554 f2bc
00000150: 9648 52bc 13e3 1b3d 86ed a6bc d473 ad3c
00000160: 8086 113d 4b22 afbc f753 943d 29f4 5b3d
00000170: 3bc6 573c 7c95 71bc ea1d 753c 1c69 8ebc
00000180: 5838 ca3c 2855 20bc 1849 10bd b2c4 cebc

layers.1.weight f4 [100, 100]
0.0814409 -0.14504318 0.08308772 0.06237858 0.13185386 -0.052349787 0.09642123 -0.047793344
-0.14341491 0.08036728 -0.06781733 0.20409404 0.20512328 0.08072341 0.05297553 -0.0043663085
-0.13980646 -0.09870201 -0.10895885 0.14213005 0.01461378 -0.116515554 0.19187224 -0.14602633
0.03843939 -0.00047022433 0.046942167 0.13401629 0.09076453 -0.05627841 -0.21446392 -0.17370787
-0.054928858 0.051253583 -0.16974625 0.24814533 0.11461137 -0.048582923 0.028566802 0.024130683
-0.12054171 -0.02064701 0.118662015 0.15652063 -0.23570107 0.10879853 0.17357492 0.053219218
0.1546966 0.037933942 0.20521097 0.083039805 0.058383055 0.13244323 0.032987963 0.14879046
-0.08128752 -0.061628867 0.011873359 0.037865557 -0.0024735888 0.07220004 0.006032567 -0.09197371
0.009390097 0.08211358 0.034810793 0.016527984 0.021850547 -0.15763526 0.02319048 -0.048252773
-0.054417513 -0.1928022 -0.0030416984 -0.014586893 -0.033596724 -0.21179803 -0.0967719 0.14700826
0.17807756 0.056105386 -0.11011762 0.038075946 0.13662007 0.15115002 0.109619066 0.0048908144
0.05091503 0.022533963 -0.25134805 -0.012076655 -9.585861e-05 -0.06963015 -0.11325036 -0.05083872
0.023929369 0.08224102 -0.0026188414 0.086151965 -0.03971236 0.14528878 -0.053169005 -0.10650971
-0.044235885 -0.03970676 -0.12626302 0.04397641 0.17883037 0.10541329 0.2727726 -0.01119683
0.0440881 -0.08452532 0.04290415 -0.046336997 0.12108362 -0.09048998 0.04122344 0.11278706
0.15783358 0.008062474 0.03901089 0.015996618 0.20488365 0.05511013 0.11416495 -0.18433057
-0.095521405 -0.07474388 0.30911973 -0.052315135 -0.013416659 -0.055732206 -0.03752397 -0.10306535
0.11717322 -0.088633224 -0.02291092 -0.049580216 0.11984136 -0.04107557 -0.10498072 0.10135529
0.05195273 0.042144563 0.046405893 0.08550324 -0.12272201 0.02628896 0.0031816948 -0.1449892
0.04971038 -0.03107146 -0.14112207 -0.00880565 0.11673521 -0.00079891004 -0.12757815 0.025906667
0.06951941 0.016023016 0.027756555 -0.029385034 -0.2867176 -0.034160126 0.18290289 0.019865112
-0.16169769 0.04488571 -0.22696628 -0.07087907 -0.17311314 0.04863617 0.015531578 -0.09288822
-0.13121663 -0.0101679135 0.20001608 -0.081852116 -0.05025906 -0.08473709 -0.037722837 0.12683284
0.095607154 0.15494393 0.23568122 -0.027424049 -0.028351035 0.08657574 -0.018401863 0.1296423
-0.19801433 0.13248436 0.12600462 -0.09240173 0.012382062 0.078536764 0.11141092 0.04178602
-0.17859939 0.0716906 -0.18530545 -0.12300377 0.016486933 0.074384056 0.089106925 0.02474694
0.13397974 0.109703876 0.14352226 0.013033705 -0.08442465 -0.115798384 0.04170431 -0.066841185
-0.022170726 -0.03753725 -0.119652696 0.015371028 -0.03274544 -0.025220469 0.025852785 0.01048849
0.019648539 -0.089358605 0.0056931907 -0.025792439 0.06570158 -0.0557538 -0.05847321 0.151876
0.15764338 0.052208006 -0.01355488 -0.03040908 -0.079080276 -0.12507153 0.0035740463 -0.049885523
-0.022330794 -0.10214872 -0.10326875 0.15539026 -0.025356146 0.0869207 0.15466979 0.084813975
0.0208863 0.011692173 0.06955366 0.19214965 0.13593273 -0.0039519994 0.10930245 -0.12759057
00000000: 7dca a63d 3386 14be e529 aa3d af80 7f3d
00000010: b304 073e bb6c 56bd 7e78 c53d f4c2 43bd
00000020: 5cdb 12be 9a97 a43d d0e3 8abd 07fe 503e
00000030: d60b 523e 5152 a53d dffc 583d 4013 8fbb
00000040: 6d29 0fbe 4824 cabd d125 dfbd 8a8a 113e
00000050: a36e 6f3c b59f eebd 287a 443e ed87 15be
00000060: 9f72 1d3d 7188 f6b9 6e46 403d 913b 093e
00000070: c1e2 b93d 3184 66bd 6e9c 5bbe 7ae0 31be
00000080: 15fd 60bd 47ef 513d f6d1 2dbe cf19 7e3e
00000090: 5eb9 ea3d e3fe 46bd ed04 ea3c b6ad c53c
000000a0: 92de f6bd eb23 a9bc 1205 f33d f246 203e
000000b0: 9f5b 71be c4d1 de3d a0bd 313e 65fc 593d
000000c0: c968 1e3e 9f60 1b3d d322 523e c610 aa3d
000000d0: 1223 6f3d 339f 073e 631e 073d 875c 183e
000000e0: 127a a6bd 8d6e 7cbd 7a88 423c ea18 1b3d
000000f0: ef1b 22bb 9ddd 933d d7ac c53b b65c bcbd
00000100: ecd8 193c 2a2b a83d c395 0e3d b265 873c
00000110: ebff b23c 236b 21be f6f9 bd3c b3a4 45bd
00000120: e6e4 5ebd f16d 45be 3b57 47bb ddfd 6ebc
00000130: b89c 09bd 95e1 58be 5930 c6bd 5589 163e
00000140: f759 363e c3ce 653d 5985 e1bd 86f5 1b3d
00000150: 22e6 0b3e 12c7 1a3e f67f e03d 2043 a03b
00000160: 478c 503d 2599 b83c b1b0 80be 2add 45bc
00000170: b307 c9b8 419a 8ebd ceef e7bd 433c 50bd
00000180: 8607 c43c fb6d a83d dea0 2bbb 7170 b03d
00000190: 6da9 22bd 95c6 143e bec7 59bd c321 dabd
000001a0: b030 35bd 8ea3 22bd 184b 01be 9c20 343d
000001b0: 4f1f 373e ece2 d73d daa8 8b3e e972 37bc
000001c0: b995 343d 9c1b adbd 43bc 2f3d ddcb 3dbd
000001d0: b0fa f73d d052 b9bd e9d9 283d e7fc e63d
000001e0: 209f 213e 7818 043c e2c9 1f3d 570b 833c
000001f0: 05cd 513e 29bb 613d 50cf e93d 27c1 3cbe
00000200: baa0 c3bd 5213 99bd f144 9e3e 6548 56bd
00000210: 8cd1 5bbc 7447 64bd bcb2 19bd ed13 d3bd
00000220: 83f8 ef3d 5685 b5bd afaf bbbc a014 4bbd
00000230: 636f f53d db3e 28bd 2200 d7bd 5d93 cf3d
00000240: 63cc 543d c79f 2c3d 1b14 3e3d 531c af3d
00000250: ad55 fbbd f25b d73c fb83 503b 0d78 14be
00000260: 1d9d 4b3d 9389 febc 4e82 10be 9345 10bc
00000270: df12 ef3d f26d 51ba d9a3 02be 383a d43c
00000280: 3160 8e3d b342 833c b761 e33c e2b8 f0bc
00000290: a6cc 92be 7deb 0bbd e54a 3b3e 29bc a23c
000002a0: 1494 25be 14da 373d d969 68be 0c29 91bd
000002b0: 9244 31be b836 473d 2978 7e3c 2e3c bebd
000002c0: a75d 06be 5297 26bc 04d1 4c3e 15a2 a7bd
000002d0: 72dc 4dbd a48a adbd 4383 1abd 78e0 013e
000002e0: afcd c33d 9fa9 1e3e 6b56 713e 66a8 e0bc
000002f0: 6e40 e8bc 9f4e b13d 81bf 96bc f3c0 043e
00000300: 45c4 4abe fba9 073e 5b07 013e 1e3d bdbd
00000310: 22de 4a3c e2d7 a03d 692b e43d d127 2b3d
00000320: c2e2 36be 85d2 923d b6c0 3dbe 67e9 fbbd
00000330: 9b0f 873c ab56 983d b17d b63d 18ba ca3c
00000340: fc31 093e 6dac e03d 80f7 123e 528b 553c
00000350: d5e6 acbd b427 edbd 23d2 2a3d 08e4 88bd
00000360: 629f b5bc a9c0 19bd 790c f5bd c4d6 7b3c
00000370: 1520 06bd 289b cebc 38c9 d33c ead7 2b3c
00000380: f9f5 a03c a501 b7bd f28d ba3b aa4a d3bc
00000390: 8d8e 863d 195e 64bd 9b81 6fbd 6285 1b3e
000003a0: 446d 213e 10d8 553d 4a15 5ebc 771c f9bc
000003b0: d7f4 a1bd c012 00be 8c3a 6a3b c354 4cbd
000003c0: 12ef b6bc 5933 d1bd 917e d3bd a01e 1f3e
000003d0: b1b7 cfbc 7b03 b23d c261 1e3e f3b2 ad3d
000003e0: bf19 ab3c 8790 3f3c 2672 8e3d e1c2 443e
000003f0: f331 0b3e c67f 81bb f7d9 df3d 1aa7 02be

layers.1.bias f4 [100]
-0.026894093 -0.0341368 -0.029276513 -0.0416613 -0.015533008 0.016009757 -0.007930172 0.008421943
-0.029310782 -0.00849411 0.043466207 0.02056489 0.018265419 -0.023365065 0.017572042 -0.01493644
0.013228027 0.001889748 -0.01935097 -0.045710407 0.048909895 0.006599527 0.015017603 0.04836645
0.021881197 -0.0019103824 -0.010061311 -0.010654316 -0.014820054 0.029115826 -0.024421128 0.03457853
0.027352069 0.003914529 -0.02092971 0.023162343 -0.050126728 -0.00802025 0.0054354193 0.014544214
0.0139046265 0.0063157324 0.035449658 -0.016102862 0.02981215 -0.02185259 -0.023583032 0.071477294
-0.01668337 0.020525362 0.028376628 -7.0188995e-05 -0.014826381 0.002033356 -0.0431232 0.009245816
0.069325686 0.0097973365 -0.03931204 0.02748423 0.020482913 0.0512729 -0.019205237 -0.013022804
0.011490564 0.007507401 -0.020728728 0.01675807 0.06038402 0.029560542 -0.028710568 0.016031392
-0.0260929 -0.026677605 0.030622253 -0.036527384 -0.02735811 -0.032279953 0.02298977 -0.0020476587
0.032173418 -0.06230771 0.024610441 -0.04014986 -0.039667528 -0.0038837409 0.011486151 -0.008776424
-0.023093894 0.035269413 -0.037210062 -0.018843783 0.021649586 0.009250689 -0.012235925 0.029637506
-0.029817967 0.015008603 0.029261991 -0.016771859
00000000: 0051 dcbc 07d3 0bbd 4cd5 efbc 0aa5 2abd
00000010: 287e 7ebc e526 833c 8ded 01bc 30fc 093c
00000020: 2a1d f0bc e12a 0bbc 9f09 323d b377 a83c
00000030: 5ca1 953c 1868 bfbc 3ef3 8f3c f8b7 74bc
00000040: 5eba 583c 6cb1 f73a ed85 9ebc d63a 3bbd
00000050: be55 483d d840 d83b 640c 763c e61b 463d
00000060: 3240 b33c cc65 faba 32d8 24bc 718f 2ebc
00000070: d0cf 72bc 5084 ee3c d10e c8bc 37a2 0d3d
00000080: 7211 e03c 7345 803b c874 abbc f4be bd3c
00000090: af51 4dbd 5e67 03bc 9a1b b23b db4a 6e3c
000000a0: 3bd0 633c 34f4 ce3b a933 113d 26ea 83bc
000000b0: 9c38 f43c 3404 b3bc 3431 c1bc b062 923d
000000c0: 90ab 88bc ce24 a83c 1a76 e83c 6e32 93b8
000000d0: 59ea 72bc 0e42 053b f4a1 30bd c37b 173c
000000e0: a0fa 8d3d 0285 203c a905 21bd 9c26 e13c
000000f0: c8cb a73c 8803 523d 4d54 9dbc 995d 55bc
00000100: eb42 3c3c a500 f63b 4bcf a9bc 3848 893c
00000110: 3c55 773d f328 f23c 6d32 ebbc 4454 833c
00000120: c7c0 d5bc fe8a dabc 85db fa3c bd9d 15bd
00000130: 1d1e e0bc fc37 04bd 0b55 bc3c 0332 06bb
00000140: 46c8 033d 5f36 7fbd d69b c93c 2e74 24bd
00000150: 6b7a 22bd 5c86 7ebb 6930 3c3c feca 0fbc
00000160: 682f bdbc a976 103d 9469 18bd 475e 9abc
00000170: 795a b13c 3490 173c 3079 48bc 5bca f23c
00000180: cf44 f4bc a5e6 753c d8b6 ef3c 2365 89bc

layers.2.weight f4 [100, 100]
0.09823859 -0.01062206 0.002590936 0.0833664 0.10315886 0.04256661 0.011774589 -0.064267285
-0.10682565 0.07142091 -0.016321408 0.019221628 -0.0035503067 -0.18823522 -0.051614933 0.16987815
-0.16627152 0.14623915 0.008549138 -0.094329044 -0.12144205 -0.065647185 -0.20684323 0.008318111
-0.11079401 0.17947395 0.08704568 0.028443547 -0.024483643 -0.05317186 0.06477809 0.0014702827
0.12820339 0.07642561 0.03279061 0.07523491 -0.03630619 0.20059565 0.06567546 -0.047741465
-0.0029101702 -0.017266389 -0.034670655 -0.2624401 -0.026404694 -0.01321353 0.22627726 0.061325863
0.047284532 0.14013882 0.31528628 0.3616329 -0.057688754 0.07220984 -0.10464661 0.08450166
-0.0017973471 -0.088581115 -0.2376426 -0.117208354 -0.00046571693 -0.12347474 0.03720994 0.020796234
0.059836157 0.046195094 0.027557712 -0.035497848 -0.25238845 0.14568795 0.10229478 -0.049515195
0.007766052 -0.18699045 0.21602401 0.052917503 0.007226575 -0.030962544 0.02328495 0.06173491
0.03121592 0.068387315 -0.028239325 -0.013890718 0.08020912 0.006592366 0.019262925 -0.15461484
-0.07472983 0.10144238 0.03861219 -0.03202883 -0.005746434 0.060397424 0.039778687 0.08193185
0.10545509 -0.015500977 0.12050689 -0.007914275 -0.051140416 0.027097035 0.21186256 0.03555612
0.0833194 0.20189911 -0.0007946332 0.06240867 -0.06274732 0.10688607 -0.074073 -0.09267058
-0.074289925 0.00024978304 -0.023669742 -0.078137286 -0.051683016 -0.08501019 0.14385241 0.09145123
-0.02893631 0.19981113 -0.0801054 -0.12727803 -0.0074152458 -0.049669866 0.07195998 0.035292994
0.022572238 0.030557776 0.12343256 -0.10467777 0.105626345 -0.0021729213 0.16309796 -0.08968064
-0.06949518 -0.0733779 0.0756502 -0.071887754 0.045371104 0.087510474 -0.055276267 0.030466126
-0.060426634 -0.109405294 -0.018695146 0.14838992 -0.036658406 -0.066018865 -0.078150444 0.022102548
-0.12946582 -0.060672786 -0.06369363 -0.100704916 -0.020306177 0.0035727017 -0.16754879 -0.113890685
0.017935805 -0.04129389 0.25195467 0.04843849 -0.09341097 -0.03286823 0.116796486 -0.13915204
0.05950991 0.09949992 -0.04628116 0.022795701 0.0066595282 0.040971387 -0.11168367 -0.011358465
-0.046297062 -0.16610433 0.05250304 -0.0019605977 0.076256715 -0.005761922 -0.10381908 -0.018291803
-0.048240997 0.0631719 -0.0019138791 0.056158323 -0.15966545 -0.083659165 -0.16790684 0.101058654
0.060308404 0.07314329 -0.09703619 0.06727641 0.03813624 0.024059232 -0.04762842 0.058917798
-0.15653832 0.24608628 -0.01767534 -0.04025586 0.13553034 -0.011008746 -0.046748135 -0.046263874
0.112500794 -0.046476744 -0.14328186 -0.014660625 0.06371773 0.15310344 -0.005112065 -0.12189821
0.09895777 -0.031191338 0.002128685 -0.030887393 -0.046791755 -0.016643288 -0.07611294 0.097884
-0.17450584 0.2044352 -0.00877071 0.10636599 -0.011469759 0.25107086 0.0031759166 -0.06575166
0.0015071543 0.059566244 -0.08402082 -0.0037263858 -0.062369674 -0.29105407 -0.07398986 0.05075586
-0.028896967 0.16422011 0.04523533 0.17454237 0.0062800366 0.08406673 -0.0672023 0.037729632
0.11043665 0.08356623 -0.09496668 -0.10604422 -0.089822926 -0.060945157 0.13629542 0.17777456
00000000: 5031 c93d 2608 2ebc b1cc 293b 01bc aa3d
00000010: f444 d33d 535a 2e3d 35ea 403c 919e 83bd
00000020: 68c7 dabd 2045 923d 79b4 85bc ad76 9d3c
00000030: 43ac 68bb bcc0 40be 2e6a 53bd 8af4 2d3e
00000040: 1543 2abe b7bf 153e af11 0c3c 962f c1bd
00000050: 9cb6 f8bd 0872 86bd b6ce 53be b048 083c
00000060: f8e7 e2bd 05c8 373e 0145 b23d 7102 e93c
00000070: ec91 c8bc bcca 59bd 60aa 843d 80b6 c03a
00000080: c047 033e 0885 9c3d 724f 063d c314 9a3d
00000090: cdb5 14bd f268 4d3e db80 863d 8e8c 43bd
000000a0: 8eb8 3ebb 3e72 8dbc d102 0ebd 8c5e 86be
000000b0: a84e d8bc 907d 58bc 3ab5 673e d430 7b3d
000000c0: 6dad 413d 8d80 0f3e 346d a13e f327 b93e
000000d0: 0b4b 6cbd c1e2 933d f650 d6bd 350f ad3d
000000e0: f694 ebba 046a b5bd 9558 73be ef0a f0bd
000000f0: 782b f4b9 53e0 fcbd 7369 183d dd5c aa3c
00000100: c216 753d 1137 3d3d b6c0 e13c 3166 11bd
00000110: 0f39 81be 392f 153e ed7f d13d 72d0 4abd
00000120: 5e7a fe3b 6d7a 3fbe 6635 5d3e 06c0 583d
00000130: e8cc ec3b 29a5 fdbc 14c0 be3c bfdd 7c3d
00000140: 87b8 ff3c a60e 8c3d 2856 e7bc e595 63bc
00000150: ae44 a43d c604 d83b 48cd 9d3c 5a53 1ebe
00000160: f40b 99bd 06c1 cf3d d127 1e3d aa30 03bd
00000170: 954c bcbb 4a63 773d faee 223d e3cb a73d
00000180: d7f8 d73d cff7 7dbc 51cc f63d e0aa 01bc
00000190: 9d78 51bd 9afa dd3c 80f2 583e 4ba3 113d
000001a0: 5da3 aa3d a4be 4e3e ee4e 50ba 3ca0 7f3d
000001b0: ab81 80bd 15e7 da3d 96b3 97bd 13ca bdbd
000001c0: 5125 98bd 50f5 8239 0ce7 c1bc 7106 a0bd
000001d0: 92b1 53bd d319 aebd 0c4e 133e c84a bb3d
000001e0: d70b edbc 4a9b 4c3e 4d0e a4bd 2c55 02be
000001f0: 97fb f2bb a172 4bbd c15f 933d 638f 103d
00000200: 6ae9 b83c 4d54 fa3c 36ca fc3d 4c61 d6bd
00000210: a052 d83d 9267 0ebb 2703 273e 7caa b7bd
00000220: 7d53 8ebd 2747 96bd 7eee 9a3d e339 93bd
00000230: 0dd7 393d b138 b33d 5e69 62bd 1994 f93c
00000240: eb81 77bd e20f e0bd 9026 99bc 87f3 173e
00000250: 2027 16bd e634 87bd 570d a0bd 6710 b53c
00000260: b092 04be 0784 78bd ce71 82bd 613e cebd
00000270: 2459 a6bc fd23 6a3b e991 2bbe 853f e9bd
00000280: 1cee 923c c823 29bd 3400 813e 7067 463d
00000290: 404e bfbd d6a0 06bd ff32 ef3d df7d 0ebe
000002a0: aac0 733d 9dc6 cb3d 5091 3dbd 0dbe ba3c
000002b0: 2c38 da3b 9dd1 273d 68ba e4bd db18 3abc
000002c0: fda1 3dbd 4117 2abe 6d0d 573d 5f7d 00bb
000002d0: 7b2c 9c3d 81ce bcbb 199f d4bd b1d8 95bc
000002e0: 5a98 45bd 4560 813d 20db faba 4506 663d
000002f0: 577f 23be 7f55 abbd c5ef 2bbe d7f7 ce3d
00000300: f205 773d 26cc 953d e9ba c6bd 37c8 893d
00000310: bf34 1c3d de17 c53c 0516 43bd ca53 713d
00000320: 954b 20be 0bfe 7b3e e0cb 90bc 54e3 24bd
00000330: 77c8 0a3e 075e 34bc f97a 3fbd 307f 3dbd
00000340: d166 e63d 665e 3ebd 7bb8 12be 1e33 70bc
00000350: 717e 823d 26c7 1c3e 1c83 a7bb c5a5 f9bd
00000360: 5faa ca3d fa84 ffbc 6881 0b3b 8f07 fdbc
00000370: b6a8 3fbd 8157 88bc 1ae1 9bbd 6877 c83d
00000380: a9b1 32be 7657 513e 06b3 0fbc 6ad6 d93d
00000390: a8eb 3bbc 5c8c 803e 0a23 503b cea8 86bd
000003a0: b58b c53a bcfb 733d 1c13 acbd 6136 74bb
000003b0: 5877 7fbd 0a05 95be ff87 97bd 60e5 4f3d
000003c0: 55b9 ecbc 5129 283e ae48 393d 3cbb 323e
000003d0: c4c8 cd3b 2e2b ac3d 5ca1 89bd 638a 1a3d
000003e0: 9c2c e23d c624 ab3d e47d c2bd b62d d9bd
000003f0: 15f5 b7bd a1a1 79bd 0791 0b3e 890a 363e

layers.2.bias f4 [100]
0.0063922685 -0.008558445 -0.0148035195 0.015293604 -0.0017493094 0.0010561836 -0.02006193 -0.0026292105
0.014603321 -0.013307129 0.011030451 0.009994195 -0.010738719 0.01340099 0.015015355 0.033497546
-0.005254544 0.009830655 0.005943903 0.01362763 -0.029082892 0.030535547 -0.018517533 -0.03595652
-0.020688988 0.021385096 0.054626755 -0.007947825 -0.012367342 0.021277398 0.018872699 0.0090768095
-0.0062857894 -0.015669836 -0.008159727 0.011413944 0.02229839 0.003276754 0.002753616 -0.02997528
-0.012392629 0.024200628 -0.01421769 -0.013449911 0.02457725 0.024559239 0.011516873 -0.024635466
0.018714378 0.00023563743 -0.04660592 0.0128378505 0.01720637 -0.016616542 -0.011945358 -0.014720691
-0.018615989 -0.026284374 -0.007353523 0.025793254 -0.021037484 -0.0137029225 0.009602878 0.024231428
0.02422245 -0.022557568 -0.027046654 -0.0025220194 0.052040927 -0.00452047 -0.002007475 0.0521281
-0.044517487 -0.02140137 -0.00077835505 -0.035750974 -0.0020568138 0.012213336 0.0022242356 0.029471053
0.017746976 0.03586822 0.018648801 -0.0018038019 0.002750545 -0.0043879487 -0.0028652032 0.017466443
0.0044968114 0.01293931 0.007103954 -0.054275062 -0.024756178 -0.01093663 -0.024377685 0.010496821
-0.00093173183 -0.023764282 -0.00045407325 -0.011182581
00000000: 3c76 d13b b838 0cbc 768a 72bc 0692 7a3c
00000010: 1549 e5ba a46f 8a3a eb58 a4bc d54e 2cbb
00000020: c542 6f3c 2506 5abc 11b9 343c b1be 233c
00000030: 74f1 2fbc d38f 5b3c f702 763c b934 093d
00000040: 4f2e acbb c110 213c 12c5 c23b 6c46 5f3c
00000050: 3f3f eebc af25 fa3c 15b2 97bc 2547 13bd
00000060: f47b a9bc cc2f af3c 4ec0 5f3d 9837 02bc
00000070: 64a0 4abc f04d ae3c eb9a 9a3c e6b6 143c
00000080: 06f9 cdbb 075e 80bc 60b0 05bc 8d01 3b3c
00000090: 1dab b63c cfbe 563b 0376 343b b88e f5bc
000000a0: 740a 4bbc 6540 c63c 50f1 68bc 045d 5cbc
000000b0: 3b56 c93c 7530 c93c 44b1 3c3c 51d0 c9bc
000000c0: e54e 993c 7115 7739 d9e5 3ebd d955 523c
000000d0: 60f4 8c3c 6a1f 88bc 76b6 43bc 0e2f 71bc
000000e0: 8f80 98bc 5452 d7bc d2f5 f0bb 604c d33c
000000f0: cd56 acbc 3982 60bc 6455 1d3c fd80 c63c
00000100: 296e c63c a6ca b8bc f290 ddbc 7748 25bb
00000110: de28 553d 7320 94bb d78f 03bb 4684 553d
00000120: f857 36bd ed51 afbc 860a 4cba 9d6f 12bd
00000130: 9ccb 06bb 721a 483c 7bc4 113b 476d f13c
00000140: 1b62 913c 8eea 123d 5fc5 983c 8c6d ecba
00000150: 7d42 343b c8c8 8fbb 22c6 3bbb c915 8f3c
00000160: fd59 933b 66ff 533c 49c8 e83b 874f 5ebd
00000170: 78cd cabc 8d2f 33bc b6b3 c7bc dcfa 2b3c
00000180: 773f 74ba 50ad c2bc ae10 eeb9 2537 37bc

layers.3.weight f4 [100, 100]
0.009172926 0.14651945 -0.022029711 -0.1243614 0.18509014 0.07912657 -0.09771521 -0.07304473
0.06705382 0.062192768 -0.025804205 -0.17364863 -0.0040692044 0.028960632 0.010057003 0.022959238
0.07280919 -0.22367297 -0.02220005 0.0758467 0.10943569 -0.040207338 0.018675089 -0.11819339
-0.07092638 0.15918778 0.10956408 0.05309056 0.06412513 0.074177444 -0.12075085 0.00055853813
-0.077564955 -0.057836957 -0.12024367 -0.027381727 0.118027 0.12839556 0.07375638 -0.10354858
-0.0816478 0.1632847 -0.11873114 0.080693446 -0.028894026 0.03644893 -0.014574886 0.013810216
0.02886653 -0.06540397 0.17260645 -0.06447814 0.04670043 -0.11158361 -0.105522856 0.035848353
-0.1772242 -0.044213273 -0.15317081 -0.05669687 -0.03379134 0.16522057 -0.033018533 0.077694505
0.180176 -0.030890308 -0.038722206 0.04619603 0.03222118 -0.059412025 0.05427307 0.23663369
0.14926535 -0.014088554 -0.049611747 0.11564124 0.0005570087 -0.10132556 -0.047445897 0.10886774
-0.045766115 -0.20548305 -0.055392172 0.016673084 0.13868716 -0.20648538 0.111735605 -0.17954476
0.009535288 0.026774684 0.09622695 0.043720588 0.06071236 -0.0037302752 0.031072231 -0.09697329
-0.0858803 -0.06092468 0.11530032 0.02571189 0.062482666 0.15921892 -0.07855755 -0.133454
-0.0367815 -0.037208002 0.013900123 -0.04269999 0.010262387 -0.067340046 -0.07461254 -0.059831794
0.06133294 -0.12583326 0.014281051 -0.0292719 -0.026795723 0.03502607 -0.17303535 0.069143154
-0.1263914 0.009641682 -0.12023644 0.12805647 0.059441645 0.0668363 0.0119239185 0.07613374
-0.058376614 0.06944513 -0.05661614 0.03522022 -0.045647196 0.036538303 -0.015877508 -0.042110007
-0.23679261 0.023661098 0.013032774 -0.0979378 0.12424581 0.06883092 0.061352808 -0.035269804
-0.069563575 -0.0588752 -0.06878664 0.14225772 -0.0013558913 0.058490843 -0.05783946 0.034610394
-0.0006862503 -0.13058536 -0.17700276 0.044518776 0.1389569 -0.19313025 0.075531356 -0.06767704
-0.015139778 -0.25946403 0.0128425155 -0.08013476 -0.31712738 -0.12753913 -0.040378585 0.029453162
-0.043917067 0.101062216 0.08436178 -2.0480717e-05 -0.022034671 -0.14876309 -0.022317208 0.17185016
0.025683641 0.005019253 0.08842929 -0.17014673 -0.062570326 0.12996195 -0.08518025 0.14597404
-0.13505356 -0.036568943 -0.14203542 0.20448507 -0.05201174 0.16802482 -0.114763066 0.033043064
0.16572896 0.066059604 -0.09608757 -0.034717087 -0.11040745 -0.052806478 -0.22864501 -0.07028832
0.13500476 -0.17461333 0.010236297 -0.25553706 0.055664767 -0.016363008 0.05661981 -0.13562885
0.10704586 0.08761644 0.03085824 0.10614634 -0.08160357 0.11653639 0.18037626 0.12859382
0.07024056 -0.1739558 -0.04492757 0.080083154 0.09795415 0.1432183 -0.10798923 -0.086145595
-0.11435514 -0.1292449 -0.0996242 0.011902733 -0.1661144 -0.14938399 0.089925654 0.13235809
-0.0068229004 -0.0847429 -0.0248237 -0.15187493 -0.13041326 0.04680854 -0.22474769 0.050820474
0.07861377 0.020397443 -0.08707396 0.1841585 0.08123039 -0.067442395 0.03852793 -0.154575
-0.12305545 -0.12790933 -0.062269457 -0.043114636 -0.06384946 -0.12618022 -0.05844981 -0.11812295
00000000: 0a4a 163c 3209 163e a777 b4bc 31b1 febd
00000010: 4588 3d3e 1c0d a23d e91e c8bd 7a98 95bd
00000020: 8353 893d d8bd 7e3d 5763 d3bc f2d0 31be
00000030: f656 85bb d93e ed3c 21c6 243c 0315 bc3c
00000040: fc1c 953d 870a 65be e1dc b5bc 8455 9b3d
00000050: d21f e03d 73b0 24bd 80fc 983c 600f f2bd
00000060: da41 91bd 1f02 233e 2263 e03d 7d75 593d
00000070: 0954 833d 58ea 973d 394c f7bd dc6a 123a
00000080: 60da 9ebd 72e6 6cbd 5042 f6bd a54f e0bc
00000090: 24b8 f13d 207a 033e 960d 973d 4711 d4bd
000000a0: f636 a7bd 1b34 273e 5029 f3bd 9b42 a53d
000000b0: 2ab3 ecbc 794b 153d 81cb 6ebc 3f44 623c
000000c0: 8079 ec3c 84f2 85bd bfbf 303e 1d0d 84bd
000000d0: f348 3f3d f385 e4bd 5e1c d8bd b9d5 123d
000000e0: 437a 35be fa18 35bd cfd8 1cbe fa3a 68bd
000000f0: ca68 0abd 952f 293e 713e 07bd 4c1e 9f3d
00000100: 0f80 383e ac0d fdbc 2d9b 1ebd 0c38 3d3d
00000110: 5bfa 033d 065a 73bd 704d 5e3d 1a50 723e
00000120: 04d9 183e aed3 66bc b035 4bbd 50d5 ec3d
00000130: 3904 123a c683 cfbd a156 42bd 0df6 de3d
00000140: 4075 3bbd 266a 52be e7e2 62bd fe95 883c
00000150: 0204 0e3e e770 53be a3d5 e43d 95da 37be
00000160: e639 1c3c 9556 db3c a312 c53d 5c14 333d
00000170: 86ad 783d a277 74bb 318b fe3c ef99 c6bd
00000180: 03e2 afbd 288c 79bd 9322 ec3d bea1 d23c
00000190: d3ed 7f3d 490a 233e c8e2 a0bd 2aa8 08be
000001a0: 33a8 16bd 6b67 18bd 57bd 633c 2fe6 2ebd
000001b0: 9223 283c 94e9 89bd 76ce 98bd 2f12 75bd
000001c0: 4038 7b3d 6fda 00be 12fb 693c a0cb efbc
000001d0: b482 dbbc 7f77 0f3d 2e30 31be ed9a 8d3d
000001e0: bf6c 01be 25f8 1d3c 863e f6bd 3c21 033e
000001f0: 1579 733d 78e1 883d 8a5c 433c 02ec 9b3d
00000200: 511c 6fbd 4039 8e3d 53e6 67bd 1443 103d
00000210: 8ef8 3abd 30a9 153d 8c11 82bc 8b7b 2cbd
00000220: c379 72be ebd4 c13c 6b87 553c 9d93 c8bd
00000230: 9674 fe3d 3af7 8c3d 154d 7b3d 1277 10bd
00000240: 5977 8ebd 1f27 71bd 03e0 8cbd 02ac 113e
00000250: 2ab8 b1ba 1894 6f3d 12e9 6cbd a1c3 0d3d
00000260: 7ae5 33ba 2bb8 05be 3640 35be 5259 363d
00000270: b84a 0e3e f0c3 45be 2fb0 9a3d 439a 8abd
00000280: d50c 78bc 78d8 84be 6a69 523c b11d a4bd
00000290: 855e a2be 9e99 02be 0464 25bd c247 f13c
000002a0: 62e2 33bd b5f9 ce3d dec5 ac3d 01ce abb7
000002b0: 0e82 b4bc 5a55 18be 94d2 b6bc 7df9 2f3e
000002c0: 8066 d23c 8c78 a43b 6a1a b53d f23a 2ebe
000002d0: df24 80bd bf14 053e fc72 aebd 387a 153e
000002e0: 7b4b 0abe 51c9 15bd bc71 11be 8964 513e
000002f0: 430a 55bd b30e 2c3e e608 ebbd 2a58 073d
00000300: dab4 293e 424a 873d 8fc9 c4bd 8133 0ebd
00000310: 4d1d e2bd 9b4b 58bd eb21 6abe 53f3 8fbd
00000320: b03e 0a3e d6cd 32be 24b6 273c c1d5 82be
00000330: bd00 643d b70b 86bc 2dea 673d 4ae2 0abe
00000340: dc3a db3d 4070 b33d 6bca fc3c 4163 d93d
00000350: c61f a7bd a1aa ee3d 8eb4 383e 19ae 033e
00000360: 48da 8f3d 7821 32be f905 38bd a302 a43d
00000370: 2f9c c83d d1a7 123e 7529 ddbd 1a6d b0bd
00000380: 0733 eabd c658 04be c607 ccbd ae03 433c
00000390: e519 2abe 1ef8 18be f12a b83d e188 073e
000003a0: a392 dfbb b08d adbd 125b cbbc 1a85 1bbe
000003b0: 0e8b 05be 50ba 3f3d 4224 66be 2129 503d
000003c0: 4200 a13d 8a18 a73c d553 b2bd 0c94 3c3e
000003d0: 1e5c a63d 3d1f 8abd 76cf 1d3d e948 1ebe
000003e0: 7f04 fcbd aafa 02be 420e 7fbd f998 30bd
000003f0: 81c3 82bd 6335 01be 1169 6fbd 72ea f1bd

layers.3.bias f4 [100]
0.00824517 -0.019232785 -0.01221604 -0.03311146 -0.012330198 0.010018224 -0.012225649 -0.0166634
0.019903967 -0.006788038 0.029232502 0.0053606816 -0.0054124566 0.003831647 -0.014761035 -0.011212847
-0.010870174 -0.03847305 -0.003579791 -0.013589673 0.012972445 0.018708069 0.0035446428 -0.016697347
-0.017143296 -0.0029774366 0.001407142 -0.0004975773 -0.012714075 0.0015372878 0.008347822 -0.008310452
-0.017991025 -0.013684607 -0.00753202 -0.055214424 -0.0018040668 -0.010921781 0.027357318 -0.0008184094
-0.011552292 -0.00346954 -0.012099991 -0.031411733 -0.010033197 -0.012233115 -0.008576807 0.018242922
0.0019382448 0.00040045398 -0.005908999 0.01113956 0.0043331324 0.0110758785 0.04220034 0.015959384
-0.009179044 -0.013688262 0.005840724 0.003992214 -0.012276708 -0.009890297 -0.0037092518 -0.009987584
-0.0020004706 -0.037427027 -0.02111607 0.0030880936 0.0045117824 -0.0134236235 -0.0032897207 0.011553848
0.013624543 -0.00024199356 0.013096205 0.0036010605 0.053238623 0.010280538 -0.009126274 0.0060623297
0.00572195 0.008893629 0.012237122 0.0025268449 0.0094831865 0.006291194 -0.021207562 -0.013478304
-0.00697329 -0.02026614 0.0015124024 -0.00070376875 -0.009822608 -0.008044442 0.013573987 -0.008667764
-0.0013073023 0.014194436 -0.022897812 -0.020303244
00000000: c016 073c 138e 9dbc c925 48bc e29f 07bd
00000010: 9904 4abc 7a23 243c 174e 48bc af81 88bc
00000020: a50d a33c 316e debb 0079 ef3c a8a8 af3b
00000030: fa5a b1bb 5f1c 7b3b 45d8 71bc 17b6 37bc
00000040: d018 32bc eb95 1dbd ed9a 6abb 38a7 5ebc
00000050: 618a 543c aa41 993c 3d4d 683b e0c8 88bc
00000060: 1970 8cbc 1921 43bb da6f b83a d96f 02ba
00000070: b24e 50bc d27e c93a 4ec5 083c 9028 08bc
00000080: ea61 93bc 6735 60bc 2acf f6bb 8528 62bd
00000090: 7076 ecba 45f1 32bc 741c e03c 868a 56ba
000000a0: d345 3dbc 3961 63bb 0a3f 46bc 97a9 00bd
000000b0: 4762 24bc 676d 48bc bc85 0cbc 2e72 953c
000000c0: b40c fe3a 06f4 d139 47a0 c1bb b382 363c
000000d0: f3fc 8d3b 9a77 353c 44da 2c3d 41bd 823c
000000e0: b363 16bc bb44 60bc 8b63 bf3b 1ed1 823b
000000f0: 3f24 49bc ea0a 22bc eb16 73bb f7a2 23bc
00000100: 541a 03bb 154d 19bd 9cfb acbc 9d61 4a3b
00000110: 93d7 933b c2ee 5bbc 5b98 57bb 5a4c 3d3c
00000120: 7a39 5f3c a7bf 7db9 7791 563c c5ff 6b3b
00000130: be10 5a3d b46f 283c 5e86 15bc 82a6 c63b
00000140: 327f bb3b 95b6 113c 367e 483c 6c99 253b
00000150: 5e5f 1b3c 5c26 ce3b 7bbb adbc 1bd4 5cbc
00000160: 3280 e4bb 2d05 a6bc ce3b c63a 1f7d 38ba
00000170: 01ef 20bc d6cc 03bc 6e65 5e3c 3d03 0ebc
00000180: c959 abba c88f 683c 3194 bbbc fd52 a6bc
