main/continuous_time_inference (Schrodinger)/models_iters/Schrodinger_18500.pt (torch, 209056 bytes, 14 tensors)

linear_in.weight f4 [100, 2]
000000 f9 da 2f 3e 50 5d 04 3e bf 23 ec bc 32 9b 85 be
       0.17173375 0.12926221 -0.028825639 -0.26094967
000010 db 34 12 3d dd 5a 12 3e 86 6a 6b 3c 26 2f 80 3e
       0.03569494 0.14292474 0.014368659 0.2503597
000020 29 d0 d1 3d 9a c6 51 bc bb ef b8 bd 8d f5 97 3e
       0.102447815 -0.012803698 -0.090301 0.29679528
000030 62 ef b9 3d dd 9e f5 bc 1b 53 9e be 49 2d d6 bd
       0.09078862 -0.029982978 -0.3092278 -0.10457856
000040 05 19 61 bd 70 17 2a 3e 73 88 de bd ee 9b 96 3e
       -0.0549555 0.16610503 -0.108658694 0.2941584
000050 1b 4e 01 be b7 f2 17 3e a1 37 48 bd 9b 60 28 3e
       -0.12627451 0.14838682 -0.048881177 0.16443102
000060 15 66 22 be ea dd 0a bd 34 9c cf 39 bf 34 df be
       -0.15859254 -0.03390304 0.00039598497 -0.4359493
000070 95 a9 da 3c 76 ac 52 bd 45 c5 49 3e d2 a8 5f 3e
       0.026692191 -0.051434003 0.19704159 0.21841744
000080 bf c1 63 3e dd fd ff bd ef 0c 8a 3e 76 15 68 3c
       0.22241877 -0.124995925 0.26962993 0.014165273
000090 cd 65 af bd e8 ab 29 be 83 e5 b3 3d 10 62 bc bd
       -0.08564339 -0.16569483 0.0878401 -0.091983914
0000a0 21 a5 8b be 99 bd 3f be 5f 69 14 be c7 a0 d9 3e
       -0.2727442 -0.1872467 -0.14493321 0.42505476
0000b0 09 f6 78 bd 77 9c 82 bd ee f5 e5 3d 4d 2e d3 bc
       -0.060781512 -0.063774996 0.11228548 -0.025778914
0000c0 9e 2d ad 3d 4b 2a 14 bd 59 25 55 be c9 80 4f be
       0.084559664 -0.036173146 -0.20815028 -0.20263971
0000d0 14 9e 1b 3e eb 5f 1b be 0e 97 98 3d 2a 0c 4d bd
       0.15197021 -0.15173309 0.074506864 -0.05006043
0000e0 97 ab 4e 3e 90 4f da 3d 8c 89 96 be 41 f4 25 3d
       0.20182644 0.106597066 -0.29401815 0.04051614
0000f0 54 fc fb 3d d6 d7 4e 3e 7f 2e 3d 3d b8 4c f9 bc
       0.12303987 0.20199522 0.04618692 -0.03043209
000100 15 fa 15 3d af 86 12 3e 65 fc 92 3d cb ae 7d bd
       0.03661545 0.1430919 0.07177047 -0.061934274
000110 c8 13 95 3e 5f 20 b2 be 54 f8 4c 3c 61 fa d4 3d
       0.29116654 -0.34790322 0.012510378 0.103993185
000120 35 22 8a 3c f5 b0 9f 3e 10 d0 15 3d 24 d3 00 3d
       0.016862014 0.31189695 0.036575377 0.03145136
000130 fa 0d 64 bd e8 b1 c3 be 9b d8 a5 bd 87 2a 26 3e
       -0.05567739 -0.3822167 -0.08097955 0.1622716
000140 16 3f 61 3e 2f c8 f0 bd 72 8f 1c be 92 7e b7 3d
       0.21996722 -0.11756932 -0.15289095 0.08959688
000150 7f f8 fa bd a6 d4 3d be f3 d7 82 be 8e b1 10 bd
       -0.12254428 -0.1853815 -0.2555538 -0.03532558
000160 04 22 03 be c5 40 12 be a9 c7 0d be 25 4f 23 be
       -0.12805945 -0.1428252 -0.13845696 -0.1594816
000170 b9 1a a0 3c 44 f1 5b be ef 68 4d 3e a7 e8 e2 3d
       0.019543992 -0.21478754 0.2005956 0.11079531
000180 3d 8c 03 be 3b ae 93 bd 70 25 b3 bd 14 3a 7a be
       -0.12846465 -0.07210966 -0.08747375 -0.24436218
000190 47 a8 08 3e 3c 95 8b bd f5 16 17 3c ed eb c4 3d
       0.13345443 -0.068155736 0.009221782 0.09615312
0001a0 8a 8e 4a bd dc e5 90 be 85 02 22 3e 36 cd 18 be
       -0.049452342 -0.2830037 0.15821274 -0.14922032
0001b0 56 a7 9f 3d ec 89 a2 be 30 63 9b 3b 26 5f 5e be
       0.07795589 -0.3174585 0.0047420487 -0.21715984
0001c0 07 89 c6 3e 40 0f 98 be e1 4b b0 bd 6a 56 87 3d
       0.3877642 -0.29699135 -0.08608223 0.06608279
0001d0 45 22 a3 3c 76 fd a0 3e f5 8f 51 be 6e 73 21 3e
       0.019913802 0.31443375 -0.20465071 0.15766689
0001e0 5e e4 80 3d 9a dd 85 3d 19 a7 e5 bc fe 35 13 3e
       0.062935576 0.06536408 -0.02803378 0.14376065
0001f0 a1 7a 1a be 90 29 8f be 61 27 d0 3d d6 ca cf 3c
       -0.15085842 -0.27961397 0.10163761 0.025365274
000200 be 1a a9 3c da 7b 26 3e 06 b2 26 be d1 b9 b8 3b
       0.020642634 0.16258183 -0.16278848 0.0056373854
000210 c2 1f ce bd 8e 9b 72 3e cb 1f 6c 3d 97 b8 73 3d
       -0.10064651 0.23692152 0.057647508 0.05950221
000220 3c ca 01 3e 27 e4 bf 3c e5 0a 84 3c ab 7f b6 3e
       0.12674803 0.023424221 0.016118476 0.35644278
000230 31 cf 7c 3e 9c ad aa bc b7 e1 4a bd b5 15 44 3d
       0.24688412 -0.020834737 -0.049531665 0.047872264
000240 1b 99 86 bc 34 62 bd be 0d 18 a4 39 03 59 c2 3d
       -0.016430428 -0.36988986 0.00031298437 0.09489634
000250 00 1a 84 be 8f 54 f8 bd 53 5c e2 3d da cf 72 3c
       -0.25801086 -0.12125503 0.11052766 0.0148200635
000260 30 5d f5 bd 3f e2 e2 bd 7c 33 16 3e aa 2e 50 3e
       -0.11980665 -0.11078309 0.14668077 0.20330301
000270 f9 d3 43 bd de 24 5c 3e 0d be 8f be 9f 84 84 be
       -0.047809575 0.21498439 -0.28074685 -0.25882432
000280 19 c2 c9 3d a1 fd ef bd 7a 8a 96 3d 45 5a 09 3e
       0.09851474 -0.11718298 0.07350631 0.13413341
000290 55 4e 85 bc 6d 51 82 3d 07 b7 bf 3c f1 cf 95 3e
       -0.016272703 0.06363187 0.023402704 0.2926021
0002a0 2b 49 14 3c a6 30 b5 3b 7d d3 b9 3d fc cd 94 3e
       0.009050648 0.005529481 0.09073541 0.29063404
0002b0 91 4d d5 bd 63 00 93 3e b2 1c 5c 3e ca 2c bb bd
       -0.10415185 0.28711233 0.21495321 -0.09139402
0002c0 4d 88 e2 bd 38 14 09 3e e2 81 8b 3d 29 43 5b be
       -0.110611536 0.13386619 0.068118826 -0.21412338
0002d0 eb b9 73 3d a2 50 ad bd 59 13 26 bc 81 22 94 3e
       0.059503477 -0.08462645 -0.010136449 0.28932574
0002e0 37 6d 99 3e 20 e8 ae bd b9 87 67 bd 23 1b 65 3d
       0.29966137 -0.08540368 -0.05652592 0.055934083
0002f0 6c fc c7 3c 35 53 f4 3d 4f 7e ab bd d6 8f 87 3e
       0.024412356 0.11929933 -0.08373701 0.26476926
000300 c8 23 05 3e d1 a4 12 3b 4c e5 f0 bd c7 1b 16 bc
       0.1300193 0.002237607 -0.11762485 -0.009161896
000310 4c e5 61 be 32 5e 2c 3e 79 63 af bc 16 a7 f3 3d
       -0.22060126 0.16832808 -0.021409737 0.118971035

linear_in.bias f4 [100]
000000 63 22 5e 3d 8f 87 7a 3d 7d 65 07 be 9b 99 8c 3d
       0.054232012 0.061164435 -0.13222308 0.068652354
000010 64 2e be 3c b7 bf 4a be eb 65 ff 3d df e3 c0 3c
       0.02321548 -0.19799696 0.12470611 0.023546157
000020 60 95 c0 3b 1b 53 1e be fc c5 1a bd 2b 95 21 3d
       0.005877182 -0.1546139 -0.03778647 0.0394489
000030 51 7d 98 3d 27 90 0e bd 62 64 9d 3d 70 6d 33 bc
       0.07445777 -0.034805443 0.07685162 -0.010951385
000040 89 34 ee 3d c8 41 fc bb 24 a1 66 3d b8 6e 16 bd
       0.11631114 -0.0076982714 0.05630602 -0.036726683
000050 87 ff 7a bd 2a af 97 bc f4 f3 0a 3e a2 b5 b6 3d
       -0.061278846 -0.018516142 0.13569623 0.089213625
000060 57 06 24 3d ad ea 85 bd 32 54 dd 3d 70 91 13 bd
       0.04004511 -0.065389015 0.108070746 -0.036027372
000070 06 75 1a bc 9e ab 11 bd be 0a be 3d 92 6b 88 3c
       -0.009427315 -0.035564058 0.09279393 0.016652856
000080 cf 91 fd bd 0d 75 e1 3d 59 04 36 bd 94 0b 6d be
       -0.123813264 0.11008654 -0.04443774 -0.23148948
000090 fe b4 c9 bd cf 85 1c be 78 47 95 bb 6e 7b 5e 3d
       -0.09848975 -0.15285419 -0.004555639 0.05431693
0000a0 6e 53 82 3c 6f c3 b2 3c 4b b8 84 bd 59 85 b3 3d
       0.015908923 0.021821706 -0.064804636 0.087656684
0000b0 78 f7 19 bd 19 dc 63 bd df a9 ef 3d d5 37 94 bd
       -0.03758952 -0.055629823 0.11702322 -0.072372116
0000c0 89 7c bc 3d 06 24 11 3e 65 be 3f bd dc 44 89 bd
       0.09203441 0.14173898 -0.046812434 -0.06702587
0000d0 7b 46 08 3d b1 96 95 3d 6e 15 61 3d 7e 96 cc 3d
       0.03327034 0.07304133 0.054952078 0.099896416
0000e0 1a f8 31 bd 37 cc 4d 3d 1d cb a1 be 0d 84 21 be
       -0.0434495 0.050243583 -0.31600276 -0.1577303
0000f0 a0 5d 83 bc 9a 42 0c 3e 31 d8 2f 3d 12 a9 1e 3d
       -0.016035855 0.13697281 0.042930786 0.038735457
000100 4a 33 e1 bd 1e ca 8c bc f4 7d 09 be bb 24 db bd
       -0.10996111 -0.01718622 -0.13426954 -0.10700365
000110 16 6b 82 bd 6a 46 c8 3c 04 22 7c 3d 41 4f 8f 3d
       -0.06368081 0.024447639 0.061555877 0.06997538
000120 3e c2 ee 3d 90 06 c0 bd cb 28 38 3e 37 fc 91 3d
       0.116581425 -0.09376252 0.17984311 0.07128184
000130 a6 e6 bf 3d 82 02 b4 bd f7 99 f9 3c 91 e5 2b 3d
       0.093701646 -0.08789541 0.030468924 0.04196698
000140 4e 10 ac 3d ba 81 4b bd 90 d1 bf 3c be 5b 90 3d
       0.08401547 -0.049684264 0.023415357 0.070487484
000150 c8 40 bf 3d 26 b5 f4 b9 4f 55 bd bd f8 0f c4 bd
       0.09338528 -0.00046674273 -0.09244787 -0.09573358
000160 21 4c 82 3d f2 a0 a1 3d ed 95 c0 3d ed 89 ce bd
       0.06362177 0.07892026 0.09403596 -0.10084901
000170 b3 07 af 3d dd 36 7f ba b1 f2 08 3e 06 9b db bc
       0.085463904 -0.00097356533 0.1337383 -0.02680732
000180 c3 5d f9 3c 82 50 7d bd 92 e1 bc bd d8 69 9e bd
       0.030440217 -0.061844356 -0.092227116 -0.07735032

linear_out.weight f4 [2, 100]
000000 1c 51 1d 3e a7 c8 98 3e bb a6 ac 3e 9a 30 dc 3d
       0.15362972 0.29840586 0.33720955 0.107514575
000010 45 6a 5f bc 32 e1 ec 3d d2 6d 57 bd 80 e2 5c be
       -0.0136361765 0.1156639 -0.052594967 -0.21570778
000020 55 0e 49 be c0 d1 34 3e cc cc cb 3e 63 98 5b bd
       -0.19634373 0.17658138 0.39804685 -0.053612124
000030 65 ce f5 3d 94 52 8c 3e 74 e1 36 bd 2e 19 d9 b9
       0.12002257 0.27406752 -0.044648603 -0.00041408226
000040 44 a8 a9 3d 30 1e 39 3d 8d ab fd bd 25 84 28 bc
       0.08284047 0.045194805 -0.12386236 -0.010285412
000050 f5 c1 da bc 2f 93 81 3d 36 01 e4 bd b2 56 fa bc
       -0.026703814 0.06326901 -0.111330435 -0.030558918
000060 1e ed 1f bd 23 14 0c b7 6d f1 9a bc 57 9a 40 bd
       -0.039044492 -8.349339e-06 -0.018913949 -0.04702219
000070 aa 5d 86 3d c0 4d ad 3d a4 4a dc 3d c9 87 f0 3c
       0.06560834 0.08462095 0.10756424 0.029361622
000080 8f cb e5 3c f8 16 e1 3d 66 09 e5 bd 5f ce c1 3d
       0.028051166 0.10990709 -0.11183433 0.0946319
000090 92 de 51 bd 90 e4 c7 bd 9f 01 be bd 13 d6 cd bd
       -0.05123765 -0.09760392 -0.09277653 -0.10050597
0000a0 12 db 29 3e 58 96 c4 bd a8 fc 35 be 7d 61 1a be
       0.16587475 -0.09598988 -0.17772162 -0.15076251
0000b0 d2 6b f9 bc 43 82 bd bc ef c8 ae bd 10 ba 1b 3e
       -0.03044692 -0.023133403 -0.08534419 0.15207696
0000c0 64 79 ee bd e2 40 32 b9 d7 b6 7d be 63 23 84 bc
       -0.11644247 -0.00016999574 -0.24776779 -0.016130155
0000d0 74 4e 1c 3e a1 94 a1 be 5d d2 f9 bc c7 66 7d bd
       0.15264302 -0.31558707 -0.030495817 -0.061865594
0000e0 ea fb b2 3d c0 cc fb bd 41 61 31 be e2 81 67 3e
       0.08739455 -0.12294912 -0.17322256 0.2260814
0000f0 48 81 73 bd c0 97 c1 39 01 2e ef bc 6a 2d 19 3d
       -0.059449464 0.0003692489 -0.029196741 0.037396826
000100 c0 da 19 3d 01 ce a1 bd d1 f1 91 bd 06 6d b1 3d
       0.037562132 -0.0790062 -0.07126201 0.08663373
000110 3c 33 bb 3d 61 7a 11 3e 5f 38 96 bc 71 8d 9d 3a
       0.091406316 0.1420684 -0.018337427 0.0012020302
000120 e3 50 3e 3c c0 9b a2 bd 28 07 b9 bc 7e 5a 71 3e
       0.011615965 -0.07939863 -0.02258642 0.23569676
000130 ae 90 e9 bd 72 36 50 be ad 21 aa 3d dd 67 83 3c
       -0.114045486 -0.20333269 0.083072044 0.016040737
000140 e7 92 cd 3d 3c 6e 26 be 41 1e f8 3a aa 10 bb 3e
       0.10037785 -0.16252989 0.0018929915 0.3653615
000150 5e 40 9c 3e ba be 80 bd cc b2 5e be 95 80 b0 3d
       0.30517858 -0.06286378 -0.21747893 0.08618275
000160 1a 00 86 bd e5 64 9b be 7b 74 38 bd ea 7d 38 be
       -0.06542988 -0.30350414 -0.04503296 -0.18016782
000170 b9 07 09 3e ad 97 38 be cc 2c 10 be 26 5c 88 bd
       0.13381852 -0.1802661 -0.14079589 -0.06658201
000180 e6 de 04 be b9 a4 ec 3d f2 d4 3c bd 59 00 c8 bd
       -0.12975654 0.11554856 -0.046101518 -0.09765691
000190 b3 08 55 3e f0 c1 29 bd c4 3a 0e 3e 1c ee 05 bd
       0.208041 -0.04144472 0.13889605 -0.032697782
0001a0 38 af 2c bc 6d cd 61 bc ec 8c 94 be b7 23 08 be
       -0.010539822 -0.0137818875 -0.29013765 -0.13294874
0001b0 42 98 b6 bb 38 ca 06 3e a1 1e 5f be 8d c1 f8 3d
       -0.0055723498 0.13163078 -0.21789028 0.12146292
0001c0 dc 19 76 3e 2d 68 4a be 48 eb 45 3d 70 56 42 b9
       0.24033302 -0.19766302 0.048320085 -0.00018533482
0001d0 cd b6 8c 3e 3d 49 6e bb fd ff 23 bd 48 ca fe bb
       0.27483216 -0.0036359571 -0.04003905 -0.0077755786
0001e0 9f 77 b3 3d 15 96 51 bd af 0f bc 3d b2 19 31 3c
       0.0876305 -0.05116852 0.09182679 0.010809349
0001f0 ec 63 37 bd 28 8e 8b 39 be 59 0b be 2c 3f d5 3d
       -0.044773027 0.0002661806 -0.13608453 0.1041244
000200 6c 3f 4f be 90 8f 92 3d 3d 1a 40 3e 7d e5 cf bd
       -0.20239037 0.071562886 0.18760009 -0.10151193
000210 ff 2b 40 bd 6d 91 2c be af b9 e0 bc 9e 83 d4 3d
       -0.046916958 -0.1685235 -0.02743229 0.103766665
000220 de 9e d9 3d 9e f6 a4 3e 6e 1c 3c 3d c0 57 22 bd
       0.10626005 0.32219404 0.04592555 -0.039634466
000230 ea 93 5a 3e 33 3c ce bd 4e 3b 5f ba 0a 8e 9f bd
       0.21345487 -0.10070076 -0.0008515612 -0.07790764
000240 35 9e 1d be d3 fd 98 3b cf 10 02 bc 96 49 ac 3d
       -0.15392382 0.00466893 -0.007938578 0.08412473
000250 c2 a8 25 3e 39 d6 bd bb a8 e0 a4 3e 63 34 3a be
       0.16177657 -0.0057933596 0.3220265 -0.18184046
000260 3c 6b 5e bb 03 88 28 3e 84 83 7a bd e7 97 08 3e
       -0.0033938428 0.16458134 -0.06116058 0.13339196
000270 53 ec 01 bd 25 39 08 be ba 01 de 3d bb e9 40 be
       -0.031719517 -0.13303049 0.10840173 -0.18839161
000280 a5 0a a7 3d 7d 6d 81 b9 75 9c 61 bc 69 85 4f bd
       0.08156327 -0.00024686372 -0.013770212 -0.05066434
000290 93 dc 2f be af 8c d7 bb 3c eb 06 3e 6a a0 90 bd
       -0.17173986 -0.00657805 0.13175672 -0.070618466
0002a0 f7 51 81 bd 01 77 aa bc c5 e2 3e bc 58 0f 45 3b
       -0.06314462 -0.020808699 -0.011650746 0.003006896
0002b0 35 c2 8f bc b2 7d 9a 3d 4d 31 b5 be c2 0a 6d be
       -0.01754866 0.07543506 -0.35389176 -0.23148635
0002c0 8d c2 8f 3d bc 89 68 be 61 a6 45 be a3 e8 75 be
       0.070195295 -0.22708791 -0.1930175 -0.24014525
0002d0 9c ee 81 bd 9f 34 27 3d f4 3a 82 3a 1d 85 9c bd
       -0.06344339 0.040821668 0.0009935782 -0.07642577
0002e0 8a b9 77 be e8 3c 1c 3e 20 fa 5f be 32 7f 5c be
       -0.24191871 0.15257609 -0.21872759 -0.21532896
0002f0 5a 53 f1 3d 84 f9 52 bd d4 01 0b bd fe da cb 3d
       0.11783476 -0.051507488 -0.03393729 0.09953879
000300 1f aa 0a 3e c5 9e b7 be b5 12 82 bd 5f 15 c1 bd
       0.13541459 -0.3586332 -0.06351224 -0.09427904
000310 5e 82 90 bc 66 d1 28 3e 6e 7a a9 be 60 45 24 be
       -0.017640289 0.16486129 -0.3310122 -0.1604209

linear_out.bias f4 [2]
000000 07 0c eb 3c 4f c0 72 3c
       0.028692259 0.014816358

layers.0.weight f4 [100, 100]
000000 11 9c d6 bc 2d 5c 9b bd 10 84 31 3d 7f 1d a4 3c
       -0.026197465 -0.075859405 0.043338835 0.020033596
000010 47 a0 b0 3d 9c d4 6a 3d 58 fe 47 3e 59 40 f0 bd
       0.086243205 0.057331666 0.19530618 -0.11731023
000020 98 be aa 3d 7e 62 e5 bd 43 9e ed bd 0b ac 38 be
       0.08337134 -0.112004265 -0.11602452 -0.18034379
000030 46 1a b6 3d f9 d6 96 bd d9 1b 64 3e 4e 16 45 3e
       0.0889173 -0.073652215 0.22276248 0.1924679
000040 6f 01 2c 3e e7 ce 52 3d aa 42 12 3e ae 3f 21 3e
       0.16797422 0.05146685 0.14283243 0.15746948
000050 f9 0c 79 be 3e 46 d9 bd 1c d8 b4 3d 3f 71 b6 3c
       -0.24321355 -0.10609101 0.08830282 0.022270797
000060 b8 aa d7 3d e5 4e cd bd fb 58 bd bc b3 51 62 3d
       0.10530609 -0.100248136 -0.023113718 0.055253696
000070 9a 78 d4 bd 75 7d 1f 3d a2 e2 49 be 80 6c 9d bd
       -0.103745654 0.038938005 -0.1971536 -0.0768671
000080 83 84 5d be e9 cb 24 3e 49 c7 8c 3e 5f 52 ca bd
       -0.2163258 0.1609341 0.27495793 -0.09878992
000090 1e 0a 45 3d 9a 71 f3 bd 23 94 15 3e 74 da 89 3c
       0.04810535 -0.11886902 0.14607291 0.0168278
0000a0 11 43 5b 3d 03 e0 28 3e e5 d0 32 3c 46 64 13 bd
       0.053530756 0.16491704 0.010914062 -0.0359843
0000b0 f3 2f 2a 3e 83 53 4b 3d 86 78 32 be 23 de 04 3d
       0.16619854 0.04964019 -0.17428789 0.03243841
0000c0 47 5a 3d 3c 1a 90 14 3e ec f4 47 bb 81 21 90 3d
       0.011557168 0.14508095 -0.0030510975 0.0703764
0000d0 58 ea 98 bd e1 c7 f4 3d 9d 58 cc 3d e3 09 e1 bd
       -0.074665725 0.119521864 0.09977839 -0.10988214
0000e0 b3 ab 4e 3e 55 78 24 be 3a 8a 58 be dd 52 f2 bd
       0.20182686 -0.16061528 -0.21146479 -0.11832211
0000f0 b6 ce 10 3c b8 cd a2 bd 1b 58 7a 3d 55 39 f5 3d
       0.008838346 -0.07949394 0.06111918 0.11973826
000100 a2 e0 0a 3d e5 78 eb bd a4 18 55 bd b4 9c 79 be
       0.033905633 -0.11497668 -0.052025452 -0.24376184
000110 d8 a5 56 bb a7 a9 2a be cf d7 25 3e 10 a5 a2 bd
       -0.003275266 -0.1666628 0.16195606 -0.079416394
000120 66 4a ce 3d f0 1c 71 bd 93 fa af bd 10 15 12 3d
       0.10072784 -0.058865488 -0.08592715 0.035664618
000130 c2 71 c1 3d 86 5e e5 bc 21 7b 2c 3d 4c d0 30 be
       0.09445526 -0.027999174 0.042109612 -0.17266959
000140 74 34 74 bd 27 e9 e3 3c a2 33 b7 bc e7 2a 15 3d
       -0.059620336 0.027821137 -0.022363488 0.036417868
000150 93 e5 b9 bd fb ff 75 bd 9e 9f 82 bd 07 6f 4c bd
       -0.09076991 -0.060058575 -0.06378101 -0.04991057
000160 b7 53 c2 3c fe 23 d6 3c d2 cc 7e 3e 59 2c 88 bd
       0.023721559 0.02614021 0.2488282 -0.06649084
000170 6c 3b 86 bd a7 a8 4d bd e7 78 65 3c 27 23 10 be
       -0.065543026 -0.050209668 0.014005876 -0.1407591
000180 47 e3 e0 3d 8b cf 17 be 87 59 27 be dc 33 da bc
       0.1098085 -0.14825265 -0.16342746 -0.026636057
000190 b5 0b 8d bd eb 83 05 3e 9a 83 91 bd 19 35 e9 3c
       -0.068869986 0.13038604 -0.07105179 0.028467702
0001a0 08 c5 b1 3d a1 36 05 bb a6 68 1c 3e fa 1f be 3d
       0.08680159 -0.002032675 0.15274295 0.09283443
0001b0 1b 60 11 bd 7f 70 4f 3d 5a 27 10 3d 62 7b 95 3d
       -0.035492044 0.050644394 0.03519378 0.07298924
0001c0 f7 dc 9c 3e aa 32 0f bd 79 07 24 be 61 13 38 3d
       0.30637333 -0.034960426 -0.16018476 0.044940356
0001d0 a7 f2 4c be 2f 77 22 be 66 e2 f3 3d 58 4b 0e bd
       -0.2001444 -0.15865777 0.119084165 -0.034739822
0001e0 f6 e0 84 3e 50 75 30 3e a5 7a f2 3d c6 00 0c be
       0.25952882 0.17232251 0.11839799 -0.1367217
0001f0 d3 f6 e3 3d 0f 4a 95 3d 1c 39 8f bd e4 8c 6c be
       0.11131062 0.07289516 -0.069933146 -0.2310062
000200 e1 29 b4 bc d6 2d 4d 3e fb df bf bd 98 83 94 bd
       -0.021992626 0.20037016 -0.09368893 -0.07251662
000210 88 c1 25 be 75 11 33 be 11 8b 13 be 40 70 58 bc
       -0.16187108 -0.17487128 -0.14408518 -0.013210356
000220 97 a1 2c bd 4d a2 71 3c b9 e6 1f 3e 07 02 19 bd
       -0.04214629 0.014748168 0.15615357 -0.03735545
000230 4c fd 81 bc e2 b6 22 3e 71 7d f1 3c dd 68 d8 3d
       -0.015867852 0.15890077 0.02947876 0.10566876
000240 70 5b a0 bd f9 fd 0b 3e 11 aa 27 be 95 9a 89 bd
       -0.0782994 0.13671102 -0.16373469 -0.06718937
000250 b7 07 24 3e 4c d7 ab bd b7 22 66 bd da 55 13 3c
       0.16018568 -0.08390674 -0.05618545 0.008992637
000260 f0 10 5f bd fd fe f5 bd da ee 2b 3d 9d 44 b9 bd
       -0.054459512 -0.12011526 0.041975833 -0.0904629
000270 90 d5 1c be 01 9f 67 3e 06 a7 27 be 7e e9 83 bc
       -0.15315843 0.22619249 -0.16372308 -0.016102549
000280 35 f2 18 be 7c f3 ae 3d f1 e0 c8 3d 5b af 78 be
       -0.14936145 0.08542535 0.09808529 -0.24285643
000290 0c f4 65 3c 97 bc 02 be 7f 35 0a 3d 48 6b d8 bd
       0.014035236 -0.12767254 0.033742424 -0.10567337
0002a0 36 8c a5 bc 3d d2 08 3b fb f9 28 be fa c8 36 3e
       -0.02020846 0.0020877265 -0.1650161 0.17850104
0002b0 86 9c 27 3e 83 1d ff 3d bd 81 ff 3d 42 ab 84 bd
       0.16368303 0.12456801 0.124759175 -0.06477977
0002c0 19 7d ce 3d 34 c8 d9 bc 03 f9 22 3e cb a6 47 bd
       0.10082454 -0.026584722 0.15915303 -0.04874305
0002d0 22 71 89 be 3b 4e 54 3d a0 41 c8 3d db 3c 5f bd
       -0.26844126 0.05183242 0.09778142 -0.054501396
0002e0 e3 00 62 be ba 64 cb bd c9 07 19 3c 7b 49 f0 bd
       -0.22070651 -0.099313214 0.009340235 -0.11732765
0002f0 cb 2d 5a 3d ef ec dc bd 68 80 a0 3c be 40 d2 3c
       0.053266328 -0.10787379 0.019592479 0.025665637
000300 ce fb 94 bc 08 98 8e 3a a7 f4 6b be 6f 6a 0e be
       -0.018186476 0.0010879049 -0.23042546 -0.13907789
000310 b3 0b 92 be 88 0b 67 3e 9d 32 d5 3d 22 27 2b 3e
       -0.2852455 0.22562993 0.10410044 0.16714147
000320 2f ad e4 bd 23 9b 34 bd d8 46 dc 3d 97 7f e1 3b
       -0.11165845 -0.044093262 0.107557 0.006881665
000330 0b 41 47 bd 7d 42 c1 3d c5 e6 1b be 98 c3 94 bd
       -0.048646014 0.0943651 -0.1522475 -0.07263869
000340 ba 54 8e bd ba 7f 1d 3e fd 21 97 bd 51 7a 36 3d
       -0.06949754 0.15380755 -0.073795296 0.044550244
000350 b7 e0 55 3b 6f 26 e1 3c b8 44 0a bd d9 43 4b 3d
       0.0032635161 0.027484147 -0.03375694 0.04962525
000360 99 e8 ee bd 40 36 26 bc be cb 18 3d ee 08 2f bd
       -0.11665458 -0.01014477 0.03730368 -0.042733125
000370 87 7c 31 bd f3 23 a9 bc 97 ea 9b bd 1f c6 9a bc
       -0.04333165 -0.020647025 -0.07613104 -0.0188933
000380 87 94 ad 3d b8 d3 ae bd 1e df 1e be 00 c3 47 bd
       0.08475595 -0.08536476 -0.155148 -0.04876995
000390 c6 d3 35 3d 42 04 69 3d 94 17 a0 3d e1 bb 92 3d
       0.044391416 0.056888826 0.07816997 0.07164741
0003a0 86 69 76 3e 8a b7 ba 3c 4e f2 07 bc 35 75 70 3e
       0.24063691 0.022792596 -0.008297516 0.23482211
0003b0 b9 7a b2 3d 97 b8 7f 3d 87 14 09 3e 22 8c 25 3b
       0.08714814 0.062431898 0.13386737 0.0025260528
0003c0 8e 7a e0 3d 03 a2 0c 3d 4f f6 86 be 70 19 e3 3d
       0.109608755 0.034334194 -0.26359794 0.11088836
0003d0 74 82 09 3d 8f cb f1 bd 63 77 6a bd 1a 47 cb 3d
       0.033571675 -0.11806404 -0.057242762 0.09925671
0003e0 db 9e 99 bd 04 a6 00 3d e8 05 ea bd 3f 0e f3 bd
       -0.075010024 0.031408325 -0.11426908 -0.118679516
0003f0 de 99 aa 3d d8 ed 4e bd 4e f8 82 bd ff 7b dc bc
       0.08330129 -0.050519794 -0.063950166 -0.026914595

layers.0.bias f4 [100]
000000 f8 91 f1 3d c4 9c c2 3c be 3e 89 bd 94 f1 89 be
       0.117954195 0.023756392 -0.0670142 -0.26942122
000010 c1 59 bc bd 07 21 bd 3d b4 c9 d3 bd b5 12 2e bd
       -0.09196807 0.09234815 -0.10341206 -0.04249831
000020 af db a3 3c 05 c4 0b 3e 63 da a5 bd f5 62 98 3c
       0.020002214 0.13648994 -0.080982946 0.018601874
000030 a0 8e 42 3d 71 89 ee 3d 2d c4 f4 bd 8d 94 9f bd
       0.0474993 0.116473086 -0.1195148 -0.07792006
000040 0b f3 f3 3c 5c 27 01 bc cd aa 81 bd 95 db 53 3d
       0.029778978 -0.007882919 -0.06331406 0.05172308
000050 38 0e bf bd 4c eb 50 bd 23 10 88 3d 81 87 e5 bd
       -0.09328884 -0.051005647 0.06643703 -0.11207486
000060 f9 1b 3c 3b e0 bf 9a 3d 0d 58 1d be 33 ef 9f bc
       0.0028703196 0.075561285 -0.1536562 -0.019523239
000070 da d9 36 bd 32 80 6a bd 5c 83 b0 bd 94 92 90 3d
       -0.044641353 -0.057251163 -0.08618805 0.070592076
000080 79 8c 3a bc 66 f7 e2 bd 39 2d 85 3d d5 0d 64 3d
       -0.01138603 -0.11082344 0.06502766 0.055677254
000090 d9 12 b1 3d 10 80 8e bc c2 8c 5f 3d 05 6e 18 be
       0.08646173 -0.01739505 0.054577596 -0.14885719
0000a0 56 6e 0b bb 95 07 99 3c 5c 84 80 bd a0 19 24 bd
       -0.0021275482 0.018680373 -0.062752455 -0.0400635
0000b0 e8 67 aa bc 68 2a e2 bd dd 4d e0 3d 24 bf ba bd
       -0.0208015 -0.110432446 0.10952351 -0.091184884
0000c0 50 ca d2 3d 3f a3 4d 3d 54 d0 8c bd 85 e7 5d bc
       0.10292494 0.05020451 -0.06875673 -0.013543968
0000d0 4b 8b d1 3c 01 2d 00 be 34 eb b4 3d 34 78 81 bb
       0.025579115 -0.12517168 0.08833924 -0.003951097
0000e0 7e 96 3d ba d0 e6 31 bd f1 aa 0d 3d df 03 2e 3c
       -0.0007232203 -0.04343301 0.03458685 0.01062104
0000f0 91 b4 4b bd 60 19 83 bd cb 7b bc bd 6f 8b 09 be
       -0.04973275 -0.06401324 -0.09203299 -0.13432096
000100 53 34 5a 3d 21 d9 03 be 03 1b 66 bc 02 77 ee 3c
       0.053272557 -0.12875797 -0.014044526 0.029109482
000110 ff da 0f bd fb a0 41 bc 01 7e 06 3d bb c0 12 be
       -0.03512096 -0.011818166 0.03283501 -0.14331333
000120 80 f2 0a 3e 94 46 d6 ba ea 72 a4 bd 19 76 00 3e
       0.13569069 -0.0016347938 -0.080297306 0.1254505
000130 f2 53 11 3e 68 19 13 3d dd 96 48 bc 13 f2 08 bd
       0.14192179 0.0359129 -0.012243 -0.033433985
000140 2b 10 91 bd 91 e2 94 3d 04 50 90 3d 8d 7a 8b bd
       -0.07083162 0.072697766 0.07046512 -0.06810484
000150 73 62 56 bd 77 5d 9a 3d 09 cc 40 bd ff 90 a3 3d
       -0.052339982 0.07537358 -0.047069583 0.0798664
000160 bc 87 8c bd b4 9d 91 bd cf a7 29 3e f2 02 c3 3d
       -0.06861827 -0.071101576 0.1656792 0.09522046
000170 82 54 13 3d 8c aa c1 3c 46 64 c0 3d a2 b8 bb bc
       0.035969265 0.023640893 0.09394126 -0.022915188
000180 90 29 30 3d 41 42 2d 3c 5e 16 8a bd 59 3d b6 bd
       0.043008387 0.010574878 -0.067425475 -0.0889842

layers.1.weight f4 [100, 100]
000000 45 c2 13 3e 24 85 3c be c9 c7 07 3e e3 10 24 3e
       0.14429577 -0.18410164 0.13259806 0.16022067
000010 d8 8a 1c 3e f2 5f 87 bd ad 0c ab 3c e0 7e 77 bd
       0.1528734 -0.06610097 0.020880068 -0.06042373
000020 a1 1e 4b be c9 e5 ce 3d 9e 6a c8 bd 4c 3b 05 3e
       -0.19835903 0.10102422 -0.097859606 0.13010901
000030 e9 c6 8a 3e d5 05 b5 3d af 54 91 3d 91 ad 85 3c
       0.2710488 0.08839003 0.0709623 0.016318114
000040 2e c5 47 be de 71 db bd 2c aa 99 bd 14 15 57 3e
       -0.19508812 -0.10715078 -0.07503161 0.21004134
000050 03 56 3d bc d6 82 16 be 09 1c 8a 3e 2d fa 3d be
       -0.011556151 -0.14698347 0.26974514 -0.18552466
000060 4b 3a 71 3d 91 e0 80 3d 25 86 14 3c c1 95 88 3e
       0.058893483 0.06292833 0.009065186 0.26676753
000070 df 0c 8c 3d be 00 b8 bd 0e 6a 84 be b1 af fc bd
       0.068383925 -0.089845166 -0.25862163 -0.12338198
000080 1f 6e 08 be 29 db 9b 3d 33 47 5b be 68 a2 9b 3e
       -0.13323258 0.07610161 -0.21413879 0.30397344
000090 ac ee c1 3d 4e 13 14 be 9a 8c fc 3b 70 41 5a 3b
       0.09469351 -0.14460489 0.0077071907 0.0033303164
0000a0 d4 ab 38 be c5 e7 49 bd 60 3f 07 3e ef 36 0c 3e
       -0.18034297 -0.0492933 0.1320777 0.1369283
0000b0 a5 7a 59 be 47 3a 22 3e 61 4d 34 3e a1 63 65 3c
       -0.21238191 0.15842544 0.17607643 0.014000804
0000c0 62 e8 41 3e 47 0d 1f bd 93 45 5d 3e 8e 1f ac 3d
       0.18936303 -0.03883102 0.21608572 0.08404456
0000d0 81 ad a5 3d d2 e6 3d 3e fb 0a 76 3d 28 91 26 3e
       0.08089734 0.18545082 0.060069066 0.1626631
0000e0 35 e9 15 be 09 e7 28 be 78 39 71 bd 9f 83 b6 3d
       -0.14639743 -0.16494383 -0.058892697 0.089118235
0000f0 c8 6d 7c bd b7 4a 68 3d 5d e3 80 bd 05 80 98 bd
       -0.061628133 0.05671188 -0.06293366 -0.07446293
000100 65 7c 38 3d d0 da 1f 3e 2c c9 00 3d 02 b1 05 bd
       0.045040507 0.15610814 0.031441852 -0.03263951
000110 8b b4 9e 3d 5b 8d ad bc d1 43 74 3d 21 47 be bd
       0.077492796 -0.021185568 0.059634987 -0.092909105
000120 fd 9e 36 be 68 da 8a be 70 b9 9d bc e0 8d 7d 3c
       -0.17834087 -0.27119756 -0.019253463 0.01547572
000130 b8 ef 54 bd 64 d5 53 be 7e a4 71 bd 2c 6f de 3d
       -0.051986426 -0.20686871 -0.058994763 0.10861048
000140 43 ad 33 3e ae 1f 8c 3d 0e 83 fa bd c1 7b f5 3d
       0.17546563 0.0684198 -0.12232028 0.11986495
000150 2f 03 9f 3d 7a 17 42 3e 7f 8b 17 3e ba bf 2a 3d
       0.07764279 0.18954268 0.14799307 0.04168675
000160 69 a9 9d 3d a2 fb f4 bb 0b 2b 9d be b2 85 97 3b
       0.07698328 -0.007476286 -0.30696902 0.004624092
000170 a4 f8 04 bd 8c 1f 02 be 36 94 0f be 83 f2 25 bd
       -0.032463685 -0.12707347 -0.14021382 -0.04051448
000180 b8 8e d1 ba a1 28 f5 3d 07 95 a1 bc a9 10 12 3e
       -0.0015987968 0.1197064 -0.019724382 0.14264168
000190 a9 0e 06 bd a2 c3 13 3e 3c 5a 80 bd 6d 42 8e bd
       -0.032728825 0.14430097 -0.06267211 -0.069462635
0001a0 bf 02 27 bd 48 42 8f bd f4 73 18 be c1 8a 86 3d
       -0.040774103 -0.06995064 -0.14887983 0.06569434
0001b0 a3 42 23 3e cf 31 d7 3d 4d ce 82 3e 9d 43 1c 3b
       0.15943389 0.10507547 0.2554802 0.0023844012
0001c0 3a ec 54 3d c2 a6 b4 bd d7 d8 66 3d c1 f9 53 bd
       0.051983096 -0.08820869 0.05635914 -0.051751856
0001d0 a6 a0 ec 3d 4d b9 28 bd c5 d7 04 3d 79 0c 9b 3d
       0.11554079 -0.04119234 0.032432336 0.07570738
0001e0 4b 0b 34 3e 54 0b 56 3c f6 06 df 3c 7e 0f 81 3c
       0.17582433 0.013064224 0.027224999 0.015754458
0001f0 c8 02 3c 3e 3b a8 60 3d 15 5a e6 3d 0a eb 15 be
       0.18360436 0.054847937 0.112476505 -0.14640442
000200 8d 56 9d bd e5 5b b4 bd 30 e5 9b 3e 37 9a 61 bd
       -0.07682524 -0.0880659 0.30448294 -0.05507871
000210 4d 19 b1 bc 19 de 5a bd e8 65 ea bc 6b eb e4 bd
       -0.02161851 -0.053434465 -0.028613046 -0.11177715
000220 2e b5 e0 3d 81 3f cd bd d3 90 78 bc ed 0a 7b bd
       0.10972057 -0.10021878 -0.015171248 -0.061289717
000230 22 03 07 3e f7 cb 58 bd 17 2f e3 bd b9 d5 9a 3d
       0.13184789 -0.05292889 -0.11092966 0.075602956
000240 5a f9 a0 3d e6 31 3e 3d bb f5 14 3d dd db af 3d
       0.0786006 0.046434306 0.03636716 0.085868575
000250 9f 00 00 be 30 ff bd 3c ce 8c 69 bc 95 87 2e be
       -0.12500237 0.023192972 -0.014254762 -0.17043908
000260 5c b0 2b 3d a9 69 c2 bc cd 58 0c be f4 40 30 bd
       0.041916236 -0.023732023 -0.1370575 -0.043030694
000270 8a 3f df 3d dc 72 04 bd 44 41 12 be 4b d2 38 3d
       0.10900791 -0.0323361 -0.1428271 0.045122426
000280 93 05 47 3d 0d 89 be 3b 7d 0a c2 3c c0 74 10 bd
       0.0485893 0.0058146776 0.023686642 -0.03526759
000290 a9 f7 8f be 18 37 72 bc ab 90 4e 3e cb 48 23 3d
       -0.28118637 -0.014783643 0.20172374 0.039864343
0002a0 0c 74 23 be 69 55 38 3d f9 ab 68 be 69 f8 7d bd
       -0.15962237 0.04500333 -0.22721852 -0.06200448
0002b0 f5 aa 48 be 99 ff a0 3d fc f3 2b 3c cd 5a b8 bd
       -0.19596465 0.078612514 0.010495182 -0.09001694
0002c0 d9 fc f3 bd d1 5a 70 3d 89 5c 42 3e 96 92 a6 bd
       -0.11913461 0.05868036 0.18980612 -0.08133428
0002d0 7f 18 4f bd c2 36 98 bd ed 5c ad 3b 02 c9 09 3e
       -0.05056047 -0.07432319 0.0052906186 0.13455585
0002e0 e4 7d d3 3d 33 01 1d 3e df 23 6a 3e 83 de 8e bd
       0.10326746 0.15332489 0.22865246 -0.069760345
0002f0 41 96 2c bd 74 82 b3 3d ec 7b 10 bc 3a 3d de 3d
       -0.04213548 0.08765116 -0.008818608 0.10851522
000300 10 4e 4b be cd d2 06 3e e9 d6 08 3e d1 a1 dc bd
       -0.19853997 0.13166352 0.13363232 -0.107730515
000310 4d fc c4 3a 78 cc 8d 3d fa d3 be 3d a5 5c 3a 3d
       0.0015028805 0.06923765 0.09317775 0.04549851
000320 93 47 34 be d9 7c 9b 3d dd 11 38 be 16 a1 28 be
       -0.17605428 0.07592172 -0.17975564 -0.164677
000330 f3 b5 1f 3c 35 95 ac 3d 5b 4d 39 3d 70 1c 41 3c
       0.00974797 0.084268965 0.045239788 0.011786565
000340 62 db 04 3e 94 79 ee 3d 94 be ae 3d 6e 3f 4d 3c
       0.12974313 0.11644283 0.08532444 0.01252733
000350 0e 69 ac bd 6a bc d7 bd 50 7a 0f 3d 23 f0 9f bd
       -0.08418475 -0.10533984 0.035028756 -0.07809474
000360 53 64 90 bc fd c8 11 bd 92 03 e0 bd 11 d9 ce 3b
       -0.017625963 -0.035592068 -0.10938181 0.0063124974
000370 7f d6 34 bd 74 75 c1 bc cf a6 39 3d 58 a4 ff 3b
       -0.044149872 -0.023615576 0.045325097 0.0078015737
000380 ed bd 5c 3b 12 ab b6 bd c6 b6 23 bc 72 db 4d 3b
       0.003368254 -0.08919348 -0.009992307 0.0031411317
000390 0f a6 5c 3c d7 f2 78 bd ed fe 9d bd 33 90 23 3e
       0.013467326 -0.060778465 -0.07714639 0.15972976
0003a0 d7 3c 11 3e e3 a1 4f 3d d6 98 6a bc fc 3a 14 bd
       0.14183365 0.050691497 -0.0143186655 -0.036189064
0003b0 3d 62 8e bd 78 7c 10 be 65 26 36 bc e5 73 68 bd
       -0.06952331 -0.14109981 -0.011117552 -0.05675115
0003c0 c7 a2 a2 bc 1a 36 d0 bd 51 6d ce bd 9e ca d1 3d
       -0.019853009 -0.10166569 -0.10079444 0.10243724
0003d0 9a b9 c3 bc 5c c3 cf 3d f1 66 27 3e e3 c4 b8 3d
       -0.023892213 0.10144684 0.16347863 0.09021928
0003e0 a5 54 ca 3c 25 e8 8b ba 05 18 9a 3d fc 16 35 3e
       0.024698565 -0.0010674043 0.075241126 0.17684549
0003f0 18 80 19 3e 2b e0 bb 3b 13 03 e6 3d 5c 46 e0 bd
       0.1499027 0.00573351 0.11231055 -0.1095092

layers.1.bias f4 [100]
000000 66 cc e1 bd 35 70 3e bd ee 0e 53 bd fb f6 a5 3d
       -0.11025314 -0.046493728 -0.05152791 0.081037484
000010 52 8a 0b bb 95 47 10 3c 87 8b 96 bd 39 c4 a0 3a
       -0.0021292162 0.008806129 -0.073508315 0.001226551
000020 51 4b 8d bd a5 99 af 3c c8 0f 8e 3d 3e ed f3 3c
       -0.06899131 0.021435568 0.06936604 0.029776212
000030 9c b6 09 bc f1 d0 b7 bc 24 2b 4c bb 8a 42 22 bd
       -0.008405354 -0.022438498 -0.0031153644 -0.039614238
000040 d0 78 fc 3d 38 e2 4b 3b 63 90 71 bc c7 48 80 bd
       0.12327731 0.0031110179 -0.014743897 -0.06263881
000050 51 96 e1 bc 2a 18 32 3d ea 60 10 bd cc 4d 1a 3d
       -0.027537497 0.043480076 -0.035248674 0.03767185
000060 1b c5 9b 3c d1 81 5a bd 57 2b 43 3c 75 60 a6 bb
       0.019014886 -0.05334646 0.0119121885 -0.0050774165
000070 da 7b ce bc 03 e7 f7 3c 70 16 8e bd 0b 5c 51 3d
       -0.025205541 0.030261522 -0.06937873 0.05111317
000080 a2 8b 7b 3d dd 7c 5b 3c 7a 37 29 3c 26 3e 8f 3d
       0.06141246 0.013396469 0.010328168 0.06994276
000090 5c 43 e6 bd 58 18 93 bc 4b 2c a6 bc 24 c8 37 bc
       -0.112433165 -0.017955944 -0.020284792 -0.011217151
0000a0 1d 64 12 3d 92 5b ba bc 68 52 23 3e cf b2 b7 bc
       0.035740007 -0.022748742 0.15949404 -0.02242413
0000b0 37 79 79 3d 10 aa 26 bd bf c1 10 bd 58 10 be 3d
       0.060906615 -0.040689528 -0.03534102 0.09280461
0000c0 2e bb f7 3c f4 e5 d6 3d 57 84 f7 3c db 9e 24 bc
       0.030240621 0.10493079 0.030214472 -0.01004764
0000d0 b6 21 c8 bc f7 9f 12 bd 1d 12 df bd 71 ea 25 3d
       -0.024430137 -0.035797086 -0.10892127 0.040506784
0000e0 c8 ab a4 3d a4 08 5b 3c 50 15 86 bd 27 f0 7c 3d
       0.08040577 0.013368759 -0.06547034 0.061752465
0000f0 1a 5e 4e 3a 5e 1b 2b 3d 01 88 fb bc ad 75 3d 3d
       0.00078722986 0.041774146 -0.0307045 0.046254802
000100 e8 aa b5 3c cd b9 a1 3b 53 24 95 bc 2c bc af bb
       0.022176221 0.0049354793 -0.018205797 -0.005363008
000110 b7 e9 75 bd fd 37 ea 3c 03 28 4f bd eb a5 30 3d
       -0.06003734 0.02859115 -0.050575268 0.04312698
000120 c0 dc 9a bd 35 23 dd bd 64 ab 8d 3c 69 8e 7e bd
       -0.07561636 -0.10797731 0.01729364 -0.06214753
000130 fd d7 87 bd 45 15 11 bc 67 5b d3 bc 69 cb 1c 3d
       -0.06632993 -0.008855169 -0.02580042 0.038279925
000140 53 91 ba 3d 15 7e 6c bd a8 ea ab 3d 22 67 31 bd
       0.0910975 -0.05773743 0.083943665 -0.043311246
000150 70 a2 e0 bd 5f 0f 12 bc 90 fe e7 3c 4d 28 b1 3c
       -0.109684825 -0.008914798 0.028319627 0.021625662
000160 ee 74 7b bd d6 6c ab bb 02 28 91 bd 14 f9 0f bc
       -0.06139081 -0.00523148 -0.07087709 -0.008787412
000170 e0 e1 b2 3c f5 d0 4d 3c 4f 4e 98 3c a0 56 46 3d
       0.021836221 0.012562026 0.018592028 0.048422456
000180 f9 f2 85 bb 97 dc ca 3c 6c 88 b1 3d 47 63 12 bd
       -0.0040878025 0.024763389 0.086685985 -0.03573921

layers.2.weight f4 [100, 100]
000000 b7 3b 07 3d 84 f5 a1 3b 06 41 5d 3d 46 64 f5 3d
       0.033015933 0.004942598 0.05401709 0.11982016
000010 9b a4 b4 3d 83 48 88 3d 83 29 e2 bc db d7 82 bd
       0.088204585 0.066544555 -0.027607685 -0.063888274
000020 bf 53 20 be 9a ec d2 3d 47 39 cb bc 2e 36 8b 3d
       -0.15656947 0.102990344 -0.024807585 0.06797443
000030 17 f6 96 bd 67 a3 4e be 19 c0 89 bb 6d 0f 20 3e
       -0.07371157 -0.2017952 -0.004203808 0.15630884
000040 19 18 99 bd 1f 38 4e 3e b3 8f 4d bd 91 76 e9 bd
       -0.074752994 0.20138596 -0.05018587 -0.11399568
000050 10 bf 31 be 30 d6 80 bd 94 9f 52 be 45 18 8e 3d
       -0.17358041 -0.06290853 -0.20568687 0.06938223
000060 b0 a4 0d be 76 40 34 3e b2 4c ba 3d 6f 92 3b 3d
       -0.13832355 0.17602715 0.0909666 0.045793947
000070 ae de 33 bd 61 4a 50 3c 6c 15 78 3d 20 63 1f bd
       -0.043913536 0.012713046 0.060567304 -0.038912892
000080 73 48 4c 3e 78 1c 8d 3d 52 2f df 3c 34 04 c7 3d
       0.19949512 0.068901956 0.027244244 0.097175986
000090 c1 f9 a1 bd 4b 51 0e 3e d9 9d b2 3d bb a8 8d bd
       -0.07908965 0.13898198 0.08721513 -0.069169484
0000a0 de f2 62 bd 0e fb 97 bd a0 51 cd 3b fd ac 80 be
       -0.055407397 -0.07420932 0.006265834 -0.2513198
0000b0 44 b4 e6 bc 68 ea 53 3d dc f4 74 3e 4c f1 98 3d
       -0.02816213 0.05173722 0.23921531 0.07467899
0000c0 18 54 3d 3e 9e ed 50 3e a9 bd b5 3e 21 95 b9 3e
       0.1848911 0.20403144 0.35496262 0.3624659
0000d0 52 57 ea bd 27 06 94 3c 61 06 1c be 38 c3 08 3e
       -0.11442436 0.01806934 -0.15236808 0.1335572
0000e0 8d 3d 2e 3a 23 ed ff bd ea 63 88 be 85 18 df bd
       0.0006646745 -0.12496402 -0.26638728 -0.108933486
0000f0 8d 2d bc 3d 30 d2 e6 bd 3a 44 a6 bc d1 41 d0 3d
       0.091883756 -0.11270559 -0.020296205 0.101688035
000100 ec 2a 97 3d 4b de d6 3c 3f 9b 3b 3d 73 62 d3 bc
       0.073812336 0.026229044 0.04580235 -0.02580378
000110 85 34 8c be db 9a 34 3e 50 e7 ad 3d 68 0e af 3c
       -0.2738382 0.17637198 0.08491385 0.021369174
000120 a9 46 d5 bc 16 ff 7b be d8 3b 55 3e 54 82 37 3d
       -0.02603467 -0.24609026 0.2082361 0.044802025
000130 4c 4d bc bd da 3c 26 bd 54 f9 0e 3c ec 75 98 3d
       -0.09194431 -0.040585376 0.008726437 0.07444367
000140 66 82 94 3d f8 a6 2f 3d bd fc 25 bd 3d 6b b0 3c
       0.07251434 0.042883843 -0.040524233 0.02153551
000150 a1 55 66 3c ec bc c1 bd b4 5e 61 3d 9e 61 0d be
       0.014058501 -0.09459862 0.055021957 -0.13806769
000160 8d df 07 be dc 9b fe 3d 11 f8 5d 3c a5 8e a6 bc
       -0.13268872 0.124320716 0.013547913 -0.02033169
000170 bf 38 b4 3c 91 40 02 3e 91 05 ac 3d ba d4 11 3e
       0.021999715 0.12719943 0.08399499 0.14241305
000180 8b 2d c4 3c 32 62 63 3b 28 4a 58 3e ea d6 d9 bb
       0.023947498 0.003469598 0.21122038 -0.006647934
000190 7a ed 3b bd 72 8f 4e 3c 2c 89 32 3e f7 9e c3 ba
       -0.045880772 0.012607442 0.1743514 -0.0014924695
0001a0 04 99 ac 3d 93 98 4a 3e 13 2d 9a 3c aa 07 85 3d
       0.08427623 0.19784765 0.018820321 0.064956024
0001b0 3f 42 80 bd 76 9a d5 3d ec ba 80 bd 32 36 f9 bd
       -0.062626354 0.10429852 -0.062856525 -0.1216854
0001c0 52 ed 66 bd 2b 75 99 ba 76 a5 c0 3b 04 0d be bd
       -0.05637867 -0.0011707892 0.0058790995 -0.09279826
0001d0 5c 1f 8f bd 9e 16 d1 bd c8 58 0b 3e 17 f9 bf 3d
       -0.06988403 -0.10209392 0.13608086 0.09373682
0001e0 03 9b ae bc 42 d1 41 3e c9 89 5d bd f8 0e 01 be
       -0.02131415 0.18927482 -0.05408648 -0.12603366
0001f0 17 51 b4 bb b1 ee 58 bd 66 99 58 3d 5e 33 10 3d
       -0.0055028307 -0.05296201 0.052880667 0.035205238
000200 cc bf 26 3d af 09 06 3d 2d cb 0f 3e d5 cf ef bd
       0.040710256 0.03272408 0.14042349 -0.11709563
000210 3e d2 b6 3d 65 73 a9 3c e7 4f 16 3e b5 cf f4 bd
       0.08926819 0.020684907 0.14678918 -0.119536795
000220 b3 b2 92 bd 56 50 ac bd f3 1e 67 3d ce 55 85 bd
       -0.071629904 -0.0841376 0.056426 -0.065105066
000230 aa cb 56 bd 6f a1 c1 3d 4b 38 a8 bd d6 27 1e 3d
       -0.052440323 0.09454619 -0.08213862 0.03861221
000240 6f 2e 85 bd bb 38 a5 bd 53 65 d8 bc df 76 08 3e
       -0.06502997 -0.08067461 -0.026415503 0.13326596
000250 2b 17 23 bd ab 68 bc bd 8d 07 b5 bd f4 4b cb 3c
       -0.039817017 -0.09199651 -0.08839331 0.02481649
000260 fa 57 06 be 5e 0c 6d bd 88 db 34 bd c2 49 e8 bd
       -0.13119498 -0.057873122 -0.044154674 -0.11342193
000270 84 fb ab bc ab f6 f3 ba 9c ec 39 be 24 f6 c8 bd
       -0.020993955 -0.0018612941 -0.18156666 -0.098125726
000280 3b 64 21 3d f0 70 1d bd bf bc 6c 3e 2b f2 43 3d
       0.039402228 -0.038437784 0.23118876 0.04783837
000290 2a 1b c1 bd fd 08 e8 bc d9 ae 06 3e 3f cc 0c be
       -0.09429009 -0.028324598 0.13152637 -0.13749789
0002a0 c8 e9 2a 3c 6d d4 c1 3d ef 7c a8 bc 89 5e 36 3c
       0.010431714 0.09464345 -0.020567385 0.011130937
0002b0 32 e0 13 3c 79 77 b4 3d 26 ec c2 bd bd a2 17 bc
       0.00902562 0.0881185 -0.09517698 -0.009255108
0002c0 7a 39 4b bd dc 46 28 be 14 aa c9 3d cf f8 33 3c
       -0.04961536 -0.1643328 0.09846893 0.010984614
0002d0 91 58 59 3d 5c 60 6c 3b 17 b8 c0 bd d9 9b 68 bd
       0.05306298 0.0036068177 -0.09410112 -0.056789253
0002e0 d6 9f 5a bd 0c da 97 3d 2d 1b bf bc a9 40 13 3d
       -0.053375088 0.07414636 -0.023328388 0.035950337
0002f0 07 93 26 be b5 8f c7 bd 5f ae 2d be f4 9d a2 3d
       -0.16267024 -0.09744207 -0.16961049 0.079402834
000300 b4 4c 64 3d 33 27 dd 3d 08 37 d2 bd d3 19 77 3d
       0.055737212 0.10798492 -0.10264403 0.060327362
000310 8c 9d b7 bc dc ed 20 3d c6 27 9d bd a3 8d 72 3d
       -0.022413991 0.03928934 -0.07673602 0.059217107
000320 ee 75 66 be 65 fc 70 3e 05 6a 8a 3b 95 94 53 bd
       -0.22505924 0.23533781 0.0042240643 -0.05165537
000330 70 f0 e9 3d cd 34 94 bc 37 33 46 bc f3 c7 8f bc
       0.11422813 -0.018091584 -0.0120971715 -0.017551398
000340 38 0e bc 3d b4 db 53 bd e5 27 19 be b9 fb ee bc
       0.091823995 -0.051723197 -0.14956625 -0.029172765
000350 b4 db 7e 3d fa 93 05 3e 9c 90 9f 3c 5c 53 0b be
       0.062221244 0.1304473 0.019478135 -0.13606018
000360 c9 63 28 3e ea 86 e1 bc 13 e4 64 bc da 43 33 bd
       0.16444315 -0.027530152 -0.013970393 -0.04376588
000370 f1 80 f0 bc b3 e4 96 bc ab 47 05 be 68 41 ed 3d
       -0.029358359 -0.0184196 -0.1301562 0.11584741
000380 3e 27 3f be c8 69 62 3e 5c c7 e9 bc c6 86 f3 3d
       -0.18667313 0.22110665 -0.028537445 0.1189094
000390 ea 98 25 bc c0 29 84 3e ba df 37 bc 4b 2f ca bd
       -0.010107258 0.25813103 -0.011222774 -0.09872302
0003a0 5e 91 be 3b 08 88 03 3d cf 91 b0 bd e9 9a 23 bc
       0.005815669 0.03211215 -0.08621561 -0.009985664
0003b0 0d 51 bb bd 46 a1 9b be 9f dd 96 bd 03 fa bc 3c
       -0.091463186 -0.3039648 -0.073664896 0.023068434
0003c0 b2 35 74 bd 4c 63 1f 3e 62 bc b0 3d bd 27 35 3e
       -0.05962152 0.15565223 0.08629681 0.1769094
0003d0 eb df 82 3b 4f 47 fd 3d 54 ea 94 bd 67 37 b6 3d
       0.0039939783 0.12367117 -0.07271257 0.08897286
0003e0 80 3a f4 3d 17 b5 c5 3d 6d aa a4 bd 9c 7c a0 bd
       0.119252205 0.09653681 -0.08040319 -0.07836267
0003f0 bc d4 e9 bd a1 9d bd bd 1d e2 18 3e 38 04 3a 3e
       -0.11417529 -0.09258581 0.14930005 0.18165672

layers.2.bias f4 [100]
000000 4a b8 2a 3d 86 c5 43 bd 1b 63 63 bd c7 ca c5 3c
       0.041679658 -0.047795795 -0.055514436 0.024144543
000010 36 2d ef bb d7 3d 90 3c 71 a1 54 bd e4 0d 9a 3b
       -0.0072990907 0.017607613 -0.051911775 0.004701363
000020 23 5f 7f 3d 25 33 1c 3b 7a 84 de 3b 21 ff 0d 3d
       0.06234659 0.0023834195 0.006790695 0.034667138
000030 1e ce c0 bc 5f bd cb 3c 73 a6 b8 3c 55 5e 35 3d
       -0.023535784 0.024870573 0.022540307 0.044279415
000040 99 90 11 3d 4e c2 b2 bc fe f1 f4 bb 50 cb 8a 3c
       0.03553829 -0.021821167 -0.007475137 0.01694265
000050 4a 20 97 bd 31 73 26 3d f4 92 ac bc 2c 6e 83 bd
       -0.073792055 0.0406372 -0.021066166 -0.06417498
000060 1d 69 7f bd 0c c7 58 3d 30 e3 dd bb a0 ae 2d 3c
       -0.062356103 0.0529242 -0.0067714676 0.010600716
000070 39 c9 00 3c d1 b5 90 3c a9 7e 92 3d 06 ba 0f 3d
       0.007860475 0.017664822 0.07153065 0.035089515
000080 ff cf 30 3c a9 00 84 bd 01 3a d9 bc a1 06 01 3d
       0.010791778 -0.064454384 -0.026516916 0.031500462
000090 ef 14 93 3c 12 d1 1e 3d 30 f9 35 3d 29 ac 67 bb
       0.017954318 0.038773604 0.044427097 -0.0035350418
0000a0 f7 36 08 bd ad 8c 1e 3d 59 28 f2 3c b4 91 81 bd
       -0.033255544 0.038708378 0.029560255 -0.06326619
0000b0 aa b9 83 3d fb e9 07 3d b7 59 ab 3c c6 10 ef bc
       0.06431897 0.033182126 0.020916803 -0.029182803
0000c0 91 0d dd 3b c6 9c 8a bc b8 af 9f bd db 70 e2 3b
       0.006746002 -0.016920459 -0.077971876 0.006910426
0000d0 70 fb c6 3a da 80 bb 3b aa 47 cd bb 02 2f 48 bc
       0.0015181135 0.0057221474 -0.0062646465 -0.012218239
0000e0 87 85 35 bd d1 c6 c2 bc 50 67 3a bc 63 44 e0 3d
       -0.044316795 -0.023776444 -0.011377171 0.10950544
0000f0 b6 5c b6 bc 5e cf ef ba 04 08 f9 3c 56 50 f4 3c
       -0.022261005 -0.0018296053 0.03039933 0.029823463
000100 77 f6 81 3c 8b f7 15 bd 96 f3 54 bd d3 78 ad bc
       0.015864594 -0.03661303 -0.051990114 -0.021175778
000110 b4 df ab 3d 5c ff 89 3c 9c 14 37 3a f7 45 38 3e
       0.08392277 0.016845398 0.0006983967 0.1799544
000120 a8 a0 0b bd d6 a8 6e bc c2 f9 08 bd 63 f8 b7 bc
       -0.03408876 -0.014566621 -0.033441313 -0.022457307
000130 70 2a 75 3c 87 f8 e1 bc 66 80 30 bd 4c 3e eb 3c
       0.014963731 -0.027584327 -0.0430912 0.028716229
000140 d4 e9 85 3d e3 e6 55 3d d7 f1 b1 3c ec 6a b5 bb
       0.0653874 0.052222144 0.021721764 -0.0055364277
000150 58 8a 37 3c e0 83 aa 3b 93 33 8d bc a3 ce 68 3c
       0.011202417 0.005203709 -0.017236507 0.014209422
000160 d2 24 d2 3c 48 ad aa 3c 18 1e 12 3d 11 e0 05 bc
       0.025652323 0.02083458 0.03567323 -0.008171097
000170 fb c9 da bb 43 5c 1c bd 59 84 e3 bb 6d 20 0c 3c
       -0.00667691 -0.038173925 -0.0069432673 0.008552653
000180 aa 3f 3c bb 37 d4 07 bd 63 00 b0 3c 24 60 c3 bc
       -0.002872447 -0.03316137 0.02148456 -0.023849554
