main/continuous_time_inference (Schrodinger)/models_iters/Schrodinger_24000.pt (torch, 208864 bytes, 14 tensors)

linear_in.weight f4 [100, 2]
0	0x3e3696aa	0.17830911
1	0x3e15f6fe	0.14645001
2	0xbd35bbaf	-0.044368442
3	0xbe3e0324	-0.18555886
4	0x3cdc95b6	0.026926856
5	0x3dd6d635	0.104900755
6	0x3b5810e1	0.0032969045
7	0x3e5ece8a	0.21758476
8	0x3e32f12b	0.17474811
9	0x3cafb643	0.021449214
10	0xbdd2d91b	-0.10295316
11	0x3e7e7477	0.24849115
12	0x3df85a78	0.121266305
13	0xbce9c87b	-0.02853798
14	0xbea091fa	-0.3136137
15	0xbe0a4421	-0.13502552
16	0xbd9ee241	-0.07757998
17	0x3e64637e	0.22303578
18	0xbe0a88aa	-0.13528696
19	0x3e68e3b5	0.22743113
20	0xbe1026d3	-0.1407731
21	0x3e03ee59	0.12883891
22	0xbd3bcd54	-0.045850113
23	0x3e588834	0.21145707
24	0xbe363bfb	-0.17796318
25	0xbd46fd79	-0.048581574
26	0x3bb9b2fb	0.005667088
27	0xbe91942c	-0.2843336
28	0x3cccfdc4	0.025023349
29	0xbd9b74f8	-0.075906694
30	0x3e3c52af	0.18390916
31	0x3e8cd53b	0.27506432
32	0x3e72d20d	0.2371294
33	0xbd6c6649	-0.057714734
34	0x3e8d589f	0.27606675
35	0x3d0386ba	0.032110907
36	0xbda48b63	-0.080343984
37	0xbe20f1b9	-0.1571721
38	0x3dfae764	0.122511655
39	0xbd8f3b49	-0.069937296
40	0xbe8c700b	-0.27429232
41	0xbe260fdc	-0.16216987
42	0xbe203fea	-0.15649381
43	0x3ecee207	0.4040682
44	0xbda20445	-0.079109706
45	0xbd8a1af4	-0.06743422
46	0x3dff7d63	0.124750875
47	0x3dad0ed1	0.08450092
48	0x3de14087	0.10998636
49	0xbdadbe2d	-0.08483539
50	0xbe43e55b	-0.19130461
51	0xbd8fc673	-0.07020273
52	0x3e3aaebb	0.18230717
53	0xbdfcbb26	-0.12340383
54	0x3da992b0	0.082799315
55	0xbdfef4e9	-0.12449057
56	0x3e5a1570	0.2129724
57	0x3e3771ff	0.1791458
58	0xbe96771c	-0.29387748
59	0x3dd5844a	0.10425623
60	0x3e11005b	0.14160292
61	0x3e69ad8a	0.22820106
62	0x3d6c079b	0.05762444
63	0xbd622f0f	-0.05522066
64	0x3cf6eb28	0.030141428
65	0x3e328a5c	0.17435592
66	0x3da75062	0.08169629
67	0x3d778751	0.060431782
68	0x3e9bd450	0.3043542
69	0xbeac6dff	-0.3367767
70	0xbbe79186	-0.0070669083
71	0x3dc89634	0.09794274
72	0x3c94b77c	0.018153898
73	0x3e5d8607	0.21633159
74	0x3cd471ef	0.025933234
75	0x3caeb582	0.021326784
76	0xbd4396dd	-0.047751296
77	0xbec031b4	-0.3753792
78	0xbdc04748	-0.09388596
79	0x3e796fb9	0.24359025
80	0x3e588ae9	0.2114674
81	0xbe504681	-0.20339395
82	0xbe310e55	-0.17290623
83	0x3dd7026a	0.10498507
84	0xbdfb5c9e	-0.12273525
85	0xbe653b52	-0.2238591
86	0xbe8a89bf	-0.27058217
87	0x3c0aea18	0.008478664
88	0xbe03d9c9	-0.12876047
89	0xbe312605	-0.1729966
90	0xbe1bc287	-0.15210925
91	0xbe4edc46	-0.20201215
92	0x3d2fb247	0.042894628
93	0xbe40626e	-0.18787548
94	0x3e517ac5	0.20456989
95	0x3e02e20e	0.12781546
96	0xbe413927	-0.18869458
97	0xbcda675f	-0.02666062
98	0xbd9f162f	-0.07767903
99	0xbe8313fc	-0.25601184
100	0x3e09b955	0.13449605
101	0xbe13e4ea	-0.14442793
102	0xbd913264	-0.070896894
103	0x3d6404cf	0.05566865
104	0xbd1cfd0e	-0.03832727
105	0xbe8006e9	-0.25005272
106	0x3e248767	0.16067277
107	0xbe12c0b3	-0.14331321
108	0x3db4ff42	0.08837749
109	0xbeae5162	-0.34046465
110	0x3d540a43	0.0517676
111	0xbe4f3f96	-0.202391
112	0x3ebf8c80	0.3741188
113	0xbeaaa9cc	-0.3333267
114	0xbdc4f7ce	-0.096175775
115	0x3dfb4531	0.122690566
116	0x3b2ccf38	0.002636863
117	0x3dd84633	0.105602644
118	0xbe69e7a3	-0.22842269
119	0x3d680324	0.05664362
120	0x3dc5a596	0.09650724
121	0x3c473892	0.0121594835
122	0xbcfd80f5	-0.03094528
123	0x3e52aef9	0.2057456
124	0xbe2c8970	-0.16849303
125	0xbe7ea15b	-0.2486624
126	0x3dd6fa48	0.10496956
127	0x3be80d7d	0.007081686
128	0x3cab9957	0.020947142
129	0x3e1cef49	0.15325655
130	0xbe35d0d5	-0.17755444
131	0xbdb8ac35	-0.09017221
132	0xbdf04f82	-0.11733915
133	0x3e6cade9	0.23113216
134	0x3d8d22b4	0.06891385
135	0x3ca0ce2b	0.019629559
136	0x3e4fb070	0.2028215
137	0xbbe4a60a	-0.006977801
138	0x3c2c2eb6	0.010509184
139	0x3e494e23	0.19658713
140	0x3e8a3b11	0.2699819
141	0xbd90f625	-0.07078198
142	0xbd80296b	-0.062579
143	0x3dabd728	0.08390647
144	0xbb810aca	-0.0039380537
145	0xbead5a3d	-0.3385791
146	0xbc340b55	-0.01098903
147	0x3d268630	0.040655315
148	0xbe7cbe23	-0.24681906
149	0xbe003f20	-0.1252408
150	0x3dedafd4	0.11605802
151	0x3d98ffed	0.07470689
152	0xbe13b32e	-0.1442382
153	0xbdd2853a	-0.10279317
154	0x3e24c235	0.16089709
155	0x3e61f2ad	0.2206523
156	0xbd24e11f	-0.040253755
157	0x3e653e12	0.22386959
158	0xbe8a8d5a	-0.27060968
159	0xbe63e15b	-0.22253935
160	0x3dee79dd	0.11644337
161	0xbe188d07	-0.14897548
162	0x3d95c183	0.073123
163	0x3ce86abb	0.028371206
164	0xbb5c2c24	-0.0033595646
165	0x3d37bd95	0.044858534
166	0x3c61ff45	0.013793771
167	0x3e4d8e2f	0.2007377
168	0x3d8af37a	0.06784721
169	0xbc85bcf5	-0.016325453
170	0x3e1678e7	0.14694558
171	0x3e90f902	0.28314978
172	0xbe2e991f	-0.17050599
173	0x3e9dbd31	0.30808404
174	0x3e6441f2	0.22290781
175	0xbe0b6c39	-0.13615502
176	0xbde73f13	-0.11291327
177	0x3de58e38	0.11208767
178	0x3d88916d	0.06668363
179	0xbe5b08e8	-0.21390116
180	0x3d7872ba	0.060656287
181	0xbd1d227f	-0.038362976
182	0xbc89a346	-0.016801488
183	0x3e76cab8	0.24100769
184	0x3ea65ef7	0.32494327
185	0xbd7e5fe0	-0.062103152
186	0xbda6698c	-0.081256
187	0x3e00d396	0.12580714
188	0xb718ca09	-9.106946e-06
189	0x3dd3d356	0.103430435
190	0xbdaf2975	-0.08552829
191	0x3e8ea993	0.2786375
192	0x3e086ca6	0.13322696
193	0x3d9e2890	0.077225804
194	0xbe009e41	-0.12560369
195	0xbcd10195	-0.02551345
196	0xbe687b06	-0.2270318
197	0x3e04dcf2	0.12974909
198	0xbcaa3be0	-0.020780504
199	0x3daf715b	0.08566543

linear_in.bias f4 [100]
0	0x3ce87b60	0.028379142
1	0x3c8f3ae0	0.017484128
2	0xbd670629	-0.05640236
3	0x3d26c482	0.04071475
4	0x3d951525	0.072794236
5	0xbd72bdd8	-0.05926308
6	0x3d94abff	0.07259368
7	0xbcfbfb93	-0.030759608
8	0x3d9e7f3a	0.0773911
9	0xbd57a006	-0.052642845
10	0x3c7e294c	0.015512776
11	0x3cf4482d	0.029819572
12	0x3d32f6ae	0.043692283
13	0x3da98dd8	0.08279008
14	0x3d78ee2a	0.060774006
15	0x3d95c896	0.07313649
16	0x3d84e0fc	0.06488225
17	0xbd289e83	-0.041166794
18	0x3d567ac9	0.05236319
19	0xbd0584cf	-0.03259736
20	0xbc9163c9	-0.017747777
21	0xbd09ee1c	-0.033674344
22	0x3dc5b76a	0.09654124
23	0x3cecca09	0.028904932
24	0x3c28faca	0.010313699
25	0xbceb72dc	-0.028741293
26	0x3d2925d7	0.041295853
27	0xbd7f75cd	-0.062368203
28	0x3cf2321a	0.029564906
29	0x3d8377c8	0.06419331
30	0x3d142dcd	0.03617649
31	0x3d41a035	0.047271926
32	0xbda16bf8	-0.078819215
33	0x3ce35c28	0.027753904
34	0x3b42effc	0.0029745093
35	0xbd841121	-0.064485796
36	0xbcd8df2d	-0.026473606
37	0xbd422471	-0.047398034
38	0x3d6904b6	0.05688926
39	0x3dd43586	0.10361771
40	0x3d9f91a2	0.07791449
41	0xbcd12e32	-0.025534723
42	0xbc5cdc6f	-0.01348029
43	0x3d89c8d5	0.06727759
44	0xbd0f7f61	-0.035033587
45	0x3d1f24ae	0.03885334
46	0x3cf229a4	0.029560871
47	0xbd301b7f	-0.042994972
48	0x3d538462	0.051639922
49	0x3d3d63b6	0.04623767
50	0xbd14e2e4	-0.036349192
51	0xbcb46cd3	-0.022024548
52	0xbd11b87a	-0.03557632
53	0x3d0afbe3	0.033931624
54	0x3cf81290	0.030282289
55	0xbce07853	-0.027401125
56	0xbd1e3879	-0.038628075
57	0x3d8110df	0.06302046
58	0x3d0e66f2	0.034766145
59	0xbd7c4aa9	-0.06159464
60	0xbd9382c3	-0.07202675
61	0x3d9387e4	0.072036535
62	0xbd3155ae	-0.0432946
63	0x3d781528	0.06056705
64	0xbd09d6ce	-0.03365212
65	0xbbbe22ad	-0.0058024735
66	0xbd1778f4	-0.036980584
67	0xbd251d7a	-0.040311314
68	0xbcded92d	-0.027203167
69	0x3c4c4826	0.012468373
70	0x3d4fa51c	0.05069457
71	0x3cde87f5	0.027164439
72	0x3d40f5db	0.047109466
73	0x3dba3532	0.090921775
74	0x3d5e5322	0.0542785
75	0x3ce9041a	0.028444339
76	0x3c8f1086	0.017463934
77	0xbd58a1bb	-0.052888613
78	0xbd706078	-0.05868575
79	0x3cecad85	0.028891334
80	0x3d2c0d57	0.04200491
81	0xbc55a9ae	-0.013040943
82	0x3dc18c79	0.09450621
83	0x3d18b7be	0.037284605
84	0x3dcc725d	0.099827506
85	0x3cbdebed	0.023183787
86	0x3d2bd7ee	0.041953973
87	0xbd4c181d	-0.049827684
88	0x3daab066	0.083344266
89	0x3d4e5ffa	0.0503845
90	0x3d5c5cfe	0.05379962
91	0xbd39a548	-0.04532364
92	0x3d10248f	0.035191115
93	0x3cda742d	0.026666725
94	0xbdcb8083	-0.09936621
95	0x3a9929b1	0.0011685399
96	0xbceeb211	-0.029137643
97	0xbcc448f3	-0.023960566
98	0xbd33de32	-0.043913074
99	0xbd028a0d	-0.031869937

linear_out.weight f4 [2, 100]
0	0x3e5d05f5	0.21584304
1	0x3eb94825	0.36187854
2	0x3ed7b924	0.4213344
3	0x3de30626	0.11085157
4	0xbd86c9ca	-0.06581457
5	0x3e084265	0.13306578
6	0xbddc4fd7	-0.10757416
7	0xbe790b72	-0.24320772
8	0xbe5377ad	-0.20651121
9	0x3e772edf	0.24138974
10	0x3ed501a4	0.41602814
11	0xbd310bc7	-0.043224122
12	0x3e07af05	0.13250358
13	0x3eb83513	0.35977992
14	0xbe30dd04	-0.17271811
15	0x3d64124a	0.055681504
16	0x3da88928	0.082292855
17	0x3daa3b79	0.08312125
18	0xbe28c128	-0.16479933
19	0xbe1f40ea	-0.15552106
20	0xbdc7d191	-0.097567685
21	0x3d8328dc	0.06404278
22	0xbe1160e0	-0.14197111
23	0xbd39c4af	-0.045353588
24	0xbdd86ebf	-0.10567998
25	0x3d64d92c	0.055871174
26	0xbd5e1edb	-0.054228645
27	0xbdab269d	-0.08356974
28	0x3d118da9	0.03553549
29	0x3e36bec0	0.17846203
30	0x3df92615	0.12165467
31	0xbb8df34a	-0.004331981
32	0x3cb51f91	0.022109779
33	0x3df2f0f0	0.118623614
34	0xbe31500e	-0.17315695
35	0x3e155a2d	0.1458518
36	0xbdf9ce13	-0.12197509
37	0xbdc43f8b	-0.09582432
38	0xbd92b7ee	-0.07163988
39	0xbe0584a8	-0.13038886
40	0x3e36dcb3	0.17857628
41	0xbdbcc71b	-0.09217664
42	0xbe3f4eaf	-0.18682359
43	0xbe4046ec	-0.18777055
44	0xbd32c60b	-0.0436459
45	0xbd5fcc8e	-0.054638438
46	0xbdf53d1b	-0.119745456
47	0x3e298ed6	0.16558394
48	0xbdeb99b7	-0.11503928
49	0xbcb74959	-0.022373842
50	0xbe8c7897	-0.27435753
51	0xbd4012f1	-0.046893064
52	0x3e16ae92	0.14715031
53	0xbeade4c7	-0.33963606
54	0xbcb48f84	-0.02204109
55	0xbd71c3b8	-0.059024543
56	0x3e1c7ab6	0.15281186
57	0xbe2642f4	-0.16236478
58	0xbe2528d5	-0.16128857
59	0x3e962bf4	0.2933041
60	0xbdb3a087	-0.087708525
61	0xbd41f47b	-0.047352295
62	0xbd96bdec	-0.073604435
63	0x3d4ebd2e	0.050473385
64	0x3d353ad8	0.04424557
65	0xbdf2ed50	-0.1186167
66	0xbd7f1a7b	-0.062281113
67	0x3d98d2cc	0.07462081
68	0x3debde54	0.11517015
69	0x3dffd774	0.12492266
70	0xbd6bc5d1	-0.0575617
71	0x3da220c9	0.079164095
72	0x3e18faf7	0.14939485
73	0xbdccf8e0	-0.10008407
74	0xbd284436	-0.041080676
75	0x3e79d514	0.24397689
76	0xbdfe5970	-0.124194026
77	0xbe700c8d	-0.23442288
78	0x3dc12bf5	0.09432212
79	0x3b108e39	0.0022057428
80	0x3df47d59	0.11937971
81	0xbe32eaa8	-0.17472327
82	0xbcf0ba08	-0.029385582
83	0x3ef697ea	0.48162776
84	0x3eab9f2b	0.33519873
85	0xbdf19349	-0.117956705
86	0xbe806d0e	-0.25083202
87	0x3d9ea582	0.07746412
88	0xbd92795e	-0.07152055
89	0xbeb973f4	-0.36221278
90	0xbd86e4da	-0.06586619
91	0xbe160f13	-0.14654188
92	0x3e1fe380	0.15614128
93	0xbe42ac7e	-0.19011113
94	0xbe23ed37	-0.16008459
95	0xbd9daacc	-0.076985925
96	0xbe817627	-0.25285456
97	0x3e27233c	0.16322035
98	0xbd2253ff	-0.039630886
99	0xbe731bc2	-0.23741058
100	0x3e4a4246	0.19751844
101	0xbd59364b	-0.053030293
102	0x3e49a961	0.19693519
103	0xbc6841de	-0.01417586
104	0xbd9ad2be	-0.07559727
105	0xbcbd86d2	-0.023135576
106	0xbead49db	-0.3384541
107	0xbe070b9a	-0.1318802
108	0x3c00e6cf	0.007867529
109	0x3e00ddba	0.12584582
110	0xbe72721a	-0.23676339
111	0x3ded21cb	0.11578711
112	0x3e869ded	0.26292363
113	0xbe1e0c2b	-0.15434329
114	0x3ddebd09	0.10875899
115	0xbc573729	-0.01313571
116	0x3eab33d7	0.33437988
117	0x3c243f9f	0.010024934
118	0xbd5d333b	-0.054003935
119	0x3dbd3072	0.09237756
120	0x3e4a76b5	0.19771846
121	0xbd98a9bc	-0.07454249
122	0x3e110ec9	0.14165796
123	0x3cb3a19e	0.021927651
124	0xbc7e36c2	-0.015515985
125	0xbd128417	-0.035770502
126	0xbe39b56c	-0.18135613
127	0x3e486a2c	0.19571751
128	0xbe70f0f2	-0.23529413
129	0x3dc4a5db	0.09601947
130	0x3e25a982	0.16177943
131	0xbe16f673	-0.1474245
132	0xbdedcb75	-0.11611072
133	0xbe5f16a7	-0.21785985
134	0xbba008bf	-0.004883855
135	0x3e168e27	0.14702664
136	0x3e5adbad	0.21372862
137	0x3ec6adc5	0.3880445
138	0x3d22d973	0.039758157
139	0xbdb8b98c	-0.09019765
140	0x3e8ddad2	0.2770601
141	0xbe03edf0	-0.12883735
142	0x3cc9d078	0.024635538
143	0xbdff9eac	-0.12481436
144	0xbe764ba3	-0.2405229
145	0x3d87deb4	0.06634274
146	0xbc7831d4	-0.015148599
147	0x3da7aaed	0.081868984
148	0x3e27b3d4	0.16377193
149	0xbdc29b65	-0.095022954
150	0x3eab3335	0.33437505
151	0xbe543c57	-0.20726143
152	0xbc2e8a9d	-0.010653165
153	0x3e5d45d8	0.21608675
154	0xbe3e2ed9	-0.18572558
155	0x3e47d0d5	0.19513257
156	0xbd657b26	-0.056025647
157	0xbdd43374	-0.103613764
158	0x3e15f299	0.14643325
159	0xbe7371ba	-0.23773852
160	0x3e776513	0.2415965
161	0x3ce28ca6	0.027654957
162	0xbc9f5008	-0.019447342
163	0xbdaa768e	-0.08323394
164	0xbe7ec4e7	-0.248798
165	0xbc72f63b	-0.014829214
166	0x3e0aecdb	0.13566916
167	0xbd5fb09c	-0.054611787
168	0xbda4fa94	-0.080556065
169	0xbd149d50	-0.036282837
170	0xbd366772	-0.044532247
171	0x3c80c98e	0.015721109
172	0x3ced42d6	0.028962534
173	0x3dd0dd6b	0.10198482
174	0xbef2f763	-0.47454366
175	0xbe89350f	-0.26798293
176	0x3db475b8	0.088115156
177	0xbe8f563e	-0.27995485
178	0xbe61449f	-0.21998833
179	0xbea891b3	-0.3292366
180	0xbdc4c057	-0.096069984
181	0x3d360948	0.044442445
182	0xbd9fab93	-0.07796397
183	0xbd9d2657	-0.07673328
184	0xbe9af870	-0.30267668
185	0x3e609a69	0.21933903
186	0xbe669ea6	-0.22521457
187	0xbe7ac1c1	-0.24487974
188	0x3e255115	0.16144212
189	0xbdbb5360	-0.09146762
190	0xbc91b011	-0.01778415
191	0x3e0ea26b	0.13929145
192	0x3e242afa	0.1603202
193	0xbeb9f52b	-0.3631986
194	0xbde45452	-0.11148895
195	0xbdead613	-0.11466613
196	0xbae6b430	-0.0017601307
197	0x3e750180	0.23926353
198	0xbea9050a	-0.33011657
199	0xbe251e90	-0.1612494

linear_out.bias f4 [2]
0	0x3b39aad4	0.0028330581
1	0x38c805c1	9.537815e-05

layers.0.weight f4 [100, 100]
0	0xbd0eddb3	-0.034879398
1	0xbdbe1429	-0.09281189
2	0x3dd1a2e2	0.102361456
3	0x3d19c1ca	0.037538327
4	0x3d9d858d	0.076914884
5	0x3dbb422e	0.09143482
6	0x3e4ec665	0.20192869
7	0xbdc05df4	-0.0939292
8	0x3df6ff55	0.120604195
9	0xbd9d26b1	-0.076733954
10	0xbdb050b5	-0.08609144
11	0xbe1a8eff	-0.15093611
12	0x3e02cd88	0.12773716
13	0xbd123763	-0.035697352
14	0x3e4e21ea	0.20130125
15	0x3e4ec80f	0.20193504
16	0x3e19c9b8	0.15018356
17	0x3c72c1e7	0.014816738
18	0x3e0c2e98	0.13689649
19	0x3e054856	0.13015875
20	0xbe6c6a58	-0.23087442
21	0xbdb09a57	-0.08623188
22	0x3e036a28	0.12833464
23	0xbbfb04fa	-0.0076605054
24	0x3da121e9	0.07867796
25	0xbdd09ab5	-0.10185758
26	0xbd5a751a	-0.053334333
27	0x3c96eb5d	0.018422777
28	0xbdfc5264	-0.12320402
29	0x3d9cacae	0.076501235
30	0xbe42386f	-0.1896684
31	0xbd76f437	-0.060291495
32	0xbe3ef17d	-0.18646808
33	0x3df05a99	0.1173603
34	0x3e80ae14	0.2513281
35	0xba83b3f0	-0.0010048132
36	0x3da4ccaf	0.08046853
37	0xbe051073	-0.12994556
38	0x3e0b0c11	0.13578822
39	0x3d66884b	0.056282323
40	0x3d2463e8	0.04013434
41	0x3e39fbfb	0.18162529
42	0x3a8973d0	0.0010486785
43	0xbbae75cf	-0.0053241025
44	0x3e252dcb	0.1613075
45	0x3d6c26d2	0.05765421
46	0xbe571a3e	-0.21006104
47	0xbbad9013	-0.005296716
48	0x3d2d7134	0.042344287
49	0x3dfdeab8	0.12398285
50	0xbd053ae7	-0.032526877
51	0x3dc0b587	0.094096236
52	0xbdddf37c	-0.108374566
53	0x3dbba961	0.09163166
54	0x3da19540	0.07889795
55	0xbe22114f	-0.15826915
56	0x3e311012	0.17291287
57	0xbe071016	-0.1318973
58	0xbcc3409a	-0.023834515
59	0xbdcd929e	-0.10037731
60	0xbd1b84c1	-0.0379684
61	0xbd7caed3	-0.061690163
62	0x3d2eb73f	0.042655226
63	0x3dec226d	0.11530004
64	0x3d8d525c	0.069004744
65	0xbdb393b8	-0.087684095
66	0xbca32682	-0.019915823
67	0xbe86b28b	-0.26308092
68	0xbd07ab69	-0.033122454
69	0xbe132504	-0.14369589
70	0x3e163fca	0.14672771
71	0xbd7d1d5a	-0.06179557
72	0x3d99c9e8	0.07509214
73	0x3d612199	0.05496368
74	0xbd4d59ef	-0.050134595
75	0x3c6df295	0.014523168
76	0x3debe083	0.115174316
77	0xbd001d77	-0.0312781
78	0x3d217d5c	0.039426193
79	0xbe25e103	-0.16199116
80	0xbdbc85a5	-0.09205178
81	0x3ce7f1cd	0.028313542
82	0x3d3f20ea	0.04666225
83	0x3d888ffb	0.06668087
84	0xbd8853dd	-0.06656621
85	0xbd3813d8	-0.0449408
86	0xbcf3e857	-0.029773874
87	0xbd9d0286	-0.07666497
88	0x3d55ea21	0.052225236
89	0xbb79b4a4	-0.0038102055
90	0x3e7cc7ac	0.24685544
91	0xbd23c28b	-0.039980453
92	0xbdbd59fb	-0.09245678
93	0xbcdfbf3f	-0.027312873
94	0xbdf44d30	-0.11928785
95	0xbde78e06	-0.11306386
96	0x3d56cdd8	0.0524424
97	0xbe056871	-0.13028122
98	0xbe0b9cfe	-0.13634107
99	0xbc150a59	-0.009096705
100	0xbd5c79bc	-0.053827032
101	0x3e0a045b	0.13478224
102	0xbdb7c979	-0.08973975
103	0x3baeab9c	0.005330516
104	0x3de6f49f	0.112771265
105	0xbd461b29	-0.048365746
106	0x3e308056	0.17236456
107	0x3d97fbd1	0.07421077
108	0xbd473ab5	-0.04863997
109	0xbb4a28ba	-0.0030847029
110	0xbbdcf724	-0.0067433286
111	0x3d709d6e	0.058743887
112	0x3e959988	0.29218698
113	0x39544352	0.00020242974
114	0xbda3bf03	-0.07995417
115	0x3d6d20ca	0.0578926
116	0xbe340490	-0.17579865
117	0xbe159de7	-0.14611016
118	0x3de76f2d	0.11300502
119	0xbc7d87b7	-0.0154742515
120	0x3e7b20e6	0.24524269
121	0x3e0e2b1f	0.13883637
122	0x3e0b176f	0.13583158
123	0xbdee10db	-0.11624309
124	0x3e1f81c2	0.15576842
125	0x3d7a25fa	0.061071374
126	0xbce6f1fe	-0.028191563
127	0xbe421b41	-0.18955709
128	0xbb905678	-0.004404839
129	0x3e30073d	0.17190261
130	0xbdb67efc	-0.08910939
131	0xbc11daa3	-0.008902225
132	0xbe328b0e	-0.17435858
133	0xbe1b53a1	-0.1516862
134	0xbdce4eaa	-0.10073598
135	0xbd97bccc	-0.07409057
136	0xbd781f67	-0.060576823
137	0xbd144266	-0.036196135
138	0x3e3c2bc2	0.18376067
139	0xbd6d13d7	-0.05788025
140	0x3d16702a	0.03672806
141	0x3e030578	0.12795055
142	0x3ccce21e	0.025010165
143	0x3de803f6	0.113288805
144	0xbdb7679d	-0.089553095
145	0x3e06f1c7	0.13178168
146	0xbded8384	-0.1159735
147	0xbd5727d3	-0.052528214
148	0x3e2afa97	0.16697155
149	0xbdaeb46c	-0.085305065
150	0xbc3d6758	-0.011560284
151	0xbce1e09f	-0.027572928
152	0xbd15ca02	-0.036569603
153	0xbd8f27fe	-0.0699005
154	0x3da1ca66	0.078999326
155	0xbd3b15c5	-0.045675058
156	0xbdd667fd	-0.10469053
157	0x3e4802ef	0.19532369
158	0xbe2429b2	-0.1603153
159	0xbd46509b	-0.048416715
160	0xbe0a11a5	-0.13483293
161	0x3d7a0375	0.061038453
162	0x3dbc38d3	0.09190526
163	0xbe5fedce	-0.21868059
164	0x3b6d45ca	0.0036204928
165	0xbe18e9d4	-0.14932948
166	0xbc82f43e	-0.015985604
167	0xbdeb1da5	-0.114802636
168	0xbcca1f1b	-0.024673035
169	0xbcc605f3	-0.024172759
170	0xbe15e2e3	-0.14637332
171	0x3e333cda	0.17503682
172	0x3e534ad3	0.20634012
173	0x3ddf4ae8	0.10902959
174	0x3dd2cbaa	0.10292752
175	0xbd455d84	-0.048184887
176	0x3db198e7	0.08671742
177	0xbc8b7225	-0.017022202
178	0x3e06480c	0.13113421
179	0xbd8356a3	-0.06413009
180	0xbe561483	-0.20906262
181	0x3d76d4e6	0.06026163
182	0x3e153aff	0.14573286
183	0xbd9c7baa	-0.076407745
184	0xbe4d2956	-0.200353
185	0xbdccf66c	-0.10007939
186	0xbd020315	-0.03174122
187	0xbda3854b	-0.07984408
188	0x3ceaf099	0.028679179
189	0xbd6b2f71	-0.05741829
190	0x3d90acd5	0.07064215
191	0xbc9cd5af	-0.019144861
192	0xbb15e46b	-0.0022871743
193	0xbce01ce4	-0.027357526
194	0xbe9bebd7	-0.3045337
195	0xbe35e0c9	-0.1776153
196	0xbe88c950	-0.2671609
197	0x3e4e8d27	0.20171033
198	0x3d96faee	0.0737208
199	0x3e039b09	0.1285211
200	0xbdf94d4c	-0.12172946
201	0xbd2e1bcb	-0.042506974
202	0x3d8fac13	0.070152424
203	0x3c9de0c2	0.019272212
204	0xbd62fbce	-0.05541592
205	0x3db32873	0.087479495
206	0xbe24da2b	-0.1609885
207	0xbd8ecf41	-0.06973124
208	0xbd937669	-0.07200319
209	0x3e1ac01f	0.15112351
210	0xbd97f281	-0.07419301
211	0x3d39eeaf	0.045393642
212	0xbb3ae1d3	-0.002851595
213	0xbce75423	-0.028238362
214	0xbd9a9a9c	-0.07549021
215	0x3d11b857	0.03557619
216	0xbde6d33c	-0.112707585
217	0xbba15afd	-0.0049241767
218	0x3d468980	0.048470974
219	0xbd1b9897	-0.037987318
220	0xbd098c71	-0.0335812
221	0xbc9873c0	-0.018609881
222	0xbdb89bf6	-0.09014122
223	0xbcac7aba	-0.021054614
224	0x3d8ad2fc	0.06778523
225	0xbd987162	-0.07443501
226	0xbe1dc433	-0.15406875
227	0xbd35d919	-0.044396494
228	0x3d00b4cb	0.031422418
229	0x3d5d9e5b	0.054106098
230	0x3d951ed9	0.07281274
231	0x3d5cb9b3	0.053888034
232	0x3e618877	0.22024713
233	0x3cf4b8fb	0.029873362
234	0xbc05fc0b	-0.0081777675
235	0x3e747ad0	0.23874974
236	0x3da318f4	0.07963744
237	0x3d8c61c2	0.06854583
238	0x3de35617	0.11100405
239	0xbb0c2405	-0.0021383774
240	0x3dd48eef	0.10378825
241	0x3d0e4e9c	0.034742936
242	0xbe840108	-0.25782037
243	0x3de308cb	0.110856615
244	0x3d353ee3	0.044249427
245	0xbdea6c72	-0.114464656
246	0xbd601902	-0.05471135
247	0x3dc54e63	0.09634092
248	0xbd9985ff	-0.07496261
249	0x3d3b45f7	0.04572102
250	0xbde7484c	-0.112930864
251	0xbdf498c5	-0.11943201
252	0x3daa6733	0.08320465
253	0xbd55b89b	-0.052178007
254	0xbd8aa361	-0.06769443
255	0xbc9a1869	-0.018810468

layers.0.bias f4 [100]
0	0x3d67fb92	0.0566364
1	0x3d1367d0	0.035987675
2	0xbd0a3d4b	-0.03374986
3	0xbc655492	-0.013997214
4	0xbd8d4868	-0.06898576
5	0x3d392f35	0.045211036
6	0xbd121df1	-0.035673086
7	0x3cea2a3e	0.028584596
8	0xbd6ea584	-0.058263317
9	0x3d09404c	0.033508584
10	0xbcf508e7	-0.029911472
11	0xbaa47c16	-0.0012549188
12	0x3d5e34a6	0.05424943
13	0x3d6735e3	0.056447875
14	0xbd873365	-0.066015996
15	0xbdd58524	-0.10425785
16	0x3cb6dd4d	0.022322321
17	0xbc800812	-0.015628848
18	0x3c8b2ce1	0.016989173
19	0xbc8d090a	-0.017216224
20	0xbd1a3311	-0.037646357
21	0x3cb6d94e	0.022320416
22	0xbd8ef1f2	-0.06979741
23	0xbd90bead	-0.070676185
24	0xbba4774e	-0.005019105
25	0x3cfa10af	0.030525533
26	0xbd970952	-0.073748246
27	0x3c189550	0.009312943
28	0xbd05927e	-0.03261041
29	0xbd7da676	-0.061926328
30	0xbd5020a3	-0.050812375
31	0x3d1e4976	0.038644277
32	0xbcbd388a	-0.023098249
33	0xbd289a09	-0.041162524
34	0x3cde49ba	0.027134765
35	0xbd3edda5	-0.046598095
36	0x3ce84332	0.028352354
37	0xbc43a543	-0.011941257
38	0x3cfd00d1	0.030884178
39	0xbd6652b6	-0.056231223
40	0x3d83b050	0.06430113
41	0xbca81b6c	-0.020520888
42	0xbd1a1c50	-0.037624657
43	0xbd775923	-0.06038774
44	0xbc01d726	-0.007924831
45	0xbda3184e	-0.0796362
46	0x3d554382	0.052066334
47	0xbc5d1d7e	-0.013495801
48	0x3d3b519d	0.04573213
49	0xbb159e3a	-0.0022829906
50	0xbd2499ef	-0.040185865
51	0xbcce64a4	-0.025194474
52	0x3ce16586	0.02751423
53	0xbd1f6118	-0.038910955
54	0x3cf237ed	0.029567683
55	0x3d61106b	0.054947298
56	0x3b7f6af8	0.003897367
57	0xbc9f2431	-0.019426437
58	0x3d1a0802	0.037605293
59	0x3ca9af0f	0.020713357
60	0xbd24d58e	-0.040242724
61	0xbcce4d43	-0.025183326
62	0xbce4f51c	-0.027948909
63	0xbd86a700	-0.065748215
64	0x3cc0f41e	0.023553904
65	0xbd8ec06e	-0.06970297
66	0xbcbfb044	-0.02339948
67	0x3d81eadd	0.06343625
68	0xbcb6cc43	-0.022314196
69	0xbcf93332	-0.03041992
70	0xbc163a09	-0.00916911
71	0xbd9e282b	-0.07722505
72	0x3d3dda3d	0.046350706
73	0xbcd1c8d3	-0.025608456
74	0xbd95b6e7	-0.073102765
75	0x3d2b6095	0.041840155
76	0x3d323f1e	0.043517224
77	0x3d8b6304	0.06805995
78	0xbc9bafb1	-0.019004675
79	0x3bed6aec	0.007245412
80	0x3d0466d3	0.032324623
81	0x3c8e9f12	0.017409835
82	0x3d1335d1	0.035939995
83	0xbd199c38	-0.037502497
84	0x3bc32882	0.0059557566
85	0x3d26abe3	0.040691268
86	0xbca8cfb5	-0.020606855
87	0x3cad327b	0.021142235
88	0x3d2348ee	0.039864473
89	0xbcbd3fcc	-0.02310171
90	0x3d9a4628	0.075329125
91	0x3d7b0fe7	0.061294463
92	0x3c45e32c	0.012078088
93	0xbc88786f	-0.01665899
94	0x3c9577de	0.018245634
95	0xbca80fd8	-0.020515367
96	0x3cb7007e	0.022339102
97	0xbc2d8b7d	-0.010592339
98	0xbd20611a	-0.039155103
99	0xbcd58944	-0.02606643

layers.1.weight f4 [100, 100]
0	0x3da8e321	0.082464464
1	0xbe1465c4	-0.14491946
2	0x3dad7314	0.08469215
3	0x3d841e23	0.064510606
4	0x3e0643d9	0.1311182
5	0xbd4d5241	-0.05012727
6	0x3dba9d7c	0.09112069
7	0xbd4d69c5	-0.050149698
8	0xbe167a24	-0.1469503
9	0x3da97acb	0.08275374
10	0xbda1d35b	-0.07901641
11	0x3e4de9bd	0.20108695
12	0x3e533c6a	0.20628515
13	0x3da8b229	0.08237106
14	0x3d4ee9af	0.050515827
15	0xbbbf5a7d	-0.0058396445
16	0xbe0f261f	-0.13979386
17	0xbdca5ffe	-0.0988159
18	0xbddb3f02	-0.10705377
19	0x3e120e54	0.14263278
20	0x3c176b86	0.009241944
21	0xbdeb7524	-0.11496952
22	0x3e470f24	0.1943937
23	0xbe193c83	-0.1496449
24	0x3d24a4eb	0.04019634
25	0xba207679	-0.00061211694
26	0x3d3e3734	0.046439365
27	0x3e0b47d0	0.13601613
28	0x3dbdd9fe	0.09270094
29	0xbd72e183	-0.059297096
30	0xbe6236e4	-0.22091252
31	0xbe320276	-0.17383751
32	0xbd768767	-0.060187723
33	0x3d55679a	0.052100755
34	0xbe30c75e	-0.17263553
35	0x3e7e1dd5	0.24816068
36	0x3deb6c90	0.11495316
37	0xbd5910c0	-0.05299449
38	0x3ceea0d0	0.029129416
39	0x3cb59ee4	0.022170492
40	0xbdfc4257	-0.12317341
41	0xbcc29470	-0.023752421
42	0x3df53c37	0.11974376
43	0x3e1949b7	0.14969526
44	0xbe728c13	-0.23686247
45	0x3ddeba38	0.10875362
46	0x3e3263a1	0.17420818
47	0x3d57ca17	0.052682962
48	0x3e20c190	0.15698838
49	0x3d0adf66	0.033904456
50	0x3e504ed5	0.20342572
51	0x3dac7c77	0.08422177
52	0x3d7c2992	0.061563082
53	0x3e094d1e	0.13408324
54	0x3d1c298f	0.03812557
55	0x3e1a0559	0.15041102
56	0xbda76311	-0.08173192
57	0xbd8d4d4b	-0.06899508
58	0x3c0b1f13	0.008491295
59	0x3d291cb0	0.041287124
60	0xbbce2ad2	-0.0062917257
61	0x3d95e68f	0.07319366
62	0x3bbc22f2	0.0057414705
63	0xbdb5475f	-0.088515036
64	0x3c3efd8c	0.01165713
65	0x3db030e9	0.08603079
66	0x3d0dff3d	0.034667242
67	0x3c41e7b9	0.011835032
68	0x3cb6bd45	0.022307048
69	0xbe1d864f	-0.15383266
70	0x3ccbeefa	0.024894226
71	0xbd596ed7	-0.05308422
72	0xbd7951a8	-0.06086889
73	0xbe4644a5	-0.19362123
74	0xbae59e84	-0.0017518555
75	0xbc5524ec	-0.013009291
76	0xbd00ccfe	-0.031445496
77	0xbe5000c5	-0.20312794
78	0xbdc067a9	-0.093947716
79	0x3e16069c	0.14650959
80	0x3e3529c1	0.17691709
81	0x3d6435fb	0.055715542
82	0xbddb604d	-0.10711727
83	0x3d3140e5	0.04327478
84	0x3e0c5896	0.13705668
85	0x3e1ddcc9	0.15416254
86	0x3de2ba66	0.11070709
87	0x3b76c862	0.0037656059
88	0x3d53be53	0.05169518
89	0x3cbaf7c1	0.022823216
90	0xbe812ab3	-0.2522789
91	0xbc2dd3c5	-0.010609572
92	0xbb26b8c8	-0.0025439728
93	0xbd903535	-0.070413984
94	0xbdf09b55	-0.11748377
95	0xbd5480a2	-0.051880486
96	0x3cbc4cf5	0.022985915
97	0x3da72524	0.08161381
98	0xbbc591d7	-0.0060293484
99	0x3db0ae77	0.086270265
100	0xbd48da70	-0.049036443
101	0x3e228ab4	0.15873224
102	0xbd4d54dd	-0.05012976
103	0xbde26ca7	-0.1105588
104	0xbd606e22	-0.05479253
105	0xbd2b1988	-0.041772395
106	0xbdfbaee1	-0.12289215
107	0x3d3e5887	0.046471145
108	0x3e4284f4	0.1899603
109	0x3dd50586	0.10401444
110	0x3e8e0420	0.27737522
111	0xbc145d50	-0.009055451
112	0x3d1e8dfa	0.03870962
113	0xbdb8c799	-0.09022445
114	0x3d34babd	0.0441234
115	0xbd37ecf1	-0.0449037
116	0x3e0332d8	0.12812364
117	0xbda8265a	-0.0821044
118	0x3d2919e0	0.041284442
119	0x3df95604	0.12174609
120	0x3e250a27	0.16117154
121	0x3c46fb60	0.012144893
122	0x3d13bc0c	0.036068007
123	0x3cbaafd2	0.022788916
124	0x3e544fbd	0.20733543
125	0x3d39aeb0	0.04533261
126	0x3dfd60eb	0.12372001
127	0xbe42195d	-0.18954988
128	0xbdc057ed	-0.093917705
129	0xbd93173f	-0.07182168
130	0x3ea06026	0.31323355
131	0xbd85c956	-0.065325424
132	0xbc1d5219	-0.009602093
133	0xbd5d5607	-0.05403712
134	0xbd1336a2	-0.035940774
135	0xbdec7710	-0.11546147
136	0x3e02fe86	0.12792405
137	0xbdb23558	-0.08701581
138	0xbc81d0f1	-0.015846701
139	0xbd44a7ff	-0.048011776
140	0x3dfb3275	0.12265483
141	0xbcec17b3	-0.028819894
142	0xbdcdf831	-0.100571044
143	0x3dda4d86	0.10659318
144	0x3d2b809e	0.041870706
145	0x3d19c27a	0.037538983
146	0x3d523405	0.05131914
147	0x3dd0dae6	0.101980016
148	0xbe04a3be	-0.12953088
149	0x3cef0ae9	0.029180007
150	0x3bb6da56	0.005580227
151	0xbe1042c5	-0.1408797
152	0x3d422192	0.047395296
153	0xbd0f3e75	-0.034971673
154	0xbe1437b0	-0.14474368
155	0xbaa23a14	-0.0012376928
156	0x3dfa762e	0.12229572
157	0x3b472870	0.0030389093
158	0xbdffe9c9	-0.12495763
159	0x3cb2bd6c	0.021818839
160	0x3d94fe7a	0.072751
161	0x3ce3c84f	0.027805476
162	0x3d0a5f61	0.033782367
163	0xbd01a16e	-0.031648092
164	0xbe96edd8	-0.29478335
165	0xbd154bad	-0.036449123
166	0x3e35695e	0.17715976
167	0x3cbc7e4b	0.02300944
168	0xbe2a6607	-0.16640483
169	0x3d2c4e6f	0.042066988
170	0xbe66fe38	-0.22557914
171	0xbd8702b4	-0.065923125
172	0xbe2e47d9	-0.17019595
173	0x3d2d371d	0.04228889
174	0x3c620068	0.013794042
175	0xbdcdf68e	-0.10056792
176	0xbe18e415	-0.14930756
177	0xbc824b5c	-0.015905075
178	0x3e4ab37f	0.19795035
179	0xbd969cfb	-0.073541604
180	0xbd5de928	-0.054177433
181	0xbdc9f845	-0.09861807
182	0xbd2555d3	-0.04036505
183	0x3dfd4e04	0.12368396
184	0x3dd79888	0.1052714
185	0x3e1cb128	0.15301955
186	0x3e6d3b23	0.2316709
187	0xbcc096c9	-0.0235094
188	0xbcc21ce3	-0.023695415
189	0x3dc0f783	0.09422209
190	0xbc97bf23	-0.018523758
191	0x3e0ccf09	0.13750853
192	0xbe49dc6c	-0.1971299
193	0x3e0cf3dd	0.13764901
194	0x3e041917	0.12900196
195	0xbda49c10	-0.08037579
196	0x3c8a5610	0.01688674
197	0x3d8ad1b8	0.06778282
198	0x3deb1810	0.11479199
199	0x3d14d114	0.036332205
200	0xbe38432d	-0.17994376
201	0x3d933346	0.07187514
202	0xbe3ce54e	-0.18446848
203	0xbdf8ca7e	-0.12147997
204	0x3c889b79	0.016675698
205	0x3d99532f	0.07486569
206	0x3dc476f5	0.09593002
207	0x3cc1c70b	0.023654481
208	0x3e0a94e3	0.13533358
209	0x3ddaf077	0.10690396
210	0x3e224df0	0.15850043
211	0x3c89d9d8	0.016827509
212	0xbdb1ce9e	-0.08681987
213	0xbdf6458d	-0.120249845
214	0x3d2c4084	0.042053714
215	0xbd7f91e1	-0.06239498
216	0xbcbe78b4	-0.023250915
217	0xbd149f1f	-0.036284562
218	0xbdf5941e	-0.11991142
219	0x3c86212b	0.016373238
220	0xbce60f9f	-0.02808362
221	0xbcd6dcea	-0.026228387
222	0x3cf44409	0.029817598
223	0x3c409151	0.011753396
224	0x3c9d142f	0.019174663
225	0xbdb9ab06	-0.09065823
226	0x3c447424	0.011990581
227	0xbcf92d94	-0.030417241
228	0x3d86c6c9	0.06580884
229	0xbd5996cd	-0.05312233
230	0xbd572a9d	-0.052530874
231	0x3e17fbb0	0.14842105
232	0x3e24bda0	0.16087961
233	0x3d5c41d6	0.053773724
234	0xbc5adaa8	-0.013357796
235	0xbcf3b046	-0.02974714
236	0xbda0eec1	-0.07858039
237	0xbe007bed	-0.12547274
238	0x3b071397	0.0020611042
239	0xbd3ca5a2	-0.046056397
240	0xbcd0e0c5	-0.025497803
241	0xbdcf3b22	-0.101187006
242	0xbdd31f29	-0.10308678
243	0x3e29ff7e	0.16601369
244	0xbcc4ec32	-0.024038408
245	0x3db5bedb	0.088742934
246	0x3e1ad97c	0.15122026
247	0x3daeaed7	0.08529442
248	0x3ca38e33	0.019965267
249	0x3c7b37b1	0.015333102
250	0x3d98254b	0.07428988
251	0x3e45e3ef	0.19325231
252	0x3e08d1af	0.13361238
253	0xbb1df288	-0.0024100859
254	0x3ddc99d2	0.107715264
255	0xbe0470bc	-0.1293363

layers.1.bias f4 [100]
0	0xbce1b23a	-0.027550805
1	0xbd044519	-0.03229246
2	0xbd1639b5	-0.036676127
3	0xbd2ba687	-0.04190686
4	0xbc70f145	-0.014705961
5	0x3c870e4b	0.016486308
6	0xbc3482e4	-0.011017535
7	0x3c99ba18	0.018765494
8	0xbcd92bff	-0.026510237
9	0xbc038726	-0.008027827
10	0x3d39ebbd	0.045390833
11	0x3cae1c49	0.021253722
12	0x3c939446	0.018015038
13	0xbcc38183	-0.023865467
14	0x3c92fcc7	0.0179428
15	0xbca27f99	-0.019836234
16	0x3c9f17ea	0.019420583
17	0x3b946662	0.0045288065
18	0xbc8d775c	-0.017268829
19	0xbd470903	-0.04859258
20	0x3d55b700	0.052176476
21	0x3b73ad7f	0.003718227
22	0x3c78c614	0.015183944
23	0x3d466a38	0.04844114
24	0x3cbd27cc	0.023090266
25	0xbb30cb63	-0.0026976697
26	0xbc2973e0	-0.010342568
27	0xbc80fd00	-0.01574564
28	0xbc725c6b	-0.014792542
29	0x3d04fba4	0.032466546
30	0xbccbb769	-0.02486773
31	0x3d12ba68	0.035822302
32	0x3ce15b02	0.027509216
33	0x3bac289c	0.0052538645
34	0xbcb67417	-0.022272153
35	0x3cbfcfce	0.023414519
36	0xbd4bff5c	-0.049804077
37	0xbbde0a78	-0.0067761503
38	0x3bbc67c0	0.0057496727
39	0x3d303da0	0.04302752
40	0x3c621663	0.013799283
41	0x3c217866	0.009855365
42	0x3d391a1a	0.045190908
43	0xbbdc2256	-0.0067179604
44	0x3cf09141	0.029366137
45	0xbcb21b41	-0.021741511
46	0xbcb1144f	-0.02161613
47	0x3da37c80	0.07982731
48	0xbc6ad26f	-0.014332398
49	0x3c9f991b	0.019482186
50	0x3cf65eb7	0.03007446
51	0x3a8a241a	0.0010539324
52	0xbc7a4953	-0.015276271
53	0x3984da0b	0.00025339457
54	0xbd237a4f	-0.039911564
55	0x3c506c64	0.012721155
56	0x3d8f6021	0.07000757
57	0x3c2b05be	0.010438381
58	0xbd2a17ac	-0.04152648
59	0x3cf5f824	0.03002555
60	0x3ca22845	0.019794593
61	0x3d4dd04f	0.050247487
62	0xbcff028f	-0.03112915
63	0xbc418c18	-0.011813186
64	0x3c8044b9	0.01565777
65	0x3c501c00	0.012701988
66	0xbcabc0bb	-0.020965924
67	0x3c889ace	0.01667538
68	0x3d6b7717	0.05748662
69	0x3cbcd1e6	0.023049306
70	0xbd04d8eb	-0.03243343
71	0x3c88f6c5	0.016719231
72	0xbcc7d295	-0.024392406
73	0xbcd1cd9d	-0.02561074
74	0x3d00736f	0.031360086
75	0xbd17175f	-0.036887523
76	0xbce53494	-0.027979173
77	0xbcf54597	-0.02994041
78	0x3d240a01	0.040048603
79	0xbb62eb6c	-0.0034625186
80	0x3cec03bd	0.028810376
81	0xbd864c9b	-0.0655758
82	0x3cd4b1af	0.025963632
83	0xbd29543e	-0.041340105
84	0xbd403177	-0.046922173
85	0xbb8e571a	-0.0043438794
86	0x3c53f915	0.012937804
87	0xbb691f87	-0.003557177
88	0xbcd3b9cf	-0.025845436
89	0x3d0cca7c	0.03437279
90	0xbd221be6	-0.039577387
91	0xbc9cfa75	-0.019162396
92	0x3cb52055	0.022110144
93	0x3c1fb7b4	0.009748388
94	0xbc45e0d3	-0.012077528
95	0x3d090ebd	0.03346132
96	0xbd199324	-0.03749384
97	0x3c612a5c	0.013743009
98	0x3d09413c	0.033509478
99	0xbc871fe5	-0.0164947

layers.2.weight f4 [100, 100]
0	0x3dca6124	0.09881809
1	0xbc56a58c	-0.013100993
2	0xbbd55a62	-0.0065110186
3	0x3d9f996c	0.07792935
4	0x3dde190a	0.108446196
5	0x3d315929	0.04329792
6	0x3c49223f	0.012276231
7	0xbd8e2132	-0.06939925
8	0xbde8aeba	-0.113614514
9	0x3d95cb38	0.073141515
10	0xbb0c020b	-0.0021363522
11	0x3cbdc701	0.023166182
12	0xbb406219	-0.0029355346
13	0xbe44373d	-0.19161697
14	0xbd38a1cb	-0.045076173
15	0x3e290022	0.16503957
16	0xbe297b33	-0.16550903
17	0x3e1721b4	0.1475895
18	0x3b49cd83	0.003079266
19	0xbdd8edfc	-0.10592267
20	0xbde8151a	-0.1133215
21	0xbd97136b	-0.073767506
22	0xbe5463b8	-0.20741165
23	0x3c848c8c	0.0161803
24	0xbded0478	-0.11573118
25	0x3e36df95	0.17858727
26	0x3da856dc	0.08219692
27	0x3c8b7791	0.017024787
28	0xbcba0e38	-0.022711858
29	0xbd33781a	-0.04381571
30	0x3d89f204	0.06735614
31	0x3a700ec7	0.00091574754
32	0x3e07989f	0.13241814
33	0x3da5935d	0.08084748
34	0x3cf4fb39	0.029904949
35	0x3d952ec6	0.07284312
36	0xbd4277bc	-0.04747747
37	0x3e543683	0.2072392
38	0x3d809cec	0.062799305
39	0xbd3f7d91	-0.04675061
40	0xbca07209	-0.019585626
41	0xbcafadeb	-0.021445235
42	0xbd059b80	-0.032619
43	0xbe85374f	-0.2601876
44	0xbcf4357c	-0.02981066
45	0xbc52575a	-0.012838209
46	0x3e65e2c2	0.22449782
47	0x3d807f26	0.06274252
48	0x3d5c08a8	0.053719193
49	0x3e0ffb0a	0.14060608
50	0x3ea83229	0.3285077
51	0x3ebef125	0.37293354
52	0xbd72bd57	-0.0592626
53	0x3d882c38	0.06649059
54	0xbdd7159f	-0.10502171
55	0x3dbdb4a4	0.0926297
56	0x3b8684d5	0.0041051903
57	0xbdaf3e7b	-0.08556839
58	0xbe790e4b	-0.24321859
59	0xbddddabf	-0.10832738
60	0xb862f3b0	-5.410955e-05
61	0xbdfd0478	-0.12354368
62	0x3cd3abca	0.025838751
63	0x3ccd77fa	0.025081623
64	0x3d8d4ad7	0.0689904
65	0x3d40f4a4	0.047108307
66	0x3d022257	0.03177103
67	0xbcebcd72	-0.028784487
68	0xbe81a069	-0.25317696
69	0x3e199b91	0.1500075
70	0x3dc8ca62	0.098042265
71	0xbd2d426b	-0.04229967
72	0x3c395a3d	0.011313018
73	0xbe407739	-0.1879548
74	0x3e637286	0.22211656
75	0x3d30a32a	0.043124355
76	0x3af6ad78	0.0018820008
77	0xbceeb094	-0.029136933
78	0x3c935463	0.017984575
79	0x3d8d188a	0.06889446
80	0x3d0884b1	0.03332967
81	0x3d7d2513	0.061802935
82	0xbcf3d10e	-0.029762771
83	0xbca95f04	-0.02067519
84	0x3d8eb2db	0.06967708
85	0x3b8bcb7f	0.004266202
86	0x3c58fe50	0.013244227
87	0xbe233f61	-0.15942146
88	0xbdad828e	-0.08472167
89	0x3dd61d4b	0.10454806
90	0x3d0bb8a7	0.034111645
91	0xbd1c34fa	-0.03813646
92	0xbb349f6e	-0.0027560848
93	0x3daca0cb	0.08429106
94	0x3d1fdcdf	0.039029
95	0x3dac74ed	0.08420739
96	0x3dc9e200	0.09857559
97	0xbc28b1f0	-0.01029633
98	0x3df6ae72	0.120449916
99	0xbb8989e3	-0.0041973456
100	0xbd3bccd4	-0.045849636
101	0x3cf88839	0.030338394
102	0x3e582f39	0.21111764
103	0x3d0b1314	0.03395374
104	0x3db3addb	0.08773395
105	0x3e4e605a	0.20153943
106	0x3936b463	0.00017424072
107	0x3d61d3dd	0.05513369
108	0xbd85aa26	-0.06526594
109	0x3dd32985	0.103106536
110	0xbdb7af6b	-0.08969005
111	0xbdc32e48	-0.09530312
112	0xbd9486c1	-0.07252265
113	0xbb057e39	-0.0020369424
114	0xbc9e764a	-0.019343514
115	0xbda682cb	-0.081304155
116	0xbd6a789d	-0.057243932
117	0xbdb70f61	-0.0893848
118	0x3e1031f1	0.14081551
119	0x3dc3d0ee	0.095613346
120	0xbd131e5e	-0.035917632
121	0x3e46cf5b	0.19415037
122	0xbd9e6e6c	-0.07735905
123	0xbe012d53	-0.12614946
124	0xbc457ef3	-0.012054193
125	0xbd5c2c8d	-0.053753424
126	0x3d8cd94f	0.06877386
127	0x3d05a182	0.03262473
128	0x3cb41509	0.021982687
129	0x3cf505b2	0.029909942
130	0x3e01a132	0.12659147
131	0xbdde8b0d	-0.108663656
132	0x3dd4c3a4	0.10388878
133	0x3b82f6c2	0.003996701
134	0x3e24c5ed	0.16091128
135	0xbdc056ba	-0.09391542
136	0xbd8991e2	-0.06717278
137	0xbd9ba629	-0.07600052
138	0x3d931d2b	0.07183298
139	0xbd9eb330	-0.07749021
140	0x3d0bb9b4	0.034112647
141	0x3daa7243	0.08322575
142	0xbd7d9387	-0.06190827
143	0x3ce8b914	0.028408565
144	0xbd831197	-0.06399839
145	0xbdddd177	-0.10830968
146	0xbcc7c8a4	-0.024387665
147	0x3e1123f7	0.14173876
148	0xbd0adc3b	-0.033901434
149	0xbd888f08	-0.06667906
150	0xbda2b49e	-0.07944606
151	0x3c751ac2	0.014959993
152	0xbe03848c	-0.12843531
153	0xbd565fea	-0.052337565
154	0xbd64b0cb	-0.055832665
155	0xbddcf191	-0.10788263
156	0xbcc18a3f	-0.023625491
157	0xb8d49be5	-0.000101379854
158	0xbe29ede0	-0.16594648
159	0xbdef08ee	-0.11671625
160	0x3c8a24de	0.016863283
161	0xbd2493ad	-0.040179897
162	0x3e829e42	0.25511366
163	0x3d5e5107	0.054276492
164	0xbdc5acbb	-0.09652086
165	0xbd2e54a6	-0.042561196
166	0x3df7a1b2	0.12091388
167	0xbe125644	-0.1429072
168	0x3d735d52	0.05941517
169	0x3dd1a0e3	0.10235765
170	0xbd2a063d	-0.041509856
171	0x3c24c53e	0.010056792
172	0x3c6702e8	0.014099814
173	0x3d2c76fb	0.042105656
174	0xbde1a622	-0.110180154
175	0xbc235fd2	-0.009971576
176	0xbd3286eb	-0.0435857
177	0xbe23390d	-0.15939732
178	0x3d40f8d3	0.047112297
179	0xbaadeb07	-0.0013268896
180	0x3d9988b6	0.07496779
181	0x3af34ec6	0.0018562905
182	0xbdd43957	-0.10362499
183	0xbc592b69	-0.013254979
184	0xbd266fe8	-0.040634066
185	0x3d72720c	0.059190795
186	0xbbc8c9f2	-0.0061275894
187	0x3d6796a6	0.056540154
188	0xbe1f0e5f	-0.15532826
189	0xbdb8f3e4	-0.090308934
190	0xbe2ebf12	-0.17065075
191	0x3dcc5562	0.09977223
192	0x3d634ad4	0.055491284
193	0x3d8d5e4d	0.06902752
194	0xbdc17624	-0.09446362
195	0x3d703ee6	0.058653735
196	0x3d1d5bbd	0.038417567
197	0x3ceeb90b	0.02914097
198	0xbd658f62	-0.056044944
199	0x3d81fc59	0.063469596
200	0xbe21f5e7	-0.1581646
201	0x3e7c0a90	0.24613404
202	0xbc92de04	-0.01792813
203	0xbd21f3c0	-0.0395391
204	0x3e0a02a1	0.13477565
205	0xbc4fc1e2	-0.012680503
206	0xbd46a708	-0.048499137
207	0xbd37198c	-0.044702098
208	0x3de79386	0.11307435
209	0xbd3801aa	-0.044923462
210	0xbe134fef	-0.14385961
211	0xbc77acaa	-0.01511685
212	0x3d7cd615	0.061727602
213	0x3e1e393d	0.15451522
214	0xbb84e671	-0.004055791
215	0xbdf8f65d	-0.12156365
216	0x3dd02191	0.10162652
217	0xbced377e	-0.028957125
218	0x3ad129a9	0.001595785
219	0xbd047c14	-0.032344893
220	0xbd3ab5f6	-0.045583688
221	0xbc957e85	-0.018248806
222	0xbd9eae24	-0.077480584
223	0x3dca35c6	0.09873538
224	0xbe32ac68	-0.1744858
225	0x3e5378a7	0.20651494
226	0xbc195c7d	-0.00936043
227	0x3dd8b92b	0.10582193
228	0xbc1f3e20	-0.009719402
229	0x3e819a6b	0.25313124
230	0x3ba27210	0.004957445
231	0xbd83feea	-0.064451054
232	0x3b2aa3b4	0.0026037516
233	0x3d727363	0.059192073
234	0xbdaba6e8	-0.08381444
235	0xbb590a99	-0.003311789
236	0xbd81afaf	-0.06332337
237	0xbe955d47	-0.29172727
238	0xbd935c5a	-0.07195349
239	0x3d5710f3	0.0525064
240	0xbcef4725	-0.029208729
241	0x3e2a2fe7	0.16619836
242	0x3d413edc	0.047179088
243	0x3e32fbfa	0.17478934
244	0x3bd96537	0.00663438
245	0x3daba96e	0.083819255
246	0xbd86772e	-0.065657005
247	0x3d217f3e	0.03942799
248	0x3de3a27e	0.11114977
249	0x3db1b6cb	0.08677443
250	0xbdc1b652	-0.09458603
251	0xbddf59e5	-0.10905818
252	0xbdbf4049	-0.09338433
253	0xbd7da18d	-0.061921645
254	0x3e0a0bf4	0.13481122
255	0x3e36382a	0.17794862

layers.2.bias f4 [100]
0	0x3b91baeb	0.004447331
1	0xbc908329	-0.017640667
2	0xbc585f22	-0.013206275
3	0x3c789384	0.015171889
4	0xb946a0dd	-0.00018942678
5	0x3c8f0f93	0.017463481
6	0xbc9e77b8	-0.019344196
7	0xba4bf88a	-0.00077808707
8	0x3c779791	0.01511182
9	0xbc84d687	-0.016215576
10	0x3c38e143	0.011284175
11	0x3c5be4f0	0.013421282
12	0xbc25fa26	-0.010130441
13	0x3c4d289f	0.012521892
14	0x3c8575c6	0.01629151
15	0x3d1047bb	0.035224658
16	0x3c41db8b	0.011832128
17	0xbca16aad	-0.019704187
18	0x3bb0cde2	0.005395637
19	0x3c711060	0.014713377
20	0xbd0297f9	-0.031883214
21	0x3cd84dfe	0.026404377
22	0xbbc84937	-0.0061122435
23	0xbd2d653e	-0.04233288
24	0xbcc13d47	-0.02358879
25	0x3ca9069e	0.020633038
26	0x3d5f2d58	0.054486603
27	0xbbf8183b	-0.007571248
28	0xbc2e5b9e	-0.01064196
29	0x3cb9a1e9	0.022660213
30	0x3c7b117f	0.015323996
31	0x3c8d18ee	0.017223801
32	0xbc0243da	-0.007950747
33	0xbc7298a2	-0.014806898
34	0xbbe7067c	-0.0070503335
35	0x3c2b7b1e	0.010466365
36	0x3cb17825	0.021663735
37	0x3bf15dce	0.0073659187
38	0x3a8d2662	0.0010768885
39	0xbcfde83c	-0.030994527
40	0xbc209bbd	-0.009802756
41	0x3cdae974	0.026722647
42	0xbc73b7c1	-0.014875353
43	0xbc9832b0	-0.018578857
44	0x3cc79009	0.024360674
45	0x3cc36b26	0.023854803
46	0x3c3e153f	0.011601745
47	0xbd19fc9b	-0.03759442
48	0x3caf19e8	0.021374658
49	0xbcc3191d	-0.023815686
50	0xbd3c7eb2	-0.046019264
51	0x3c5189f4	0.012789238
52	0x3c89c898	0.016819283
53	0xbc841c65	-0.01612682
54	0xbc4beabb	-0.012446101
55	0xbc83fc90	-0.016111642
56	0xbc913175	-0.017723778
57	0xbcf2a56d	-0.029619897
58	0xbc3fb175	-0.011700024
59	0x3ce2b7a5	0.02767546
60	0xbcafa996	-0.02144317
61	0xbc883659	-0.016627477
62	0x3c0f26c8	0.0087372735
63	0x3d0ed0b7	0.034867015
64	0x3cc9fe2c	0.024657331
65	0xbcbced6a	-0.023062427
66	0xbd079547	-0.033101346
67	0xbaf3a59a	-0.0018588782
68	0x3d55044f	0.052006062
69	0xbbc3e425	-0.0059781247
70	0xba8bf90b	-0.0010679079
71	0x3d71988d	0.058983374
72	0xbd5752aa	-0.05256907
73	0xbca6414a	-0.020294804
74	0xbb1b7453	-0.0023720458
75	0xbd164577	-0.03668734
76	0xbb255349	-0.0025226644
77	0x3c858dc0	0.016302943
78	0x3b7ec5f5	0.0038875316
79	0x3cd29d98	0.025709912
80	0x3c57898f	0.013155355
81	0x3d034deb	0.03205673
82	0x3cae8419	0.021303223
83	0x3b6b7606	0.0035928502
84	0xb9a46d92	-0.00031362154
85	0xbbdaa0c9	-0.006671999
86	0xbbf8da62	-0.0075943926
87	0x3ca1ea49	0.019765036
88	0x3ba4b04c	0.005025899
89	0x3c7e0247	0.015503473
90	0x3c0abf85	0.008468513
91	0xbd685e01	-0.056730274
92	0xbc927064	-0.017875858
93	0xbc295f6b	-0.010337691
94	0xbcee8474	-0.029115893
95	0x3bfe1262	0.0077536562
96	0x3b371cef	0.002794083
97	0xbcd2a5fb	-0.025713911
98	0xbb2c1464	-0.002625727
99	0xbc395d2a	-0.011313716

layers.3.weight f4 [100, 100]
0	0x3c0e7b89	0.008696445
1	0x3e1b0730	0.1513946
2	0xbcb275d8	-0.021784708
3	0xbe019a1c	-0.12656444
4	0x3e3f3414	0.1867221
5	0x3da6c6ee	0.081434116
6	0xbdd10809	-0.10206611
7	0xbd95ad6d	-0.07308469
8	0x3d819ec2	0.06329109
9	0x3d7fd75e	0.06246125
10	0xbcd19a6e	-0.025586333
11	0xbe31c912	-0.17361858
12	0xbbbdc124	-0.0057908464
13	0x3cfff09e	0.031242665
14	0x3c245d3a	0.010031993
15	0x3cb4087e	0.021976706
16	0x3d9499c0	0.07255888
17	0xbe642a0d	-0.22281666
18	0xbcb05b58	-0.021527931
19	0x3d9cb28a	0.07651241
20	0x3de469ee	0.11153017
21	0xbd274d75	-0.040845353
22	0x3cc3f109	0.023918645
23	0xbdf582b6	-0.11987822
24	0xbd92a8a2	-0.071610704
25	0x3e23714a	0.15961185
26	0x3de44756	0.11146419
27	0x3d789664	0.0606903
28	0x3d88a7b8	0.06672615
29	0x3d96970f	0.07353031
30	0xbdf51627	-0.11967116
31	0x3b1e0c01	0.0024116042
32	0xbda32ebd	-0.07967899
33	0xbd6f9f3b	-0.058501463
34	0xbdf88a0c	-0.12135705
35	0xbcb1d4eb	-0.021707973
36	0x3df3a2bd	0.11896274
37	0x3e023676	0.12716088
38	0x3d989b5e	0.07451509
39	0xbdcfbf65	-0.101439275
40	0xbda5a087	-0.08087259
41	0x3e27bf99	0.16381682
42	0xbdf3fef1	-0.119138606
43	0x3da57d1b	0.080805026
44	0xbcda7c8b	-0.026670715
45	0x3d181f74	0.03713937
46	0xbc67aeb7	-0.014140776
47	0x3c7403a2	0.014893444
48	0x3cfcaeef	0.030845134
49	0xbd856f33	-0.0651535
50	0x3e3d0331	0.18458249
51	0xbd80b154	-0.06283823
52	0x3d3e05e3	0.046392333
53	0xbddf6604	-0.1090813
54	0xbdd8d254	-0.10586992
55	0x3d1311ef	0.035905775
56	0xbe379104	-0.17926413
57	0xbd3946d7	-0.045233574
58	0xbe1b71ed	-0.15180178
59	0xbd5e3972	-0.054254003
60	0xbd0acce5	-0.03388681
61	0x3e311c18	0.17295873
62	0xbd1c6695	-0.038183767
63	0x3d9d71b2	0.07687701
64	0x3e375fe7	0.17907678
65	0xbcffe611	-0.031237634
66	0xbd1de335	-0.03854676
67	0x3d3e7d69	0.04650632
68	0x3d08f018	0.033432096
69	0xbd7de5a6	-0.061986588
70	0x3d5539df	0.052057143
71	0x3e70732a	0.23481432
72	0x3e1d753b	0.15376751
73	0xbc5e96da	-0.0135857705
74	0xbd644b5e	-0.05573594
75	0x3df21e97	0.11822241
76	0x3a292458	0.0006452254
77	0xbdcedb03	-0.10100367
78	0xbd43ccca	-0.047802724
79	0x3ddf7ac3	0.10912087
80	0xbd390c66	-0.04517784
81	0xbe57ec69	-0.21086277
82	0xbd844a78	-0.06459516
83	0x3c8a7b5c	0.016904525
84	0x3e0f0161	0.1396537
85	0xbe51f2a5	-0.20502718
86	0x3de51a71	0.11186684
87	0xbe397b43	-0.18113427
88	0x3bf9ceee	0.007623545
89	0x3cd4f78e	0.02599695
90	0x3dc61da6	0.09673624
91	0x3d3acee1	0.04560745
92	0x3d7ee3a9	0.062228832
93	0x3bbcafd5	0.0057582655
94	0x3d00b6e6	0.031424426
95	0xbdc48a45	-0.09596685
96	0xbdb00e2d	-0.08596454
97	0xbd8342fd	-0.064092614
98	0x3df30bec	0.11867508
99	0x3cce508c	0.025184892
100	0x3d6ef479	0.058338616
101	0x3e3b2763	0.18276744
102	0xbda45cb3	-0.080254935
103	0xbe064184	-0.1311093
104	0xbd17fc62	-0.037105925
105	0xbd12b19f	-0.035813924
106	0x3c3b6c45	0.011439388
107	0xbd650c46	-0.055919908
108	0x3c452a0f	0.012033953
109	0xbd82c6e5	-0.06385592
110	0xbda24f3a	-0.079252675
111	0xbd75c671	-0.0600037
112	0x3d7c5885	0.061607856
113	0xbe06ad53	-0.13152055
114	0x3c60072a	0.013673583
115	0xbce3073d	-0.027713412
116	0xbcdd6e84	-0.027030237
117	0x3d0ac0cc	0.03387527
118	0xbe3bae44	-0.18328196
119	0x3d9577f6	0.07298271
120	0xbdf6d296	-0.12051885
121	0x3c87998a	0.016552705
122	0xbde9c219	-0.11413974
123	0x3e0462a9	0.12928261
124	0x3d702ac7	0.058634546
125	0x3d8741c7	0.06604343
126	0x3c784047	0.015152044
127	0x3d944dfd	0.072414376
128	0xbd53f0c0	-0.05174327
129	0x3d8f24a6	0.06989412
130	0xbd70a38e	-0.058749728
131	0x3cdd5dc8	0.027022257
132	0xbd2b36c9	-0.041800294
133	0x3d221261	0.03956831
134	0xbc8220ae	-0.015884724
135	0xbd383e56	-0.044981323
136	0xbe721c12	-0.2364352
137	0x3cbaee42	0.022818688
138	0x3c721206	0.014774805
139	0xbdc9dfed	-0.098571636
140	0x3e027e9b	0.12743609
141	0x3d8bf5a2	0.0683396
142	0x3d87b34e	0.066259965
143	0xbcf2ed4a	-0.029654164
144	0xbd8f2ae1	-0.069906004
145	0xbdb8c5b1	-0.09022082
146	0xbd8fbd17	-0.07018488
147	0x3e1a874d	0.15090676
148	0xbb034fd3	-0.0020036593
149	0x3d6ca80d	0.057777453
150	0xbd80ed7e	-0.06295298
151	0x3d0819b2	0.03322763
152	0xba50be11	-0.00079628924
153	0xbe091f16	-0.13390765
154	0xbe3b513c	-0.18292707
155	0x3d342777	0.04398295
156	0x3e0ebc78	0.13939083
157	0xbe447a26	-0.19187221
158	0x3da96ceb	0.082727276
159	0xbd8942c5	-0.067021884
160	0xbc796986	-0.015222913
161	0xbe886492	-0.2663923
162	0x3c151dd1	0.009101347
163	0xbdb50ec8	-0.0884071
164	0xbea5b3c9	-0.32363728
165	0xbe03cf4b	-0.12872045
166	0xbd269cfc	-0.040677056
167	0x3cf9703b	0.030449023
168	0xbd2c1fde	-0.04202258
169	0x3dcf32d8	0.101171196
170	0x3d9add63	0.075617574
171	0xbb5a6f58	-0.0033330526
172	0xbc890d1a	-0.01672988
173	0xbe19cc10	-0.1501925
174	0xbcbeef90	-0.023307592
175	0x3e365fcd	0.17809983
176	0x3cb1b501	0.021692755
177	0xbaf1affa	-0.0018439286
178	0x3db4616f	0.088076465
179	0xbe2cc8b9	-0.16873445
180	0xbd7c94db	-0.061665397
181	0x3e085aa8	0.13315833
182	0xbdabf3f8	-0.08396143
183	0x3e172147	0.14758788
184	0xbe0aa688	-0.13540089
185	0xbcf93d17	-0.030424638
186	0xbe224a73	-0.15848713
187	0x3e523793	0.20529012
188	0xbd2f840e	-0.042850547
189	0x3e33a9c5	0.1754523
190	0xbde4c68b	-0.111706816
191	0x3d2ef490	0.0427137
192	0x3e2714b4	0.16316491
193	0x3dab3c2c	0.08361086
194	0xbdbce879	-0.09224028
195	0xbd0c5abb	-0.034266215
196	0xbde25de1	-0.11053062
197	0xbd596755	-0.05307706
198	0xbe719b8a	-0.2359449
199	0xbd918fe4	-0.07107523
200	0x3e0467ae	0.12930176
201	0xbe2140c0	-0.15747356
202	0x3c332ef3	0.010936487
203	0xbe851fa0	-0.2600069
204	0x3d75b4ed	0.059986997
205	0xbc356177	-0.011070601
206	0x3d4eaa34	0.050455287
207	0xbe154bc6	-0.14579687
208	0x3dd87d44	0.105707675
209	0x3db6fa47	0.08934455
210	0x3ce59a8c	0.028027795
211	0x3dde905e	0.108673796
212	0xbdb255c2	-0.08707763
213	0x3dee4655	0.116345085
214	0x3e367a63	0.17820124
215	0x3e01ae1d	0.12664075
216	0x3d88db22	0.06682421
217	0xbe307382	-0.17231563
218	0xbd5277e9	-0.051383886
219	0x3dabeb42	0.08394481
220	0x3dde2d03	0.10848429
221	0x3e1a64e6	0.15077552
222	0xbdcf086e	-0.1010903
223	0xbdb63ede	-0.0889871
224	0xbdee9531	-0.1164955
225	0xbe06c494	-0.13160926
226	0xbdc491de	-0.095981345
227	0x3c5c9ba7	0.013464845
228	0xbe249f31	-0.16076352
229	0xbe153a74	-0.1457308
230	0x3dba4e08	0.090969145
231	0x3e004158	0.12524927
232	0xbbbe0e1f	-0.005800023
233	0xbda98823	-0.08277919
234	0xbceb38e6	-0.028713655
235	0xbe1e35b7	-0.15450178
236	0xbe04522b	-0.1292197
237	0x3d2e78f2	0.04259581
238	0xbe624864	-0.22097927
239	0x3d5065ac	0.05087821
240	0x3da8a30a	0.08234222
241	0x3cb9941e	0.022653636
242	0xbdac0b7a	-0.084006265
243	0x3e43d685	0.19124801
244	0x3db056d8	0.08610314
245	0xbd9c9b19	-0.0764677
246	0x3d1aafbb	0.037765246
247	0xbe13609a	-0.1439232
248	0xbdf5a290	-0.11993897
249	0xbe03e431	-0.12880017
250	0xbd6afdff	-0.057371136
251	0xbd25697d	-0.040383805
252	0xbd88b93f	-0.06675958
253	0xbe02a5be	-0.12758538
254	0xbd7ed093	-0.06221063
255	0xbdf8b4a4	-0.121438295
