main/continuous_time_inference (Schrodinger)/models_iters/Schrodinger_53000.pt (torch, 208864 bytes, 14 tensors)

linear_in.weight f4 [100, 2]
000000 54 72 4a 3e 5d 92 14 3e 59 b5 aa bc 1d cd 49 be
       0.19770175 0.14508958 -0.020838426 -0.19707151
000010 1c 4d 41 3d 7d d1 cf 3d b7 3f c0 bb f1 8f 61 3e
       0.047192678 0.101473786 -0.0058669704 0.22027566
000020 6d 85 20 3e 97 c0 90 3c 3a b7 d4 bd 40 87 83 3e
       0.15675898 0.017669959 -0.1038651 0.25689125
000030 1b 57 bd 3d 22 08 ac bc da 2b a5 be 95 df 0e be
       0.0924513 -0.020999972 -0.3226002 -0.13952477
000040 8c 9f 85 bd 44 cf 67 3e 4b 85 0c be ce 12 73 3e
       -0.06524572 0.2263766 -0.13722722 0.23737642
000050 28 ee 16 be 80 aa dc 3d 34 52 15 bd 81 13 59 3e
       -0.14739287 0.10774708 -0.036455348 0.21198846
000060 a4 42 43 be 6d 0f 74 bd 5c b1 8b 3c 5d f4 94 be
       -0.1906839 -0.059585024 0.017052345 -0.29092684
000070 07 d4 23 3d 30 0e a3 bd f1 b0 43 3e 18 21 94 3e
       0.039997127 -0.079616904 0.19110467 0.289315
000080 f6 18 75 3e ef 44 7d bd 2f 66 93 3e f9 bc 28 3d
       0.23935303 -0.06183332 0.28788897 0.041195843
000090 ee 45 ad bd ec b7 27 be 7b 75 05 3e bd 53 9d bd
       -0.08460604 -0.16378754 0.13033096 -0.076819874
0000a0 0b 39 92 be 90 ce 23 be be e8 12 be 5d b1 d4 3e
       -0.28559145 -0.15996766 -0.14346597 0.41541567
0000b0 1d df ba bd 3b 0c ab bd f6 93 11 3e 16 40 b3 3d
       -0.09124587 -0.08351942 0.14216599 0.08752458
0000c0 de b4 fa 3d f1 bc 9e bd 27 db 45 be 20 2d b4 bd
       0.12241529 -0.077508815 -0.19321881 -0.087976694
0000d0 3e f4 3c 3e 4d 02 01 be e9 ee cd 3d 56 a2 0c be
       0.18452546 -0.12598534 0.10055334 -0.13733801
0000e0 19 a4 64 3e c1 c6 2f 3e 1a b1 95 be 55 c2 d1 3d
       0.22328223 0.17165662 -0.2923668 0.10242144
0000f0 1c c5 03 3e 97 3f 79 3e 6c 66 87 3d b5 dc 79 bd
       0.1286816 0.24340664 0.06611332 -0.0610015
000100 e8 ef fa 3c 47 2f 3c 3e 7f 44 b0 3d 0b 71 76 3d
       0.030631974 0.1837741 0.086068146 0.0601664
000110 d9 31 a2 3e 15 18 ae be 6e da b7 bb c9 25 cb 3d
       0.31678656 -0.34002748 -0.0056107556 0.09919316
000120 b1 f3 08 3d 1b ae 61 3e 34 50 a8 3c 69 e7 25 3d
       0.033435527 0.22039072 0.020546056 0.040503893
000130 ca 17 50 bd 33 76 c1 be 0a 9a b3 bd db 70 78 3e
       -0.050803937 -0.3778549 -0.08769615 0.24261801
000140 c9 21 56 3e 9c 04 48 be 80 71 4e be fc 27 8a 3d
       0.20911326 -0.19533008 -0.20160484 0.06745908
000150 f1 bd 1c be 02 18 66 be 1c 0d 92 be b0 69 a8 bb
       -0.15306832 -0.22470096 -0.28525627 -0.005139552
000160 50 c2 04 be ff 2a 3b be 8c 01 1d be 5f 2d 47 be
       -0.1296475 -0.1827812 -0.15332621 -0.19450901
000170 3b 04 88 3c d6 2e 42 be 76 98 51 3e 58 fc 06 3e
       0.01660358 -0.18963179 0.20468315 0.13182199
000180 9a ca 47 be 0a 01 d4 bc e5 7d 8d bd 6f a9 81 be
       -0.1951088 -0.025879402 -0.06908778 -0.2532458
000190 db cd 13 3e 1d b3 12 be f8 91 c1 bd 13 ef 63 3d
       0.14433996 -0.14326139 -0.094516695 0.05564792
0001a0 3f d4 27 bd 49 de 80 be c4 ea 32 3e 6f 80 25 be
       -0.040973898 -0.2516959 0.17472368 -0.16162275
0001b0 b7 3a a6 3d 46 fe aa be 24 52 2b 3d 1f 31 56 be
       0.08116668 -0.3339712 0.041826382 -0.20917176
0001c0 74 4a ca 3e f3 af a7 be 47 2f f6 bd 50 35 fd 3d
       0.39509928 -0.32751426 -0.12020736 0.12363684
0001d0 67 fc 08 3c bc a6 de 3d dc 36 74 be 73 78 7a 3d
       0.008360959 0.10871646 -0.23849052 0.061150026
0001e0 4c 4e cc 3d c3 c1 db 3c eb 1b 45 bd 76 67 5e 3e
       0.099758714 0.026825791 -0.048122328 0.21719155
0001f0 66 62 45 be 80 c6 85 be 99 5c e7 3d d4 45 0a ba
       -0.19275817 -0.26128006 0.112969585 -0.00052746874
000200 f8 7a 14 3d 11 d4 25 3e d9 7e 46 be b8 76 df bd
       0.036250085 0.16194178 -0.19384326 -0.10911316
000210 e3 35 06 be 20 c7 75 3e 1d 3d 98 3d 2c 53 17 3c
       -0.13106494 0.24001741 0.074335314 0.009236138
000220 f1 52 5f 3e 5c f9 70 bc 1d 95 98 3b 86 d3 44 3e
       0.21808983 -0.014707889 0.0046564476 0.19221315
000230 46 10 89 3e 25 ae c7 bd 2c d2 92 bd 1f e1 a2 3d
       0.26770228 -0.09750012 -0.07168993 0.07953095
000240 b6 98 e5 bc 70 38 af be 8e 59 b7 3b 36 5f 25 3d
       -0.02802692 -0.34222746 0.0055953925 0.040374003
000250 3d ce 81 be 9e e9 f0 bd 7f df e4 3d a3 24 8a 3d
       -0.2535266 -0.11763309 0.11175441 0.06745269
000260 6e 1b 19 be 8e 9c e7 bd 19 e5 34 3e 64 7f 66 3e
       -0.1495187 -0.11309157 0.17665519 0.22509533
000270 b5 56 3b bd a9 9d 79 3e 6a e7 8d be b5 77 6c be
       -0.045736987 0.24376549 -0.27715617 -0.2309254
000280 ef 43 08 3e 88 8e 15 be 06 b0 b1 3d 50 7a f3 3c
       0.13307165 -0.14605153 0.08676152 0.02972141
000290 aa 8d 18 bc 25 4a 0e 3d 10 ae 71 3c a6 d4 57 3e
       -0.009311119 0.03473868 0.014750972 0.21077213
0002a0 56 62 8d 3d a3 5d 0a ba 9d d0 14 3e 22 b0 8e 3e
       0.06903522 -0.0005278235 0.14532705 0.27868754
0002b0 1e 6e 42 be 4d 22 a0 3e 7d 7a 73 3e b3 43 04 be
       -0.18987319 0.3127617 0.23777194 -0.1291645
0002c0 cd 2c fe bd 15 22 9a 3d 29 c4 8f 3d f6 bc 5a be
       -0.12410889 0.07526032 0.070198365 -0.21361145
0002d0 fc b3 88 3d b7 c2 10 bd 32 73 8e bc 99 d6 7d 3e
       0.06674954 -0.035341945 -0.017388914 0.24788894
0002e0 c4 40 b2 3e 59 62 8f bd 3b e7 ba bd 25 7d 01 3e
       0.34815037 -0.0700118 -0.09126135 0.12645395
0002f0 aa 81 12 bd 89 cd e0 3d 28 a9 a1 bd 6c 7d 8a 3e
       -0.03576819 0.10976703 -0.07893592 0.27048814
000300 5a 80 0d 3e c1 45 db 3d bc 58 14 be 65 4e 01 bd
       0.13818493 0.10706664 -0.14486974 -0.031568903
000310 c3 7b 7b be 58 3f 10 3e ff 86 7d bc f0 21 bd 3d
       -0.2455893 0.14086664 -0.01547408 0.09234989

linear_in.bias f4 [100]
000000 38 c3 1b 3d 36 41 62 3c ae 2b 83 bd eb 85 23 3d
       0.038027972 0.013809493 -0.064048156 0.039922636
000010 05 c4 a2 3d e9 34 8d bd fa 3b ac 3d 40 c6 c6 bc
       0.07947544 -0.068948574 0.08409877 -0.024264455
000020 f2 13 bf 3d 37 b5 37 bd e6 d2 33 3b 96 f7 48 3d
       0.09329976 -0.044850554 0.0027438938 0.04906424
000030 f5 34 2d 3d b1 5e 9c 3d 0f d4 8b 3d 8b 52 aa 3d
       0.042286832 0.076352485 0.06827556 0.08316525
000040 18 f7 94 3d 34 0c 0b bd 68 49 46 3d 2d 8d eb bc
       0.07273692 -0.033947185 0.04840985 -0.028753841
000050 c1 27 91 bc 44 85 a5 bc c7 c3 bb 3d 93 8f 06 3d
       -0.017719151 -0.020205148 0.09168201 0.032851767
000060 f5 31 b9 3c 93 77 2e bd ee 61 2f 3d 0e ae ac bd
       0.02260683 -0.042594504 0.042818002 -0.08431636
000070 0f f8 ed 3c 8c 0b 9b 3d cd eb 23 3d 08 8e 2d 3d
       0.029048948 0.07570562 0.0400198 0.04237178
000080 fd 0b 97 bd e2 d9 6c 3c df 1b 66 bc 4e 25 83 bd
       -0.073753335 0.014456244 -0.014044731 -0.064036
000090 82 9d c2 bc f9 ae 35 bd ed e8 6d 3d 05 c8 ec 3d
       -0.023756746 -0.04435632 0.058083463 0.11561588
0000a0 56 c8 c1 3d 17 f9 3f bd 21 79 cb bc ae 20 84 3d
       0.09462039 -0.04686841 -0.024838032 0.06451546
0000b0 d9 ff 5d bd 13 67 67 3d d3 6e b1 3c 7e 6e 28 bd
       -0.054199073 0.056494784 0.02165929 -0.041121
0000c0 6d 9e 87 3d 09 dc 2a 3d ec c7 1a bd c1 32 c8 bc
       0.06622014 0.041713748 -0.037788317 -0.024438264
0000d0 96 57 1e bd ec 7b fc 3c ed a6 d7 3c 29 a1 db bc
       -0.038657747 0.03082081 0.026324714 -0.026810246
0000e0 2b a4 25 bd 6f 2d 88 3d ea 01 19 3d f0 e1 a2 bd
       -0.040439766 0.06649291 0.03735534 -0.079532504
0000f0 f7 88 6d bd d7 f7 9c 3d 89 ff 3d bd 38 e7 64 3d
       -0.057991948 0.07664459 -0.046386275 0.05588457
000100 1b 9a 92 bc 41 65 17 bd c6 d4 f5 bc 67 d6 37 bd
       -0.017895749 -0.036961798 -0.030008685 -0.044882204
000110 af 5a 0a bd 99 04 68 3c 23 06 28 3d 8b b6 c7 3c
       -0.03377789 0.014161252 0.041021477 0.024379035
000120 40 a9 2e 3d eb 30 bf 3d 85 c7 5e 3d 50 61 d6 3c
       0.042641878 0.09335502 0.054389495 0.02616945
000130 10 55 b6 3b dc 76 40 bd 8a 1c 64 bd 4d 36 eb 3b
       0.0055643395 -0.046988353 -0.05569128 0.007178104
000140 c1 9b 6e 3d 87 3a 86 b9 4e 30 b1 3d 01 b7 2d 3d
       0.058254007 -0.00025602078 0.086517915 0.042410854
000150 75 ba ec 3d 85 94 2d 3c d6 67 5d 3d 29 d6 2e bd
       0.11559001 0.010594492 0.054054104 -0.042684708
000160 83 e6 91 3d 50 49 3b 3d b0 aa 60 3d 34 5e 19 bd
       0.07124045 0.045724213 0.05485028 -0.037443355
000170 6e 51 c1 3c eb 5a 21 3d 6b 42 db bd f1 5d 80 bc
       0.023598399 0.039393347 -0.107060276 -0.015669795
000180 c2 68 09 bc 58 df e2 bc 75 cd 70 bd 8d 0a 00 bd
       -0.008386793 -0.02769439 -0.05878969 -0.031260062

linear_out.weight f4 [2, 100]
000000 23 ef 73 3e e9 14 d3 3e db c7 e8 3e 5d 29 12 3e
       0.23821692 0.4122689 0.45464978 0.14273591
000010 af 58 ad bd 5e 88 ff 3d 71 21 d8 bd e6 4d 86 be
       -0.08464181 0.12477182 -0.105532534 -0.26231307
000020 92 a8 74 be 1b 86 75 3e 08 ec f0 3e ee 95 3a bd
       -0.2389243 0.23976938 0.47055078 -0.04555314
000030 58 cb 02 3e 3e c9 de 3e 47 9d 52 be 0b 69 61 3d
       0.12772882 0.4351291 -0.20567809 0.055031817
000040 31 b2 a3 3d ff 63 01 3e 9c 90 1b be 27 14 6a be
       0.07992972 0.12635802 -0.15191883 -0.2285925
000050 a1 3f c5 bd 29 2b cd 3d da bd 46 be d0 25 8c bd
       -0.09631277 0.10017998 -0.1940836 -0.0684315
000060 3e 83 c4 bd d3 79 cb 3d 10 de bd bc 2f 7b 1d be
       -0.09595345 0.099353455 -0.023177177 -0.15379022
000070 aa 33 b6 3c 5d 03 4e 3e 98 d5 3d 3e 16 18 fe bb
       0.022241432 0.2011847 0.18538511 -0.007754336
000080 be 36 f7 3b f8 49 f2 3d de bc 56 be 25 a2 10 3e
       0.0075443676 0.11830515 -0.20970485 0.14124353
000090 60 53 1a be 2d fc 18 be 6f 07 8a bd 6f 07 1b be
       -0.15070868 -0.14939947 -0.06739699 -0.15139554
0000a0 d8 5a 57 3e 8c 36 bc bd e1 63 4a be c7 92 59 be
       0.21030748 -0.091900915 -0.19764663 -0.21247397
0000b0 60 55 31 bd 2e d4 71 bd 8c c0 0a be b9 40 4f 3e
       -0.04329431 -0.05904024 -0.13550013 0.20239533
0000c0 79 e0 15 be 5d c2 0e bd c4 db 9d be 90 a2 52 3c
       -0.14636411 -0.034853328 -0.3083173 0.012856141
0000d0 c7 a2 26 3e 7a 0c c5 be 46 a7 df bc 1b 1b 9d bd
       0.16273032 -0.3848608 -0.027301442 -0.076711856
0000e0 20 8b 3c 3e a6 89 45 be 53 66 64 be b1 cd ae 3e
       0.18412447 -0.1929079 -0.22304659 0.34141305
0000f0 f3 27 e4 bd e6 14 89 bd 49 49 93 bd 6e c5 8e 3d
       -0.11140432 -0.06693439 -0.071917124 0.069712505
000100 74 0d aa 3d 50 95 12 be 28 42 af bd 66 37 b3 3d
       0.08303347 -0.1431477 -0.0855754 0.08750801
000110 11 ab e8 3d 28 46 03 3e 52 d8 5e bd 9d 22 aa 3d
       0.11360753 0.12819731 -0.054405518 0.08307383
000120 2e 81 2f 3e be b4 03 be 64 a2 f5 bc 8c 53 95 3e
       0.17139122 -0.12861916 -0.02998466 0.29165304
000130 7f 0b f1 bd 7b 2c 6a be 89 30 ed 3d 7e 4a cf 3c
       -0.11769771 -0.2286853 0.11581523 0.025304075
000140 bb ad 07 3e e2 85 37 be 17 00 92 bc a7 e8 0d 3f
       0.13249867 -0.17922166 -0.017822308 0.55433124
000150 b1 77 a9 3e 3b 21 07 be c5 ae 92 be ba d8 d7 3d
       0.3309913 -0.1319627 -0.28648964 0.10539384
000160 f2 83 a9 bd 5d 95 cb be ae 2c b4 bd cd e9 16 be
       -0.0827712 -0.39762393 -0.087975845 -0.14737625
000170 06 02 43 3e cb 17 35 be b9 c5 19 be 60 87 7a bd
       0.1904374 -0.17684858 -0.15016831 -0.06116426
000180 27 47 8b be 56 af 3a 3e 14 2a 6b bd 73 63 91 be
       -0.27202722 0.18230948 -0.057413176 -0.28396186
000190 8e 0c 5b 3e e7 0e ac bc ea 41 64 3e b9 0b 32 3c
       0.21391508 -0.0210032 0.22290769 0.010867053
0001a0 d4 e5 ea bd ac 7e ce bb 62 25 b6 be e9 4d 14 be
       -0.114696175 -0.0063017216 -0.35575396 -0.14482845
0001b0 53 05 2b bd 76 c5 3f 3e da ea 63 be 39 35 15 3e
       -0.041753124 0.18727669 -0.22257558 0.14571084
0001c0 4c 9d 8c 3e 6d 6e da bd 73 82 dd 3d de e6 a2 bb
       0.27463758 -0.10665593 0.10815897 -0.004971369
0001d0 dd f0 bd 3e b9 85 1f 3d ba f2 2e bd cc 64 92 3d
       0.37097827 0.038945887 -0.04271195 0.07148132
0001e0 d0 3b 5e 3e 15 42 8e bd f8 f9 f7 3d 0e b9 1c 3d
       0.21702504 -0.06946198 0.12108225 0.03826242
0001f0 c5 ce 58 bc 26 6c 2b bd 62 53 4d be bf 24 53 3e
       -0.013232891 -0.041851185 -0.2005134 0.20619486
000200 ab 7a 96 be 4d 61 12 3e 6f 5f 28 3e c0 80 2b be
       -0.29390463 0.1429493 0.16442655 -0.16748333
000210 1a ac 06 be be 04 56 be 78 86 dc bc 74 50 3e 3e
       -0.13151589 -0.20900247 -0.026919588 0.18585378
000220 ce ce 5e 3e ea 64 d8 3e cf 1d 30 3d 61 1a 05 be
       0.21758577 0.4226449 0.042997178 -0.12998344
000230 33 fa b4 3e b0 ad 18 be 31 b5 c8 3b 38 19 26 be
       0.35347137 -0.14910007 0.0061251153 -0.16220558
000240 6c 54 93 be 73 11 9e 3d 38 b9 62 bd 7f d2 e0 3d
       -0.28775346 0.07718172 -0.05535242 0.10977649
000250 0a 8e 4d 3e 46 e1 03 be 58 7a ac 3e 63 32 8d be
       0.20073715 -0.12878904 0.3368709 -0.27577505
000260 c5 e9 a2 bb 89 2c 54 3e d8 38 70 be 6c 0e 78 3e
       -0.004971715 0.20720114 -0.23459184 0.24224252
000270 3d 55 30 bd 83 d1 54 be ba 6f 34 3e 79 f3 78 be
       -0.04305004 -0.20783047 0.17620745 -0.24311627
000280 59 a6 92 3e 82 c5 86 3c 7d 48 a3 bc 3a 60 db bd
       0.28642538 0.016451601 -0.019932026 -0.10711713
000290 2a b5 93 be 4d b2 5d bc a2 9e 09 3e 1d 61 a5 bd
       -0.28849155 -0.01353128 0.1343942 -0.080751635
0002a0 64 7d 50 bd 07 fa 2e bd f1 53 65 bd a7 23 ec 3c
       -0.05090083 -0.042718913 -0.055988256 0.028825594
0002b0 f2 4b 31 3d 6d dd 0b 3e bd dc 02 bf 50 ba 88 be
       0.043285318 0.13658686 -0.5111807 -0.26704645
0002c0 5c 02 bb 3d f4 80 b1 be 82 a9 80 be 91 36 c0 be
       0.091313094 -0.34668696 -0.25129324 -0.3754163
0002d0 6f 0b b9 bd 5c d2 00 3d 94 3d 9a bd f5 89 e3 bc
       -0.09035384 0.031450614 -0.07531276 -0.027775744
0002e0 b2 ef 92 be 12 6e 76 3e eb b5 87 be 10 5e 8c be
       -0.28698498 0.24065426 -0.2650598 -0.27415514
0002f0 1f 17 33 3e 5c 39 05 be 54 4b 61 bd 5a 98 28 3e
       0.17489289 -0.13010162 -0.05500348 0.16464368
000300 1a 41 3c 3e b0 b5 c3 be 5d 4d 37 be e6 16 15 be
       0.1838421 -0.38224554 -0.17900605 -0.14559516
000310 73 39 68 bc cf e7 96 3e fa 2b ad be f2 1b 41 be
       -0.014173853 0.2947373 -0.33822614 -0.18858317

linear_out.bias f4 [2]
000000 80 1d 41 bd 5a f6 b0 3b
       -0.047147274 0.005400461

layers.0.weight f4 [100, 100]
000000 87 f3 0c bd 2e 88 b9 bd a1 bb bb 3d 97 25 15 3d
       -0.034411933 -0.09059177 0.09166647 0.0364128
000010 55 06 a4 3d 1e 90 b2 3d 82 95 54 3e 5a de c1 bd
       0.0800902 0.087188944 0.20760158 -0.09466238
000020 4f d8 f3 3d 35 b8 a5 bd fb 13 b4 bd 79 36 1c be
       0.11906492 -0.08091775 -0.087928735 -0.15255155
000030 1c 4c 0b 3e f7 32 00 bd 6c 2f 5e 3e 63 91 4f 3e
       0.13603252 -0.031298604 0.21697778 0.20270304
000040 ff ce 1e 3e e2 54 36 3c b5 72 11 3e 3f bf 05 3e
       0.1550865 0.011128636 0.14203914 0.13061236
000050 10 a8 6c be da 0d ba bd 0c b2 0a 3e b6 3c f0 bb
       -0.23110986 -0.09084673 0.13544482 -0.007331456
000060 0c ce a4 3d 9f c7 d0 bd bc 42 4b bd 37 fc 9d 3c
       0.08047113 -0.10194325 -0.04962419 0.019285304
000070 c9 f9 fa bd b9 85 97 3d a8 39 42 be d7 83 4b bd
       -0.12254674 0.073985524 -0.18967307 -0.04968628
000080 e1 60 46 be b9 6c f1 3d 62 9f 83 3e 5c 91 65 bc
       -0.19372894 0.11788315 0.25707537 -0.014011707
000090 00 01 a0 3d 7d ef 0a be e3 fb 0d 3e e9 45 5f 3d
       0.07812691 -0.1356792 0.13865618 0.05451003
0000a0 0a 71 3a 3d 39 0c 37 3e f2 c2 bd 3a 8d 6e a7 bb
       0.04551796 0.17875756 0.0014477654 -0.005109614
0000b0 fc 05 25 3e 3c 53 78 3d d0 4b 54 be 3e 84 79 bc
       0.16115564 0.060626253 -0.20732045 -0.015229283
0000c0 c1 55 3c 3d 16 d9 01 3e c6 e0 fb bc 4a 26 bb 3d
       0.04598022 0.12680468 -0.030746829 0.091381624
0000d0 a9 d2 db bd af ef c2 3d db f6 a8 3d 5b 67 20 be
       -0.107335396 0.09518372 0.08250209 -0.15664427
0000e0 d2 70 37 3e 09 0b 08 be 17 d5 c3 bc 19 bb d6 bd
       0.17914131 -0.1328546 -0.02390532 -0.10484905
0000f0 5e a0 28 bd 71 80 80 bd 4d f8 2c 3d a2 30 f3 3d
       -0.041168563 -0.06274498 0.042228986 0.1187451
000100 74 2f 87 3d 64 f8 b0 bd 5d 02 c2 bc d9 69 89 be
       0.06600848 -0.08641127 -0.023682768 -0.26838568
000110 da 30 0d bd b5 88 14 be 72 04 1a 3e d4 e1 7e bd
       -0.034470417 -0.14505275 0.15040758 -0.062227085
000120 69 bc 9f 3d 4f 38 69 3d e7 55 fb bc 5c a9 73 3c
       0.07799608 0.056938466 -0.03068061 0.014871921
000130 83 b7 f4 3d 5b 1d 0e bd f7 18 11 3d 41 22 24 be
       0.119490646 -0.034695964 0.0354242 -0.16028692
000140 c7 db b4 bd 12 90 d9 3b bf b5 46 3d bb aa 86 3d
       -0.08830982 0.006639489 0.04851317 0.06575533
000150 f0 6a 7e bd ee 47 39 bd 75 f7 08 bd df 24 98 bd
       -0.062113702 -0.045234613 -0.03343912 -0.074289076
000160 e2 74 54 3d a5 1a ad b8 23 fd 82 3e e5 1a 31 bd
       0.05186928 -8.254246e-05 0.25583753 -0.04323854
000170 33 59 b7 bd ff ca e9 bc 35 2e 0a be af 16 ed bd
       -0.0895256 -0.028539179 -0.13494189 -0.11576592
000180 a5 89 2c 3d 71 3a 05 be 41 e1 0f be 42 ab 5b bc
       0.042123456 -0.13010575 -0.14050771 -0.01340753
000190 5e 28 59 bd 61 cf 08 3e 02 b8 bf bd c4 21 0f 3c
       -0.053017013 0.13360359 -0.093612686 0.008736078
0001a0 88 54 e9 3d 38 3c 3d bd b3 26 32 3e 90 fb 98 3d
       0.11393076 -0.046200007 0.17397575 0.07469857
0001b0 5a b9 32 bd fa 0a 19 b8 50 9b a1 ba 38 90 7f 3d
       -0.043633796 -3.6488265e-05 -0.0012329612 0.062393397
0001c0 d9 88 99 3e c3 1b 20 b9 b4 e8 8f bd 94 ed 78 3d
       0.2998722 -0.00015269131 -0.070268065 0.060773447
0001d0 2f 5f 35 be ca eb 1d be 23 37 ea 3d c4 29 b6 bc
       -0.17712091 -0.15421978 0.11436298 -0.022236712
0001e0 0d 63 7b 3e f5 62 12 3e 36 99 18 3e 4c 7e ec bd
       0.24549504 0.14295562 0.14902195 -0.11547527
0001f0 e6 9d 18 3e 06 c0 7a 3d 8b 94 31 bd ed 35 47 be
       0.14903983 0.061218284 -0.043354552 -0.19454165
000200 45 75 67 bb 0e 10 3b 3e 1f 6e b2 bd d4 db d2 bb
       -0.00353177 0.18267843 -0.0871241 -0.006434897
000210 9f f0 34 be 15 36 1a be 9e 3c db bd 86 f7 a9 bd
       -0.17669915 -0.15059693 -0.10704921 -0.082991645
000220 14 3b 72 bd 5c ac 32 bd b7 a9 3a 3e 69 ba 55 bd
       -0.059138373 -0.043621406 0.18228804 -0.052179728
000230 8b 05 fc 3c 56 23 12 3e 73 0c c0 3c 86 15 08 3e
       0.030764362 0.14271292 0.023443436 0.1328946
000240 85 ea ba bd 54 c5 07 3e 5c 94 f1 bd cf 8a 62 bd
       -0.09126762 0.13258868 -0.117958754 -0.05530816
000250 57 fc 39 3e cb 97 af bd 70 2e 8a bc 86 7f 83 bc
       0.18162666 -0.08573874 -0.016867846 -0.016052019
000260 5a 42 22 bd 66 0a 9b bd 8f 1e 9b 3d 25 78 4a bd
       -0.03961406 -0.07570343 0.07574188 -0.049430985
000270 a0 74 e6 bd b5 5a 4d 3e 26 2e 21 be d4 f2 3f bd
       -0.11252713 0.20054133 -0.1574026 -0.04686244
000280 2b 5d 14 be 13 f0 85 3d ed 18 b8 3d 20 3d 5e be
       -0.14488666 0.06539931 0.08989129 -0.21703005
000290 bc 01 82 3b 56 8d 18 be 6a 6b 53 bc c2 69 05 be
       0.003967492 -0.14897665 -0.0129040275 -0.13028625
0002a0 85 e2 1d bd 95 b2 b1 bc 5e a7 1a be bb 86 37 3e
       -0.038546104 -0.0216916 -0.15102908 0.1792249
0002b0 ea 74 51 3e 78 89 e8 3d fa 0f db 3d 41 3d 42 bd
       0.20454755 0.11354345 0.10696407 -0.047421698
0002c0 e4 52 b4 3d 1a 43 94 bc 7b 86 07 3e 1c 53 81 bd
       0.08804873 -0.018098403 0.13234894 -0.0631468
0002d0 fe 71 59 be 7b 3e 69 3d e4 e7 19 3e a0 1b 96 bd
       -0.21234891 0.05694435 0.15029866 -0.07329488
0002e0 94 92 49 be 45 01 c9 bd 0d 20 d7 bc c7 2d b3 bd
       -0.19684821 -0.09814695 -0.0262604 -0.08748966
0002f0 bc 1e 0d 3d f1 58 72 bd 5f 9f 95 3d 70 79 91 bc
       0.03445314 -0.059166852 0.07305788 -0.017758101
000300 9a 20 fc bb 99 da bc bc e2 69 a1 be 50 1c 32 be
       -0.007694316 -0.023053454 -0.31526095 -0.17393613
000310 59 0e 8a be 12 dc 4e 3e 96 f4 bd 3d f5 8a 03 3e
       -0.2696407 0.20201138 0.09275167 0.12845977
000320 d3 9a ed bd 12 8b 49 bd 6b ad a3 3d b9 a2 cd 3c
       -0.11601796 -0.049204893 0.07992061 0.025102006
000330 83 8d 55 bd d7 f1 be 3d 1e 94 23 be 58 89 9b bd
       -0.05213691 0.09323471 -0.15974471 -0.075945556
000340 e7 05 8a bd a8 3a 1f 3e e7 15 94 bd 33 51 50 3d
       -0.06739407 0.1554972 -0.0723074 0.050858688
000350 cb ec d6 bb b0 26 16 bd ef 4d ad bd 86 86 2e 3d
       -0.0065589896 -0.03665799 -0.0846213 0.04260876
000360 a0 43 e2 bd 99 56 46 ba a0 b2 29 3d 24 ce 1f bd
       -0.11048055 -0.00075660046 0.041430116 -0.03901495
000370 e1 3d 23 bd 17 10 5b bc c6 8c c2 bd fb 9c 87 bc
       -0.039853934 -0.013370535 -0.09499507 -0.016554346
000380 fb 4c 87 3d 51 9f a1 bd ad 68 1e be da c6 43 bd
       0.0660648 -0.07891715 -0.15469618 -0.04779706
000390 2e 54 1a 3d 45 81 57 3d 59 6f a2 3d 01 94 51 3d
       0.037677936 0.052613515 0.07931394 0.05116654
0003a0 c7 7b 6b 3e 20 ae 0a 3d 6c 62 1d bc 37 d2 81 3e
       0.22996436 0.033857465 -0.009605985 0.25355694
0003b0 df bc b1 3d 3f 55 92 3d 41 09 d3 3d aa 0b 0c 3b
       0.086786024 0.07145166 0.103044994 0.0021369257
0003c0 0a 5d d1 3d a9 33 0f 3d 67 67 87 be 23 94 dc 3d
       0.10222824 0.034961376 -0.26446077 0.10770442
0003d0 f8 fe 1c 3d e8 0f f8 bd cd 7f 7b bd ea 7d d0 3d
       0.038329095 -0.12112409 -0.061401177 0.10180266
0003e0 93 d1 9f bd 5e b8 1c 3d a0 a9 ec bd c3 c3 f0 bd
       -0.07803645 0.038261764 -0.11555791 -0.117560886
0003f0 94 78 9d 3d ac 58 5d bd 4b 25 97 bd 35 74 c5 bc
       0.07689014 -0.054039642 -0.0738016 -0.024103263

layers.0.bias f4 [100]
000000 b5 82 6a 3d 9e bb 5b 3d a1 be ef bc 96 9c 39 bc
       0.05725356 0.053645723 -0.029265704 -0.011328837
000010 b7 dd 8e bd f5 de 37 3d ca eb 10 bd b1 3c 6b 3c
       -0.069758825 0.044890363 -0.035381116 0.014357732
000020 8d 5b 95 bd 91 d9 01 3d 15 af 42 bb 9b 8c df 3b
       -0.072928526 0.031701628 -0.0029706408 0.0068221814
000030 6b c6 90 3d 23 b6 81 3d 87 7d 85 bd 07 14 00 be
       0.07069095 0.06333568 -0.06518083 -0.1250764
000040 63 cb c1 3c f2 46 09 bc 1f 31 70 3c c6 b7 b2 bc
       0.023656553 -0.008378731 0.014660149 -0.021816146
000050 c1 03 e5 bc ea 12 cb 3b e3 97 ac bd 75 26 96 bd
       -0.027955892 0.006197323 -0.084274076 -0.07331554
000060 ef 08 d5 3b 24 72 f0 3c 70 9b bb bd c1 1d ae 3c
       0.006501309 0.029351301 -0.09160507 0.021254422
000070 bd c9 f5 bc 89 f8 57 bd b6 fe 71 bd ce 1a 4d 3d
       -0.030003423 -0.052727256 -0.059080802 0.05007439
000080 48 bb ee bb 69 15 1a bd 87 ca 07 3d 4d c7 3a bd
       -0.0072855093 -0.037618075 0.03315213 -0.045600224
000090 c3 70 d5 3c 4f 3c 04 bd f6 b6 c3 3c 53 a5 87 bd
       0.026054746 -0.032284077 0.023890954 -0.0662333
0000a0 21 60 8c 3d cb bd 0b bd 5e aa 12 bd 4b 86 7d bd
       0.06854273 -0.034116548 -0.035807006 -0.06189565
0000b0 41 d9 17 3b 13 ff c1 bd e1 f5 78 3d d5 37 8b bc
       0.0023170265 -0.0947248 0.060781363 -0.016994396
0000c0 b2 c8 50 3d f7 c9 b8 bb 51 21 76 bd 92 75 ee bc
       0.050972648 -0.0056393105 -0.060090367 -0.029108796
0000d0 b7 f4 47 3c 55 31 09 bd 4f d3 5e 3b b2 71 54 3d
       0.012204341 -0.033494312 0.0034000461 0.05186624
0000e0 e1 22 7e 3c 4f e3 80 bc 7d b2 1a 3d 23 89 ca 3c
       0.0155112455 -0.01573339 0.037767876 0.024723595
0000f0 55 a3 be bc cf 0d d4 bc b7 6b 2b bd 25 dd 83 bd
       -0.023271242 -0.02588549 -0.04185077 -0.06438664
000100 aa 24 4b 3c d0 aa 70 bd 14 7d da bc 14 b1 a2 3d
       0.012398878 -0.05875665 -0.02667097 0.07943931
000110 ac 80 d3 bb 51 9c 2d bd bd 86 04 bb 46 ee 94 bd
       -0.006454548 -0.042385403 -0.0020221912 -0.072720096
000120 78 be 8d 3d d9 fa cc bc 01 15 b1 bd 81 ed 28 3d
       0.06921095 -0.025021957 -0.08646584 0.041242126
000130 ad b4 08 3d 37 72 8f 3d b5 47 ac bb 64 4b d1 3b
       0.03337543 0.07004207 -0.0052575716 0.006387161
000140 dc 76 f9 3c 18 6a 16 3c 15 1e 21 3d 00 f6 58 bd
       0.030452184 0.009180568 0.03933533 -0.05296898
000150 48 37 56 3b c0 42 02 3d 71 d1 cd bc a5 a1 be 3c
       0.0032686759 0.03180194 -0.025124284 0.023270437
000160 d6 c5 22 3d 07 5b b6 bc 02 9d 87 3d 35 62 46 3d
       0.039739452 -0.022260202 0.06621744 0.0484335
000170 26 0a 61 3c fd 17 99 bc 26 a9 1c 3d 90 49 b6 bc
       0.01373533 -0.018688196 0.03824725 -0.022251874
000180 f7 4b e8 3c f0 10 19 bb ae 5a 39 bd c8 01 d2 bc
       0.028356535 -0.0023356043 -0.045252495 -0.025635615

layers.1.weight f4 [100, 100]
000000 0f 16 aa 3d 1b b8 0c be 09 b1 ab 3d 38 98 7b 3d
       0.083049886 -0.13742106 0.08383376 0.061424464
000010 94 2c fb 3d 55 f8 29 bd 3c 39 b3 3d a6 9d 78 bd
       0.12264362 -0.041496594 0.08751151 -0.06069722
000020 4d 7f 17 be 29 e1 ba 3d 70 4f b2 bd d0 b8 4b 3e
       -0.14794655 0.09124977 -0.08706558 0.19894719
000030 61 13 57 3e a4 22 b2 3d 7d c6 23 3d b6 19 52 bc
       0.21003486 0.086980134 0.039984215 -0.012823513
000040 f5 0e 0a be 50 34 cf bd 64 d4 cb bd ab 99 12 3e
       -0.13482268 -0.101174 -0.0995262 0.14316432
000050 72 61 b2 3b d5 b2 e2 bd fc 1a 4d 3e ab 6f 1c be
       0.0054437453 -0.11069266 0.20029825 -0.15276973
000060 a9 82 34 3d cb d1 66 3a 1c c7 2d 3d a8 57 0f 3e
       0.04406992 0.00088050653 0.042426214 0.13998282
000070 28 2d c4 3d 76 56 8e bd 7b 0d 69 be 7e 37 30 be
       0.09578925 -0.06950085 -0.22759049 -0.17208669
000080 97 32 86 bd 65 21 62 3d 2f 1a 37 be bd 6b 76 3e
       -0.06552618 0.05520763 -0.17881082 0.24064536
000090 6f 76 fb 3d 9c 5b 57 bd af de 09 3d d6 32 82 3c
       0.12278449 -0.0525776 0.033659633 0.015893381
0000a0 1f 71 01 be be 9a bf bc 36 b6 fe 3d 4b 52 0f 3e
       -0.12640809 -0.023389217 0.12437098 0.13996236
0000b0 d4 c4 77 be 17 a3 d0 3d 8e 1e 37 3e be a1 6d 3d
       -0.24196178 0.10187357 0.1788275 0.058015577
0000c0 2a 2a 21 3e 60 73 f2 3c f8 ec 50 3e 9b 08 a7 3d
       0.1573874 0.02959603 0.20402896 0.08155938
0000d0 86 5d 8c 3d 44 90 0e 3e 68 ca 3b 3d c4 11 24 3e
       0.06853776 0.1392222 0.045847327 0.16022402
0000e0 d7 d6 a1 bd 4e 79 97 bd 83 53 82 ba fd 82 3e 3d
       -0.079023056 -0.07396184 -0.0009943101 0.04651164
0000f0 79 78 15 bc 9a 12 9b 3d a2 7b 7f 3b 7d 47 a8 bd
       -0.009122961 0.07571907 0.0038983603 -0.0821676
000100 fc 04 3a 3c c5 30 d2 3d 0b c3 18 3d 00 8e 07 3c
       0.011353727 0.10263208 0.037295382 0.0082736015
000110 b8 b8 90 3c eb 4f 1c be 06 f6 ff 3c c5 b6 72 bd
       0.017666206 -0.15264861 0.031245243 -0.059256334
000120 fe 0c 96 bd 7f d4 4d be 1d b8 f9 ba ee 46 70 bc
       -0.07326697 -0.20100592 -0.0019052062 -0.014665348
000130 be 3a fc bc 12 e6 47 be 88 8f be bd e6 2b 1a 3e
       -0.03078973 -0.19521359 -0.0930472 0.15055808
000140 af 26 36 3e 0e 0c 54 3d e6 3e d1 bd 50 47 5d 3d
       0.17788194 0.05176931 -0.10217075 0.054023087
000150 c9 49 0f 3e 1f 9a 29 3e 12 a7 eb 3d 45 36 05 3a
       0.1399299 0.16562699 0.115064755 0.0005081634
000160 76 5f 5f 3d 99 b1 b7 3c 4e 0c 83 be 7b c3 84 ba
       0.054534398 0.022423552 -0.25595325 -0.0010129059
000170 0a 75 ec bb f2 7f 94 bd de 0c 05 be 3b 62 4d bd
       -0.0072161006 -0.07250966 -0.1299319 -0.050142508
000180 83 55 b1 3c 86 73 9e 3d 4a d7 33 bc 0e 92 b4 3d
       0.02164722 0.07736878 -0.010976622 0.0881692
000190 78 53 59 bd 2b 8e 1f 3e 4b b9 44 bd 9f da e7 bd
       -0.053058118 0.15581577 -0.04802827 -0.113209955
0001a0 be fa 4e bd 3d 40 39 bd d5 ea f3 bd e9 e2 4d 3d
       -0.050532095 -0.045227278 -0.11910025 0.050265227
0001b0 1c bb 43 3e d7 19 cc 3d c8 68 90 3e c1 37 c5 bb
       0.19114345 0.09965866 0.28204942 -0.0060186093
0001c0 6d cf 0c 3d 07 c5 c2 bd fb fb 46 3d 7a 11 14 bd
       0.034377504 -0.09510236 0.04858015 -0.03614948
0001d0 d1 cb 03 3e 88 6a a2 bd 5b 81 1a 3d 95 34 fe 3d
       0.12870719 -0.079304755 0.03772102 0.12412373
0001e0 67 3d 29 3e 80 77 18 3c 17 c2 05 3d fe 0d da 3c
       0.1652733 0.009305835 0.0326558 0.026618
0001f0 24 aa 52 3e e0 7e 29 3d 45 82 05 3e 15 1d 46 be
       0.20572716 0.041380763 0.13037975 -0.19347031
000200 3b 08 c4 bd 8f 7e 89 bd bd a4 a2 3e 83 80 8f bd
       -0.09571882 -0.06713592 0.3176631 -0.070069335
000210 34 da b2 bb a9 7e 65 bd 42 9f 08 bd d3 54 e9 bd
       -0.0054581407 -0.056028996 -0.033355005 -0.11393132
000220 87 32 ff 3d fc a2 ac bd 46 83 8a bc 80 b6 29 bd
       0.12460809 -0.08429524 -0.0169083 -0.04143381
000230 8d cb 00 3e ae 1f e8 bc d3 9b d2 bd 60 8b e4 3d
       0.12577648 -0.028335419 -0.10283627 0.11159396
000240 81 c2 39 3d 45 1c 1a 3d cc 9a 1a 3d 3a 80 cd 3d
       0.04535151 0.037624616 0.037745282 0.10034223
000250 6f 8f 06 be 0c f2 06 3d c5 0f 80 3c 8a f7 0d be
       -0.13140653 0.032945678 0.01563252 -0.1386396
000260 aa f2 32 3d f6 40 1c bd 9f 1f 19 be 57 3f 8e bc
       0.043688454 -0.03814789 -0.14953469 -0.017364187
000270 b7 b2 ff 3d 70 92 f5 3b 47 38 fb bd a2 50 94 3c
       0.12485259 0.0074942634 -0.122665934 0.018104855
000280 64 34 9e 3d 25 7b e1 3c 67 7c 17 3d 85 0e 0d bd
       0.077248365 0.02752454 0.036983874 -0.034437675
000290 97 c0 97 be 02 ce 22 bd 5f 8a 34 3e 07 e8 de 3c
       -0.29639122 -0.039747246 0.1763091 0.027210249
0002a0 c1 3f 2b be af 52 1e 3d 4b 28 6a be 55 42 78 bd
       -0.16723539 0.038653072 -0.22866933 -0.060610134
0002b0 0a bd 29 be b0 eb 3a 3d f2 47 54 3c 8e 48 d0 bd
       -0.16576019 0.045634925 0.012956606 -0.10170089
0002c0 40 95 1a be 26 58 ae bc ab 4e 48 3e fe fe 94 bd
       -0.15095997 -0.021282267 0.1956126 -0.072751984
0002d0 ee f5 5e bd e0 65 cb bd d6 5a 37 bd 1c b3 f3 3d
       -0.054433756 -0.099315405 -0.044764362 0.11899397
0002e0 6f 02 da 3d 2f 98 17 3e 2f 0a 6b 3e fb d9 b0 bc
       0.106449954 0.14804147 0.22953103 -0.021588316
0002f0 d0 9c fd bc c2 57 c6 3d de e6 83 bc cf 2a 01 3e
       -0.030958563 0.09684707 -0.016101297 0.12613986
000300 5f f1 46 be 58 0c 11 3e 4c c2 08 3e ca 7d a1 bd
       -0.19428013 0.14164865 0.13355368 -0.078853205
000310 84 76 a3 3c 72 69 8b 3d 95 7c f5 3d 9e 14 0e 3d
       0.019953974 0.068072215 0.11986653 0.03468763
000320 87 5a 39 be 51 a2 98 3d 12 82 3e be 9a 2b 01 be
       -0.1810094 0.074528344 -0.18604305 -0.12614289
000330 50 49 93 3c 4e 74 94 3d d8 f8 d1 3d 82 1f e9 3c
       0.017979294 0.07248746 0.10252541 0.028457407
000340 03 8a 08 3e 3a a1 d3 3d 1b fc 2a 3e 43 17 bb 3c
       0.13333897 0.10333486 0.16697733 0.02283824
000350 02 84 b9 bd 1b f9 fc bd dc b6 26 3d ea 9a 7b bd
       -0.090583816 -0.123522006 0.040701732 -0.061427034
000360 40 f3 ad bc 1a c8 13 bd db bb ff bd 2e 70 7a 3c
       -0.021234155 -0.036079504 -0.124870025 0.015285535
000370 e4 44 b8 bc 97 37 04 bd e8 1d 9c 3c 2d 87 47 3c
       -0.022493787 -0.032279577 0.01905723 0.0121782245
000380 6f c7 86 3c 2a b0 ba bd cc c9 59 3c 9e e9 0f bd
       0.01645252 -0.09115632 0.013292741 -0.035134904
000390 94 b0 75 3d e3 6d 52 bd 70 74 3e bd 0b 79 18 3e
       0.05998285 -0.051374327 -0.046497762 0.14889924
0003a0 08 9d 2b 3e 10 ca 3e 3d b3 bc 8e bb 48 a2 f9 bc
       0.16759121 0.04657942 -0.004355991 -0.03047289
0003b0 cb b0 a1 bd 3b 84 00 be 10 69 b6 3a e6 e4 31 bd
       -0.07895049 -0.12550442 0.0013916809 -0.043431185
0003c0 ef 3d 79 bc 73 0e d3 bd 0d 69 dc bd f4 63 31 3e
       -0.01521252 -0.1030549 -0.10762224 0.17323285
0003d0 38 ac a7 bc 85 f6 af 3d 82 2f 18 3e 97 cf a7 3d
       -0.020467862 0.08591942 0.14861873 0.081938915
0003e0 b1 47 a2 3c 10 93 a9 3c 18 d8 9d 3d 99 44 44 3e
       0.019809576 0.020700008 0.07707232 0.19166793
0003f0 88 1b 03 3e 59 10 35 bc ca 3a dc 3d 45 b7 04 be
       0.12803471 -0.011051261 0.107534006 -0.12960537

layers.1.bias f4 [100]
000000 57 5d 9b bc 98 ae f5 bc 45 44 7c bc 0e 46 81 bd
       -0.018965406 -0.02999048 -0.015397136 -0.0631219
000010 03 c2 45 bc 35 08 b6 3c b1 50 89 bc 23 e1 dd 3c
       -0.012070182 0.02222071 -0.01676211 0.027084893
000020 13 76 36 bc 0d 6d 5e bc 40 33 17 3d 41 4e 01 3d
       -0.0111365495 -0.013575804 0.03691411 0.03156877
000030 c8 74 ae 3c 71 2f 03 bd 18 65 b6 3c f4 16 97 bc
       0.02129592 -0.032027666 0.022265002 -0.018443562
000040 0a 44 57 3d 09 2a a0 3b 22 63 26 bc 4c 89 3f bd
       0.05255512 0.0048878235 -0.010155471 -0.046761796
000050 9a ee 1b 3d e1 4b 85 ba 2c 68 5f 3c 70 ce 52 3d
       0.038069345 -0.0010169708 0.013635676 0.051466405
000060 5a 4c 5a 3c 58 f8 4e 3b 84 fc bc bc d7 9c 16 bc
       0.013323868 0.003158113 -0.023069628 -0.009192667
000070 70 cf fd bb e5 72 eb 3c fa fd 5e bc 3f 31 0c 3d
       -0.0077456757 0.02874131 -0.013610357 0.034226652
000080 2f 0d 79 3c 5a 37 c3 3b b3 82 8c bc 38 fb 6c 3c
       0.015200897 0.005957526 -0.017152166 0.014464192
000090 89 28 14 bd d0 61 de bb b1 27 f9 3b ed c7 7f 3d
       -0.03617147 -0.0067865625 0.0076036085 0.062446523
0000a0 ab e1 ed 3c d5 66 89 3c 9d a1 58 3d cd 5a 0b bb
       0.029038271 0.016772667 0.0528885 -0.0021263838
0000b0 77 2f 08 3d ea 53 3e bc b2 70 d5 bc 79 97 14 3e
       0.03324839 -0.011616686 -0.026054714 0.14510907
0000c0 70 54 54 bc 73 68 17 3c 3d ae 26 3d 31 12 6b ba
       -0.012959585 0.009241211 0.04069351 -0.00089672493
0000d0 5f 58 09 bc f2 88 21 3c fa ff 58 bc d3 2a 4a 3c
       -0.008382886 0.00985931 -0.013244623 0.012339312
0000e0 fd d9 83 3d 26 bb c1 3c 3c 1f 1d bd 7d a6 5a 3c
       0.06438062 0.02364881 -0.038359866 0.013345358
0000f0 eb d3 53 3c 87 6b 41 3d 15 55 c6 bc a3 4e 6d bc
       0.012928943 0.047221687 -0.024210492 -0.0144840805
000100 4f f7 4f 3c 2b 2a c0 3c 0b de 87 3b 9f b8 d9 3c
       0.01269324 0.023457607 0.0041463426 0.026577292
000110 ff b6 8d 3d 28 51 01 3d 61 44 18 bd ed d1 c7 3c
       0.06919669 0.031571537 -0.037174586 0.024392093
000120 e4 d6 4e bc 4c a3 53 bc 40 5a 90 3c 6f f0 29 bd
       -0.012624476 -0.012917351 0.01762116 -0.04148906
000130 1c e7 fe bc d2 62 b2 bc ef 59 1e 3d 3b 5e 81 bc
       -0.03111606 -0.021775637 0.038659986 -0.015792003
000140 27 ed 0c 3d 55 a1 a0 bd b4 77 b0 3c ae 9c 29 bd
       0.034405854 -0.07843272 0.021541454 -0.041409187
000150 2f 94 66 bd dc 95 88 3b b4 11 0d 3c 25 5d 3f ba
       -0.056293663 0.0041682553 0.008610178 -0.00072999514
000160 e4 11 40 bd 32 cc 9f 3c 82 79 f3 bc f0 fe da bc
       -0.04689206 0.019506548 -0.029721025 -0.026732892
000170 70 ef 8b 3c d3 a6 2b 3b df a2 94 38 60 0f fd 3c
       0.017081946 0.0026191964 7.087527e-05 0.03089112
000180 50 e1 33 bd e9 a1 93 ba 90 ae 01 3d 64 70 9a bb
       -0.043916047 -0.0011263463 0.031660616 -0.004713105

layers.2.weight f4 [100, 100]
000000 03 12 c2 3d 74 56 47 bc d9 09 ac bb 55 87 a0 3d
       0.09476092 -0.012166608 -0.0052501974 0.078383125
000010 54 a2 dd 3d 5d 42 2c 3d 3e 4b 49 3c 67 77 91 bd
       0.10821977 0.042055476 0.012286006 -0.07102852
000020 31 46 e3 bd 47 dc 9c 3d 63 df 77 bb 22 46 c7 3c
       -0.11097372 0.07659202 -0.0037822358 0.024325434
000030 eb f4 87 bb b8 e1 3b be 94 42 59 bd a9 02 2e 3e
       -0.0041490695 -0.18347824 -0.05304201 0.16993202
000040 bd cd 28 be 9a 97 1a 3e 4f 05 57 3b b9 f2 cf bd
       -0.16484733 0.15096894 0.003280956 -0.101537175
000050 6a c7 e7 bd 43 cf 92 bd 64 57 62 be 9c fa 5e 3c
       -0.11317332 -0.07168438 -0.2210365 0.013609555
000060 0c 6a ee bd 02 5a 3c 3e a0 3a aa 3d 87 15 4d 3c
       -0.116413206 0.1839371 0.08311963 0.01251734
000070 e2 c0 a8 bc 36 3f 40 bd 9f d3 92 3d a4 6e 9a 3a
       -0.020599786 -0.046935283 0.0716927 0.0011782241
000080 a1 62 09 3e c9 ab a0 3d 6d 84 15 3d 9d a2 95 3d
       0.1341653 0.078452654 0.036503244 0.07306407
000090 50 66 2d bd 86 c3 55 3e 05 ec 87 3d 1e cc 0d bd
       -0.0423339 0.20875368 0.06636814 -0.03461849
0000a0 0c 84 ad bc bc f3 81 bc f2 ec d1 bc ce 39 83 be
       -0.021181129 -0.015863292 -0.02562568 -0.2563004
0000b0 25 ae 03 bd 4f 76 53 bc 23 ad 69 3e cc 34 94 3d
       -0.0321485 -0.012906625 0.22819953 0.07236633
0000c0 24 24 59 3d 6d ea 10 3e 57 78 ab 3e f9 30 bf 3e
       0.053012982 0.14151926 0.3349025 0.3734205
0000d0 39 20 7a bd 76 61 8f 3d 69 56 d8 bd 49 55 bd 3d
       -0.061065886 0.07001011 -0.105633564 0.092447825
0000e0 4e 7a b3 bb 7d 99 af bd 62 ee 6e be b6 91 da bd
       -0.0054772263 -0.085741974 -0.23333123 -0.106723234
0000f0 4f 27 9d ba 6a b9 fc bd b2 57 ca 3c 5b 16 d6 3c
       -0.0011989864 -0.123400524 0.02470002 0.026133707
000100 a4 29 94 3d 47 d9 51 3d 7b da 06 3d 6f 17 dd bc
       0.07234505 0.051232602 0.032923203 -0.026988713
000110 ed bf 88 be c9 5e 18 3e 7b 20 cd 3d ac 35 30 bd
       -0.26708928 0.14879908 0.10015961 -0.043019935
000120 4a cf 47 3c c4 03 3f be 4b 84 61 3e 04 3a 36 3d
       0.012195418 -0.1865378 0.22023122 0.04448892
000130 6b 30 87 ba a2 a2 fa bc da 5a 86 3c 38 ae 84 3d
       -0.0010314112 -0.030595127 0.016400743 0.06478542
000140 ac 76 08 3d d6 f0 7b 3d aa 9b 08 bd 67 9f 9f bc
       0.0333163 0.061508976 -0.033351578 -0.019485189
000150 72 41 90 3d e0 7a 3b bb a8 0f 60 3c 4b d0 1f be
       0.07043733 -0.0028607175 0.013675608 -0.15606801
000160 42 03 a7 bd a1 81 db 3d 15 c5 2a 3d 07 28 0c bd
       -0.08154918 0.10718084 0.04169186 -0.03421786
000170 30 01 0d bb a3 d3 b6 3d cf bf 16 3d 4b 83 a9 3d
       -0.00215156 0.08927085 0.036804017 0.08276995
000180 d5 08 d1 3d d2 7a 5b bc ce 3b f1 3d 97 27 95 bb
       0.10206763 -0.013395982 0.11778985 -0.0045518386
000190 72 f0 3b bd 15 a6 0d 3d c6 aa 52 3e fe e5 ef 3c
       -0.045883603 0.034582216 0.20572957 0.029284474
0001a0 b6 22 ba 3d ad 97 50 3e cf 58 b1 bb d5 b3 62 3d
       0.09088652 0.2037036 -0.005412198 0.055347282
0001b0 7d 66 89 bd 2f 8b d3 3d a3 82 bf bd c0 aa ce bd
       -0.06709001 0.103292815 -0.09351089 -0.10091162
0001c0 fc 97 9f bd 62 90 a2 bb fb b9 a3 bc af af b1 bd
       -0.077926606 -0.0049610594 -0.019986143 -0.08676087
0001d0 b4 e8 8d bd 1a 59 be bd 94 99 08 3e 64 dd bf 3d
       -0.0692915 -0.092943385 0.13339835 0.09368399
0001e0 21 f2 04 bd 71 d8 48 3e 27 7e 9a bd 97 63 f9 bd
       -0.032457475 0.19613816 -0.07543593 -0.121771984
0001f0 c3 c8 80 bc 29 99 6a bd c4 de 7b 3d 8c e3 f0 3c
       -0.01572073 -0.05727497 0.061491743 0.029405378
000200 c0 cd de 3c 95 3f 00 3d 61 86 07 3e 6c 58 ec bd
       0.027197719 0.031310637 0.13234855 -0.11540303
000210 66 b5 e6 3d 9d f8 ce 3b e1 69 22 3e bb 16 d0 bd
       0.11265068 0.006316258 0.15860702 -0.101605855
000220 f1 a3 8b bd f4 c9 8d bd ce 5c 93 3d 11 9d a2 bd
       -0.06818379 -0.06923285 0.071954355 -0.07940114
000230 21 31 17 3d 44 11 ab 3d 2c 84 89 bd c3 7b 09 3d
       0.036912087 0.083529025 -0.06714663 0.033565294
000240 0c e8 90 bd 59 6e f0 bd 9e fe cf bc 82 22 0f 3e
       -0.070755094 -0.11739797 -0.025389966 0.13978007
000250 59 16 ff bc 9d 3a 81 bd 3a 29 93 bd 02 d6 03 3c
       -0.031138586 -0.06310008 -0.07185598 0.008046629
000260 aa 96 01 be fa 39 48 bd ea c9 72 bd 8a 85 db bd
       -0.1265513 -0.048883416 -0.05927459 -0.1071883
000270 11 25 a9 bc 29 4b 5d bb 9c 96 2c be 36 99 e3 bd
       -0.020647557 -0.0033766723 -0.16854328 -0.11113207
000280 60 fb 10 3c 72 8d 32 bd 5e 6e 81 3e 40 9a 5f 3d
       0.008848995 -0.043591924 0.25279516 0.054590464
000290 e6 25 b8 bd d9 df 12 bd 7a c8 01 3e 7a 09 1a be
       -0.089916036 -0.03585801 0.12674132 -0.15042678
0002a0 06 8f 82 3d 67 13 e4 3d 55 8f 12 bd 6c 13 ce 3b
       0.06374936 0.11136513 -0.035781223 0.0062889364
0002b0 0a d9 ad 3c 3e df 26 3d ef ae ed bd 5f 46 4f bc
       0.021221656 0.040740244 -0.116056316 -0.012651055
0002c0 d3 92 15 bd 25 a9 22 be a9 a3 26 3d 2b 4b 26 3a
       -0.036516976 -0.15884836 0.040683422 0.00063435984
0002d0 7a 24 85 3d a3 07 cf 3b 80 45 da bd 09 3c 7c bc
       0.06501098 0.006318049 -0.10657787 -0.015395173
0002e0 57 5e 11 bd 89 ac 64 3d 5e f9 1f bc 03 54 6a 3d
       -0.03549036 0.055828605 -0.009764044 0.057209026
0002f0 ea f7 24 be 32 a4 ad bd 25 8a 2f be af 5b c2 3d
       -0.16110197 -0.084785834 -0.17142542 0.094901435
000300 1e 1a 4d 3d 6d ab 83 3d a4 17 d0 bd 18 3d 5b 3d
       0.050073735 0.06429181 -0.10160759 0.05352506
000310 13 1f 12 3d 2c eb f0 3c 2b ee 6e bd 08 cd 87 3d
       0.035674166 0.029409014 -0.058332603 0.066309035
000320 2d dd 21 be af 81 7d 3e 17 3c 9c bc 8a 4d 23 bd
       -0.15807028 0.24756502 -0.019071622 -0.03986887
000330 b7 60 08 3e 43 3a 38 bc 23 d4 51 bd b7 e6 0e bd
       0.13318144 -0.011244359 -0.0512277 -0.034887996
000340 69 96 ea 3d 3b 35 3b bd 92 b2 10 be fc ac 85 bc
       0.1145447 -0.04570506 -0.14130619 -0.016317837
000350 5f bb 6b 3d 89 c2 1e 3e 56 2d 05 bc 3f 3f f5 bd
       0.057551738 0.15503897 -0.008128485 -0.11974954
000360 f5 af c5 3d bc 5d d0 bc dd 54 89 3b d5 5c 16 bd
       0.09652702 -0.025435321 0.0041910247 -0.036709625
000370 ac b3 3b bd 18 25 c7 bc c5 d1 a4 bd 53 f8 c7 3d
       -0.045825645 -0.02430968 -0.08047823 0.09764161
000380 38 86 2f be a9 2f 57 3e 24 c0 02 bc 9e dc d2 3d
       -0.17141044 0.21014275 -0.00798038 0.10295986
000390 0a 34 f9 bb 02 5f 82 3e af 23 7a 3b 3f c4 80 bd
       -0.0076050805 0.2546311 0.0038168242 -0.06287431
0003a0 6b 3d 9c 3b de 4e 68 3d fc 5e aa bd 65 ec 11 bb
       0.004768064 0.05671584 -0.08318898 -0.0022266146
0003b0 33 30 80 bd 51 f1 94 be 03 f3 8a bd 5a 4f 6d 3d
       -0.06259193 -0.2909036 -0.06784632 0.057937004
0003c0 06 8b d7 bc af 68 2d 3e e6 be 4e 3d 20 cc 33 3e
       -0.026311409 0.16934465 0.050475024 0.17558336
0003d0 d2 52 10 3c 94 06 a9 3d 9e bc 76 bd cb 6e 24 3d
       0.008808808 0.08253208 -0.060238473 0.040144723
0003e0 96 db dd 3d 37 04 b0 3d c1 b3 b0 bd 59 f8 da bd
       0.10832898 0.08594554 -0.08628035 -0.106919
0003f0 94 5f ba bd 3a 71 86 bd 0f 9c 02 3e 2b 58 39 3e
       -0.09100261 -0.06564565 0.12754844 0.1810004

layers.2.bias f4 [100]
000000 3f 89 53 3c 66 93 8b bc 79 6b 81 bc 50 40 10 3c
       0.01291114 -0.017038058 -0.015798317 0.008804396
000010 51 17 de bb e8 14 c7 3c e8 64 f6 bb fd 61 82 3b
       -0.006777682 0.024301961 -0.007519353 0.0039789663
000020 0d 01 12 3c 1a f3 90 bc 28 1f 7a 3c e1 6e 53 3c
       0.008911383 -0.017694045 0.015266217 0.012904854
000030 8f 0e 19 bc 48 8f 4d ba a8 a3 df 3c 3b 9f da 3c
       -0.00934185 -0.000784148 0.027299717 0.026687255
000040 2b e8 16 3c 6f 8b ed bc 60 e4 8d bc ee 47 bb 3b
       0.009210627 -0.028997151 -0.017320812 0.005715362
000050 d2 8c 09 bd d7 fa cb 3c a6 f8 f4 b7 87 47 53 bd
       -0.033581562 0.024899883 -2.9202853e-05 -0.051581886
000060 19 81 8d bc 96 57 c7 3c 4a 4d 41 3d 4a 3a cc bb
       -0.017273473 0.024333756 0.04719285 -0.0062325345
000070 4a 1b 9c bc a4 60 97 3c dd f9 2c 3b 92 8a a3 3c
       -0.019055981 0.018478699 0.0026394047 0.019963536
000080 38 c1 08 bd de 92 70 bc 2e cf c6 bb 90 63 3b 3c
       -0.033387393 -0.014683453 -0.006067178 0.011437312
000090 5d bf 49 3d 2d a6 34 3c 90 a0 5a bc e9 2a 0c bd
       0.049254764 0.0110259475 -0.013343945 -0.03422061
0000a0 e8 58 83 bb c9 dd 88 bc fc 55 ab bc 6b c3 64 bc
       -0.004008401 -0.016707318 -0.020915024 -0.013962607
0000b0 67 a1 0a 3d ea 1e c9 3b b3 63 a0 3b 2c 99 2a bd
       0.03384533 0.0061377184 0.0048946976 -0.041649982
0000c0 01 dd 09 3c 0f a8 c1 bc dc 1d eb bc 97 85 49 3c
       0.008414508 -0.023639707 -0.028700761 0.012299917
0000d0 ff e9 ce 3c 92 ac 85 bc b2 99 00 bc d0 06 cc bc
       0.025258062 -0.01631764 -0.007849144 -0.024905592
0000e0 ae 79 23 bc 79 87 d2 bc fd d7 86 bc f3 a8 d0 3c
       -0.009977741 -0.025699364 -0.016460413 0.025471186
0000f0 86 a6 7b bc 64 a5 25 bc 52 b3 83 3c 55 5c 75 3d
       -0.0153595265 -0.010110233 0.016076718 0.059902508
000100 f0 7f b8 3c a0 af 89 3c 31 0d 0d bd d5 86 ce bc
       0.022521943 0.016807377 -0.03443641 -0.025210777
000110 ad 96 25 3d 75 9d 01 3b 95 40 94 bc ae 20 24 3d
       0.0404269 0.001977769 -0.018097201 0.04007023
000120 10 cb 60 bd c1 41 e3 bc c3 f8 87 bc 8c 24 18 bd
       -0.054881155 -0.027741315 -0.016598111 -0.03714423
000130 94 0e 10 3b ac 90 89 3c 70 c1 3b 3d 7b 81 63 3c
       0.0021981345 0.016792618 0.045838773 0.013885851
000140 e9 9e d9 3b ba 06 02 3d 8b 6a 8e 3c 20 a9 45 bc
       0.006641258 0.031744696 0.017384788 -0.012064248
000150 dd d7 6a bc b3 fa 51 bc 62 73 7e bc f5 4c 25 3c
       -0.014333692 -0.012816119 -0.015530439 0.010089149
000160 70 e7 11 b9 f7 89 c4 3c 7d 43 ce 3b a9 7d 59 bd
       -0.00013914495 0.023991568 0.0062946663 -0.053098354
000170 e6 c1 5d 3b c4 a5 87 3b b8 8e d5 bc 83 21 b0 bb
       0.0033837496 0.004139634 -0.02606903 -0.0053750887
000180 e5 fa 92 bb 3e 1e 9b bc 01 bf 6f bb 96 0d 6b bc
       -0.0044854754 -0.018935319 -0.0036582353 -0.014346501
