main/continuous_time_inference (Schrodinger)/models_iters/Schrodinger_4000.pt (torch, 208846 bytes, 14 tensors)

linear_in.weight f4 [100, 2]
000000 72 6e 2b 3e 63 68 db 3d f5 64 4c bd 30 9f 0a be
       0.1674135 0.107132696 -0.049900968 -0.13537288
000010 7b 7d 37 3c 51 74 96 3d 02 0c 0c bb ce 8e 2b 3e
       0.0111993505 0.07346404 -0.0021369462 0.16753694
000020 29 3f 1d 3e f1 f8 52 3c da 01 bf bd dc 64 49 3e
       0.15356125 0.012876735 -0.09326525 0.19667381
000030 54 28 d2 3d 72 dc 3a bc 5e 59 97 be d6 e8 05 be
       0.10261598 -0.011405097 -0.2956037 -0.13077101
000040 dd 96 93 bd 91 0a 40 3e c1 5e c5 bd f4 c1 39 3e
       -0.07206509 0.18754031 -0.096372135 0.18140393
000050 fc 29 00 be 97 e2 d0 3d 99 b8 22 bd 95 91 48 3e
       -0.12516016 0.101994686 -0.039726827 0.19586785
000060 0a 73 2d be 53 6e f9 3b b9 f9 96 bb 98 c8 4d be
       -0.16938415 0.0076120286 -0.004607406 -0.20096052
000070 bc 6b b5 3c 42 c1 ae bd 46 e6 2f 3e c2 9c 64 3e
       0.022146098 -0.08532955 0.17177686 0.22325423
000080 f1 17 6c 3e 10 13 e0 bc 58 4a 82 3e 0b 63 d5 bc
       0.23056008 -0.02735284 0.25447345 -0.026048204
000090 ba 0e 93 bd 7d 7b 8e bd b0 4a cf 3d 38 65 b1 bc
       -0.07180543 -0.06957147 0.101216674 -0.02165471
0000a0 f7 3e 85 be d7 6d f0 bd e2 8c 05 be d4 4a 9d 3e
       -0.260246 -0.117397 -0.13042024 0.30721152
0000b0 65 8c 43 bd 3f 3c ce bc 25 d9 e8 3d 0b e4 b4 3d
       -0.047741313 -0.025175212 0.11369542 0.08832558
0000c0 a1 19 bc 3d b4 15 80 bd 76 00 3b be 05 d4 bb bc
       0.09184576 -0.062541395 -0.18261895 -0.022928247
0000d0 79 e9 25 3e 23 88 09 be 94 c5 9b 3d 97 ee a9 bd
       0.16202344 -0.13430838 0.076060444 -0.082974605
0000e0 56 b5 53 3e ee 14 2d 3e 56 bb 90 be 63 b3 08 3e
       0.20674643 0.16902515 -0.28267926 0.1334968
0000f0 a6 b8 f5 3d ab 20 35 3e c4 32 19 3d f9 f4 c7 bc
       0.119981095 0.17688243 0.03740193 -0.024408804
000100 a9 af f5 3c 80 43 d1 3d ef ce 83 3d 97 49 03 3d
       0.029990988 0.10217953 0.06435954 0.032052603
000110 d5 77 8d 3e b0 d2 a4 be da 7d 46 bc b2 79 5c 3d
       0.27630487 -0.32191992 -0.012114966 0.053826995
000120 6a 39 86 3c 93 af 22 3e 27 64 c4 3c 11 f9 21 3d
       0.016384799 0.15887289 0.023973538 0.03954417
000130 2b 00 fb bc f3 a4 9d be 42 e1 a3 bd 65 1c 4d 3e
       -0.030639729 -0.3078991 -0.08001949 0.20030363
000140 87 9a 48 3e c0 cf 25 be 3e 63 1c be aa 45 c4 3d
       0.19590198 -0.16192532 -0.15272233 0.095836
000150 f6 6c cb bd 4b 42 3c be 0f 79 7c be 02 42 bc 3d
       -0.09932892 -0.18384664 -0.24655555 0.091922775
000160 be cc e2 bd 12 66 00 be a0 e3 09 be 53 d8 1c be
       -0.11074208 -0.12538937 -0.13465738 -0.15316896
000170 41 4d 32 3d bd c9 17 be 84 b3 2f 3e a8 f4 e9 3d
       0.043530706 -0.14823051 0.17158324 0.114236176
000180 03 4b 2e be fb bd 9b bd ee 87 b9 bd 2c 5c 43 be
       -0.17020802 -0.07604595 -0.0905913 -0.1907813
000190 33 42 f7 3d b5 c9 cf bd 00 cc de bc 63 91 9e 3d
       0.120731734 -0.101458944 -0.027196884 0.07742574
0001a0 f0 d7 cd bc 3c 64 4e be 19 36 16 3e 13 3e c1 bd
       -0.025127381 -0.20155424 0.14669074 -0.09435668
0001b0 8c 9d 93 3d 31 5a 9a be ef 19 2e 3d e3 56 0d be
       0.07207784 -0.30146936 0.0425052 -0.13802676
0001c0 f7 84 ab 3e 9f 53 a9 be 38 29 b9 bd 66 8c e2 3d
       0.33499882 -0.3307161 -0.09041065 0.11061935
0001d0 47 17 62 bb f9 9f 70 3d fe 37 41 be ba d6 1f 3d
       -0.0034498738 0.05874631 -0.18869016 0.03902314
0001e0 df 4a 69 3d b3 3f 46 bd 53 3e 0d bd 13 a3 55 3e
       0.05695617 -0.048400592 -0.034483265 0.20862989
0001f0 32 1c e0 bd cb f1 3f be a9 fa d9 3d b0 f3 db 3c
       -0.10942878 -0.1874458 0.10643513 0.026849598
000200 81 17 93 3c 4a 81 d7 3d e2 f7 2b be e7 c6 e6 bc
       0.017955543 0.10522707 -0.16793779 -0.028171016
000210 8b dc e4 bd 27 39 53 3e 14 d6 8a 3d 97 94 c7 3c
       -0.11174878 0.2062727 0.067791134 0.024362845
000220 14 7b 47 3e d6 bb 48 bb 56 cd 5f 3b 72 68 23 3e
       0.19480544 -0.0030629537 0.003414949 0.15957811
000230 42 66 5c 3e c2 fb 32 3d 18 61 33 bd 88 c5 4c 3d
       0.21523383 0.043697126 -0.043793768 0.049993068
000240 87 c2 ab 3b 86 7d 9a be 5b 96 b2 bc e2 a5 37 bc
       0.0052416953 -0.30173892 -0.02180021 -0.011208983
000250 0f a9 6d be c4 49 da bd 15 36 ce 3d dd cd 4f 3d
       -0.23209022 -0.10658601 0.10068909 0.050733436
000260 af 77 00 be b3 97 a2 bd 2e 36 14 3e 9b 3b 1c 3e
       -0.12545656 -0.079390906 0.14473793 0.15257113
000270 44 12 fe bc ef 53 01 3e 21 a2 84 be ab 79 40 be
       -0.03101457 0.12629674 -0.25904945 -0.18796413
000280 6b 6b af 3d 4b 5e df bd 2c 33 91 3d 9c ec be 3c
       0.0856541 -0.10906657 0.070898384 0.023306184
000290 31 56 c1 ba f1 16 85 3d 17 e6 49 3c aa 9a 1e 3e
       -0.0014750418 0.06498516 0.012322924 0.15488687
0002a0 7e 55 64 3d 92 33 62 3c ad a5 00 3e ee 11 8f 3e
       0.055745594 0.013806241 0.125632 0.27943367
0002b0 8b c8 27 be c3 fb 8c 3e b4 24 50 3e 34 cf ba bd
       -0.16385095 0.2753583 0.20326501 -0.09121552
0002c0 03 98 e4 bd 03 5b 7c 3d 7b dd 80 3d 58 e2 2d be
       -0.111618064 0.061610233 0.06292244 -0.16980875
0002d0 3a 75 52 3d 1b a0 3e bc 36 1c af bc 53 a9 3c 3e
       0.051381327 -0.011634852 -0.021375757 0.18423967
0002e0 33 27 98 3e 1b cb a1 bd 5a 62 af bd 7b fd c4 3d
       0.29717407 -0.079000674 -0.08563681 0.0961866
0002f0 90 6e 86 bb 09 3c 23 3d 27 c7 a6 bd bc 09 8a 3e
       -0.0041025355 0.039852176 -0.08143454 0.26960552
000300 c7 79 d3 3d c6 0a c7 3c ab fa ed bd 86 fc d8 bb
       0.103259616 0.02429713 -0.11620077 -0.0066219
000310 da ef 46 be 6f b8 c2 3d 33 76 8a bc 69 3c 09 3d
       -0.19427434 0.09507834 -0.016902065 0.033504877

linear_in.bias f4 [100]
000000 f6 7d 24 3c f6 a9 52 3c bf ad a6 bc 60 83 87 3c
       0.010039797 0.012857905 -0.02034652 0.016542137
000010 16 74 7c 3c 9b 0c 97 bc da de 0c 3d e3 7b 74 bc
       0.015408536 -0.018438628 0.034392215 -0.014922115
000020 89 02 e3 3c 49 11 db bc 80 fd fa 3c 5e b4 50 3c
       0.02771117 -0.02674164 0.030638456 0.012738315
000030 56 3c 5b 3c 3d 1e df 3c 74 6a 82 3c e7 ce ef 3c
       0.013381084 0.027236098 0.015919901 0.029273463
000040 71 7c 92 3c 5f e3 85 bc 1d aa 61 3c c6 67 4c bc
       0.017881604 -0.01634377 0.013773468 -0.012475913
000050 ed 38 7d bc 0b fa b7 bc 2d 18 0e 3d 53 65 54 3c
       -0.015455467 -0.022458097 0.034691025 0.012963611
000060 d7 da cd bb 97 87 15 3c cf 35 8f 3c 3d 5a 3a bc
       -0.0062821913 0.009126565 0.017481713 -0.011374054
000070 27 87 31 3c a0 b1 a5 3c 4d fc 5c 3c d5 f1 a0 3c
       0.0108354455 0.0202263 0.013487888 0.019646564
000080 dc 6b 91 bc 8d a3 50 3c 89 71 4c 3c 87 94 ad bc
       -0.017751627 0.012734306 0.012478241 -0.021188987
000090 a6 cc 6c bc 44 73 a9 bc 32 bc a2 3c 31 bb b8 3c
       -0.014453089 -0.020684846 0.01986513 0.022550197
0000a0 8a 40 e2 3c 27 98 13 3b f4 47 4c bc f1 f5 83 3c
       0.027618665 0.002252111 -0.012468327 0.016108485
0000b0 fd 0b c8 3b d2 95 2b 3c af 62 6b 3c 22 2b ab bc
       0.0061049447 0.010472732 0.01436679 -0.02089459
0000c0 56 83 91 3c 2e 99 7e 3c d3 81 58 bc 1d ff 9c 3c
       0.017762821 0.015539451 -0.013214546 0.019164616
0000d0 7b b7 78 bc df 69 65 3c 49 cb 19 3c da 78 70 bc
       -0.015180464 0.014002292 0.009386846 -0.014677251
0000e0 4d 08 91 bc 22 5d 91 3c 48 a7 17 3c 12 b0 b0 bc
       -0.017704153 0.017744604 0.009256192 -0.021568332
0000f0 05 11 05 bd 58 b3 3b 3c db 04 7b bc 6c 92 7c 3c
       -0.032486934 0.011456333 -0.015320982 0.015415769
000100 f8 21 8a bc 3a e2 08 bc ec f2 8e bc 08 3f 80 bc
       -0.0168619 -0.008354718 -0.017449819 -0.015655056
000110 03 3a 81 bc c9 d8 72 3c a4 f1 a2 3c 05 34 68 3c
       -0.015774732 0.014822193 0.019890614 0.014172559
000120 8b 87 98 3c 8a c6 03 3d 43 6a a7 3c 71 06 8a 3c
       0.01861932 0.032171763 0.020436412 0.016848775
000130 43 15 38 3c 46 33 62 bc cb a8 af bc 18 44 94 3c
       0.011235538 -0.01380617 -0.021442791 0.018098876
000140 cc 50 9b 3c 21 97 e6 bb 37 41 dd 3c 8c 68 7f 3c
       0.018959425 -0.007037059 0.027008636 0.015588891
000150 7c ce 5c 3c 32 0f 5a 3c 2d dc a0 3c b1 f0 a5 bc
       0.013476964 0.013309287 0.019636238 -0.020256372
000160 ba 46 7f 3c 26 29 5a 3c 99 86 a7 3c 4f 19 90 bc
       0.015580827 0.013315475 0.020449923 -0.017590193
000170 33 0b 81 3c 63 65 b6 3c d4 0d db bc 2a 20 72 3a
       0.01575241 0.022265142 -0.026739992 0.000923636
000180 03 0f 7e bc 93 60 19 bc e8 f7 82 bc 44 fe 49 bc
       -0.015506509 -0.009361404 -0.015987352 -0.012328688

linear_out.weight f4 [2, 100]
000000 91 b5 38 3e 13 64 a0 3e 76 31 bc 3e 74 57 bc 3d
       0.18038012 0.3132635 0.36756486 0.09196368
000010 8d 49 80 bd ae 7e f8 3d 1e 01 bb bd 41 93 70 be
       -0.06264029 0.12133537 -0.091310725 -0.23493673
000020 91 34 35 be 32 7c 70 3e 27 fa c9 3e 7c 36 43 bd
       -0.17695834 0.23484877 0.39448664 -0.047659382
000030 21 12 09 3e c3 81 90 3e 8c 4c 13 be 42 b5 27 3d
       0.13385822 0.28224 -0.14384669 0.040944345
000040 d5 bd 9e 3d 3d a7 8f 3d 9e dc 38 be ce bf ff bd
       0.07751051 0.0701432 -0.18052909 -0.12487756
000050 b5 89 76 bd df ba 74 3d a0 2c ee bd 8e 68 1c bd
       -0.06018992 0.059748527 -0.11629605 -0.03818565
000060 4d 13 ca bd bb c1 fc 3c 37 41 33 bd 0e 03 85 bd
       -0.098669626 0.030854097 -0.043763366 -0.06494723
000070 0c 70 4a 3d ca 7b 10 3e a8 b2 c7 3d d4 26 b0 bb
       0.049423262 0.14109722 0.09750873 -0.0053757224
000080 da 81 ee 3b 74 a8 e5 3d c1 22 17 be a3 ab db 3d
       0.007278663 0.112137705 -0.14759351 0.107260965
000090 5f c7 2d bd b2 8c a5 bd 14 d0 77 bd 45 e7 fd bd
       -0.042426463 -0.08083476 -0.060501173 -0.12397627
0000a0 d0 0e 2e 3e 19 1f b4 bd 55 bf 30 be ef 1c 32 be
       0.16997838 -0.08794994 -0.17260487 -0.1739385
0000b0 55 45 08 bd 27 d9 3e bd aa 18 d8 bd e7 7e 15 3e
       -0.033269245 -0.04659381 -0.10551579 0.1459919
0000c0 3b c3 c9 bd 53 5f 98 bc c0 1c 83 be e0 d2 bc bc
       -0.098516904 -0.018600142 -0.25607872 -0.023049772
0000d0 f4 a7 06 3e ca 82 9a be f5 67 93 bc 37 03 97 bd
       0.13150007 -0.3017791 -0.017993907 -0.0737366
0000e0 fc 73 0a 3e 73 a0 13 be 9a 8e 20 be 1b fa 5e 3e
       0.13520807 -0.14416675 -0.15679398 0.21775095
0000f0 d6 a1 83 bd 48 b2 2f bc f6 08 84 bd 63 cd 10 3d
       -0.06427352 -0.010723658 -0.06447022 0.035352122
000100 ad f7 fa 3c d7 cf e6 bd 58 5b 68 bd fd 7b 97 3d
       0.03063568 -0.11270111 -0.056727737 0.07396696
000110 7b 26 b6 3d 7c a8 f4 3d 17 cc 65 bd ff 85 7b 3d
       0.08894058 0.11946198 -0.05610284 0.061407086
000120 66 f8 11 3e b2 39 a8 bd 6d 15 53 bd aa b7 67 3e
       0.14254913 -0.082141295 -0.051534105 0.22628656
000130 43 99 d0 bd c4 e4 5a be cd db a4 3d e4 e8 c9 bb
       -0.10185482 -0.2137633 0.08049736 -0.006161796
000140 3f ce e0 3d 33 83 18 be 86 5e 8d bc 79 3f b6 3e
       0.10976838 -0.14893799 -0.017256986 0.355953
000150 18 b3 a1 3e f2 9a af bd dd e1 6e be 5a c0 97 3d
       0.3158195 -0.08574475 -0.23328348 0.07409735
000160 22 9b 77 bd 92 b6 a7 be dd 96 45 bd 47 a7 19 be
       -0.06045068 -0.32756478 -0.048239578 -0.15005217
000170 2e eb 0c 3e 12 b3 46 be b8 0f 0f be 15 30 97 bd
       0.13761589 -0.19404247 -0.1397084 -0.07382218
000180 62 18 4c be c9 5b 1e 3e 56 69 29 bd e9 45 5a be
       -0.19931176 0.15464701 -0.04136022 -0.21315731
000190 fe 9f 45 3e 5a 6a 94 bd 54 8f 0c 3e ef fd 54 bd
       0.19299313 -0.072468475 0.1372655 -0.051999982
0001a0 7d 0c e3 bb 48 42 fb bc 4c 6f 94 be 4f e1 f3 bd
       -0.006928979 -0.030671254 -0.28991163 -0.119082086
0001b0 5d 52 b2 3b 97 9c c2 3d 5b 0a 77 be c9 6b da 3d
       0.0054419474 0.095025234 -0.24125044 0.1066509
0001c0 9c d4 79 3e 01 8d 6e be ec fe bd 3d 51 f1 ca bc
       0.2439751 -0.23295976 0.09277138 -0.024773272
0001d0 2c 24 90 3e cf 9b 48 bc c8 e6 7a bd 70 9f 2c 3d
       0.28152597 -0.012244179 -0.061255246 0.04214424
0001e0 7f 19 1f 3e 04 76 77 bd be 82 00 3e 3c 27 14 3d
       0.1553707 -0.060415283 0.12549874 0.03617023
0001f0 ab 5a e8 bc 9f 88 ac bb cf 5d 1e be 48 f5 18 3e
       -0.028363546 -0.00526531 -0.15465473 0.14937317
000200 9e 7c 44 be 84 b7 32 3d 44 9a 2f 3e a1 aa e7 bd
       -0.19188163 0.043632045 0.17148691 -0.11311842
000210 70 4b a9 bd c1 91 40 be b8 3e 8e bc 46 75 b5 3d
       -0.08266342 -0.188056 -0.017363891 0.08860259
000220 d5 2b 1d 3e dd 03 b2 3e b9 5e f4 3c d6 d2 05 bd
       0.15348752 0.34768572 0.029830324 -0.032671772
000230 ec 3d 5e 3e 8b cf dc bd 4c 58 be 3c 4f e0 8d bd
       0.21703309 -0.10781773 0.023235463 -0.06927549
000240 42 46 26 be c7 68 30 3d 61 c0 00 b9 a5 ab 8c 3d
       -0.16237739 0.043068673 -0.00012278698 0.06868676
000250 95 3d 26 3e 45 6f f3 bc 51 29 a6 3e 34 21 52 be
       0.16234429 -0.029716143 0.32453397 -0.20520478
000260 a1 7d 6c bc 26 77 46 3e e9 f3 95 bd 7d bf 19 3e
       -0.014434249 0.19381389 -0.07321913 0.15014453
000270 e5 3d 99 bd 32 67 03 be 3f ca d4 3d 93 0c 5f be
       -0.074825086 -0.12832335 0.10390138 -0.2178214
000280 be 88 25 3e 6f 48 01 bc df 28 fd bc 86 31 9d bd
       0.16165444 -0.007890805 -0.030903278 -0.076754615
000290 18 1c 3f be 5b 6a 80 3c 7e 05 f4 3d cf 05 50 bd
       -0.1866306 0.015675714 0.1191511 -0.05078679
0002a0 35 13 ad bd 77 ab f2 bc 4e 0e d9 bc 34 16 cf 3c
       -0.08450929 -0.029622776 -0.026496079 0.025279142
0002b0 17 5a 19 3c ea 2c b1 3d c4 b6 c2 be c8 d4 84 be
       0.009359858 0.08651145 -0.38030064 -0.2594359
0002c0 f4 70 c9 3d 6f 48 77 be b9 33 41 be ab ab 82 be
       0.09835997 -0.24148725 -0.18867387 -0.25521597
0002d0 50 77 a8 bd 3e 62 a5 3d 08 08 74 bd 48 7d ae bd
       -0.08225882 0.08075379 -0.05957797 -0.08519989
0002e0 31 ac 95 be ed 80 27 3e f2 51 55 be 0d 52 61 be
       -0.29232934 0.16357775 -0.20832041 -0.22003956
0002f0 05 f5 0d 3e c7 83 c3 bc fb 8a 47 bc f3 f8 ee 3d
       0.13862999 -0.023866547 -0.012179132 0.11668577
000300 42 8d 09 3e 63 cc b2 be 9d f6 67 bd be 40 ac bd
       0.13432792 -0.3492156 -0.056631673 -0.08410786
000310 2f 6c bc 3b af e5 2e 3e 10 38 a3 be 22 05 0e be
       0.005750201 0.17079805 -0.3187871 -0.13869146

linear_out.bias f4 [2]
000000 42 d5 0c 3a fd 03 c5 3b
       0.0005372354 0.0060124383

layers.0.weight f4 [100, 100]
000000 2b 1e 35 bd ef e0 c6 bd 3c 04 10 3e 1b 26 7e 3c
       -0.044218224 -0.097108714 0.14064115 0.015512015
000010 d3 ef 42 3d a9 fc e0 3d 54 f6 16 3e c0 93 a8 bd
       0.047591995 0.10985691 0.14742404 -0.08231306
000020 f2 9b e5 3d f9 0c 5e bd 5c 53 a7 bd ea 12 1d be
       0.11211385 -0.05421159 -0.081701964 -0.15339246
000030 d7 96 f3 3d 43 d5 62 bd 97 c8 0e 3e 94 54 43 3e
       0.11894005 -0.055379163 0.13943706 0.19075233
000040 a3 5d f7 3d 8f d3 57 3c 23 79 01 3e 0a 1f 02 3e
       0.12078407 0.013172998 0.12643866 0.12707153
000050 cc 7a 63 be 57 4c 93 bd b7 34 8c 3d bb 99 aa bc
       -0.22214812 -0.07192295 0.06845992 -0.020825258
000060 65 1b 87 3d 63 30 b1 bd 52 df 94 bd 45 9d 91 3c
       0.06597022 -0.08651807 -0.072691575 0.017775187
000070 f8 8b 06 be 63 55 a4 3d 09 27 4a be e0 c7 f5 bd
       -0.13139331 0.08024099 -0.19741453 -0.12001014
000080 35 10 2a be f1 70 d1 3d a2 f0 76 3e 9d 88 55 3d
       -0.16607745 0.1022662 0.24115232 0.052132238
000090 34 e9 b5 3d 50 c8 a9 bd 8b 0f 03 3e 8d 63 45 3d
       0.088823706 -0.0829016 0.12798898 0.048190642
0000a0 39 a9 8f 3c f1 5c 4c 3e 7b f2 e1 3b 7c ab 29 bb
       0.017536746 0.1995733 0.006895361 -0.0025889566
0000b0 23 3a 2e 3e 3c 36 60 3d c3 0c 69 be 92 d7 92 3b
       0.17014365 0.054739222 -0.22758774 0.0044812644
0000c0 c3 69 18 3d b8 ef f3 3d 39 03 16 bd b5 6c df 3d
       0.037210237 0.11910957 -0.036624167 0.10909406
0000d0 1d 92 c4 bd f4 1d 99 3d 66 df 85 3d 71 40 25 be
       -0.095981814 0.07476416 0.065367505 -0.16137864
0000e0 14 2b 2a 3e 66 f2 07 be a4 bf 5c bd dd e3 87 bd
       0.16617996 -0.13276061 -0.0538937 -0.06635258
0000f0 bd 6e 4e bc 79 d1 94 bd b6 e4 59 3d 84 14 ae 3d
       -0.012599644 -0.07266516 0.05319663 0.08500007
000100 68 4b ac 3d e7 e4 9e bd c5 b3 8a bb 1c cc 7a be
       0.0841282 -0.077585034 -0.004232856 -0.24491924
000110 2b 8d 19 bd c6 36 22 be af 0a ee 3d db df 85 bd
       -0.037488144 -0.15841207 0.116231315 -0.06536838
000120 ed 33 8a 3d bf ab 91 3c ae d7 7d bd 73 b9 2a 3a
       0.06748185 0.01778209 -0.061973266 0.00065126194
000130 84 89 e9 3d af c9 e1 bc 49 ca 87 3d cc 09 26 be
       0.11403182 -0.02756199 0.0663038 -0.16214675
000140 fd 35 e6 bd aa da 21 3d 25 16 57 3b d3 6e 4d 3d
       -0.11240766 0.039515175 0.0032819596 0.05015452
000150 e1 4f ea bd 6a fc 50 bd a8 3a d1 bc 25 50 a5 bd
       -0.11441017 -0.05102197 -0.025540665 -0.08071927
000160 90 93 58 3d b9 54 ab bc c1 80 3b 3e 44 8e ad bc
       0.0528751 -0.020914422 0.18310834 -0.021186002
000170 33 10 e4 bd 4f 1b cf bc cb 70 17 bd 6d a4 d8 bd
       -0.11135902 -0.025281576 -0.036972802 -0.10578237
000180 40 1e 8d 3d 1e 4c de bd 1a c3 f0 bd 1e 9b ab 3c
       0.06890535 -0.10854362 -0.11755963 0.02094799
000190 ba 9d 94 bc c1 28 d7 3d d2 c1 61 bd de 2a 75 3c
       -0.018141616 0.1050582 -0.055116482 0.014963834
0001a0 51 03 16 3e 07 5f 93 bd a5 82 53 3e 1a d7 12 3d
       0.14649703 -0.071958594 0.20655306 0.035849668
0001b0 ea dd 9f bd b2 67 00 bd 07 df 2c bd 12 4e 28 3d
       -0.078059986 -0.03134889 -0.042204883 0.04109008
0001c0 9a f5 73 3e 49 a7 94 bc f5 a1 b9 bd 9e db b8 3d
       0.23824158 -0.018146174 -0.09064094 0.09026264
0001d0 fc 64 06 be 93 52 b2 bd 6e d8 98 3d a0 93 ce 3c
       -0.1312446 -0.08707156 0.07463156 0.025216877
0001e0 a3 87 54 3e 97 31 e6 3d a0 93 74 3d 5e 82 a9 bd
       0.20754866 0.11239927 0.0597111 -0.08276819
0001f0 3e 54 44 3e dd 8a ba 3c d5 c4 52 3c 92 ae 20 be
       0.19172761 0.022771293 0.012864311 -0.15691593
000200 44 7c 00 3d 4a 45 fa 3d fc 78 68 bd ad 95 4a ba
       0.03136851 0.12220247 -0.056756005 -0.0007727992
000210 2f 65 11 be aa 4a ef bd ed 54 89 bd 2b 15 77 bd
       -0.14198755 -0.11684163 -0.067056514 -0.06032292
000220 f7 ed 19 bd 99 a2 c2 3c 61 b0 23 3e ad f7 b2 bd
       -0.037580457 0.023759173 0.15985252 -0.08738647
000230 1b 17 91 3d 40 63 ae 3d 61 93 f8 bb 38 18 fe 3c
       0.07084485 0.08515024 -0.0075859283 0.031017408
000240 e3 54 f8 bd 89 0b c2 3d 75 9e ce bd 8b ba 18 bc
       -0.12125566 0.094748564 -0.10088817 -0.009321819
000250 08 d0 d0 3d 16 e0 f0 bd e0 50 be 3c e8 23 5f bd
       0.10195929 -0.11761491 0.023231924 -0.054477602
000260 22 36 73 bd d0 4c 0c bd 29 5e c1 3d 58 f4 e0 bc
       -0.059377797 -0.03425294 0.09441788 -0.027460262
000270 c2 aa 8a bd 80 0e 25 3e d5 41 22 be fb b7 bb bd
       -0.06770851 0.16118813 -0.15845425 -0.09165951
000280 a0 d7 a0 bd 99 86 3d 3d c3 c0 76 3d a7 82 3d be
       -0.07853627 0.04627094 0.060242426 -0.18506871
000290 b8 a6 f2 3c f0 f2 41 be bf 62 2d bd 1a 0f 2a bd
       0.029620513 -0.1894033 -0.0423305 -0.04151831
0002a0 bd ec 3c 3d bb 05 0f bc 83 3d d0 bd d5 dc 13 3e
       0.04612421 -0.008729394 -0.101679824 0.1443971
0002b0 d4 cf 45 3e 73 83 a2 3d 9a a5 6e 3d 9d 78 46 bc
       0.19317561 0.07935228 0.0582634 -0.012113717
0002c0 03 ef 42 3d 18 ca a0 3c e7 76 fa 3d 6e 55 d2 bd
       0.04759122 0.019627616 0.1222971 -0.10270201
0002d0 16 c2 38 be c5 46 d8 3d a3 c5 0b 3e 2a 80 6e bd
       -0.18042788 0.10560373 0.13649611 -0.058227696
0002e0 41 e7 33 be 03 ed 8e bd bc e8 7b bd d5 27 22 bd
       -0.17568685 -0.069788 -0.06150125 -0.039588768
0002f0 1d e8 d6 bb f9 ec 15 bd d1 cd ba 3d 7a 38 7a bc
       -0.006558432 -0.036602948 0.091212876 -0.015272254
000300 ab c3 58 3d 79 a7 6f bd 87 dc 82 be 35 f7 4b be
       0.05292098 -0.058509324 -0.25558874 -0.19918521
000310 34 b7 60 be 16 25 26 3e 9b ac ba 3c 91 61 ee 3d
       -0.21944886 0.16225085 0.022787383 0.11639703
000320 24 c5 02 be ae bc c3 bc b3 c3 8c 3c 24 3d dd bb
       -0.12770516 -0.02389368 0.01718316 -0.0067516733
000330 25 e8 5b bd ad d0 8c 3d fe 14 1c be 03 2e 86 bd
       -0.053688187 0.06875739 -0.15242383 -0.06551745
000340 6e 15 a4 bd ac 70 06 3e f2 e3 a5 bd b7 e1 fa 3c
       -0.080119 0.13128918 -0.08100118 0.030625207
000350 7f e5 5b 3b 3d 29 ed 3c 82 51 ea bc f9 51 e9 3c
       0.0033553538 0.028950328 -0.02860332 0.02848147
000360 95 5d de bd 4e 20 05 bc c7 35 85 3d 09 79 0c bd
       -0.10857693 -0.008125378 0.06504398 -0.034295116
000370 77 08 e6 bc 4a a7 0f bd fa 65 7a bd f0 9f cf bc
       -0.028080208 -0.03507165 -0.06113241 -0.025344819
000380 0a b3 9e 3d 32 6c 92 bd ef 58 12 be 05 c4 1a bd
       0.07748993 -0.07149543 -0.14291738 -0.037784595
000390 c2 ab cb 3c be 8b 53 3d eb cd 82 3d c2 af 9d 3d
       0.024862174 0.05164694 0.06386932 0.07699539
0003a0 41 aa 42 3e 54 9f d6 3c 84 3a 15 3b f8 85 3e 3e
       0.19010259 0.02619902 0.0022770474 0.18605793
0003b0 40 97 25 3d cd 4a 39 3d 71 f0 21 3e 3a d5 1d bc
       0.040427446 0.04523735 0.15814377 -0.009633357
0003c0 b8 87 f2 3d 20 8b cf 3c 39 e4 7c be 5b 99 e4 3d
       0.118422925 0.025334895 -0.24696435 0.11162063
0003d0 a4 98 54 3d a5 13 d1 bd 5d 73 0a bd fb 82 af 3d
       0.051903382 -0.10208825 -0.033801425 0.085699044
0003e0 5d ad 8d bd 3c 6e 80 3d 9b c1 d8 bd 66 c4 0a be
       -0.06917832 0.062710255 -0.10583802 -0.13551483
0003f0 6e 38 dc 3d a2 4c 25 bd a2 b7 44 bd 83 f9 99 bb
       0.107529506 -0.040356286 -0.04802669 -0.0046989336

layers.0.bias f4 [100]
000000 7d 0f ab 3c f2 42 9c 3c dc e8 87 bc 51 b4 17 3c
       0.020881409 0.01907489 -0.016590528 0.009259299
000010 4b c0 eb bc a3 47 bc 3c c3 c7 8c bc 7f 0e 20 3c
       -0.028778216 0.022983378 -0.017185098 0.009769081
000020 6e f0 cd bc d8 50 89 3c ef af 60 bc 52 8f 9a 3b
       -0.02513906 0.016762182 -0.013713821 0.004716792
000030 c2 02 77 3c 81 eb b6 3c b2 0c 15 bd b0 eb d0 bc
       0.015076341 0.022329094 -0.03638906 -0.02550301
000040 f8 d5 72 3c af ae 63 bc f4 81 7e 3c e2 1d 81 bc
       0.014821522 -0.013896628 0.015533913 -0.01576132
000050 65 59 77 bc 68 92 27 3c f1 e2 ce bc bd 51 ca bc
       -0.015096997 0.010227777 -0.025254698 -0.024697179
000060 ac f5 db bb f8 5f 93 3c ea 7e 9b bc 56 f8 f3 bb
       -0.006712636 0.017990097 -0.018981416 -0.0074453754
000070 cc 20 60 bc 86 37 7f bc fb 6e 72 bc 1d f7 8a 3c
       -0.013679694 -0.015577203 -0.014796968 0.016963536
000080 08 0d 54 bc 7f b9 a3 bc b3 4e 6e 3c 43 ba 91 bc
       -0.01294256 -0.019985912 0.014545131 -0.017789012
000090 de ba a6 3c b1 ae 43 3c f6 b9 72 3c 5b 45 b7 bc
       0.020352777 0.011943505 0.014814844 -0.022371938
0000a0 f5 da b5 3c 82 74 cf ba 05 56 db bc 7b eb 4e bc
       0.022199133 -0.0015827569 -0.026774416 -0.012629385
0000b0 aa 60 29 bc 85 ef 07 bd 5c e7 97 3c 0a 6a a1 3b
       -0.010337988 -0.033187408 0.018542938 0.004925971
0000c0 ad fe b8 3c 86 fa 0b 3c f5 00 45 bc 01 ad 40 bc
       0.022582376 0.008543616 -0.012024154 -0.011759997
0000d0 66 fd 75 3c b9 cb a0 bc 6c 51 74 3c 10 fc e4 3c
       0.015014028 -0.019628393 0.014911991 0.027952224
0000e0 34 c9 8d 3b 50 57 5b bc 27 cc 6d 3c cf b3 0c 3c
       0.004326964 -0.013387516 0.014514006 0.008587792
0000f0 a6 0f 58 bc 54 72 93 bc 50 98 85 bc 1f 45 cd 3b
       -0.013187325 -0.017998852 -0.01630798 0.0062643434
000100 7d de 8c 3c 42 33 c2 bc 70 42 9d bc 82 5d 52 3c
       0.017195934 -0.023706082 -0.019196719 0.012839677
000110 b4 cd 3e bc c5 41 60 bc b6 49 c0 bb 4b f6 e3 bc
       -0.011645723 -0.013687556 -0.005868162 -0.027827403
000120 4f 36 be 3c 4e dd a6 bc ce 4c 81 bc 28 1a e1 3c
       0.023219256 -0.020369198 -0.015783694 0.027478293
000130 89 a1 d9 3c 10 33 ac 3c 39 97 58 bc 10 ca 6f 3c
       0.026566284 0.021020442 -0.013219648 0.014635578
000140 49 b3 e8 3c 11 63 86 3c 26 f2 0c bc 4d 9e 26 bc
       0.028405802 0.01640466 -0.008602655 -0.010169578
000150 f2 b2 78 bc 85 97 9b 3c 5e 1f 50 bc 3f 6e 53 3c
       -0.015179383 0.018993149 -0.012702791 0.012904703
000160 83 5c 77 bb bd bf 74 bc 3f 96 c6 3c b3 53 98 3c
       -0.003774435 -0.014938292 0.024241565 0.018594598
000170 72 64 72 3c f3 c0 59 bc 76 ee 4d bc 59 21 2b 3c
       0.014794456 -0.013290632 -0.012569061 0.010444962
000180 2f 6a b7 3c b1 66 43 bc 1a e1 44 bc d7 d9 58 bc
       0.0223895 -0.011926339 -0.012016559 -0.013235531

layers.1.weight f4 [100, 100]
000000 ab e5 98 3d 48 6e 0b be b9 a5 9d 3d 1c 96 3d 3d
       0.07465681 -0.13616288 0.07697625 0.046285734
000010 84 98 01 3e a0 c0 47 bd 6f 96 e7 3d 58 6e 50 bd
       0.12655836 -0.048767686 0.1130799 -0.050886482
000020 a6 6f 08 be 32 2c a4 3d 9a 6b 63 bd b1 b0 5d 3e
       -0.1332384 0.08016242 -0.05552254 0.21649434
000030 45 23 4b 3e 7b d0 99 3d 9c 14 4a 3d 76 9f 28 bc
       0.19837673 0.075104676 0.04933606 -0.010291925
000040 00 16 09 be ac 20 c4 bd 1f ca da bd f6 13 0d 3e
       -0.13387299 -0.09576544 -0.10683083 0.13777146
000050 6d 69 c2 3c 07 a2 e8 bd 0f c3 18 3e f8 04 0f be
       0.023731912 -0.11359029 0.14918159 -0.13966739
000060 4e 1a 19 3d da 84 68 bb 64 c8 39 3d b2 16 fc 3d
       0.0373786 -0.0035479576 0.045357123 0.12309016
000070 19 aa b1 3d 25 2c 58 bd 3d 06 51 be d8 12 31 be
       0.08675022 -0.052776475 -0.20412536 -0.17292345
000080 97 05 34 bd 51 13 55 3d d5 fc 23 be 04 ff 76 3e
       -0.043950643 0.052020375 -0.16014417 0.24120718
000090 97 ed f6 3d 44 c8 d7 bc 5d 13 0d 3d 76 c3 ba 3c
       0.120570354 -0.026340611 0.034442294 0.022798281
0000a0 11 51 d8 bd 92 bf 34 bc 08 c9 f1 3d f2 31 2a 3e
       -0.10562337 -0.011032002 0.11805922 0.16620615
0000b0 8b 9c 73 be 8a 1d c1 3d 72 fe 3c 3e 25 6c 6d 3d
       -0.23790185 0.09429462 0.18456438 0.057964463
0000c0 ab f7 17 3e 1e 3c 40 3d 00 5f 4f 3e cd d0 a9 3d
       0.14840572 0.046932332 0.20251083 0.08291779
0000d0 ab c8 52 3d 50 ac f9 3d 97 a3 f9 3c cb 32 1f 3e
       0.051460903 0.12191069 0.030473514 0.1554672
0000e0 de 5e 92 bd 9f e6 3e bd e5 4d 8f 3c 8d 2f d7 3c
       -0.07147001 -0.046606656 0.017493198 0.026267791
0000f0 d9 58 fa ba 9b b9 99 3d f5 d8 06 3c 24 8f e5 bd
       -0.0019099965 0.075061046 0.0082304375 -0.112089425
000100 8c ae 72 3b 1f cc 96 3d db 6d f3 3c 29 87 1a 3d
       0.0037030308 0.07363152 0.02971547 0.037726555
000110 83 95 0d 3c 21 f8 34 be 76 37 b7 3c c8 e0 16 bd
       0.008641603 -0.17672779 0.022365313 -0.03683546
000120 c1 af 1f bd b7 ac 4a be 5a bd ab bc a1 bf a6 bc
       -0.03898597 -0.19792448 -0.020964313 -0.020355048
000130 a6 ab 23 bd 87 cc 58 be 96 1f d9 bd 6f e6 1d 3e
       -0.03995862 -0.21171771 -0.10601728 0.15419935
000140 55 f7 3b 3e eb d7 59 3d 38 b6 e4 bd 80 e4 f1 3c
       0.18356068 0.05318443 -0.11167568 0.029527903
000150 31 f3 0a 3e 28 4b 1d 3e a9 c6 c8 3d 12 87 7d 3c
       0.13569333 0.15360701 0.098035164 0.015474098
000160 3c 54 85 3d 26 45 d5 3c 88 77 7d be a7 c0 d9 bb
       0.06510207 0.02603395 -0.24752629 -0.0066452804
000170 08 bd 86 3b 40 00 83 bd 64 bd d2 bd 36 5f 42 bd
       0.0041118897 -0.06396532 -0.1029003 -0.04745408
000180 bd 12 0f 3d f3 db a4 3d f1 3c 46 bb d0 63 a0 3d
       0.03492998 0.080497645 -0.0030248726 0.07831538
000190 3a fc a3 bc f3 0a 0b 3e f5 c2 85 bd 7e a9 d7 bd
       -0.020017732 0.13578396 -0.06531326 -0.10530375
0001a0 e5 7c 0a bd cc e0 18 bd af bd 0f be 94 d9 36 3d
       -0.033810515 -0.037323758 -0.14037202 0.044641092
0001b0 89 ca 1d 3e 5c 72 eb 3d 2f 06 6f 3e 9d 4d d1 bc
       0.15409292 0.11496422 0.23342203 -0.025549704
0001c0 16 a1 6f 3d b6 06 89 bd 8e 46 2c 3d 36 42 3c bd
       0.058503233 -0.06690733 0.042059474 -0.04596158
0001d0 0c 45 e3 3d d0 48 d7 bd b8 f0 1e 3d 7a df b2 3d
       0.11097154 -0.10511935 0.038803786 0.08734031
0001e0 5a c7 16 3e d0 68 ab bb 0a e3 d5 3c 0f 45 9f bb
       0.14724484 -0.0052310005 0.026109237 -0.0048605273
0001f0 1f 7a 41 3e 79 80 97 3d ce 41 af 3d fe c8 17 be
       0.18894242 0.07397551 0.08557473 -0.14822766
000200 0b 7f db bd f4 93 a8 bd 92 8b 96 3e 8d 90 f1 bc
       -0.10717591 -0.08231345 0.2940336 -0.029487872
000210 c4 6f e8 bc 4b 3d 90 bd de 94 e7 bc dd c5 c0 bd
       -0.028373607 -0.07042941 -0.028269228 -0.094127394
000220 57 57 dd 3d 7c 2c 8c bd d9 2d f6 bc ac 90 78 bd
       0.108076744 -0.06844422 -0.030051159 -0.060684845
000230 65 05 fe 3d ac 34 8d bd 38 4c f0 bd db 85 9e 3d
       0.12403373 -0.06894812 -0.117332876 0.07740375
000240 c5 94 70 3d 94 0b 41 3d 45 d0 38 3d d4 05 8a 3d
       0.058735628 0.047130182 0.045120496 0.06739393
000250 23 d3 d3 bd c2 b9 8d 3c f7 96 28 bc 30 f5 22 be
       -0.103430055 0.01730049 -0.010289899 -0.15913844
000260 66 1e 65 3d 53 f0 d7 bc ec b6 07 be 12 42 4a bc
       0.055937193 -0.026359713 -0.13253373 -0.012344854
000270 be 85 db 3d 6d be 96 bc e4 ec f9 bd 11 68 04 3d
       0.10718869 -0.018401349 -0.122033864 0.032325808
000280 ec 0a 7e 3d 5e c7 87 3b e9 87 f9 3b 7b b2 16 bd
       0.062022135 0.0041436395 0.0076150787 -0.036791306
000290 75 70 89 be 48 a1 36 bd 2b f0 31 3e f9 1d 82 3c
       -0.2684361 -0.044587404 0.17376773 0.015883433
0002a0 cf 91 1d be fb 04 2e 3d de c5 6c be 0b 31 b7 bd
       -0.15387653 0.04248522 -0.23122355 -0.08944901
0002b0 d3 35 20 be e4 5e 7c 3d 86 25 df 3b 39 c7 99 bd
       -0.15645532 0.061613932 0.006809893 -0.07508702
0002c0 44 69 cf bd 0b c5 85 3c 4e 21 4c 3e 20 d2 c0 bd
       -0.101275 0.016329309 0.1993458 -0.09415078
0002d0 6e a6 1d bd 0f 00 8f bd 3d 60 fc bc ac a2 06 3e
       -0.038488798 -0.06982433 -0.030807609 0.13147992
0002e0 cd cf b2 3d 4d 74 24 3e 65 f3 76 3e d2 2b 17 bd
       0.08731041 0.1605999 0.24116285 -0.036907025
0002f0 16 cd dd bc 62 09 96 3d 31 4d 79 bb 70 85 f8 3d
       -0.027075332 0.073260084 -0.0038040394 0.12134826
000300 ba b7 45 be 3e 71 f4 3d 18 2d 02 3e fd 95 e0 bd
       -0.19308367 0.11935662 0.12712514 -0.10966108
000310 01 4d 37 3b be cb b6 3d 81 bf d1 3d dd e2 4c 3d
       0.0027969482 0.089255795 0.102416046 0.05002104
000320 8c 54 36 be 47 fd 9c 3d e5 d2 3d be e5 89 fe bd
       -0.1780569 0.07665496 -0.18537481 -0.12428645
000330 b2 ed 68 3c db 33 9b 3d a0 84 80 3d 0e 23 d1 3c
       0.014216827 0.0757825 0.06275296 0.02552941
000340 ef bf 05 3e 87 86 ea 3d c3 f1 d1 3d ef 7f 0a 3a
       0.13061498 0.1145144 0.102511905 0.0005283346
000350 23 ce a9 bd e3 21 e0 bd 47 a2 22 3d f3 89 90 bd
       -0.082912706 -0.109439634 0.03970554 -0.07057562
000360 cb 39 a4 bc 86 2c 20 bd 77 36 f1 bd 2e c8 89 3c
       -0.02004709 -0.03910496 -0.117779665 0.016819086
000370 55 7f 31 bd fa 6d c8 bc a4 57 b8 3c 18 06 0a 3c
       -0.043334324 -0.024466503 0.022502728 0.008424304
000380 e5 bc 9c 3c 2c d9 b4 bd 6a d6 68 ba 45 46 92 bc
       0.01913304 -0.08830485 -0.0008882048 -0.017855773
000390 76 e5 86 3d 4f 07 75 bd 63 a2 8c bd df fd 1f 3e
       0.06586735 -0.059821423 -0.0686691 0.15624188
0003a0 3f e3 19 3e 86 cd 4d 3d d4 9c 5d bc fb e7 08 bd
       0.15028094 0.05024483 -0.01352616 -0.03342436
0003b0 8a b9 9b bd 88 da f3 bd ae 68 b5 3b 34 31 63 bd
       -0.07603748 -0.11906916 0.0055361604 -0.055466846
0003c0 25 18 a0 bc 7e 1e d6 bd 00 a3 d2 bd 12 22 0f 3e
       -0.019542763 -0.10455035 -0.10284996 0.1397784
0003d0 1c ab de bc f8 fe ad 3d a1 4e 22 3e 12 ba af 3d
       -0.0271812 0.08495897 0.15850307 0.08580412
0003e0 c4 65 bc 3c 7b 98 3f 3b 0d 11 7a 3d e9 20 44 3e
       0.022997744 0.0029235173 0.061051417 0.19153179
0003f0 17 b1 11 3e be b1 ad bb 33 b8 ec 3d 32 f0 fc bd
       0.1422771 -0.0053007295 0.11558571 -0.12350501

layers.1.bias f4 [100]
000000 eb 0b 84 bc cb 63 6e bc eb 44 26 bc ec 46 98 bb
       -0.016118964 -0.01455016 -0.010148267 -0.0046471264
000010 8b 9c 5c bc 2a 30 26 3c 78 f9 01 bc e7 f5 ad 3b
       -0.013465057 0.010143319 -0.007933013 0.005308855
000020 53 47 7a bc 48 05 55 bc 9e ab ab 3c 22 b7 53 3c
       -0.015275794 -0.013001747 0.020955857 0.01292208
000030 9a 67 3c 3c 4c ea 4a bc ef 1e 84 3c b4 5b 95 bc
       0.01149931 -0.012384962 0.016128032 -0.018232204
000040 ad dd bc 3b d0 4b ed bb 1b fe 88 bc 4c d3 80 bc
       0.0057637305 -0.0072417036 -0.01672273 -0.015725754
000050 8a 85 c5 3c 70 63 26 3c da 6b 3a 3c 49 8a 0d 3c
       0.024111528 0.010155544 0.011378253 0.008638927
000060 21 38 73 3c 3d 01 1d bc 66 97 a5 bc b0 4b 28 bc
       0.014844925 -0.009582815 -0.020213794 -0.010271952
000070 6c c4 35 bc 3c 53 71 3c 66 7e 74 bc b1 3c 77 3c
       -0.011094194 0.014729317 -0.014922714 0.015090154
000080 d2 f0 6d 3c 22 9f 84 bc e8 99 62 bc c4 11 fe 3b
       0.014522748 -0.016189162 -0.013830639 0.0077535827
000090 2d f2 07 bd 2f e6 7f bc c9 7f 4c b9 cc 59 0c 3c
       -0.03318994 -0.015618845 -0.0001950256 0.008566331
0000a0 66 f5 55 3c f9 a1 46 bb e7 90 81 3c b7 d5 86 bc
       0.013058996 -0.0030308946 0.015816165 -0.016459329
0000b0 72 be 7d 3c 20 25 57 bc 73 21 6f bc 74 14 e8 3c
       0.0154873 -0.01313141 -0.014595377 0.028330065
0000c0 d6 7a eb bb b7 71 56 3c c1 a3 7f 3c db 93 06 bc
       -0.007186274 0.013088635 0.015603007 -0.008213962
0000d0 7a ae 2a bc 32 41 98 3b eb c2 94 bc d6 e0 68 bc
       -0.010417575 0.0046464438 -0.01815935 -0.014213761
0000e0 a2 aa 0e 3d 22 a3 41 bb 71 48 a5 bc bb bf 8b 3c
       0.034830697 -0.0029546698 -0.020176144 0.017059198
0000f0 08 84 b7 3c 98 96 e4 3c 90 4c ae bb 80 5e 60 3c
       0.022401825 0.02790384 -0.0053191856 0.013694406
000100 a5 97 07 3c ba 96 33 3c 4a d5 df bb bd 01 89 3c
       0.008275901 0.010961229 -0.006830846 0.016724462
000110 01 af 15 3d 6a 37 a3 3c f3 da 85 bc 5e a7 4d 3c
       0.03654385 0.019923884 -0.016339755 0.0125521105
000120 86 a3 68 bc bb 31 75 bc e4 4b 92 3c b3 2a d2 bc
       -0.014199143 -0.01496547 0.017858453 -0.025655126
000130 ff 13 76 bc 84 c1 4f bc 5c 88 23 3c 8b eb c1 bb
       -0.015019416 -0.012680415 0.009981241 -0.0059179715
000140 69 85 6f 3c 1a 5a f6 bc 7c 0e 8b 3c 0f 05 79 bc
       0.01461921 -0.03007226 0.01697468 -0.01519896
000150 cf dd 50 bc 02 a7 42 bc a7 6e 1d 3c 4b 64 d6 bb
       -0.012748196 -0.011880638 0.009608901 -0.0065427176
000160 7e 5c 66 bc fe ef 46 bb 7e 90 7f bc b1 ba 6e bc
       -0.014060138 -0.0030355449 -0.0155984145 -0.014570878
000170 4b bf 7a 3c 25 db b6 3c 60 b1 1f bc 94 63 7f 3c
       0.015304397 0.022321293 -0.009746879 0.015587706
000180 55 e3 3c bc 95 06 50 3c 1f 60 41 3c ea 2a 2f bc
       -0.01152881 0.012696882 0.011802702 -0.010691384

layers.2.weight f4 [100, 100]
000000 af 0f 96 3d 07 ca 39 3b f0 b7 31 3a ae b4 df 3d
       0.0732721 0.0028349177 0.0006779423 0.10923134
000010 ea 4f d9 3d 14 cc a5 38 39 5c 25 3c 3e 8d 7c bd
       0.106109455 7.9058256e-05 0.010092788 -0.061658137
000020 98 af af bd 0d fb 92 3d 9a db 87 bd 82 70 93 bc
       -0.08578414 0.071767904 -0.066336825 -0.017997984
000030 0f d9 5a bd e0 fd 2b be 39 ad 1d bd 99 be 35 3e
       -0.05342966 -0.16796064 -0.038495276 0.17748488
000040 dd bc dd bd eb 52 23 3e 61 aa ba 3a ca 60 78 bd
       -0.108270384 0.159496 0.0014241451 -0.06063918
000050 6e a8 18 be a2 85 af bd c6 cd 40 be 32 45 83 bb
       -0.14908001 -0.0857041 -0.18828496 -0.0040060515
000060 96 18 ea bd 58 4e 4c 3e 9d a7 99 3d e9 18 f9 3c
       -0.11430471 0.19951761 0.07502673 0.030407386
000070 69 3c 8b bc d7 de 73 bd e2 aa 9e 3d c2 0f 3a 3a
       -0.01699658 -0.05953869 0.07747437 0.0007097685
000080 e6 ba 02 3e 2d 6a ba 3d 08 45 a9 3c d7 c8 9d 3d
       0.12766609 0.09102283 0.0206628 0.07704323
000090 ea f4 bc bc 93 e5 2a 3e 21 92 cc 3d f6 cc 5e bd
       -0.023066003 0.16689138 0.099888094 -0.054394685
0000a0 20 eb c4 b9 52 50 b5 bb 37 5f 3f bd dd 08 8b be
       -0.00037559215 -0.0055332566 -0.046721663 -0.271552
0000b0 92 8a 11 bd ff b9 ac bc 12 76 5c 3e a3 f8 44 3d
       -0.03553254 -0.021084784 0.21529415 0.04808868
0000c0 c6 d2 86 3d 73 f2 24 3e 2c f6 97 3e b3 51 98 3e
       0.065831706 0.16108112 0.29680002 0.29749832
0000d0 b4 63 88 bd 0d fc d9 3d ef a0 e7 bd f5 ee 93 3d
       -0.06659642 0.10643778 -0.113099925 0.07223312
0000e0 ae 30 1b bd 06 fd eb bd 33 5c 66 be 6e dd 10 be
       -0.03788822 -0.1152287 -0.22496109 -0.14146969
0000f0 0c 8c b3 bb 5c ac fa bd 38 41 17 3d 98 b0 04 3d
       -0.0054793414 -0.12239906 0.03692743 0.032394975
000100 fa 8b dd 3c 98 a4 b6 3c f2 85 82 3c 15 40 8e bd
       0.027044285 0.022295281 0.01593301 -0.069458164
000110 5e d2 83 be 36 22 08 3e af 24 06 3e d8 be ce bd
       -0.25746435 0.132943 0.13099931 -0.10094994
000120 d4 98 d1 ba 08 4e 0c be 97 31 28 3e 4d 0c 90 3d
       -0.0015990981 -0.13701642 0.16425167 0.07033596
000130 5d f4 c7 3c b2 e3 07 bd 97 ce 09 3d d5 9c 59 3d
       0.024408514 -0.03317613 0.033644285 0.053128082
000140 7a 5f 84 3c cb 33 9d 3d 88 12 1c bd fa de d5 3b
       0.016158808 0.07675894 -0.03810361 0.006526825
000150 5b e6 91 3d 87 b4 8c bc 21 4c 87 3d 72 4b 07 be
       0.07124015 -0.017175926 0.06606317 -0.13212374
000160 16 75 7f bc 6b f0 db 3d cc 76 44 3d f2 66 ab 3b
       -0.01559188 0.107392155 0.047964856 0.005230778
000170 e7 d9 ee bc 4a 32 46 3d 9f e9 19 3d 06 2d 58 3d
       -0.029156638 0.048387803 0.037576314 0.052777313
000180 7a e6 f3 3d 1a 1e 03 bc 01 e2 ba 3d 03 23 34 bc
       0.11909194 -0.008002782 0.09125138 -0.010994676
000190 a1 56 15 bd 59 f8 bb 3c 41 6d 50 3e 34 71 b3 3c
       -0.03645957 0.02294557 0.20354177 0.021904565
0001a0 a4 63 a9 3d 29 15 55 3e 58 15 f9 ba 58 9a 6f 3d
       0.08270958 0.20808853 -0.0019003553 0.058496803
0001b0 93 e6 9d bd f2 e9 db 3d a5 70 89 bd ad 86 b4 bd
       -0.07709994 0.10737981 -0.06710938 -0.0881475
0001c0 18 0d 7e bd 0d 0e 00 bc d5 dc ab bc 68 52 a4 bd
       -0.062024206 -0.00781585 -0.020979324 -0.0802353
0001d0 f8 72 8f bd 18 55 b7 bd 1b e0 12 3e 70 b5 ac 3d
       -0.070043504 -0.08951777 0.14343302 0.08433044
0001e0 3e 0e 4a bc 4e 2c 54 3e 96 01 a2 bd 3c fa ff bd
       -0.012332497 0.20720026 -0.07910459 -0.124989
0001f0 01 4f 02 bc 88 78 69 bd 4d 61 8c 3d 9f ae 0e 3d
       -0.007953406 -0.056999713 0.06854496 0.0348345
000200 4d 35 b7 3c 6d b9 2a 3d 40 46 f9 3d 7e 8c d9 bd
       0.022364283 0.041680742 0.12171602 -0.106225
000210 d4 e9 d7 3d 56 07 4e b9 a2 2f 27 3e d5 77 c0 bd
       0.10542646 -0.00019648424 0.16326764 -0.09397856
000220 3b f1 9c bd 50 04 88 bd dd 56 7e 3d 29 a9 a8 bd
       -0.076631986 -0.066414475 0.062094558 -0.0823539
000230 23 9a d4 3c d6 30 af 3d 42 e1 4c bd c1 59 03 3d
       0.025952404 0.085542366 -0.05001951 0.032068018
000240 64 6d 7b bd 26 13 d1 bd 84 f9 c6 bc 58 4f 16 3e
       -0.06138362 -0.102087304 -0.0242889 0.14678705
000250 21 98 15 bd dc c9 8d bd 66 d4 99 bd b6 9c fd 3c
       -0.036522035 -0.06923267 -0.07511215 0.030958515
000260 2c 22 06 be d0 dd 84 bd 2d 18 64 bd 87 77 cd bd
       -0.13098973 -0.0648762 -0.05568712 -0.10032564
000270 44 59 50 bc e4 43 df 3b fe 08 31 be 63 1a de bd
       -0.012716595 0.006813513 -0.17288586 -0.108448766
000280 20 19 c7 3c 2d fe 1f bd dc 33 7b 3e ac f1 53 3d
       0.024303973 -0.03906076 0.24531502 0.051744148
000290 f2 84 b4 bd 8c 9b 0e bd 69 37 f6 3d 26 59 0e be
       -0.0881442 -0.03481631 0.120222874 -0.13901195
0002a0 28 3b 92 3d 8c 0e d3 3d eb 5a 4e bd da ec b0 3c
       0.071401894 0.10305509 -0.050379675 0.021597315
0002b0 6e 28 e6 3b 36 30 20 3d 64 2c db bd ab ff 63 bc
       0.0070238626 0.039108478 -0.10701826 -0.013915936
0002c0 36 01 4b bd 17 15 26 be 4f 28 47 3d b9 a0 c9 3a
       -0.0495617 -0.16218983 0.048622426 0.0015382982
0002d0 ec 15 9c 3d 71 b2 5b bb 2a 32 cb bd 86 51 07 bd
       0.07621369 -0.0033523107 -0.099216774 -0.03303673
0002e0 11 2b 49 bd ed 42 81 3d 46 3a b6 bc e8 9c 60 3d
       -0.049113337 0.06311593 -0.022244584 0.054837137
0002f0 bf e0 25 be 3d 71 af bd 7a bf 2f be 88 02 c5 3d
       -0.16199015 -0.0856652 -0.17162886 0.096196234
000300 a0 ba 72 3d 07 4c a3 3d 2d cb c6 bd 9a 92 8d 3d
       0.05926001 0.079734854 -0.097067215 0.06912728
000310 8c d9 c6 3c 37 d5 e4 3c 5b 1f 39 bd 36 a0 78 3d
       0.024273656 0.0279337 -0.04519592 0.060699664
000320 39 0d 1a be dc 9f 79 3e b4 50 38 bc 07 d4 13 bd
       -0.15044107 0.24377388 -0.01124971 -0.036090877
000330 21 9f 08 3e 11 49 ae bb be aa 30 bd 39 db 33 bd
       0.13341953 -0.005318769 -0.043131582 -0.04391024
000340 e2 37 ed 3d da b6 4d bd 3a e0 0f be a3 4b 90 bc
       0.115829244 -0.05022321 -0.1405038 -0.017614191
000350 e3 17 9b 3d ff e9 1c 3e 35 32 41 bc 2f 24 f7 bd
       0.075729154 0.15323637 -0.011791755 -0.12067448
000360 de 5c 9a 3d 90 76 14 bd 44 8a ad 3b 5b 03 c6 bc
       0.07537244 -0.036245883 0.0052960236 -0.024171522
000370 93 c1 33 bd c7 5e 2b bc a0 bf 94 bd b2 17 bc 3d
       -0.04388578 -0.010459608 -0.07263112 0.09184207
000380 5d 9d 2f be 45 04 4f 3e 35 94 cc bb 2e c6 df 3d
       -0.17149873 0.20216472 -0.0062432536 0.10926472
000390 61 c9 84 bc 03 07 79 3e 6d 3d b0 ba d2 94 80 bd
       -0.016209306 0.24319081 -0.0013446041 -0.06278385
0003a0 05 0e 1a 3a 53 8d 6d 3d 59 5e a8 bd 6c 12 05 3b
       0.0005876723 0.057996105 -0.082211204 0.002030517
0003b0 71 1b 72 bd b9 92 95 be a2 47 a1 bd 1d 94 25 3d
       -0.0591082 -0.29213503 -0.07874991 0.040424455
0003c0 1f 3d 0f bc 36 cd 28 3e 33 ee 2e 3d f4 5d 2f 3e
       -0.0087426 0.16484532 0.042707633 0.17125684
0003d0 cf ac 26 3c d6 b8 9e 3d 95 cf 92 bd a5 1a 14 3d
       0.010173037 0.077500984 -0.071684994 0.036158223
0003e0 78 df d5 3d f1 51 a7 3d 49 56 d0 bd 17 b7 da bd
       0.10443014 0.08169926 -0.101727076 -0.10679453
0003f0 5e c6 af bd 40 38 5b bd 5d f1 0e 3e 25 98 32 3e
       -0.085827574 -0.05352044 0.1395926 0.17440851

layers.2.bias f4 [100]
000000 3b cc 84 bc b7 d7 d4 bb 04 48 13 bc 9f 57 09 3c
       -0.016210666 -0.006495442 -0.008989338 0.008382707
000010 54 f1 3d 3c 9a be 23 bc d5 8b 4e bc a6 fb d7 bb
       0.011593182 -0.009994173 -0.012606581 -0.006591278
000020 47 df 9e 3c 3e 85 25 bc b5 08 84 3c 86 79 01 3c
       0.019393576 -0.010102568 0.016117433 0.007902509
000030 df eb 09 bc df 16 f2 3b 9e c7 7f 3c 9f f7 be 3c
       -0.008418052 0.0073879804 0.015611557 0.023311434
000040 18 4b 8c bb 60 8f 11 bc 2a f5 be bb 76 20 16 3c
       -0.004281413 -0.008884281 -0.0058275657 0.009163013
000050 b9 ff d5 bb d5 4b 60 bc de 56 34 bc eb b6 99 bc
       -0.0065307287 -0.013689955 -0.011007039 -0.01876398
000060 ef fd c9 bb 55 e8 9b 3c 31 36 74 3c 04 51 61 bc
       -0.0061643044 0.019031683 0.014905498 -0.013752226
000070 6d 1f 37 bc d0 da 5a bb 87 01 73 bb e2 c5 21 3b
       -0.011176926 -0.0033394583 -0.0037079768 0.0024684598
000080 7c 9a d3 3b 62 71 50 3c 72 46 18 bc db a8 0c 3c
       0.006457625 0.012722345 -0.009294139 0.00858518
000090 0f 76 4b 3c 87 63 16 bb 1e 9d 1b 3c 22 fe 2c bc
       0.012418284 -0.0022947507 0.009497909 -0.010558637
0000a0 1b c9 6d bc 53 07 fd 3b 62 2b ce 3c c8 10 2a bb
       -0.014513279 0.0077218204 0.02516717 -0.0025949944
0000b0 fb 51 0f 3c db 85 84 3c fd 6f 0a 3c dd 57 47 bc
       0.008747573 0.016177109 0.008449552 -0.012166944
0000c0 e2 b5 1d 3c 75 81 89 3c 8f 93 b6 bc be c7 28 3c
       0.009625884 0.016785363 -0.022287158 0.0103015285
0000d0 6b c4 25 3c bc 5e 3d bc 27 b6 18 bc 27 30 e3 bb
       0.0101176305 -0.011558231 -0.009320772 -0.0069332304
0000e0 12 8d c3 bb 80 b2 bf bb 88 66 b9 bb b4 b7 8b 3c
       -0.0059677446 -0.0058501363 -0.0056579746 0.01705537
0000f0 41 77 50 bc e1 e5 7c bc e7 af 35 3c 21 f5 2a 3c
       -0.012723745 -0.015435667 0.011089302 0.01043442
000100 51 60 32 3c c2 4e c3 bb fc ec a1 bb 04 d9 cf bb
       0.010887221 -0.0059603164 -0.004941581 -0.006343009
000110 f3 37 06 3d a3 24 38 3c 7e 04 ea bb ef 6e a6 3c
       0.0327682 0.011239204 -0.007141649 0.02031657
000120 bd 3c 8e bc 60 0a 82 bc ca 7f eb ba e5 6b 82 bc
       -0.017362947 -0.015874088 -0.0017967161 -0.015920589
000130 4a db ae 39 59 d8 cb 3b db a7 dc 3c 95 6a 82 3c
       0.0003335125 0.006220859 0.026935508 0.015919963
000140 46 3d 84 3c 20 f5 8d 3c b0 9f 78 3c 8b 82 00 bc
       0.016142499 0.017328799 0.015174791 -0.007843624
000150 d7 d6 2c 3c f2 b0 4f 3c 03 db 2d bc 05 e9 3c 3c
       0.010549269 0.012676464 -0.0106112985 0.011530166
000160 18 d2 a7 3b 12 17 80 3c 52 fe 26 3c dc 88 e2 bc
       0.0051214807 0.015636 0.010192471 -0.02765315
000170 c7 74 93 bc 0c 00 d3 bb 06 63 55 bc a8 bb 26 3c
       -0.01800002 -0.0064392146 -0.013024097 0.010176577
000180 05 7a 0f 3c 3c b0 d0 3a 74 1c 3c bc 01 ad db bb
       0.008757119 0.0015921663 -0.011481393 -0.0067039733
