main/continuous_time_inference (Schrodinger)/models_iters/Schrodinger_3400.pt (torch, 209038 bytes, 14 tensors)

linear_in.weight f4 [100, 2]
000000 7d a2 31 3e 13 e6 05 3e 87 43 50 bd 94 1d 81 be
       0.1734714 0.13076048 -0.05084565 -0.2521788
000010 f0 56 d8 3c 72 08 0a 3e 88 0a 80 3b a3 ef 80 3e
       0.026408643 0.13479784 0.0039075054 0.25182828
000020 4a 0b 1d 3e 74 41 c8 3c e4 cf c1 bd 82 e0 93 3e
       0.15336338 0.024445273 -0.0946348 0.28882223
000030 59 d2 b2 3d 0e 03 93 bc b2 da 9b be 55 16 ee bd
       0.08731527 -0.017945793 -0.3044029 -0.11625353
000040 42 af 84 bd 41 b8 53 3e df ad d0 bd b8 39 8b 3e
       -0.0647874 0.20675756 -0.10189413 0.27192473
000050 44 6a 09 be f3 f4 1f 3e 53 0f 27 bd 67 70 35 3e
       -0.13419443 0.15620784 -0.0407861 0.1771866
000060 d5 f1 2e be f4 16 c5 bc 6a e0 31 bc d5 b4 c3 be
       -0.17084439 -0.024058796 -0.010856727 -0.382239
000070 77 5d e5 3c a8 73 00 bd 4e c6 44 3e 2b 71 71 3e
       0.02799867 -0.0313603 0.19216272 0.23578326
000080 4c 82 6c 3e d4 44 d4 bd 66 21 89 3e 8b bd b3 bb
       0.2309658 -0.103646904 0.26783293 -0.0054852418
000090 a7 d7 9f bd 98 70 12 be 60 9c d4 3d cf 5e e0 bd
       -0.07804804 -0.14300764 0.10381389 -0.10955583
0000a0 1f 8a 88 be ed 37 42 be 1c 78 06 be 39 4e d8 3e
       -0.26667878 -0.18966646 -0.13131756 0.4224718
0000b0 ca f0 80 bd e1 bd 56 bd e7 f2 ea 3d e6 aa 33 bc
       -0.06295927 -0.052427176 0.11472111 -0.010966038
0000c0 04 44 c7 3d de 89 1c bd e3 aa 4c be 81 0d 48 be
       0.0972977 -0.038217418 -0.19987063 -0.19536401
0000d0 fc 6b 29 3e 6f a6 15 be d7 06 a2 3d e0 33 53 bd
       0.16545099 -0.1461427 0.07911461 -0.051563144
0000e0 26 99 55 3e 1b 55 fc 3d d8 6b 96 be da 25 d6 3d
       0.20859203 0.1232092 -0.29379153 0.10456438
0000f0 ec 73 fb 3d 41 04 50 3e f9 d5 37 3d 4e 3a ff bc
       0.1227797 0.20314123 0.044881795 -0.031155732
000100 32 04 0e 3d 50 98 07 3e 6d 45 8b 3d 28 b3 53 bd
       0.03467197 0.13241696 0.06800351 -0.05168453
000110 fe 20 91 3e fc 9a b8 be 43 cd f4 39 07 53 bc 3d
       0.28345484 -0.36055744 0.00046692239 0.09195524
000120 0a 0a 8e 3c f4 f6 97 3e 56 3b cb 3c 76 9e a8 3c
       0.017338771 0.29680598 0.024808567 0.020583373
000130 94 4a 3c bd 28 94 b8 be 2e 29 a8 bd 98 95 3d 3e
       -0.04596956 -0.36050534 -0.082109794 0.18514097
000140 94 7f 5a 3e d9 2b 3b be 95 ac 19 be cb 5b ef 3d
       0.2133773 -0.18278445 -0.15007241 0.1168743
000150 42 c9 e6 bd fb 7c 47 be 3d 15 82 be a2 9c a3 bc
       -0.11268856 -0.1948127 -0.2540683 -0.01997215
000160 24 5a f5 bd 19 a9 0f be 2b e8 10 be 31 72 31 be
       -0.119800836 -0.1402935 -0.14151065 -0.17328717
000170 a8 e0 31 3d 02 80 56 be e4 d0 42 3e 9e 80 d6 3d
       0.04342714 -0.20947269 0.19024998 0.104737505
000180 77 ef 26 be 15 c8 88 bd 65 39 be bd 65 14 73 be
       -0.16302286 -0.066787876 -0.09288291 -0.23738249
000190 91 0c 06 3e 3c 9b af bd 99 03 d7 bb c8 f2 ce 3d
       0.13090731 -0.085745305 -0.006561708 0.101049006
0001a0 f1 06 1a bd 63 8e 88 be d9 ee 1c 3e 14 52 12 be
       -0.037604276 -0.26671132 0.15325488 -0.14289123
0001b0 46 e6 94 3d cd 55 a5 be 0a f3 08 3d ce 9b 55 be
       0.07270484 -0.32292023 0.033434905 -0.20860216
0001c0 80 a3 c2 3e 0a 14 a9 be 20 c2 b9 bd d6 bc ab 3d
       0.38015366 -0.330231 -0.090702295 0.08385627
0001d0 f9 97 32 3c a4 8f 99 3e 79 3f 49 be 83 73 18 3e
       0.010900491 0.29992402 -0.19653119 0.14887814
0001e0 49 c6 7e 3d 94 4b 7b 3c d1 01 21 bd 19 92 1d 3e
       0.06220082 0.015337843 -0.039308373 0.15387763
0001f0 5c 24 17 be c2 a8 8d be 35 1b dc 3d 66 b6 e3 3c
       -0.14759964 -0.27667814 0.10747377 0.027796935
000200 a6 bf 9d 3c 02 7f 1c 3e f8 6e 27 be 42 71 65 bc
       0.019256424 0.15282825 -0.16350925 -0.014004054
000210 ff 2d de bd 0a 9f 6e 3e c8 c0 8b 3d 69 84 42 3d
       -0.10848617 0.23302856 0.068238795 0.047489557
000220 7b 8a 48 3e fc 2b 8e 3c 61 00 1e 3c a5 6d a9 3e
       0.19584076 0.017354958 0.009643645 0.33091465
000230 33 4b 77 3e c1 1d 1f bc 33 67 3b bd c7 c8 72 3d
       0.2414978 -0.009711684 -0.045752715 0.059273507
000240 42 10 fb bb 83 f0 b6 be 00 b0 8d bc f1 77 a9 3d
       -0.00766185 -0.3573037 -0.017295837 0.0827483
000250 b0 a2 81 be af b5 e2 bd 11 49 d8 3d 47 a5 ca 3c
       -0.25319433 -0.1106981 0.10560811 0.024737014
000260 30 bc 02 be 4a 93 d4 bd 88 ef 18 3e c1 35 4c 3e
       -0.127671 -0.10379656 0.14935124 0.1994238
000270 f6 f9 1a bd eb aa 60 3e 14 5f 8c be 71 6b 7e be
       -0.037836038 0.219402 -0.2741629 -0.24845673
000280 57 cf c8 3d ca f4 e4 bd 53 c2 99 3d 1d 1a ed 3d
       0.09805172 -0.11179502 0.075077675 0.11577246
000290 2b 50 d8 bb 9e 73 9d 3d 2a c5 95 3c 25 26 9b 3e
       -0.0066013536 0.07688068 0.018282492 0.3030254
0002a0 d4 9f 60 3d f8 92 99 3c 74 2e 06 3e 2d 5f 98 3e
       0.054839924 0.018746838 0.13103658 0.29760113
0002b0 86 1a 24 be 91 2d 9a 3e 78 70 59 3e d5 27 da bd
       -0.16025743 0.3011289 0.2123431 -0.106521286
0002c0 41 df e6 bd b5 e4 15 3e f7 7a 84 3d 0a 9c 59 be
       -0.11273051 0.14638026 0.06468766 -0.2125093
0002d0 1e 93 65 3d 1a 33 93 bd 82 9f 95 bc 5d 17 8d 3e
       0.056048505 -0.07187481 -0.018264536 0.27556887
0002e0 d5 7d 99 3e 16 92 a2 bd 3c 5a 9a bd bc c7 ba 3d
       0.29978815 -0.0793802 -0.07536742 0.091201276
0002f0 be 63 86 3c 6a f5 04 3e 62 4c aa bd 83 48 8d 3e
       0.016404983 0.12984243 -0.0831535 0.27594385
000300 66 4f 00 3e 11 a9 cc 3b 16 6c f6 bd ac 86 8d bc
       0.12530288 0.00624574 -0.120323345 -0.01727613
000310 3b e9 57 be 82 14 2a 3e 75 1c a3 bc 9c e4 e4 3d
       -0.21085064 0.16609386 -0.01991103 0.11176416

linear_in.bias f4 [100]
000000 8f 19 3c 3d 41 f1 0a 3d 9f 7b f3 bd 68 fa 7c 3d
       0.045922812 0.033921484 -0.11888813 0.061762244
000010 53 51 15 3d ad 9f 37 be ce f9 f5 3d 84 ca 37 bc
       0.03645451 -0.17932005 0.12010537 -0.011217717
000020 3d 54 17 3d 0c fa 0c be 8d bc 0f bb 88 98 11 3d
       0.03694557 -0.1376726 -0.0021932453 0.035545856
000030 c8 b4 8d 3d b3 67 e7 bc c9 60 ab 3d d0 fa 0e bc
       0.06919247 -0.02824769 0.0836807 -0.008726791
000040 5b d7 c8 3d 12 25 0e bd eb 57 6e 3d 5c c2 38 bd
       0.09806701 -0.03470332 0.058189314 -0.04510723
000050 35 31 46 bd 3f 42 a4 bb 64 59 04 3e d7 a6 9a 3d
       -0.04838677 -0.00501278 0.12924725 0.075513534
000060 ec 54 b7 3c 89 44 81 bd 9a 5b c6 3d 4c 31 85 bc
       0.022379361 -0.063119 0.0968544 -0.016258858
000070 54 9e d1 bb 89 16 08 bc 29 5d a0 3d bf ad 03 3c
       -0.006397048 -0.008306154 0.07830269 0.00803703
000080 2e 1c dd bd 9c 81 af 3d 33 d8 32 bd 94 fe 61 be
       -0.107963905 0.08569643 -0.043663215 -0.2206977
000090 62 75 a5 bd e6 12 13 be 3a 9b c9 ba 68 91 5c 3d
       -0.080790296 -0.14362678 -0.0015381344 0.053849608
0000a0 bb 14 a3 bc 66 ea e9 3c 1d 44 73 bd 72 27 a5 3d
       -0.019907346 0.028554153 -0.05939113 0.08064164
0000b0 dd e6 d7 bc 81 22 56 bd d4 3a bb 3d 29 91 57 bd
       -0.026355201 -0.052279 0.0914208 -0.05262867
0000c0 90 0d 9c 3d 19 12 df 3d a0 c7 23 bd 04 1a 0d bd
       0.07619774 0.10892124 -0.0399853 -0.03444864
0000d0 f2 67 ec 3b 79 91 81 3d 76 41 c5 3c 3f 57 95 3d
       0.0072145397 0.06326575 0.024079066 0.072920315
0000e0 eb c8 53 bd 3f b2 57 3d 40 14 9d be be df f8 bd
       -0.051705282 0.052660223 -0.30679512 -0.121520504
0000f0 53 71 0e bd fc c5 02 3e e5 cc ce 3c bf f9 19 3d
       -0.034776043 0.12770838 0.025244186 0.037591692
000100 2e 23 c7 bd 84 9d af bc 97 dd b7 bd 95 b8 bf bd
       -0.09723507 -0.021437414 -0.08977812 -0.09361378
000110 d3 c9 37 bd da a4 a3 3c 09 f7 93 3d d0 84 84 3d
       -0.04487021 0.019976068 0.072248526 0.064706445
000120 ab 40 b9 3d 48 b8 ae bd 05 d6 2c 3e c5 e5 88 3d
       0.090455376 -0.085312426 0.16878517 0.0668445
000130 b9 0c 70 3d fb 73 66 bd 35 2e c8 3c ff 90 52 3d
       0.058605883 -0.05626295 0.024436096 0.05140781
000140 8b d3 91 3d 5f 18 3e bd 6a b8 b8 3c fa ae 9a 3d
       0.07120427 -0.04640996 0.022548873 0.075529054
000150 87 77 bd 3d 81 c9 e3 3b 1b b4 20 bd cd 26 bd bd
       0.09251314 0.0069515114 -0.039234262 -0.09235916
000160 b8 f7 7b 3d 11 e3 8c 3d 39 f5 ae 3d ef 10 ba bd
       0.06151554 0.06879247 0.08542866 -0.09085261
000170 69 52 8f 3d b5 23 23 3d 63 06 03 3e 07 92 cb bb
       0.0699814 0.039828975 0.12795405 -0.006212476
000180 84 21 bd 3c 38 d8 5a bd cc af a0 bd cb b0 3d bd
       0.02308727 -0.05342886 -0.078460306 -0.04631118

linear_out.weight f4 [2, 100]
000000 c6 3e 28 3e 69 57 99 3e 19 70 ab 3e f6 c7 cd 3d
       0.16430196 0.299495 0.3348396 0.10047905
000010 90 d5 06 bd 20 cc f2 3d af c9 93 bd 6b 59 71 be
       -0.032918513 0.1185534 -0.072162025 -0.23569266
000020 63 50 38 be 45 4b 63 3e ab f0 cc 3e ea 88 4e bd
       -0.17999415 0.22196682 0.40027365 -0.05042354
000030 74 1f 0e 3e a8 e1 90 3e 61 fb e1 bd 8d 71 06 3d
       0.13879186 0.28297162 -0.11034275 0.032823134
000040 bb 61 a7 3d f2 02 94 3d ae b2 05 be a1 06 c7 bd
       0.081729375 0.07227124 -0.13056442 -0.09718061
000050 b7 4a 35 bd df 3a 87 3d ef b7 05 be 2c d9 2b bd
       -0.044260707 0.06603026 -0.13058446 -0.041955158
000060 05 6b 82 bd b8 33 f9 3c 47 d9 2c bd 0b c1 74 bd
       -0.063680686 0.03042017 -0.0421994 -0.059754413
000070 76 b8 85 3d 9e ef 0c 3e 7e 87 c9 3d aa 16 c5 3b
       0.06529324 0.13763282 0.09840296 0.0060146647
000080 79 70 83 3c f6 a2 e8 3d 4f 63 03 be c9 5b d0 3d
       0.016044842 0.11359207 -0.12830852 0.10173757
000090 ac db d1 bc c7 8e b6 bd 2c aa 96 bd a5 41 00 be
       -0.025617443 -0.08913951 -0.073566765 -0.12525041
0000a0 5d 3f 2a 3e 2d 5e c3 bd 8d 0a 35 be 56 52 27 be
       0.16625734 -0.09539447 -0.17679806 -0.16340002
0000b0 99 ba 06 bd e7 c3 3f bd a8 de d0 bd 50 e9 15 3e
       -0.032892797 -0.046817686 -0.10198718 0.14639783
0000c0 86 b2 cd bd f6 3b dc bc 68 6b 85 be e8 4d 90 bc
       -0.10043816 -0.02688406 -0.26058507 -0.017615274
0000d0 93 cc 16 3e bb 94 9e be 6b a1 e7 bc d9 da 99 bd
       0.14726476 -0.30972847 -0.028275212 -0.07512445
0000e0 ae c7 01 3e 63 d5 fd bd c9 4f 26 be 35 06 5b 3e
       0.12673828 -0.12394216 -0.16241373 0.21389087
0000f0 b8 3d 97 bd cd ab c3 bb 6b b6 26 bd 6f 3e 2a 3d
       -0.07384819 -0.005971408 -0.04070131 0.041563448
000100 af 59 03 3d 02 9d cf bd bc 4b 88 bd 56 4d a0 3d
       0.03206795 -0.10137369 -0.0665507 0.07827251
000110 87 3f ba 3d ca a2 02 3e 4a d6 4e bd ff 2f 5c 3d
       0.09094148 0.12757412 -0.05049733 0.05375671
000120 2c 0b ae 3d ff 3f a4 bd 8b 58 26 bd 0c d2 6c 3e
       0.084982246 -0.08020019 -0.040611785 0.23127002
000130 90 63 e7 bd 09 35 58 be 4b f3 af 3d c3 26 ce bb
       -0.11298287 -0.21113981 0.08591326 -0.006291242
000140 bf 04 e1 3d 69 19 26 be ad 64 25 3c ee ad b5 3e
       0.10987233 -0.1622063 0.010094804 0.3548426
000150 33 d0 9c 3e 12 8b 95 bd 17 3a 69 be aa ed 9e 3d
       0.30627593 -0.07301916 -0.22776066 0.077601746
000160 2a e2 7f bd ad a8 97 be d6 f5 64 bd 33 8e 2a be
       -0.062471546 -0.29620877 -0.05589851 -0.16655807
000170 e6 4f 16 3e 78 91 42 be d3 73 09 be 28 6b 9d bd
       0.14678916 -0.19000804 -0.1342309 -0.07686454
000180 0a 96 28 be 1e 60 12 3e 3a 1e 1a bd 1f 00 4f be
       -0.16463485 0.14294478 -0.037626483 -0.2021489
000190 d7 1c 51 3e 6a b9 7b bd 9e 1c 08 3e dc 00 3f bd
       0.20421158 -0.06145612 0.13292167 -0.04663168
0001a0 2b 73 8e bc b5 90 71 bc f5 93 95 be a9 73 fc bd
       -0.0173889 -0.0147439735 -0.29214445 -0.12326748
0001b0 6f 82 de 3a 92 d3 00 3e 58 1c 6b be ee f2 e0 3d
       0.0016976128 0.12580708 -0.22960031 0.10983835
0001c0 79 6e 7c 3e 7e 01 5b be 19 12 8d 3d aa fc 89 bc
       0.24651517 -0.21387288 0.068882175 -0.016844112
0001d0 ad 80 8b 3e 06 02 a9 bb 46 14 1c bd 4e 6a 00 3d
       0.2724661 -0.005157712 -0.03810527 0.03135138
0001e0 cf 15 01 3e 4a a3 7e bd 12 66 f0 3d a1 ce ec 3c
       0.12605976 -0.062167443 0.11738218 0.028907122
0001f0 db a9 13 bd 1b 36 61 bc 93 f8 18 be f0 20 0b 3e
       -0.03605066 -0.01374581 -0.14938574 0.13586783
000200 c4 2e 3f be 73 79 2e 3d cb 28 2b 3e 3e 75 02 be
       -0.18670183 0.04259629 0.1671478 -0.12740037
000210 83 d3 a1 bd 84 33 38 be 2d 8e b8 bc 4d 88 c6 3d
       -0.07901671 -0.17988402 -0.022528732 0.09693966
000220 d2 c4 00 3e 33 97 b8 3e a2 6f 42 3d 63 a2 2d bd
       0.12575081 0.36052856 0.047469743 -0.042391192
000230 cb 5c 5c 3e 87 82 dc bd dc 52 80 3c 61 69 79 bd
       0.21519773 -0.107670836 0.01566451 -0.060891513
000240 79 9c 18 be 68 8e ed 3c 38 88 28 bb b7 ec 90 3d
       -0.1490344 0.028998569 -0.0025715958 0.070764
000250 db ba 31 3e 1b 14 e3 bc 76 5b a5 3e df cd 3a be
       0.17356436 -0.027719548 0.32296342 -0.18242596
000260 07 28 0c bc 23 55 52 3e ea c2 5d bd cb 67 1a 3e
       -0.008554465 0.2054029 -0.054140963 0.15078656
000270 7a d9 84 bd 02 c0 05 be 98 12 e6 3d 8c a9 51 be
       -0.06486793 -0.13061526 0.11234015 -0.20474833
000280 e1 45 06 3e 9d 99 8d bb 3a 83 6d bc 6b 88 82 bd
       0.13112594 -0.0043212906 -0.014496619 -0.06373676
000290 21 01 41 be 48 65 a1 3a 3b 6d 08 3e 4a df 8a bd
       -0.18848087 0.0012313509 0.13322918 -0.0678087
0002a0 c2 a9 b3 bd bc c7 09 bd ea 4f c7 bc 36 e0 07 3d
       -0.08772613 -0.033637747 -0.024330098 0.03317281
0002b0 7c 10 8f bc ba ce b2 3d d2 1e b6 be 9b c9 82 be
       -0.017463915 0.08730836 -0.3557039 -0.25544438
0002c0 3b 78 c1 3d 76 7c 5e be 34 e4 3d be 33 75 75 be
       0.0944676 -0.21727166 -0.18544084 -0.23970489
0002d0 20 be 97 bd 88 a0 60 3d 95 67 c8 bc 8d 20 bf bd
       -0.0740931 0.054840595 -0.024463454 -0.093323804
0002e0 9f 2c 8d be 05 8b 2e 3e 0b a3 5c be 9b af 62 be
       -0.27573106 0.17045219 -0.21546571 -0.221373
0002f0 7d 0b 09 3e 70 eb f0 bc 7e 31 a8 bc 89 16 e4 3d
       0.13383289 -0.02940914 -0.020531412 0.11137111
000300 50 64 11 3e f8 12 b3 be b8 d8 6e bd 0b 2a a9 bd
       0.14198422 -0.3497541 -0.058312148 -0.08259972
000310 bf 08 5b bc 85 dc 39 3e 4b bf 9c be b3 62 18 be
       -0.013368784 0.18150528 -0.30614695 -0.14881401

linear_out.bias f4 [2]
000000 0d 52 2d 3c 37 b4 03 bc
       0.010578644 -0.008038572

layers.0.weight f4 [100, 100]
000000 47 67 15 bd 68 90 ab bd 3e 70 88 3d 99 f7 03 3d
       -0.036475446 -0.08377153 0.066620335 0.03221855
000010 06 5f 78 3d fe b2 9c 3d f7 62 31 3e 68 7d be bd
       0.060637496 0.076513276 0.17322908 -0.09301263
000020 52 d4 c3 3d 54 30 c0 bd 81 33 cd bd 27 8c 2c be
       0.09561981 -0.09384218 -0.10019589 -0.16850339
000030 ef 7e df 3d 61 be ab bd fd 1b 51 3e 5e ac 42 3e
       0.109128825 -0.08385921 0.20420833 0.19011065
000040 fb 33 13 3e b2 23 e1 3c dd 5d 0b 3e 88 cc 11 3e
       0.14375298 0.027482841 0.13610025 0.14238179
000050 ed 20 6b be 22 97 bc bd df e4 ad 3d 46 fc 0f bb
       -0.22961779 -0.09208514 0.08490919 -0.0021970435
000060 88 e8 af 3d 7b 1c bd bd 09 93 37 bd 13 54 1c 3d
       0.08589274 -0.09233948 -0.044817958 0.038166117
000070 ff e4 fc bd 0d 97 78 3d 20 4c 48 be 9e 02 be bd
       -0.12348365 0.06069093 -0.1956029 -0.09277843
000080 e0 b1 49 be f7 ae 08 3e 04 80 84 3e 7a 11 a0 bd
       -0.1969676 0.13347994 0.25878918 -0.078158334
000090 4d 86 74 3d 87 89 e5 bd 62 79 0a 3e a8 8f f2 3c
       0.05969839 -0.11207872 0.13522866 0.029609516
0000a0 d9 dc 12 3d 13 f5 3a 3e db 0e 0b 3c ae 5c 6e bc
       0.035855148 0.18257551 0.008487429 -0.014548464
0000b0 80 ad 2b 3e 63 74 52 3d 6e f6 42 be be 4c 27 3c
       0.16765404 0.051380526 -0.19039318 0.010211168
0000c0 5d b6 ff 3c df 3b 08 3e 50 a8 a5 bc f5 66 b3 3d
       0.031214887 0.13304089 -0.02022186 0.08759872
0000d0 36 57 af bd 03 78 cc 3d 88 89 b1 3d ce bc 01 be
       -0.08561556 0.09983828 0.0866881 -0.1266968
0000e0 58 be 3c 3e 58 dd 15 be 64 30 3e be c8 b0 c1 bd
       0.18431985 -0.14635217 -0.18573147 -0.094575465
0000f0 a9 dd 30 bb a3 ae 92 bd 96 d4 75 3d cf c8 c9 3d
       -0.0026987588 -0.071622156 0.06001719 0.09852754
000100 8e cb 42 3d f9 d4 bd bd e1 ff 0c bd bf 5a 7e be
       0.047557406 -0.09269137 -0.034423713 -0.24839304
000110 bc ac d4 bc 89 83 1e be 4e 9f 0a 3e 49 b6 8f bd
       -0.025961272 -0.15479864 0.13537332 -0.0701719
000120 ea c4 b4 3d f1 23 23 bd 67 7c 89 bd f1 5f 92 3c
       0.08826621 -0.0398292 -0.06713181 0.017868014
000130 06 88 e4 3d 56 80 01 bd 33 a9 5c 3d d3 6d 26 be
       0.11158757 -0.03161653 0.0538723 -0.16252832
000140 48 f1 a2 bd 94 09 09 3d 2f a4 5b bc d8 40 42 3d
       -0.07956177 0.0334564 -0.013405844 0.04742512
000150 44 c6 c3 bd 1e 96 62 bd ac 88 43 bd c6 54 89 bd
       -0.095593005 -0.055318944 -0.047737762 -0.067056224
000160 c1 82 1b 3d 14 b1 30 3c 0f ed 66 3e c6 5b 59 bd
       0.037966494 0.010784406 0.22551368 -0.053066038
000170 ca 02 b9 bd 1b a0 14 bd bf ab b6 3c 6e 44 03 be
       -0.09033735 -0.0362855 0.022298692 -0.12819073
000180 6f ac b0 3d 80 10 ff bd fb 3b 12 be 17 e2 58 bc
       0.08626639 -0.12454319 -0.14280693 -0.013237498
000190 ee 0c 82 bd b8 97 00 3e 38 ff a3 bd 71 be d9 3c
       -0.063501224 0.12557876 -0.080076635 0.026580067
0001a0 78 80 ba 3d b6 29 0f bc 5e 01 20 3e f2 4c b1 3d
       0.09106535 -0.008737972 0.15625522 0.08657254
0001b0 17 50 22 bd f6 2d 2c 3d 27 b8 bf 3c b5 5e a4 3d
       -0.03962716 0.04203602 0.02340324 0.080258764
0001c0 52 81 99 3e 16 d0 18 bd 6b 6d 25 be 0c 57 4f 3d
       0.29981476 -0.03730782 -0.16155021 0.050620124
0001d0 04 82 45 be 6d 3a 1b be 59 d3 eb 3d eb 70 d8 bc
       -0.19287878 -0.15159006 0.11514921 -0.026421031
0001e0 eb e1 81 3e 06 9a 20 3e 57 92 e9 3d 53 eb 06 be
       0.25367674 0.15683755 0.11404865 -0.13175707
0001f0 1e 35 f3 3d eb 97 8c 3d 68 55 7f bd b4 88 6a be
       0.11875366 0.068649136 -0.06233731 -0.2290371
000200 eb 60 7a bc 2c e7 44 3e a9 da b8 bd 13 20 94 bd
       -0.015281896 0.1922881 -0.09026081 -0.0723268
000210 5b 24 28 be 42 69 2f be 0b 7c 05 be d4 ec 28 bc
       -0.16420119 -0.17129996 -0.130356 -0.0103103705
000220 b4 65 15 bd 03 eb 3b 3c fe 39 1f 3e 1a aa 40 bd
       -0.036473945 0.011469605 0.15549466 -0.04703722
000230 17 bb be bb 0a aa 1a 3e 5d 88 d4 3c 34 89 c7 3d
       -0.0058206427 0.15103927 0.02594393 0.09742966
000240 b9 22 aa bd 65 78 07 3e ae d4 1f be f4 f3 7a bd
       -0.08307404 0.1322952 -0.15608475 -0.061267808
000250 e3 1f 1e 3e 75 5c b3 bd 88 b5 47 bd bc a4 f1 bc
       0.15441851 -0.08757869 -0.048757106 -0.029497497
000260 c0 33 5c bd 7d d2 e3 bd 6f 6c 37 3d 5f 33 82 bd
       -0.05376029 -0.11124132 0.044781145 -0.063574545
000270 1a 94 10 be 7d 18 60 3e d2 bb 23 be 05 93 bc bc
       -0.14118996 0.21884342 -0.15989617 -0.023019323
000280 85 17 17 be c1 b9 af 3d 36 2c c1 3d 92 9c 74 be
       -0.14755066 0.085803516 0.09432261 -0.23887852
000290 be 77 c6 3c fc 7f 09 be 5f ab cc 3c ce c0 cf bd
       0.02422702 -0.13427728 0.02498406 -0.101441965
0002a0 0a 71 5c bc f8 e6 99 39 ab b3 22 be 34 6c 3b 3e
       -0.013454685 0.0002935452 -0.1588885 0.18302995
0002b0 67 65 26 3e 81 04 03 3e 40 cd ed 3d ef 89 75 bd
       0.1624962 0.12794687 0.11611414 -0.059945997
0002c0 0d 8e c4 3d 41 bd ac bc b5 00 2a 3e e5 f2 63 bd
       0.095974065 -0.021086337 0.16601832 -0.055651564
0002d0 be e7 85 be c8 7e 66 3d f5 95 00 3e 6a 67 64 bd
       -0.26153368 0.05627325 0.12557204 -0.055762686
0002e0 ba 77 60 be 2f 8b c6 bd 0c 5b 87 bb 6d fd da bd
       -0.21920672 -0.09694516 -0.0041307267 -0.106928684
0002f0 91 ab 2a 3d 9e 17 c3 bd c2 ba bf 3c 2f 1e 00 3d
       0.041667525 -0.09525989 0.023404483 0.031278785
000300 7b 99 2d bc ae 53 91 bb 89 2b 6e be 1e cf 1a be
       -0.010595675 -0.004435024 -0.23258795 -0.15118071
000310 1e a8 8e be c6 6b 61 3e 57 b8 c5 3d a3 0f 2b 3e
       -0.27862638 0.22013769 0.09654301 0.16705184
000320 0a 81 02 be 42 09 ec bc c3 e3 88 3d db 6b 05 bc
       -0.12744537 -0.028813008 0.06684067 -0.0081433905
000330 40 c7 57 bd 31 ac 95 3d c3 d1 1f be 90 6e 87 bd
       -0.052680254 0.073082335 -0.15607361 -0.06612885
000340 34 0f a6 bd 20 ad 0b 3e a4 52 a7 bd 17 82 f7 3c
       -0.081083685 0.1364026 -0.08170059 0.030213399
000350 84 2c b8 3a 9b bf 2f 3d ec 4e 18 bd cc f0 f9 3c
       0.0014051353 0.04290734 -0.03718464 0.030510329
000360 3b e4 df bd 18 14 e6 bb e2 3a 78 3d d9 91 05 bd
       -0.109322034 -0.0070214383 0.06060303 -0.032609794
000370 73 86 e8 bc 7c 54 0b bd c0 99 90 bd 12 b0 d7 bc
       -0.028384423 -0.034016117 -0.070605755 -0.026329074
000380 9d 60 9e 3d 41 78 92 bd 0a de 13 be ca 5d 18 bd
       0.07733271 -0.07151843 -0.1444017 -0.03719882
000390 57 d4 d3 3c 25 10 54 3d 98 26 82 3d 6e f9 9c 3d
       0.025858087 0.05177321 0.063550174 0.076647624
0003a0 ca 11 52 3e 91 f1 c2 3c 89 f3 3c 3b 89 48 65 3e
       0.20514598 0.023796828 0.0028831682 0.22390951
0003b0 4c 49 8e 3d d6 32 80 3d e2 c8 1a 3e 29 6d 1f bc
       0.06947574 0.06259696 0.15115693 -0.009730616
0003c0 e1 03 f4 3d d3 3b c6 3c 56 c6 7d be c6 9b e1 3d
       0.11914802 0.024198448 -0.2478269 0.110160396
0003d0 72 76 52 3d 5b af d1 bd dd 31 22 bd 01 c5 b2 3d
       0.05138249 -0.102385245 -0.039598335 0.08728982
0003e0 c1 81 92 bd 84 fe 68 3d b8 ab d5 bd 41 71 08 be
       -0.07153655 0.05688335 -0.104331434 -0.13324453
0003f0 ff ac cd 3d 85 bc 29 bd 39 81 49 bd ae 02 24 bc
       0.10042762 -0.04143955 -0.049195502 -0.0100104045

layers.0.bias f4 [100]
000000 26 40 e0 3d bf 7f a1 3c ce dd 86 bd dc 00 5f be
       0.10949735 0.019714234 -0.06585275 -0.21777672
000010 08 e1 ad bd 7f 20 e5 3d f5 84 95 bd 87 7f 31 bd
       -0.08490187 0.11187839 -0.0730075 -0.04333451
000020 ec 0c ae 3c cf 9c f6 3d 66 ff 79 bd 22 48 8b 3c
       0.021246396 0.120416276 -0.061034583 0.017002169
000030 b9 42 3a 3d 72 eb d6 3d c5 30 ef bd ca 2d 98 bd
       0.045473788 0.104941264 -0.11679224 -0.074306086
000040 f5 c3 eb 3c 22 0f 74 bb 29 71 6c bd 73 30 05 3d
       0.028779963 -0.0037240465 -0.057725105 0.032516908
000050 75 ff ab bd 9f 69 66 bb 8a bb 1b 3d 57 58 e5 bd
       -0.08398334 -0.003515817 0.038020648 -0.1119849
000060 61 84 38 bc 4b 65 8a 3d d9 67 09 be f6 4a a0 bc
       -0.01126203 0.06757601 -0.13418521 -0.019566994
000070 f8 5a 24 bd f7 f9 52 bd 14 d3 82 bd ea 64 6d 3d
       -0.040125817 -0.051507916 -0.06387916 0.057957567
000080 fe 01 bb bc 6c b7 d0 bd ee c8 4f 3d d4 2b 45 3d
       -0.022828098 -0.10191235 0.05072873 0.0481375
000090 ef 9b ae 3d db c0 37 bd 28 bc 60 3d f6 39 0a be
       0.08525836 -0.044861656 0.05486694 -0.13498673
0000a0 67 a7 b3 bb 97 8f c7 3c 66 7f 83 bd dd 2d 46 bd
       -0.0054826024 0.024360461 -0.06420784 -0.048383582
0000b0 ff 60 a2 bc 6f 71 cf bd d2 2e c3 3d 06 29 73 bd
       -0.019821642 -0.101290576 0.09530415 -0.059365295
0000c0 84 5b ad 3d 23 6d 12 3d d7 84 7b bd 0e 88 90 bc
       0.08464721 0.035748612 -0.061405983 -0.017643
0000d0 4a 0b bf 3c b6 06 d4 bd 23 21 8c 3d f4 30 05 3c
       0.023320813 -0.103528425 0.06842258 0.008129347
0000e0 0e b3 fa 3b 19 e0 42 bd 66 63 3d 3c 4b 7e cb ba
       0.0076507395 -0.047576997 0.011559343 -0.0015525309
0000f0 cf 30 be bc 04 b3 66 bd 9f 51 9a bd aa f1 00 be
       -0.023216633 -0.056323066 -0.07535099 -0.12592188
000100 f3 dd 37 3d 28 67 da bd 50 17 9c bc 08 b3 16 3d
       0.0448894 -0.10664207 -0.019054085 0.03679183
000110 a6 5c ee bc 7e 7d 2c bc c3 a5 b7 3c a0 7c 03 be
       -0.029096913 -0.010527967 0.022417909 -0.1284051
000120 13 16 cb 3d 50 51 d7 bb fc df 85 bd aa e5 d0 3d
       0.0991632 -0.0065709725 -0.06536862 0.10200055
000130 4b 75 08 3e 81 e7 2b 3d 72 58 da bc 3a e9 1c bc
       0.13325994 0.041968826 -0.026653502 -0.00957709
000140 50 c2 72 bd 8f 94 96 3d 71 3b 8c 3d 02 5c 0c bd
       -0.059267342 0.07352554 0.06847275 -0.034267433
000150 fc f2 3a bd ee 91 97 3d 10 27 40 bd 90 f7 71 3d
       -0.045641884 0.07400881 -0.046912253 0.059073985
000160 76 92 8b bd 67 d1 61 bd 06 89 2a 3e 86 0c 6f 3d
       -0.068150446 -0.055131342 0.16653833 0.058361553
000170 ed f4 1c 3d e3 fe 97 3c 05 ec b2 3d a8 7d 82 bc
       0.038319517 0.018554157 0.087364234 -0.015929058
000180 9b f2 47 3d 92 b6 ae 3a 4d 3b 38 bd d1 47 91 bd
       0.04881535 0.0013329557 -0.04497843 -0.07093776

layers.1.weight f4 [100, 100]
000000 55 62 be 3d 2a c8 18 be 0e e8 d9 3d ce e8 c9 3d
       0.09296099 -0.14920107 0.10639964 0.09858857
000010 1b 13 09 3e 99 db 5e bd 6c cd 30 3d bd 7f 41 bd
       0.13386194 -0.054408643 0.043164656 -0.04724096
000020 5b 6c 1b be 97 cb c2 3d f1 b8 a0 bd 88 5c 39 3e
       -0.15178053 0.09511488 -0.07847775 0.18101704
000030 78 d5 5f 3e ab 5b ad 3d 29 4e 6b 3d 34 3c 9c bb
       0.21858776 0.0846475 0.057447586 -0.004767919
000040 2f 6d 15 be 3a ab d2 bd 9d 8c cb bd 84 b4 48 3e
       -0.14592431 -0.10286565 -0.09938929 0.19600111
000050 bf 35 ea 3a 65 5f 05 be e6 60 56 3e 00 c0 24 be
       0.0017868801 -0.13024671 0.20935401 -0.16088867
000060 a2 93 0b 3d a1 cb 18 3c 48 30 a9 3c 0e bf 49 3e
       0.03407634 0.009325893 0.020652905 0.19701788
000070 f5 8b c3 3d 3b ed 8e bd 01 8c 66 be 2f 50 2c be
       0.09548179 -0.06978842 -0.22514345 -0.16827463
000080 50 c2 a9 bd 42 92 73 3d 39 f0 3b be 83 96 82 3e
       -0.08289015 0.059465654 -0.18353356 0.25505456
000090 f7 5b e7 3d 12 b4 8f bd 78 b3 cb 3c aa 88 3d 3c
       0.11296838 -0.070167676 0.02486585 0.011568228
0000a0 67 f2 fc bd 54 b3 a4 bc 28 94 00 3e 7c 4b 20 3e
       -0.12350922 -0.020105042 0.12556517 0.15653795
0000b0 73 59 72 be d0 66 01 3e 12 18 3b 3e 40 00 35 3d
       -0.23666935 0.12636876 0.18270901 0.04418969
0000c0 e8 b9 34 3e 9a dd 56 bb c2 a9 58 3e 2e 62 ab 3d
       0.17649043 -0.0032785893 0.21158507 0.08368336
0000d0 7e 1e 93 3d 5d 82 13 3e 20 8f 39 3d b9 e5 19 3e
       0.0718355 0.14405198 0.04530251 0.15029038
0000e0 49 dd b3 bd 89 c5 e6 bd 8a 08 11 bc a8 51 99 3d
       -0.08782441 -0.112681456 -0.0088521335 0.07486278
0000f0 e3 1d 93 bc bc b6 94 3d dc 02 ad bc 52 14 c9 bd
       -0.017958587 0.07261416 -0.021119528 -0.09818329
000100 57 c9 31 3c 0c 6b d2 3d bb 0d 15 3d 30 65 e2 bb
       0.010851226 0.10274324 0.036390048 -0.006909035
000110 2e 1e 14 3d fb 86 92 bd 94 d6 04 3d 3f d0 a5 bd
       0.036161594 -0.07154652 0.0324312 -0.080963604
000120 87 be f4 bd ac c2 69 be 83 e1 78 bc 3a c2 1e 3b
       -0.11950403 -0.22828168 -0.015190485 0.0024224655
000130 0a a8 12 bd c5 4a 66 be 96 1b 8f bd 90 c7 0f 3e
       -0.035804786 -0.2248946 -0.069876835 0.14040971
000140 a5 ea 34 3e dc 1a 67 3d 57 28 e2 bd 0c 2b 89 3d
       0.17667635 0.0564221 -0.110428505 0.06697664
000150 33 85 02 3e 8c 14 26 3e 4f 98 f4 3d 59 af d6 3c
       0.12746124 0.16218776 0.11943113 0.02620666
000160 d5 c7 c6 3d a7 ec 9a 3c 37 1d 8c be 3c 52 b2 bb
       0.09706084 0.018911673 -0.2736604 -0.005441932
000170 a6 ec 3b bc 66 ba a2 bd 17 22 f3 bd c8 20 41 bd
       -0.011469996 -0.07945709 -0.118717365 -0.047150403
000180 ad 11 c1 3c 24 dd ae 3d 05 8c 42 bc 80 52 c9 3d
       0.023567999 0.08538273 -0.011874204 0.09830189
000190 3c 01 c3 bc 12 4c 11 3e 69 92 78 bd f9 31 a8 bd
       -0.0238043 0.14189175 -0.060686503 -0.082126565
0001a0 be f8 13 bd 25 5b 4e bd ae f6 19 be 4a 4b 40 3d
       -0.03612589 -0.05037989 -0.15035507 0.0469468
0001b0 d8 36 1e 3e 03 98 e1 3d f9 69 7b 3e 28 07 aa bc
       0.15450609 0.11015322 0.24552144 -0.020755365
0001c0 75 82 69 3d 06 68 96 bd d6 d9 3a 3d 30 8b 4a bd
       0.05700918 -0.0734406 0.0456179 -0.049449146
0001d0 f7 45 e8 3d 8f fd c6 bd ed b8 24 3d 47 a7 9c 3d
       0.1134147 -0.09716331 0.04021542 0.07649093
0001e0 d1 84 20 3e 41 3c 2a 3b c7 b4 b6 3c 79 63 2c 3b
       0.15675665 0.0025975856 0.022302998 0.0026304408
0001f0 94 ec 3d 3e d4 9c 86 3d 19 61 c8 3d 24 81 14 be
       0.18547279 0.06572881 0.09784145 -0.14502388
000200 65 a1 d6 bd 17 cf a7 bd 35 e3 98 3e 1a 54 36 bd
       -0.10480002 -0.08193796 0.29860845 -0.0445138
000210 21 18 f3 bc 27 f5 84 bd 2d c0 02 bd a3 3e cf bd
       -0.029674591 -0.064920716 -0.031921554 -0.10119369
000220 b5 12 e1 3d 71 4b b6 bd 25 3c e6 bc a4 73 75 bd
       0.10989896 -0.08901108 -0.028104851 -0.059924737
000230 c4 c7 00 3e 19 83 80 bd 68 16 dc bd 52 25 9a 3d
       0.12576205 -0.06275005 -0.10746461 0.075266495
000240 c6 03 6d 3d e2 b6 49 3d 97 19 34 3d c7 51 94 3d
       0.057864927 0.049246676 0.043969717 0.0724216
000250 bc a8 de bd a1 3f 5e 3c cc 5f 00 bc 3d e5 1f be
       -0.10872027 0.013564975 -0.00783534 -0.15614791
000260 8a 04 7e 3d 2f 8c c3 bc 2b a3 0b be b5 7a 58 bc
       0.062016048 -0.023870556 -0.13636462 -0.013212849
000270 a3 e0 dc 3d 90 7d 16 bd bd 70 06 be ef 84 21 3d
       0.107850336 -0.03674084 -0.13128944 0.039433416
000280 4f 16 74 3d e3 04 10 3c ff 87 75 3c ce 7f 10 bd
       0.059591588 0.008790228 0.014986037 -0.035278134
000290 ae 71 8c be 5d 79 ed bc 90 ca 40 3e bf 7b 9f 3c
       -0.2743048 -0.028988535 0.18827271 0.019468186
0002a0 b6 ba 1d be fd 6f 58 3d 69 5c 6d be 9c a5 af bd
       -0.15403256 0.052841175 -0.23179783 -0.08576509
0002b0 dd 71 3c be 05 d4 83 3d fa 7f 78 3c 21 3b a1 bd
       -0.1840281 0.06436924 0.015167231 -0.07872606
0002c0 ac 7d d3 bd cf 61 4a 3c fc 79 4d 3e b2 eb b9 bd
       -0.103267044 0.012352421 0.20066065 -0.090781584
0002d0 58 9e 14 bd 15 9e 97 bd 3f 6a ef bc 3f 3c 08 3e
       -0.03628382 -0.07403199 -0.029225467 0.13304232
0002e0 07 23 be 3d c3 4f 24 3e 57 4e 74 3e e1 1a 61 bd
       0.09284025 0.16046052 0.2385801 -0.054957274
0002f0 2e 41 89 bc 8a b7 a3 3d b0 0f c2 bb 1f 4d fa 3d
       -0.016754713 0.07993992 -0.0059222803 0.12221741
000300 d4 57 4b be d0 bd f7 3d 19 7c 00 3e d6 d4 dd bd
       -0.19857723 0.12096751 0.1254734 -0.10831611
000310 ea 90 63 3b 78 17 aa 3d 55 6e ce 3d a6 aa 4a 3d
       0.0034723827 0.083052576 0.10079638 0.04947915
000320 21 aa 2f be 7f bf 92 3d b0 3f 3d be db 63 f8 bd
       -0.17154743 0.07165431 -0.18481326 -0.12128421
000330 26 a5 89 3c 87 54 94 3d 06 96 18 3d fb 8b f0 3c
       0.016802382 0.07242685 0.03725245 0.029363623
000340 47 dc 00 3e e4 d4 ee 3d 87 3b b0 3d e7 9f 94 39
       0.12584029 0.116616994 0.08605104 0.00028347896
000350 0a 5d 9f bd e7 32 dc bd bb 4c 30 3d fb 6c 8c bd
       -0.07781418 -0.10751896 0.043041926 -0.06856724
000360 23 57 c3 bc 21 0a 2a bd cd 9b f7 bd 33 ef 66 3b
       -0.023845261 -0.041513566 -0.120902635 0.0035237789
000370 6a f5 45 bd a5 01 ef bc b5 10 11 3d 31 ee b2 39
       -0.04832975 -0.029175589 0.035416324 0.00034128272
000380 39 7e 4a 3c 2d ac a8 bd f1 c2 15 bc 4f e2 b0 ba
       0.012359195 -0.08235965 -0.009140716 -0.001349518
000390 c0 dc 80 3d 4a 73 7f bd 49 8a 94 bd ad 6c 24 3e
       0.06292105 -0.062365808 -0.07252938 0.16057082
0003a0 b9 e3 10 3e d0 c8 43 3d 03 51 54 bc 92 d3 ef bc
       0.1414937 0.04779893 -0.012958768 -0.02927569
0003b0 7a 7f a0 bd d7 3e 04 be 51 52 14 3b 01 cb 5e bd
       -0.07836814 -0.12914596 0.0022632072 -0.05439282
0003c0 e3 5b b8 bc ee f2 de bd fb e8 d8 bd 08 f0 09 3e
       -0.022504753 -0.10886179 -0.105913125 0.13470471
0003d0 44 bf c9 bc ca 24 c3 3d d7 29 20 3e 3d d0 a5 3d
       -0.024627335 0.09528501 0.1564096 0.08096359
0003e0 0b 61 f3 3c 5e 31 9a 3a 48 d7 77 3d c6 c9 40 3e
       0.02970936 0.001176398 0.060508043 0.1882697
0003f0 d7 90 11 3e 28 15 ed ba f5 66 f0 3d a2 e2 00 be
       0.14215408 -0.001808797 0.117383875 -0.12586454

layers.1.bias f4 [100]
000000 29 18 a5 bd 75 09 0c bd e3 db 08 bd 3f ac 18 3d
       -0.08061249 -0.034188706 -0.033412825 0.03727364
000010 3d 77 71 bc d7 52 2e 3c 5c 04 36 bd 16 82 16 3c
       -0.014737901 0.010639868 -0.04443775 0.009186288
000020 33 b3 60 bd c3 ca fa b9 e2 9a 34 3d 29 7f 65 3c
       -0.054858398 -0.00047834785 0.04409302 0.014007368
000030 e9 76 46 3c 01 3e 07 bd 78 90 35 3c 4c e6 71 bd
       0.012113311 -0.033018116 0.011081807 -0.05905752
000040 7d d3 b7 3d 18 fc 56 bc c1 3f d0 bc 05 56 72 bd
       0.08975885 -0.013121627 -0.025421025 -0.059164066
000050 07 6c 14 bd 49 3f 10 3d 9c 48 31 3b 8e a9 18 3d
       -0.036235835 0.035216603 0.0027051335 0.037271075
000060 46 50 3c 3c 4c 81 41 bd 78 00 35 3a 5f 9b 8d 3b
       0.011493748 -0.047242448 0.0006904672 0.0043215
000070 4f ab 0c bd ad e1 01 3d 9b 97 84 bd 2f 82 e0 3c
       -0.03434306 0.03170936 -0.06474229 0.027405826
000080 c4 2b 63 3d 87 fd 99 bb ad 5b be bc e4 d9 21 3d
       0.05546166 -0.0046994123 -0.023237074 0.039514437
000090 8c cd dc bd 8a d1 c3 bc 44 38 ec bb 70 69 b5 bc
       -0.107813925 -0.023903627 -0.007208856 -0.022145003
0000a0 21 b7 d3 3c 6d ff c3 bc 98 48 13 3e 85 4a fe bc
       0.025844159 -0.023925507 0.14383161 -0.031041393
0000b0 47 05 86 3d d6 36 3c bd f9 41 4d bd 1f ef 29 3d
       0.06543975 -0.045950733 -0.050111745 0.04148781
0000c0 7b 77 a5 3c 74 5d a6 3d 1a 98 96 3c eb 14 8a bc
       0.020198574 0.081232935 0.018383075 -0.016855678
0000d0 3b 26 19 bd 05 ee e0 bc 40 3d 9e bd 8c 93 b5 3c
       -0.037389975 -0.027457247 -0.07726526 0.022165082
0000e0 44 79 b1 3d dc 7c 0e 3c 9a bc 8e bd 34 de 7c 3d
       0.08665708 0.008696761 -0.06969567 0.061735347
0000f0 6b 8e 5d 3c cc 19 40 3d 08 b6 7d bc e6 bf 34 3d
       0.013522725 0.0468996 -0.015485294 0.04412832
000100 9f 7c 40 3c bc 08 dc 3a 9b 91 98 bb 45 d4 73 3b
       0.011748462 0.0016787271 -0.0046560294 0.003720538
000110 e5 f1 0b bd fb 7c 16 3d bd f1 7f bd 3f 5c 09 3d
       -0.034166235 0.036740284 -0.0624864 0.03353524
000120 50 3c 65 bd 6a b1 b3 bd 4d ed d5 3c 0b 35 10 bd
       -0.05596572 -0.087740734 0.02611413 -0.035206836
000130 7d 9d 72 bd 4b 7d 28 bc ad 20 85 3b b9 e8 36 3c
       -0.059232224 -0.010283778 0.004062733 0.011163884
000140 41 a2 9d 3d c0 a2 52 bd b4 52 96 3d 1e e9 44 bd
       0.07696963 -0.05142474 0.07339993 -0.04807388
000150 a1 b4 be bd 54 95 f5 3b 3b 4a a4 3c 6d 35 87 3c
       -0.09311796 0.007494608 0.020054927 0.016504968
000160 b6 e1 90 bd 25 27 95 bc f4 3c 6a bd e6 76 b9 bc
       -0.07074301 -0.018207142 -0.057187036 -0.022639703
000170 5c 3d fe 3c 19 23 86 3c 9a 3a 45 3c 10 85 3f 3d
       0.031035118 0.016374158 0.0120378975 0.046757758
000180 c9 6f c6 bb 08 31 15 3d 67 03 69 3d bc 1d f1 bc
       -0.0060558063 0.036423713 0.05688801 -0.029433124

layers.2.weight f4 [100, 100]
000000 f9 c2 52 3d 35 2d ee 3b 5a ab 51 3c 62 b8 e1 3d
       0.05145547 0.0072685727 0.012797201 0.11021496
000010 9d d5 d6 3d f7 05 85 3d a9 b5 bd bc b1 aa 90 bd
       0.10489962 0.06495278 -0.023157911 -0.07063807
000020 b7 ea 0f be ca b3 c7 3d e2 97 ef bc ab 51 62 3d
       -0.1405438 0.09751089 -0.029247228 0.055253666
000030 51 26 8a bd 93 45 45 be 58 e3 bc bc a6 0a 22 3e
       -0.067455895 -0.19264822 -0.023057625 0.15824375
000040 48 1d c1 bd 60 f5 42 3e 89 5c c2 bc 01 58 d5 bd
       -0.09429413 0.19038916 -0.023725765 -0.10417176
000050 bc c2 0c be b7 9a 87 bd 8f 2f 3f be c2 02 25 3d
       -0.1374616 -0.066213064 -0.18670486 0.040285833
000060 f2 f0 06 be bb 63 38 3e 43 00 af 3d 55 6e b6 3c
       -0.13177851 0.18006794 0.08544972 0.022269407
000070 ae 13 05 bd 04 0b 45 3a aa 67 92 3d 10 ae a2 bc
       -0.03248947 0.0007516595 0.071486786 -0.01985839
000080 16 88 2a 3e 67 a0 95 3d bf d9 8d 3c 8f 33 be 3d
       0.16653475 0.07305985 0.017315743 0.09287178
000090 14 e2 38 bd b9 64 39 3e 66 fc bd 3d 84 67 99 bd
       -0.04513748 0.18104829 0.09276657 -0.07490447
0000a0 6e 67 a0 bc d8 28 0a bd 0d 9c 88 bc 48 ee 85 be
       -0.01958057 -0.033730358 -0.016675973 -0.26158357
0000b0 b2 2c 1a bd 12 2c 13 bd 37 83 6f 3e b6 90 62 3d
       -0.03764028 -0.0359307 0.23389898 0.05531379
0000c0 0e 71 d6 3d 88 27 3d 3e 76 1a ae 3e 1e 3b b6 3e
       0.10470782 0.18472111 0.34004563 0.35591978
0000d0 6b eb c9 bd b8 88 50 3d 1f 87 0c be 0b 83 ee 3d
       -0.098593555 0.050911635 -0.1372342 0.11646088
0000e0 12 f9 99 b9 35 99 d9 bd be eb 84 be 81 ca ef bd
       -0.00029368006 -0.10624925 -0.25961107 -0.117085464
0000f0 6d 95 78 3d 56 54 00 be 43 20 1e 3c c8 0b 62 3d
       0.06068938 -0.12532172 0.0096512465 0.055187017
000100 65 db 95 3d 15 8f 77 3c ac e7 19 3d 03 bb 2c bd
       0.07317237 0.015109797 0.037574455 -0.042170536
000110 5a 78 83 be 01 92 23 3e 32 21 dc 3d b3 66 c3 bc
       -0.25677758 0.15973665 0.10748519 -0.023852682
000120 34 fc 16 bc 96 be 6b be c3 0b 46 3e 57 45 68 3d
       -0.009215403 -0.23021922 0.19340424 0.056706753
000130 82 28 1e bd c6 c5 1d bd e5 0f 22 3d 7e cc 84 3d
       -0.03861285 -0.03851869 0.03956594 0.06484316
000140 58 78 52 3d 36 7f 62 3d 66 99 5f bd 5f f7 60 3d
       0.0513843 0.0552971 -0.05458965 0.05492341
000150 8a c2 3e 3d bf bc 03 bd 66 4d 72 3d 87 b1 07 be
       0.046572246 -0.032162424 0.059155844 -0.13251315
000160 76 13 e0 bd be 08 f9 3d b7 64 c3 3c dc fb 93 bc
       -0.10941212 0.121598706 0.023851736 -0.018064432
000170 c8 6f b2 3a eb be db 3d 8e 23 8c 3d c8 e1 99 3d
       0.0013613636 0.10729774 0.06842719 0.075137675
000180 53 49 b9 3d ca ee 25 3b 7f 5b 44 3e c7 ec cc bb
       0.090471886 0.0025319331 0.19175528 -0.006253812
000190 3f 4f 2c bd 20 a6 c8 3c a6 b1 4b 3e 66 0c f4 3c
       -0.042067762 0.024493277 0.19891986 0.029791068
0001a0 20 89 a9 3d 0a c8 51 3e 78 fc e5 ba e5 46 82 3d
       0.08278108 0.20486465 -0.0017546555 0.06361178
0001b0 13 29 94 bd 90 65 db 3d 5a b3 86 bd f7 bb d8 bd
       -0.07234397 0.10712731 -0.06577177 -0.105827264
0001c0 06 de 87 bd 8b ce 19 bc d6 6d 9f bc f4 97 a6 bd
       -0.066341445 -0.009387623 -0.019461554 -0.081344515
0001d0 fa d5 4f bd 03 15 b3 bd cb 3e 12 3e 8a 1f b4 3d
       -0.050741173 -0.08744242 0.14281766 0.08795078
0001e0 2f 72 32 bc 83 a9 4b 3e ba 42 9b bd 82 3c 03 be
       -0.010891481 0.19888882 -0.075810865 -0.1281605
0001f0 e8 18 fa bb 81 90 62 bd d3 cd 84 3d 88 80 0a 3d
       -0.0076323636 -0.05531359 0.0648457 0.033813983
000200 51 66 cc 3c 4a 3b 3d 3d 1d 7c fc 3d 14 62 d7 bd
       0.024951132 0.04619912 0.1232836 -0.10516754
000210 2a a6 d8 3d 85 bc 4d 3b 00 80 25 3e ac cd b7 bd
       0.10578568 0.0031392884 0.1616211 -0.08974776
000220 4c 24 93 bd 92 9e 82 bd b5 74 90 3d 88 f7 7a bd
       -0.071846575 -0.06377901 0.0705351 -0.06127122
000230 58 6a 21 3d a5 89 af 3d d4 65 59 bd 48 d6 e9 3c
       0.039408058 0.085711755 -0.053075626 0.02854456
000240 9e 52 81 bd ad 65 da bd 32 17 d9 bc 74 da 12 3e
       -0.06314586 -0.10663924 -0.026500318 0.14341146
000250 c9 84 12 bd 45 f6 8e bd 44 a1 99 bd f5 31 c5 3c
       -0.035771165 -0.06980566 -0.07501462 0.024071673
000260 65 63 07 be 44 db 5d bd e1 2f 86 bd 77 b5 d2 bd
       -0.1322151 -0.054164186 -0.06552101 -0.10288518
000270 31 98 97 bc e6 91 ab 3a 10 a9 30 be d0 11 d8 bd
       -0.018505188 0.0013089746 -0.17251992 -0.105502725
000280 18 77 ac 3c 01 dd 27 bd fe c7 76 3e 3a 95 48 3d
       0.021052882 -0.04098225 0.24099728 0.04897044
000290 b9 87 a5 bd a6 95 f4 bc 6b a5 ef 3d 32 3a 0f be
       -0.08082528 -0.029856514 0.11701473 -0.13987043
0002a0 9c 43 92 3d db 26 d2 3d 18 42 42 bd b2 b3 bb 3c
       0.07141802 0.10261317 -0.047426313 0.022912834
0002b0 3a 82 8e 3b 62 6d 4f 3d 30 4c dc bd e9 a2 5c bc
       0.0043490203 0.050641425 -0.10756719 -0.013466575
0002c0 a9 d2 39 bd 07 f6 23 be 50 04 60 3d bb e0 77 3b
       -0.045366917 -0.1601182 0.054691613 0.0037823159
0002d0 a0 fd 8b 3d f8 b4 5c bb 28 cd d1 bd 0a 9f 14 bd
       0.068354845 -0.0033677202 -0.102442086 -0.036284484
0002e0 e0 a8 4e bd 13 95 7e 3d 52 e4 97 bc fd 56 0d 3d
       -0.05045402 0.062153887 -0.018541489 0.034506787
0002f0 5a 8a 21 be 12 17 aa bd 39 c8 2f be 0a 2c cc 3d
       -0.15775433 -0.083051816 -0.17166223 0.09969337
000300 9e 6d 74 3d e1 c5 9d 3d 1b 13 dd bd 82 16 8d 3d
       0.05967485 0.07703758 -0.1079466 0.06889059
000310 87 3c 02 3c aa bf e6 3c 1e 0c 64 bd 3c 3a 4e 3d
       0.007949001 0.028167564 -0.05567562 0.050348505
000320 4d a6 28 be e7 d9 77 3e 75 8f 1e bc 0b 03 14 bd
       -0.16469689 0.24204217 -0.0096777575 -0.036135715
000330 6d af 08 3e 90 33 f5 3a 9a bd 44 bd c2 c7 32 bd
       0.1334817 0.0018707383 -0.04803238 -0.043647535
000340 ae 65 bd 3d ba a5 41 bd 67 1c 0e be 83 6f 49 bc
       0.092479095 -0.04727719 -0.13878022 -0.012294653
000350 6d d5 86 3d 31 18 14 3e ac 1a 15 bc b9 a1 00 be
       0.065836765 0.14462353 -0.009100597 -0.12561692
000360 2c 51 cb 3d d6 36 d3 bc 5f 00 8e 3a 44 ec 0c bd
       0.09927592 -0.025782984 0.0010833851 -0.034405008
000370 fc dc 25 bd bb 02 e1 ba 13 d4 8d bd 91 ce d0 3d
       -0.04049395 -0.0017166951 -0.069252156 0.101956494
000380 6f 51 33 be 1a 99 48 3e 34 4f 09 bc ab 77 db 3d
       -0.17511533 0.19589654 -0.0083807 0.10716184
000390 5f 1d a4 bc 6a 7d 83 3e d3 35 9c bb 64 4d 88 bd
       -0.020033536 0.2568162 -0.0047671585 -0.06655386
0003a0 54 f2 d6 3b 2b 70 65 3d fc ef ac bd 2d f3 fb 3b
       0.0065596495 0.056015175 -0.08444211 0.007688901
0003b0 b7 17 94 bd 16 e3 94 be cd 63 95 bd d1 b8 e7 3c
       -0.07231086 -0.29079503 -0.07294426 0.02828637
0003c0 37 52 0c bc 64 97 24 3e 2f 95 34 3d 14 3e 2e 3e
       -0.008564523 0.16073376 0.044087585 0.17015868
0003d0 9d 31 25 3c 5d 5e 99 3d 05 cd 89 bd 7e 6c 17 3d
       0.0100826295 0.074887015 -0.067285575 0.0369687
0003e0 8e ec e1 3d 41 09 bb 3d 88 f9 b8 bd 96 fe c6 bd
       0.11031447 0.091326244 -0.09031969 -0.09716527
0003f0 a2 30 c3 bd 65 14 94 bd f1 93 f6 3d d3 dc 3a 3e
       -0.0953076 -0.072304524 0.12039936 0.182483

layers.2.bias f4 [100]
000000 f5 a5 b8 3c 57 84 65 bc 9b 8a 95 bc 9e 84 f4 3c
       0.022540072 -0.014008603 -0.018254569 0.029848393
000010 5b d2 08 bd ac 64 c5 bb ed c3 33 bd cf cf c9 bb
       -0.033403736 -0.006023964 -0.04388802 -0.006158806
000020 3f 38 18 3d 72 0c a0 bc fb 30 c3 3c f3 ac 4b 3c
       0.037163015 -0.019537184 0.023827067 0.012431371
000030 1d e8 79 bc 7d 3e bc 3c 2e dd 25 3d 0d 94 3e 3d
       -0.015253094 0.022979015 0.040494137 0.04652791
000040 8a fb 85 3c 34 ec 38 bd 80 c7 77 bc a6 98 17 3d
       0.016355295 -0.045147136 -0.015123248 0.03701081
000050 aa 6e 8c bd 7e ad c7 3c 86 88 e3 bc e0 ea 2a bd
       -0.06857045 0.02437472 -0.02777506 -0.0417279
000060 32 f5 a7 bc 15 1d 5f 3d 15 eb 29 bc be ed 47 bb
       -0.02050266 0.054471094 -0.010370989 -0.0030506696
000070 6c c7 d1 bb ad 92 8f bb 62 0d 04 3d 12 7a 92 3c
       -0.006401947 -0.004381499 0.032239325 0.017880473
000080 14 6f fc 3b e8 a5 41 bd ad 2f f4 bc 28 a8 d2 3c
       0.007703671 -0.04727736 -0.02980789 0.025714949
000090 6e a8 19 3d d3 f6 11 3d 15 ee 95 3c 7a f6 95 3b
       0.037514143 0.03563578 0.018302003 0.0045765014
0000a0 8e 28 f2 bc a4 38 dc 3c fa fe 31 3c 9d 55 42 bd
       -0.029560354 0.026882477 0.010864014 -0.04744493
0000b0 87 e4 01 3d 4e b7 4a 3d 55 df d5 3c 59 88 a4 bc
       0.03171208 0.04949122 0.02610747 -0.020084547
0000c0 11 2c 03 3b b1 ae bd 3b e4 92 92 bd 35 50 a9 3c
       0.002001528 0.005788647 -0.071569234 0.020668129
0000d0 d9 3c b9 3c 33 9f ab bb fc 31 b7 bc 23 5a a0 bc
       0.022612022 -0.005237484 -0.022362702 -0.01957423
0000e0 c2 7a 21 bd c8 50 1a bd 15 d2 6a bc 7a 63 8a 3d
       -0.03942371 -0.037674695 -0.014332314 0.06757255
0000f0 92 aa 8a bc f5 f3 4f bc 7f ef a5 3c 35 fb 86 3c
       -0.016927037 -0.012692441 0.020255802 0.016477207
000100 4d 11 34 3d d5 5b d7 bc c2 91 ef bc fa 01 82 bc
       0.04396181 -0.026288906 -0.029244307 -0.015870083
000110 6c e8 bf 3d 13 d9 f4 3c e9 30 8b bb c9 05 f3 3d
       0.09370503 0.029888665 -0.004247774 0.11866338
000120 28 91 4d bc 08 21 9a bc cc 98 88 bc 22 76 3b bd
       -0.012546815 -0.018814579 -0.016674422 -0.045766957
000130 3f ec 06 3c b4 5b 86 bc d3 4b 25 bd 58 97 12 3d
       0.008235036 -0.01640115 -0.040355515 0.035788864
000140 32 04 6b 3d 87 a8 31 3d 46 b6 2c 3d 21 87 db bc
       0.057377048 0.04337361 0.042166017 -0.026797833
000150 d2 70 87 3c 95 06 87 bc a6 c9 df bc a4 77 16 3d
       0.01653329 -0.01648263 -0.027317833 0.036735192
000160 1a f7 20 3c 7a 77 c6 3c 85 a7 d5 3c f3 72 09 bd
       0.009824539 0.024226893 0.026080856 -0.03355689
000170 cb c4 6b bc a4 fd 20 bd e0 b6 a1 bc 2f cf 09 3d
       -0.014390181 -0.03930439 -0.019740522 0.03364485
000180 01 87 0d bb 43 ac 9a bc 5b 30 92 3a b8 a7 3f bc
       -0.0021595361 -0.018880969 0.0011153327 -0.011697702
