main/continuous_time_identification (Navier-Stokes)/models_iters/NS_noisy_15000.pt (torch, 22858 bytes, 22 tensors)

linear_in.weight f4 [20, 3]
0	0x3b946386	0.0045284657
1	0x3ebf728a	0.37392074
2	0xbd879bd1	-0.066215165
3	0x3e2b9644	0.1675654
4	0xbed864b0	-0.42264318
5	0x3e581fa4	0.2110582
6	0xbdf7e6ab	-0.12104543
7	0xbe1080c8	-0.14111626
8	0x3e6d5c73	0.23179798
9	0xbe934643	-0.28764543
10	0xbea55ad2	-0.32295853
11	0xbcdceb2d	-0.02696761
12	0x3cbd3346	0.023095738
13	0x3dadb832	0.08482398
14	0xbea6834a	-0.3252204
15	0x3eb5c51b	0.35501942
16	0xbe114161	-0.14185096
17	0x3e124491	0.14283969
18	0x3e625775	0.22103675
19	0xbc518356	-0.012787661
20	0x3e73b1bb	0.23798268
21	0xbe4111ed	-0.18854494
22	0xbdb77ca2	-0.08959319
23	0x3ed13d1a	0.4086693
24	0xbd0d86d4	-0.03455241
25	0xbe86fad5	-0.26363245
26	0x3f20f47a	0.6287304
27	0xbdfe1e31	-0.12408102
28	0x3d668390	0.05627781
29	0xbe96d140	-0.2945652
30	0xbea5faf7	-0.32418033
31	0xbe90b7ce	-0.28265232
32	0x3e3132cc	0.17304534
33	0x3e9736f4	0.29534113
34	0x3dd9bbf6	0.10631554
35	0x3c64b5ab	0.013959329
36	0xbeebf293	-0.46083507
37	0x3dd3d7ed	0.10343919
38	0x3eeb891d	0.46003047
39	0xbe6b28db	-0.22964804
40	0x3da1f0ca	0.07907255
41	0xbc537044	-0.012905184
42	0xbd2ad80e	-0.041709952
43	0xbdcb57f0	-0.09928882
44	0x3cb89edf	0.022536693
45	0xbdc74686	-0.09730248
46	0xbe679975	-0.22617133
47	0x3cf7d1f4	0.03025148
48	0xbdd43187	-0.10361009
49	0xbdbc514d	-0.091951944
50	0xbdb1c8fb	-0.08680912
51	0x3de60e37	0.1123318
52	0x3c731da2	0.014838608
53	0xbe20b21b	-0.15692942
54	0x3e3bdc49	0.18345751
55	0xbe6f59d5	-0.23374112
56	0xbd175fd0	-0.03695661
57	0xbe85f3a8	-0.26162457
58	0x3bf65f14	0.0075186584
59	0xbe5d389c	-0.21603626

linear_in.bias f4 [20]
0	0xbe0eb609	-0.13936628
1	0x3ededeba	0.43529302
2	0xbf0c4061	-0.54785734
3	0xbced8096	-0.028991979
4	0x3e254d91	0.1614287
5	0x3e29ba7b	0.16575043
6	0x3f82458f	1.0177478
7	0xbece273e	-0.40264314
8	0xbe56a8bf	-0.20962809
9	0x3cde4320	0.027131617
10	0xbd7481bb	-0.059694033
11	0x3f43efaa	0.76537573
12	0xbe9857de	-0.29754537
13	0xbc20f9b7	-0.009825162
14	0x3ef2defd	0.47435752
15	0x3e452ff4	0.19256574
16	0xbf46b12e	-0.77614105
17	0x3f4e7b3d	0.80656797
18	0x3e8ab06d	0.27087727
19	0x3f1c4720	0.6104603

linear_out.weight f4 [2, 20]
0	0xbc0935bb	-0.008374627
1	0xbd5bf523	-0.053700577
2	0xbedd4c47	-0.43222257
3	0x3ecdabef	0.40170237
4	0x3e63bfaf	0.2224109
5	0xbea3e211	-0.32008412
6	0x3de84843	0.11341908
7	0x3e973758	0.2953441
8	0x3e3a79a9	0.18210472
9	0xbebf8871	-0.37408784
10	0xbe4e2e34	-0.20134813
11	0xbee7596f	-0.4518542
12	0xbe4f753f	-0.2025957
13	0xbf37744a	-0.7166182
14	0xbda74c30	-0.081688285
15	0x3dfcf42a	0.12351258
16	0xbe855ccf	-0.2604737
17	0xbd8e8d73	-0.06960573
18	0x3e1928b3	0.14956932
19	0xbe1a863c	-0.15090269
20	0x3d1fe2c2	0.039034612
21	0xbe1be3bb	-0.15223591
22	0xbeaf32bb	-0.34218392
23	0xbea3ecc2	-0.3201657
24	0x3d3cb04e	0.046066575
25	0xbebf2da0	-0.37339497
26	0xbef16fb4	-0.47155535
27	0xbede15c5	-0.43375984
28	0x3ec64c31	0.38730004
29	0x3f12d41e	0.57354915
30	0xbf09c03a	-0.5380894
31	0xbed3776b	-0.41302046
32	0xbe9a65f6	-0.30155915
33	0x3dd25630	0.10270345
34	0xbf043667	-0.5164551
35	0xbf22c753	-0.63585395
36	0x3dc87697	0.09788244
37	0xbd1c77de	-0.03820025
38	0x3e62e454	0.22157413
39	0x3e7f8aec	0.24955338

linear_out.bias f4 [2]
0	0x00000000	0.0
1	0x00000000	0.0

layers.0.weight f4 [20, 20]
0	0xbe0d80ba	-0.13818637
1	0x3e95e1ba	0.29273778
2	0x3df2015d	0.11816666
3	0xbe65336a	-0.22382894
4	0x3d992a45	0.074787654
5	0xbc8e3cc5	-0.017362962
6	0x3d60322d	0.05473535
7	0xbe189f6e	-0.14904568
8	0xbe8cd2c1	-0.27504542
9	0xbd324208	-0.043520004
10	0x3e600784	0.21877867
11	0x3ebd577d	0.3698081
12	0x3cd5716b	0.026055058
13	0xbdffa7bc	-0.12483165
14	0x3bed476f	0.0072411816
15	0x39826ce5	0.00024876665
16	0xbebdd25a	-0.37074548
17	0xbe6856a8	-0.22689307
18	0x3b8a297d	0.0042163716
19	0xbdd80624	-0.10548046
20	0x3ea31b9a	0.31856996
21	0x3c90accd	0.017660523
22	0x3bc3b013	0.0059719174
23	0xbeb8f695	-0.36125627
24	0x3deabeb1	0.11462153
25	0xbe24d1d5	-0.1609567
26	0x3e8c5a94	0.27412856
27	0x3decf85b	0.115708075
28	0x3dd4d469	0.103920765
29	0x3e0e88ee	0.13919422
30	0x3e03fe51	0.12889983
31	0xbddee90a	-0.108842924
32	0x3ee1c378	0.44094443
33	0x3eb39f00	0.35082245
34	0xbeb060e7	-0.3444893
35	0xbe015f1f	-0.12633942
36	0xbda870c4	-0.08224633
37	0x3c8b62a8	0.017014816
38	0xbd86656e	-0.06562315
39	0x3db9d6e8	0.09074193
40	0x3e086aa6	0.13321933
41	0xbe46e983	-0.19425015
42	0x3e1eaaea	0.15494886
43	0x3e13c923	0.14432196
44	0xbe4cf21b	-0.20014231
45	0xbdf031df	-0.11728262
46	0xbf01192d	-0.5042904
47	0x3e3e80c5	0.18603809
48	0x3d82932a	0.063757256
49	0xbd23af56	-0.039962135
50	0xbdb0b0bf	-0.08627462
51	0x3c18e532	0.009331988
52	0x3e760322	0.24024633
53	0xbe83131a	-0.2560051
54	0xbe498ccc	-0.19682616
55	0xbdc42103	-0.09576609
56	0x3ee326c8	0.44365525
57	0xbeb9649e	-0.36209577
58	0x3c018731	0.007905767
59	0xbe8a9f79	-0.27074793
60	0x3ccd4f90	0.025062352
61	0x3d285bb3	0.041103076
62	0xbe0a886d	-0.13528605
63	0xbcc48e12	-0.023993526
64	0x3eb312e0	0.34975338
65	0xbebcd4be	-0.3688106
66	0x3e2c5b1f	0.16831635
67	0x3ebb410b	0.3657306
68	0xbd4f982d	-0.050682236
69	0xbda4e0e0	-0.08050704
70	0xbe5f448f	-0.21803497
71	0x3dcdc3f3	0.1004714
72	0xbd929c05	-0.071586646
73	0xbe42fdc4	-0.19042116
74	0x3d7f4b97	0.062327947
75	0xbd7acd56	-0.06123098
76	0xbe8c44f7	-0.27396366
77	0xbe9db42c	-0.30801523
78	0x3d0c0b8c	0.0341907
79	0x3d97640a	0.07392128
80	0x3c6a62df	0.014305799
81	0x3ca2c19f	0.019867716
82	0xbe3485de	-0.17629191
83	0xbe3ff346	-0.18745145
84	0x3ef9a295	0.48756853
85	0x3df115b9	0.117717214
86	0x3d923030	0.07138097
87	0xbe70afd9	-0.2350458
88	0xbc66bf8a	-0.014083752
89	0x3ccfb8ae	0.025356617
90	0x3d81e7b0	0.06343019
91	0x3eb913b7	0.36147854
92	0x3e29cd32	0.16582182
93	0xbd5b8cee	-0.053601198
94	0x3e67d71d	0.22640653
95	0x3c985511	0.01859525
96	0xbcc41260	-0.023934543
97	0x3c87d5a9	0.016581373
98	0x3b11c582	0.0022242968
99	0xbd22caba	-0.039744116
100	0x3dfe0da4	0.124049455
101	0xbe7396ba	-0.23787966
102	0xbe9e2b87	-0.30892584
103	0x3d2c7665	0.042105097
104	0xbdadbf51	-0.08483756
105	0x3e71d5ac	0.23616666
106	0x3eccd3d5	0.40005365
107	0xbe13733d	-0.14399429
108	0xbd171b86	-0.036891483
109	0xbd974e1d	-0.07387946
110	0x3e16b090	0.14715791
111	0x3f1b504d	0.60669404
112	0xbd7b446a	-0.06134454
113	0x3e05aaa5	0.13053377
114	0x3ea4e8dc	0.32208908
115	0xbe3e673e	-0.18594071
116	0xbeac4e82	-0.33653647
117	0x3ec7d8c0	0.39032555
118	0x3e998870	0.29986906
119	0x3ccbbb79	0.024869667
120	0x3ee310ee	0.44348854
121	0x3e08f169	0.1337334
122	0x3ea0ec9d	0.31430522
123	0x3dc74070	0.09729087
124	0xbc1a0a58	-0.00940188
125	0xbc3c35af	-0.011487409
126	0xbe12651b	-0.14296381
127	0xbe9626b2	-0.29326397
128	0x3dbe0ea9	0.0928014
129	0x3e027554	0.1274007
130	0xbe9e0fac	-0.30871332
131	0x3d960855	0.07325808
132	0xbdf31892	-0.11869921
133	0xbdc737ef	-0.09727465
134	0xbdf236f9	-0.118268915
135	0xbd742e7f	-0.059614655
136	0xbd1781ff	-0.03698921
137	0xbccf11dc	-0.02527707
138	0x3e3e0ba5	0.1855913
139	0xbd6ae277	-0.05734488
140	0x3d64b64e	0.05583792
141	0xbbaa8b12	-0.0052045668
142	0xbe290696	-0.16506419
143	0x3e762fad	0.24041624
144	0x3d3072db	0.043078285
145	0xbe9d1aac	-0.30684412
146	0x3c5cabed	0.013468725
147	0x3d2a22c8	0.041537076
148	0x3f05deb5	0.5229295
149	0xbe94574c	-0.28972852
150	0xbbb19bf9	-0.0054202047
151	0x3e922e77	0.28551075
152	0x3f0badb1	0.5456191
153	0x3ce7940c	0.028268836
154	0x3e72aece	0.23699495
155	0xbc8599e4	-0.016308732
156	0xbdabc69a	-0.083874896
157	0xbd397b0f	-0.045283373
158	0xbbe4680c	-0.006970411
159	0x3f1b2dcd	0.6061676
160	0xbe89d383	-0.26919183
161	0xbdb7212b	-0.08941873
162	0xbf0f5b29	-0.55998474
163	0x3dc5b0f4	0.09652892
164	0xbcdb6e67	-0.026786042
165	0xbe03fdbc	-0.1288976
166	0x3f30d3ad	0.6907299
167	0xbee15e6c	-0.4401735
168	0x3b88920b	0.0041678003
169	0xbde4386a	-0.11143573
170	0xbe5e8fbe	-0.21734521
171	0x3da5db99	0.080985256
172	0xbdad1464	-0.08451155
173	0xbe46abb1	-0.19401433
174	0xbe3a9d71	-0.18224122
175	0xbdeea9e1	-0.116534956
176	0xbe4a7875	-0.19772513
177	0x3e4b2e37	0.19841848
178	0x3d2621ec	0.040559694
179	0x3eda3cbf	0.4262447
180	0x3e60a161	0.21936561
181	0xbeb23cdb	-0.34812054
182	0x3d5fd64b	0.054647725
183	0xbd028fc8	-0.0318754
184	0x3e4d8701	0.20071031
185	0x3db3be7e	0.08776568
186	0x3f061a4e	0.5238389
187	0xbd2e66b9	-0.042578433
188	0xbe84b649	-0.25920323
189	0xbe22f44a	-0.15913501
190	0x3e85e248	0.261492
191	0x3d70d753	0.0587991
192	0xbe920ca6	-0.28525275
193	0x3d831081	0.06399632
194	0x3d4aec65	0.04954185
195	0x3ea4acc0	0.32163048
196	0xbf19bc48	-0.6005292
197	0x3da8832b	0.08228143
198	0x3dd06682	0.10175802
199	0xbda5ee05	-0.08102039
200	0xbe7e502f	-0.24835275
201	0xbca67c6e	-0.020323005
202	0x3ea55f98	0.32299495
203	0x3e5e9668	0.21737063
204	0x3e2dac39	0.16960229
205	0x3e6e21d3	0.2325509
206	0x3c977e79	0.018492924
207	0x3e6830cc	0.22674865
208	0x3da9d33f	0.08292245
209	0xbe3682f9	-0.178234
210	0x3e2185ce	0.15773699
211	0x3e53c355	0.20679982
212	0xbeee9297	-0.46596214
213	0xbe61e085	-0.22058304
214	0x3db63236	0.08896296
215	0x3dd31f8f	0.10308754
216	0x3d3392a5	0.043841023
217	0x3e718864	0.23587185
218	0x3e6f166f	0.23348401
219	0x3ec23024	0.37927353
220	0xbe30783c	-0.17233366
221	0x3e6b163b	0.22957699
222	0x3eae86e3	0.34087285
223	0xbe9a983e	-0.30194277
224	0xbc549eeb	-0.012977342
225	0xbbdd41cf	-0.0067522298
226	0xbe3723e9	-0.17884792
227	0x3d371304	0.04469587
228	0xbdf7e75b	-0.121046744
229	0xbd43c01d	-0.047790635
230	0x3cb1870e	0.021670844
231	0x3e1b7d03	0.15184407
232	0xbe3a56e0	-0.18197203
233	0xbeaebb09	-0.34127071
234	0x3ec66066	0.3874542
235	0x3e483cc6	0.19554433
236	0x3e1b67f3	0.15176372
237	0x3e4eb0d3	0.2018464
238	0x3e8c1f24	0.27367508
239	0x3caa596f	0.020794598
240	0xbd66fa2a	-0.05639092
241	0x3d3ef3d2	0.046619244
242	0x3de1322d	0.109958984
243	0xbe65d92b	-0.22446124
244	0xbe968806	-0.29400653
245	0x3dbeba6f	0.09312903
246	0xbd10908b	-0.035294097
247	0x3e32c5a9	0.17458214
248	0x3c93a5bf	0.01802337
249	0x3d21308e	0.039352946
250	0x3e0daf4f	0.13836406
251	0xbec3b6b6	-0.38225335
252	0xbe2c3e6e	-0.1682069
253	0xbe13720e	-0.14398977
254	0xbd327844	-0.043571725
255	0xbdc7d155	-0.09756724

layers.0.bias f4 [20]
0	0x3e4a55bf	0.19759272
1	0x3ba43c6e	0.0050120866
2	0xbec5180e	-0.38494915
3	0x3bba59cd	0.0056869746
4	0x3e43996c	0.19101495
5	0x3e8c01a2	0.27344996
6	0xbe973286	-0.29530734
7	0x3eb3e443	0.35135087
8	0x3f27019a	0.6523682
9	0x3ec68e29	0.38780335
10	0x3e151c84	0.14561659
11	0xbe269b7f	-0.16270255
12	0xbd1f2dc6	-0.038862012
13	0x3f313f7e	0.69237506
14	0x3f19ee18	0.6012893
15	0xbdcef4d3	-0.1010529
16	0xbe22ade7	-0.15886651
17	0xbeb93cce	-0.36179203
18	0xbeb2a9ef	-0.34895274
19	0x3f0c1652	0.5472156

layers.1.weight f4 [20, 20]
0	0xbde03e9a	-0.1094944
1	0xbf6a62ed	-0.915572
2	0xbd0c1363	-0.034198176
3	0xbf257d73	-0.64644545
4	0x3ce6de8c	0.02818229
5	0x3ea8c6e6	0.32964247
6	0x3ee231d1	0.44178632
7	0x3a764b8b	0.0009395412
8	0xbcea29ef	-0.028584449
9	0x3ed596af	0.41716525
10	0xbea3331c	-0.3187493
11	0xbec19db1	-0.37815621
12	0xbdf564f5	-0.11982147
13	0x3e68e44d	0.2274334
14	0x3f1faccb	0.62373036
15	0x3d087fca	0.033324994
16	0xbf5dbbf2	-0.86614907
17	0xbe9b823e	-0.30372804
18	0xbe5199ac	-0.20468777
19	0xbf2355cc	-0.6380279
20	0xbd7a1f95	-0.061065275
21	0x3ee533c8	0.44766068
22	0xbd0582e4	-0.03259553
23	0xbdb08dcd	-0.08620796
24	0x3ea90a1d	0.33015528
25	0x3e8e07e6	0.277404
26	0x3e5d8cb5	0.21635707
27	0xbe89a700	-0.26885223
28	0x3e05885f	0.13040303
29	0x3e972e1d	0.2952737
30	0xbf354f0f	-0.7082376
31	0x3e1623e6	0.14662132
32	0x3e8e11ad	0.2774786
33	0xbe9813cd	-0.29702607
34	0xbd40dc4b	-0.047085088
35	0x3dcf8d07	0.10134321
36	0xbe92dae9	-0.2868264
37	0x3e1fc317	0.15601765
38	0xbb270284	-0.0025483677
39	0xbe8df60c	-0.2772678
40	0xbd8a67cf	-0.06758081
41	0x3df9ba0f	0.12193691
42	0xbe256b2b	-0.16154163
43	0xbe85bd2e	-0.26120895
44	0xbe85a3ae	-0.2610144
45	0xbdf964a8	-0.12177402
46	0x3e362c43	0.17790322
47	0xbe7ae171	-0.24500062
48	0xbca7e912	-0.020496879
49	0x3e54e221	0.20789386
50	0xbda177e9	-0.07884199
51	0x3e9f0eb5	0.31065908
52	0x3ee4e1f1	0.4470363
53	0x3e469c16	0.1939548
54	0xbe2e7e06	-0.17040262
55	0xbc86df3d	-0.01646387
56	0x3c85c2b7	0.016328199
57	0xbeb99125	-0.3624355
58	0x3d60010c	0.0546885
59	0xbdcc6b67	-0.09981423
60	0x3dc81c47	0.097710185
61	0x3df805ea	0.12110503
62	0x3f24818f	0.6426019
63	0x3d7ce9d0	0.06174642
64	0x3ec20c39	0.3789995
65	0x3d386634	0.045019343
66	0x3e2fea5a	0.17179242
67	0x3cf7db7c	0.030256025
68	0x3cb5ef95	0.022208968
69	0x3e0cad73	0.1373804
70	0x3c23578f	0.009969606
71	0xbeab7283	-0.33485803
72	0x3ed9c843	0.425356
73	0xbf01d15c	-0.5071008
74	0x3f1575d5	0.5838292
75	0xbe24c5ac	-0.16091031
76	0xbd11b422	-0.03557218
77	0xbdd12597	-0.10212248
78	0xbef07c09	-0.4696963
79	0x3e2c1ec1	0.16808607
80	0xbdda6d9a	-0.10665436
81	0x3e82a685	0.2551767
82	0x3e0f6fd2	0.140075
83	0x3d915cff	0.07097816
84	0xbe9d4f49	-0.30724552
85	0x3da48f08	0.080350935
86	0x3e1f6c1f	0.15568589
87	0x3e6dccf5	0.23222716
88	0x3e92c213	0.28663692
89	0x3e93330c	0.28749883
90	0x3dcf9fbb	0.10137888
91	0x3e4e2f23	0.20135169
92	0x3d0f92aa	0.03505198
93	0xbe8e7bbc	-0.27828777
94	0xbf1ab2b8	-0.60428953
95	0xbe404ef9	-0.18780126
96	0x3da93ef7	0.08263963
97	0x3bab5e6d	0.0052297623
98	0x3e61d536	0.2205399
99	0xbec67ce0	-0.38767147
100	0x3f43b99b	0.76455086
101	0x3d8166f6	0.06318466
102	0x3e9dddac	0.30833185
103	0xbce82048	-0.028335705
104	0x3f4249c4	0.7589381
105	0xbe406add	-0.18790765
106	0x3e997946	0.29975337
107	0x3d39bebe	0.04534792
108	0xbf0d9982	-0.5531236
109	0x3ec8d8ab	0.39227805
110	0xbe1ba202	-0.1519852
111	0x3f0ed8d8	0.5579963
112	0xbe99a650	-0.300097
113	0xbe99d019	-0.30041578
114	0xbe4ba291	-0.19886233
115	0x3d784ff9	0.060623143
116	0x3ef2a0cd	0.47388306
117	0xbe4e33bc	-0.20136923
118	0xbec08a48	-0.376055
119	0x3eee2ea5	0.46519962
120	0x3d2e0400	0.042484283
121	0x3f0a162d	0.5394009
122	0x3e88b2b3	0.26698837
123	0x3eea8733	0.45806274
124	0xbe30c1a9	-0.17261375
125	0x3ea56c9e	0.3230943
126	0x3e314a22	0.17313436
127	0x3d8a1095	0.06741444
128	0x3dbf62b3	0.09344997
129	0xbe0a418b	-0.13501565
130	0xbe1a2958	-0.15054834
131	0x3e5c27c0	0.21499538
132	0xbee23d84	-0.44187558
133	0xbe7fe6c4	-0.24990374
134	0x3f0d0574	0.55086446
135	0xbe564db9	-0.20928086
136	0xbf159e31	-0.58444506
137	0x3d04a69a	0.032385446
138	0xba65fa5d	-0.0008772964
139	0x3ee2d8d5	0.44306055
140	0x3e67b4b5	0.22627528
141	0x3e959a15	0.29219118
142	0xbecb5983	-0.3971673
143	0xbee77a63	-0.4521056
144	0x3d698686	0.057013057
145	0xbe22ac4d	-0.1588604
146	0x3e49f90a	0.19723907
147	0x3df0c116	0.11755578
148	0xbf1087e3	-0.56457347
149	0x3dc21811	0.094772466
150	0xbea426b2	-0.32060772
151	0xbf383001	-0.7194825
152	0xbe942130	-0.2893157
153	0x3ebe00aa	0.37109882
154	0x3e3783f5	0.17921431
155	0xbe108eaa	-0.14116922
156	0xbe7bddf0	-0.24596381
157	0x3c1f3ccb	0.009719084
158	0x3f16f2ca	0.58964217
159	0xbececc7b	-0.4039038
160	0xbc71bb39	-0.01475411
161	0x3ef52f9e	0.47887892
162	0x3e0d9a51	0.13828398
163	0x3e5ab426	0.21357784
164	0xbd196433	-0.037449073
165	0x3e969f20	0.29418278
166	0x3d45f0d9	0.048325393
167	0xbec1569b	-0.37761387
168	0x3e61f860	0.22067404
169	0xbd97ff06	-0.07421689
170	0xbe151a45	-0.14560802
171	0xbdcc37b8	-0.09971565
172	0x3dea9b13	0.11455359
173	0x3ecfc7ca	0.40582114
174	0xbeb76be8	-0.35824513
175	0x3d76faf7	0.060297932
176	0xbe37cbab	-0.17948787
177	0xbede3fb0	-0.43407965
178	0xbef0d32e	-0.47036117
179	0xbf40a306	-0.75248754
180	0xbea021cd	-0.31275788
181	0x3cd7ce9d	0.026343638
182	0x3e5d9e80	0.21642494
183	0x3e41b5c0	0.18916988
184	0x3e9fb4cd	0.31192628
185	0x3e6f0d04	0.23344809
186	0xbe2065e1	-0.15663864
187	0x3dc11577	0.09427922
188	0xbe8ac6b3	-0.2710472
189	0xbe3195cc	-0.17342299
190	0xbe611545	-0.2198077
191	0xbedce68b	-0.4314464
192	0x3d546b41	0.051860098
193	0xbe1a7e5c	-0.15087265
194	0xbe92be1d	-0.2866067
195	0xbe842aad	-0.2581381
196	0xbda8b3f5	-0.08237449
197	0xbf14f466	-0.5818542
198	0xbe800f41	-0.25011638
199	0x3e2a3aa2	0.16623929
200	0xbe04cff1	-0.12969948
201	0x3d09cd27	0.033642914
202	0xbca248d0	-0.01981011
203	0xbe32963a	-0.1744012
204	0x3e869797	0.2628753
205	0x3d334f06	0.043776534
206	0xbe7cf074	-0.247011
207	0xbef15fa4	-0.4714328
208	0x3e5881f1	0.21143319
209	0xbebb2056	-0.36548108
210	0xbecd3bb3	-0.4008461
211	0xbd85571f	-0.06510758
212	0x3dd00993	0.10158076
213	0x3dfa60a6	0.122254655
214	0x3e0774dd	0.13228174
215	0x3e9640cf	0.2934632
216	0xbe80f0aa	-0.25183612
217	0x3e038298	0.12842786
218	0x3cbda305	0.023149023
219	0x3ee5dc0f	0.44894454
220	0xbe253240	-0.1613245
221	0xbe429040	-0.1900034
222	0x3e69303f	0.2277231
223	0xbd99d9e0	-0.075122595
224	0x3ea382bf	0.3193569
225	0x3d9ffbe0	0.07811713
226	0xbe7ef3e5	-0.24897726
227	0x3daee9ec	0.08540711
228	0x3ec93232	0.39296108
229	0xbda2f773	-0.079573534
230	0xbe46ad00	-0.19401932
231	0xbefb1175	-0.49036756
232	0x3dbc7630	0.0920223
233	0x3c107b98	0.00881853
234	0xbd1b7326	-0.03795161
235	0x3e122d06	0.14274988
236	0xbe5689c1	-0.20950986
237	0x3eafffdd	0.34374896
238	0xbeec72ff	-0.46181485
239	0xbc91c9e0	-0.017796457
240	0x3c33d519	0.010976099
241	0x3e10d123	0.1414228
242	0x3df2ac85	0.11849312
243	0x3e9d56fe	0.30730432
244	0x3e096985	0.13419159
245	0xbd102f5c	-0.035201415
246	0xbecf7da3	-0.4052554
247	0x3eb6f15a	0.35731012
248	0x3f4937aa	0.7860056
249	0x3cd1010a	0.02551319
250	0x3d8edc51	0.06975616
251	0x3dee4fe5	0.116363324
252	0xbc14c3e9	-0.009079912
253	0x3d21121d	0.039323915
254	0x3ee49f61	0.44652846
255	0x3e69c482	0.22828868

layers.1.bias f4 [20]
0	0x3b1d66c7	0.002401756
1	0x3c4562c0	0.01204747
2	0xbcafed30	-0.021475405
3	0xbe321fa2	-0.1739488
4	0x3bd15624	0.0063884426
5	0x3d93c47b	0.0721521
6	0x3be3099c	0.0069286358
7	0x3ca9d653	0.02073208
8	0x3e317403	0.17329411
9	0x3c09a27c	0.008400556
10	0xbbd85a0f	-0.0066025327
11	0xbc0da2fb	-0.008644815
12	0x3e117b0d	0.14207096
13	0xbe0e00eb	-0.13867538
14	0xbd788a58	-0.06067881
15	0xbd961899	-0.073289104
16	0x3c623072	0.013805496
17	0xbdbb4d85	-0.09145645
18	0xbd367706	-0.044547103
19	0xbdf15cdc	-0.1178529

layers.2.weight f4 [20, 20]
0	0xbee7e300	-0.45290375
1	0xbdf3c6fc	-0.11903188
2	0x3cdd7f89	0.027038353
3	0x3eb9f677	0.3632085
4	0xbcf0d263	-0.029397195
5	0x3e84976a	0.2589677
6	0x3d951523	0.07279422
7	0xbe628cfb	-0.22124092
8	0x3d79b9b5	0.06096812
9	0x3f10c6bd	0.5655325
10	0xbe10ff7a	-0.14159957
11	0xbcec23c6	-0.028825652
12	0x3e24d8d8	0.16098344
13	0xbef3f540	-0.47648048
14	0xbe1d3b69	-0.15354694
15	0xbec70172	-0.3886829
16	0x3e824385	0.25442138
17	0xbe9e3057	-0.30896255
18	0xbd3213ab	-0.043475788
19	0xbd252b1d	-0.04032432
20	0xbe5d3470	-0.21602035
21	0xbd8763fc	-0.066108674
22	0xbc995e74	-0.018721797
23	0xbef95725	-0.48699299
24	0xbde01a42	-0.10942508
25	0xbddaffcf	-0.10693323
26	0x3e607322	0.2191892
27	0xbda9734e	-0.08273946
28	0x3dc5293d	0.09627006
29	0x3d6705a8	0.05640188
30	0x3e370bee	0.17875645
31	0xbdd98458	-0.10620946
32	0x3e1fdba4	0.1561113
33	0x3ea1d8f6	0.3161084
34	0x3e5f0c26	0.21781978
35	0x3efd4f86	0.49474734
36	0xbeae55e8	-0.34049916
37	0x3df19648	0.11796242
38	0x3d136a79	0.035990212
39	0xbe38c7ff	-0.18045042
40	0xbe9ff68b	-0.31242785
41	0xbdd4232e	-0.103582725
42	0x3e979cbe	0.29611772
43	0x3d4fbbf1	0.050716344
44	0x3dd4609d	0.1036999
45	0xbdedacec	-0.11605248
46	0x3ec7f0c4	0.39050877
47	0xbd9917e0	-0.07475257
48	0xbe76510b	-0.24054353
49	0x3e8f4f2c	0.2799009
50	0xbdbe9c53	-0.0930716
51	0x3d7541ce	0.05987721
52	0xbd28273f	-0.041053053
53	0x3dc56096	0.09637563
54	0x3e24ad15	0.1608165
55	0xbe029193	-0.12750845
56	0x3c8ebd55	0.017424265
57	0x3eafa6b0	0.3430686
58	0x3e3e1f36	0.18566594
59	0xbe65ac24	-0.22428948
60	0xbe026f0e	-0.12737677
61	0x3e83abd7	0.2571704
62	0xbe6e12ae	-0.23249313
63	0x3de88a06	0.11354451
64	0x3d143154	0.036179855
65	0xbdc6f783	-0.09715178
66	0xbd0437c9	-0.032279763
67	0xbef54171	-0.4790149
68	0xbe04017c	-0.12891191
69	0xbd08579f	-0.033286687
70	0xbe67bac5	-0.2262984
71	0xbdb3ea26	-0.08784895
72	0x3e58bd58	0.21165979
73	0x3d57d5b8	0.052694052
74	0x3eb99909	0.3624957
75	0xbdd009d2	-0.10158123
76	0xbdc501cc	-0.09619483
77	0x3d9059d6	0.07048385
78	0xbe150d22	-0.14555791
79	0x3e87ce24	0.2652446
80	0x3d0c7e6e	0.03430026
81	0x3e33b8b9	0.17550935
82	0xbdf5c9da	-0.12001391
83	0x3ea24f92	0.31701332
84	0xbcbdbca2	-0.023161236
85	0x3dc8ed6f	0.09810912
86	0x3de31136	0.11087267
87	0xbece8224	-0.40333664
88	0x3e114f33	0.14190368
89	0x3ed02b64	0.40658104
90	0xbeaaa67e	-0.33330148
91	0xbe4c2b94	-0.19938499
92	0x3d291844	0.041282907
93	0xbdf3139e	-0.11868976
94	0x3edd1fe8	0.43188405
95	0x3f238baa	0.63884985
96	0x3efe9c9f	0.49728867
97	0x3eb00e31	0.34385827
98	0x3e14f87a	0.14547911
99	0xbe4284b4	-0.18995935
100	0x3d42cf4b	0.04756097
101	0xbd4f87e0	-0.05066669
102	0xbd897b92	-0.06713022
103	0xbe8f618f	-0.2800412
104	0xbe381d66	-0.17979965
105	0xbe2a560e	-0.1663439
106	0xbda55993	-0.080737256
107	0xbe982955	-0.29719034
108	0xbeff1f0e	-0.4982838
109	0xbdc6ef0b	-0.097135626
110	0xbe3cccc0	-0.18437481
111	0xbc6a0de8	-0.014285542
112	0x3e73cba0	0.23808146
113	0x3d5af339	0.05345461
114	0x3c3d32ae	0.0115477275
115	0x3ea0affb	0.31384262
116	0xbec8e43b	-0.39236626
117	0xbc4f517d	-0.012653706
118	0x3e664543	0.22487359
119	0x3e9f087b	0.31061158
120	0x3ebd7e31	0.3701034
121	0xbf11d97b	-0.56972474
122	0xbdc1f442	-0.094704166
123	0x3e6acec5	0.22930439
124	0xbea938c5	-0.33051124
125	0xbdb99a72	-0.09062661
126	0xbec1055e	-0.37699407
127	0x3eb93f0f	0.36180922
128	0x3e178b78	0.14799297
129	0x3e3b7230	0.18305278
130	0x3e5d0117	0.21582447
131	0x3e185bdd	0.14878793
132	0xbd403291	-0.046923224
133	0xbf0f4ae1	-0.5597363
134	0x3eee105d	0.4649686
135	0x3ea16cea	0.31528407
136	0xbe5e3d99	-0.21703185
137	0x3f2671f5	0.65017635
138	0x3e0a99ab	0.13535182
139	0x3ea3189e	0.3185472
140	0x3df52eb7	0.11971801
141	0xbe1e22b1	-0.15442921
142	0xbcea4fed	-0.028602565
143	0xbe81a5df	-0.25321862
144	0xbe94c415	-0.2905585
145	0x3d8cd28d	0.06876097
146	0x3f1125d3	0.5669834
147	0x3ef6a981	0.48176196
148	0x3e8b5d76	0.27219743
149	0x3db7d38f	0.089758985
150	0x3e6ca3c4	0.23109347
151	0x3dcd3710	0.10020268
152	0xbd4900b1	-0.049072925
153	0xbd94c46e	-0.072640285
154	0xbe8d1a7e	-0.27559274
155	0xbe650a0e	-0.22367117
156	0xbe77ba93	-0.24192266
157	0xbe8b7ba8	-0.2724278
158	0xbe42e9b8	-0.19034469
159	0x3c8ebeab	0.017424902
160	0xbe09e3a4	-0.13465744
161	0x3d3bd4ef	0.045857366
162	0xbe594c93	-0.21220617
163	0xbd45356b	-0.048146646
164	0x3e7baadb	0.24576895
165	0xbe44f574	-0.19234258
166	0x3ee8f611	0.45500234
167	0xbc937228	-0.01799877
168	0x3e2496c3	0.16073136
169	0x3e4ddecd	0.20104523
170	0x3e63b9c8	0.22238839
171	0x3d917c01	0.0710373
172	0x3f30c478	0.6904979
173	0xbe2a0a17	-0.16605411
174	0x3f2a79e8	0.66592264
175	0xbe90a395	-0.28249803
176	0xbe12b1de	-0.14325663
177	0xbe2f08e0	-0.1709323
178	0x3e737f86	0.23779115
179	0x3df50217	0.11963289
180	0xbf8e692e	-1.1125848
181	0xbe0c5533	-0.13704376
182	0xbed5a9aa	-0.41731006
183	0xbf248b42	-0.6427499
184	0x3ca51a83	0.020154243
185	0xbf244720	-0.6417103
186	0x3ea4fa87	0.32222387
187	0x3e0d51e0	0.13800764
188	0xbe728264	-0.23682553
189	0xbde1b251	-0.11020339
190	0x3dde18ae	0.10844551
191	0x3cd27311	0.025689634
192	0xbec89253	-0.39174137
193	0x3e7f86c8	0.24953759
194	0xbdb3d6bb	-0.08781191
195	0x3d9555b8	0.0729174
196	0x3e027df0	0.12743354
197	0xbefdebf4	-0.4959408
198	0xbec47f2b	-0.3837827
199	0xbe1a2abb	-0.15055363
200	0xbda73da0	-0.08166051
201	0x3d920f63	0.07131841
202	0xbe15ccf3	-0.14628963
203	0xbca65a64	-0.020306773
204	0xbe8c1c82	-0.273655
205	0xbdd12c49	-0.10213525
206	0x3e7bed00	0.24602127
207	0xbf04f5a8	-0.5193734
208	0x3e3c491d	0.18387266
209	0xbeff63a8	-0.4988072
210	0x3e2277f1	0.15866067
211	0xbe3aa97f	-0.1822872
212	0x3e984e32	0.29747158
213	0x3e52e9b5	0.20596965
214	0x3f7977c2	0.9744836
215	0xbe32ab0a	-0.17448059
216	0x3e25a258	0.1617521
217	0xbe7c6913	-0.24649458
218	0xbce186d2	-0.027530108
219	0xbc855216	-0.016274493
220	0x3e0a6623	0.13515525
221	0xbf04ff56	-0.5195211
222	0x3e7f1510	0.24910378
223	0xbe51b323	-0.20478491
224	0xbd62f7d6	-0.055412136
225	0xbebf7db1	-0.37400582
226	0xbee4d051	-0.44690183
227	0xbdad8850	-0.08473265
228	0xbdd1d8c6	-0.102464244
229	0x3d9cb510	0.076517224
230	0xbe1add7c	-0.15123552
231	0xbeb78e61	-0.35850814
232	0xbca060e8	-0.019577459
233	0xbe33ceb6	-0.17559323
234	0x3edc745f	0.43057534
235	0x3e003add	0.12522455
236	0xbd7df607	-0.062002208
237	0x3ea09709	0.3136523
238	0x3d8ac61d	0.06776068
239	0xbec69b68	-0.3879044
240	0xbde72a78	-0.11287397
241	0x3db84900	0.08998299
242	0x3e813966	0.25239104
243	0x3d22f3c1	0.039783243
244	0x3d6e925f	0.05824506
245	0xbe82a0b6	-0.25513238
246	0x3e135e61	0.14391471
247	0x3d9e51b3	0.07730427
248	0x3ea71a7b	0.3263739
249	0xbe82134f	-0.25405356
250	0x3eb593a7	0.35464212
251	0xbd2d215c	-0.042268142
252	0x3da7bb1d	0.08189986
253	0xbea217a9	-0.31658676
254	0xbec7ca5f	-0.39021584
255	0x3cf2505a	0.02957933

layers.2.bias f4 [20]
0	0x3e687f1c	0.22704738
1	0x3d5e1112	0.0542155
2	0xbc890266	-0.016724776
3	0x39cf908d	0.00039589815
4	0xbb7886f8	-0.0037922245
5	0xbd2e3f26	-0.04254069
6	0xbd97b488	-0.074074805
7	0xbde4cb91	-0.1117164
8	0x3d905625	0.07047681
9	0x3e62890c	0.22122592
10	0xbdd6265e	-0.10456537
11	0x3cecc445	0.028902182
12	0xbdd057c1	-0.10172988
13	0x3dbc6568	0.09199029
14	0x3deefe2d	0.11669574
15	0x3d0faf35	0.0350792
16	0xbda502bd	-0.08057163
17	0x3b180028	0.0023193453
18	0xbd500665	-0.05078735
19	0xbd85de5a	-0.06536551

layers.3.weight f4 [20, 20]
0	0x3e7d4058	0.24731576
1	0xbdcd4c89	-0.100243635
2	0x3d0318b9	0.032006
3	0x3eafe5c6	0.3435499
4	0xbed4434b	-0.4145759
5	0x3e5f48ca	0.2180511
6	0xbe65097c	-0.22366899
7	0xbef2f54a	-0.47452766
8	0xbec18ac2	-0.37801176
9	0xbcfa42c8	-0.030549422
10	0x3e55ad61	0.2086692
11	0x3ed0ce0e	0.40782207
12	0xbe834bb8	-0.25643706
13	0x3ddf1bfa	0.10894008
14	0xbd84074e	-0.06446706
15	0x3df7c000	0.12097168
16	0x3ed4176f	0.41424128
17	0x3d82966e	0.063763484
18	0xbeb2038c	-0.3476833
19	0xbe88057c	-0.26566684
20	0xbca906ab	-0.020633062
21	0x3e798324	0.24366432
22	0xbec08c4b	-0.37607035
23	0xbdb28f32	-0.087187186
24	0xbe6d4035	-0.23169024
25	0xbebd0ce8	-0.3692391
26	0x3d991a9b	0.07475778
27	0x3e984927	0.2974331
28	0xbf1d7b35	-0.61516124
29	0x3e960373	0.29299507
30	0x3e0c5187	0.13702975
31	0xbcd4c78d	-0.02597406
32	0xbe1cfeed	-0.15331621
33	0xbd8d15aa	-0.06888898
34	0xbe37aaef	-0.179363
35	0xbe96fcdf	-0.294898
36	0x3ed3f71e	0.41399473
37	0x3e40c69a	0.1882576
38	0xbe755793	-0.23959188
39	0xbdd4a190	-0.10382378
40	0xbe44abe0	-0.1920619
41	0xbf0d0968	-0.5509248
42	0xbe24eb5c	-0.16105407
43	0xbf270498	-0.65241385
44	0x3ef10f90	0.47082186
45	0xbebeda37	-0.3727586
46	0x3f0cf2d7	0.55058044
47	0x3edacf0f	0.42736098
48	0xbdb44af1	-0.088033564
49	0xbe5e267b	-0.21694367
50	0xbcf852f8	-0.030313
51	0xbe612e71	-0.21990372
52	0x3e07e861	0.1327224
53	0x3e0fc909	0.14041533
54	0x3e924808	0.2857058
55	0x3e92556f	0.28580806
56	0xbe556d1b	-0.20842402
57	0xbeb0fc72	-0.345676
58	0x3c96fa70	0.018429965
59	0x3d14dbf3	0.036342572
60	0xbe177fdf	-0.14794873
61	0x3d551b56	0.052028023
62	0x3eebe812	0.46075493
63	0x3e516232	0.20447615
64	0xbe7aa471	-0.24476792
65	0xbe8756a7	-0.26433298
66	0x3e707d50	0.23485303
67	0x3dc29ad0	0.095021844
68	0xbe932487	-0.28738806
69	0xbf16b3af	-0.58867925
70	0xbc8b3585	-0.016993294
71	0x3ce809d7	0.028325005
72	0x3d8bc92b	0.06825479
73	0xbe8ce972	-0.27521855
74	0xbd6007c4	-0.054694906
75	0x3c717398	0.014737032
76	0x3eebfc1c	0.46090782
77	0xbe1c813f	-0.15283678
78	0x3e2d70b0	0.16937518
79	0xbe246c91	-0.1605704
80	0x3dd7226e	0.10504614
81	0x3df256b3	0.11832943
82	0xbe6324b5	-0.22181971
83	0xbc20dde5	-0.009818529
84	0x3b27fa5d	0.0025631406
85	0xbd82f9b6	-0.06395285
86	0xbedb72a3	-0.42860898
87	0x3e9c912b	0.30579504
88	0xbdd1aecd	-0.10238419
89	0x3eb4df87	0.35326788
90	0xbe58c374	-0.2116831
91	0xbdbc3277	-0.09189313
92	0x3db783dd	0.08960698
93	0xbe3fb19e	-0.187201
94	0x3df53347	0.11972671
95	0xbe415a97	-0.18882214
96	0xbe661900	-0.22470474
97	0xbec46058	-0.38354754
98	0x3e70c094	0.23510963
99	0xbe751b4e	-0.23936197
100	0xbea6544f	-0.32486197
101	0x3e9c54de	0.305335
102	0x3e0bc91f	0.1365094
103	0xbe27edf7	-0.1639937
104	0x3e1ccb7a	0.15311995
105	0x3ece2d28	0.40268826
106	0x3e05fc1e	0.13084456
107	0x3dae06b4	0.08497372
108	0xbf01d413	-0.50714225
109	0xbde566b2	-0.11201228
110	0xbe9baaf4	-0.30403864
111	0xbdfdedf7	-0.12398904
112	0xbf053f1f	-0.5204944
113	0xbea5cf98	-0.32384944
114	0xbe1136da	-0.1418108
115	0xbd09a168	-0.033601195
116	0xbe65f5a6	-0.22456989
117	0xbda7d406	-0.08194737
118	0x3e96ae33	0.29429778
119	0x3d56a3a7	0.052402165
120	0x3f316217	0.692903
121	0xbdb5dabb	-0.0887961
122	0x3cc8af32	0.024497602
123	0xbeda9c17	-0.42697212
124	0xbe842e6e	-0.25816673
125	0x3dc9d384	0.098547965
126	0x3e5c4e47	0.21514235
127	0x3e2b5752	0.16732529
128	0x3b67152f	0.003526043
129	0x3e4dfa79	0.20115079
130	0x3e8af53d	0.27140227
131	0xbe849bdb	-0.25900158
132	0x3edab7db	0.42718396
133	0x3dd196fa	0.102338746
134	0x3f4b4fbd	0.79418546
135	0xbee18f61	-0.44054702
136	0xbe0679bc	-0.13132375
137	0x3e81b232	0.25331265
138	0xbe2eeb88	-0.17082036
139	0x3e622e0c	0.22087878
140	0xba41bbe9	-0.00073903665
141	0x3e6ff177	0.23431955
142	0x3e988256	0.29786938
143	0x3e46718e	0.19379255
144	0x3dd06728	0.101759255
145	0x3ca4eb95	0.020131866
146	0xbe85522a	-0.2603925
147	0xbdfd6172	-0.12372102
148	0xbe8f67eb	-0.2800897
149	0x3ebe4ca1	0.37167838
150	0x3b863817	0.004096042
151	0x3eb1ffb2	0.34765393
152	0xbd09fc01	-0.033687595
153	0x3c24cb67	0.0100582605
154	0xbd0d1342	-0.034442194
155	0xbeb11cdc	-0.3459233
156	0xbe999773	-0.2999836
157	0x3befcb88	0.007317964
158	0xbe562381	-0.20911981
159	0xbe1706be	-0.14748666
160	0xbe631d55	-0.22179158
161	0xbe51d236	-0.20490345
162	0xbda2145c	-0.079140395
163	0xbc207c70	-0.009795293
164	0xbe0d5144	-0.13800532
165	0x3db2c4ee	0.087289676
166	0xbdf40b8c	-0.11916265
167	0x3e80f145	0.25184074
168	0x3e46fab5	0.19431575
169	0xbe1843e6	-0.14869651
170	0x3d699ab8	0.057032317
171	0xbd910a4e	-0.070820436
172	0xbc94e14d	-0.018173838
173	0xbe9ecd7a	-0.3101614
174	0xbead4134	-0.3383881
175	0x3e5efbbe	0.2177572
176	0xbe9e6cf2	-0.30942494
177	0x3e3fedc2	0.18743041
178	0x3d1618de	0.03664481
179	0x3e00e1e4	0.1258617
180	0xbc4aedb8	-0.012385778
181	0xbed6caac	-0.419515
182	0x3e865b72	0.26241642
183	0x3e467f99	0.19384612
184	0xbe1c636d	-0.15272303
185	0x3da9eb9c	0.08296892
186	0x3e88a37e	0.26687235
187	0xbd1200bc	-0.03564523
188	0x3e9ac3ae	0.30227417
189	0xbf5991a1	-0.8498784
190	0x3c92d802	0.017925266
191	0xbd75ecf7	-0.06004044
192	0xbeb4a6e5	-0.3528358
193	0xbed1adf0	-0.40953016
194	0x3e72cbd7	0.23710571
195	0x3e63ccf4	0.22246152
196	0x3e2f11ef	0.17096685
197	0x3ef62421	0.4807444
198	0x3e0da229	0.1383139
199	0x3e417073	0.18890552
200	0x3e9b4edf	0.3033361
201	0x3eabaa04	0.3352815
202	0xbe39f47d	-0.18159671
203	0xbe9f2641	-0.31083873
204	0x3eca697d	0.39533606
205	0xbe4c73a1	-0.19965984
206	0x3e9558bb	0.29169258
207	0xbd6a0300	-0.057131767
208	0x3dce72ed	0.10080514
209	0x3f1a253f	0.60213083
210	0x3e567982	0.20944789
211	0x3e9b628d	0.30348626
212	0xbe49b3b8	-0.19697464
213	0xbe1eb494	-0.15498573
214	0x3dc7ac3f	0.0974965
215	0x3de4d624	0.111736566
216	0x3dd4c17d	0.103884675
217	0xbd725832	-0.05916614
218	0xbed93e3c	-0.42430294
219	0xbde36e2d	-0.11104999
220	0x3e51b426	0.20478877
221	0xbd696ec4	-0.0569904
222	0xbe436962	-0.19083169
223	0x3b7b5265	0.0038348672
224	0x3d1cf99c	0.038323984
225	0xbdf1bff5	-0.11804191
226	0xbe8ef359	-0.27920035
227	0x3e80ae5b	0.25133023
228	0x3d939ff3	0.07208242
229	0xbe4b2000	-0.19836426
230	0x3e1743d1	0.14771964
231	0x3d716460	0.058933616
232	0xbeb06964	-0.34455407
233	0xbe6608a5	-0.22464235
234	0xbe5743d7	-0.21021973
235	0xbd4e24c4	-0.05032803
236	0x3e5955ee	0.21224186
237	0xbbc86863	-0.0061159595
238	0x3e644867	0.22293244
239	0xbe0f0ff3	-0.13970928
240	0x3cd2237a	0.025651682
241	0x3e172e03	0.14763646
242	0xbe458768	-0.19289935
243	0xbe8835c9	-0.26603535
244	0x3e8f1c82	0.27951437
245	0x3e15670c	0.1459009
246	0x3ef4c71b	0.47808155
247	0x3dc867a6	0.09785394
248	0x3dbe5dd2	0.092952386
249	0xbe9f195c	-0.31074035
250	0xbcc77e02	-0.024352077
251	0x3ec3e3a7	0.38259622
252	0xbe285da1	-0.16441967
253	0x3e254db5	0.16142924
254	0xbde87fe1	-0.11352516
255	0x3cc2c3b4	0.02377496

layers.3.bias f4 [20]
0	0x3dd423e5	0.10358409
1	0xbe1331f1	-0.1437452
2	0x3db6cb53	0.089255
3	0x3d97bf75	0.074095644
4	0x3e06699a	0.13126221
5	0x3c1a3d68	0.009414054
6	0x3da17e5d	0.0788543
7	0x3d410150	0.047120392
8	0x3d39b01c	0.045333967
9	0xbd9eda17	-0.07756441
10	0x3d3b022c	0.045656368
11	0xbd5ef861	-0.05443609
12	0xbc17d050	-0.009265974
13	0x3cf75bfb	0.030195227
14	0x3db9946d	0.09061513
15	0x3da25de2	0.07928063
16	0x3db75211	0.089512
17	0xbcb63499	-0.022241877
18	0xbe3294b3	-0.17439537
19	0xbdd8de9e	-0.10589336

layers.4.weight f4 [20, 20]
0	0xbedd49a2	-0.4322024
1	0xbd031fe0	-0.03201282
2	0xbe81b742	-0.25335127
3	0xbcaecd1a	-0.021338034
4	0xbba09846	-0.004900965
5	0xbe12bc52	-0.14329651
6	0x3de90dad	0.113795616
7	0x3eb295c9	0.34879902
8	0x3d7ebee5	0.06219377
9	0xbe298bcc	-0.16557235
10	0xbe124355	-0.14283498
11	0xbe21c13a	-0.15796366
12	0xbe69378e	-0.22775099
13	0x3e7b8f49	0.24566378
14	0x3e934261	0.2876158
15	0xbe3bae0c	-0.18328112
16	0x3eb40e68	0.3516724
17	0xbecafd52	-0.39646393
18	0x3e1d726a	0.15375677
19	0x3df76a44	0.120808154
20	0xbe55abe3	-0.20866351
21	0xbeb36177	-0.35035297
22	0xbe194755	-0.14968617
23	0xbf2273d7	-0.6345801
24	0x3d9d7181	0.07687665
25	0xbe947f7e	-0.2900352
26	0xbe6a2bd5	-0.22868283
27	0xbe4c33cb	-0.19941632
28	0xbcb62ae0	-0.022237241
29	0x3e3469ba	0.17618456
30	0x3def4ff2	0.1168517
31	0x3d25bd93	0.040463995
32	0x3daf6a93	0.08565249
33	0x3e2ad920	0.16684389
34	0x3e057d34	0.13036042
35	0xbebbf223	-0.36708173
36	0x3d010aef	0.031504568
37	0xbc4957b9	-0.012288981
38	0x3e82fe01	0.25584415
39	0xbccf5ace	-0.025311854
40	0x3cae7fa0	0.02130109
41	0x3b6a3769	0.0035738593
42	0xbe026605	-0.1273423
43	0x3dbd50aa	0.09243901
44	0xbdaee3cd	-0.08539543
45	0xbe1901e8	-0.14942133
46	0x3e37dd73	0.1795557
47	0x3e3c857c	0.18410295
48	0xbe632854	-0.22183353
49	0xbe496357	-0.19666801
50	0x3f0b79a1	0.54482466
51	0xbe80a168	-0.25123143
52	0xbde1082d	-0.109878875
53	0xbdd85bed	-0.105644085
54	0xbdc1a9c0	-0.09456205
55	0xbe47cf2b	-0.19512622
56	0xbe8db5d1	-0.27677777
57	0x3dc7dc50	0.09758818
58	0x3e3faeef	0.18719076
59	0xbe621184	-0.22076994
60	0x3da44283	0.080204986
61	0x3dcec3f9	0.100959726
62	0xbe03ad15	-0.12858994
63	0xbf32b813	-0.69812125
64	0xbea6b5c8	-0.32560563
65	0xbeae4e29	-0.34044006
66	0x3ed6746a	0.41885692
67	0xbd83cef5	-0.06435958
68	0xbe654953	-0.22391252
69	0xbedbae66	-0.42906493
70	0x3f1a8856	0.6036428
71	0xbdf21ee4	-0.11822298
72	0xbd4dd831	-0.050255004
73	0xbea3765e	-0.31926244
74	0x3eb9ac84	0.3626443
75	0xbe74eb5d	-0.23917909
76	0x3d98ae66	0.07455139
77	0xbe8dd3bd	-0.27700606
78	0x3e79c0c3	0.24389939
79	0x3c319889	0.01083959
80	0x3db42a29	0.08797104
81	0x3e4c6311	0.19959666
82	0xbcff1f3b	-0.031142822
83	0xbed6a83b	-0.41925225
84	0x3cccad90	0.024985105
85	0xbdba11e6	-0.09085445
86	0xbd9a20dc	-0.07525799
87	0xbc854e40	-0.016272664
88	0xbe9967ba	-0.2996195
89	0x3da5aa73	0.08089151
90	0x3ca00818	0.01953511
91	0xbe76f15d	-0.2411551
92	0x3da98bfc	0.08278653
93	0xbde8ce84	-0.11367515
94	0xbec058db	-0.3756779
95	0xbe89c17e	-0.26905435
96	0x3c7ef756	0.015561899
97	0x3d6fc15d	0.058534015
98	0xbe98fcf4	-0.29880488
99	0x3ea2363e	0.31682009
100	0xbdbb82f6	-0.09155838
101	0x3e00965a	0.12557355
102	0x3ed23ade	0.41060537
103	0xbe02bc5c	-0.12767166
104	0x3e123856	0.14279303
105	0xbeabeec8	-0.33580613
106	0xbd8fe0d1	-0.07025302
107	0xbd78782b	-0.060661476
108	0xbeba31d9	-0.36366156
109	0xbe9a1beb	-0.30099425
110	0x3cee3e52	0.029082451
111	0xbc577f94	-0.013152976
112	0xbe1577b0	-0.14596438
113	0xbe3ca52b	-0.18422382
114	0xbe1edce9	-0.15513958
115	0x3e4eba4c	0.20188254
116	0x3eb09941	0.34491923
117	0xbe09c483	-0.1345387
118	0x3eff6211	0.49879506
119	0xbe99daf7	-0.3004987
120	0x3e813818	0.2523811
121	0xbe0dc810	-0.13845849
122	0xbe80d698	-0.25163722
123	0xbe0ddc1c	-0.13853496
124	0x3e66eb6a	0.22550741
125	0x3d62a9a7	0.055337574
126	0xbe53f4e1	-0.20698883
127	0xbe90b310	-0.28261614
128	0xbe60642c	-0.21913213
129	0xbd0ec0f6	-0.03485199
130	0x3d895de2	0.0670736
131	0x3ed10aa2	0.40828425
132	0x3ed91599	0.4239929
133	0xbd82bf7d	-0.0638418
134	0xbe781127	-0.24225293
135	0xbde454a7	-0.11148959
136	0x3ec7c534	0.39017642
137	0x3e842ab7	0.2581384
138	0xbf0e47a1	-0.5557805
139	0xbe1450ec	-0.14483994
140	0xbf2cb9ba	-0.67470896
141	0xbde46f08	-0.1115399
142	0x3ea300c3	0.3183652
143	0x3ddde282	0.108342186
144	0x3e8e252d	0.27762738
145	0xbe058c10	-0.13041711
146	0x3e57a1f1	0.2105787
147	0xbebb8cfe	-0.36631006
148	0xbdc710d5	-0.09720007
149	0xbd8c31fe	-0.06845473
150	0xbe5149a0	-0.20438242
151	0x3d8d35de	0.0689504
152	0x3e914833	0.28375396
153	0xbe35a17a	-0.1773738
154	0x3e0e05b8	0.13869369
155	0xbe6e9a30	-0.23301005
156	0x3c9632ff	0.018334864
157	0xbecd22ae	-0.4006552
158	0xbdd41767	-0.10356026
159	0x3dcbdbca	0.09954031
160	0xbe633753	-0.22189073
161	0xbe9b8180	-0.30372238
162	0x3cb7c2f1	0.022431822
163	0x3e9a7c08	0.30172753
164	0xbd89fd04	-0.06737712
165	0xbece4a79	-0.40291193
166	0xbd5de48c	-0.054173037
167	0xbe58330c	-0.21113223
168	0xbe697ca7	-0.22801457
169	0x3ec38b12	0.3819204
170	0xbe6b77eb	-0.22994964
171	0xbda68b97	-0.081320934
172	0x3d93327b	0.07187363
173	0xbdf270a4	-0.11837891
174	0x3eceadb0	0.40366888
175	0xbecc69be	-0.39924425
176	0x3e7e4155	0.2482961
177	0xbe3574a4	-0.17720276
178	0xbefb36b0	-0.4906516
179	0x3e88bdae	0.26707214
180	0xbe2b927c	-0.16755098
181	0xbe5511d4	-0.20807582
182	0xbea1663e	-0.31523317
183	0x3ccc4e9f	0.024939833
184	0xbf2b0147	-0.66798824
185	0x3e0ff4ef	0.14058279
186	0x3eca998d	0.39570275
187	0x3d00a3e4	0.0314063
188	0xbef305b8	-0.474653
189	0xbd99f741	-0.07517863
190	0x3e9e4b23	0.309167
191	0x3e4f512b	0.20245807
192	0x3e39d4e8	0.18147624
193	0x3e0a4141	0.13501455
194	0x3e55eb40	0.20890522
195	0xbe91098a	-0.2832759
196	0x3e16bcd7	0.14720474
197	0x3e11db71	0.14243867
198	0xbeebdaf3	-0.46065482
199	0x3f08258e	0.53182304
200	0xbf36fd8b	-0.71480626
201	0xbe57e431	-0.21083142
202	0x3e5d629e	0.2161965
203	0xbe8fd3a6	-0.28091162
204	0x3eb4b1f4	0.35292017
205	0x3e7e981f	0.24862717
206	0xbd457258	-0.04820475
207	0xbe6c3e57	-0.23070656
208	0xbe5bf32e	-0.21479484
209	0xbe0e6792	-0.13906696
210	0x3d31068c	0.043219134
211	0x3da4767e	0.08030413
212	0xbea237cd	-0.31683198
213	0x3ebd6f82	0.36999136
214	0xbc3d5c50	-0.011557654
215	0xbdfef5e9	-0.124492474
216	0x3dfff1d1	0.12497295
217	0x3e46429f	0.19361351
218	0x3e86e4f6	0.26346558
219	0x3eaded72	0.3397022
220	0xbc6155cb	-0.013753365
221	0xbf26b72a	-0.65123236
222	0xbcaa7992	-0.020809922
223	0x3e573daf	0.21019624
224	0x3d343b61	0.04400194
225	0x3c13c762	0.009019705
226	0xbe86db9a	-0.26339418
227	0xbe5dc4ea	-0.21657148
228	0x3d9a7707	0.07542234
229	0x3e47a3fe	0.19496152
230	0x3e8145d3	0.25248584
231	0x3dee09d0	0.11622965
232	0x3d82a3c9	0.06378896
233	0x3e4cb262	0.19989923
234	0xbe932af4	-0.28743708
235	0x3b1924b8	0.0023367833
236	0x3e432ee8	0.19060862
237	0x3e8c1a1a	0.27363664
238	0xbeb1642d	-0.3464674
239	0x3e4e2ad8	0.20133531
240	0x3ed4720a	0.41493255
241	0xbe1c8ead	-0.15288801
242	0x3e670255	0.22559483
243	0x3e9902ab	0.29884848
244	0x3db2f535	0.08738176
245	0x3d232d59	0.03983817
246	0xbe5bbe20	-0.21459246
247	0xbe882a7a	-0.26594907
248	0x3e854b7b	0.2603415
249	0xbe961985	-0.29316345
250	0x3be45390	0.0069679692
251	0x3e193bcc	0.14964217
252	0xbe9e3103	-0.30896768
253	0x3eb57d83	0.3544732
254	0x3eb4147e	0.35171884
255	0xbe390e6a	-0.18071905

layers.4.bias f4 [20]
0	0x3c9ae33f	0.018907188
1	0xbc131113	-0.008976239
2	0xbd81cabe	-0.06337498
3	0x3d9c6d7d	0.07638071
4	0xbd82f2cf	-0.06393968
5	0xbca42949	-0.020039218
6	0xbd012094	-0.03152521
7	0x3d1e0ea4	0.03858818
8	0x3d554571	0.052068178
9	0x3e011c3e	0.1260843
10	0xbe37dce3	-0.17955355
11	0x3d869115	0.06570641
12	0x3d9f3a5f	0.07774805
13	0x3db3bd75	0.087763704
14	0xbdd85e7e	-0.10564898
15	0xbdac5f3a	-0.084166005
16	0xbda851bb	-0.08218714
17	0xbd4f973a	-0.05068133
18	0x3cbb7452	0.022882614
19	0xbd81aabb	-0.063313924

layers.5.weight f4 [20, 20]
0	0x3e47b0d9	0.19501056
1	0x3e6a3a3f	0.22873782
2	0xbd919dc0	-0.071101665
3	0xbea6837b	-0.32522187
4	0x3d69ff74	0.057128385
5	0x3e95162a	0.29118472
6	0x3e7e69e1	0.24845077
7	0xbda27adc	-0.0793359
8	0xbeb95ea8	-0.3620503
9	0x3d03bf30	0.032164752
10	0xbe5c6e42	-0.21526435
11	0xbc178eab	-0.009250323
12	0xbd871ae8	-0.06596929
13	0x3dade341	0.08490611
14	0x3dc8b5a3	0.098002695
15	0xbeb90b78	-0.36141562
16	0xbec1a145	-0.3781835
17	0x3e33292a	0.17496172
18	0x3f01bd6a	0.5067965
19	0xbea00cad	-0.3125967
20	0xbe7167ee	-0.23574802
21	0x3e663636	0.22481617
22	0x3e13a898	0.14419782
23	0xbe6f39ed	-0.2336194
24	0xbd740a72	-0.059580274
25	0xbe87f338	-0.2655275
26	0x3eab34b8	0.3343866
27	0xbeb6713a	-0.3563326
28	0xbe7e8ed2	-0.24859169
29	0xbe53edc2	-0.20696166
30	0xbf072b38	-0.5280032
31	0xbe1c869e	-0.15285727
32	0xbe57ec6f	-0.21086286
33	0xbe936a10	-0.28791857
34	0x3f2f5a26	0.6849693
35	0xbea7e789	-0.32793835
36	0x3e3e1768	0.18563616
37	0xbed7d70f	-0.42156264
38	0x3a738b52	0.00092904747
39	0x3d782119	0.06057844
40	0xbee08447	-0.4385092
41	0xbb29993a	-0.0025878684
42	0x3e668924	0.22513252
43	0xbf0bb996	-0.54580057
44	0xbe4a4b0a	-0.19755188
45	0x3d18eb9d	0.037334073
46	0x3de2a890	0.11067307
47	0xbea6ae01	-0.3255463
48	0xbe8f5609	-0.27995327
49	0xbecf833e	-0.40529817
50	0xbedc6195	-0.430432
51	0x3e93b8c5	0.28851905
52	0xbea0ee40	-0.3143177
53	0x3ced7231	0.028985115
54	0x3ec71a41	0.38887218
55	0xbe027171	-0.12738587
56	0xbeb8c755	-0.36089578
57	0x3de6d92b	0.1127189
58	0xbed8da08	-0.42353845
59	0x3c404ae9	0.01173661
60	0x3e0a3a10	0.13498712
61	0xbd9aadd1	-0.07552684
62	0x3d405be9	0.046962652
63	0x3de6b305	0.11264614
64	0x3e2b07b0	0.16702151
65	0x3e3f2b31	0.1866882
66	0x3e979db8	0.29612517
67	0xbd95d5bd	-0.07316158
68	0x3eac713a	0.33680135
69	0xbe6b0c5d	-0.22953935
70	0xbdee7a0a	-0.11644371
71	0x3e0e733f	0.1391115
72	0xbe498d98	-0.1968292
73	0xbd0d80b1	-0.034546558
74	0x3e39be68	0.1813904
75	0xbe44b3a0	-0.19209146
76	0xbd55f6c3	-0.052237283
77	0x3dc0dfe5	0.094177045
78	0xbd3800fe	-0.04492282
79	0x3dee387c	0.11631867
80	0x3b9e58b2	0.0048323506
81	0xbe766786	-0.24062929
82	0xbc7c99bd	-0.015417513
83	0x3d40d204	0.047075287
84	0xbeab8083	-0.33496484
85	0x3e536107	0.20642482
86	0x3e85b9b9	0.26118258
87	0x3e8fce72	0.28087193
88	0x3e9d3733	0.30706176
89	0xbc6a6cb8	-0.014308147
90	0x3e5bd390	0.21467423
91	0x3b2e44ab	0.0026591222
92	0x3e987070	0.29773283
93	0xbc56b91f	-0.01310566
94	0xbeb49dfb	-0.3527678
95	0xbca1ff93	-0.019775188
96	0x3e918940	0.28425026
97	0xbe3f150b	-0.18660371
98	0x3ecef073	0.40417823
99	0xbe120cba	-0.14262667
100	0xbf4a8911	-0.79115397
101	0xbcee3b2e	-0.029080953
102	0x3db04b2f	0.0860809
103	0x3e68dfdc	0.22741646
104	0x3e38d92b	0.18051593
105	0xbbe7c862	-0.007073448
106	0x3e02e77f	0.12783621
107	0x3e04bdf0	0.1296308
108	0xbf10b744	-0.5652964
109	0x3d930e42	0.07180454
110	0xbf0a85ad	-0.54110223
111	0x3dc19b55	0.09453455
112	0x3e235d8a	0.15953651
113	0x3ee963c4	0.45583928
114	0xbe34328d	-0.17597409
115	0x3c1e2fc4	0.009654943
116	0xbe3cf213	-0.18451719
117	0xbde0182c	-0.109421104
118	0xbe1e45a2	-0.1545625
119	0xbf1411ed	-0.5783985
120	0xbe236ef1	-0.1596029
121	0xbe3dbe6f	-0.18529676
122	0x3e8ae021	0.27124122
123	0xbee75821	-0.45184425
124	0xbbc2e5c4	-0.0059478004
125	0xbf13f410	-0.57794285
126	0x3eeeecbf	0.46664998
127	0xbddc8d66	-0.10769157
128	0x3f18e1ef	0.5971975
129	0x3df6c393	0.120490216
130	0x3e3c9233	0.18415146
131	0x3e9c134f	0.3048348
132	0x3b0b8850	0.0021290965
133	0xbeefbae4	-0.46822274
134	0x3c42b836	0.01188474
135	0xbce997c6	-0.028514754
136	0xbefcd751	-0.49383023
137	0xbddefb9c	-0.108878344
138	0xbf0f24e7	-0.55915684
139	0x3ef957dd	0.48699847
140	0xbf21a26d	-0.6313847
141	0x3dc70f16	0.09719674
142	0x3e9057ff	0.28192136
143	0x3e77fe88	0.2421819
144	0xbb05ac97	-0.002039706
145	0xbe22b491	-0.15889193
146	0x3ddfea5f	0.109333746
147	0xbe5edc4b	-0.21763723
148	0xbd430064	-0.047607794
149	0xbe11031d	-0.14161344
150	0xbe8c6013	-0.2741705
151	0xbe809949	-0.25116947
152	0x3d4ec06a	0.05047647
153	0xbdf4709e	-0.119355425
154	0x3cb1226e	0.021622863
155	0xbd3e017b	-0.04638813
156	0x3f0b8e85	0.5451434
157	0xbdaca6d9	-0.08430261
158	0xbe9e6c00	-0.30941772
159	0xbe5ea60d	-0.21743031
160	0x3d6f6e5e	0.058454864
161	0x3e257103	0.16156392
162	0x3db78f54	0.089628845
163	0xbe0b0077	-0.13574396
164	0x3ddc88cb	0.10768279
165	0x3eaa2b0c	0.33235967
166	0xbefa74e5	-0.48917308
167	0xbc184521	-0.009293825
168	0x3de74827	0.11293059
169	0x3e838eb6	0.25694817
170	0xbe6ed2f8	-0.23322666
171	0x3d564d5f	0.05231988
172	0xbe743fcf	-0.23852466
173	0x3f202cb2	0.625682
174	0xbec23b8c	-0.37936056
175	0x3e5580fa	0.20849982
176	0x3e19ec86	0.15031633
177	0x3d192bd4	0.037395313
178	0xbe81cc5a	-0.2535122
179	0xbd2dcc0b	-0.04243092
180	0xbe00dd39	-0.1258439
181	0xbeb54800	-0.35406494
182	0xbe2d979a	-0.16952363
183	0xbd5bc75f	-0.053656932
184	0x3e6b328e	0.22968504
185	0xbd251d3c	-0.040311083
186	0x3d8ae198	0.0678131
187	0x3e4738de	0.19455287
188	0xbe9cd6f4	-0.30632746
189	0x3dbdee43	0.092739604
190	0xbdd19b23	-0.10234668
191	0x3e081325	0.13288553
192	0xbb183b05	-0.0023228538
193	0xbdab1722	-0.083540216
194	0xbe05f168	-0.1308037
195	0x3e9bbec3	0.30418977
196	0x3d9da812	0.076980725
197	0x3e12581e	0.14291427
198	0x3e094579	0.13405408
199	0xbe9f220c	-0.31080663
200	0xbf46f7a9	-0.7772165
201	0xbf523948	-0.82118654
202	0x3e52ce6e	0.20586559
203	0xbe9d2259	-0.30690268
204	0xbe35575c	-0.17709106
205	0xbe3275a5	-0.1742769
206	0x3d6a4431	0.05719394
207	0x3dbbcdb9	0.09170098
208	0xbe5b240a	-0.21400467
209	0xbeb8612f	-0.36011645
210	0x3d325dfb	0.043546658
211	0x3b34a731	0.0027565474
212	0xbdccda02	-0.10002519
213	0xbe4fba9f	-0.20286034
214	0xbd63d18d	-0.055619765
215	0xbcd2e786	-0.025745165
216	0x3bf511aa	0.0074789124
217	0xbdb60c7a	-0.088890985
218	0xbd8f4d0b	-0.06997117
219	0x3db4fbd5	0.08837096
220	0x3bfbfd96	0.007690142
221	0xbe4c943c	-0.19978422
222	0xbe189d45	-0.14903744
223	0xbe70435b	-0.23463194
224	0x3e03c581	0.1286831
225	0xbd0856f3	-0.033286046
226	0xbe792471	-0.24330308
227	0x3f31488d	0.6925133
228	0x3e8f4a02	0.2798615
229	0x3e255b91	0.16148211
230	0x3e32f615	0.17476685
231	0x3e09f011	0.13470484
232	0x3db94bb5	0.09047643
233	0xbe94b5d9	-0.2904499
234	0x3e34b20f	0.17646049
235	0xbebbf291	-0.367085
236	0x3e0d1eef	0.13781331
237	0x3dd02025	0.10162381
238	0xbf1d94f3	-0.61555403
239	0x3eeaea4f	0.45881888
240	0xbe867d19	-0.26267317
241	0xbd7806a8	-0.060553223
242	0xbb9f1556	-0.0048548384
243	0xbcfb584b	-0.03068175
244	0x3d16b307	0.036791828
245	0xbe6e1306	-0.23249444
246	0x3e0b2bbb	0.135909
247	0x3eba2466	0.36355895
248	0xbd207933	-0.039178085
249	0x3e9cccb8	0.30624938
250	0x3e5bf8bd	0.21481605
251	0x3e1bfe47	0.15233718
252	0xbc8a1c63	-0.016859239
253	0x3db9a604	0.09064868
254	0x3dd3efd6	0.103484794
255	0xbeab80e9	-0.33496788

layers.5.bias f4 [20]
0	0x3d3cf0c5	0.046128053
1	0xbcfcdd9f	-0.030867396
2	0x3d379911	0.04482371
3	0x3d4d5379	0.050128434
4	0x3dab1d26	0.08355169
5	0x3d11d027	0.0355989
6	0xbd98ac30	-0.07454717
7	0xbd190c98	-0.037365526
8	0xbc2a7efb	-0.010406251
9	0xbdcd4f01	-0.100248344
10	0xbe21c6b9	-0.15798463
11	0x3d89ea9d	0.06734202
12	0x3dc93f30	0.09826505
13	0xbd870c62	-0.06594159
14	0x3dd7845b	0.10523292
15	0x3d1625bd	0.036657084
16	0xb8f8511c	-0.00011840669
17	0xbcaf53ec	-0.021402322
18	0x3d972d33	0.07381668
19	0x3dbfd6ea	0.093671635
