main/continuous_time_identification (Navier-Stokes)/models_iters/NS_noisy_35000.pt (torch, 22858 bytes, 22 tensors)

linear_in.weight f4 [20, 3]
-0.06019905 0.32051837 -0.014257076 0.16089146 -0.37123585 0.20109293 -0.14453146 -0.08187926
0.25570998 -0.304939 -0.28407317 0.010736223 0.007724311 0.116037354 -0.31452018 0.29766387
-0.05242782 0.16367058 0.22906792 0.043158323 0.2099886 -0.20436108 -0.108261056 0.41331273
-0.0032436936 -0.28733623 0.57289857 -0.1338775 0.08232185 -0.25343457 -0.28024772 -0.18445438
0.18955122 0.25285086 0.121383525 -0.008147358 -0.39939457 0.04074236 0.4214325 -0.1917457
0.043535862 -0.04023037 -0.01905914 -0.10577878 0.0093739135 -0.038529746 -0.26340747 -0.010948977
-0.0600271 -0.07411833 -0.069949314 0.017379384 0.025637692 -0.13328613 0.22211163 -0.118187726
-0.015782623 -0.25508356 0.016654028 -0.21905337
00000000: 4793 76bd fc1a a43e 8396 69bc bbc0 243e
00000010: a012 bebe 4eeb 4d3e 0e00 14be 50b0 a7bd
00000020: 6bec 823e f720 9cbe 0a72 91be fce6 2f3c
00000030: 381c fd3b fea4 ed3d ca08 a1be 6667 983e
00000040: 8ebe 56bd 4399 273e c890 6a3e c8c6 303d
00000050: 4007 573e 0844 51be f9b7 ddbd ba9d d33e
00000060: 2694 54bb bc1d 93be 7ba9 123f 2f17 09be
00000070: 5c98 a83d 2dc2 81be a17c 8fbe 9ce1 3cbe
00000080: b719 423e ab75 813e ed97 f83d 7f7c 05bc
00000090: 727d ccbe 76e1 263d 00c6 d73e fc58 44be
000000a0: a952 323d 9ac8 24bd ea21 9cbc 8ca2 d8bd
000000b0: 0b95 193c 5ed1 1dbd 58dd 86be 5763 33bc
000000c0: fade 75bd 5acb 97bd 9641 8fbd 365f 8e3c
000000d0: 2306 d23c 297c 08be 3b71 633e 680c f2bd
000000e0: 8f4a 81bc 509a 82be 076e 883c 874f 60be

linear_in.bias f4 [20]
-0.13494329 0.50011885 -0.51700354 -0.013531129 0.21751826 0.19779354 1.0620109 -0.39221254
-0.24925356 0.04381773 -0.11253161 0.88758594 -0.39507213 -0.06417769 0.49805516 0.19568451
-0.8546654 1.0040014 0.2499765 0.6931443
00000000: 932e 0abe ca07 003f 585a 04bf abb1 5dbc
00000010: 1bbd 5e3e 648a 4a3e f9ef 873f 15d0 c8be
00000020: 533c 7fbe 387a 333d f976 e6bd d538 633f
00000030: e546 cabe 986f 83bd 1601 ff3e 8561 483e
00000040: 5acb 5abf 1e83 803f d7f9 7f3e e871 313f

linear_out.weight f4 [2, 20]
0.15090147 0.26749644 -0.5941717 0.47723016 0.28099963 -0.21788868 0.10687371 0.2589939
0.28538936 -0.37363157 -0.34500378 -0.4339605 -0.12406731 -0.5038214 0.12547655 0.12743086
-0.27711564 -0.32009152 0.2295023 -0.034705997 0.10423053 -0.012839088 -0.17688292 -0.35964704
-0.2501552 -0.62475705 -0.7176732 -0.6295523 0.34513837 0.54206795 -0.71136266 -0.61528945
-0.42082322 0.047620997 -0.8661911 -1.004419 0.22630176 -0.010287992 0.35201538 0.34932712
00000000: ea85 1a3e 4bf5 883e a31b 18bf 8357 f43e
00000010: 2fdf 8f3e 361e 5fbe 9be0 da3d d99a 843e
00000020: 8e1e 923e a34c bfbe 56a4 b0be 1230 debe
00000030: 0017 febd 70fa 00bf ed7c 003e 3c7d 023e
00000040: 1ae2 8dbe 09e3 a3be a702 6b3e e027 0ebd
00000050: d176 d53d 0a5b 52bc cc20 35be a823 b8be
00000060: 5814 80be 14f0 1fbf 6eb9 37bf 572a 21bf
00000070: fab5 b03e f7c4 0a3f dd1b 36bf 9c83 1dbf
00000080: 2476 d7be 3c0e 433d b3be 5dbf cd90 80bf
00000090: a6bb 673e f78e 28bc 5c3b b43e 01db b23e

linear_out.bias f4 [2]
0.0 0.0
00000000: 0000 0000 0000 0000

layers.0.weight f4 [20, 20]
-0.12410088 0.2739059 0.10607425 -0.23005703 0.08266801 -0.016422551 0.056491897 -0.15857093
-0.28497106 -0.036916234 0.19959305 0.37101153 0.020259239 -0.121193305 0.0018442207 -0.010121345
-0.36670515 -0.21520615 -0.00029591526 -0.10346514 0.35900277 -0.026085261 0.0032241698 -0.38722998
0.11006361 -0.15860951 0.2780221 0.11585429 0.09398306 0.13189135 0.1174906 -0.090655535
0.46060422 0.35573035 -0.34851316 -0.15474045 -0.105287336 0.015251145 -0.0928915 0.07719896
0.1439329 -0.22172406 0.20521826 0.14053513 -0.21754377 -0.1142845 -0.581455 0.22324881
0.10427885 -0.05816428 -0.07862969 -0.055586528 0.26432306 -0.25419983 -0.23402631 -0.11306726
0.5047483 -0.44116208 -0.011628262 -0.3444507 0.038975015 0.021779638 -0.12824486 -0.039052304
0.34242064 -0.36291677 0.16138867 0.369564 -0.047977824 -0.086513184 -0.22186805 0.09978152
-0.0654176 -0.18995875 0.04926989 -0.073119774 -0.2663066 -0.31666812 0.027189275 0.058457013
0.008400373 0.058152404 -0.22399892 -0.17618835 0.49006507 0.11370979 0.17882597 -0.2637508
-0.04027104 0.03871119 0.07574558 0.43678197 0.16786423 -0.034378983 0.28857148 0.04117034
-0.114534855 0.10480354 0.022928074 0.0502626 0.19712602 -0.34903318 -0.26467615 -0.024541682
-0.093168 0.20628445 0.30649093 -0.099956654 -0.02765322 -0.09550527 0.107479654 0.5438727
0.0025860313 0.137761 0.23937951 -0.24386747 -0.27140293 0.28275782 0.22786786 -0.06354931
0.44274798 0.12569639 0.30751047 0.087442406 -0.008462608 -0.007317311 -0.13717023 -0.2947971
0.08562784 0.12306382 -0.30821759 0.08388021 -0.12142807 -0.09715007 -0.1196703 -0.061377645
-0.038093742 -0.022975726 0.18371406 -0.062014155 0.011315605 0.033871166 -0.16869298 0.27394652
0.046163633 -0.30944926 0.016472224 0.04001383 0.5197483 -0.2774279 0.015263419 0.27170196
0.5283123 0.032904893 0.2541725 0.012136459 -0.07581351 -0.034834992 0.0124094095 0.6191157
-0.2556235 -0.06625449 -0.58917254 0.08849684 -0.026210925 -0.118005954 0.7730748 -0.45640975
-0.0077934843 -0.10488654 -0.21668531 0.14889948 -0.07759583 -0.18326749 -0.14008115 -0.113511026
-0.2763665 0.2694698 0.043917287 0.4829372 0.20374402 -0.34336525 0.0719983 -0.025666058
0.1969615 0.09089228 0.46458462 -0.03174543 -0.2408769 -0.161782 0.2535137 0.017474446
-0.2950782 0.053434927 0.023536183 0.31501946 -0.54338187 0.040365085 0.09881214 -0.11693662
-0.20596667 -0.025262386 0.25496772 0.18986991 0.18426326 0.22416969 0.12968644 0.18447547
0.03510777 -0.16307393 0.13331032 0.29945534 -0.45312262 -0.20284264 0.1404007 0.09747165
-0.06384652 0.33307818 0.22283182 0.45505297 -0.14296158 0.2101189 0.34731263 -0.3291932
-0.01645762 0.015712315 -0.18441452 0.046655674 -0.11793603 -0.058251623 -0.008296027 0.16061947
-0.1965394 -0.35217628 0.36285242 0.16684069 0.151086 0.18646742 0.2643236 -0.020768715
-0.08198651 0.09639413 0.07455685 -0.17987409 -0.2927504 0.07613511 0.066047445 0.16659157
0.029230393 0.0454314 0.18523815 -0.3190789 -0.12279872 -0.11023446 0.028009966 -0.0570564
00000000: 9a28 febd 653d 8c3e 753d d93d 1294 6bbe
00000010: d84d a93d 9688 86bc 0c64 673d 6b60 22be
00000020: bae7 91be 7a35 17bd 1f62 4c3e 39f5 bd3e
00000030: b4f6 a53c 3234 f8bd c7b9 f13a ffd3 25bc
00000040: c7c0 bbbe 005f 5cbe 1325 9bb9 88e5 d3bd
00000050: 36cf b73e c2b0 d5bc 984c 533b 0243 c6be
00000060: 0869 e13d 886a 22be ea58 8e3e 0445 ed3d
00000070: 317a c03d 870e 073e e99e f03d 9ca9 b9bd
00000080: 51d4 eb3e 4a22 b63e 5170 b2be 4874 1ebe
00000090: e3a0 d7bd f0df 793c e63d bebd 7d1a 9e3d
000000a0: 2563 133e a20b 63be bc24 523e 71e8 0f3e
000000b0: cbc3 5ebe fe0d eabd 3cda 14bf 569b 643e
000000c0: 2690 d53d ab3d 6ebd 9a08 a1bd b3ae 63bd
000000d0: 5a55 873e 7b26 82be 98a4 6fbe cf8f e7bd
000000e0: 2f37 013f ffdf e1be 7784 3ebc d85b b0be
000000f0: 44a4 1f3d 366b b23c 9f52 03be 4ff5 1fbd
00000100: c251 af3e 3ad0 b9be 1243 253e 7e37 bd3e
00000110: 6584 44bd d32d b1bd 6131 63be 415a cc3d
00000120: aaf9 85bd 8c84 42be 39cf 493d d2bf 95bd
00000130: 5759 88be 5322 a2be 0bbc de3c 9f70 6f3d
00000140: b8a1 093c 3731 6e3d f95f 65be b86a 34be
00000150: cfe9 fa3e aee0 e83d 281e 373e 580a 87be
00000160: 3ff3 24bd a08f 1e3d 8020 9b3d e3a1 df3e
00000170: 9ae4 2b3e fad0 0cbd a4bf 933e 3ba2 283d
00000180: 4091 eabd 3da3 d63d a8d3 bb3c 28e0 4d3d
00000190: 67db 493e 7ab4 b2be a283 87be a30b c9bc
000001a0: ddce bebd 3b3c 533e 61ec 9c3e 13b6 ccbd
000001b0: 0189 e2bc 4498 c3bd 4b1e dc3d 3e3b 0b3f
000001c0: 687a 293b 3811 0d3e e71f 753e 65b8 79be
000001d0: 53f5 8abe a2c5 903e 3156 693e 2426 82bd
000001e0: ddaf e23e 8eb6 003e 0372 9d3e 0115 b33d
000001f0: c0a6 0abc 0ec6 efbb 5a76 0cbe a5ef 96be
00000200: a65d af3d e208 fc3d b2ce 9dbe 63c9 ab3d
00000210: 48af f8bd 9ef6 c6bd b415 f5bd 2067 7bbd
00000220: 2f08 1cbd 9737 bcbc 8a1f 3c3e 8e02 7ebd
00000230: 1665 393c 7ebc 0a3d dabd 2cbe b842 8c3e
00000240: 1416 3d3d 2270 9ebe c2f0 863c 8be5 233d
00000250: 390e 053f 080b 8ebe 6b13 7a3c 851c 8b3e
00000260: 7a3f 073f 48c7 063d e622 823e 00d8 463c
00000270: 1d44 9bbd 23af 0ebd d650 4b3c 5e7e 1e3f
00000280: 15e1 82be 6fb0 87bd 03d4 16bf d53d b53d
00000290: 4bb8 d6bc 1bad f1bd 3be8 453f 8aae e9be
000002a0: 7c60 ffbb c1ce d6bd c1e2 5dbe 1b79 183e
000002b0: 90ea 9ebd 79aa 3bbe 6f71 0fbe 7878 e8bd
000002c0: e97f 8dbe f2f7 893e 9de2 333d 8b43 f73e
000002d0: 46a2 503e 92cd afbe d873 933d a041 d2bc
000002e0: 47b0 493e bb25 ba3d 09de ed3e 7f07 02bd
000002f0: 6fa8 76be 2eaa 25be 8ccc 813e 9226 8f3c
00000300: 7d14 97be 95de 5a3d f4ce c03c 3b4a a13e
00000310: 131b 0bbf dc55 253d 055e ca3d 777c efbd
00000320: ede8 52be 10f3 cebc 218b 823e 426d 423e
00000330: 82af 3c3e bd8c 653e 86cc 043e 23e7 3c3e
00000340: 2acd 0f3d dafc 26be 8082 083e 3652 993e
00000350: b0ff e7be fbb5 4fbe 33c5 0f3e 379f c73d
00000360: f7c1 82bd 3989 aa3e 062e 643e b4fc e83e
00000370: 8564 12be 6929 573e f6d2 b13e 038c a8be
00000380: 21d2 86bc 1db7 803c 29d7 3cbe 051a 3f3d
00000390: 7288 f1bd 4199 6ebd 0fec 07bc 6e79 243e
000003a0: a041 49be 7350 b4be cbc7 b93e 49d8 2a3e
000003b0: 4ab6 1a3e 51f1 3e3e 6c55 873e 2723 aabc
000003c0: 8be8 a7bd 496a c53d 43b1 983d ea30 38be
000003d0: 61e3 95be b9ec 9b3d e243 873d fb96 2a3e
000003e0: 9474 ef3c 4716 3a3d 12af 3d3e 4f5e a3be
000003f0: e57d fbbd 9bc2 e1bd 2875 e53c f9b3 69bd

layers.0.bias f4 [20]
0.19917566 0.0023083417 -0.477379 -0.010327401 0.30987906 0.1710962 -0.2961757 0.36851808
0.73514104 0.34068596 0.25700876 -0.19515155 0.077521205 0.86668074 0.54977596 -0.11344406
-0.1436136 -0.2947618 -0.2552986 0.6207527
00000000: b4f4 4b3e 8c47 173b 056b f4be 4234 29bc
00000010: 78a8 9e3e d833 2f3e 57a4 97be 67ae bc3e
00000020: 3432 3c3f 646e ae3e a796 833e cfd5 47be
00000030: 70c3 9e3d cade 5d3f 1ebe 0c3f 5c55 e8bd
00000040: 720f 13be 05eb 96be 80b6 82be a6e9 1e3f

layers.1.weight f4 [20, 20]
0.22845352 -0.61060697 -0.17283854 -0.7183243 0.28085217 0.1945257 0.54433733 -0.096285984
0.13971898 0.32083616 -0.35073733 -0.32780412 -0.24871483 0.23118713 0.6480052 0.035659432
-1.2060742 -0.44356453 -0.42023504 -0.4462689 0.11253296 0.23153137 0.05660976 0.014030068
0.60727894 0.31080142 0.24361679 -0.10221924 0.22486578 0.49853647 -0.9529061 0.20927867
0.12728326 -0.28809237 -0.3106984 0.12721446 -0.626326 0.2398811 -0.01748713 -0.13172866
0.0627082 -0.008182825 -0.04931269 -0.4166355 -0.3142471 -0.24608518 0.14408518 -0.32775298
-0.13740942 0.094744876 0.22368124 0.108821794 0.7103273 0.25544453 -0.30129862 0.06290887
0.31279793 -0.6219246 0.17660892 -0.1369293 0.24869494 0.15591636 0.75975925 0.098806895
0.41243207 0.050668895 0.2522894 0.14915924 0.10563304 0.25043404 0.06139742 -0.32226703
0.2574691 -0.4270457 0.49749312 -0.040104806 -0.1302163 0.09782436 -0.4208152 0.31169766
-0.12899776 0.10832233 0.12152693 0.074638344 -0.25702268 0.076098725 0.07642237 0.32439432
0.42548046 0.323642 0.092170164 0.15889919 0.21461347 -0.26442885 -0.52385783 -0.276074
0.2603084 -0.034280814 0.22539756 -0.67534536 0.69605315 -0.0684755 0.26365384 -0.0936872
0.73291576 -0.28113014 0.19139177 0.106022395 -0.6345663 0.3795412 -0.1705498 0.52438635
-0.36311528 -0.31385693 -0.18500926 0.19346552 0.6527918 -0.26055664 -0.40632403 0.48963752
-0.3860817 0.32340357 0.40350124 0.4200728 -0.17282826 0.39206403 0.4356259 0.16060765
-0.041020792 -0.12746204 -0.23525721 0.43329743 -0.45316243 -0.24762334 0.95742714 -0.11852367
-0.57992303 -0.39263156 0.1062595 0.36497003 0.11232155 0.3573693 -0.42274007 -0.7816402
0.12782553 0.06356065 0.038174465 -0.1502096 -0.6134067 -0.028154578 -0.18272018 -0.8409001
-0.43170282 0.4841386 -0.042698637 -0.060504112 -0.51538974 -0.14472547 0.54260266 -0.31647614
-0.015596154 0.8719624 0.14788048 0.25486198 0.07013877 0.3798772 -0.03752023 -0.4140966
0.22905734 0.23528649 -0.14032635 -0.31960672 0.2071966 0.3980579 -0.4080203 0.19041097
-0.06410956 -0.46635112 -0.56004494 -1.0632408 -0.29756498 -0.022405988 0.10408177 0.1300533
0.2378336 0.33059362 -0.1225117 0.021887831 -0.4660607 -0.25540897 -0.2788972 -0.5156533
0.022911929 -0.029334584 -0.26379165 -0.2338011 -0.06343193 -0.5227838 -0.3761893 0.39662176
-0.20128304 -0.21325569 0.07775633 -0.23679166 0.31515938 0.27136803 -0.21199772 -0.47871637
0.11312678 -0.24066441 -0.57728577 -0.18539855 0.09309291 -0.10524191 -0.059700344 0.16169052
-0.1897755 -0.120418 0.12712865 0.5056336 -0.13311987 -0.091082335 0.2237607 -0.078350574
0.4767934 0.16614431 -0.18037002 0.13621531 0.55558753 0.109807484 -0.4219471 -0.5146057
0.1114261 -0.13280113 -0.07263295 0.07265185 -0.5301032 0.46159855 -0.39295968 0.23539107
-0.04291244 0.22515716 0.14780235 0.3562107 0.056364 -0.06941215 -0.3687978 0.49137813
0.7149058 -0.061523907 -0.07136367 -0.33785447 0.017539395 0.0029957532 0.530771 -0.0014690029
00000000: b8ef 693e bd50 1cbf 96fc 30be 1ae4 37bf
00000010: dbcb 8f3e bf31 473e b159 0b3f 9631 c5bd
00000020: 7e12 0f3e a344 a43e d893 b3be f1d5 a7be
00000030: 1aaf 7ebe 52bc 6c3e abe3 253f a00f 123d
00000040: a460 9abf e41a e3be 0c29 d7be 5b7d e4be
00000050: ae77 e63d 8f16 6d3e a3df 673d 5fde 653c
00000060: a276 1b3f 5d21 9f3e ae76 793e 5258 d1bd
00000070: 3743 663e 2c40 ff3e a7f1 73bf 264d 563e
00000080: 8b56 023e d880 93be dc13 9fbe 8244 023e
00000090: e756 20bf 64a3 753e 2b41 8fbc e1e3 06be
000000a0: 286d 803d 4111 06bc 1afc 49bd 4051 d5be
000000b0: ffe4 a0be c1fd 7bbe 118b 133e 3dcf a7be
000000c0: 0eb5 0cbe 9a09 c23d b20c 653e f6dd de3d
000000d0: 03d8 353f a0c9 823e d043 9abe 5ed6 803d
000000e0: 0d27 a03e 7336 1fbf f8d8 343e 3237 0cbe
000000f0: e3a9 7e3e 8aa8 1f3e 957f 423f 455b ca3d
00000100: 4c2a d33e 308a 4f3d 142c 813e 33bd 183e
00000110: 2356 d83d e438 803e dc7b 7b3d 2f00 a5be
00000120: fdd2 833e bca5 dabe 6bb7 fe3e f044 24bd
00000130: 6c57 05be 2358 c83d 1775 d7be d696 9f3e
00000140: fd17 04be 19d8 dd3d 1ce3 f83d fddb 983d
00000150: 7a98 83be a6d9 9b3d 5583 9c3d 0317 a63e
00000160: 93d8 d93e 67b4 a53e b6c3 bc3d 78b6 223e
00000170: a2c3 5b3e 3863 87be 8c1b 06bf 9259 8dbe
00000180: 2547 853e 0a6a 0cbd 9ece 663e 6fe3 2cbf
00000190: 8a30 323f e23c 8cbd a3fd 863e 13df bfbd
000001a0: 5ea0 3b3f 4af0 8fbe 34fc 433e 4522 d93d
000001b0: f072 22bf 3953 c23e 9ba4 2ebe 2f3e 063f
000001c0: 3fea b9be dbb1 a0be 1173 3dbe d31b 463e
000001d0: 5d1d 273f ae67 85be b409 d0be c5b1 fa3e
000001e0: 80ac c5be 2795 a53e b797 ce3e c813 d73e
000001f0: e4f9 30be 9ebc c83e 5c0a df3e 5576 243e
00000200: 6b05 28bd 6985 02be 44e7 70be 29d9 dd3e
00000210: e804 e8be f990 7dbe f219 753f 8abc f2bd
00000220: d675 14bf 0107 c9be 959e d93d 5add ba3e
00000230: d708 e63d 1cf9 b63e 6371 d8be 9219 48bf
00000240: b2e4 023e 162c 823d d45c 1c3d 8cd0 19be
00000250: 3908 1dbf 6ea4 e6bc 001b 3bbe 3b45 57bf
00000260: 2708 ddbe 04e1 f73e c4e4 2ebd 29d3 77bd
00000270: 95f0 03bf ea32 14be 02e8 0a3f 2909 a2be
00000280: 0387 7fbc ee38 5f3f fb6d 173e 457d 823e
00000290: eaa4 8f3d 447f c23e d0ae 19bd 7804 d4be
000002a0: 028e 6a3e f1ee 703e b6b1 0fbe 7ea3 a3be
000002b0: 582b 543e 3fce cb3e 09e8 d0be 18fb 423e
000002c0: df4b 83bd 93c5 eebe 1b5f 0fbf 4618 88bf
000002d0: 705a 98be c38c b7bc d328 d53d b12c 053e
000002e0: a78a 733e 9143 a93e 6ae7 fabd 1c4e b33c
000002f0: 829f eebe f7c4 82be 9dcb 8ebe db01 04bf
00000300: ccb1 bb3c 154f f0bc b30f 87be 8e69 6fbe
00000310: 9ae8 81bd 29d5 05bf e29b c0be 0212 cb3e
00000320: 241d 4ebe b35f 5abe b63e 9f3d 8379 72be
00000330: 925c a13e c0f0 8a3e ee15 59be 501a f5be
00000340: 03af e73d bb70 76be 00c9 13bf 1ed9 3dbe
00000350: 7fa7 be3d 1289 d7bd 5988 74bd 3392 253e
00000360: 8254 42be b69d f6bd 032e 023e 3471 013f
00000370: 9350 08be 6089 babd 8621 653e 4476 a0bd
00000380: 441e f43e bc21 2a3e ebb2 38be 077c 0b3e
00000390: fc3a 0e3f bfe2 e03d 7309 d8be 33bd 03bf
000003a0: 5e33 e43d 05fd 07be 96c0 94bd 7eca 943d
000003b0: d8b4 07bf a556 ec3e 0332 c9be 5b0a 713e
000003c0: f4c4 2fbd 998f 663e 8059 173e 4061 b63e
000003d0: f0dd 663d f527 8ebd 11d3 bcbe ea95 fb3e
000003e0: 1104 373f 7e00 7cbd 1e27 92bd 43fb acbe
000003f0: c7ae 8f3c 6654 443b 9ce0 073f 8f8b c0ba

layers.1.bias f4 [20]
0.03689523 0.021290392 -0.0024289738 -0.18271717 0.119189635 -0.02755851 0.04490299 0.25354835
0.19272426 0.04333063 0.18919632 0.07695184 0.3671122 -0.21836725 0.06626609 -0.19122875
-0.015883481 -0.03294427 0.0086284075 -0.065860674
00000000: 741f 173d 3069 ae3c 6b2f 1fbb 361a 3bbe
00000010: b219 f43d 62c2 e1bc 33ec 373d 17d1 813e
00000020: 8259 453e 757b 313d aebc 413e ed98 9d3d
00000030: 21f6 bb3e aa9b 5fbe 84b6 873d 78d1 43be
00000040: 131e 82bc 92f0 06bd 2a5e 0d3c f6e1 86bd

layers.2.weight f4 [20, 20]
-0.35124147 -0.03334367 0.07843681 0.25076672 0.11085112 0.24405654 -0.014318543 -0.19194694
0.37877268 0.4987863 -0.17141289 0.025649896 0.20179234 -0.50827134 -0.26859733 -0.44869944
0.1473516 -0.4455671 0.069571234 -0.09231536 -0.16291289 -0.18921219 -0.054251123 -0.39339587
-0.14030947 -0.17312264 0.20612583 0.113910235 0.22422685 0.21189964 0.12462336 -0.17015883
-0.066789344 0.694396 0.25623265 0.7996979 -0.37243444 0.22626832 0.09416481 -0.18811443
-0.35385656 -0.15873444 0.33943424 0.23565 0.16275476 -0.2704755 0.36179125 0.1839234
-0.4521294 0.08729785 -0.1780691 0.15429343 -0.09613397 0.1283395 0.21086709 -0.14603904
-0.0290403 0.45659676 0.27263522 -0.051967833 0.07272398 0.13210313 -0.46077138 0.02434625
-0.20148958 -0.17340405 0.06858034 -0.65925384 -0.2619058 -0.15014878 -0.071410984 -0.30532596
0.16512819 -0.05179633 0.64078224 -0.14053527 0.095179476 0.026819844 -0.16828932 0.11888786
-0.1420616 0.12203086 -0.1492043 0.120529056 0.008830596 0.33981937 -0.033360805 -0.14641082
0.26832372 0.25869355 -0.40030944 -0.15594634 0.1620636 -0.15427947 0.3357887 0.7158835
0.56300974 0.43508503 0.1870274 -0.007819072 -0.13518436 0.17389905 -0.016274089 -0.39858833
-0.09796352 -0.35076663 0.13164715 -0.35415852 -0.73027825 -0.151729 -0.21431586 -0.10404377
0.060954086 0.11517468 -0.37434155 0.33711523 -0.40676725 0.09538601 0.22098029 0.45187855
0.23157786 -0.66940635 0.02691638 0.24846658 -0.35953063 0.10151226 -0.5332994 0.27032596
-0.20491678 -0.030727025 0.23621865 0.02780389 0.0668194 -0.50886554 0.31782392 0.27876553
-0.15032244 0.5763143 0.26255563 0.5567195 0.3946611 -0.12175367 0.026234228 -0.24938594
-0.026303498 0.032065433 0.77181464 0.5835798 0.31923133 0.23923951 0.16486956 0.11724818
-0.23816149 -0.03983931 -0.4349897 -0.38970822 -0.4987469 -0.17069028 -0.2165371 0.14196323
-0.007403097 -0.046281315 -0.37678707 -0.20789367 0.27178696 -0.17981431 0.4670798 -0.009285934
0.01872536 0.09143233 0.08250637 0.13883433 0.9139818 -0.24640429 0.8651033 -0.114290595
0.0054754666 -0.20331538 0.18285157 0.073220335 -1.0968634 -0.039233558 -0.4630233 -0.8906957
0.00026348906 -0.55849546 0.3680333 0.058694784 -0.15339778 0.0707942 0.20378612 0.06394251
-0.24588034 0.21700178 -0.02735345 -0.18041246 0.040245622 -0.5665081 -0.5609461 -0.37216005
-0.09502471 0.12803203 -0.17281207 0.0769747 -0.20668596 0.095856614 0.123343304 -0.5699461
0.21314222 -0.65383863 0.082257554 -0.2521346 0.25728747 0.37299246 1.2838628 -0.0339694
0.3723989 -0.48305932 0.034772053 0.080168985 -0.12664603 -0.68710995 0.24074733 -0.09916793
-0.2982661 -0.3531898 -0.38961822 -0.45038 -0.052498545 -0.06301243 -0.05378344 -0.53827953
0.03846344 -0.36867234 0.40514562 0.019793594 -0.12712464 0.18055047 0.11908526 -0.485762
-0.0370517 0.15945503 0.44456244 -0.06971538 0.25694528 -0.08985955 0.09035255 0.08506036
0.3616971 -0.5298941 0.5835197 -0.099620245 0.27919307 -0.009823727 -0.33516866 0.08054094
00000000: ecd5 b3be 5f93 08bd 7aa3 a03d 7f64 803e
00000010: e905 e33d f5e9 793e 5298 6abc bd8d 44be
00000020: 7eee c13e eb60 ff3e dc86 2fbe bb1f d23c
00000030: a7a2 4e3e 121e 02bf 9785 89be efbb e5be
00000040: 56e3 163e 5f21 e4be 5d7b 8e3d d60f bdbd
00000050: a3d2 26be d7c0 41be 6d36 5ebd 2f6b c9be
00000060: 49ad 0fbe 1047 31be a612 533e c549 e93d
00000070: b99b 653e 38fc 583e 883a ff3d 1e3e 2ebe
00000080: dac8 88bd f0c3 313f ed30 833e 00b9 4c3f
00000090: baaf bebe e2b2 673e 7bd9 c03d 12a1 40be
000000a0: b02c b5be 488b 22be 53ca ad3e 3c4e 713e
000000b0: 2fa9 263e c47b 8abe b43c b93e 6a56 3c3e
000000c0: 817d e7be 37c9 b23d bf57 36be 19ff 1d3e
000000d0: e3e1 c4bd 6e6b 033e 8bed 573e 428b 15be
000000e0: ece5 edbc 0dc7 e93e d896 8b3e 39dc 54bd
000000f0: 4ff0 943d 0b46 073e 3aea ebbe c971 c73c
00000100: 4953 4ebe d590 31be d973 8c3d dcc4 28bf
00000110: 8418 86be 9ac0 19be ec3f 92bd af53 9cbe
00000120: 5d17 293e 6328 54bd 4e0a 243f 7ae8 0fbe
00000130: 75ed c23d 4ab5 db3c 0954 2cbe 7a7b f33d
00000140: 9978 11be 51eb f93d 03c9 18be f0d7 f63d
00000150: 34ae 103c cefc ad3e 57a5 08bd b8ec 15be
00000160: ba61 893e 7b73 843e 5cf5 ccbe 66b0 1fbe
00000170: 00f4 253e 70fb 1dbe 7fec ab3e 2444 373f
00000180: 6821 103f 77c3 de3e 1c84 3f3e 911b 00bc
00000190: c56d 0abe 9812 323e 3d51 85bc c513 ccbe
000001a0: 19a1 c8bd af97 b3be 83ce 063e 4454 b5be
000001b0: 84f3 3abf d95e 1bbe 9e75 5bbe e614 d5bd
000001c0: feaa 793d b4e0 eb3d b2a9 bfbe 5e9a ac3e
000001d0: cc43 d0be be59 c33d a848 623e a05c e73e
000001e0: bf22 6d3e 375e 2bbf bd7f dc3c 066e 7e3e
000001f0: 6614 b8be a9e5 cf3d 4f86 08bf 2a68 8a3e
00000200: b4d5 51be 3eb7 fbbc 4de3 713e fcc4 e33c
00000210: 9cd8 883d 0345 02bf d1b9 a23e 5bba 8e3e
00000220: 20ee 19be 5589 133f b16d 863e 2b85 0e3f
00000230: 0511 ca3e fd59 f9bd 2ae9 d63c 075f 7fbe
00000240: 6f7a d7bc 0b57 033d a595 453f 7c65 153f
00000250: 4a72 a33e 34fb 743e 91d3 283e d01f f03d
00000260: 9be0 73be 8b2e 23bd f8b6 debe d687 c7be
00000270: c15b ffbe 6fc9 2ebe e7bb 5dbe cf5e 113e
00000280: ae95 f2bb 7a91 3dbd 3cea c0be 14e2 54be
00000290: a927 8b3e 3e21 38be 1525 ef3e 0824 18bc
000002a0: ed65 993c e040 bb3d 1af9 a83d 962a 0e3e
000002b0: b6fa 693f 6851 7cbe 6977 5d3f 3011 eabd
000002c0: 8b6b b33b e831 50be 713d 3b3e 8bf4 953d
000002d0: 0566 8cbf 5eb3 20bd 6411 edbe a204 64bf
000002e0: e724 8a39 8ff9 0ebf dc6e bc3e f169 703d
000002f0: 4f14 1dbe 8dfc 903d 4fad 503e 4af4 823d
00000300: 0ec8 7bbe b735 5e3e 5814 e0bc 0bbe 38be
00000310: 98d8 243d ad06 11bf 2a9a 0fbf c38b bebe
00000320: 519c c2bd d41a 033e a6f5 30be e9a4 9d3d
00000330: 7ca5 53be 7950 c43d 6a9b fc3d fde7 11bf
00000340: f441 5a3e f861 27bf a676 a83d c917 81be
00000350: 2fbb 833e def8 be3e 9e55 a43f 7f23 0bbd
00000360: 12ab be3e 8d53 f7be 246d 0e3d a32f a43d
00000370: 7faf 01be 70e6 2fbf 7886 763e 8e18 cbbd
00000380: 56b6 98be 4bd5 b4be 0a7c c7be 3598 e6be
00000390: b708 57bd a90c 81bd 064c 5cbd b0cc 09bf
000003a0: d78b 1d3d 9fc2 bcbe 3f6f cf3e 2d26 a23c
000003b0: f62c 02be 39e2 383e f9e2 f33d ccb5 f8be
000003c0: 86c3 17bd 2e48 233e b09d e33e f0c6 8ebd
000003d0: 558e 833e 4908 b8bd c20a b93d 2034 ae3d
000003e0: 5d30 b93e 24a7 07bf 8c61 153f b305 ccbd
000003f0: 65f2 8e3e b3f3 20bc 3a9b abbe a6f2 a43d

layers.2.bias f4 [20]
0.23544571 -0.044080805 0.06560918 -0.21874273 0.004259442 -0.24167979 -0.038349085 -0.017897695
0.25250283 0.19977207 -0.08562718 -0.083734706 -0.18741558 0.0331551 0.19651659 -0.021422224
-0.19794476 -0.018749164 -0.047717918 -0.05366386
00000000: ae18 713e 138e 34bd 1b5e 863d 18fe 5fbe
00000010: ca92 8b3b e87a 77be ee13 1dbd 309e 92bc
00000020: 0d48 813e 0d91 4c3e 4e5d afbd 1a7d abbd
00000030: dfe9 3fbe a4cd 073d a53b 493e a97d afbc
00000040: 08b2 4abe d997 99bc dd73 43bd a3ce 5bbd

layers.3.weight f4 [20, 20]
0.32859647 0.03662051 -0.06331325 0.2577844 -0.31678307 0.338553 0.0131315 -0.62205577
-0.5520013 -0.24778603 0.17066638 0.5655815 -0.22898167 0.18200101 -0.082061544 0.023430483
0.47783306 -0.11242205 -0.5329812 -0.38560972 -0.118193604 0.32270086 -0.27665493 -0.16381893
-0.30555055 -0.35281408 0.041430734 0.3166526 -0.5169129 0.3731421 0.0033439351 -0.015762327
-0.2939967 0.01132996 0.021675555 -0.2602689 0.47661877 0.10821397 -0.25283268 -0.08265939
-0.30273592 -0.41415867 -0.09116121 -0.70358396 0.5849035 -0.46762705 0.5171065 0.61840516
-0.17227346 -0.28674835 -0.06787684 -0.2874626 0.13112934 -0.0801344 0.14939168 0.44479668
-0.09147302 -0.7689738 0.10208291 -0.06875805 -0.12167985 -0.03424441 0.70106775 0.13883924
-0.3522405 -0.11397886 0.25357977 0.3165962 -0.2718158 -0.69353646 -0.04216339 0.06410419
-0.034593828 -0.043305416 -0.10577877 -0.006868858 0.18289044 -0.016723119 0.10739902 -0.3525807
0.21807836 0.27632186 -0.29515 -0.027881581 0.071053185 -0.15244265 -0.48202753 -0.06569573
0.042429805 0.31871426 -0.39476377 -0.28261 0.13449906 -0.16800064 0.071398646 -0.14530052
-0.37113073 -0.21708386 0.25012386 -0.21675423 -0.18883418 0.35041773 0.33835062 -0.22428699
0.023984212 0.5014168 -0.105517514 0.10325839 -0.5840862 -0.21375617 -0.2519454 0.0022734574
-0.4508239 -0.32128316 -0.3790959 0.019186245 -0.29278243 -0.15589349 0.39042693 0.10801885
0.8591562 0.076356396 0.23131375 -0.41875097 -0.16347669 -0.13616894 0.42528617 0.3279572
-0.19026285 0.31879285 0.39362067 -0.27459022 0.47080413 0.194117 0.8119248 -0.3690499
0.033908326 -0.12947576 -0.18992122 0.29209223 -0.16081868 0.14202027 0.18943468 0.31557047
0.11279329 0.23044108 -0.1894662 -0.17748483 -0.38057667 0.4220363 0.10878107 0.30202526
-0.19198121 -0.07391029 0.020310637 -0.25388527 -0.12094802 -0.06595263 -0.25081345 -0.12952162
-0.24132678 -0.17800972 -0.061620563 -0.057056516 -0.23287211 0.013375914 -0.23419115 0.40392962
0.25085354 -0.310231 0.2580645 0.07426815 0.19528875 -0.3993884 -0.4576329 0.26437974
-0.2695026 0.10188492 0.08547664 -0.13861278 -0.23426946 -0.53815556 0.37666002 0.23451133
-0.22069795 0.21215698 0.2836603 0.19868867 0.1835612 -0.83029765 -0.16266294 0.13612732
-0.4136044 -0.34748918 0.2816886 0.3249882 0.20595561 0.54118484 -0.049154818 0.22114612
0.3653332 0.54499406 -0.25174776 -0.34666586 0.2859439 -0.22958319 0.4322042 -0.10804208
-0.03370072 0.3460603 0.27485114 0.4371561 -0.13487513 -0.14823 0.29546976 -0.050385788
-0.09058216 -0.15864661 -0.40318915 -0.15827438 0.1420539 -0.067866914 -0.0014305626 -0.017545186
0.16254467 -0.20115937 -0.4480377 0.17911774 0.053334188 -0.05035821 0.09617146 0.10137638
-0.40419784 -0.29143307 -0.440357 -0.020760322 0.18744683 -0.0007989848 0.044531804 -0.17420572
0.19741885 0.16543299 -0.21769132 -0.21695222 0.19879735 0.19451651 0.81075287 0.34908217
0.2422492 -0.30850852 0.11943314 0.4179009 -0.09845921 0.26312906 -0.2246254 -0.13132772
00000000: cc3d a83e 63ff 153d 61aa 81bd 51fc 833e
00000010: 6431 a2be d256 ad3e 8125 573c 0c3f 1fbf
00000020: f54f 0dbf 9fbb 7dbe 2bc3 2e3e f3c9 103f
00000030: 2c7a 6abe 795e 3a3e e20f a8bd 49f1 bf3c
00000040: 89a6 f43e 883d e6bd 7571 08bf a36e c5be
00000050: 7d0f f2bd 0c39 a53e b7a5 8dbe 26c0 27be
00000060: 1f71 9cbe 0ca4 b4be 46b3 293d 4a20 a23e
00000070: 6754 04bf 7b0c bf3e ec25 5b3b ff1f 81bc
00000080: bc86 96be 4ca1 393c ef90 b13c f741 85be
00000090: 6007 f43e 499f dd3d 4973 81be 5449 a9bd
000000a0: 3400 9bbe 9b0c d4be bab2 babd 141e 34bf
000000b0: 3cbc 153f d06c efbe 1761 043f cd4f 1e3f
000000c0: 7468 30be aed0 92be 0303 8bbd 4c2e 93be
000000d0: c546 063e 811d a4bd 22fa 183e 64bc e33e
000000e0: 3556 bbbd 78db 44bf d810 d13d 05d1 8cbd
000000f0: 4933 f9bd de43 0cbd 2d79 333f e02b 0e3e
00000100: de58 b4be c06d e9bd 35d5 813e e618 a23e
00000110: 712b 8bbe 9b8b 31bf 85b3 2cbd 0f49 833d
00000120: 42b2 0dbd 0561 31bd 8aa2 d8bd 2814 e1bb
00000130: a247 3b3e ecfe 88bc 04f4 db3d 7585 b4be
00000140: ef4f 5f3e 0f7a 8d3e e71d 97be ea67 e4bc
00000150: 5584 913d ed19 1cbe 50cc f6be 7c8b 86bd
00000160: e0ca 2d3d 842e a33e 7a1e cabe 42b2 90be
00000170: 1fba 093e 5c08 2cbe 7439 923d a9c9 14be
00000180: d904 bebe 3b4b 5ebe 3c10 803e d2f4 5dbe
00000190: bf5d 41be f469 b33e 4b3c ad3e 7dab 65be
000001a0: 8a7a c43c da5c 003f 9119 d8bd 2379 d33d
000001b0: ac86 15bf e6e2 5abe fdfe 80be 49fe 143b
000001c0: 64d2 e6be 3a7f a4be dc18 c2be 792c 9d3c
000001d0: 94e7 95be 8ba2 1fbe 0ae6 c73e fd38 dd3d
000001e0: a9f1 5b3f be60 9c3d 83dd 6c3e 8766 d6be
000001f0: 6f66 27be df6f 0bbe 1cbf d93e 02ea a73e
00000200: 44d4 42be d138 a33e a688 c93e 1797 8cbe
00000210: 3d0d f13e 9bc6 463e 4eda 4f3f 1cf4 bcbe
00000220: 75e3 0a3d 4b95 04be b57a 42be 1d8d 953e
00000230: a7ad 24be c36d 113e 2afb 413e 7492 a13e
00000240: 2b00 e73d bff8 6b3e 6d03 42be 95be 35be
00000250: f2da c2be 2415 d83e 9cc8 de3d 0ea3 9a3e
00000260: b996 44be 475e 97bd 7e62 a63c 40fd 81be
00000270: 98b3 f7bd 2c12 87bd 9f6a 80be 51a1 04be
00000280: 5e1e 77be 2e48 36be d865 7cbd 18b4 69bd
00000290: 0776 6ebe a626 5b3c cecf 6fbe ddcf ce3e
000002a0: e06f 803e 99d6 9ebe 0821 843e e619 983d
000002b0: c6f9 473e a37c ccbe dc4e eabe c85c 873e
000002c0: 3ffc 89be 0aa9 d03d 600e af3d 82f0 0dbe
000002d0: 55e4 6fbe 90c4 09bf 95d9 c03e bd23 703e
000002e0: a5fe 61be ae3f 593e ec3b 913e 0b75 4b3e
000002f0: 78f7 3b3e 638e 54bf 1d91 26be f664 0b3e
00000300: f5c3 d3be 1aea b1be 7d39 903e da64 a63e
00000310: 07e6 523e 178b 0a3f 9056 49bd 2174 623e
00000320: f40c bb3e bb84 0b3f 15e5 80be 307e b1be
00000330: 3d67 923e db17 6bbe de49 dd3e 2b45 ddbd
00000340: c409 0abd d12e b13e 4ab9 8c3e edd2 df3e
00000350: b51c 0abe 9bc9 17be d047 973e 5461 4ebd
00000360: 2483 b9bd 4274 22be cf6e cebe ae12 22be
00000370: 9476 113e cffd 8abd b781 bbba ecba 8fbc
00000380: 1c72 263e b9fc 4dbe 3365 e5be a46a 373e
00000390: f374 5a3d 6944 4ebd 8bf5 c43d 6b9e cf3d
000003a0: 05f3 cebe b736 95be 7976 e1be 8d11 aabc
000003b0: 10f2 3f3e f672 51ba fb66 363d fc62 32be
000003c0: 2b28 4a3e 4467 293e 79ea 5ebe b928 5ebe
000003d0: 8891 4b3e 562f 473e 808d 4f3f e6ba b23e
000003e0: 2d10 783e d4f4 9dbe 5d99 f43d 1bf7 d53e
000003f0: fba4 c9bd dab8 863e 3304 66be c67a 06be

layers.3.bias f4 [20]
-0.023134518 -0.024956925 0.18733782 0.05660461 0.104848295 0.19533238 0.06776583 -0.03518493
0.04317085 -0.0885775 0.0069219456 -0.033588063 0.020821985 -0.07996117 0.18703501 0.08411175
0.123540655 -0.22312339 -0.48751336 -0.11878938
00000000: 9a84 bdbc 7772 ccbc 7cd5 3f3e 3cda 673d
00000010: b4ba d63d 3605 483e d0c8 8a3d 131e 10bd
00000020: ebd3 303d 1f68 b5bd 7dd1 e23b a393 09bd
00000030: de92 aa3c afc2 a3bd 1b86 3f3e c842 ac3d
00000040: e202 fd3d 757a 64be 5a9b f9be d947 f3bd

layers.4.weight f4 [20, 20]
-0.30876458 0.04006419 -0.13408992 0.018310005 -0.04502414 -0.060097028 0.109862186 0.21275805
0.082730584 -0.11050414 -0.20721617 -0.16143669 -0.18882802 0.3832278 0.39472026 -0.29249132
0.3181524 -0.5787486 0.08054459 0.13772352 -0.27674347 -0.39268026 -0.19842777 -0.72159904
-0.029676462 -0.3404859 -0.27684194 -0.18103434 -0.08580825 0.26094148 0.15800467 0.011389375
0.14094447 -0.07480359 0.33799478 -0.36783952 0.06377906 -0.24955916 0.13678734 -0.18451476
0.018845307 0.066195495 -0.30460426 0.07103589 -0.10810727 -0.18216223 0.29189685 0.10087138
-0.25553927 -0.08782632 0.39238697 -0.2990312 -0.0945221 -0.26212874 -0.11683626 0.034111626
-0.2805205 0.0901795 0.3155563 -0.29287368 0.15446265 0.20800155 -0.0351042 -0.5549142
-0.356361 -0.18939571 0.4740943 -0.099016145 -0.49083704 -0.45420355 0.60000944 -0.25924307
-0.010450569 -0.058907766 0.20092008 -0.03418817 0.060607255 -0.027885236 0.24041046 0.041979097
0.11444813 0.26459283 -0.020078082 -0.45027947 0.09608314 -0.13426039 0.03467971 -0.10757522
-0.38872007 0.029409254 -0.091017775 -0.164774 -0.041615706 -0.22078189 -0.29154196 -0.3442895
0.09306405 0.101268545 -0.4256635 0.34562254 -0.16058531 0.12359159 0.5244114 -0.29196447
0.20276842 -0.18536294 0.04992483 -0.005983321 -0.4220007 -0.20410915 -0.00847255 -0.09832885
-0.1698327 -0.32556918 -0.107742734 0.20186076 0.392002 -0.3196778 0.5287377 -0.32265761
0.09131091 -0.12015735 -0.27103162 -0.2627671 0.2532871 0.02026129 -0.37000528 -0.32845917
-0.2690429 -0.3752405 0.21393828 0.1760857 0.4483926 -0.2827667 -0.3036609 0.1012163
0.38464808 0.4305553 -0.42754814 -0.02457445 -0.75831884 0.0057723513 -0.025481299 0.14933366
0.18040147 -0.04342782 0.35013413 -0.38393086 -0.017762914 0.14497425 -0.30272713 0.08662762
0.23026067 -0.31019744 0.0608082 -0.1495732 0.06725442 -0.62927437 -0.16535047 0.028233847
-0.43021917 -0.5028417 0.10702309 0.24239816 0.09385357 -0.2814975 -0.112642795 -0.17500338
-0.18078867 0.46478534 -0.3028003 -0.15415858 0.19256577 -0.45326108 0.49809158 -0.4193046
0.17939746 -0.057377513 -0.1966557 0.27957594 -0.13076122 -0.2700977 -0.4244698 0.090320334
-0.7861743 0.16720696 0.528664 0.16123247 -0.46137524 -0.022485241 0.17662014 0.22072978
0.27916202 0.20819639 0.23724431 -0.5506479 0.16196927 -0.09588279 -0.56575036 0.39675432
-0.7011344 -0.18363813 0.21536413 -0.32191724 0.48043507 0.07558141 -0.106781885 -0.18908179
-0.13083096 0.014080975 -0.09762163 0.2214729 -0.4734321 0.601152 -0.10579059 -0.1466296
0.13682602 0.26764515 0.19648015 0.5497345 -0.14677884 -0.64577127 -0.0040005865 0.15982564
0.2890271 0.10995363 -0.025064182 -0.20762803 0.16956276 0.043963045 0.13138857 0.20551479
-0.08237977 0.18633607 -0.3066003 0.050055057 0.33927482 0.29383633 -0.39875844 0.25737354
0.5227366 -0.18434697 0.1217727 0.3327515 0.18026952 0.10473141 -0.4801418 -0.050180238
0.17941086 -0.58849376 0.08119833 0.22069088 -0.36473373 0.33298838 0.43505928 -0.16463107
00000000: 6416 9ebe 591a 243d de4e 09be ddfe 953c
00000010: 3c6b 38bd 4d28 76bd 6dff e03d 3fdd 593e
00000020: a76e a93d ff4f e2bd 7a30 54be a94f 25be
00000030: 225c 41be 6f36 c43e c618 ca3e 6cc1 95be
00000040: dfe4 a23e de28 14bf 90f4 a43d 6507 0d3e
00000050: 52b1 8dbe 630d c9be a630 4bbe b7ba 38bf
00000060: 0d1c f3bc 2b54 aebe 3abe 8dbe 1161 39be
00000070: 3cbc afbd 1f9a 853e facb 213e 809a 3a3c
00000080: bf53 103e a032 99bd a70d ad3e 7655 bcbe
00000090: 999e 823d 708c 7fbe fb11 0c3e 70f1 3cbe
000000a0: 7961 9a3c 8191 873d 17f5 9bbe 447b 913d
000000b0: 5867 ddbd bc88 3abe 8173 953e a795 ce3d
000000c0: 0bd6 82be 49de b3bd f2e6 c83e 9e1a 99be
000000d0: ce94 c1bd bd35 86be d947 efbd a2b8 0b3d
000000e0: 62a0 8fbe 08b0 b83d 9890 a13e 8af3 95be
000000f0: 752b 1e3e 5cfe 543e 6cc9 0fbd db0e 0ebf
00000100: f374 b6be f3f0 41be 7dbc f23e fac8 cabd
00000110: fe4e fbbe 5e8d e8be 389a 193f 82bb 84be
00000120: dd38 2bbc 4549 71bd febd 4d3e e508 0cbd
00000130: 503f 783d 946f e4bc 292e 763e 46f2 2b3d
00000140: c863 ea3d b678 873e ca7a a4bc 088b e6be
00000150: 3dc7 c43d 8e7b 09be 500c 0e3d 6650 dcbd
00000160: 5106 c7be adeb f03c 8767 babd 84ba 28be
00000170: 3b75 2abd a614 62be fd44 95be b746 b0be
00000180: 5d98 be3d e265 cf3d 91f0 d9be 70f5 b03e
00000190: 7a70 24be 961d fd3d d33f 063f 5e7c 95be
000001a0: 86a2 4f3e c8cf 3dbe fb7d 4c3d bc0f c4bb
000001b0: 7a10 d8be fd01 51be 73d0 0abc a360 c9bd
000001c0: a0e8 2dbe 01b1 a6be 39a8 dcbd 96b4 4e3e
000001d0: 7cb4 c83e cfac a3be 5b5b 073f 6133 a5be
000001e0: 3701 bb3d 0f15 f6bd a8c4 8abe 6989 86be
000001f0: d9ae 813e 01fb a53c 5571 bdbe cd2b a8be
00000200: febf 89be 861f c0be a312 5b3e cf4f 343e
00000210: b793 e53e ccc6 90be 7179 9bbe 7e4a cf3d
00000220: 98f0 c43e bf71 dc3e 97e7 dabe 5b50 c9bc
00000230: 2f21 42bf fe25 bd3b 28be d0bc ecea 183e
00000240: 2abb 383e 5fe1 31bd c844 b33e 9692 c4be
00000250: 8883 91bc 2174 143e 0dff 9abe d269 b13d
00000260: 74c9 6b3e 33d2 9ebe 0512 793d b829 19be
00000270: afbc 893d 2018 21bf a251 29be ab4a e73c
00000280: b045 dcbe 3cba 00bf ec2e db3d 3937 783e
00000290: 4d36 c03d 7120 90be 44b1 e6bd 1634 33be
000002a0: aa20 39be 58f8 ed3e a408 9bbe bfdb 1dbe
000002b0: f62f 453e d611 e8be dc05 ff3e 18af d6be
000002c0: f8b3 373e af04 6bbd 1d60 49be 9424 8f3e
000002d0: 45e6 05be 3f4a 8abe 1b54 d9be def9 b83d
000002e0: b842 49bf 4d38 2b3e 8656 073f 201a 253e
000002f0: 6039 ecbe f832 b8bc e9db 343e fd06 623e
00000300: 53ee 8e3e 6f31 553e 2cf0 723e 43f7 0cbf
00000310: 46db 253e 325e c4bd 04d5 10bf 6223 cb3e
00000320: 8b7d 33bf a20b 3cbe 6a88 5c3e 56d2 a4be
00000330: 96fb f53e 6dca 9a3d 76b0 dabd a89e 41be
00000340: 8df8 05be e4b3 663c d9ed c7bd cbc9 623e
00000350: b165 f2be 19e5 193f bda8 d8bd 1226 16be
00000360: 1f1c 0c3e c908 893e 1832 493e 66bb 0c3f
00000370: 314d 16be 4451 25bf 5a17 83bb 55a9 233e
00000380: 5cfb 933e 5e2f e13d 6653 cdbc 719c 54be
00000390: dca1 2d3e 9812 343d ba8a 063e 7872 523e
000003a0: bab6 a8bd e2ce 3e3e b7fa 9cbe 8806 4d3d
000003b0: 6eb5 ad3e b771 963e 112a ccbe 77c6 833e
000003c0: 11d2 053f 74c5 3cbe f763 f93d 685e aa3e
000003d0: 9398 383e 6c7d d63d 25d5 f5be cb89 4dbd
000003e0: 7bb7 373e 87a7 16bf 4f4b a63d cafc 613e
000003f0: 61be babe 747d aa3e 17c0 de3e 0c95 28be

layers.4.bias f4 [20]
0.16684435 0.06828745 -0.16059826 0.042136036 -0.014721125 -0.020111542 -0.120091684 0.0079042865
0.096985266 0.17797504 -0.3498987 0.20594937 0.20283757 -0.041687097 -0.0049574436 -0.047363497
-0.17855497 -0.024421882 -0.04552569 -0.102067925
00000000: 3fd9 2a3e 4ada 8b3d df73 24be d696 2c3d
00000010: e030 71bc f6c0 a4bc a1f2 f5bd fb80 013c
00000020: 36a0 c63d 173f 363e ec25 b3be 64e4 523e
00000030: a7b4 4f3e 17c0 2abd 0d72 a2bb 3a00 42bd
00000040: 1dd7 36be 6610 c8bc 2579 3abd fd08 d1bd

layers.5.weight f4 [20, 20]
0.1838333 0.23240028 -0.00033257337 -0.18494552 -0.09847477 0.4179312 0.044262424 0.19387281
-0.4243317 -0.10359526 -0.26745334 -0.19510497 -0.3526784 0.16548818 0.3001503 -0.33065495
-0.53523076 0.074590325 0.3867149 -0.5235292 -0.46170253 -0.038950548 0.2946562 -0.22200032
0.067917004 -0.2339374 0.71669865 -0.090509854 -0.30102834 -0.32988682 -0.6442234 -0.09800613
0.15825108 -0.24762833 0.56431764 -0.32182562 0.23185764 -0.42018232 0.17066923 0.08863497
-0.4247367 -0.13097748 -0.0190292 -0.38054538 -0.20289633 -0.14480683 0.2844706 -0.27326292
-0.53348106 -0.6677545 -0.44480783 0.3076604 -0.33242708 -0.09884022 0.43950087 -0.15287964
-0.005008303 0.117523946 -0.4929349 -0.06576332 0.13221443 -0.10454947 0.096571885 0.29475433
0.3101704 0.23405343 0.4640857 -0.36979067 0.36408442 -0.12791702 -0.26294887 0.19831541
-0.30129346 -0.31275246 0.17927846 -0.110555366 -0.46496674 0.14979607 -0.10913491 0.110417545
-0.06070586 -0.23179707 0.117399156 0.063784085 -0.39456108 0.3078534 0.13693164 0.31420287
0.1829079 -0.21669939 0.23941366 -0.12779877 0.23165089 0.02606813 -0.3154299 0.035782088
0.14294302 -0.11098515 0.4556183 -0.085889444 -0.8484844 -0.15998651 0.24772549 0.5894271
0.09873289 -3.4334695e-05 0.08172717 0.06105702 -0.68049306 -0.052110467 -0.730473 0.093164235
-0.03811346 0.7243887 -0.10541599 0.038256682 -0.08202086 -0.15876263 -0.14276962 -0.7360534
-0.20015423 -0.19765538 0.2093442 -0.43316868 -0.10518907 -0.5107257 0.20830992 -0.25336683
0.36978078 0.0057268245 0.05781371 0.05117655 0.05556327 -0.40978962 0.009993465 0.10291953
-0.539592 0.0055252723 -0.5861747 0.3484654 -0.6640021 0.08104034 0.22718894 0.45641035
0.19744442 -0.091719024 0.22202946 -0.29163238 -0.040218223 -0.08318086 -0.094135575 -0.27729547
0.069183305 -0.21997356 -0.17805678 -0.12229111 0.19813521 -0.1337594 -0.27060965 -0.06513662
0.07278854 0.13678643 -0.025964206 -0.2572666 -0.12782407 0.29944015 -0.47662437 0.10822306
-0.13560979 0.078820184 -0.27889416 -0.046793744 -0.30021897 0.5440444 -0.37117812 0.16079089
0.18761413 0.06445407 -0.32636258 -0.090834245 -0.21083981 -0.17161521 -0.28702667 0.124376945
0.4765089 -0.0697943 0.11168548 0.22593379 -0.31977177 0.30771732 0.22088791 0.26128978
-0.022308705 -0.18750702 -0.21747889 0.32024112 0.12719353 0.056505185 0.122766644 -0.11862974
-0.8111079 -0.70096254 0.29236618 -0.34490433 -0.015873546 -0.19212769 0.25351262 -0.18745725
-0.23909797 -0.2910779 0.100483954 0.058819827 -0.15380634 -0.13641241 -0.22751313 -0.048077486
0.23368284 -0.06604828 0.03569793 0.24714698 0.1165907 -0.31556547 -0.071499325 -0.26615274
0.023938812 -0.102984466 -0.27104932 0.68374926 0.34732598 0.21571691 0.0701281 0.07640258
-0.02612688 -0.37995407 0.3474323 -0.19314726 0.4500761 -0.052845553 -0.5225981 0.28436822
-0.17179018 -0.1030198 -0.14183518 -0.05312979 -0.002092692 -0.115507334 -0.005469645 0.47109663
0.07311781 0.3958918 0.27511725 0.15998247 -0.03358302 -0.035967477 0.04361767 -0.5260254
00000000: cc3e 3c3e 57fa 6d3e 3e5d aeb9 5c62 3dbe
00000010: 24ad c9bd 14fb d53e 844c 353d 9886 463e
00000020: 0142 d9be c029 d4bd a5ef 88be 99c9 47be
00000030: 4392 b4be bc75 293e 4dad 993e 9b4b a9be
00000040: e204 09bf d0c2 983d 7fff c53e 0206 06bf
00000050: 4664 ecbe 9c8a 1fbd 2ddd 963e 0d54 63be
00000060: 1218 8b3d 498d 6fbe 9079 373f 3b5d b9bd
00000070: 6320 9abe ede6 a8be d3eb 24bf 70b7 c8bd
00000080: 920c 223e 4892 7dbe 1f77 103f 54c6 a4be
00000090: 176c 6d3e 2322 d7be eac3 2e3e 4086 b53d
000000a0: 1777 d9be f61e 06be 20e3 9bbc d8d6 c2be
000000b0: 0ec4 4fbe 3e48 14be 21a6 913e 1ee9 8bbe
000000c0: 3792 08bf f5f1 2abf dabd e3be aa85 9d3e
000000d0: e233 aabe be6c cabd 4206 e13e 7b8c 1cbe
000000e0: b11c a4bb 65b0 f03d f761 fcbe ebae 86bd
000000f0: 3863 073e 081e d6bd 7bc7 c53d 0aea 963e
00000100: a8ce 9e3e b4ab 6f3e a49c ed3e 3455 bdbe
00000110: 4669 ba3e aefc 02be 3ca1 86be 3213 4b3e
00000120: 2343 9abe 1721 a0be c694 373e da6a e2bd
00000130: 1f10 eebe 2464 193e 2082 dfbd 9822 e23d
00000140: b5a6 78bd 365c 6dbe f86e f03d 3ba1 823d
00000150: e903 cabe f69e 9d3e cf37 0c3e 33df a03e
00000160: 354c 3b3e 72e6 5dbe db28 753e aedd 02be
00000170: e435 6d3e d58c d53c 0780 a1be 3d90 123d
00000180: a85f 123e 2f4c e3bd cd46 e93e cee6 afbd
00000190: 4636 59bf 81d3 23be c0ab 7d3e b2e4 163f
000001a0: 7834 ca3d 9902 10b8 9360 a73d ed16 7a3d
000001b0: cb34 2ebf c971 55bd 4700 3bbf e4cc be3d
000001c0: dc1c 1cbd 8a71 393f 57e4 d7bd 0ab3 1c3d
000001d0: 8dfa a7bd ac92 22be 3332 12be ff6d 3cbf
000001e0: 3bf5 4cbe 2c66 4abe 535e 563e 49c8 ddbe
000001f0: 5e6d d7bd ebbe 02bf 324f 553e 4cb9 81be
00000200: e853 bd3e 16a8 bb3b 12ce 6c3d 819e 513d
00000210: 5096 633d f2cf d1be a1bb 233c 79c7 d23d
00000220: b422 0abf 580d b53b 8c0f 16bf 0f6a b23e
00000230: 0bfc 29bf 7af8 a53d 38a4 683e 9eae e93e
00000240: df2e 4a3e 2fd7 bbbd b15b 633e d750 95be
00000250: ddbb 24bd ba5a aabd 27ca c0bd acf9 8dbe
00000260: faaf 8d3d c040 61be 8454 36be c373 fabd
00000270: f5e3 4a3e 39f8 08be 598d 8abe 5966 85bd
00000280: 2812 953d be11 0c3e e3b2 d4bc 73b8 83be
00000290: 50e4 02be 3850 993e 1c08 f4be 0da4 dd3d
000002a0: 4bdd 0abe 7a6c a13d 37cb 8ebe ccaa 3fbd
000002b0: 4db6 99be 7e46 0b3f 0f0b bebe 5ea6 243e
000002c0: eb1d 403e 7f00 843d ff18 a7be 4e07 babd
000002d0: 64e6 57be e6bb 2fbe 29f5 92be 57b9 fe3d
000002e0: f9f8 f33e 50f0 8ebd 5bbb e43d 305b 673e
000002f0: 20b9 a3be 208d 9d3e 7130 623e c6c7 853e
00000300: bfc0 b6bc d701 40be c9b2 5ebe a5f6 a33e
00000310: 053f 023e fb71 673d 146d fb3d 26f4 f2bd
00000320: c4a4 4fbf 4872 33bf 05b1 953e 4d97 b0be
00000330: 3d09 82bc 1fbd 44be 68cc 813e cbf4 3fbe
00000340: 19d6 74be 2a08 95be 88ca cd3d 0fed 703d
00000350: 697f 1dbe b2af 0bbe 34f9 68be e6ec 44bd
00000360: 8e4a 6f3e 5244 87bd fe37 123d 1914 7d3e
00000370: 1bc7 ee3d cc91 a1be 3d6e 92bd 2c45 88be
00000380: 541b c43c 85e9 d2bd fac6 8abe 310a 2f3f
00000390: b6d4 b13e e5e4 5c3e 529f 8f3d f578 9c3d
000003a0: 0a08 d6bc 5789 c2be a5e2 b13e 65c8 45be
000003b0: 6070 e63e 9474 58bd fdc8 05bf b698 913e
000003c0: c4e9 2fbe 0bfc d2bd 3e3d 11be 9f9e 59bd
000003d0: 8c25 09bb 1c8f ecbd b53a b3bb 9433 f13e
000003e0: cabe 953d 54b2 ca3e 2bdc 8c3e 72d2 233e
000003f0: 598e 09bd a252 13bd 71a8 323d 9aa9 06bf

layers.5.bias f4 [20]
0.025015982 -0.23195407 0.046066433 0.15971461 -0.0712142 0.221803 0.108134136 -0.28206244
-0.07430986 -0.07152906 -0.24710616 0.21192999 0.09989049 -0.33137095 0.23506069 -0.17662324
-0.19735333 -0.16275145 0.12516798 -0.07381062
00000000: 51ee cc3c 5e85 6dbe 28b0 3c3d 3a8c 233e
00000010: c0d8 91bd 5320 633e 6e75 dd3d 7d6a 90be
00000020: c52f 98bd d47d 92bd 6609 7dbe 2d04 593e
00000030: 6393 cc3d 74a9 a9be c0b3 703e b9dc 34be
00000040: fe16 4abe 51a8 26be 092c 003e 062a 97bd

layers.6.weight f4 [20, 20]
0.0027535695 0.06761021 0.01933003 0.0996885 -0.5832661 0.18338943 -0.024566138 0.34717494
-0.29290485 0.33751002 0.9162747 -0.18908516 -0.032588072 0.08627136 -0.4842147 0.49239057
0.015719466 0.1397017 0.09757054 -0.070022404 -0.05189941 0.004441062 0.12516443 -0.42085356
-0.42791224 0.0070444867 0.6559436 0.60708356 0.15469232 0.056880437 0.23664635 0.54773647
0.2995802 -0.28565967 0.26769298 0.31415325 0.47268027 -0.3265434 -0.688802 0.24948464
0.037019614 -0.4559152 -0.04030279 0.4049662 0.11397331 0.3752003 0.1252173 -0.058916513
0.1813424 0.014720586 -0.07767997 -0.42723742 0.37187722 0.30586785 0.49797186 0.5366011
-0.54502594 -0.008235223 0.1051476 -0.76528895 -0.1001684 -0.07528238 -0.22468743 -0.55684966
0.14084199 -0.06600123 -0.19560373 0.33805057 0.020510474 0.3126503 -0.11314548 0.2290249
0.12827215 0.37204048 -0.3182979 -0.046453476 0.12885176 -0.1067756 0.025678076 -0.0005388765
-0.1717157 -0.4129406 0.028214788 -0.12677644 0.092097335 0.24486746 0.08917602 -0.2739042
-0.18810195 -0.09482294 0.35057172 -0.019439364 -0.055617906 0.8217724 -0.12100046 -0.18887047
-0.08187575 0.026535187 -0.054421782 -0.17529105 -0.13761818 -0.0009106963 0.24249232 0.29372668
0.036113277 -0.06503343 0.48587635 -0.1693749 0.0150558865 -0.25191462 -0.43286526 0.1362698
0.17938451 -0.090308025 0.19953112 -0.068882 -0.3404607 0.057951666 -0.057802703 0.28388828
-0.18095466 -0.09278986 0.27844268 -0.18123825 0.119639836 -0.03929232 0.15865068 0.288569
-0.14643016 -0.07979656 0.42319515 0.06589136 0.1676845 -0.19039994 0.24491602 0.2212774
-0.04410245 0.08055563 0.5109475 0.24850096 0.12939747 0.3085688 -0.03896976 -0.15346137
0.08548871 0.20814371 -0.3133064 0.14681925 0.21655598 -0.14842384 -0.1882609 0.015555616
-0.16525103 0.23124994 -0.09134895 -0.36601743 -0.2156426 0.4201417 0.20794933 0.051821705
-0.051214576 0.18420792 0.48403934 0.0052741645 -0.08442305 -0.59192723 0.1410822 0.41810903
0.05174669 -0.22065859 -0.30037302 -0.077001214 0.38224027 0.55466646 -0.011953249 -0.4295968
-0.040754274 0.40277618 -0.04885052 -0.21943101 0.36495313 -0.65810686 -0.33487663 -0.3037668
-0.14693469 -0.04396538 -0.26471046 -0.39580888 0.039994467 0.23033689 0.30550328 -0.09650178
-0.49171758 -0.39315313 -0.03295313 0.14697237 -0.15169333 0.15098724 0.03602782 -0.3417527
-0.0500593 -0.1514048 -0.69360936 -0.061460547 0.18617935 -0.6812081 -0.46174514 -0.47709444
0.022203168 -0.13440147 -0.014443008 0.43676713 0.18609773 0.07821083 -0.27798948 -0.0352536
0.11294995 -0.13790965 0.030753618 -0.25388885 -0.54824555 0.09340224 -0.075749286 0.39243802
-0.046926923 -0.19756119 0.15395866 0.06050063 0.04025224 0.25539732 0.01691648 -0.09702131
0.051883828 0.46416318 -0.1321268 0.24687603 -0.04698916 -0.30959746 -0.2064322 -0.086623974
-0.069883935 -0.36604235 -0.047644623 -0.4405196 0.21406238 -1.011867 -0.33355588 -0.21490417
0.26438504 -0.056684718 -0.21397056 -0.44764826 0.16731827 0.20608634 -0.09854309 -0.22929113
00000000: 3b75 343b 3977 8a3d 035a 9e3c 7c29 cc3d
00000010: ed50 15bf 70ca 3b3e ed3e c9bc eac0 b13e
00000020: a0f7 95be 1dce ac3e fb90 6a3f 8a9f 41be
00000030: 127b 05bd 0aaf b03d fdea f7be 9e1a fc3e
00000040: 1cc6 803c f60d 0f3e 10d3 c73d e867 8fbd
00000050: 7a94 54bd 5486 913b 1b2b 003e 1e7a d7be
00000060: 5017 dbbe 70d5 e63b ebeb 273f d469 1b3f
00000070: aa67 1e3e 76fb 683d 6c53 723e 7538 0c3f
00000080: 9362 993e fc41 92be 0e0f 893e b2d8 a03e
00000090: 2603 f23e b230 a7be 5455 30bf e778 7f3e
000000a0: e1a1 173d b86d e9be 8a14 25bd bb57 cf3e
000000b0: d76a e93d 411a c03e f738 003e 7152 71bd
000000c0: d2b1 393e 9d2e 713c ad16 9fbd ddbe dabe
000000d0: b166 be3e b69a 9c3e 2bf6 fe3e b15e 093f
000000e0: d286 0bbf 07ed 06bc a057 d73d fae9 43bf
000000f0: 1725 cdbd a62d 9abd 7614 66be b38d 0ebf
00000100: e238 103e a72b 87bd 584c 48be f714 ad3e
00000110: 9505 a83c b313 a03e d1b8 e7bd 8185 6a3e
00000120: c659 033e 177c be3e f1f7 a2be 0046 3ebd
00000130: b7f1 033e 2aad dabd d45a d23c 6443 0dba
00000140: 3ed6 2fbe f36c d3be b322 e73c afd1 01be
00000150: 879d bc3d 89be 7a3e eba1 b63d 2c3d 8cbe
00000160: cc9d 40be 8832 c2bd 237e b33e 4d3f 9fbc
00000170: 9acf 63bd ad5f 523f 17cf f7bd 4367 41be
00000180: 79ae a7bd 5260 d93c 60e9 5ebd 7f7f 33be
00000190: c8eb 0cbe cbbb 6eba e84f 783e 5863 963e
000001a0: 84eb 133d 3f30 85bd c9c4 f83e 9d70 2dbe
000001b0: f7ac 763c f4fa 80be 84a0 ddbe 4f8a 0b3e
000001c0: 93b0 373e 6af3 b8bd e351 4c3e 0212 8dbd
000001d0: dd50 aebe ba5e 6d3d 87c2 6cbd ce59 913e
000001e0: 2e4c 39be 9c08 bebd 0a90 8e3e 8596 39be
000001f0: bb05 f53d fcf0 20bd 5375 223e 51bf 933e
00000200: caf1 15be 616c a3bd 09ad d83e 0df2 863d
00000210: 7cb5 2b3e 34f8 42be 44cb 7a3e 8b96 623e
00000220: c5a4 34bd 5afa a43d 75cd 023f 0977 7e3e
00000230: c580 043e bbfc 9d3e c19e 1fbd fa24 1dbe
00000240: b414 af3d a023 553e b269 a0be c957 163e
00000250: dac0 5d3e 6bfc 17be 77c7 40be fbdc 7e3c
00000260: 9137 29be c9cc 6c3e 2915 bbbd a366 bbbe
00000270: 6ad1 5cbe d01c d73e abf0 543e ff42 543d
00000280: 60c6 51bd 00a1 3c3e 01d4 f73e e6d2 ac3b
00000290: fee5 acbd 8b88 17bf da77 103e 6312 d63e
000002a0: 56f4 533d 53f4 61be 7eca 99be d0b2 9dbd
000002b0: ffb4 c33e 9ffe 0d3f 8fd7 43bc 1df4 dbbe
000002c0: f4ed 26bd ae38 ce3e 7c17 48bd 86b2 60be
000002d0: 23db ba3e b179 28bf f374 abbe 5287 9bbe
000002e0: 0c76 16be 0b15 34bd 2188 87be 76a7 cabe
000002f0: 3dd1 233d 6fdd 6b3e ed6a 9c3e baa2 c5bd
00000300: 68c2 fbbe 5e4b c9be dcf9 06bd ed7f 163e
00000310: 7f55 1bbe 669c 1a3e e891 133d 36fa aebe
00000320: fb0a 4dbd dc09 1bbe 6290 31bf 0ebe 7bbd
00000330: cda5 3e3e a763 2ebf dc69 ecbe b945 f4be
00000340: 6be3 b53c 8aa0 09be 5ea2 6cbc f19f df3e
00000350: 6790 3e3e 002d a03d a354 8ebe 1466 10bd
00000360: 4e52 e73d 3038 0dbe 03ef fb3c b8fd 81be
00000370: d259 0cbf ac49 bf3d 7122 9bbd a3ed c83e
00000380: 7236 40bd 7b4d 4abe 57a7 1d3e 82cf 773d
00000390: 88df 243d 70c3 823e 6e94 8a3c 1cb3 c6bd
000003a0: 2384 543d cca6 ed3e 3f4c 07be 12cd 7c3e
000003b0: b577 40bd 8f83 9ebe f662 53be e967 b1bd
000003c0: 4f1f 8fbd e769 bbbe 0227 43bd c98b e1be
000003d0: 2b33 5b3e dc84 81bf d6c7 aabe d70f 5cbe
000003e0: 7a5d 873e 3c2e 68bd 191b 5bbe 2732 e5be
000003f0: 7b55 2b3e 4c08 533e f6d0 c9bd 4bcb 6abe

layers.6.bias f4 [20]
-0.26093778 -0.063866936 -0.058237188 -0.0741315 0.013670567 0.12165025 -0.13107553 -0.08733369
-0.0526358 -0.0739394 -0.084269695 -0.15029733 -0.18483248 -0.060508095 0.29606292 -0.11230265
0.1561078 0.08809858 -0.19109987 0.14679776
00000000: a399 85be abcc 82bd 1e8a 6ebd 42d2 97bd
00000010: 84fa 5f3c c423 f93d aa38 06be 01dc b2bd
00000020: a398 57bd 8a6d 97bd 9795 acbd 8be7 19be
00000030: ba44 3dbe 56d7 77bd 8f95 973e effe e5bd
00000040: b9da 1f3e 076d b43d afaf 43be 2752 163e
