main/continuous_time_identification (Navier-Stokes)/model/pt_model_NS_clean_7000.pt (torch, 38362 bytes, 22 tensors)

linear_in.weight f8 [20, 3]
0	0xbfc114e2979b59f0	-0.13344986345937526
1	0x3fc0b9c70ffcca56	0.13066948204648793
2	0x3fe49442f0414f1e	0.6430983250124631
3	0xbfb280484e3ae83b	-0.07226993474878977
4	0x3fd73cb6e9ace8c6	0.36308071918359663
5	0xbfafac290e1ab58d	-0.06186035439655333
6	0xbfbe8d323a91db75	-0.119341983126885
7	0xbf8157b8cfa15ec4	-0.008468097530723091
8	0x3fafa182ae9984d9	0.06177910214751998
9	0x3fb2f6a889b7eb3e	0.07407620775476872
10	0x3fca6d2f92a2d98b	0.20645708713500385
11	0xbfcb8da4dacf63c5	-0.21526013073051167
12	0xbfe03065d9a217e8	-0.5059079409263605
13	0x3fe0d7bb0b1db247	0.5263343064412503
14	0xbfd655a8cd5c8834	-0.34897823386029647
15	0x3fb4aca1973dd456	0.08075914328021958
16	0x3fd2026a9a00cf0e	0.2813974861085037
17	0xbfc21ba32a81ae86	-0.14146842551723554
18	0x3fe0033335d74f9f	0.5003906299193551
19	0xbfd0e3735575402f	-0.26388247819432115
20	0x3fc2fc33f71fe607	0.14832162443762817
21	0x3fd9821be96f75a4	0.39856622501778305
22	0xbfc841fef20317d3	-0.18951403443332868
23	0x3fddc08b332262ac	0.4648769378050399
24	0x3fa35c2f26e8a915	0.03781268453561119
25	0xbfd17505fc253bea	-0.27276754020289096
26	0x3fdfe7518777cbfc	0.49849355916302307
27	0xbfc1f687f8ffb31a	-0.1403360334219535
28	0x3fb2e2ad7a06fac2	0.07377132634335751
29	0x3fc17e4020b17258	0.13666535946221603
30	0x3fb579b224dcad6e	0.08388818168594067
31	0x3fbacafa99096915	0.1046597121834661
32	0xbfb28be3014edfe0	-0.07244700223861811
33	0x3fbbe059b0af4a7d	0.1088920647010045
34	0xbfae1407376996b3	-0.05874655295774058
35	0x3fc74f6e6112e9c6	0.18211154689727332
36	0x3fb29f5010bfce39	0.07274341973225597
37	0x3fab3853c21fd26a	0.05316411728555155
38	0x3fdb6be86282211b	0.4284611665721216
39	0x3fb56112f2a297b2	0.08351248191556129
40	0x3fd21902bf91bd70	0.28277653415621895
41	0x3fb75a0c5a05c66e	0.09121777723137267
42	0x3fd6d9a3ffc12ea0	0.3570337293246926
43	0xbfab704bc9c02059	-0.05359112584852772
44	0xbfd086876c3fc951	-0.2582109982605703
45	0xbfd83ac07bdd6885	-0.3785859307878428
46	0xbfb9523ff6914cf8	-0.09891128320423437
47	0x3fd55198067e5198	0.33310509332775373
48	0x3fd5797b5d71e9b0	0.33553966641889144
49	0x3fcfc98a40c86501	0.24833801425192095
50	0xbfe48722424b8298	-0.6414958281348673
51	0x3fcbbb58363f73ac	0.21665480278798321
52	0x3fd5d743bcc79831	0.3412637084533144
53	0xbfae184727561bbc	-0.058778976012994616
54	0xbfbd9d1dd7f2262b	-0.11567865869633269
55	0xbfc14e15a19dd9ee	-0.13519544974742764
56	0x3fa70b0faec332ff	0.045006265719711884
57	0xbfc4e53d285c2dab	-0.1632458159514106
58	0x3fd5d1a80cb71145	0.3409214138194055
59	0x3fcbdfcee0dac259	0.21776758174157143

linear_in.bias f8 [20]
0	0x3fc7af999fccb54a	0.18504638960568293
1	0xbf95a40d40ba65c7	-0.02113362033433022
2	0xbfe03501110a69eb	-0.5064702351403957
3	0x3fcec453c7b982cc	0.2403664326875713
4	0x3fa844788d7dc524	0.04739739157856551
5	0xbfb0ec5f3ad37bb7	-0.0661067503565239
6	0x3fe1fda9d30ccd4f	0.5622147676535095
7	0xbfb2f057257e5df4	-0.0739798037087594
8	0x3fb7388aff9019da	0.09070652713135222
9	0x3fccc0dbe3be83cc	0.2246355878860683
10	0x3fc71ad8048edacd	0.1805067083602893
11	0xbf93bb8b884197d1	-0.019270115081233833
12	0x3fd7703e6e2011b5	0.36622582201405446
13	0xbfe41e1ac6e542f4	-0.62867487761295
14	0xbfbf74dfde37ef4e	-0.12287711310631019
15	0xbfc01fbefce0930c	-0.1259688124420325
16	0x3fc82e31da3ac13d	0.18890975146997305
17	0xbfbd352890c36757	-0.1140923837114348
18	0xbfc1c9dd1c82603e	-0.13897289173178423
19	0xbfd12e8b8635de12	-0.2684658823631888

linear_out.weight f8 [2, 20]
0	0xbfb672d69721021b	-0.08768979253455493
1	0x3fa33d9e4fb18368	0.037579486110877636
2	0x3fe09abe736220e8	0.5188896421032299
3	0x3fe26e34cc14379d	0.5759529100339368
4	0x3fde8652f1dd3dc2	0.47694848651459776
5	0x3fbcf4ba09d46a81	0.11310923328384527
6	0x3fe331521aa1b403	0.599770595564792
7	0x3fdd21ec5b126f6d	0.45519551175833933
8	0x3fdeee7279c4e704	0.4833036603118759
9	0xbfe5155f4be2de1a	-0.6588589174415944
10	0x3fdcacb375b83e46	0.44804083343567347
11	0x3fe88f8ec5d06829	0.7675241340214188
12	0x3fccf08af8f6c895	0.22609078556485387
13	0x3fc40e6c2793afda	0.15669013912645263
14	0x3fd46023c9347a30	0.31836790703701734
15	0x3fce7e156f42621f	0.23822277004798395
16	0x3fd687c5e56b44f7	0.3520369282169464
17	0x3fca50b6acadfc29	0.20558818275091653
18	0xbfdedc5f3be89579	-0.48220043993418177
19	0x3fc4ba490418b8ed	0.16193497371700208
20	0xbfe78327eb5cfcfd	-0.7347602459848585
21	0xbfe3c7fc6ed21be9	-0.618162361571078
22	0x3fd8d2cff15e4ff0	0.3878669602502205
23	0x3fc93f29572b7d52	0.19724003559438558
24	0x3fee56ec99c70336	0.9481108668770506
25	0xbfd742674a506f87	-0.3634279466366412
26	0xbfbb435b5a08bc98	-0.10649653385256597
27	0xbfd88bb0545be9e0	-0.3835259269541478
28	0x3fca1e49584b36f2	0.2040492707368951
29	0x3f75219c4c1c5998	0.005159006630285033
30	0xbfd43f3a27803b72	-0.31635907990942436
31	0xbfa751127909625c	-0.04554040648935562
32	0x3fd9d8a1ce9f48b8	0.40384717157315775
33	0x3f9ab29c765ff15b	0.026071972584746344
34	0x3fd442cb7bc861cf	0.31657683456572
35	0x3fdde77effda1011	0.467254400115281
36	0xbfd1a25f6a2bf620	-0.2755354439576383
37	0x3fd82f85cd7c676f	0.37790055338847756
38	0x3fe1226cea4f674f	0.5354523254747877
39	0xbfdd3a08c564dea1	-0.45666713024864164

linear_out.bias f8 [2]
0	0x0000000000000000	0.0
1	0x0000000000000000	0.0

layers.0.weight f8 [20, 20]
0	0x3fd0f11a82db0952	0.26471579340809115
1	0xbf81a71bf7af53c6	-0.008619516845934327
2	0xbfd1b33e4dd6c4e6	-0.2765651474138181
3	0xbf7a78732f907c31	-0.006462526268506117
4	0xbfcd6b05221302e1	-0.22982849277288778
5	0x3fb6abcc654762a6	0.08855893585804128
6	0x3fde677f3be6da1c	0.47506695604116245
7	0x3fa4bc5145ca2219	0.040499248284565144
8	0xbfe028616c6d52a3	-0.5049292676654499
9	0x3fa0844f3f0c8108	0.03225944180144508
10	0x3fe23be5e06b91c5	0.5698117621619124
11	0x3fb59f851106c2f9	0.08446532884296322
12	0x3fd98b962e9d3afb	0.3991446929184545
13	0xbfccd2958c9e2eb4	-0.22517651907070546
14	0x3f99988a4c80f758	0.024995957297725496
15	0xbfe4b10b1750b710	-0.6466117339493582
16	0xbfaa4f142ab7e482	-0.0513845731874847
17	0x3f9a0b26d6c0ed30	0.025433165414353087
18	0xbfd16fb82ba9aea9	-0.2724438120264759
19	0xbf806c222b3eed8f	-0.008018748230702836
20	0xbfcfc34647e38418	-0.24814680586044413
21	0x3fa43ea0e96e03f8	0.039540318007318775
22	0xbfbbf284cc950936	-0.10916929239923409
23	0xbfb8145984cb3e0e	-0.09406051151312786
24	0xbfbbd6ca8860a165	-0.10874620275047205
25	0xbfa25904ad193b44	-0.03583540547389544
26	0x3fbdaa1cb2077b23	0.11587695452133721
27	0xbfb606b0a884c81d	-0.08603958238816785
28	0x3fa93ba1c78618e8	0.0492830806788776
29	0x3fbe28c3b9e1d9f6	0.11780951774731094
30	0xbf88cd5d867056be	-0.012110453286406805
31	0xbfb99ddb7b3ece1e	-0.10006496199530843
32	0x3fd0564126c25351	0.2552645567423513
33	0xbfbcdbce555ae3d5	-0.11272897323477989
34	0x3f9f80a6858039cf	0.030764200113532255
35	0x3fc33320a3edeeba	0.1499977875172272
36	0x3fc668ebedaace15	0.17507695298046203
37	0xbfc5c6c9da3ed388	-0.1701290431643907
38	0xbf889c3cbe6ccfd9	-0.012016748963652834
39	0x3fb5d7fd8d522d86	0.08532700252742673
40	0xbfd2a2931f569ead	-0.29117277202974884
41	0x3fd0959fa99fbe3b	0.2591323048099842
42	0x3fcc3b8f47ada119	0.220567617415562
43	0x3fb3a651183e231a	0.07675654260505063
44	0x3fa9deed649039d1	0.05052892544346189
45	0x3fbc54a64c5acda4	0.11066665042999674
46	0xbfad07d1deb7aebe	-0.056700285374828394
47	0xbfb303715f52e22c	-0.07427128388634036
48	0xbfcaf5a471b284b3	-0.2106214099085598
49	0x3fc9a48a4056de4a	0.20033386365479294
50	0x3fda0be2831fc6d1	0.4069753914364869
51	0xbfba9b12ff76f3bc	-0.10392874466829388
52	0x3fce457c39412eeb	0.23649552150379036
53	0x3fd20f0faaf60e75	0.28216926284242244
54	0x3fcb634bc24340fe	0.21396777139171513
55	0x3fce1e77259abcf8	0.23530473076014125
56	0xbfd03b1b9d0e2f29	-0.25360765778963185
57	0x3fb2a09ec4889940	0.0727633695429164
58	0x3fbe624d25951b23	0.11868745963611764
59	0x3fe4877ce4e8918b	0.64153904637037
60	0xbfb632ebe69ca209	-0.0867145002381521
61	0xbfa019c5d28e628b	-0.03144663043275838
62	0x3fd12f2e9cbcdad4	0.26850476557176006
63	0x3fab63de79774e30	0.05349631531467158
64	0x3fccc07620ebd4f1	0.22462345702630374
65	0x3f6974521131248d	0.0031072237848418006
66	0xbfaa07e5a5d2dd6f	-0.05084149979796392
67	0xbfbdbc88310cb9fb	-0.11615801999571566
68	0x3fd1d54054e3eb41	0.2786408261305731
69	0xbfd48ae01276addc	-0.3209762745197773
70	0xbfa7821cd7b9d233	-0.0459145558678852
71	0x3fd1999770eb5e30	0.2749994852760862
72	0xbfb75c5ba0aa0f7f	-0.0912530200239967
73	0x3fcca9a6e26bd9df	0.2239273648808213
74	0x3fb246530b2e53b1	0.07138556502316253
75	0x3fa5dbbc959d03d5	0.04269208265623773
76	0xbfc7fe35b019e6c6	-0.18744536493959724
77	0xbf7f6edef4d5fe0e	-0.0076740941270823215
78	0x3fb3c85b32bb2a5b	0.07727594364693273
79	0x3fc43c59fd24f3b3	0.15809178219379091
80	0x3fc80d4c26ef5c9b	0.18790580655215625
81	0x3fa55cf063e3cbb4	0.041724693482954406
82	0xbfd96eae5051877e	-0.3973804268226714
83	0x3fc77ac9e016af33	0.1834347099478407
84	0x3fcaf6d9caf8337f	0.21065828714963783
85	0x3fa66c940c1b5638	0.043797136762503575
86	0x3fcb562e2706c65c	0.2135675135191829
87	0xbfa5ffdace0c4229	-0.042967641498880056
88	0x3fd0bb370a4a7f4f	0.2614266968248459
89	0xbfc2bedda718e29e	-0.14644976290744166
90	0x3fd11933a28d3459	0.2671631896417402
91	0x3fd36b726b12aede	0.3034330411562517
92	0xbfc27f372bccc79a	-0.14450730932872774
93	0x3fd7c2f59cc5a4a0	0.3712743788697228
94	0xbfd93fb7f04c7219	-0.3945140692392513
95	0x3fb520c91605e771	0.08253151691124373
96	0x3fe30df506ef3805	0.5954537520826767
97	0x3fc5189844d219c2	0.16481307373415005
98	0x3fc0921f4a11d70d	0.12945929638561218
99	0xbfd0f36870048830	-0.2648564428255922
100	0xbfbdd261bfad44ed	-0.11649142198190861
101	0x3fc80127985fe3ae	0.1875352376953549
102	0x3f8c206a7fa50ee5	0.013733703632744685
103	0x3fb367a182324191	0.07580003193493769
104	0x3fb93837f0c7533c	0.09851407650360228
105	0xbfb47fa6f6c26689	-0.0800728180351148
106	0xbfb57bfade7e7fd9	-0.08392303401933478
107	0xbfcf6604e16db477	-0.24530087477924997
108	0x3fc797ecf624bf44	0.1843239023087283
109	0xbf971efe36ab1b1e	-0.02257916649503066
110	0xbfb15eaf0b3da220	-0.06785100960190293
111	0xbfd0f18d6f256e8c	-0.2647431931888853
112	0x3fce22fed92b2e9a	0.2354429779428429
113	0xbfcd42728e62edcf	-0.22859031631911228
114	0xbfdc47fbb3d1431d	-0.44189350662513666
115	0x3f9d5a01cbbeae45	0.02866366201457839
116	0x3f89a4a0b7bd5ca6	0.012521033866205688
117	0xbf7af294eba69d0f	-0.006579000206705445
118	0xbfd26772635834f6	-0.2875638933335972
119	0x3faff95c936cfd27	0.06244935321455563
120	0x3fd680c964b24e84	0.3516105159153329
121	0x3fbc5f1a41bc8964	0.11082614998716661
122	0x3fab37ce8b8b22db	0.05316014722263215
123	0x3fac07a5a6f3d3dc	0.05474584258073609
124	0x3fc1c337dbd3f62d	0.13877008661067816
125	0xbfafd900f66b39b1	-0.062202482300210866
126	0xbfce12e7413adecf	-0.23495188412720444
127	0x3fc415d5bc289102	0.15691634833741125
128	0xbfaf7812ea0e480e	-0.061462966033232744
129	0xbf7964e8b1ee304c	-0.006199749913218321
130	0xbfd8a0b88edbfad6	-0.38480962706664223
131	0xbfb1645a20b9f92b	-0.06793750094400212
132	0x3f9070d062a7ad0e	0.016055351277754197
133	0x3fd2ffc0248deabc	0.296859775254841
134	0xbfcc62f6c52ed1f0	-0.2217701399619183
135	0x3fe03eede27ee966	0.5076817916627021
136	0x3fb9b19ea159f849	0.10036651076549775
137	0x3f95fe6ce23f24e9	0.021478368100166376
138	0x3faf9ad3741cc29c	0.06172810356509226
139	0x3fb44ded3c4ade71	0.07931406709655577
140	0x3fb44cfa51dc32ad	0.07929958818949485
141	0xbfad5df52bcb54ac	-0.057357465358714194
142	0x3fd9e9bd9dceb691	0.40489139948736247
143	0xbfc6372aa075ac68	-0.17355854830688888
144	0x3fc2811ddd133712	0.14456532759361856
145	0x3faa80d3cbc45204	0.051764124511610304
146	0x3fc8998fb683b2d0	0.1921863213714432
147	0x3fb5213e593ce118	0.08253850630433524
148	0x3fb0f1a8bf8cc7fa	0.06618742634307742
149	0xbfcff6ae4eab5810	-0.24971560326838516
150	0x3fd57bafcdaa5538	0.335674239010888
151	0xbfc2fe2f7008d2b2	-0.14838211985047206
152	0xbfd3cbdb62009979	-0.30931744165936653
153	0x3f96a9765d2e0192	0.022130822598684548
154	0x3fd1ee54113d4862	0.28017141040357363
155	0xbfc43b812e5f290f	-0.158065936701242
156	0x3fb3fd98422d7fe9	0.07808829894702253
157	0xbfc592b9bd753202	-0.16854020834797728
158	0xbfc8dc26acab47b5	-0.19421847754580104
159	0x3fad1791c2867753	0.05682044505668551
160	0x3f9b7f3f0840cd3c	0.026852593306285075
161	0x3faa20f244682d31	0.05103261075063371
162	0xbfde08d04565177e	-0.4692879369434805
163	0x3fda5b3aec0f01e1	0.4118182473430619
164	0x3fae4050180ecb58	0.05908441823648641
165	0xbf6f1715c9fa142c	-0.003795187527261953
166	0x3fc0c3fb36490167	0.13098087454455795
167	0x3fb339bf2a4a438f	0.07509989531014426
168	0x3f92cc70acd70226	0.018358002232846136
169	0x3fc82518f57568cc	0.188632125714156
170	0x3fe19f5c86005fd8	0.5507032983032287
171	0xbfc10a48a1c5cb79	-0.13312633418135159
172	0x3fc9207934488918	0.19630351117036393
173	0xbfe376cd33941a30	-0.6082521445649203
174	0x3fd2c5bb191e794c	0.29331853344946945
175	0xbfe3b8eaad737def	-0.6163228404729447
176	0x3fb04b56345c2cf0	0.06364954737016482
177	0xbfb4fd650019dd03	-0.08199149372545737
178	0xbfd7959e54e904d3	-0.36850698749556193
179	0xbfc1d06d948faf6c	-0.1391732192417935
180	0x3fbc5508bd2f655e	0.11067251795556873
181	0xbfb993e4427665af	-0.0999128973257004
182	0x3fc5d63f7686f899	0.17060082709753457
183	0xbfd0ca1ba06084f9	-0.2623356882268833
184	0xbf6882fd9858b724	-0.002992148688256162
185	0xbfd256aff4304255	-0.2865409741071166
186	0x3fd4538f546db6e4	0.3176000904557965
187	0xbfd93dabadc5d7df	-0.3943890759468313
188	0xbf874e9f4976022f	-0.011380428723669926
189	0xbfcce689afd34f3e	-0.22578545651651355
190	0xbfa14296a401c994	-0.033711154480346256
191	0xbf98395d9caec521	-0.02365633267226486
192	0x3fad6e51c5762f3b	0.05748229537411339
193	0xbfc4332f1f41d8d2	-0.1578120138762587
194	0xbfde36480329bc0c	-0.4720630675209925
195	0x3fe03ae9fd28c4a1	0.5071916527287109
196	0x3f6a4347f44746e6	0.0032059102397646753
197	0xbfd6763d28a6f741	-0.35096672983114635
198	0x3fbe1cc2c979ae85	0.11762635630446468
199	0x3fc45fa18576f8a4	0.15916842476685134
200	0xbfb741a0661a98ab	-0.09084513180514146
201	0xbfcbb7147c440098	-0.21652465884836114
202	0x3f9b5e7221ef6dfa	0.026727469750637646
203	0xbfdde3809f03300a	-0.467010646138761
204	0xbfa74fd2ee0caca9	-0.045530883368280435
205	0xbfad1564b665fe77	-0.056803843751365095
206	0xbfd094efd5d01dae	-0.25909038429423503
207	0xbfc53bf45cd45082	-0.16589216740306162
208	0x3fbf4a1e9d41d27c	0.12222472514424426
209	0x3fb8e8bb144d04f8	0.09730118985773462
210	0x3fd0647a66aad4c0	0.25613269830803276
211	0x3fbbb4789db07b2e	0.10822252130354279
212	0xbfd2fe0130945e5f	-0.29675321334932464
213	0x3fcbe58f5c2fb98d	0.2179431152466801
214	0xbfa3154f48380df9	-0.03727195507601872
215	0x3f7c7f2845ea0056	0.006957204167179118
216	0xbfd49837e08f2859	-0.32179066590891164
217	0x3fd04e34e8069e1c	0.25477335604452533
218	0xbfcc50d398bf843e	-0.2212166305389775
219	0x3fca0f681ccf903c	0.20359517485405998
220	0xbfd31749caecba99	-0.2982964021383992
221	0xbfd706edc8d92989	-0.35979790319529364
222	0x3fa6f386182c402a	0.04482668919638429
223	0x3fbf99e45d6ba553	0.12344195633672443
224	0xbfcc662ae941e9a5	-0.22186790837788553
225	0x3fc468795aad70bd	0.15943829467403772
226	0xbfd9e5bbbbe42886	-0.4046468100428985
227	0x3fd34eb298cdeafe	0.3016783230047365
228	0xbfc27217b28ebdf8	-0.1441068288672651
229	0x3fb4964c15a42a6b	0.08041835335112928
230	0xbf808f43f6a99e06	-0.008085757222217726
231	0xbf83902c776b4d3c	-0.00955233325422588
232	0xbfc34879252aa38f	-0.15064920725606298
233	0xbfd5739761ed22fd	-0.33518013537518226
234	0x3f965a317387924f	0.021828434635511148
235	0x3fdaa67068f7702e	0.41640863657608207
236	0xbfce49bb958b6c5e	-0.23662514497741233
237	0xbfbf81c6e6b22cb5	-0.12307398922182496
238	0x3fc0e1f89fa39303	0.13189609331961813
239	0xbfcf74653890186f	-0.2457396055398848
240	0xbf9d926335a75742	-0.028878736638794374
241	0x3fc3ce4feb5c192f	0.154733648225553
242	0x3fc38c80144804c0	0.15272522917078923
243	0x3fc5b5720fe733d5	0.16959977890510794
244	0xbfc9f196b709831b	-0.20268520295487566
245	0xbfc60689dd39d80f	-0.17207454015778054
246	0xbfbc191a4c980fcf	-0.10975803728075494
247	0xbfdda7bb549aa4ba	-0.4633625341617279
248	0xbfbd2c4196f962fa	-0.11395654617207276
249	0x3fadc31f417d5fbb	0.05812928842959716
250	0x3fba99b74056bee2	0.10390801735661229
251	0x3fc0990818db3f93	0.1296701547021227
252	0xbfcfbacda0b0b366	-0.24788828226283072
253	0xbfcbddbf9321007c	-0.21770472225216853
254	0xbfb5da8f908c80a0	-0.0853662231352268
255	0xbfc332c7083eba61	-0.14998710539426255

layers.0.bias f8 [20]
0	0x3fddcc5b2935f0f9	0.4655979063461611
1	0x3f66ffdd6c34636b	0.0028075527822121658
2	0xbfccceb15f90f141	-0.22505776563947147
3	0xbfd71077f0620e4a	-0.360380158185056
4	0x3fba4bcba64817d8	0.10271904763803208
5	0x3fcf08abb9c2034e	0.24245211191375876
6	0xbfd00c81d5e23ecc	-0.2507633770664881
7	0xbfc971567920986a	-0.19877129473133276
8	0x3fe8335ec22e9f30	0.7562707703227485
9	0x3fab185388261901	0.05291996991131676
10	0xbfabc8c6e06c7a5f	-0.05426618089244494
11	0xbfb65799f0a10d52	-0.08727419018491858
12	0xbfc3b4dff9cca7c5	-0.15395736405599628
13	0x3f84a4b564f87135	0.010079781669496949
14	0x3fb586a54fc2826e	0.08408578107128914
15	0xbfcb67a6b8f9e9d3	-0.21410068542520708
16	0x3fb71e86a7d6817f	0.09030953977208432
17	0x3fc975013a0b0d3d	0.19888320287837216
18	0xbfb7b031f64aee36	-0.09253227484708124
19	0x3fd49a2724a2e089	0.32190874650724105

layers.1.weight f8 [20, 20]
0	0x3fdc92160c24abce	0.44641638933051986
1	0xbf9a1bdaab0c2324	-0.025496880235581845
2	0x3fd946a28afd4247	0.39493621419118025
3	0xbfc08ccd9c969884	-0.12929697175895083
4	0xbfd63699641c5cf8	-0.3470824697155446
5	0xbfd179e3ac392376	-0.2730645353190576
6	0xbfcc2a89805da412	-0.22004812972889504
7	0x3f95553ce1022d90	0.020832968934468676
8	0x3fd4dd2566f7e7b1	0.32599768691545267
9	0xbfd15adeac9a0842	-0.27117125373490947
10	0x3fa503ad12738120	0.04104367113336793
11	0x3fb1a58961ad22bd	0.06893213877368516
12	0x3fb81247ca9e627f	0.09402893730874416
13	0xbfe6cdcde852ee57	-0.7126225984170088
14	0x3f9c203e2e7be03c	0.027466746890212543
15	0xbfb92b67221bf88e	-0.09831852514978065
16	0x3fb243dcf7710451	0.0713480095009953
17	0xbfd6a79798edad95	-0.3539790147248934
18	0xbf99534eb2d4887a	-0.024731855072908072
19	0x3fd5dd93c3a98a43	0.3416489992870632
20	0x3fc4f709a6a1bbc8	0.1637889922744462
21	0x3fc5ba22f0b652c3	0.1697429347374478
22	0xbfbffc1c1d63c29e	-0.12494064061662377
23	0x3fd483ec2b851059	0.3205519127843722
24	0xbfbf668204c17b6e	-0.12265789619548936
25	0xbfa0d386bfd3ff61	-0.032863818089025505
26	0xbfb1fb27c62dc7ae	-0.07023857677793785
27	0x3fe0673efbc38eeb	0.5126032750381148
28	0xbfc03d18e8a8b80c	-0.12686454162889083
29	0xbfa5b6b1eb3d6e22	-0.042409477201285975
30	0x3fc8fb4595324c28	0.1951682070253764
31	0xbf7fe3436507908f	-0.007785094509447656
32	0xbfcaf56be34998ca	-0.210614667873591
33	0x3fb4e6116bf19b9b	0.0816355598959561
34	0x3fb5cbad10fdaf32	0.08513909973924852
35	0x3fb5434f620d69ab	0.08305832046372667
36	0x3fcad51bfeca12f8	0.2096285814369805
37	0x3fbbe5b1f2ac8815	0.10897361921937006
38	0xbfa2bad47d262ac6	-0.0365816500444303
39	0x3fd59fe92df0a252	0.33788518415761815
40	0xbfb680fcea12781c	-0.08790569986965163
41	0xbfc6d9343c30e1f6	-0.17850354136477592
42	0xbf95e3b8e885fe00	-0.02137650412760017
43	0xbfd1766432aae2cb	-0.2728510374832182
44	0x3fca51228348134c	0.2056010380767027
45	0xbfd28923b1df444d	-0.28962032671285415
46	0xbfdafc39ffd55028	-0.4216446874972939
47	0x3fd8513cba03e1ce	0.3799583260111178
48	0x3fdd7d392c3354d3	0.4607680255551944
49	0xbfc78303c35eb61a	-0.1836857513384736
50	0x3fe3d061c786f3c9	0.6191872498526375
51	0xbfbed552c30087fc	-0.12044255505364271
52	0xbfc02f5b59fd96c5	-0.1264452161223543
53	0xbfd8792efe3cb4d1	-0.3823964579376709
54	0xbfb1b188ca5b0b1a	-0.06911520901034543
55	0x3fa35d199547240c	0.03781967112769999
56	0xbfdff99e5f860bf0	-0.49961051300505144
57	0x3fe2951e7128cc36	0.5807029924529903
58	0xbfce83cee37acb01	-0.23839746577649382
59	0xbfc7bac63f51346b	-0.18538740245495275
60	0x3fd4bc2b0617858e	0.32398486704740825
61	0x3fc7f80e1b920c01	0.18725754114356621
62	0xbfe45b39ffab860d	-0.6361360543780293
63	0xbfe169c15c25db5e	-0.5441595840228322
64	0xbfd2ed0feee8a1b8	-0.2957191308110185
65	0x3f987d014356800a	0.023914355978945458
66	0x3fb19466bba8c8ff	0.06867067414785664
67	0x3f666f6699c280b5	0.0027386669081153844
68	0xbfc26e6d15aff081	-0.1439949375052301
69	0x3fd43e846bc85bcb	0.3163157513203571
70	0x3fc21c4c01d753ab	0.14148855295084437
71	0xbfe1682b493eabd8	-0.5439659529268921
72	0xbf9ed9698c96135a	-0.030126237111761746
73	0x3fad67ad5ce60abb	0.05743161925331238
74	0xbfd48572e90bda5c	-0.3206450725405483
75	0x3f97a008645770ca	0.02307141411243733
76	0x3fba90327f991fe3	0.10376277556599649
77	0xbfcbafd7ac7a2a98	-0.2163037864850892
78	0x3fd13d9cda33041e	0.26938554104350654
79	0x3fdccd1e6642c569	0.4500194548264376
80	0x3fd3906bc3848cc9	0.3056897553780798
81	0xbfc1ad20e014e66c	-0.13809596005903602
82	0x3fae14b3ac3d0f73	0.05875169255753478
83	0x3fb58b070ec5aace	0.08415264235160722
84	0x3fa0fd4db7bdd624	0.033182552985561636
85	0x3fbac579b32fefd0	0.10457573532761377
86	0xbfbbc120635e70ec	-0.10841562677382272
87	0xbfa11abbc53413f7	-0.033407085249599726
88	0x3fc85a0018e0fdce	0.1902465936163779
89	0xbf83aa61c100572f	-0.009602321340974022
90	0x3fde94d62d6512b1	0.4778342669781451
91	0xbfb7ae927c4e0abc	-0.09250751051699074
92	0xbfb56ea4c1c8223d	-0.08371953707695297
93	0xbfc102ffc7459837	-0.13290402631827344
94	0xbfdf51aa932b18a2	-0.4893595158758989
95	0x3fdf16bcd17873e4	0.48576279121499355
96	0x3fc76f087f8e2f40	0.18307596424380712
97	0x3fc2627214dec13e	0.14362932223367325
98	0x3fcd83758979562a	0.23057431423755875
99	0x3fd356f58c9263b4	0.3021825669071021
100	0xbfb5b87c998c10e5	-0.08484629391392991
101	0x3fbb5510aaac36a9	0.10676674048246561
102	0x3fc3e20d96417088	0.15533609234524115
103	0xbf9c986388b67356	-0.027925067157059523
104	0xbf902eb59b93d482	-0.015803182240194953
105	0xbfd79169ac6c7127	-0.3682502921890482
106	0xbfb1a7fdf7f6291b	-0.06896960548161639
107	0x3f980afd67969f03	0.02347942299607465
108	0x3fd9c31b3f65817c	0.4025333518129839
109	0x3fcb52ed7cb92114	0.21346825208662124
110	0xbfc00be3b9acc25b	-0.12536284032968834
111	0xbfc7428b3e836be7	-0.18171825935755168
112	0x3fcfa5e94a3a0ac0	0.24725071071960336
113	0xbfb7f376422178c1	-0.0935586844875358
114	0x3fd5c39eb8d13ca9	0.3400646977288014
115	0x3f80e175285fe147	0.008242526335366164
116	0x3f9c3c60472839a5	0.02757406648930218
117	0xbf619fd5d5c9b9c6	-0.0021514107195834435
118	0x3fdb4034d5c21d7f	0.4257938468440087
119	0x3fba727ac1f6757d	0.10330931888025492
120	0x3f8db0de54edef24	0.014497506110039256
121	0x3fe9f482b3ebbb74	0.8110974802092259
122	0xbfce89abaaf5fc80	-0.23857637260150355
123	0xbfd425d6fa043b4a	-0.31480955520321585
124	0x3fd1c5aa5dfa8b91	0.27768954446417476
125	0xbfc2429313273def	-0.14265669284075908
126	0xbfd8eb7cc16cdbf6	-0.38937300576384304
127	0x3fe12e46326de4a1	0.5368987069079091
128	0x3fd91f96725a3791	0.3925529591295965
129	0x3fc03708aaf4a409	0.1266795000786092
130	0xbfde332a110b9f19	-0.4718728224238347
131	0xbfd55f9c555bea26	-0.3339606126388922
132	0xbfd37141d0d7a959	-0.30378766436355914
133	0x3fccd8b8adb9f418	0.22536381228192748
134	0x3fe0f6451ec0ee1d	0.5300622559220219
135	0xbfc9440d6fc77359	-0.19738929708446554
136	0x3fd6111a81272e43	0.34479391682245736
137	0x3fd2eb9e3f9e7609	0.2956309911040483
138	0xbfa5b1193ec88d24	-0.04236678019904108
139	0x3fb3577df725f768	0.07555377277273367
140	0xbf99afa6d8e4ff21	-0.02508412073916511
141	0x3fe061b842bfca98	0.5119286826796552
142	0x3fd306ea6472c78a	0.29729709443483243
143	0x3fb422149d69f2e0	0.07864502757179137
144	0x3fe4c9cbd854bec0	0.6496333337035693
145	0xbfc046a452265596	-0.1271558190461916
146	0xbfc9140c66a40c60	-0.1959243298698281
147	0xbfbcf340ca8d1e4f	-0.11308674759958957
148	0xbfc18ca55a09c324	-0.1371046723975492
149	0xbfcadda385384a8e	-0.20988887791516614
150	0x3fc29a67f2ce2864	0.14533709865310407
151	0xbfc8ca281a1b3af9	-0.19366933130955724
152	0xbf976e2b6862045f	-0.022881201025033323
153	0xbfc5a42e5e1f9819	-0.16907291026944973
154	0xbfe442f31076c277	-0.6331725427208558
155	0xbfc3c63b366ce7c6	-0.15448703916064072
156	0xbfd1a6d509f273d4	-0.2758076283587887
157	0xbfc60ca7819bc80b	-0.1722611792425258
158	0x3fd6ede50f5f6992	0.3582699442028111
159	0x3fd2ddf1fe3d2cd6	0.2947964651873013
160	0x3fbbbd949f68d1a7	0.10836151973564388
161	0xbf9a4fff8f53467a	-0.025695794222718928
162	0xbfa673e80f77d845	-0.04385304631061663
163	0x3fd969bc2c2c2f97	0.39707855523806174
164	0x3fbde8a3aab601e9	0.11683104436634263
165	0xbfbd8c71b3b1cd1a	-0.11542425763200406
166	0xbfdb5054b476ab41	-0.4267780077304231
167	0xbf99ca0e2440f30e	-0.025184842074156548
168	0x3fbfd057985e13c9	0.12427279920491609
169	0x3fc6a8583e70d01d	0.17701247261868583
170	0xbfb1c7253dbb26fe	-0.06944496876817749
171	0x3fbded58871edb89	0.11690285967675441
172	0xbf8c0e551f682e22	-0.013699212094272776
173	0x3fbd1fc0e1875667	0.11376576906271794
174	0x3fb0b1dea51bd58b	0.06521407633757385
175	0x3fbe183b8b973545	0.11755726011252417
176	0xbfe20bd749e1835c	-0.5639454310404335
177	0xbfe5425bee347130	-0.6643504764975088
178	0xbfd6d7d9fa8ce6ff	-0.3569245287686584
179	0x3fc3f5868ec1dfcf	0.1559303471619828
180	0xbf81857da6c6c822	-0.008555394794573404
181	0xbfcc9a34ddd0c30a	-0.22345600920518677
182	0xbfc7a8d9d42caa68	-0.18484042034227177
183	0x3fb182cde8bcbde4	0.06840216571867291
184	0x3fcf94a99af0c355	0.2467243200822177
185	0xbfd65b91bf98f263	-0.3493389483517488
186	0xbfd08cdc3ca41336	-0.25859743043865835
187	0x3fb09e1efa94d106	0.06491273515422699
188	0x3fb8e9b39c4b13e2	0.09731600347284045
189	0xbfc29614f8cd1129	-0.14520513676155503
190	0x3fbdbfbfdc3af024	0.11620711447443505
191	0xbfa5791e5d8d9f4b	-0.04193968669898015
192	0x3fa5d21d7786ca3a	0.04261867603363041
193	0xbfd030febb349359	-0.2529904201676821
194	0xbfd48753b7e338be	-0.32075970609447413
195	0xbfd30c50c576f075	-0.2976266792645739
196	0xbfcc2940656c6674	-0.2200088973266251
197	0x3fa09c74e0bd7ee1	0.03244366877947669
198	0x3fb976cad631d7ec	0.09946887711870972
199	0x3f947e94844250ed	0.02001411492581522
200	0x3fac07c5d6a8d33f	0.0547468018088808
201	0xbfcaadbdbfe9249f	-0.2084271609367407
202	0x3fd04c58f2334b2d	0.2546598782766292
203	0x3fd8300326d7dc67	0.3779304389312927
204	0xbfc784c0c0fcfe24	-0.18373879836325202
205	0xbfa934a661302709	-0.04922981201532479
206	0xbfc39cd80919a0d0	-0.15322399563161193
207	0x3fa17ab40cd7037d	0.034139277045603024
208	0x3fd36f8b08535a90	0.3036830502800649
209	0xbfd58b8bb0e93457	-0.3366421916624111
210	0xbfb0ae41449d9b88	-0.0651589195746124
211	0x3fdc95ebd58ab7cc	0.44665046552370025
212	0x3fd05beb62730ac4	0.25561031927297173
213	0xbfca3b8a10adaa65	-0.2049419957578095
214	0x3fe8d2ad13130302	0.7757172939819557
215	0x3fcd62b166cc7833	0.2295743705698797
216	0xbfd81461884cd18f	-0.3762439566665074
217	0x3fc1c6cee9b74e7e	0.13887964641491019
218	0xbfe37ac1a993fe53	-0.6087349235603575
219	0xbfc38b70e4201a00	-0.1526929010289706
220	0x3fdf3814038b62c3	0.4877977404226323
221	0xbfd93cdfe1f4300e	-0.39434048715406866
222	0x3fd0bc5108b6094d	0.26149392939273214
223	0x3fd89b41c0b87bb9	0.38447612591147223
224	0x3fcf1deee6828749	0.24310098891606405
225	0x3fd87994d5419cdc	0.38242073846636315
226	0x3fb26b21f9d4dc87	0.0719472155513917
227	0xbfd238856641e909	-0.28469977365570337
228	0xbfc8db24f977cb2f	-0.1941877573113628
229	0x3f8225cbe0f57716	0.00886115341443942
230	0xbfdebdec0a248fa1	-0.48034192076215204
231	0xbfdf2bb9f3975495	-0.4870438460178062
232	0xbfb483f4ad0bb1d1	-0.08013848519085022
233	0xbf82ad53eaa912ca	-0.009119659041183854
234	0x3fd4160092e686f2	0.3138429102492487
235	0x3fbc5e23ff2327bb	0.11081147173822974
236	0x3fd2c8380152f14c	0.29347038392349556
237	0xbfc7d3baa0c0bbea	-0.1861489567686186
238	0xbfc4ec1fd47c8769	-0.16345594287218582
239	0xbfd869c4edff93ae	-0.38145564310098734
240	0xbfa2a26a6536e53a	-0.036395382743146645
241	0x3fd1c6d0f6aee80d	0.27775978174361243
242	0xbf72d1217561998b	-0.004593973824830742
243	0x3fdc9547ba4f1218	0.44661133951402254
244	0x3fb0edcf3de23cda	0.06612868557771226
245	0x3fc399e794b03608	0.1531342960374078
246	0xbfb5f1387f22914d	-0.0857119856251007
247	0xbfc7551554f26252	-0.18228403709214774
248	0xbf90c4ce519a1e6c	-0.016375755053131533
249	0xbfbad3d62f51c0db	-0.10479487090356392
250	0x3fd7cfde613a1e9f	0.3720622968180382
251	0x3fdf3cec2f45ffd3	0.488093420186485
252	0x3fdb1415958275dc	0.4231008491568369
253	0x3fc0bf2ecdda4bc8	0.13083443690683638
254	0x3fa6e4613e026077	0.04471114999722741
255	0x3fbedc4fa6863472	0.12054918113263272

layers.1.bias f8 [20]
0	0xbf80a749d1bb1a2a	-0.008131577218034886
1	0xbf82749c512392b3	-0.009011479593433824
2	0x3fa1c19014d9234e	0.034679892106004404
3	0x3fb96ed9ca7e961c	0.0993476981517109
4	0x3f9bc809180f6c60	0.027130262464066468
5	0xbfafb97b5b9500d7	-0.06196198933548807
6	0xbf9d8323307677a2	-0.028820562203342732
7	0xbfa19aeef2c99cbc	-0.03438517297473129
8	0xbf4713fab039296e	-0.0007042860092465861
9	0x3fab7b8c7b635d54	0.053676977216748384
10	0xbf9f1a898d73e60d	-0.030374669321622295
11	0xbfb2d3c94d3cc819	-0.07354410300902749
12	0x3f99428ec116e112	0.024667959723701456
13	0xbfa8c90ac50718b4	-0.04840882926105064
14	0x3f92523baa0a9d62	0.017891819242007563
15	0xbf73de257b867d73	-0.004850527206513677
16	0xbfa76974ab895071	-0.045726438464641535
17	0xbfa30fd7daaa049c	-0.0372302488731375
18	0x3fa6163c79cfbded	0.04313839899975478
19	0x3fa6b39d1ba6678c	0.044339093804594304

layers.2.weight f8 [20, 20]
0	0xbfc105974cfdfc02	-0.13298312434559995
1	0xbfba38bd1930df56	-0.10242826333057783
2	0xbfb1557160a1e891	-0.0677100048941688
3	0x3f7e1c59a3942181	0.007351255562078386
4	0x3fdcbce654a62b87	0.44902952448381267
5	0xbfa32e4e4c05d72d	-0.037462660579804165
6	0xbfc537b906e38939	-0.16576302372329524
7	0xbf83b67028eaa94c	-0.009625316857029852
8	0xbfc6413c1952fc6f	-0.173865806927981
9	0x3f97b2980b4f972c	0.023142219248163773
10	0xbfe04eecbc734ad1	-0.5096343689604855
11	0x3fe1ea0b10d93ad8	0.5598197297166179
12	0xbf79e3c64b4d9f58	-0.006320738398109281
13	0x3fb52090dc15bfb4	0.08252816556136972
14	0xbfc28d6bcec9b99d	-0.14494083020276785
15	0xbfb031a059a8375f	-0.06325723828214568
16	0xbfcd048ed349bfe1	-0.22670159642029744
17	0xbfc8ea08a4ed6e3a	-0.19464214375590122
18	0x3fd4959755106b5f	0.3216303187088467
19	0xbfdcd2a8adb58ddd	-0.45035759891308463
20	0xbfba69f7eb674642	-0.10317945000795084
21	0xbfaf276388472587	-0.060847387681472624
22	0x3fb3e79677c06905	0.07775249885199649
23	0x3fc3275dc8041558	0.1496388651504883
24	0x3fd7de7a04dd5a9c	0.37295389628472164
25	0x3fb9390b604ef51f	0.09852667905120825
26	0xbfcc478151132738	-0.2209321637986308
27	0x3fdbfef925ad3523	0.437437331002757
28	0x3fcfb325521f374e	0.24765459546909557
29	0xbfac03cb5eedffd5	-0.054716449106308275
30	0x3f8e5a71cc66a0ae	0.014820946741409404
31	0xbfc40c085f0ab781	-0.15661720886913247
32	0xbfb337f08ee263c8	-0.07507232178103529
33	0x3fade89d786471f6	0.05841533751138066
34	0x3fac0097dc14e3c4	0.054692025771550884
35	0xbfdcedb4d90d9328	-0.4520084495218719
36	0xbfc14874e2c2b76f	-0.13502369949622614
37	0xbfe05effbc367e1e	-0.511596553424116
38	0x3fd9a84c593e0700	0.400897109175375
39	0xbfb688f2588f8dd8	-0.08802714025619396
40	0xbfb00c17bfbc3b7a	-0.06268452101742908
41	0x3fb201dedae446e0	0.07034104198489954
42	0xbfcf929e7093162f	-0.24666195389561227
43	0xbfc4beb79e49b752	-0.16207022885230998
44	0x3fcd585e8261c406	0.22925931326201993
45	0xbfc5d10f7aabacbb	-0.17044251909041983
46	0xbfbdf1a034fe5897	-0.11696816724574642
47	0xbfc9befd89c35a36	-0.20114106394494663
48	0xbfd2f4d5172651b1	-0.29619338284217195
49	0x3fd88fb63e9ac57e	0.3837714778302014
50	0x3fe4af12e66ca6df	0.6463713169552782
51	0x3fc7fe5aca07a1cc	0.18744978775727217
52	0x3f9a8476b155d747	0.025895933698357323
53	0x3fd2f8541ddc6d1d	0.2964067737209051
54	0xbfd85c117153ae22	-0.3806193930347225
55	0xbf94c37bfe3f12d7	-0.020276963608710865
56	0x3fb2267cd6c2bbb7	0.07089977496319376
57	0x3fe3e48765f92e0d	0.6216465942065398
58	0xbfe7b7cbb0871ad3	-0.7411859939391782
59	0x3fd1fd34b3a83833	0.2810794596160832
60	0x3fc480dc76dac930	0.1601825313897023
61	0x3fb031d72de24c17	0.0632605063458843
62	0x3fd1debff40986af	0.2792205699134724
63	0x3fc9eedc337b9564	0.202601933610974
64	0x3fe1fb397c2ceef3	0.5619170594504496
65	0xbfc9e1deb5cf4490	-0.20220550420211625
66	0xbf97d927a3efeabf	-0.02328931749432672
67	0xbfde50eae321bd21	-0.4736888139804752
68	0xbfd3574ff82a289f	-0.3022041247828699
69	0xbfb2f7ba759d74c2	-0.0740925347467565
70	0x3f9cc4302e95c5ab	0.02809214863140645
71	0x3f8872579a765809	0.01193684044009659
72	0xbf9277c4be87bc05	-0.018035005692521384
73	0x3fb496757ab503f6	0.08042082067278486
74	0xbfce9b25fe992a08	-0.23910975390965938
75	0xbfd8c56f3f0e0440	-0.3870504489678446
76	0x3fcf290e1ba82ffe	0.2434404025119647
77	0xbfb88902ad0b2e6d	-0.09584061360072278
78	0xbfd3caea19e2c4be	-0.3092599156180532
79	0x3fbe59fb357c5aae	0.11856050544552474
80	0xbfd5d71e31bb4a66	-0.3412547574672885
81	0x3fe12b36c293104a	0.5365251350672307
82	0xbfc8fa2ca9824999	-0.19513471867373935
83	0xbfb77f88011653c9	-0.09178972269576414
84	0xbfb855d4a6cb692c	-0.0950596720898928
85	0x3fc388ee2f7673fc	0.15261628453745846
86	0xbfd898a1dc5648fb	-0.38431593434610506
87	0xbfc850c532d1fa22	-0.18996491414505196
88	0xbf96269985d01cf8	-0.021631621162694764
89	0x3fd12039fbea9678	0.26759194947440035
90	0xbfb9153aa39ba995	-0.09798017973267854
91	0xbfa30e6a04422309	-0.03721934606534744
92	0x3fc73ce3f7f065da	0.18154573065184715
93	0xbfdc81bab49e8eaf	-0.44541804922685463
94	0xbfa3c170f1560419	-0.03858521409984678
95	0xbfaa3d7b67eb15f6	-0.05125032084974272
96	0x3fd9536667bbf883	0.39571533327387715
97	0xbfd40589cd5ee49a	-0.31283803039293334
98	0x3fbad35b44a6483d	0.10478754449857859
99	0xbf86b06f5638167c	-0.011078710383127126
100	0xbfc45fea8b83f0af	-0.1591771298625466
101	0x3fc7f9cf748d23f6	0.18731110754950436
102	0x3fda1977fd0956a0	0.4078044863757473
103	0x3fb94c6109846780	0.09882170183519001
104	0xbfcb2ce2857416fe	-0.21230727688105583
105	0xbfd02d7a5dde6c3f	-0.2527757565200694
106	0x3fb18bc458ad0b9b	0.06853892483654393
107	0x3fa7e461eb2647af	0.04666429515340497
108	0xbfca477b76acca43	-0.20530646605182498
109	0xbfaff5e9341f2599	-0.06242302666903327
110	0xbf65a04c5a4043a6	-0.0026399127255065267
111	0x3fb8dfe9014ebb17	0.09716659814760607
112	0xbfadf5ac969e5359	-0.058514970193903344
113	0x3fd8a685f085fb60	0.38516376961336185
114	0x3fd7bc687479cfbe	0.37087451338379285
115	0x3fd3f2089a53daf3	0.311647558889873
116	0x3f92c3e77c912665	0.01832544038578589
117	0xbfd37dae849ccb8a	-0.3045460028690107
118	0x3fb34e8b496a80e4	0.07541723768600012
119	0x3fe29417a6793083	0.5805776835855031
120	0x3fc9e4dc2eec55ff	0.20229675570651293
121	0xbfd385fdd638c2e2	-0.3050531951912899
122	0x3fda64901cbeca4d	0.41238787467151355
123	0xbfb93d04933c797b	-0.09858730883249749
124	0xbfa7b04e91483326	-0.04626698993170057
125	0xbfe6a6e2c9757fa3	-0.7078718123193436
126	0xbfbd4e2fbe0c2667	-0.1144742812140521
127	0xbfc2dfee387e0e02	-0.14745881803911237
128	0x3fdbc2aab196ff87	0.43375651686437106
129	0x3fc296c84d7dd5cf	0.14522651466147216
130	0xbfa2678c04c45327	-0.035946250516792504
131	0xbfc3692f6146f26c	-0.15164749383793052
132	0xbfe3a644b98a70fb	-0.6140464423984037
133	0x3fd217135f713889	0.28265842743429254
134	0x3fb4164d54555dd2	0.07846530255243714
135	0x3fcbe7675f798053	0.21799938356253054
136	0x3fa84e4ecbaf5823	0.04747244106663142
137	0x3fc089d13b0ae32e	0.12920585043846117
138	0x3fceb3b411c590da	0.23985911243210617
139	0xbfbec464e84b9d05	-0.12018423720620681
140	0x3fca9cb947168b8d	0.20790782900902763
141	0xbfd0c5eaf105b22e	-0.2620799401982222
142	0xbfc010f9c1ee1e3b	-0.12551805466886087
143	0xbfcbe1bc9a0121b3	-0.21782643813845723
144	0x3fd1791d5267ba40	0.27301724479085365
145	0xbf86d86aadd14968	-0.011154969624986591
146	0xbfaac546758efbde	-0.05228634057083757
147	0xbfd11db164bc163f	-0.2674373134362646
148	0xbfd11a6aaea7efe7	-0.2672373490929644
149	0xbfb3422aaaf1e385	-0.07522837327441152
150	0xbfcff3634d0def0e	-0.2496151090853051
151	0x3fdf5c4a70effdd0	0.4900079825310657
152	0x3fd77fbb6c8f67a2	0.36717115022258373
153	0x3fdedc697f26918f	0.48220288674408435
154	0xbfc34949bdcd89d9	-0.1506740738651178
155	0x3fb2e14e8835cd31	0.07375040841525472
156	0xbfce107080cb775d	-0.23487669266517744
157	0xbfc58c1a27d535e1	-0.1683380789276461
158	0xbfa386596e61d94e	-0.03813437912406191
159	0x3f9655ce2b7d7c46	0.021811696438245563
160	0x3fbf1d1c363132b7	0.12153793643046638
161	0xbfcf7d2764649456	-0.24600689317699914
162	0x3fd89077d75a6730	0.3838176348741511
163	0xbfc9f34d4b942356	-0.20273748579372847
164	0x3fd274cf55cb1dc9	0.28837951067222584
165	0x3fa1e554a84b1bf6	0.0349527793346666
166	0xbfc0dba3152d7efc	-0.1317027905852156
167	0xbfbcfab73d74ce76	-0.11320061922452304
168	0x3fb64b74c7c366f6	0.08708886982949679
169	0x3fdccf0068f94eae	0.4501343751082726
170	0x3fabed20c9251268	0.05454351859456069
171	0xbf890c2c65a1b20e	-0.012230250217009544
172	0xbfd1512b1c0231f4	-0.2705791257401693
173	0xbfbf29215b2a149e	-0.12172134853070068
174	0x3fbfbc793629ac1b	0.1239696271165233
175	0x3fcc0e4fcbef1541	0.21918675859175532
176	0xbfd254b3c05c9a61	-0.2864198092014814
177	0x3fc480e5db49b874	0.1601836510412259
178	0x3fb3f5e09e2975d4	0.07797054158569178
179	0xbfb173d415dce396	-0.06817365201722078
180	0x3fd6b20888f697e6	0.35461629271810435
181	0x3fd33a3224be3d5e	0.3004269942111558
182	0x3feaa28c16dee750	0.8323421904271786
183	0xbfd24574345e61cc	-0.28548913110855945
184	0x3fe4e3d0498ae28b	0.652809280050023
185	0x3fa0cac257e92114	0.0327969295800036
186	0xbfd2d827a3031608	-0.29444304389139164
187	0x3fba3f7827be05e6	0.1025309655215306
188	0x3fb114f4a5e04271	0.06672600793559426
189	0x3faf2815f7d46d39	0.06085270548120509
190	0xbfbb9c8e5c56dc16	-0.10785760645272577
191	0x3f86a78189c8f078	0.01106167985664562
192	0xbfc4686ba7519b88	-0.15943666143286017
193	0x3fb09de0423dba54	0.06490899674620582
194	0xbfa89c1cb6088281	-0.04806604120336023
195	0x3fbb437ca94316ee	0.10649851925253603
196	0x3fbb8bc59450593f	0.10760149832672015
197	0xbfd2381e5a0293e4	-0.28467520513578237
198	0x3feb53e0ef4247cd	0.8539890931153821
199	0x3fd18bfba67cb184	0.2741688848352839
200	0xbfb495d09eaa2da4	-0.08041099427844373
201	0xbfc6e7c94cb33d56	-0.17894855733036746
202	0x3fc217e11ccb80bd	0.14135373979570956
203	0x3fc717854fe92358	0.18040529634370261
204	0x3fca824d5a9c923d	0.2071015064658627
205	0xbf9f3aca7edd7b5d	-0.030497707360491833
206	0xbfc0bfcde3cc41ff	-0.1308534014028879
207	0xbfe46e0fae94dc1c	-0.6384352121157266
208	0xbfc00854e50bf83f	-0.12525426086352984
209	0x3fc58008126a75ab	0.16796971224986854
210	0xbfd5a6d378fe90bc	-0.3383072549425028
211	0x3fe0007211276c64	0.5000543913878457
212	0xbfb83302f3a5b79f	-0.09452837418004244
213	0x3fb0493b9796ec3c	0.06361744357029492
214	0xbfe0dc7e6eee0b13	-0.5269157568548927
215	0x3fbd525f0b4c42f5	0.11453813577487522
216	0xbf8f726321159edf	-0.015354895064504102
217	0x3fc3f0d56b14545f	0.15578716019141134
218	0x3f99b49f4c5091e6	0.02510308173454403
219	0xbfd0d2d68e3bd813	-0.2628685368539447
220	0x3f8085b25f4ce0c1	0.008067506345114219
221	0x3fd482642c6efa04	0.32045845355233404
222	0x3fa2f42bdc4d6223	0.037019129412048345
223	0xbfd14fe88d0880a2	-0.2705022218015164
224	0xbf9f37ead2224d40	-0.030486744952736844
225	0x3fb942d8e315520d	0.09867625755334349
226	0x3f7efa955bf812bc	0.007563193735681647
227	0xbfd255ce18f042ea	-0.28648712573435253
228	0x3fd2bb4ada121940	0.2926814202877672
229	0x3fbee4b514b57f4b	0.120677297168638
230	0xbfc2398d2fca4619	-0.1423813327169661
231	0x3fbff649a7b3b887	0.12485180229461622
232	0x3fc2f51accd445ad	0.14810500146317676
233	0xbfcfc94632ff4139	-0.24832990160076365
234	0x3fcca3ffcd8fdc07	0.22375485932545322
235	0xbfb0e9a115783527	-0.06606489919814305
236	0x3fdf26f750c64457	0.486753300553635
237	0xbfd1e503a5a70a0c	-0.27960292031289735
238	0x3fd7a36a5f2125d5	0.3693490914343703
239	0xbfab6163b209c04f	-0.05347739742580925
240	0x3fc8e0d5c9221b5a	0.19436142273863305
241	0x3fd41ea8ce46636c	0.3143713011173108
242	0xbfb6dce7f1c04886	-0.08930825855375887
243	0x3fd05c7cc3c6858d	0.2556449806089283
244	0xbfc79745d9722c2b	-0.18430398099403197
245	0x3fd11d911b77bca4	0.26742961580652946
246	0xbfb1171e076ee0b6	-0.06675899201843802
247	0x3fc199ec51da91f6	0.13750986096160006
248	0x3fd292d3669bde2f	0.2902115346946372
249	0x3fd630a93b8fd324	0.3467200357111315
250	0x3fdf044fef7e2bb1	0.4846381987378506
251	0x3fb17f40de4eb170	0.06834798266817699
252	0x3fc0c52d37b2fb63	0.1310173532455919
253	0xbfded6c5236216f7	-0.4818585248507214
254	0x3fc9d0f3ffc5d5ab	0.20168924321084822
255	0x3fc521b80d73a918	0.16509152085138434

layers.2.bias f8 [20]
0	0x3f8610a2f15fb6bd	0.010773919097086243
1	0x3fa2d0d5abffe281	0.03674953198055154
2	0x3f7439bb418ef1d3	0.00493786951932092
3	0x3f8a879684964c20	0.012953926011311678
4	0xbf942aedbd19ad64	-0.019695009867445448
5	0x3fa3e7b52437baec	0.03887716357336565
6	0xbf945f9119158b82	-0.01989580836869776
7	0x3fb63a565ba098a2	0.08682765709872567
8	0xbf650f061277e14a	-0.002570640430118375
9	0x3f92387ca2463e2c	0.017793605236475482
10	0xbf9e4dcf84e2e572	-0.02959369896482173
11	0xbfa06ac2d40cf9b9	-0.032064522156804505
12	0x3f967bb619765d47	0.02195629625711362
13	0xbfb24d5f78b735fe	-0.07149311730537275
14	0x3fa4fdcc4b5f9634	0.04099882526479029
15	0xbfc1b49c9fd487b7	-0.13832433513840467
16	0xbfb59a4989d342df	-0.08438548674463274
17	0xbfabcbc1efbb5122	-0.05428892184650837
18	0xbfa5aefe1e6e31ae	-0.04235071298089409
19	0x3fb1c160431af20c	0.06935693395912085
