main/continuous_time_identification (Navier-Stokes)/model/pt_model_NS_clean_700.pt (torch, 38272 bytes, 22 tensors)

linear_in.weight f8 [20, 3]
-0.09112107964263698 0.29730188789989953 0.6574834458524752 -0.0654817778607905 0.3604901364223236 -0.07529272764340343 -0.15238573819900356 0.009782364940826483
0.052682985966407817 0.1012104688769656 0.29881570110148764 -0.21673277576480984 -0.5338801106604218 0.49560876757858174 -0.36207546794023365 0.08150658405199883
0.2993814858493776 -0.15478774299192638 0.51987375636556 -0.3923370374837077 0.1644455702568994 0.4155464153715587 -0.1901644210649951 0.469147153879969
0.030090791395631644 -0.303116283663701 0.5037979421505931 -0.1274449808233817 0.0382287032848268 0.1438015650011039 0.08737640732101447 0.13827639005021863
-0.06586874352871645 0.08691664021725393 -0.14451503777828398 0.17137713576589447 0.08688254490754768 0.12929696581631295 0.4309127462030989 0.03572903047459251
0.19703533495232625 0.09619252100966608 0.36695599173582516 -0.021021152248731575 -0.2517595428919136 -0.38188626073384735 -0.08430661183695509 0.33056058213973394
0.3745355310353643 0.25264373418518554 -0.6435562796565237 0.23664890756651705 0.3756941539927409 -0.062964487448142 -0.11457561884236128 -0.1391089851511319
0.04655655816459012 -0.20661945614486818 0.31988470873142777 0.23567992490539555
00000000: 1395 0a09 b653 b7bf 926c 647f fe06 d33f
00000010: ea20 33b9 1a0a e53f 5b62 65ee 69c3 b0bf
00000020: afb9 9d38 4512 d73f bfe4 da5a 6246 b3bf
00000030: 5384 f838 6081 c3bf 2db2 fccb c608 843f
00000040: ea0c 90ab 43f9 aa3f 77e2 d6e5 ede8 b93f
00000050: e5c7 f0e3 cb1f d33f d7c9 f04b e6bd cbbf
00000060: 16af e8bd 8b15 e1bf 8e18 17d6 0db8 df3f
00000070: 492e 5f95 3e2c d7bf 7f79 e990 9ddd b43f
00000080: ca0f b0f6 1029 d33f be69 fcb2 15d0 c3bf
00000090: a870 b449 cea2 e03f 9921 40ce 0c1c d9bf
000000a0: a7db 1c6d 8d0c c53f 846a fffd 4f98 da3f
000000b0: 7020 abc8 4e57 c8bf b542 bbc8 8106 de3f
000000c0: 80ea d1d3 1ed0 9e3f 361f 4ed7 4166 d3bf
000000d0: 5486 aadc 1c1f e03f af7f 56fc 1d50 c0bf
000000e0: 67ee c06c b692 a33f cd8c 65f5 1668 c23f
000000f0: 57bf e2db 4c5e b63f 708d 896e 0ab3 c13f
00000100: a3d1 4823 c6dc b0bf 0418 363f 2b40 b63f
00000110: 07db 8400 787f c2bf 0ac6 b29c afef c53f
00000120: 829e f838 ef3d b63f 9698 d38f cd8c c03f
00000130: 85cc 170e 1394 db3f 7ef4 cf52 134b a23f
00000140: 2b69 e32f 7438 c93f 0c37 dbb3 12a0 b83f
00000150: 44e7 e4fb 347c d73f 7feb baa5 9186 95bf
00000160: b24e cb0e d41c d0bf cc30 2912 d370 d8bf
00000170: 4021 ad3c 1e95 b5bf a0c2 6892 e727 d53f
00000180: 1629 3fe0 63f8 d73f 1157 f79f 502b d03f
00000190: 8e53 c856 0398 e4bf c9ef 50eb 824a ce3f
000001a0: 179f 2c7e 5f0b d83f 2930 66ce 701e b0bf
000001b0: a4ce d8e7 d354 bdbf ece4 e6be 52ce c1bf
000001c0: 9c64 76dd 42d6 a73f 9704 6e9f 8172 cabf
000001d0: 677c 9fb6 fd78 d43f af6d e580 c22a ce3f

linear_in.bias f8 [20]
0.14760260404287245 -0.06948487508859051 -0.1134406552452645 -0.058205609775594816 0.05996400625864184 -0.06026231045877036 0.12465894668407712 -0.10650065178241536
0.10975181496571088 0.12344905091872065 0.11952353760380827 0.08296466855978071 0.1993804885534741 -0.1840776240402053 -0.2350345182908028 -0.03334358956432339
-0.04587471591758696 -0.016594388090423816 -0.13385291530048615 -0.07431041706229313
00000000: da93 9562 a4e4 c23f db77 12c2 c2c9 b1bf
00000010: 62b2 5060 720a bdbf 2a1e dc2c 20cd adbf
00000020: afd1 a22b 9ab3 ae3f 6b21 3499 b3da aebf
00000030: 8473 2913 a6e9 bf3f 0c7d 6870 a043 bbbf
00000040: b251 f4e7 b118 bc3f 7b0b 6b64 5b9a bf3f
00000050: 264f 1c35 1899 be3f 920f 302a 2c3d b53f
00000060: 2b1a e6c2 4c85 c93f d7ca 9607 db8f c7bf
00000070: fcbb be70 9c15 cebf 3387 6b35 6912 a1bf
00000080: 809d 2809 e47c a7bf 86fe 9488 1efe 90bf
00000090: e04c d8a2 1722 c1bf 18e0 08eb 0106 b3bf

linear_out.weight f8 [2, 20]
-0.07531783360321459 -0.020714150860019518 0.4079298720502176 0.4669409618058214 0.36301806889358174 0.04268878765241204 0.5522907562476214 0.3987146035359778
0.44493440105866944 -0.5247296837085536 0.2537930367512727 0.7588313667823721 0.17395925809875393 0.11092378208680775 0.26251790289556914 0.18026771718375634
0.293530493353514 0.18810447127602728 -0.366580849941285 0.08979843147230425 -0.2632904643329308 -0.38163353393239696 0.2711140248878218 0.25813189855180924
0.46995774899059045 0.010505884370741691 -0.10131244792901008 -0.044943230740087284 -0.027919994780769123 0.005427464220098492 -0.23715509134163792 0.048555683324606795
0.10295857997934403 0.01705311374656154 0.20205542944362057 0.30339532571035194 -0.15132752930722554 0.49988751387226316 0.3491356069955218 -0.2829454886669556
00000000: e4a1 2190 0748 b3bf 0964 0822 1736 95bf
00000010: f818 e1e4 851b da3f 399a 0758 5ce2 dd3f
00000020: 0f52 7023 b03b d73f a3f9 be05 4edb a53f
00000030: baee fea9 5dac e13f f3f9 a741 8a84 d93f
00000040: aa63 5a23 ce79 dc3f e098 d8e7 95ca e0bf
00000050: c926 3326 253e d03f ee4b f0b7 5848 e83f
00000060: e16e 2f06 4c44 c63f 1856 6940 8065 bc3f
00000070: 2543 e3e3 17cd d03f 7816 ea36 0313 c73f
00000080: ee40 551f 34c9 d23f 0553 2eac ce13 c83f
00000090: eb9c 7586 0f76 d7bf 47d8 67ae 07fd b63f
000000a0: 6026 6a3f c0d9 d0bf b2fa d20e af6c d8bf
000000b0: f753 98a3 ee59 d13f fb66 95a7 3b85 d03f
000000c0: b1a5 9aaa c913 de3f e69a 4dee 1b84 853f
000000d0: a965 88d2 9cef b9bf 6a17 6994 cc02 a7bf
000000e0: 819a f321 0f97 9cbf 4562 35d5 1b3b 763f
000000f0: 8434 b218 195b cebf 5f07 d45f 4adc a83f
00000100: 1398 da55 7e5b ba3f 4f86 5817 5f76 913f
00000110: 5944 b8ca f3dc c93f cdda 6b3a d46a d33f
00000120: 36f4 ad52 b35e c3bf c0a5 f032 28fe df3f
00000130: 508d 7adf 3c58 d63f 2105 1865 c71b d2bf

linear_out.bias f8 [2]
0.0 0.0
00000000: 0000 0000 0000 0000 0000 0000 0000 0000

layers.0.weight f8 [20, 20]
0.17732039308979758 -0.1732897451047245 -0.007303769534980869 -0.240878398194178 -0.33311518968007664 -0.05442944664009377 0.4892029693010274 0.06375538164841946
-0.45628267962680463 -0.10792250627244972 0.33456015016336454 0.09917270032105881 0.23722223555731592 -0.0068141890470501685 0.08467315654296605 -0.5629709322253148
-0.16667767994339677 -0.009420989189839664 -0.17151326412879248 -0.06961260097278901 -0.24295696494517685 0.024765030154336624 -0.06349316498087203 -0.11590738948156161
-0.11400502708141842 -0.0494870401346455 0.11256580893193689 -0.08226994392537731 0.057171619801618535 0.11353983341356 -0.055453718113789706 -0.09644405170471661
0.25667566725921037 -0.09636738601685971 0.013847945014556223 0.1792001519804021 0.16045996320734213 -0.19694661391283044 0.023908159571525853 0.10308135814056459
-0.34194199908889156 0.2624589416398729 0.03882345613131666 0.12232617907760004 0.06598024854400425 0.12155084876396885 -0.04594325817536029 -0.09563860363531809
-0.24096868871850627 0.1556982081822353 0.4980435320037314 -0.12398381667806668 0.20640821476822002 0.1903249313264745 0.2694393492688685 0.17650484279843354
-0.19618159015475428 0.025222042656848354 0.10347216320684602 0.557782072200558 -0.09890167920775565 0.010252727189387871 0.13587832673513808 0.0759434426641083
0.29187857868678035 -0.01072700072802829 -0.09811011640214994 -0.17383561570397452 0.2556334455086711 -0.2552757792991371 0.02862577422207811 0.2385588293568358
-0.10748069857828692 0.07446474309506151 -0.04028822615562925 0.08475196749637522 -0.1861159403981641 -0.16260343961404733 0.09467391924829863 0.14870122866946595
0.1631674370418577 0.00020311280751087447 -0.3875044653765621 0.171626638401678 0.18915550734255107 0.024565552592514108 0.23235705752257102 -0.03400833937932351
0.26148036749104187 -0.20709514363514547 0.18383283503637157 0.3072367651362037 -0.16221432957274193 0.3590545853561232 -0.2816008023477936 0.04459660618603475
0.606860400379297 0.12976868182112444 0.19231907380725569 -0.3403726849014935 -0.12016434595470576 0.2094379554953336 0.1976076816421838 0.0681289575697868
0.11660115517798528 -0.07313944506912855 -0.11923250500232996 -0.25590824957404323 0.17825869118055718 -0.020832305275342355 -0.1193958660210336 -0.27449268567285473
0.22373440154117996 -0.14441925403006048 -0.46182159907692244 0.050384607868695724 0.006393427630561723 0.005751516175216829 -0.2452753890541078 0.1015110205618081
0.3721218523766985 0.17432409960171474 -0.05333210704301306 0.11985229964413155 0.16665066816715318 -0.0191775978970401 -0.22842328237532553 0.14122148275527888
-0.06925781618383556 0.1408759612757697 -0.2124870554029583 -0.06443606999287434 0.03899739356156471 0.25114237010874024 -0.4711911556166675 0.48990999156023773
0.11856991570808215 0.07915923835054187 -0.03785021200381752 0.1545037971031011 0.08299774859039709 -0.11210439049817825 0.36636142569699 -0.17184483099559725
0.13630676269335165 -0.0042103071304779765 0.21359294325113254 0.08264684066842723 0.08109807711374929 -0.19654534232487336 0.34105667022871167 -0.14391412733262873
-0.29696410311386373 -0.15625717145110768 0.25422472559380377 -0.13853486593627232 0.06957278840232982 -0.21853381074342826 -0.18861963970959625 -0.046921356141618735
0.01991030288653602 0.07113536505120474 -0.28046168764576174 0.40185647001934155 0.05249260166881944 0.019102538781803218 0.11383583134969584 0.08317121946822213
0.015072370457871407 0.13226369509775115 0.4129722199103448 -0.14016526754950132 0.1798923829260832 -0.4692476830133264 0.36256670023974397 -0.593980602239486
0.060970974504465106 0.03302471172827157 -0.27644540774569226 -0.08388608836004845 0.1280000923990002 -0.08823355273194892 0.15518062505396535 -0.27243247778560137
0.0070851998731066125 -0.29689298367589617 0.3133499574669815 -0.395554837900215 -0.0005062665924990588 -0.18305814908216145 0.039884075472027956 -0.017302953348629826
0.07189937201934447 -0.16349753484198565 -0.5350017443960685 0.5445770410010976 -0.0195287404374471 -0.3459521854942901 0.07470158473715661 0.18531713909745728
-0.09295592870010283 -0.2885149743120885 -0.04197373051679146 -0.5090401693809508 -0.05740432030758854 -0.1352415310586166 -0.234879639464771 -0.16555070585632384
0.13973141185042892 0.13137248364458304 0.24236089345922754 0.12091414206466536 -0.29347738577849897 0.0967053269134455 -0.08977238844043689 0.034271066927170066
-0.34081494799438855 0.08672111511753043 -0.19613779740229936 0.15833017741328523 -0.29351184115340845 -0.3303743554323844 0.053327221556254786 0.13527944475575354
-0.2137641517035691 0.18338311296928503 -0.4142678077985177 0.2993928531230593 -0.1495130620559162 0.08414158563540228 0.03720526451422482 -0.013022636779790072
-0.1481043345301154 -0.28610290433990637 0.023440929909212663 0.4073407901407185 -0.23055020606193583 -0.04974090115944674 0.06396326755739454 -0.2133130908603814
-0.00896098075899642 0.24647827572629827 0.1399689043474567 0.24181940519757344 -0.12256969272477229 -0.07769067789053703 -0.17658526110757927 -0.5074301155597319
-0.2280741924821377 0.018688538027001794 0.16953582456383076 0.03307684709942223 -0.24335897874960474 -0.08338286331691322 -0.08171197138767672 -0.2090686572516128
00000000: 9205 9e44 6fb2 c63f ec7d fabd 5b2e c6bf
00000010: d3eb a4b4 8eea 7dbf 3047 4775 1ad5 cebf
00000020: 5583 5e5f c251 d5bf 9364 842a 2dde abbf
00000030: 9d41 90f8 194f df3f dabb 1fcf 4552 b03f
00000040: a39d ae44 bc33 ddbf 6949 f132 cfa0 bbbf
00000050: a7c6 dff9 6e69 d53f e5f2 88d0 6163 b93f
00000060: a024 cd57 4c5d ce3f 4187 b1f1 31e9 7bbf
00000070: 197d 33d6 23ad b53f 1934 d09d db03 e2bf
00000080: e43e 2ab8 b155 c5bf b10b bbc3 4f4b 83bf
00000090: 3ab6 218a 25f4 c5bf fa4f 91a4 21d2 b1bf
000000a0: a931 63bd 3619 cfbf 61aa 630a 015c 993f
000000b0: cbc4 1c8b 1641 b0bf 7d23 304f 1bac bdbf
000000c0: f5ef e4f6 6e2f bdbf 4885 e885 5d56 a9bf
000000d0: 17ad 02e4 1cd1 bc3f 8e6e 9a9e a40f b5bf
000000e0: 1d56 9d3a 9945 ad3f 90f5 4d4f f210 bd3f
000000f0: 7b0c 7b03 6e64 acbf 692a f7af 8eb0 b8bf
00000100: 95aa 23c7 5f6d d03f 62ea 5773 88ab b8bf
00000110: 4375 a2b7 4f5c 8c3f d9d6 18d4 07f0 c63f
00000120: ac7d 25bb f389 c43f 4122 e8f0 8b35 c9bf
00000130: 8c77 de6d 617b 983f 357e 0a36 8a63 ba3f
00000140: 3acd cdb1 60e2 d5bf a9b4 b896 20cc d03f
00000150: 10ab cd04 abe0 a33f 023b 95ba c450 bf3f
00000160: e4ae ade1 14e4 b03f 9a06 3ed8 f41d bf3f
00000170: 6372 abee df85 a7bf d24a d982 c57b b8bf
00000180: 6ff7 b3de 0fd8 cebf c620 183c ebed c33f
00000190: ca2e 7cfa f1df df3f 1095 dd45 67bd bfbf
000001a0: 6812 079a 956b ca3f 4e90 d43d 915c c83f
000001b0: 4461 578a 7e3e d13f 8ad3 b3ef b597 c63f
000001c0: 765e e574 7a1c c9bf 40de 65a1 ced3 993f
000001d0: 2e10 05d5 267d ba3f 30b0 ccc9 59d9 e13f
000001e0: cb7f b7d5 9e51 b9bf 492d c9bf 61ff 843f
000001f0: f303 c804 7664 c13f ec86 968a 0771 b33f
00000200: 3836 777d 23ae d23f a007 7daa 09f8 85bf
00000210: e79e 5a9d be1d b9bf 630f 2ad6 3e40 c6bf
00000220: 7d4e 0e62 4c5c d03f cb3e e338 7056 d0bf
00000230: bb0f 6d30 1350 9d3f 5c3c 2181 1889 ce3f
00000240: 5950 58e5 da83 bbbf 6c5f 4c14 1f10 b33f
00000250: c52a 818b a8a0 a4bf 7d28 ab10 4eb2 b53f
00000260: 8a1f a3aa a5d2 c7bf 4402 ae83 30d0 c4bf
00000270: 62a1 f4ca 8c3c b83f ee53 0151 a408 c33f
00000280: 2af7 eeaa abe2 c43f c984 37bb 559f 2a3f
00000290: c129 7687 dfcc d8bf 3f60 8797 dcf7 c53f
000002a0: 7180 f266 3f36 c83f 37d9 f853 b627 993f
000002b0: 1ef1 8645 e0bd cd3f 57d6 d982 8a69 a1bf
000002c0: b2e2 ba26 18bc d03f 4464 89fa 1782 cabf
000002d0: 47c2 3497 d587 c73f 8ee2 9864 c4a9 d33f
000002e0: 1b8f 3a6c 70c3 c4bf 4256 6515 c0fa d63f
000002f0: d01c 275f bf05 d2bf dbc8 29ca 5dd5 a63f
00000300: c0ba 9b80 666b e33f c4be 3b9a 429c c03f
00000310: 1d18 3352 e99d c83f d6a1 8683 aac8 d5bf
00000320: 044c 0530 17c3 bebf 3760 b2e8 dcce ca3f
00000330: 35b8 0b61 354b c93f 033d ac3c e670 b13f
00000340: fe4e 2ac4 92d9 bd3f 4397 9e44 44b9 b2bf
00000350: 00ec 9a7d 0586 bebf a49d acfe cc60 d0bf
00000360: ad93 6c48 2ed1 c63f 1079 6e57 1055 95bf
00000370: 0983 d63b ba90 bebf 0d31 fdc4 4991 d1bf
00000380: 1804 ce30 54a3 cc3f cb64 7c82 547c c2bf
00000390: aacb 272e 7c8e ddbf 5421 09e6 02cc a93f
000003a0: 025a 52a9 fe2f 7a3f e4e1 ffdd e68e 773f
000003b0: 0b23 4017 2f65 cfbf db1d 7f51 a0fc b93f
000003c0: 586e 852c d8d0 d73f 5ed5 5889 4050 c63f
000003d0: a12c 278f 584e abbf 7e6a 52eb a3ae be3f
000003e0: 5a36 d120 cf54 c53f c06e 22cf 4aa3 93bf
000003f0: 2d37 b95f f93c cdbf 3799 f6a8 8b13 c23f
00000400: 0280 8057 e1ba b1bf 476a 3c37 3908 c23f
00000410: c8b7 e39c c632 cbbf 815a 4ddd e17e b0bf
00000420: 6dcb f363 77f7 a33f 2772 9072 b712 d03f
00000430: 256f e2f2 fe27 debf e607 ef6f af5a df3f
00000440: de74 4116 995a be3f 0a50 e4a3 c743 b43f
00000450: dbf7 675d 1a61 a3bf a733 d5c9 c7c6 c33f
00000460: e75e d627 573f b53f 027d ed92 dfb2 bcbf
00000470: bf9b 7831 7772 d73f 2d6e 8eec 02ff c5bf
00000480: 09ec feff 7f72 c13f f57f e7b6 d33e 71bf
00000490: 80c2 f578 0357 cb3f dae2 c9e5 5728 b53f
000004a0: 91d7 f8f4 d7c2 b43f d2b4 bbd4 6528 c9bf
000004b0: 20c2 2d5b dfd3 d53f 07bb 2933 c76b c2bf
000004c0: e970 bdb9 7501 d3bf c2f0 9228 3c00 c4bf
000004d0: 35a3 90c8 3745 d03f 0da9 46af 82bb c1bf
000004e0: 2f29 e1b2 85cf b13f b04c 1b79 eaf8 cbbf
000004f0: 77cf f737 b024 c8bf 0f75 3974 1306 a8bf
00000500: 5527 01cf 5d63 943f dee3 7b62 ed35 b23f
00000510: 840c 0e94 15f3 d1bf 26d2 1a33 04b8 d93f
00000520: 6329 e66e 4fe0 aa3f db89 5aad 9d8f 933f
00000530: cd89 c254 5824 bd3f af9e 9583 b54a b53f
00000540: df9d 8451 43de 8e3f 684c 724a 04ee c03f
00000550: 0df9 aa08 236e da3f 6081 147c eff0 c1bf
00000560: d7c7 bbae b606 c73f 5606 116f 2708 debf
00000570: 557e 09f6 4a34 d73f 9876 a29b e301 e3bf
00000580: a2fc 006b 9637 af3f bd5e aa71 9de8 a03f
00000590: a26a 5914 48b1 d1bf ab84 1806 8f79 b5bf
000005a0: 338d 5e99 4e62 c03f c3c3 645f 7996 b6bf
000005b0: f830 ca6e f5dc c33f 1d46 9da1 886f d1bf
000005c0: 6d90 d9db 5e05 7d3f 8330 d36d 4b00 d3bf
000005d0: eb83 e1fa ec0d d43f 9595 233d c550 d9bf
000005e0: 2387 9a3a df96 40bf 987e c90d 736e c7bf
000005f0: 3b2e 917f af6b a43f 97bc 068b ddb7 91bf
00000600: c70f 6d4b ff67 b23f cabc 8fba 7ced c4bf
00000610: 777d 6ffa bb1e e1bf bd11 a8d4 2c6d e13f
00000620: 792b 0b96 57ff 93bf 765f aba2 1424 d6bf
00000630: 41cc 679f a41f b33f 18eb e7d5 78b8 c73f
00000640: d87a bcb1 f5cb b7bf a8e8 c482 0777 d2bf
00000650: 74b2 b8af 947d a5bf 70ed fa9b 0e4a e0bf
00000660: 0b8b bd5c 1964 adbf c996 7a30 984f c1bf
00000670: d9ac ff38 8910 cebf b5c6 bdf9 c330 c5bf
00000680: 488d 0f0a b8e2 c13f 0684 6c44 d0d0 c03f
00000690: ed4c 9e87 ae05 cf3f a2a8 caad 3af4 be3f
000006a0: cd30 825f 55c8 d2bf 7236 7128 aec1 b83f
000006b0: f07b 6fc0 52fb b6bf 0e6d 4d2f fa8b a13f
000006c0: fdec e77f e9cf d5bf ff6c 4de1 5a33 b63f
000006d0: ca19 ad18 0b1b c9bf 3fdf faca 2944 c43f
000006e0: 5a87 afe3 e5c8 d2bf 193a 017b da24 d5bf
000006f0: 9e2d 24a1 b44d ab3f 1a04 863b d650 c13f
00000700: a0df 4fac 9f5c cbbf 8dbe 6b0c 1979 c73f
00000710: 92ef 911f 5d83 dabf 7e75 34a4 4029 d33f
00000720: f06f ed77 3e23 c3bf 86a2 898e 4d8a b53f
00000730: 74be a784 910c a33f f175 9db8 9cab 8abf
00000740: b8f1 9934 15f5 c2bf 8c8d 5b8e 824f d2bf
00000750: 043f 642d e600 983f bdcb fe1a df11 da3f
00000760: 2aa0 8f4d ab82 cdbf a0bc 81af a377 a9bf
00000770: 16e7 4d8e e55f b03f f3e9 86e6 d74d cbbf
00000780: 3b59 667a 225a 82bf 3a9f b5a2 998c cf3f
00000790: 358c 5045 80ea c13f d64d 6e32 f0f3 ce3f
000007a0: 8bd1 bb35 ba60 bfbf fd71 be48 89e3 b3bf
000007b0: 7ed2 b488 589a c6bf a1b4 ea14 de3c e0bf
000007c0: b1dd e2fe 8831 cdbf 284a 8b8e 1623 933f
000007d0: 1043 0093 59b3 c53f 9af7 17d1 72ef a03f
000007e0: 0371 7513 6326 cfbf f633 fe4e 9458 b5bf
000007f0: 1840 cd64 13eb b4bf ebd4 c102 c3c2 cabf

layers.0.bias f8 [20]
0.2141842400036148 -0.044623761974640234 -0.12842396773640843 -0.06462372065838404 -0.00829120634240777 0.10445397618608235 -0.019124348485788513 -0.07531626661094172
0.4161523340207862 0.12307226279511799 0.1006006404262468 -0.0847225508325823 -0.18862257510709984 -0.00737769870196691 0.08069744756459452 -0.0813327482534272
0.06428182319957249 0.15226004013463898 -0.10095551030819529 0.2735455416588145
00000000: 842b 11a1 636a cb3f 6f73 9cfc ecd8 a6bf
00000010: cda7 b952 3270 c0bf 960a c61e 2e8b b0bf
00000020: c323 aee0 fafa 80bf f208 a8eb 7ebd ba3f
00000030: 2a0f 374d 5595 93bf 6168 f345 ed47 b3bf
00000040: 7c7e 3166 3da2 da3f 92ef bfef a981 bf3f
00000050: e65e 96ac f6c0 b93f 7944 0f89 60b0 b5bf
00000060: 72a7 afd7 c824 c8bf f8a5 50ea 1338 7ebf
00000070: a01d 2982 96a8 b43f 129f d715 39d2 b4bf
00000080: 2c92 5e08 c674 b03f 87d6 6eca 417d c33f
00000090: a9eb 1f67 38d8 b9bf a609 d928 c581 d13f

layers.1.weight f8 [20, 20]
0.4418857142111807 0.1508855012096411 0.3620956339191544 -0.1956216496052211 -0.375427782288113 -0.24329255159611748 -0.18685093597361147 0.008515414596615253
0.25865124632189307 -0.2795449684621096 0.04356786736165853 0.08933161375833809 0.08903863028814045 -0.586292401141074 0.03673224781227151 -0.09692056151416216
-0.04774288703079522 -0.30071758106192387 0.07469994381616034 0.34569975061627645 0.16421663819871718 0.12088744298459095 -0.08492868103161594 0.33981794446845126
-0.10441258378937208 -0.011716731559920347 -0.10192786796618068 0.4813028389583431 -0.15182706142341929 -0.055073325251644656 0.1743039421724323 0.009398820626882536
-0.20861976908378677 0.06490055218083142 0.09167107644580504 0.08421306968535083 0.23154925538866553 0.11794041016508666 -0.12994548164270636 0.3654310156195802
-0.13235440749245075 -0.08532819477831594 -0.02365845498722781 -0.27920766158014665 0.21848392774362335 -0.31020922758328695 -0.32972891143778427 0.4174786651347951
0.2675236452308872 -0.12616528908509397 0.11149454870803006 -0.052843683226795925 -0.09799418137388254 -0.30601087666511045 0.16374132606260106 0.07148251855071651
-0.26166285876044526 0.5149631221535963 -0.007357040609494155 -0.18054682758331547 0.3297678046079633 -0.03928631988016628 -0.4576796007279849 -0.4635836241879197
-0.20509974497278405 0.16948779001819528 -0.0014984467437634417 -0.004828035103403985 0.045772649030053174 0.20385712418608704 0.05982993965170789 -0.465485230239275
0.002271534282437254 -0.007125905634759204 -0.25217331534230547 0.01001549244671972 0.1901172823743806 -0.06301461326742919 0.1796347752808774 0.4080311468321584
0.2663705730160178 -0.20400910041890016 0.05666354842180671 0.11344833750712481 0.030048500057650876 0.10832676817526325 -0.08211145941343213 -0.012576322015177445
0.11978164174869281 -0.046117627639826304 0.3720268407176059 -0.037522034290727084 -0.05864809141562443 -0.12438514717645278 -0.347219185568824 0.5018193190475688
0.27645945004260714 0.15559833350892638 0.2494038073402727 0.28680784625844624 -0.06423549333669751 0.10183239979990485 0.15964015465989925 -0.025416957186026493
0.004871209480964611 -0.36851410829870157 -0.09446736100157432 0.02176162019638935 0.4321989628174954 0.21443787220291957 -0.13846396793848606 -0.18853051104652505
0.23424205836227652 -0.11229357483966136 0.33887715750571407 -0.0086475494871051 0.021353655366767112 -0.005628081894137485 0.39213708937600894 0.11552169545913811
0.05270430494650467 0.5221092803936271 -0.2918659915380283 -0.31689643571372333 0.176987703260188 -0.20589976442910485 -0.3415004920999446 0.4614232384422832
0.2636282069648532 0.16527529503591315 -0.1495976637950437 -0.38153089026692505 -0.33134477098124443 0.17968257572520088 0.4083034654078245 -0.23112492747908006
0.17225533811524663 0.3609095838035079 -0.06967110308042448 0.10141247880877302 -0.026457507369494683 0.4831745756061868 0.2598915464855422 0.10772603878625331
0.6743200298196756 -0.029216273526694637 -0.25976288611931864 -0.15169574268008984 -0.10339289851988769 -0.22393563537854977 0.20649596271970852 -0.19358269926907756
0.027501809272425338 -0.14158789825920848 -0.45507334316457526 -0.11335238254486293 -0.23853358358823987 -0.13101688222949723 0.2130287513376205 0.28910797521980613
0.11630916040040061 -0.002805033481790586 -0.032475622403418516 0.31205846892328 0.0576719451819146 -0.1101349741696557 -0.4267029466687289 -0.12731889635644622
0.22519973120435244 0.1508357494647333 -0.1274627805763344 0.08613545756045625 -0.01997679267553647 0.14338275833620215 0.03413245991724439 0.108949835006037
-0.3399085074965873 -0.49822437362560196 -0.33397036318176093 0.2273833112669837 -0.014110492685288559 0.018678316097908775 -0.21338322270016918 -0.017718480018790613
0.17323434474697938 -0.33084857323073213 -0.26753917748132255 0.05014795343450598 0.06476154347809665 -0.13307141336290687 0.12135591523155022 0.017258427011558487
0.04292648839713893 -0.15826211881920885 -0.1961196883971593 -0.29501373483158116 0.012768520393032215 0.065746615637369 0.1541148378507296 0.04429302086116569
0.1102669277183836 0.03760341135283083 0.15172460076502997 0.21298661117447146 -0.3493346079730757 -0.05715529263277928 -0.12179994014156022 -0.09600379226530521
0.06685924542085872 -0.2603548912545519 0.05407681267460879 0.36909878777574234 0.22242391513163146 -0.23055231912119703 0.7544301162534849 0.19926391549760653
-0.16201648011559286 0.21438956744044027 -0.5564373811635407 -0.07019794686948765 0.561594826356157 -0.43515532304104826 0.17023220111747367 0.3854908071164568
0.21168665768815045 0.2767014444772559 0.07601875061201582 -0.3016351665393022 -0.3100900530678094 0.00646577156883843 -0.5115138890328836 -0.40038909108642223
-0.16482655615150701 -0.08305698400663958 0.313583228119868 0.013308739272725119 0.4632469130633993 -0.13222623812323314 -0.2531833192246051 -0.2661359155432863
-0.04545766095086147 0.19331545788090623 0.009716907407649564 0.4782684712329197 0.15023084896912625 0.08108323759028646 -0.056902149469253815 -0.16712497262869058
0.08067399384293043 -0.11764174347004829 0.3475377573375854 0.433777657877488 0.4509291466598629 0.07348950772400101 -0.027697794358202833 0.1512342413278902
00000000: ecd2 c604 db47 dc3f b167 9152 3750 c33f
00000010: 0d42 6d2a 932c d73f dcd4 b855 210a c9bf
00000020: f6fb bb3f 0207 d8bf 9f9c 3bd8 3524 cfbf
00000030: 48e8 9d41 bbea c7bf de7e a299 8770 813f
00000040: 406b 01f5 bd8d d03f 5797 5394 10e4 d1bf
00000050: 9217 f30a 874e a63f 8849 97c7 6fde b63f
00000060: 0b0f 2b55 3ccb b63f 4c6a 1948 e8c2 e2bf
00000070: 56e2 1fb6 91ce a23f 7f66 0332 c9cf b8bf
00000080: 21e9 d374 c171 a8bf 7590 fff3 f43e d3bf
00000090: 0b15 b417 891f b33f 0077 c8d8 f11f d63f
000000a0: 12e3 4201 0d05 c53f 7eaa 1dbe 7af2 be3f
000000b0: d4f0 85d3 e2bd b5bf 1480 85c3 93bf d53f
000000c0: ed8c aa78 c8ba babf b44c ed16 f1fe 87bf
000000d0: 873b 77db f117 babf 0f13 336c aacd de3f
000000e0: 240e bbb3 116f c3bf 20f2 ac25 9232 acbf
000000f0: 75e4 9871 974f c63f 291b b559 b03f 833f
00000100: a8c8 c176 0db4 cabf 3de8 1b95 529d b03f
00000110: bde7 5273 c177 b73f fac0 31dc fc8e b53f
00000120: 2f5b a7ef 67a3 cd3f fc2e 89bc 5731 be3f
00000130: e08d f5b4 0da2 c0bf 2dee 41c5 3863 d73f
00000140: 20ad d43d fdf0 c0bf cce4 ff8d 11d8 b5bf
00000150: 34b0 c609 ec39 98bf 20e1 d1cf 89de d1bf
00000160: 8424 2e06 48f7 cb3f 12cf d8cd 77da d3bf
00000170: 12f1 ca4a 471a d5bf 0d07 626f f8b7 da3f
00000180: 7118 cb7e 1b1f d13f 0164 4127 2f26 c0bf
00000190: dd1d 6220 e88a bc3f 55bf 84c6 530e abbf
000001a0: 63f9 328c 2516 b9bf d9cd dfa4 ae95 d3bf
000001b0: 48a5 38cc 79f5 c43f f739 69a7 ad4c b23f
000001c0: 000e 3d93 15bf d0bf c776 09f1 937a e03f
000001d0: 7c8b 028d 6a22 7ebf 46f6 ee8f 281c c7bf
000001e0: a827 046c ea1a d53f 5f8a 2126 561d a4bf
000001f0: f912 4b61 9f4a ddbf 0d4a 36a6 5aab ddbf
00000200: f0bb 895c b540 cabf 0988 99a1 c6b1 c53f
00000210: 47be 97f0 f08c 58bf dc0d f8cd 8fc6 73bf
00000220: 7f4e 453d 836f a73f 14ca b780 fd17 ca3f
00000230: dd60 40a4 07a2 ae3f 9284 2990 82ca ddbf
00000240: 73cf 8dae c09b 623f dea2 7dba 0d30 7dbf
00000250: 166c 948b 9b23 d0bf 7991 18a4 0083 843f
00000260: ffe6 195b c355 c83f a058 27c7 b921 b0bf
00000270: 7220 87b6 45fe c63f 032f d9ab 2e1d da3f
00000280: ed1d ee28 370c d13f e759 315f f81c cabf
00000290: 58a6 b12e 0103 ad3f 99f0 6043 f30a bd3f
000002a0: b475 2ab4 08c5 9e3f db18 9896 4dbb bb3f
000002b0: c9b9 ceb0 4105 b5bf 41be 125e 9dc1 89bf
000002c0: 73c9 f879 02aa be3f a1dd f6cc ba9c a7bf
000002d0: c371 87aa 49cf d73f afed 508c 1636 a3bf
000002e0: 9fb2 3465 1f07 aebf 9123 3b7b b4d7 bfbf
000002f0: 6bf5 a3d1 d638 d6bf f6ed 7963 e70e e03f
00000300: e799 26fa 82b1 d13f f8d0 dd6c a5ea c33f
00000310: 191e 03c6 76ec cf3f 64a3 fa4b 0f5b d23f
00000320: 6ea0 1fbf bc71 b0bf 6e54 d02a b011 ba3f
00000330: 5542 b2ad 166f c43f 31e2 821f e706 9abf
00000340: d973 9a56 d5f3 733f 4c7b d032 bc95 d7bf
00000350: 448b 0a52 032f b8bf 56b3 349c ad48 963f
00000360: 0da4 aad6 25a9 db3f b553 1140 b372 cb3f
00000370: 312f fcf2 2fb9 c1bf 5b1a 9f8d c421 c8bf
00000380: f4c0 01ce a4fb cd3f fdbd 7c8f 45bf bcbf
00000390: 8b4d 36d1 29b0 d53f 3ab9 e671 ceb5 81bf
000003a0: 9720 cd8d bbdd 953f 36e0 caba 780d 77bf
000003b0: 23ca 9a29 c618 d93f 65b8 f96f d492 bd3f
000003c0: 6d11 3504 0ffc aa3f b251 8785 1eb5 e03f
000003d0: c21b 1eb2 eead d2bf 8b00 e7fc 0748 d4bf
000003e0: f5f8 a576 88a7 c63f ec11 3d69 ec5a cabf
000003f0: 5ec7 48e1 24db d5bf 4956 ae55 f587 dd3f
00000400: 03e6 cdd7 48df d03f 3a0c 82a9 bd27 c53f
00000410: 3c63 c728 0426 c3bf a50d 078a 006b d8bf
00000420: db29 c4b2 c034 d5bf cd4c 33b1 d6ff c63f
00000430: e248 b1db a421 da3f 0f11 686a 8095 cdbf
00000440: 9c19 e281 760c c63f 3cf0 cf82 2419 d73f
00000450: 32e8 3425 f7d5 b1bf 48d5 e30f 2bf6 b93f
00000460: 1aea 8a43 ad17 9bbf 222f 1f0e 55ec de3f
00000470: 9762 2a27 10a2 d03f e0bb 8305 ef93 bb3f
00000480: c29f 6399 0794 e53f 1d8a 3bed deea 9dbf
00000490: 0036 2683 f49f d0bf fa6f e01e c46a c3bf
000004a0: 9b14 c8fd f477 babf a00f 2e43 eca9 ccbf
000004b0: 398f 51af 756e ca3f c44e 3761 51c7 c8bf
000004c0: 4da3 9f2d 6f29 9c3f b82e 4460 8d1f c2bf
000004d0: 4c16 8bf1 eb1f ddbf aa30 f467 a904 bdbf
000004e0: 912c 41ba 4488 cebf 3f25 3344 29c5 c0bf
000004f0: 6e28 0db0 8644 cb3f f63c a5bc be80 d23f
00000500: b71a 25e8 6fc6 bd3f b2f3 30e2 94fa 66bf
00000510: 92a4 4710 a5a0 a0bf cdc7 9d15 c4f8 d33f
00000520: 48f3 e75c 2d87 ad3f 8a58 3440 ce31 bcbf
00000530: 3023 43e0 194f dbbf 90c2 0150 fc4b c0bf
00000540: 8c9b 4b44 58d3 cc3f 1364 82f9 954e c33f
00000550: 972b 044d b350 c0bf 1f87 3f2d f90c b63f
00000560: edb0 e1dc cb74 94bf 0fa0 eec0 5d5a c23f
00000570: 8737 274e cf79 a13f 146a 41ea 22e4 bb3f
00000580: f01e d59c 0fc1 d5bf dfb0 b27b e8e2 dfbf
00000590: dfba ec3a c55f d5bf 0a21 c676 e51a cd3f
000005a0: d5fb e844 f6e5 8cbf 93b4 2393 6820 933f
000005b0: 6c93 8135 2450 cbbf 3fb5 dc10 cb24 92bf
000005c0: e3ba 9d02 8b2c c63f 8612 7d7e 9f2c d5bf
000005d0: d595 6ba4 5c1f d1bf 44d1 ec17 feac a93f
000005e0: 64e3 4667 3694 b03f 258d 36ec 7b08 c1bf
000005f0: f17c 1867 2e11 bf3f ed53 616e 31ac 913f
00000600: da7d 98ef 75fa a53f f117 43e0 ee41 c4bf
00000610: c33d e22f 731a c9bf bd3c be49 81e1 d2bf
00000620: 3b12 0dcc 6126 8a3f e434 fc2b c5d4 b03f
00000630: 52d8 32f6 08ba c33f 6d5a 1428 93ad a63f
00000640: 9d7f 6110 743a bc3f 8df6 f41b c140 a33f
00000650: 3269 2433 b66b c33f f377 bd30 2543 cb3f
00000660: e8bd 268b 7f5b d6bf 8d5c 4d61 7543 adbf
00000670: f510 90e7 472e bfbf 714b 125c b493 b8bf
00000680: 3e90 8400 b01d b13f 18af d28f a7a9 d0bf
00000690: 0898 d1bb f4af ab3f 1c5d 9f85 509f d73f
000006a0: 7258 ab08 6378 cc3f 553d 5207 bd82 cdbf
000006b0: 65a3 8da0 4a24 e83f 76e5 2ae0 7a81 c93f
000006c0: 7b37 c1bd f4bc c4bf c550 610a 1e71 cb3f
000006d0: 41d1 4bc4 55ce e1bf e700 0d1e 7ef8 b1bf
000006e0: 06ae 99b6 95f8 e13f 4310 49b6 95d9 dbbf
000006f0: 4e48 4334 2bca c53f 2a53 5ea2 e1ab d83f
00000700: 6194 e263 8c18 cb3f 1f4a b2f9 79b5 d13f
00000710: 52ea c2ff f675 b33f 3c07 e795 fd4d d3bf
00000720: ef6e 2ff3 83d8 d3bf 80b3 e756 da7b 7a3f
00000730: 8012 1b60 525e e0bf db0b f990 f99f d9bf
00000740: 896d 175e 0919 c5bf 344e 03f6 3843 b5bf
00000750: 0b55 5663 bf11 d43f f733 6bbf 9c41 8b3f
00000760: e722 6561 d6a5 dd3f 5ac9 3414 caec c0bf
00000770: 1398 fdce 2734 d0bf e829 63ef 5e08 d1bf
00000780: 42f1 45fe 3946 a7bf f172 b498 8fbe c83f
00000790: 18de 453c 75e6 833f c8cf a95c f39b de3f
000007a0: 721b 96b3 c33a c33f 783e b4fd dec1 b43f
000007b0: f8c8 154e 4722 adbf da7e e4e1 5964 c5bf
000007c0: 736e 3105 0da7 b43f cf28 d9f0 c41d bebf
000007d0: 9ef7 7801 0f3e d63f 366f 945d 03c3 db3f
000007e0: 39e8 6dec 05dc dc3f c212 4658 35d0 b23f
000007f0: ba5e c283 cf5c 9cbf d0f2 44c4 a45b c33f

layers.1.bias f8 [20]
-0.013111072674331729 -0.013731954137651077 -0.014364435809886828 0.08528000792690656 -0.0021248706490535566 -0.045864861421802613 -0.00764505757576723 -0.05140178199249805
0.004885214243026577 0.04823464413017379 0.02983213195549836 -0.00812273502086679 0.008535629452641112 -0.05504385692388917 0.007411595968285438 -0.003363282661292285
-0.052012866108811937 -0.023591188319340282 0.029491404422116497 0.040880914009355396
00000000: ef59 d062 fad9 8abf 1179 73af 7f1f 8cbf
00000010: dd4c 3bf0 196b 8dbf 9576 0c1d e9d4 b53f
00000020: 34f0 443e 2d68 61bf b636 af5f 997b a7bf
00000030: 492b 3984 6c50 7fbf 3651 3a99 5551 aabf
00000040: 8827 86b6 8402 743f e586 2516 36b2 a83f
00000050: 78ac 797c 508c 9e3f 7a4a 260a a7a2 80bf
00000060: 9287 ccca 207b 813f c5e8 aa5a b52e acbf
00000070: f81e b824 9f5b 7e3f 2bd3 32a1 508d 6bbf
00000080: 9e30 d12d 6ea1 aabf 06ac 38d9 4928 98bf
00000090: 1d3f 06a6 fe32 9e3f 48cb 66d9 57ee a43f

layers.2.weight f8 [20, 20]
-0.20874259805350293 -0.040195746914048515 0.12831829749577375 -0.04382693832498494 0.3400267107519141 0.09243963353453083 -0.062298651788937016 -0.046481784938743775
-0.10354500487907471 0.09812162867204605 -0.4411159200733392 0.4996055372870951 0.05268407822629708 0.1351216011931412 -0.14309755912886968 -0.023535168262507216
-0.15601705801626425 -0.25835577079125616 0.22726532448459685 -0.19857882631211027 -0.08232948879229014 -0.06057115290383302 0.009884223110399907 0.10685132376370492
0.2979393834564601 -0.009893425239693823 -0.14739431857097227 0.29349999817234795 0.16882293579941843 -0.07913654639464716 0.0065670761234995255 -0.12915141655686863
-0.0950618214271139 -0.03531320735883875 0.013990696176316535 -0.421599700833782 -0.2581626097422643 -0.48710171346345676 0.42517142722777346 -0.16304993521199068
-0.054814346226108236 0.006702217701854871 -0.31087976602564477 -0.16470720549960952 0.21836610432059317 -0.11860656971247678 -0.09373320112474513 -0.13200829479319487
-0.2719190237321292 0.3530395495819717 0.6325665426316178 0.2306390636158217 0.04608804962622517 0.3073846685817579 -0.39630288258889007 -0.03331870436949826
0.12481593681602475 0.5956195461576694 -0.6847673980323679 0.2657271215066432 0.15399873546860302 0.08143562543131515 0.33813412878586413 0.18377417055150064
0.4705184593117811 -0.2191896815715956 0.0084944138528462 -0.4736787870051292 -0.2341617871271215 -0.06522144454254135 0.037605975517672946 -0.019546936196561563
0.005229915209255831 0.0576420856525723 -0.1961372112001122 -0.3512144469888576 0.10978900778710095 -0.06652447971346684 -0.28308122818791864 0.10575622084943691
-0.3384358789230369 0.5543025641184859 -0.20084741651998925 -0.08809751649471223 -0.10266051519141638 0.16933301591578942 -0.4120732021348388 -0.25236900617503644
-0.011995612202351532 0.22322654616643325 -0.061395002332831045 -0.011940097385834432 0.17245052385201276 -0.46615690663676534 -0.03761553933798152 -0.05961936819739728
0.40982173872210237 -0.31368290739159094 0.1488946371430192 0.02588890238039481 -0.1414672968476764 0.14578579648480067 0.39606261250738894 0.09352733342037617
-0.23506019697801542 -0.160748929271971 0.1351043255355832 0.04841636911256695 -0.2296783940220516 -0.05556011437689101 -0.016468788958353776 0.08676413689555001
-0.07271311784628877 0.3180320589967377 0.354072565950944 0.3151997728030482 0.005490563461434701 -0.24958011116210777 -0.026320239899645295 0.4472952675288898
0.18976180091849912 -0.29720504923811714 0.29175291157694805 -0.08121151992281525 -0.05152562522019553 -0.648273704199692 -0.03157878993408103 -0.18206227780422868
0.41261481417040247 0.1499910261932135 -0.07306698844995314 -0.19494974725638065 -0.6137139859280186 0.2802944479527238 0.08508803368790521 0.19491433067015643
0.037514156728786205 0.07161675238892969 0.18146168458120782 -0.036618091289838305 0.17805041727660914 -0.2079034093806773 -0.12570721997662232 -0.23141133401769629
0.28108361273494464 -0.07998520081748846 -0.1584055315077913 -0.24936971918283427 -0.26838041421610076 -0.09754762901483573 -0.22890468292424143 0.4315859720591791
0.40264040303369514 0.25298446838136807 -0.11747776224568934 0.01363554767896055 -0.21855642658279217 -0.18263687574596493 -0.3482353400506121 0.03728986866980453
0.11869855600412851 -0.2293017168705658 0.28550267975885435 -0.22321152669389102 0.2830648664815129 0.05117358035161633 -0.07902640292492791 -0.16992403069236217
0.06003232139702416 0.4211053022330902 0.04440012295922239 0.03899328341508456 -0.25682710465763636 -0.14865848084904887 0.09499665149324191 0.23335391749043005
-0.3244164544325419 0.1442162550437747 0.12915441818157886 -0.07869375562013653 0.2478074468148939 0.3201575251361774 0.6979398145779088 -0.3270543303198733
0.4871523766461489 0.05217177925672363 -0.17271489247031013 -0.0376350026985408 0.07199598872991601 0.00013834230663769688 -0.09100689998881888 0.019497009364888455
-0.15350030738435763 -0.009300016015616355 -0.04443071364961787 0.1369472234401204 0.10622460446238073 -0.2704728021438492 0.5202242477456623 0.34431059451636825
-0.00698219503857575 -0.18723747276909808 0.037823871986010664 0.20020348986981484 0.14287593271710453 0.07091954384555087 0.022915665481883476 -0.592673820837771
-0.150660843917487 0.21203566669506627 -0.3567800583801913 0.4751618148548233 -0.12143428267594705 0.1100546377141563 -0.5231758950284494 0.08992652348892646
-0.06808426994898312 0.011446897699217935 0.020912322228719988 -0.008223670440486112 0.05392440143292432 0.29065070939877014 0.1657366083064278 -0.26435166571780294
-0.03403646183763302 0.12312298369656474 -0.03482753697803368 -0.238149609621006 0.20768395045344987 0.1753659893434253 -0.1716866315576503 0.12393084080507458
0.10924240960486988 -0.32257990369278977 0.22371056499185282 -0.10319190593419592 0.3964049588616005 -0.18145975164368583 0.2695493181526326 -0.10086821716677583
0.2055251487748974 0.29383397091847324 -0.084734825460758 0.2551924147074816 -0.1600445371935802 0.2745573267563082 -0.0670410613505763 0.13416099112075633
0.28038250021121874 0.35417050766390257 0.4905921654357773 0.05263664512452696 0.1256847789167822 -0.44189117302190734 0.19963554853947713 0.19080618712573374
00000000: c8ff f5d3 13b8 cabf 7546 de74 8994 a4bf
00000010: f982 9ce5 bb6c c03f fc48 9405 7c70 a6bf
00000020: ff89 9c64 ffc2 d53f a491 e2b2 1faa b73f
00000030: a168 09e0 9be5 afbf 40dd 57e4 75cc a7bf
00000040: 51aa 9ee9 ec81 babf cc3b 2dc2 7f1e b93f
00000050: b06f 9d44 3e3b dcbf f81b e380 89f9 df3f
00000060: b3f2 0052 68f9 aa3f fcc8 0d25 aa4b c13f
00000070: 2847 4c54 0551 c2bf 5b2a f967 9a19 98bf
00000080: 8624 e6f0 5df8 c3bf 1a01 92a4 e688 d0bf
00000090: ca8c 16b8 0717 cd3f 5223 58ee 076b c9bf
000000a0: 15fa db9d 8b13 b5bf f71f 9ba1 2e03 afbf
000000b0: ef55 0bf8 2d3e 843f 9b73 19bd 9b5a bb3f
000000c0: 94b2 0859 7011 d33f 7b9b cc0e 0143 84bf
000000d0: b773 f028 d1dd c2bf ceae 6137 b4c8 d23f
000000e0: f05e 096e fd9b c53f 0ff3 aeee 4a42 b4bf
000000f0: 2572 e412 14e6 7a3f 6a02 2c9b 0888 c0bf
00000100: 6dad 20b6 f855 b8bf 6837 729d 9214 a2bf
00000110: 7c54 3474 27a7 8c3f 1568 c54f 7dfb dabf
00000120: 8127 7977 bc85 d0bf c8ab 49aa ac2c dfbf
00000130: 7ac3 c837 0236 db3f 86da acfd d1de c4bf
00000140: 4d17 c940 a010 acbf 8a35 71dd c873 7b3f
00000150: a35e 043f 74e5 d3bf e9a7 842e 2015 c5bf
00000160: d251 4ea6 6bf3 cb3f 337e 010a 005d bebf
00000170: df52 6129 e6fe b7bf f8ff 77d6 a5e5 c0bf
00000180: 58be 850c 1f67 d1bf 7e8b e931 3398 d63f
00000190: dab0 a430 fc3d e43f 767b b4b1 9485 cd3f
000001a0: 931a c353 da98 a73f c16d b6be 30ac d33f
000001b0: 6be8 01c4 065d d9bf 8363 3933 260f a1bf
000001c0: 47f9 a4ee eff3 bf3f b060 f3b8 500f e33f
000001d0: 2850 7d51 9de9 e5bf 0300 2254 ac01 d13f
000001e0: c143 3b06 3bb6 c33f 23f1 f413 f7d8 b43f
000001f0: c4fd 3254 fda3 d53f e221 2f7a e985 c73f
00000200: 5523 ba74 f91c de3f 7d3e fc50 680e ccbf
00000210: 76c4 92ed 8465 813f 22be bfd4 c050 debf
00000220: 0e8a d770 03f9 cdbf 2bdf 4e43 5ab2 b0bf
00000230: fc14 f725 1741 a33f 610f ceae 1c04 94bf
00000240: dabf 8dac f66b 753f da86 8071 4383 ad3f
00000250: 4d0a d12d 061b c9bf a8ca ec28 4c7a d6bf
00000260: 45e8 e7e5 211b bc3f 96b4 c090 bf07 b1bf
00000270: 936e 4bba 001e d2bf 3f9a e5f5 d612 bb3f
00000280: 0d1e f1f5 eea8 d5bf 774a 1fbb d8bc e13f
00000290: b33f b83e 5eb5 c9bf c21f 3410 8f8d b6bf
000002a0: df6f 56a3 f547 babf fce4 be4a b4ac c53f
000002b0: 4c89 ae47 685f dabf 72ee 0255 d026 d0bf
000002c0: ab37 d6d0 2791 88bf 7d22 b1fd af92 cc3f
000002d0: 9490 506e 2a6f afbf b105 44be 0c74 88bf
000002e0: dcac 0fd8 db12 c63f becd 33c7 83d5 ddbf
000002f0: 3a5a 8e0e 5842 a3bf d964 3b09 6e86 aebf
00000300: 1415 40f5 843a da3f bbe8 2379 6113 d4bf
00000310: 741e 8abe fa0e c33f 4e68 36d4 9e82 9a3f
00000320: 9607 b5b2 991b c2bf dacf 0fe6 1ba9 c23f
00000330: b8cd f8ff 1659 d93f 2496 5246 68f1 b73f
00000340: 8d52 4ed9 7316 cebf 7689 0bc1 6b93 c4bf
00000350: 959a dc39 194b c13f 9dec dbc3 07ca a83f
00000360: ec14 7603 1a66 cdbf 90e9 6b14 6072 acbf
00000370: 5a65 ecb7 31dd 90bf 1c9b 6eaa 2c36 b63f
00000380: 51d7 23af 539d b2bf 2e1d 1e23 a35a d43f
00000390: 0be3 cafa 1fa9 d63f 8353 f9aa 3b2c d43f
000003a0: 613b 0ee8 457d 763f 9c2e 96b7 3df2 cfbf
000003b0: 270e 5e66 b1f3 9abf 3a4c 6c54 7ca0 dc3f
000003c0: 57cd 7c5c 1d4a c83f 19c3 ab53 6805 d3bf
000003d0: e216 6f67 14ac d23f 667f 2036 47ca b4bf
000003e0: 0d11 7416 9161 aabf 609f cc7e a8be e4bf
000003f0: 503c 075c 182b a0bf 2091 8014 d14d c7bf
00000400: 6c3f 2df7 4768 da3f 15bf 18ec e732 c33f
00000410: 554c cfa5 84b4 b2bf 0231 6a02 1df4 c8bf
00000420: 9d13 5583 8ba3 e3bf c744 cd1f 58f0 d13f
00000430: a272 f851 54c8 b53f b101 e0e9 f3f2 c83f
00000440: fe05 9338 0e35 a33f cd2e 5bb9 7955 b23f
00000450: f06d 60f0 223a c73f d347 1041 9bbf a2bf
00000460: 1200 9f27 5bca c63f 102a 0234 949c cabf
00000470: 8ad8 5597 2c17 c0bf 73ce c3f7 e29e cdbf
00000480: e6d6 081f 46fd d13f b5d3 acfd e879 b4bf
00000490: 526d aae8 a146 c4bf 8d61 40d2 58eb cfbf
000004a0: 4b7c 7c0b 252d d1bf 99ca 6ba4 e1f8 b8bf
000004b0: 7aca 87a7 bf4c cdbf d104 dac4 1a9f db3f
000004c0: 9ffd c440 dcc4 d93f d102 86c4 e530 d03f
000004d0: 643d daca 0513 bebf afe3 c03a f4ec 8b3f
000004e0: d079 4030 a8f9 cbbf 3aaf 2f28 a560 c7bf
000004f0: 5a0b 35e1 7c49 d6bf 4d61 d15c a817 a33f
00000500: 92c2 1e50 0763 be3f f917 7037 c259 cdbf
00000510: 5a04 1f08 ad45 d23f 79c8 9eff 3192 ccbf
00000520: 33d2 0b1a bc1d d23f 2e10 0f6c 6c33 aa3f
00000530: 0045 1508 133b b4bf b868 5015 12c0 c5bf
00000540: fcd3 3472 8ebc ae3f 34da 50a7 63f3 da3f
00000550: c5b2 18e8 9cbb a63f df19 107a edf6 a33f
00000560: 5ac7 cef3 da6f d0bf c485 c2b8 3d07 c3bf
00000570: 929a 6457 b351 b83f 92e7 018a 8ade cd3f
00000580: 559c 843b 3dc3 d4bf 4178 7ba1 ad75 c23f
00000590: 1ea5 1cc9 2188 c03f fcb3 c922 4625 b4bf
000005a0: b13a e387 27b8 cf3f b3cd 01fd 757d d43f
000005b0: 8e07 c6e0 8555 e63f 624c 2f49 75ee d4bf
000005c0: df49 7729 812d df3f 8a0f 5d6b 42b6 aa3f
000005d0: 0098 5887 851b c6bf 7fda 8c23 e544 a3bf
000005e0: c3c5 0941 546e b23f 69e3 855d ff21 223f
000005f0: cb8d 296b 3a4c b7bf ae35 5e26 06f7 933f
00000600: 4d25 12e8 e5a5 c3bf bb62 1d05 e30b 83bf
00000610: 0848 205c 9fbf a6bf 7206 fa92 7c87 c13f
00000620: 434b 3222 8931 bb3f 7594 ea27 6d4f d1bf
00000630: 1bec 5452 ada5 e03f b84d c74d 2f09 d63f
00000640: e005 85b5 5c99 7cbf fc81 10c3 65f7 c7bf
00000650: 5f42 608a a65d a33f 1899 c498 44a0 c93f
00000660: 20e6 3331 c249 c23f c7c0 7681 c827 b23f
00000670: 5739 3e47 3477 973f e331 b616 2ff7 e2bf
00000680: 37e9 b4c2 da48 c3bf 193b 0517 fc23 cb3f
00000690: b5e7 a606 7cd5 d6bf 9b01 c719 0d69 de3f
000006a0: 6ad7 b430 5116 bfbf d463 c16d 8a2c bc3f
000006b0: ad7c e65f dbbd e0bf d68b 6db5 6c05 b73f
000006c0: 0a8c cd80 f86d b1bf 0a05 129a 7871 873f
000006d0: c51a 3930 0a6a 953f 827f c25c 92d7 80bf
000006e0: e0b8 38a9 fa9b ab3f 9e52 db6e 059a d23f
000006f0: 7189 3670 db36 c53f 6dab b93f 23eb d0bf
00000700: c6a9 ed24 3a6d a1bf 0ad9 5ce4 fc84 bf3f
00000710: 154b a438 ead4 a1bf 3e4e 70b8 af7b cebf
00000720: eb02 8d3f 6395 ca3f e4c4 878a 6472 c63f
00000730: 4caa d9d9 d3f9 c5bf 623c 397c eeb9 bf3f
00000740: b1d2 9680 4ff7 bb3f 6a45 2d2e 26a5 d4bf
00000750: bc70 343c 8ca2 cc3f 0004 33e5 c86a babf
00000760: 6319 92e7 b25e d93f f2c9 6cb9 123a c7bf
00000770: 5efa 87c8 4b40 d13f 9ee7 efdd 7fd2 b9bf
00000780: 2d32 3fe8 a54e ca3f 351d e3ff 2cce d23f
00000790: 5cac 2f78 2eb1 b5bf 1dc7 d690 1255 d03f
000007a0: 5a2f 93e2 567c c4bf f4e9 d2e4 5892 d13f
000007b0: 2067 fd5d 9a29 b1bf b59c a1f6 2f2c c13f
000007c0: 13c9 3171 c9f1 d13f 8cf2 e7c6 baaa d63f
000007d0: 6e1c 8eae dc65 df3f 9512 c3ba 30f3 aa3f
000007e0: 9cba 8657 7016 c03f 754a 21ea f147 dcbf
000007f0: 2e4c 0c5c a88d c93f 7d2c ca4e 566c c83f

layers.2.bias f8 [20]
-0.01841663016136036 0.055855769520860736 0.004685586387288907 0.03470068576099406 -0.02328565900990276 0.034455810474993805 -0.004379471606174895 0.03316354460670697
-0.006241230673872121 -0.017902556420658935 -0.009512403847598246 -0.0205176073336875 0.014114853247613541 -0.06314105572725977 0.016919989999966023 -0.0025039685012236868
-0.055870481466264756 -0.04419460471729931 -0.02011718432170671 0.038124447310125174
00000000: b076 fb20 cfdb 92bf 1720 c59e 2099 ac3f
00000010: 975e bc84 3131 733f 3107 fccc 49c4 a13f
00000020: a042 a71f 32d8 97bf 5167 4b26 31a4 a13f
00000030: ed10 2875 35f0 71bf 4baf 02e7 cffa a03f
00000040: cbdf 189a 6790 79bf b7b8 5d39 0c55 92bf
00000050: 9148 743b 3d7b 83bf 4c20 f651 9102 95bf
00000060: cad2 b088 3fe8 8c3f ad2c 6221 032a b0bf
00000070: e043 cb4e 7953 913f e9c4 55da 3383 64bf
00000080: 0534 6b45 0e9b acbf f144 d7db aca0 a6bf
00000090: 7b51 ff62 9999 94bf 3b08 c02c 0c85 a33f
