main/continuous_time_identification (Navier-Stokes)/model/pt_model_NS_clean_16900.pt (torch, 38388 bytes, 22 tensors)

linear_in.weight f8 [20, 3]
000000 cb 66 1e 59 11 c2 c0 bf a6 1f e4 e6 ba 5a c4 3f
       -0.130922478213327 0.15901886247615699
000010 a0 ae 1a 5c 48 2e e4 3f e9 1a bc 7c 88 34 b4 bf
       0.6306497382078824 -0.07892659230501987
000020 ee 7b 2e 65 b5 37 d6 3f 23 86 db 63 ef 36 b0 bf
       0.3471501815892556 -0.06333824336936593
000030 4f c7 48 2b 15 92 b3 bf 4b 25 6c 53 f9 22 ac bf
       -0.07644779497857467 -0.05495432990398771
000040 b4 96 54 70 c2 23 b1 3f 18 c3 14 4d 07 2a b3 3f
       0.06695189707223898 0.074860054319981
000050 93 9f 19 88 f2 5f c4 3f 15 fc e7 31 d3 21 ca bf
       0.15917808194648994 -0.204157256477601
000060 76 eb 70 5c 79 60 df bf 10 4b 88 84 1c 78 dd 3f
       -0.4902633097405479 0.4604560179006265
000070 b8 ea da d4 bc 57 d6 bf 96 8d 0b f0 e8 83 b7 3f
       -0.34910507952342185 0.09185653553463732
000080 b5 dd 84 20 60 f9 ce 3f 42 59 69 f1 55 19 c3 bf
       0.241985336187765 -0.14921068465873516
000090 78 5a d0 c9 77 f8 dd 3f 40 01 12 8e d3 0e ce bf
       0.4682902785147358 -0.2348274654104987
0000a0 6e 1d b8 ef b9 71 c3 3f a5 6d 34 18 59 e0 d9 3f
       0.15190815167464272 0.40431811679601487
0000b0 56 18 44 c0 d6 9a c3 bf 8f a7 a1 ec d4 6f dc 3f
       -0.15316280735004523 0.4443256674627429
0000c0 3c f2 c9 7a 8c 58 9a 3f 59 9d 72 d8 48 c4 d5 bf
       0.025728411669194026 -0.34010525834533706
0000d0 0d 98 00 70 02 a6 de 3f 66 74 ae 94 a1 71 c1 bf
       0.47888241708494733 -0.13628024825894441
0000e0 df 70 37 0a 07 89 c1 3f 70 83 b4 e5 5b 35 c2 3f
       0.13699424742561114 0.14225338665076093
0000f0 ea a7 09 08 48 a5 b8 3f b8 51 6d 8c 68 9b b5 3f
       0.09627199360116348 0.0844025938834595
000100 c9 e8 d6 4f ef 2f b1 bf 3c 94 a2 35 67 d1 be 3f
       -0.06713767718511855 0.12038273868036325
000110 40 a1 b1 a5 22 74 a6 bf 10 4b 47 1e a9 df c8 3f
       -0.043854792333891 0.1943255803913293
000120 28 a2 4d 2a 5a b2 b1 3f bb d6 b6 94 ee 6a b9 3f
       0.069127688720649 0.09928790217130772
000130 38 4d 4f ff 46 27 da 3f 28 ef e4 94 0e c4 b0 3f
       0.4086472981700413 0.06549159178842656
000140 ea 4a 70 ea b3 7e d0 3f 6e d2 58 c0 62 bc b4 3f
       0.25773332495115986 0.0809995383832047
000150 53 3f 9a 1b b4 7e d4 3f f1 2a f1 ef a2 32 b9 bf
       0.3202333707385964 -0.09842890127144323
000160 5c 44 5e 85 0a 83 d0 bf 07 c0 e3 3e 15 96 d5 bf
       -0.2579981138633849 -0.3372853387982108
000170 c0 4a 55 d7 09 5a b1 bf 12 c4 d8 96 90 d1 d4 3f
       -0.06778012759358898 0.32529082041861657
000180 76 65 24 c5 48 b5 d1 3f 2c b3 6f b1 ad 92 cd 3f
       0.2766897130219016 0.23103877223857106
000190 17 cc 7c ef 43 5e e4 bf b2 49 4a 43 03 d2 c8 3f
       -0.6365070035448096 0.19390908036855375
0001a0 85 b0 77 83 2c 74 d4 3f 88 90 23 4e 62 72 b2 bf
       0.3195906909811657 -0.07205786140144899
0001b0 19 22 1b 6b 40 d0 bb bf ff e4 b5 c5 35 cd b8 bf
       -0.10864641775982199 -0.0968812568370545
0001c0 79 cf 35 e0 d3 d3 b2 3f e1 d9 c7 b2 ed 01 c5 bf
       0.0735447332752396 -0.1641213534309847
0001d0 a7 68 76 31 62 e0 d4 3f cc cb da ba 66 9a c9 3f
       0.3261952860863268 0.20002445338977137

linear_in.bias f8 [20]
000000 1a bd 6f a3 ed 3b cd 3f 51 f4 16 b9 3d 66 a0 bf
       0.22839136581703984 -0.03203003773112612
000010 c5 f6 d0 63 9e 6b e5 bf b0 ed df ac 85 ce c8 3f
       -0.6693870496307787 0.19380255643032518
000020 52 a2 26 85 b3 81 98 bf 52 55 70 16 4c 62 b7 bf
       -0.023932271005522594 -0.09134364650556862
000030 57 71 f2 b1 c3 b8 e4 3f 12 e0 6b 33 46 5d 93 bf
       0.6475542521980441 -0.0189105004201054
000040 8c b3 53 6e 57 94 80 3f 83 50 a6 0a 0e c5 d5 3f
       0.008095439009105275 0.3401522735596318
000050 a7 87 23 e7 13 ca c6 3f 87 22 de a1 1e 58 9d bf
       0.17804192339013733 -0.028656462316151845
000060 f5 71 5d c6 7a cf db 3f 02 08 21 66 9b ed e4 bf
       0.4345385491522216 -0.6540047640521609
000070 28 31 13 03 ec df c2 bf ea 05 45 cd 7d 5f be bf
       -0.14745855474610292 -0.11864458333459252
000080 b2 5f 5a 55 06 08 d5 3f 8a 5d 64 99 a3 15 bf bf
       0.32861479125267146 -0.12142393584178116
000090 44 72 3c e0 43 39 ba bf 4b 3a 5f 0d 26 3d d4 bf
       -0.10243629669680226 -0.3162322168908857

linear_out.weight f8 [2, 20]
000000 f1 4a 59 94 7c aa 88 bf 6c 7d 78 fd 46 82 d2 3f
       -0.01204392745709046 0.2892014956759883
000010 ee 4e 21 e3 29 b0 e1 3f cd 96 d2 36 b3 10 e8 3f
       0.5527543483862851 0.7520385809663935
000020 0c da ef 2c 81 e6 d3 3f 8c e9 8d 2a 2e 99 ad 3f
       0.31094388378497295 0.05780929822408884
000030 d6 4f d6 3a b2 f8 e4 3f 2e 8a f8 a2 79 db d6 3f
       0.6553584241069028 0.3571456996452608
000040 0c f3 b8 3a ce d8 d5 3f 82 88 14 cf 35 db e2 bf
       0.34135776266684625 -0.5892590565238296
000050 a3 09 11 99 90 05 e3 3f 5e eb ae 3f 15 ae e7 3f
       0.5944293012219543 0.7400003665746728
000060 03 1c cd 80 af 08 b8 3f 4b a3 e7 6d 8f 43 d0 3f
       0.09388253111420401 0.2541235516824158
000070 56 36 de 01 e0 35 d6 3f 11 f2 b1 05 0a 32 d4 3f
       0.3470382707826948 0.3155541473022661
000080 47 a7 1a ad 2e 61 de 3f 2f f8 c4 0e 75 d0 db 3f
       0.4746815386266587 0.4345982212288417
000090 80 4f 4f f8 dd 4b ec bf 40 2c bc e5 ef 7b b3 3f
       -0.8842611169625201 0.07610988005414843
0000a0 b9 aa e7 10 98 dd ed bf 58 ce 0d db 76 c3 e9 bf
       -0.9333000497984677 -0.8051103857419077
0000b0 58 6f 86 89 b6 fe e4 3f 1f e0 66 2b bb f5 d3 3f
       0.6560928998983213 0.3118732379766715
0000c0 5d ee 06 f6 f4 88 e8 3f 54 57 4a aa f7 43 e2 bf
       0.7667183690277387 -0.5707968069061544
0000d0 c1 02 f1 48 90 99 bf 3f f0 ef dd 6c d1 aa e5 bf
       0.1234369447784145 -0.6771018148715466
0000e0 6d 5d 86 8e 36 c5 cd 3f b3 6a 7a 75 7c 69 bd bf
       0.23258096656057195 -0.11489084118003738
0000f0 02 93 6e eb 9f 22 cf bf 25 cf 7c 42 c7 a7 99 3f
       -0.24324416156482448 0.025054086144520888
000100 65 fe 8f 7f 22 6c de 3f 08 35 48 81 c9 d4 ad bf
       0.47535002190850256 -0.058264061957837454
000110 ab 8b a6 f6 14 1e da 3f 71 e3 dd 81 23 70 dd 3f
       0.40808605277032467 0.45996940309810613
000120 a7 d5 57 e9 9e 3c c6 bf 4c 5f 7d 79 70 aa d9 3f
       -0.17372499841409914 0.4010277925894925
000130 7b e7 69 0f bd cc e3 3f 7e af 85 9f 12 c3 e9 bf
       0.6187424946831322 -0.8050625911396165

linear_out.bias f8 [2]
000000 00 00 00 00 00 00 00 00 00 00 00 00 00 00 00 00
       0.0 0.0

layers.0.weight f8 [20, 20]
000000 3b 1f 37 fb 4b 1a d3 3f d5 cf 88 c1 c3 0b 8f 3f
       0.2984800294184315 0.015159158080770322
000010 7b 84 8e 83 e0 ba d5 bf 23 50 35 81 6b 48 98 3f
       -0.3395310673459517 0.02371376014828298
000020 57 e5 9a a0 c0 fc c9 bf c8 08 33 b8 70 f5 ba 3f
       -0.20302589265865364 0.1053076219277812
000030 0b 9a 98 67 e2 2f e0 3f df ce d0 dc 2c 27 ac 3f
       0.505845262848028 0.054986383395229536
000040 ab 00 d1 f1 9d af e0 bf 57 bc 45 51 8e 90 ae 3f
       -0.521437618539513 0.05969662420363225
000050 13 f7 ec 0d ab 72 e2 3f 40 8e 0f 89 63 83 b5 3f
       0.5764975807175879 0.08403608413896624
000060 0f 2c b0 70 54 59 dc 3f 01 91 30 e7 35 b6 d3 bf
       0.44295226101593327 -0.30799624993439073
000070 2b 44 3e 74 74 10 8f 3f 28 75 e5 7d 80 66 e5 bf
       0.015168103978597433 -0.6687624415314177
000080 4e 50 ec ee 45 6f 60 bf c1 e1 b8 8b e2 3a 79 3f
       -0.002006184185470195 0.006159672684184548
000090 ca 10 d8 b3 ac 39 ce bf c5 b5 7f f6 61 21 4b bf
       -0.23613508969731917 -0.0008279541334538723
0000a0 54 23 59 53 68 7f cd bf 77 0d ec f9 fd ba 92 3f
       -0.2304506690000162 0.018291443232568007
0000b0 b6 30 42 21 d7 06 c5 bf f7 6a 64 4c f7 a8 b2 bf
       -0.1642712509532253 -0.07289071669621792
0000c0 4c c2 b6 01 6e b1 b8 bf ef ce 70 d2 1c d0 af bf
       -0.09645736257403675 -0.06213464802604373
0000d0 b9 cc d2 c9 06 8a c4 3f 15 ea 7c 5b f1 23 be bf
       0.16046223501834847 -0.11773594363777591
0000e0 82 6d fb 04 4c 66 b2 3f 92 51 5d 67 86 40 c2 3f
       0.07187342759737272 0.142594147177658
0000f0 5a 4d 67 4f e3 b1 6d 3f 79 ba 4f f5 e6 28 bc bf
       0.003624862637687504 -0.1099991177468186
000100 35 84 ee 3a e0 f3 d1 3f 11 3f 01 07 eb 92 cb bf
       0.2805100036148958 -0.21542108385119055
000110 2d 14 f1 cb 56 d9 75 3f 7d 1f 79 cc 2f 71 c4 3f
       0.005334223794368359 0.15970418437995795
000120 19 fd dd 8c be 7a c5 3f d9 2c f3 4c b0 81 cb bf
       0.1678083598926399 -0.21489528424567686
000130 48 b8 d2 de 6c 11 92 bf f7 59 1b d5 71 86 a3 3f
       -0.01764459714893743 0.03813510633851885
000140 df ec 51 e6 69 2c d2 bf 15 0c c6 e4 10 e5 d0 3f
       -0.28396079532804025 0.26398107854055414
000150 a4 59 d8 21 8a 39 d0 3f 1f 5e 1d 03 b1 b0 af 3f
       0.25351193719088827 0.06189492381116345
000160 df 86 d9 66 5b 9a a0 3f 9c 70 81 98 b9 28 bc 3f
       0.03242765074243236 0.10999641392976617
000170 82 33 52 76 bc 1e ae bf e8 78 5e b7 68 5b aa bf
       -0.05882824844693514 -0.05147864569083699
000180 ef 40 5e 19 f6 d6 ca bf f8 a3 0a 12 d6 c3 c9 3f
       -0.20968509901695806 0.201288946923597
000190 01 d8 e2 83 71 6f d8 3f 67 e2 e4 91 d0 66 b9 bf
       0.38180196647169856 -0.09922507821910075
0001a0 df a3 75 1d 6c f4 ce 3f 41 66 49 ea 58 87 d5 3f
       0.24183417738393495 0.33638594512521897
0001b0 4e dc fb a9 76 5c cb 3f b0 c8 2f eb f3 67 ce 3f
       0.21375926303855625 0.23754738792155683
0001c0 2b 9a a9 a2 c3 da cf bf ec c2 11 22 f4 c2 b3 3f
       -0.24886365358834558 0.07719350654384599
0001d0 b9 b3 96 a0 df a0 c1 3f 5e 9c c3 33 e5 d8 e4 3f
       0.1377219709515012 0.6514764796273871
0001e0 25 ee ad 45 ce 7e c3 bf 45 3b ed 88 1e 66 ac bf
       -0.15230730440440357 -0.055466608252223305
0001f0 da d9 90 c5 36 94 dc 3f 0e 1f 59 45 1e ef 97 bf
       0.4465462617257835 -0.023373101217912633
000200 a3 eb 9b 5c 6b ca c3 3f d6 52 23 2a b6 6c 71 3f
       0.15461484929968802 0.004254066067194548
000210 73 ea ae cd 21 43 c3 bf 81 91 a5 b3 d1 f0 b2 bf
       -0.1504862074196641 -0.07398710857302683
000220 06 17 d8 d7 29 dc d1 3f 29 0d 73 44 83 2a d9 bf
       0.2790627105572273 -0.39321977314485196
000230 51 e5 a1 bb a9 df b7 bf 66 e1 e2 03 79 86 d2 3f
       -0.09325657683247825 0.28945756320492533
000240 86 03 25 48 14 2d c8 bf f0 c2 18 f7 c1 28 d9 3f
       -0.18887570879635635 0.39311265116252425
000250 7c 63 74 99 ab 08 c0 3f d3 97 40 33 93 2c b0 3f
       0.1252645968713998 0.06318016053464186
000260 7c 6c 5a 9e 34 cd ce bf 0d c8 a1 aa 70 8e a4 3f
       -0.2406373761376449 0.04014923174771932
000270 90 98 0b 9e 7f 63 be 3f 3b 24 c0 2a 86 6e c9 3f
       0.11870572670486212 0.19868542754582727
000280 85 c6 8b db 7d f2 c6 3f 90 1d 5c e6 5e cf 99 3f
       0.17927525730151586 0.02520511895184324
000290 54 93 c2 fa f1 d0 db bf 5e e1 1e 75 ef de c7 3f
       -0.4346280049160687 0.18649094790249426
0002a0 b3 a3 bc e2 05 f4 c7 3f b9 ba c8 14 a7 b1 9e 3f
       0.18713449069153185 0.029974566119728794
0002b0 5c d8 fd 16 b5 7d ce 3f 22 7b 53 59 5d 0c a6 bf
       0.23821128485332366 -0.043063084749283456
0002c0 c9 23 55 0d ea d3 d1 3f 8a 88 3e f7 b2 05 c2 bf
       0.27855922033318997 -0.14079892227625052
0002d0 bb bd ba 4c cf 31 d3 3f 61 97 75 26 26 41 d3 3f
       0.299915146762 0.30085138088030844
0002e0 ce 6e b1 5a ae 64 c2 bf 89 00 7c 43 07 b3 d4 3f
       -0.14369754246114613 0.3234270247485332
0002f0 3e 6d 2c c0 7b d4 d8 bf d2 7d 05 3e 88 d0 b3 3f
       -0.3879689575857873 0.07740069879718384
000300 f4 29 28 7d ac c9 e2 3f 7c 4c 3f 70 67 62 c4 3f
       0.5871183819265853 0.1592530534822777
000310 d9 00 af 18 40 d7 b7 3f b1 a8 5b 6e 45 c3 d2 bf
       0.09312821009280316 -0.29316840912964454
000320 ec 8e 9a 34 f7 81 c5 bf 39 98 c1 e9 91 f4 c3 3f
       -0.16802873676817087 0.15590118326071137
000330 62 d8 31 8e 87 b1 c2 3f 98 db a3 ad c3 fc 96 3f
       0.14604277079678513 0.022448594544552586
000340 6f 22 a0 ef 19 74 a3 3f 57 e6 49 a0 01 57 b7 bf
       0.03799515771976735 -0.0911713615731967
000350 62 25 a5 eb e7 9c c1 bf 2a 3d f4 96 87 5e cb bf
       -0.13760088926418762 -0.21382231589130046
000360 1b 4d f4 f5 31 d4 c8 3f 01 f0 ef af a2 53 b3 bf
       0.19397568234908466 -0.07549492640822565
000370 a7 36 1d 91 38 bc bb bf 84 75 10 2c af 2e d0 bf
       -0.10834077399087026 -0.2528493814769137
000380 03 ca 41 6c 45 56 c5 3f 4e e6 3c 5d e3 43 c1 bf
       0.16669528757081772 -0.13488428166037852
000390 40 0f d9 3e be 91 d9 bf 96 15 7c dd 09 b6 a5 3f
       -0.39952045571793704 0.04240446880980213
0003a0 85 bf a0 a6 a2 a5 97 bf ea b5 7e c2 bc 9e 90 bf
       -0.02309278623596313 -0.016230534907370066
0003b0 ba c5 31 f5 09 60 ce bf ae 48 c1 80 bd c6 b2 3f
       -0.23730587456115676 0.07334503549035062
0003c0 2b b7 7a 1c 3e d6 d6 3f 7f e0 ad dc 5e e8 bd 3f
       0.3568263319128728 0.11682694327999064
0003d0 64 72 e6 cd a5 a8 ad 3f 85 74 e7 30 84 06 ab 3f
       0.057927304634380034 0.05278409096693174
0003e0 47 45 84 26 bf 9b c1 3f a9 70 51 ff 7b e3 ac bf
       0.13756551151940696 -0.05642306796718916
0003f0 c8 68 a4 c4 d3 74 cd bf 2f 69 00 b8 cd ee c5 3f
       -0.2301277837912663 0.17135020718053215
000400 13 7c 8a f4 3f db b2 bf 31 d6 75 16 e6 f7 70 bf
       -0.07365798683393647 -0.004142664699761365
000410 ef 9b 89 eb b7 2a d9 bf 49 15 30 a4 29 d0 ad bf
       -0.39323232652389967 -0.05822878007169636
000420 c2 2f bd 91 15 7e 9a 3f bf f8 f4 42 cf 0f d4 3f
       0.025871598262980695 0.31346494234811567
000430 71 35 6b 11 4c f3 cd bf 54 47 b6 47 34 5e e0 3f
       -0.23398733950163433 0.5114995384812837
000440 5f f5 cc 52 37 e6 bb 3f 0c c8 38 bb d2 22 a4 3f
       0.10898156901835908 0.039328179697250304
000450 c4 d4 7c f3 1c 68 ad 3f fa a5 92 f8 46 15 b8 3f
       0.05743494484196668 0.0940746647708223
000460 3b 72 fb a5 c2 f5 8e 3f 85 c9 12 f9 c8 23 b9 bf
       0.015117188158393016 -0.0982022865380597
000470 63 bd c6 5f 3d 58 df 3f 69 aa 1f bf 9e 8d ce bf
       0.48976072648198093 -0.2386969025822794
000480 53 28 4d e4 55 03 b3 3f e9 e2 86 65 d8 d0 9a 3f
       0.07426964591755451 0.026187306591711233
000490 9e 98 d9 54 b9 9c c2 3f ae 79 41 64 08 55 ba 3f
       0.14540783541742014 0.10285999725008452
0004a0 c0 f6 a1 2e 6f 45 b6 3f 41 0f 44 a1 84 69 d3 bf
       0.08699698341839746 -0.30331531284922525
0004b0 a9 6e c8 0f 3c d8 d2 3f 6c db f4 84 2b 21 c2 bf
       0.29444791356375305 -0.1416372679902581
0004c0 e2 32 dd 1f 79 a2 d8 bf 2f 9d 40 45 f7 aa bd 3f
       -0.3849165736362875 0.11588998261196502
0004d0 8a 15 b7 4b c9 4b d4 3f f8 7f a0 cd 4f a9 c1 bf
       0.3171256293683987 -0.137979483989511
0004e0 22 f4 17 94 59 37 9f 3f 57 6a 0e 82 9f 47 c8 bf
       0.03048458067313587 -0.18968576288610237
0004f0 9d 65 11 c1 52 fa c3 bf 2e 2b 64 87 20 f9 ac 3f
       -0.15607675959726644 0.05658818867421754
000500 ec 2f 23 43 dd 79 77 3f e0 73 87 9a e6 ba 9c 3f
       0.005731453233419597 0.02805671995325898
000510 e0 7a 81 e9 28 66 dd bf af 3e de b8 da 73 d8 3f
       -0.4593603401498694 0.38207119039086995
000520 ef 44 ba 7b ea 0a a1 3f 24 a7 99 57 ed 56 95 bf
       0.03328640709254126 -0.020839413139049814
000530 8a 86 eb 98 e0 65 ba 3f c9 fd ef b1 65 d7 b3 3f
       0.10311702474020926 0.0775054511468546
000540 5f e3 65 7b da 88 9e 3f 15 8e 7c c6 8e 47 c6 3f
       0.02981892946397424 0.17405876819349034
000550 36 26 97 58 4c 58 e1 3f f7 3c 7f b1 85 d9 c0 bf
       0.5420285921365522 -0.13163825194212794
000560 58 33 0b 6f 48 2a c5 3f f2 1b 22 57 40 7b e3 bf
       0.16535287305887425 -0.6087953283139298
000570 ad 95 68 a8 3d dd d2 3f 53 5d 11 82 c9 0e e3 bf
       0.29475346990724455 -0.5955550709140119
000580 e7 80 9f 54 08 e3 9b 3f a1 fc 0c 91 0f 00 c0 bf
       0.027233247914296845 -0.12500185568385283
000590 00 7f 6f 6b cc 8a d6 bf a7 46 e6 74 4c fc c2 bf
       -0.35222158900977263 -0.14832454402908476
0005a0 fe 25 da 4b 3e c5 be 3f 6f cd d5 e1 6b 3f bb bf
       0.12019719459399167 -0.10643648398927551
0005b0 67 4b 0b 3e b7 ca c5 3f 4c e5 d1 df 55 98 d1 bf
       0.17024889497278226 -0.27492281777775385
0005c0 b9 ff 0a eb a6 cd 83 3f 56 78 5f e4 e8 09 d3 bf
       0.009669593856756241 -0.29747984220546664
0005d0 bd af 20 1a f9 f2 d3 3f 26 b0 21 c4 aa 7c d9 bf
       0.31170489837199594 -0.3982340731952284
0005e0 da 19 53 a5 54 57 8c bf a0 3b 7a cb e3 3c cd bf
       -0.013838444991404342 -0.22842070994780972
0005f0 08 89 62 8c 51 06 ab bf b7 b4 40 86 a8 39 98 bf
       -0.052782581698254616 -0.023657448953760176
000600 62 23 dd bc 66 80 b0 3f 92 b9 90 75 40 db c2 bf
       0.06445924864705213 -0.1473160337495299
000610 c2 95 ed 2c 78 22 dd bf 3f 84 6a 3d 6f 27 e0 3f
       -0.45522884738451463 0.5048137855084248
000620 49 e4 ec 0d 3e d3 7a 3f 27 82 11 f7 ff e4 d5 bf
       0.006549112701400858 -0.34210204246304204
000630 3b f7 f0 58 b3 7c be 3f d8 68 98 d8 78 b6 c4 3f
       0.1190902797834185 0.1618186051935655
000640 af 25 95 0e 6c c3 b9 bf e9 eb 58 58 f5 d1 cd bf
       -0.10063815456410084 -0.23296992124400553
000650 2a ed 19 b0 f8 93 a6 3f 4e c7 fe 37 88 90 de bf
       0.04409768247293251 -0.4775715395763783
000660 11 be 06 5d 38 05 af bf b8 7a b2 0e e9 5b b1 bf
       -0.060586701732401 -0.06780869110887522
000670 8c 39 5d 8e 24 ea d0 bf 0b 21 2f c8 66 0e c5 bf
       -0.26429094221830307 -0.16450199865926893
000680 7f 7e ab a1 56 67 c0 3f 87 54 f2 da 40 84 b6 3f
       0.12815363782918962 0.08795552583099396
000690 a2 9c a7 85 b6 04 ce 3f fe c6 d0 9f ae 5d bb 3f
       0.23451882864103363 0.10689822580095762
0006a0 60 5f 9c 1d 72 b4 d3 bf cb 31 6d ed b5 3f cc 3f
       -0.3078885354202523 0.22069429486363243
0006b0 a6 3f 9a 5f 63 17 a0 bf d2 84 55 3a f1 e3 8e 3f
       -0.03142843763373486 0.015083202927316828
0006c0 81 78 f3 d6 78 80 d5 bf 3e b6 bb b1 c4 3f cf 3f
       -0.33596631041826447 0.24413355520612073
0006d0 42 ec 7f a9 e5 83 ca bf 00 33 a7 db 50 6b c8 3f
       -0.20715018059113005 0.1907750198864946
0006e0 67 18 4b 69 e5 26 d5 bf af d6 03 ec de 08 d7 bf
       -0.3304990318541798 -0.35991642998065293
0006f0 6f b6 58 3e 05 eb b2 3f ad 06 73 dd 45 c9 bc 3f
       0.07389862796909495 0.11244618088223986
000700 03 8c f9 f4 f7 3d d0 bf cc a3 2d 27 ff 85 c6 3f
       -0.2537822620708427 0.17596425450326902
000710 f6 9d b5 e6 45 b5 da bf 08 00 96 b7 e2 1e d5 3f
       -0.4173140290281191 0.3300101082641054
000720 d0 b8 36 06 b3 ad c3 bf 27 34 69 75 b8 59 a6 3f
       -0.1537383823719609 0.04365326340903435
000730 0e f2 50 1d 10 2a 90 bf 4b b0 99 e4 a3 41 41 3f
       -0.0157854574101624 0.0005266237505572394
000740 d8 4d 47 e2 23 23 c7 bf 7d 26 74 cc 2d b8 d0 bf
       -0.18075989292866157 -0.2612413879984173
000750 1e bc ac e3 96 09 b2 3f 52 ee 06 19 13 d1 d8 3f
       0.07045882280793633 0.3877609009175319
000760 1e 80 38 05 4b 02 cc bf 4c bc 09 b4 b3 12 b6 bf
       -0.21881997828404648 -0.08622286935291007
000770 89 de ee 1b 40 71 c0 3f e9 9e 40 5f 32 2a ce bf
       0.1284561287300117 -0.23566274310109428
000780 6e 74 99 0d 04 b5 a6 bf 9a 07 d3 45 8d 45 bd 3f
       -0.04434979120262815 0.11434252695747063
000790 f5 b8 d5 60 13 e1 c4 3f fd 6c 12 62 4f 7e c0 3f
       0.163118765146869 0.12885467804594689
0007a0 96 67 b0 4c c2 af ce bf 2e 9a 4f fc ec 28 cb bf
       -0.23973873848518384 -0.21218645400877406
0007b0 ee 14 ee 33 d6 a3 c0 bf 3b d7 10 03 fd f2 dc bf
       -0.1299999002041327 -0.4523308305682467
0007c0 61 47 9e ef ff 03 b6 bf 4f 64 ba 55 e0 df ae 3f
       -0.08599853134208281 0.06030179068074714
0007d0 ae 0b aa ae f2 26 b5 3f 73 e5 45 d9 bf e5 be 3f
       0.08262554897559823 0.12069319777028457
0007e0 97 f7 05 b8 fd 64 d1 bf 5d 00 fa 41 04 e0 d0 bf
       -0.2717890069105748 -0.2636728901197836
0007f0 a5 62 ae 8b 1c 48 b8 bf d7 21 0f 07 e1 29 bc bf
       -0.09485033426461571 -0.11001402304021411

layers.0.bias f8 [20]
000000 14 1d e0 1e e2 30 e1 3f ed 09 d5 f6 1f 9d bf 3f
       0.5372171977077493 0.12349128509689651
000010 dc b7 85 d9 cf dd d2 bf c5 ca 6a 63 2d 02 e4 bf
       -0.2947883247605867 -0.6252657834760035
000020 b2 42 ed e4 d7 af c2 3f 69 e3 fd db 76 5d b3 3f
       0.1459913127714763 0.07564490195171704
000030 bd 2c d9 46 61 b7 d0 bf 24 2e 04 41 23 72 d6 bf
       -0.26119262617858024 -0.3507164130139435
000040 1d 4c f9 fb 79 d8 e6 3f 13 13 be a4 6d d6 a3 3f
       0.7139253541339518 0.03874533306137642
000050 fd 56 0c 7e c6 5b b4 bf f7 8a 65 bc 4b 48 c6 bf
       -0.07952538087223711 -0.17408129405074366
000060 ac ec 4e 2c f6 55 c1 bf 56 48 49 da 0f 62 95 3f
       -0.13543584025851396 0.020881889055381762
000070 3e 10 40 c7 fc 7f b2 3f 03 2d 79 3e 40 78 b2 bf
       0.07226543297298435 -0.0721473839304743
000080 4b 1c e7 02 bf 2c bb 3f 30 40 3c 39 8f ea d0 3f
       0.10615152188175718 0.26431637372388916
000090 43 1b 5d 8c 03 b8 b2 bf 3d ca fd 6a 84 77 d4 3f
       -0.0731203286824043 0.31979475448966693

layers.1.weight f8 [20, 20]
000000 c4 3d c9 d9 7f 13 df 3f 62 4d d7 1f be 42 b8 bf
       0.4855651499574061 -0.09476841237419856
000010 c0 e3 ca 11 80 14 e0 3f af 54 eb 8b b7 8b c3 bf
       0.502502474547434 -0.15270132381434595
000020 d6 f7 62 35 1e 15 d6 bf 67 4d f6 91 92 79 e1 bf
       -0.3450389405587634 -0.5460903979132298
000030 ec bf df be 6a 22 cd bf d0 4d 72 a1 6f fe b0 3f
       -0.2276128227235853 0.06638238612713754
000040 a7 b8 22 34 6e 7d bc 3f d1 3f 66 4c ef 70 d6 bf
       0.1112889172825101 -0.35064299069290167
000050 46 34 1d 12 52 3b b6 3f 5f 0b 32 a6 33 06 c0 bf
       0.08684266035307173 -0.12518926253332105
000060 bd a0 dc 6f e5 19 ce 3f 2e a8 85 9a 0d 82 e7 bf
       0.2351652904701548 -0.7346256273278919
000070 de 53 09 72 3d 4d b2 3f d0 3d e2 a7 e6 ca b4 bf
       0.07149108919232058 -0.08122102354740623
000080 b0 6b c4 ba 46 c7 c1 3f 0f aa 14 6e f6 c1 d6 bf
       0.13889392966743008 -0.35558853864736845
000090 25 32 18 aa 98 52 65 3f 95 13 c3 d0 0c 4b e4 3f
       0.002602861569135822 0.6341613843329578
0000a0 e5 86 62 6a 78 26 cf 3f cc 2b 0c 66 d4 b7 c6 3f
       0.243361522622812 0.17748503668585014
0000b0 91 32 63 a8 a9 c5 ce bf 1c 29 1e 12 f6 a8 db 3f
       -0.2404071876720946 0.4321875740939889
0000c0 5e 85 da 76 68 cf c4 bf ca b1 e8 72 b7 94 b8 bf
       -0.1625795917835075 -0.09601923518557168
0000d0 22 69 a2 57 01 4b b0 bf 19 ce 6f 67 9e e4 d6 3f
       -0.06364448918830992 0.3577037820934677
0000e0 85 79 11 16 5b cb 6a bf d1 4b 45 d0 91 55 ba 3f
       -0.0032707957293915423 0.1028681882356033
0000f0 9d 72 8a ec 30 14 c3 3f 5a 91 ff 73 e1 6a d1 3f
       0.14905368375629716 0.2721484787746441
000100 35 9f 92 80 d8 e0 d2 bf 84 3a a9 cb c6 03 a5 3f
       -0.29497349315578286 0.04104443775269309
000110 4b 8f 81 59 27 7b 97 3f d8 3e 55 83 c7 7f b5 3f
       0.02293073161889873 0.08398100811359244
000120 8a 40 8a 8d ff 3a a3 3f 71 dd 04 ea 3a 25 b0 3f
       0.03755949595245152 0.06306808675150478
000130 95 1f 05 16 c6 05 6b 3f 2c 53 d0 3a 2f 57 d5 3f
       0.0032986515872472457 0.33344631904155864
000140 ac c4 89 cd 24 24 b2 bf 0b f9 ed a1 00 fb bb bf
       -0.07086401002904336 -0.10929874375685615
000150 c2 e9 de c3 af 28 c0 bf d8 91 5b df f4 e2 c9 bf
       -0.126241655960099 -0.20223866373193178
000160 8c 15 7f 08 1f 29 cf 3f b3 c0 cc 58 ef 4f d6 bf
       0.24344242014755613 -0.34862884208542794
000170 7c 7e 47 f9 38 cf da bf d9 44 68 c7 1c 1d e5 3f
       -0.4188978609435947 0.6598037619279707
000180 fd de 66 f0 ab 8d de 3f cc 74 c8 64 7e a3 cf bf
       0.47739695049993697 -0.2471769325356149
000190 13 b9 2b 05 ea 55 e6 3f 2a c7 15 96 44 15 cc bf
       0.6979875660888716 -0.21939904526112147
0001a0 be 4a 71 d7 5e d2 c7 bf 5f ac 87 57 5f 36 d4 bf
       -0.18610749740272142 -0.3158186297211553
0001b0 e7 ee 2f 01 65 36 b8 bf e0 c9 90 3e 1c 6a ba bf
       -0.09457999495492296 -0.10318161513786306
0001c0 f8 5f 59 e2 61 79 e5 bf ed 50 88 20 f0 9b e2 3f
       -0.6710671826249373 0.5815353999519438
0001d0 b0 1d 0c 42 1b 45 c5 bf da 86 57 33 34 12 cb bf
       -0.16617146229712665 -0.21149303919724255
0001e0 8c 26 4b 18 bb 2d d6 3f 05 a3 84 95 c7 9a dc 3f
       0.34654118893068 0.4469469986093347
0001f0 57 b5 a5 39 03 95 e8 bf 18 45 2d e6 45 27 f0 bf
       -0.7681900144504351 -1.0095881453783644
000200 f7 bc a5 ab 14 09 c8 bf 2f 27 80 cc b7 b8 c4 3f
       -0.18777712231847207 0.16188714490299946
000210 41 a2 4c eb 35 de ba 3f 95 f1 16 46 88 66 af 3f
       0.1049531650029474 0.06132913451753833
000220 98 e5 de 02 0c 8e c0 bf 19 2c 94 15 90 50 cd 3f
       -0.1293349279419942 0.2290210824361061
000230 b2 dc 43 3b 46 6f c0 3f 75 ac 52 e3 4c 6e e0 bf
       0.12839582341959993 -0.5134643974210024
000240 ef 6f b6 9d b0 ca b0 3f 9f 78 3a 7b 0e 5e 91 3f
       0.06559280252844223 0.016960359832062562
000250 22 5a 4b 4c bb 0a db bf 78 d5 6d 99 bf 6b b8 3f
       -0.42253000689143694 0.0953941106398214
000260 4b 64 c5 2a 1b 17 e1 3f 3c e3 c9 06 81 b8 d0 bf
       0.5340705714580819 -0.2612612310691025
000270 ef ad 3f f1 6b ac d4 3f 6e c8 20 c6 55 89 db 3f
       0.32302378234336876 0.430257266506607
000280 8c 0e d6 36 bd dc d2 3f 0a 3b 4c f8 15 9b bf bf
       0.2947228465566034 -0.12346017181355876
000290 78 bf 7f 2a 2f 10 c7 3f d6 69 2d de 26 55 a0 bf
       0.18018140387675508 -0.03189965688826006
0002a0 ef 5c af 52 73 87 c7 3f 7d 55 e6 33 ec db 33 3f
       0.18382112061838238 0.0003030254046277532
0002b0 73 f4 4c 27 c6 d0 a6 bf 7a 69 ff 11 c9 4a c6 3f
       -0.04456156949752534 0.17415727022928335
0002c0 9d 6c 03 a7 1f f9 d4 3f 10 bd 91 2d 55 23 b8 bf
       0.32770530042552953 -0.09428913462192079
0002d0 3e 09 2a cc 1d 23 d8 3f 2b 1d bc 99 a4 0a d8 bf
       0.3771433347502756 -0.3756495953861811
0002e0 ae 1c e5 42 89 4b 93 3f 4a 9e 46 05 0a 1c c0 bf
       0.018842835147805097 -0.12585568673715591
0002f0 0e b6 32 0c 14 c4 e3 bf 6f cb d9 22 e0 d0 dd 3f
       -0.617685340713878 0.46587375071901865
000300 df 19 b5 02 c5 87 97 3f 77 76 bb 01 5c 2b a3 3f
       0.022978857317207498 0.03744018098016693
000310 ad ff e1 91 c1 c7 d5 3f 1b 39 6f f6 0d fd e0 3f
       0.3403171467434685 0.5308904469655177
000320 8c 94 1e de 02 30 c4 bf 17 84 ab 6b f1 6e bd 3f
       -0.15771518560101006 0.11497410658513761
000330 52 26 79 35 79 9b 9c 3f 3b 10 6e 38 8f 08 cf 3f
       0.02793683422922861 0.242448713830642
000340 ba e8 3d 84 ac 43 c3 bf d0 4c 3b 26 30 f1 e0 bf
       -0.15050274331207963 -0.5294419047080741
000350 65 88 8c bc ed 8b c0 bf 68 8c 03 3e 21 1f c3 3f
       -0.1292702837609482 0.1493875077058846
000360 f6 ea 9c db f6 81 e2 3f c7 50 4e 4d e2 54 d4 3f
       0.578364781314433 0.31768090772062546
000370 49 2e 4d e7 cb 7a ca bf db 28 31 62 81 8b ca bf
       -0.20687245172517724 -0.20738236708195398
000380 94 6b 7f 74 17 0a c4 3f d0 9a a9 d8 1c 60 bd bf
       0.15655797184339504 -0.11474781312572735
000390 54 3f 44 89 3b 67 db 3f a1 f4 0b c2 a6 27 61 bf
       0.4281758156293922 -0.0020941025726402694
0003a0 a9 0f 55 89 7f 47 d6 3f 75 d4 cc 6f 49 c5 b7 bf
       0.34811390315393936 -0.09285410861487427
0003b0 d3 bf e0 47 b0 42 de 3f a4 5c 9e 5a 4e 18 9f bf
       0.4728203489239579 -0.030366157799644924
0003c0 87 1b 57 c3 61 89 c7 bf 7c 6e 40 bd 38 3b f1 3f
       -0.18388006246661012 1.076958407654188
0003d0 11 68 33 06 86 8b db bf dd 94 15 4d 89 4e d6 bf
       -0.43039084058330085 -0.3485434773231882
0003e0 08 b7 89 0f 73 90 cb 3f a6 c5 d1 a0 4c ce ce bf
       0.2153457475537197 -0.240670755887135
0003f0 c7 21 18 f8 ee 2f e0 bf de e3 17 fe ec 50 e4 3f
       -0.5058512540427323 0.6348786318550272
000400 63 6b c0 ec b6 e5 d7 3f 62 31 c5 ba cc 5d 9d 3f
       0.3733956634547921 0.028678130054048075
000410 1a 1e ea f5 fa 1a e2 bf 86 69 81 34 e5 27 d6 bf
       -0.565793495466042 -0.346185017847937
000420 11 b2 f4 65 7a c9 c3 bf d0 18 27 76 78 9a cf 3f
       -0.15458612421333887 0.2469015671651449
000430 8d e7 fc 60 f5 cd dc 3f 67 47 b4 7e 76 bd 94 bf
       0.45007070991015824 -0.020253993495379954
000440 cb c4 3d 45 91 6f be 3f 4e 4d 97 46 b3 ac d0 3f
       0.11888988438092267 0.26054078954367277
000450 b4 ab 25 db 4d 1b a9 3f 75 50 c1 29 99 fd a2 bf
       0.04903643894325374 -0.03709105143266892
000460 fc 28 1a 5e d1 5c c1 bf b1 b5 2f d9 00 4c e1 3f
       -0.13564507574876206 0.5405277482911314
000470 a3 5a 5b 12 fb bb dd 3f 00 fc f6 97 90 7f c6 3f
       0.46459843437825493 0.17576796932368666
000480 68 fb 9d 62 03 be e5 3f 49 f2 23 ff ee 3b c2 bf
       0.67944497357517 -0.14245402772930252
000490 78 51 f4 f1 4b ed d6 bf 8f 57 4d 4e 0d 97 89 3f
       -0.35823343876224767 0.012495140029993993
0004a0 0b 82 57 2d 48 da cd bf cb 40 7f cf ab a1 c2 bf
       -0.23322393621403167 -0.1455588114899967
0004b0 b9 25 b4 25 3d be b6 3f 84 55 cf b4 be 75 d5 bf
       0.08884031458378318 -0.3353115812036196
0004c0 92 16 b1 25 c7 05 ac bf 69 ff 19 cc 4b a0 cf bf
       -0.05473158202270868 -0.24707934823890845
0004d0 32 57 d3 3e fd b0 e6 bf e6 2e e0 b7 39 bf c1 bf
       -0.7091051318227299 -0.13864823797518183
0004e0 09 6d bb ec 54 75 95 bf b4 2b 08 87 47 2f d4 bf
       -0.020955397557242104 -0.3153857058211387
0004f0 e7 b5 b8 d6 e5 60 d5 3f 8c 4e bf 29 0d c6 db 3f
       0.3340391728296183 0.43396309925922405
000500 83 fe 00 fd f3 1e c0 3f e7 7b 8e 09 d1 bf 4d bf
       0.12594461301522494 -0.0009078760805215608
000510 97 18 2c 00 49 7a be bf 8b 68 42 94 1d 3c d5 3f
       -0.11905342344479873 0.33179416159112723
000520 f9 b4 3f fd a0 5c bb 3f e8 81 2c 1d 30 ee 87 bf
       0.10688215430100802 -0.011684776201549021
000530 1f 79 f2 92 25 0e df bf e9 8e 08 cd 16 50 8b 3f
       -0.48523845053013476 0.013336351520656336
000540 29 38 b2 72 39 6b c2 3f b6 cc 3a 95 22 a5 c6 3f
       0.1438972291984453 0.17691452299695748
000550 22 17 7f ef c4 17 bd bf ed 2e eb 06 20 a8 ce 3f
       -0.11364394042092532 0.2395057710440293
000560 1d 88 4c 78 61 93 7e bf 49 9a ab 50 9b 86 ab 3f
       -0.00746477197825082 0.0537613426184192
000570 68 4d 7a 92 12 fd 84 3f a2 56 bc c3 07 07 c1 3f
       0.010248322577615723 0.13302704865843845
000580 9c af ea 2a f2 b6 da bf 9b f1 fa 0a 3e 1c e5 bf
       -0.4174161357029733 -0.6596975531061163
000590 51 52 b7 4e 34 03 d3 bf a9 04 23 5b df 3b b9 3f
       -0.297070576544944 0.09856983160990986
0005a0 c3 1b 39 9b 0f 5f a4 3f c6 3b 7e 5a b0 e8 db bf
       0.03978775758564936 -0.43607720219818835
0005b0 a5 35 ee 36 05 13 d1 bf 88 1c b9 47 d6 21 d6 3f
       -0.26678591121966583 0.34581524852951206
0005c0 d9 97 9f 32 8d 1f c8 3f c9 04 5a ed 2b 7e ce bf
       0.18846287700506428 -0.23822545136866882
0005d0 34 be 43 a5 12 d7 d0 bf 11 7d 3f b2 e3 34 b2 3f
       -0.26312700404284617 0.07111952878721108
0005e0 40 a6 10 4b 44 54 c8 3f 6c 09 25 9f 8f c6 c5 bf
       0.1900716177490711 -0.17012210150467
0005f0 4c 70 48 85 94 ab cc 3f 1b 92 0d 01 eb 0f b6 bf
       0.22398621089894488 -0.08618038917263286
000600 b2 6b c4 18 aa d7 9f 3f 82 5f de 1f 28 24 ca bf
       0.031096132051157084 -0.2042284160240762
000610 9e d2 f0 cb d5 ee d4 bf cf bc f9 ed 0b f6 d8 bf
       -0.32707734027943924 -0.39001749267386016
000620 73 03 5b c5 2c af ca bf 3e 08 14 b6 05 be a4 3f
       -0.20847091328144138 0.0405122551692476
000630 f8 15 bf ac 7d 86 a0 3f d0 e8 af e2 2c 10 9f 3f
       0.032276084267817085 0.030335141502271068
000640 69 00 8f 34 9a 3c c9 3f 4e b0 76 ff 34 e2 d6 bf
       0.19716193739259616 -0.35755658099765675
000650 91 9e ac d4 c9 46 b8 3f 7e 5a 48 4c a9 b3 e3 3f
       0.09483014528506774 0.6156813135047086
000660 1f 47 e1 ec 0a 30 ba bf 4e 77 93 87 a6 4a ad bf
       -0.10229557307436864 -0.05721016316395709
000670 57 35 24 55 2c 33 ad bf 15 63 00 26 cc 1e a6 3f
       -0.05703104533504682 0.043203715933662824
000680 83 90 a4 20 63 a5 cf 3f e8 10 64 59 c6 7d d5 bf
       0.2472347173107928 -0.3358016846616594
000690 55 89 53 b2 67 af aa bf 10 b9 77 0e 7c 7f e7 3f
       -0.05211948444208995 0.734312084443248
0006a0 ec 87 3a d4 5a 69 d6 3f 02 ae b2 fe b9 3e cf bf
       0.3501803467316893 -0.24410176216530038
0006b0 3b 78 03 20 95 a9 ea 3f bb 9a ca 76 b8 48 d7 3f
       0.8332009911789621 0.36381351090168906
0006c0 74 13 5a 37 5d c7 db bf 68 31 55 c5 9f e9 c0 3f
       -0.4340432205720426 0.13212964187040233
0006d0 b6 a1 a9 c5 fe a1 e9 bf 28 ee 49 81 11 4d c9 bf
       -0.8010248051260109 -0.19766444027833185
0006e0 5a 2c 02 4f e9 09 e1 3f cc d7 63 c9 8d 12 db bf
       0.5324598830351406 -0.4230074373912174
0006f0 99 9d da 77 4b 6f d7 3f 8f 05 74 d1 30 ee d9 3f
       0.366167895359888 0.4051630063477995
000700 f4 88 e2 7f b3 07 b8 3f d9 04 4b 74 78 26 dd 3f
       0.0938675105303764 0.45547305447332814
000710 7a fe 14 f7 55 c2 c5 3f 0e f2 37 b0 2f b8 d4 bf
       0.16999315800238773 -0.32374183853951954
000720 fd 1d ff 9c c0 1e a4 bf 9d f9 7d be 60 9c aa 3f
       -0.03929712215863999 0.05197431874602219
000730 13 a6 7b 60 84 05 db bf 40 63 15 a5 e0 fd d6 bf
       -0.42221173689049 -0.35924545403900154
000740 60 84 91 9f a0 89 b7 3f d0 b8 ee 0f c3 b1 c9 3f
       0.09194377799714593 0.20073736455873936
000750 64 03 c7 53 20 d5 d3 3f 43 72 a9 97 4f 5e bd 3f
       0.3098831956995609 0.11472032025034999
000760 5b 27 40 47 33 f5 e0 3f 17 ac f7 7b df 44 d1 bf
       0.5299316779721538 -0.26982867342184264
000770 5e 5c 18 5a 69 3d d3 bf 12 13 fa a3 66 67 d3 bf
       -0.3006232623897115 -0.30318609250416373
000780 c2 12 a4 53 8e 4c ae 3f 88 9d 6d 04 c0 ed d4 3f
       0.05917782565123765 0.32701111252250614
000790 c0 34 5b 28 54 df 94 3f 60 63 f4 d8 ad 9c d8 3f
       0.02038318153681895 0.3845629328439397
0007a0 3b 67 93 6c b5 4a c3 3f b6 ba b8 97 e1 db d4 3f
       0.15071742822220266 0.32592048470079804
0007b0 6c 6c a9 4e 1a ae ac bf 36 45 53 14 63 8e d1 bf
       -0.05601579866625958 -0.27431561455621833
0007c0 92 22 a9 03 da 56 ac 3f 18 be cf 5f 12 fe cb bf
       0.055350125262127695 -0.2186911552266657
0007d0 af a7 9b 2e ea 17 dd 3f fa d8 e3 fd 53 64 d5 3f
       0.45458464194836784 0.3342485408205814
0007e0 90 85 fa 41 ac e3 d6 3f 83 dc 97 92 c6 1a c8 3f
       0.35764604991171556 0.18831712873336323
0007f0 53 7a d6 f2 31 ce b1 3f eb da 88 96 96 31 bc 3f
       0.06955253771455121 0.11013165640984439

layers.1.bias f8 [20]
000000 fb 9c c6 e1 fd 62 b3 3f a9 d3 b3 c5 21 4b c5 bf
       0.07572924387078565 -0.16635534432830681
000010 08 6c 1f 1f 20 b4 97 bf d5 78 18 fb 04 e0 be 3f
       -0.023148061656552726 0.12060576563132781
000020 e2 9b 43 0b ca d2 cd 3f e9 71 0a ef 4e 8d d1 bf
       0.23299527692799332 -0.2742497763045138
000030 98 10 88 c0 b3 c8 c1 bf 82 10 6e 42 15 e3 bd bf
       -0.13893744374229722 -0.11674626228165333
000040 28 6c 4f e5 c3 35 b0 3f 7e 04 c2 5e 30 5f c1 3f
       0.06332039211649543 0.1357174360928503
000050 3a 7d 7c c2 ea d6 c6 3f 08 22 25 fe e4 19 b6 bf
       0.1784337472572391 -0.08633261875832698
000060 35 8e 5d f6 e9 4c 88 bf a6 54 a0 74 e0 00 b0 bf
       -0.011865451651551154 -0.06251337859460424
000070 f0 90 f5 cd 04 60 a9 bf 36 21 32 ef 67 6d af 3f
       -0.04956069006110109 0.06138157648917046
000080 87 c8 32 21 02 91 98 bf 49 c1 85 90 19 db bb 3f
       -0.02399066283823761 0.10881194857006905
000090 82 74 29 7a 25 aa bf 3f b5 77 52 a6 57 2e b2 3f
       0.12368997795552342 0.07101962862586116

layers.2.weight f8 [20, 20]
000000 9d 6a 19 b2 39 0f b7 3f ac e3 ff fd 4b bf 7c bf
       0.0900760707676604 -0.007018372387386156
000010 86 ee fa cc e6 fe c4 3f 68 78 7c 9d 4d 6c b9 bf
       0.16402897843169145 -0.09930882544401387
000020 97 48 46 d3 e7 72 e1 3f 92 be 49 f4 55 f8 92 3f
       0.5452765585380516 0.01852545074001328
000030 ef 1b d7 7e 24 5a bd bf 82 d0 33 a2 1b 8c ad bf
       -0.11465671631513862 -0.0577095637799241
000040 a8 a3 53 da e1 fe bc bf e3 c0 72 5f 94 e0 b9 3f
       -0.11326419430009926 0.10108306246070557
000050 b9 88 86 9e 92 47 e8 bf d4 a5 ef 68 d5 af e0 3f
       -0.7587369056893954 0.5214640664609598
000060 15 f0 37 e5 83 ed a8 bf 54 ac 9b 58 11 23 a7 bf
       -0.04868709729268531 -0.04518942076341462
000070 bf f9 42 dd 04 7d c1 bf e1 39 f0 66 97 58 c4 bf
       -0.13662777713575555 -0.15895359541214218
000080 ba d6 8a 65 fe 13 d4 bf 79 92 88 89 15 e7 c9 bf
       -0.31372032085651436 -0.20236462798597524
000090 7b ae 0b 65 45 f7 c9 3f 8a 35 85 23 bc 6c e1 bf
       0.20285861429089266 -0.5445233052975464
0000a0 9c ea 73 21 3b 81 c1 bf e8 59 73 24 ef 24 9e bf
       -0.13675631650388176 -0.029437767600791448
0000b0 37 ac 23 af 6f 02 97 bf e0 19 c1 3b 33 90 c8 3f
       -0.022470231117875463 0.19190063874903185
0000c0 99 2a 8c 2c 2c fd e7 3f 42 13 23 1a 3a bd c4 3f
       0.7496548528736923 0.16202474857541388
0000d0 63 5d ed 1c b5 8e d9 bf 5e 41 94 5c b0 55 e0 3f
       -0.39933517289087755 0.510460072344397
0000e0 4e 5e 86 9d eb 9d b8 3f 19 c3 9c c9 85 f1 b6 bf
       0.0961596736509531 -0.0896228425233513
0000f0 2f 4c f7 d3 02 ec cd 3f ef 72 7c 4a e8 53 bf bf
       0.23376498556044242 -0.12237407511242869
000100 f6 4d 18 d7 4a 89 c4 bf b2 27 3b dd 6f 01 b3 3f
       -0.16043982985193822 0.07424067641400603
000110 df 0e 6f ce 3a 9f c0 bf 75 85 d7 6d 1e ea e2 bf
       -0.12985930518890762 -0.5910789628361913
000120 53 bd 28 6d 55 9b b5 bf 8d 76 b3 0b 4d db e7 bf
       -0.08440145411508597 -0.7455201366935441
000130 91 cc 8b 40 24 f2 e0 3f 24 98 15 20 bb 51 bd bf
       0.5295583019891571 -0.114528365452856
000140 9c de 76 5d 5b 63 81 3f b0 5d 57 c5 f1 e1 2f 3f
       0.008490289487652895 0.000243244898838963
000150 1c f9 b7 65 75 aa c1 bf 73 a3 ef 07 ad 76 d5 bf
       -0.13801448313456255 -0.3353684022427423
000160 21 cc ce 6f 41 de dc 3f dc cf ae 98 50 58 c4 bf
       0.45106540602427186 -0.15894515471666082
000170 0f fa 59 75 c7 70 cb bf d1 a0 e3 95 40 99 d0 bf
       -0.21437924604465805 -0.25935377729048265
000180 f4 9e 34 55 03 74 c8 bf fb 5f 05 44 14 c2 df 3f
       -0.19104043636729495 0.49622065203357096
000190 b8 34 cb f5 50 ff e6 3f 4e 3e e8 27 a8 8c c7 3f
       0.7186665344867356 0.18398000668138298
0001a0 95 d9 ed b4 4d bf 8c bf ed 6b c6 04 02 ff d1 3f
       -0.01403675754930304 0.281189446128052
0001b0 b6 1f 5e cf 33 45 db bf 6d a6 7f 12 d3 d7 9d bf
       -0.4260987782549778 -0.029143617633883446
0001c0 8f 78 42 b2 80 b9 b3 3f 8a dd 50 b2 bb b1 e0 3f
       0.07704929687540328 0.5216959460002937
0001d0 b3 fb 7e 63 d6 27 e7 bf 48 ba 42 79 bd 77 d2 3f
       -0.7236129706651496 0.28855835763798554
0001e0 79 55 f9 39 99 04 c2 3f 15 70 a2 cc 5e 13 bf 3f
       0.14076533633003033 0.12138931747398403
0001f0 35 b1 d6 88 25 c8 d8 3f ca bb de 0a 8c da cd 3f
       0.38721598017834263 0.23323202639354995
000200 50 eb cb ce d8 bb e4 3f f7 c0 9c 45 bc b5 ce bf
       0.64793053045228 -0.23992112540282282
000210 7b 02 15 d9 11 2d af bf 12 0f 95 26 4e 6b db bf
       -0.06089072966506578 -0.42842439430045076
000220 9e a3 25 a4 2b 57 d5 bf 1f 9c 65 3a 48 3b 8f 3f
       -0.33344546346648396 0.015249790460712785
000230 7c 4b 2e 27 1c 2f af bf 7c f8 bc f2 03 62 8b 3f
       -0.06090629556924562 0.013370543332367861
000240 fe 2a b6 0a 0b 81 9c 3f 02 1a 46 5b 00 49 83 3f
       0.02783601048353556 0.009416582856613512
000250 92 d6 07 33 af 9f c9 bf 8f d6 05 ab d3 3f e0 bf
       -0.20018568031052958 -0.5077913608826793
000260 e7 2f 8f 18 0a 27 d3 3f 2c c5 85 a7 9c 26 c9 bf
       0.2992577781521945 -0.19649084262668148
000270 a8 22 b1 28 3b b8 d3 bf f3 db c2 d9 13 c4 c2 3f
       -0.3081195733434847 0.1466088116919476
000280 a9 71 99 3f 8d 1d d5 bf ce f0 18 ce 25 80 e2 3f
       -0.3299286957824515 0.5781430268612213
000290 ac 76 dd 4b 1b 8e cb bf 12 3e 97 8a d4 a7 cf bf
       -0.2152742500720043 -0.24730927245262585
0002a0 74 ce cd a0 e5 fd bd bf ea 81 52 9b 91 22 ba 3f
       -0.11715541053654893 0.10208997766540731
0002b0 40 57 8d c2 4c 86 db bf 07 98 7f 9b 4a 5e ca bf
       -0.4300720119402861 -0.20600254624076816
0002c0 9b 81 04 99 00 83 b1 3f b0 5d 92 c7 37 8c c5 3f
       0.06840518699437441 0.1683416103812596
0002d0 8f 76 d1 48 67 94 9c bf f6 ce 9f 98 52 ec b9 bf
       -0.02790986425349345 -0.10126224733522435
0002e0 72 10 38 16 b4 26 d3 3f 69 46 e8 f0 9e 4d d2 bf
       0.29923727197479544 -0.2859876015291776
0002f0 b8 bf 24 1e 6c 26 9a 3f fa 52 68 c0 5e 93 a5 3f
       0.025537194576088246 0.042139969813581105
000300 ce 1b 71 00 2b c5 cf 3f bb 58 bd 2a f2 dd d8 bf
       0.24820458909581905 -0.38854650663177964
000310 95 e6 72 cf ec 40 c3 3f eb 1e dd 91 60 fc 8e bf
       0.15041885499322363 -0.015129808856399992
000320 ea 9b c1 b8 0a 89 d2 bf 4c 67 eb 2c c1 8c ce 3f
       -0.2896143726597403 0.23867048924767642
000330 36 60 45 72 47 66 df 3f 78 b7 65 ea c2 b4 c3 3f
       0.4906176200797775 0.15395389981443564
000340 26 65 69 e5 00 b9 c9 bf 89 41 d7 3d 2b e7 cd bf
       -0.20095835878127238 -0.2336172153432126
000350 7d d0 46 45 86 50 c2 3f 19 07 32 db 59 8f b3 bf
       0.14308241255423929 -0.07640611268473342
000360 8d 85 05 95 18 5c d0 bf d0 cd 8a c3 69 a1 c0 bf
       -0.2556210952080498 -0.12992593810996178
000370 58 d7 ae ea 5c 94 c3 bf 13 4d c0 fb dc 93 cd 3f
       -0.15296517809991417 0.2310749272588529
000380 54 db 1b 3b 2a 63 a0 bf 5d 94 88 e2 b2 c7 da 3f
       -0.032006568637305804 0.41843864557660543
000390 d1 ea 93 8e 77 e4 de 3f 9a 0f f3 2c c9 08 a1 3f
       0.4826945202218385 0.03327015565585541
0003a0 19 83 83 e7 15 71 b4 3f 5d d6 29 cd cb ec d0 bf
       0.07985054876509103 -0.26445288691988883
0003b0 fd de a0 6b db 06 b9 3f fb ec 10 08 91 85 e1 3f
       0.09776088121077105 0.5475545079747514
0003c0 d3 9e c3 5e d7 b4 d0 3f 8e e5 6e 59 02 71 db bf
       0.26103767637549175 -0.4287725327845572
0003d0 38 d1 c8 70 d7 2e d9 3f b6 35 ea 86 f1 d5 d1 bf
       0.39348398222070413 -0.2786830728080888
0003e0 25 c2 16 64 ac e6 af bf 4d 5b 12 12 64 82 e7 bf
       -0.06230677339351968 -0.7346668580019952
0003f0 38 66 b6 42 cf 24 97 3f f7 b2 20 ca 61 fc a0 bf
       0.022601355025108044 -0.033175521777911436
000400 9b ea ef 20 bd ed d7 3f 70 6c d8 fd ba 98 cf 3f
       0.37388542381783346 0.24684846300883434
000410 89 7f ce 1a c9 67 b5 bf e6 a4 ac 73 8f ea cf bf
       -0.08361489204844309 -0.24934571407474165
000420 52 f8 79 05 c6 31 e5 bf 66 71 4f 86 e5 67 d6 3f
       -0.6623258692704985 0.35009134403460107
000430 05 47 76 75 3f 24 9f bf 36 61 e2 72 cd 12 7a 3f
       -0.03041171221190721 0.006365587743993031
000440 ef 6a 91 bd d0 03 a9 3f 87 7b d9 94 f9 7c bd 3f
       0.048857234135274534 0.11518821605703354
000450 fe ce fc 1c b5 c4 cf 3f 99 fa 91 4b 36 0b bd bf
       0.24819053569228083 -0.11345233292557068
000460 22 06 ba 88 f0 3a c5 3f 95 73 ff a8 97 58 d1 bf
       0.16586119342905287 -0.271032252346964
000470 00 15 6a 50 3c bf c8 bf 4c 38 67 5e 3e 76 d9 bf
       -0.19333604742511312 -0.39784201830923815
000480 3a 41 b6 fb a6 15 c8 3f ed 21 a8 fd 74 dd b3 bf
       0.18816077509519308 -0.07759791558067493
000490 ac a1 26 3c d8 fb 4f 3f d2 c5 0c 73 e0 18 ad bf
       0.0009760671458041623 -0.05683041958253522
0004a0 f0 03 cf c0 31 7d c7 bf f9 76 03 c9 05 1e cb bf
       -0.18350812830433894 -0.21185371699441882
0004b0 e2 20 a6 fe 74 41 d9 bf d8 df 57 24 cd c5 e0 3f
       -0.3946201788717315 0.5241456708745273
0004c0 b8 74 f2 df 1a db c9 3f 9e 92 ee a1 42 8f e4 3f
       0.20199905333439516 0.6424878275616555
0004d0 25 0e ac 35 97 e1 c0 bf 7a 59 cc a1 b9 4f cb 3f
       -0.13188448067386208 0.21337051773361876
0004e0 38 c0 b2 e4 36 39 c4 bf 78 37 e9 2f a3 25 b4 bf
       -0.15799604575068016 -0.07869930190756047
0004f0 9a f5 e0 08 50 fd be bf 7c e8 0e 45 28 1d c1 3f
       -0.12105274407163905 0.1337023102949536
000500 3b af eb 1f 40 97 bb 3f ec ee 95 ea e6 6f ba bf
       0.10777664927780688 -0.10326998927296999
000510 be a9 b3 30 b5 7e db 3f eb 06 4a 04 0b 5e b9 bf
       0.42960862880741135 -0.09909123282161729
000520 b7 27 07 d1 66 d8 cf 3f e1 c3 94 94 ff 5e c0 3f
       0.24879155355875834 0.1278991199010582
000530 62 89 0d d6 f3 4f c8 bf 8a 40 ea 51 92 ef b1 bf
       -0.18993995620537435 -0.07006182193640789
000540 9e 59 5d 16 97 14 b9 3f 27 bf c3 4d c2 3a df 3f
       0.09797043128978664 0.48796136469080625
000550 73 bd 0b 7e cd d0 b3 bf b8 b0 56 71 32 b8 a2 3f
       -0.07740482642451756 0.03656156190422294
000560 5d b8 fd ea c9 26 dd bf 65 69 53 80 1e 8b 9a 3f
       -0.45549247692441047 0.02592132242430391
000570 33 fd 1d 07 1a 3e b9 3f d2 ee 3e 69 98 6f 7c bf
       0.09860384629972856 -0.00694236312477488
000580 89 f4 1a 67 c2 49 d0 bf 62 22 5f 56 47 58 c2 3f
       -0.2545019156348834 0.1433190509544771
000590 18 01 4a 9b 63 16 cc 3f a9 58 92 4c c3 b2 a0 bf
       0.21943326075052805 -0.032613852593543165
0005a0 ce ce 80 12 d6 a1 e6 3f 7d 09 b7 bc a5 f6 d6 3f
       0.7072553979291685 0.35880416325758074
0005b0 f9 ae a0 de 96 78 ec 3f 1e 92 fd c5 30 ad d5 bf
       0.8897203777500798 -0.33869571051607916
0005c0 ad a3 9c 96 f4 ae e8 3f 3d b1 e2 ab 51 96 be bf
       0.7713568631780753 -0.11948118635581735
0005d0 de b3 66 5e 18 9d df bf 30 cc 76 1f 66 f8 8e 3f
       -0.49396332949510036 0.015122220835882855
0005e0 ff 01 c4 e8 88 a2 a2 3f 92 e6 8d bc f7 b5 9b 3f
       0.03639629212739592 0.027061339267197733
0005f0 95 15 33 ab 02 0b c7 bf 42 93 e7 c5 56 b6 90 bf
       -0.18002351149895604 -0.01632056792176973
000600 1e ab c0 d6 2f 76 c3 bf 02 ef ff 35 3d 00 c5 3f
       -0.1520442770573362 0.16406979691225138
000610 d5 07 3e b7 a3 74 ba bf bb 31 0c 6e 6c e3 c0 bf
       -0.10334227775277267 -0.13194041608256932
000620 82 11 ef 8b 0c 1c 3b bf f7 7c a0 ef 43 75 cc bf
       -0.00041365915597803987 -0.2223286552479988
000630 b7 e8 16 3e 4e 21 ed 3f fa 29 1e 67 0d b6 c7 3f
       0.9103156292615243 0.1852432969574947
000640 48 93 cb 43 cd 50 b1 3f 07 d7 b7 bf 89 68 c9 bf
       0.06763918786198275 -0.19850274907337725
000650 da 00 05 0d a0 24 b8 3f 75 08 52 2c 6e 96 b3 bf
       0.09430885618076293 -0.07651413518945722
000660 97 2b 2c d6 33 77 bb 3f da fa f0 92 cc 0d bc bf
       0.10728763560125142 -0.10958555781779059
000670 4e 82 74 82 c5 5c c3 bf 1d dd d7 fe 8f 7f e8 bf
       -0.1512686621654375 -0.7655715920836063
000680 d0 b4 22 36 0b 6f b9 bf d6 fe 65 f1 b3 ed a6 3f
       -0.09935064384144998 0.04478227922208837
000690 8d 5f 70 0b 10 09 dc bf 99 ad 90 e4 3b ee e7 3f
       -0.43805314175687543 0.7478312935030998
0006a0 8a 53 90 76 4d fa b8 bf 58 26 b8 a1 f0 f1 88 3f
       -0.09756931442855268 0.012180213866503184
0006b0 8f 50 21 06 7e d7 de bf f6 d7 91 55 01 34 b1 bf
       -0.48190260504385035 -0.06719978655914347
0006c0 0f 5c 37 01 0a 4a ab bf 71 b3 3a db a4 3c d2 3f
       -0.05329924836012633 0.2849514141951693
0006d0 4b 45 50 ee d2 1d b2 3f 20 1b c2 c9 5d 0c d5 bf
       0.07076757734491428 -0.3288797827048473
0006e0 54 7f 49 05 1c a3 a6 3f c7 4c ad 9e 14 5c d4 3f
       0.04421317638911995 0.3181201505260102
0006f0 e5 df 98 ad 3a a5 27 3f 47 e4 af d6 f8 63 d6 bf
       0.0001804002884442372 -0.34985180821928846
000700 e1 86 fc a4 ce 9f a6 bf 4f 88 6f de 00 6d 9f 3f
       -0.04418798221582932 0.030689252449413392
000710 83 6b 97 be 1e 9b c0 3f 49 70 5f 4b d1 ae df bf
       0.12973388963913743 -0.495045016866929
000720 ec 12 ed 28 82 8d d4 3f 15 2d 0f ae 9c 75 c3 3f
       0.32113698956190606 0.15202673434246408
000730 70 8f 16 bc fd ac 9e bf 63 3c 56 ca a5 0f c8 3f
       -0.029956783871639414 0.18797752742509308
000740 44 c1 d9 04 2e 03 c4 3f 35 e9 af cd 75 90 bb bf
       0.15634703862043342 -0.10767303725871076
000750 1d 35 b2 e8 0c 18 d7 3f 83 67 e5 49 f2 2d b8 bf
       0.36084292148810154 -0.09445108703712717
000760 d5 ce 68 cb b9 6f e3 3f 23 95 8b 5c 12 24 ca bf
       0.607388398441311 -0.20422582167444955
000770 6b 91 91 6f 73 f9 d6 3f fe e0 5b f8 84 b2 ae 3f
       0.3589752759492259 0.059955745045899164
000780 2b dd fa 3e 13 23 aa 3f 38 9f b8 d7 e2 43 da 3f
       0.05104885238454878 0.41039343897363123
000790 71 71 a2 f3 95 a4 89 bf de 58 bc 29 0f 50 d5 3f
       -0.012520953652988638 0.333011427648115
0007a0 e1 7e 3b 16 20 6e c8 bf b2 89 74 73 16 8f c3 3f
       -0.19086075864378585 0.1528041900392743
0007b0 9c a6 21 7c 50 32 ab 3f 99 01 5a 9a 55 e4 d3 3f
       0.05311824336315604 0.3108114249553409
0007c0 2a 48 98 e9 62 60 d0 3f 3f 5f 3b d1 5a 2c d6 3f
       0.25588295757291013 0.3464571994095315
0007d0 4b 3f 21 5e 28 6b e1 3f 4c 65 86 9a bf 86 a4 3f
       0.5443307722543776 0.040090549099839196
0007e0 da 19 d6 2f bc 18 7a 3f 54 e2 95 45 d1 b0 e0 bf
       0.006371245484280108 -0.5215841635791301
0007f0 c9 5b 1e c2 59 9d d1 3f ca b4 80 98 5f 02 d6 3f
       0.2752289195718132 0.34389486210677644

layers.2.bias f8 [20]
000000 e7 1d 18 2b 74 47 bb bf aa d9 03 7b e1 a0 a6 3f
       -0.10655904819588323 0.04419617296837271
000010 5d 95 00 b7 56 cd c0 3f 76 67 10 8b ac a7 47 3f
       0.13126644073160323 0.000721892594927483
000020 9b a7 c2 d7 71 d2 be bf 0b 08 8e 35 5e 24 9f 3f
       -0.12039863126361043 0.030412170428014956
000030 fc 44 60 20 4a c5 ac 3f 4d f0 db 5e a0 72 bc 3f
       0.056192699863581524 0.11112406078240263
000040 04 29 c3 72 e3 3e c4 3f 70 b7 8a 0a 90 63 94 3f
       0.15816920379285915 0.01991105141012589
000050 d3 a1 88 04 45 0e 96 3f 22 7e 07 ae 6c 62 89 3f
       0.021538809205738318 0.012394761143638414
000060 ad 36 99 7a 0e 5b bf 3f 7f 6a bb 06 04 ec 8c bf
       0.12248316281439982 -0.014122039275595853
000070 e6 e7 92 17 25 25 92 bf 3a 6b bc 96 28 9c bf bf
       -0.017719821513971022 -0.12347654037550351
000080 a8 51 47 be 49 46 9f 3f 8f bd 89 e9 57 ae d2 bf
       0.03054156516903253 -0.2918910771031386
000090 05 68 c6 98 58 67 84 3f 61 67 e8 86 7d 18 c6 3f
       0.009962742006610634 0.17262238585754644
