main/continuous_time_identification (Navier-Stokes)/model/pt_model_NS_clean_9000.pt (torch, 38362 bytes, 22 tensors)

linear_in.weight f8 [20, 3]
0	0xbfc215c8e3dfa31c	-0.14128981711044097
1	0x3fc110f2e47072bb	0.13332973627338682
2	0x3fe48fcc25454b12	0.6425533988898187
3	0xbfb1eeb33c0ddbc9	-0.07004852501073268
4	0x3fd777c933fb4b90	0.3666861541398072
5	0xbfaf12d3d4d5f6d2	-0.06069051716893416
6	0xbfbe55e22295c906	-0.11849797577250251
7	0xbf992c4a45bdaac0	-0.02458301592506973
8	0x3fb028ad0e8de68c	0.06312066655473297
9	0x3fb2738bbadcbb65	0.07207558929506559
10	0x3fcb4e55f01f7435	0.21332811569928514
11	0xbfcb8e1ce47416b8	-0.21527444033579513
12	0xbfe0239fb3110fef	-0.5043486115832801
13	0x3fe1084ec145c3c0	0.5322641157964583
14	0xbfd65337fe29bd6c	-0.3488292676983835
15	0x3fb4ad00f95e4979	0.0807648285683963
16	0x3fd1f6905d98b36e	0.2806740678814127
17	0xbfc20e89df67174b	-0.14106868179640694
18	0x3fdfe6fc8783fced	0.4984732936281507
19	0xbfd1543b7b952919	-0.27076613491648654
20	0x3fc2ccff443534b9	0.14688101606808404
21	0x3fd9617038cd7965	0.39657216593868433
22	0xbfc7c56a122d7a70	-0.18571210753994505
23	0x3fddb230b90d9a8a	0.46400087424846304
24	0x3fa524f84f7d7d75	0.04129768343295385
25	0xbfd1df7039fbb003	-0.2792625967256301
26	0x3fdfca8c883626be	0.4967376070204458
27	0xbfc1e482192b6822	-0.13978601674063024
28	0x3fb29a80a02cd5f7	0.07267002020383716
29	0x3fc13c182270afee	0.13464643174790986
30	0x3fb51e20a3bcf4ba	0.08249095914375718
31	0x3fbd7afd857dab8a	0.11515793332152505
32	0xbfb28ea2d2cd7a54	-0.07248895308064479
33	0x3fbd5c063344aed8	0.11468542815844829
34	0xbfad86fd91eb2e8d	-0.05767052084192157
35	0x3fc7253284d43592	0.18082267270839886
36	0x3fb2485c7e77670d	0.07141664588507642
37	0x3fad5e2daa6e14cd	0.057359149031108815
38	0x3fdb645d7493c26e	0.428000797123821
39	0x3fb51ef334ae09fe	0.08250350986603647
40	0x3fd1d57d08876483	0.2786552985467738
41	0x3fb76b4208af2d85	0.09148037635821112
42	0x3fd6b48225341e9b	0.3547673571888283
43	0xbfa9093e8c348449	-0.04889865361679619
44	0xbfd07a512b4ae3ea	-0.2574656412867272
45	0xbfd83d66a7b8cbdf	-0.3787476194294736
46	0xbfbabd52ead989aa	-0.10445135339390413
47	0x3fd55b4b8a4e5f2c	0.33369720941981273
48	0x3fd5442eb159ba34	0.3322865230501606
49	0x3fcf67cda7075b97	0.2453553262300516
50	0xbfe47f0e550c0179	-0.6405097638199059
51	0x3fcbb65944de5a13	0.21650234091494322
52	0x3fd5efc936530756	0.34276037507162493
53	0xbfadf549b4a65521	-0.05851202326008776
54	0xbfbd7739e46ddaae	-0.11510049654848828
55	0xbfc06748c97dd401	-0.12815198744252146
56	0x3fa717ed6bb53350	0.04510442676346449
57	0xbfc4d08bf78f2546	-0.16261434161996585
58	0x3fd6540752994a55	0.3488786989811719
59	0x3fcbd67f09f3e019	0.21748340593308127

linear_in.bias f8 [20]
0	0x3fc8547d40376b82	0.19007840762682454
1	0xbf9618f342962f47	-0.021579552592398767
2	0xbfe0de8d73de05cc	-0.5271670592339261
3	0x3fd017e6afa0fc5c	0.25145880843405677
4	0x3fa83f588fced321	0.04735829120128288
5	0xbfb0757b044d0ea3	-0.06429261069302554
6	0x3fe246f3bbb6f8f3	0.5711611429503861
7	0xbfb27374e9f5a908	-0.07207422935394814
8	0x3fb5cd5399657e9c	0.08516428465872611
9	0x3fcdc6a302d17809	0.23262441289529104
10	0x3fc718e934b0f367	0.18044772217572388
11	0xbf988e9c6ca64783	-0.023981517917099914
12	0x3fd8135c3c6b3bd7	0.37618165874749593
13	0xbfe5d985f676ff37	-0.6828031362310644
14	0xbfc0a994a336f26a	-0.13017518968071623
15	0xbfc02de5fefebfbf	-0.12640070868428485
16	0x3fca9abbfd4069d6	0.20784711709786902
17	0xbfbe66eb14c4589f	-0.1187579084110859
18	0xbfc1d73dae731950	-0.13938113229796523
19	0xbfd25afb6e0e7686	-0.2868031096239537

linear_out.weight f8 [2, 20]
0	0xbf9894f83d53c271	-0.024005774253000604
1	0x3fadc01e77fe7ab8	0.05810637678881875
2	0x3fe044a5db6369aa	0.5083798680237142
3	0x3fe2dd318754afa0	0.5895011561565191
4	0x3fddb0e514893ea0	0.4639218044803588
5	0x3fbb69ee2b1125a7	0.1070851187843319
6	0x3fe39fb7e76fda64	0.613246871972319
7	0x3fdda282e7fc5884	0.4630439057813265
8	0x3fddd46ca66bf4e4	0.4660903573238342
9	0xbfe501e2cd94e7ba	-0.6564802184359373
10	0x3fdb8896129941e9	0.430211561358219
11	0x3fe88d22922a1a7d	0.7672283987784138
12	0x3fcfb128c4af91ae	0.2475939712886776
13	0x3fc36760b9da2349	0.15159234118280043
14	0x3fd4afcc64afee3a	0.3232298835061759
15	0x3fcf83142908f2d2	0.24618770602855605
16	0x3fd83bd2f218e100	0.3786513675909333
17	0x3fcacdf7a11bf515	0.20941062323246543
18	0xbfe110c621cfba8c	-0.5332976017360394
19	0x3fc66c951c3a5d62	0.17518867376632402
20	0xbfe881c6c3abaa0c	-0.7658418485346501
21	0xbfe43ad76f734b45	-0.6321828057064997
22	0x3fdb2c0013212f75	0.4245605646908566
23	0x3fc8117d4c885872	0.18803373562758768
24	0x3fedbf5ece5b45ad	0.9296106367493643
25	0xbfde9dafa9484988	-0.4783744004390873
26	0xbf89f4a301a46746	-0.012673638808837883
27	0xbfdd2d78003bde7b	-0.4559001924785446
28	0x3fd016956f232bfe	0.25137840131054634
29	0xbfb63b97a4e85eed	-0.08684680725161416
30	0xbfcc424ab9e5b614	-0.22077306820885723
31	0xbfb5714a26b52e33	-0.08375991292012301
32	0x3fd95b6e5e681b7c	0.39620551318551356
33	0xbf9609ac9f4cd741	-0.021521279547605635
34	0x3fd11c0456dadf48	0.2673350189393102
35	0x3fde7495af7458ef	0.47586576589800605
36	0xbfca5c6f5d78e72d	-0.2059458929450612
37	0x3fd4d3ec7558dd90	0.3254347940414499
38	0x3fe328e97921ba5f	0.598744141183328
39	0xbfe0ad48c23d0358	-0.521152858134978

linear_out.bias f8 [2]
0	0x0000000000000000	0.0
1	0x0000000000000000	0.0

layers.0.weight f8 [20, 20]
0	0x3fd0e208616d0357	0.2637959433960097
1	0xbf8a92c740598a6c	-0.012975269938754162
2	0xbfd114f6946ba109	-0.2669044923227522
3	0xbf826849eff92554	-0.008987977634336154
4	0xbfcc5d40837ce7fa	-0.22159582538898787
5	0x3fb4354faec8fdfc	0.07893846528258303
6	0x3fddb7bfe521e749	0.46434018493856805
7	0x3fa09c009a65a586	0.03244020352105807
8	0xbfe0314c5446319d	-0.5060178419094431
9	0x3fa4b44af92306d4	0.04043802539082511
10	0x3fe1c423cdd6a53a	0.5551928539545437
11	0x3fb3dd4f6a3d9f42	0.07759567588584296
12	0x3fd958fdeb07d1a7	0.3960566325397629
13	0xbfd2a7167e0af2f4	-0.291448233688967
14	0x3f88a362828ca8d2	0.012030381783536024
15	0xbfe459d3775a983d	-0.6359650927668167
16	0xbfac0ee46645746b	-0.05480111835888909
17	0xbf9f84e98a79a554	-0.030780457569936928
18	0xbfcb4aa841ee2859	-0.21321585864308437
19	0xbf895c0c4fa4dfe5	-0.01238259904913259
20	0xbfcfb57a17d1abd2	-0.24772573626554945
21	0x3fa517fadb8fd59a	0.04119857721517946
22	0xbfbd15aa85e4d473	-0.11361184853451949
23	0xbfb7801243f8af88	-0.09179796370943738
24	0xbfbc3ae91effbf8f	-0.11027390486537868
25	0xbfa112d7ab54784f	-0.033346881546308375
26	0x3fbe589b820390ab	0.11853954242866631
27	0xbfb590f020a3dbaa	-0.08424282833935473
28	0x3fa95aef12c7d928	0.04952189544921942
29	0x3fbdeb5cee6b5080	0.11687260456830195
30	0xbf7f787bb38431be	-0.007683261115982663
31	0xbfb92b87e7012967	-0.09832047834166745
32	0x3fd06fd079255953	0.25682460623410924
33	0xbfbbca180a86fd2a	-0.10855245835317776
34	0x3fa17eddba219d07	0.03417103669272064
35	0x3fc2ba2c5142750a	0.14630655257943942
36	0x3fc6a5022615cd1a	0.17691065654398913
37	0xbfc52570158153dc	-0.1652050118451872
38	0xbf912565249d0260	-0.016744213447284273
39	0x3fb61cb33bb3baf8	0.08637542922563657
40	0xbfd2976f211bb09b	-0.2904928038904104
41	0x3fd0e8f8b5687ae1	0.2642194530070992
42	0x3fd048acf31cc920	0.25443576566171267
43	0x3fb1f2955d2d09d4	0.07010777973940857
44	0x3fac261c7e7d9121	0.054978266182646125
45	0x3fbc054a4187c65b	0.1094557199465042
46	0xbfb2548f08836107	-0.07160276372758655
47	0xbfb3961b41d1cb0b	-0.07650919300958152
48	0xbfcb052e8db10763	-0.21109563749819946
49	0x3fc98a07b48d0bf3	0.19952484432187098
50	0x3fd90aae231c0f54	0.391276869093635
51	0xbfbb096af314dc6f	-0.10561245379072813
52	0x3fcddf24d2988a3c	0.23337230952263777
53	0x3fd3fb0470f00ba0	0.3121958830744749
54	0x3fcaa2186937042b	0.20807175767370842
55	0x3fcf2329a29bb70a	0.24326057853561905
56	0xbfd084035c391720	-0.2580574417701076
57	0x3fb10c0322177088	0.06658954222024438
58	0x3fc19bc47574debf	0.13756614432508305
59	0x3fe4e1d07bffc293	0.6525652334076589
60	0xbfb666de02924c70	-0.08750712931423421
61	0xbfa0e7a284e22453	-0.033017233582605464
62	0x3fd3332578fe2747	0.2999967271394905
63	0x3fab02fa3a54ac32	0.05275709116025275
64	0x3fcc6d138dd1f948	0.222078747032308
65	0x3f7511a0ffa8c3d8	0.005143765355158224
66	0xbfa96acd2a82ebc1	-0.04964295524538143
67	0xbfbd472a7cc0e20c	-0.11436715646494394
68	0x3fd1d3dbb7d0f452	0.278555802829776
69	0xbfd4d568795b55f6	-0.32552539683578574
70	0xbfa87b7eec2b3cc8	-0.047817198113642656
71	0x3fd1ab1412cb87c8	0.27606679759457764
72	0xbfb7861c6a270aa3	-0.09189012137998502
73	0x3fce1a45d88a6e0a	0.23517678330686947
74	0x3fb3844d0851d6bf	0.07623750165097486
75	0x3fa45285a57d5e49	0.03969209332597907
76	0xbfc7e0de551a7e8b	-0.18654994159168256
77	0x3f92cd7614b87f3b	0.018361897482576977
78	0x3fb3a4d6c86fbaeb	0.07673399346797864
79	0x3fc439f2dd847264	0.15801845375326018
80	0x3fc82fd1c45d0370	0.18895933235219387
81	0x3fa94894a46d5697	0.049381871291797434
82	0xbfdac3bb9afb34da	-0.41819658408060223
83	0x3fc8456ca8d63a21	0.18961866611466952
84	0x3fcb3ac923df34cd	0.21273149730260457
85	0x3fa935c26f00b26c	0.04923827748311713
86	0x3fcb8280d9b38719	0.21492014532037088
87	0xbfa6575cf6c48353	-0.04363527786541135
88	0x3fd0aa9c9338b531	0.26041330697156
89	0xbfc2185aeb73e915	-0.14136826035230202
90	0x3fd2ce639eb4b4b6	0.2938469934332021
91	0x3fd3631033ad82d5	0.3029213432946965
92	0xbfc245064743db18	-0.14273146133174275
93	0x3fd78218a6be7096	0.36731544765076174
94	0xbfd9490ea1a190a3	-0.39508405479706193
95	0x3fb3fcd74d54b2e1	0.07807679784736933
96	0x3fe322d4270307bb	0.5980015527677475
97	0x3fc755f797fff94a	0.18231100961561203
98	0x3fb942e7217346a6	0.09867710653932224
99	0xbfd0b2236f8b734a	-0.26087270634689175
100	0xbfbe20e8eea25fe4	-0.1176896650889599
101	0x3fc76072d0092c5c	0.18263087423324265
102	0x3fa923d333fbf44f	0.04910144815037453
103	0x3fb2bb76731b8964	0.07317295370333948
104	0x3fb8ef9838086ae8	0.09740592353811517
105	0xbfb52d71c53ab457	-0.08272467675370031
106	0xbfb5c02976629e91	-0.08496340885414556
107	0xbfcf69a45456cd72	-0.24541143530005233
108	0x3fc79e8f4a8aafe9	0.18452635898336148
109	0xbf99fbf6157904cd	-0.02537521844920292
110	0xbfb31a803e62e37d	-0.07462312243559484
111	0xbfd0f2633f0b4e78	-0.26479416996628613
112	0x3fcdf119199f8313	0.2339202284920466
113	0xbfcd1e5b176a5971	-0.22748888629275713
114	0xbfdc31cf00e091c8	-0.44054007611910295
115	0x3f9e5445c5c4d9a8	0.029618349262102633
116	0x3f88396b61b85423	0.01182826892822148
117	0xbf9026806fd39c2c	-0.015771872353891478
118	0xbfd15bb5498e86bb	-0.27122242148662296
119	0x3faeb5f1cf494e95	0.05998187690115945
120	0x3fd69a8809ab400f	0.3531818479941657
121	0x3fba34e005ca27a7	0.10236930981969171
122	0x3faca1e4bbd8d15a	0.05592264931729814
123	0x3fa80b25fef7f226	0.046960055708016576
124	0x3fc170ca7c49623d	0.13625460690197314
125	0xbfb2aa7b4a9a3a7f	-0.07291384288167001
126	0xbfcdefdea1db22dd	-0.23388274100422893
127	0x3fc446a013de3d4a	0.15840531320689372
128	0xbfadeda789b25ae0	-0.05845378452175054
129	0xbf6ea53311353fb2	-0.003740882626210828
130	0xbfd9e615cd2395d8	-0.4046682837782476
131	0xbfb0f1179f398fa4	-0.06617877614331619
132	0x3f9197696ddb2b84	0.017179152803503253
133	0x3fd28964dd0df3ae	0.28963586413720577
134	0xbfce605a0eb8e150	-0.23731542319161258
135	0x3fe0da7faeb240cb	0.5266722118413097
136	0x3fb857bc08a21ba5	0.09508872233173678
137	0x3f86e922f274405c	0.011186860107528833
138	0x3fb14a8dc67f5d71	0.06754385086184357
139	0x3fb36e5c1e2c0a24	0.07590270744916744
140	0x3fb4d870aeedb5c7	0.08142761488644289
141	0xbfac7457573ddccc	-0.05557511272393753
142	0x3fda5112a3ee9ba9	0.4111982918643045
143	0xbfc796369824a7f2	-0.18427164486757835
144	0x3fc28be152436eaa	0.1448938037564081
145	0x3fa9494332faec0d	0.049387073491253465
146	0x3fc84e43bbc44d03	0.18988844555187975
147	0x3fb53a2436e64d34	0.08291841831514973
148	0x3fb134708f06633a	0.06720641605205638
149	0xbfd003a53468a71e	-0.2502224933438003
150	0x3fd517d3cd67f24c	0.3295793062132233
151	0xbfc2ef2b56687297	-0.1479238674081855
152	0xbfd3d8508fbbdb38	-0.3100778010988736
153	0x3fa803d3339223c0	0.046904182477255585
154	0x3fd1c62e615eceb8	0.27772101887533607
155	0xbfc3c24b7ea7cb45	-0.15436690983150406
156	0x3fb228306e8b5c84	0.07092573832356847
157	0xbfc59f3a6a7c3ab6	-0.16892175864673725
158	0xbfc858b8fd7ffbcd	-0.19020759942938384
159	0x3fb0b9fbd26f4e51	0.06533788573806844
160	0x3f9ace07bc36c1ed	0.026176567900337778
161	0x3fa99038c76698df	0.04992844995585854
162	0xbfdf63002f3b5b9a	-0.4904175244568535
163	0x3fda899d56f79ccc	0.41464932911771935
164	0x3fae8fc9be84d90b	0.05969076586409202
165	0xbf73a30eea5e0da6	-0.004794176353132873
166	0x3fc0f77f8bb13e8e	0.1325530464259725
167	0x3fb300734b0d8c40	0.07422562200876914
168	0x3f923be67c1bc2ec	0.017806626629808628
169	0x3fc85e9a299605d3	0.1903870299393434
170	0x3fe1debaf621aa29	0.5584387595420753
171	0xbfc128e4d1fff6e6	-0.13406048063182324
172	0x3fc9239b3a472db2	0.19639911981208297
173	0xbfe40a8aff975862	-0.6262869827285267
174	0x3fd2bdd2eded19ae	0.2928359340188774
175	0xbfe3ca03e66a2e2a	-0.6184100628174225
176	0x3fb0aa3421bfbbf2	0.06509710143994576
177	0xbfb96b4f905df6b9	-0.09929368280969698
178	0xbfd7c9bfb8441a6f	-0.37168877596597033
179	0xbfc2a19811769c1e	-0.14555645802212863
180	0x3fbc614060b7d466	0.11085893975526204
181	0xbfbc458f6aca69a3	-0.11043640477365683
182	0x3fc73e12217706ea	0.18158175119429326
183	0xbfd1c037ddeea89f	-0.2773570697123748
184	0xbf808bb8904ba46d	-0.00807899656634189
185	0xbfd2fe068cc8ccc9	-0.296754491314641
186	0x3fd468cb22e54fa9	0.31889608772075434
187	0xbfd904ecaeb7be18	-0.39092557012824747
188	0xbf80e7674b6a9c42	-0.008253867138888652
189	0xbfce413b0d96497e	-0.23636568225317584
190	0xbfa774b19e4bc2e4	-0.04581217820476072
191	0xbf94ed146ea66528	-0.020435637715853577
192	0x3fad6349196bd782	0.05739811358755188
193	0xbfc31cdeb24d75a0	-0.14931853967838737
194	0xbfdd6bf1bf9f99f7	-0.45971339905955183
195	0x3fe0493b27d52ae3	0.5089393403989927
196	0xbf5bc32e17de499d	-0.0016944837693456457
197	0xbfd669e8ccf980c3	-0.3502141954140933
198	0x3fbf05db81f20942	0.12118312761780195
199	0x3fc4638ef405a790	0.15928828158513086
200	0xbfb75840157b30fc	-0.09119034313625102
201	0xbfcbb09043bf7ff4	-0.2163257914353377
202	0x3fa0875b957941a0	0.032282697674079985
203	0xbfdde8b2b9f3af27	-0.4673277679382743
204	0xbfa7b13fc61aacd4	-0.04627417844070583
205	0xbfac483ede163826	-0.055238690004543664
206	0xbfd09220b5988675	-0.2589189313313008
207	0xbfc52236594bdf60	-0.1651065765397517
208	0x3fbf3f3be6a3c2f5	0.12205862408496755
209	0x3fb809c7098a0b4c	0.093899192646899
210	0x3fcff37d949129da	0.2496182418274902
211	0x3fbbdaa890604c5e	0.10880521321114275
212	0xbfd3030d12fc8a2b	-0.2970612225928188
213	0x3fccf198c0222f78	0.2261229456092868
214	0xbfa141ee84ec4c12	-0.033706144071537505
215	0x3f74bd336ef4048c	0.005063248550187482
216	0xbfd490e606bb1995	-0.3213439050417944
217	0x3fd0b77b30e201ec	0.2611988046046736
218	0xbfcbff531b25e63d	-0.21872938943470102
219	0x3fca1cb5cb673d5d	0.20400116378594194
220	0xbfd31e22e421827a	-0.29871437338264395
221	0xbfd73031555f78b0	-0.3623164495201179
222	0x3fa19788bb616b73	0.03435923850403002
223	0x3fbfb9058b3138b8	0.12391695640801259
224	0xbfccac752a252911	-0.2240129905497459
225	0x3fc469b954fd176f	0.15947643899761085
226	0xbfd9b31931440fa4	-0.4015562993156385
227	0x3fd367e5161a2a45	0.30321623953264903
228	0xbfc263fbe147b5b6	-0.14367626667028127
229	0x3fb3cc903809ac84	0.07734013908491205
230	0xbf7cafd30b82e9a4	-0.00700361670913666
231	0xbf80cef3dfabf806	-0.008207230819149213
232	0xbfc338d5c5d26faf	-0.15017196807172925
233	0xbfd58bbd1357221a	-0.3366539658423179
234	0x3f9b2ca7cbfe4731	0.026537534547578182
235	0x3fda6c64df283050	0.41286584656405
236	0xbfce28d629402d94	-0.23562123312181582
237	0xbfbef0f47385eef1	-0.1208641798056609
238	0x3fc03fbac0ad8169	0.1269448700723033
239	0xbfd009527c6d1c4e	-0.2505689826106775
240	0xbf9c5a2c560c4825	-0.02768773341365018
241	0x3fc2ec88df610bf4	0.14784346491987288
242	0x3fbf1e1f3c4ececb	0.12155337545737692
243	0x3fc6c0b1e12bce8f	0.17775557989772436
244	0xbfc977fa6194ef8c	-0.19897393955932008
245	0xbfc74ce219a1776b	-0.18203378917217647
246	0xbfb9a4f8dbb3d5b0	-0.10017352451162398
247	0xbfde37088c1ec926	-0.4721089714395411
248	0xbfbc8bcf4e488140	-0.11150832806788902
249	0x3fb30a858e09707f	0.07437929837891664
250	0x3fbc9957343b52a7	0.11171479249180526
251	0x3fbf2ad6d4ce4bb0	0.12174742408232819
252	0xbfceb81ece53cf57	-0.23999390673236107
253	0xbfd1ad59eaa6f763	-0.27620551982169256
254	0xbfb7a110052dd4d2	-0.09230136991921548
255	0xbfc3160e1cca7fbf	-0.1491105690556633

layers.0.bias f8 [20]
0	0x3fdeab2ff604d5e9	0.4791984465149129
1	0x3f7e18075c45d95d	0.0073471343533725005
2	0xbfd151489521102c	-0.27058615268129205
3	0xbfd830b2116b39f4	-0.37797214222965114
4	0x3fbe1708600b6a09	0.11753895134771865
5	0x3fcdbe77a7b3f5fb	0.23237510384198842
6	0xbfd00a6134b78e86	-0.25063352726122223
7	0xbfcae6c36e92b770	-0.21016734026982986
8	0x3fe8a7b8b6d92a54	0.7704738208061124
9	0x3fa06e9484706e1b	0.03209365956010065
10	0xbfb004c54fabb801	-0.06257279582106891
11	0xbfb5ff5dd90df79b	-0.08592783497985439
12	0xbfb34fad6d1abffe	-0.07543453134235276
13	0x3f8615c10abdbbb7	0.010783680095952748
14	0x3fb6cb2652927889	0.0890373183815162
15	0xbfc5fc2a8ac6259b	-0.17175800109934589
16	0x3fb6a87f50f2f002	0.08850856519978836
17	0x3fc9827c97f69f47	0.1992946378716118
18	0xbfb7dfbf25184e77	-0.09325785308493005
19	0x3fd509c0b0a1a75d	0.3287202572743036

layers.1.weight f8 [20, 20]
0	0x3fdc5826c5dd7738	0.4428803379322406
1	0xbfa5f851956dda81	-0.04291014622770196
2	0x3fd9971b793f897f	0.3998478588165639
3	0xbfbf731379acdccc	-0.12284967156016363
4	0xbfd64413157f521d	-0.3479049405989672
5	0xbfd2281b64bbaa73	-0.28369793736661747
6	0xbfcafc27bcbe9665	-0.2108201667407911
7	0x3f9697660e432e85	0.022061915035733754
8	0x3fd459a1d2d046fb	0.3179707106329343
9	0xbfd16a51c8de78b7	-0.2721142255412689
10	0x3faa5c4fb55171d3	0.051485529788553606
11	0x3fb2657e3f6f318a	0.07186116265001466
12	0x3fbaad551d3583be	0.10420734370337834
13	0xbfe74122e8ae759d	-0.7267012161789129
14	0x3f8d7f866548c1d8	0.014403390851925588
15	0xbfb760cb08f4fcb9	-0.09132069557834911
16	0x3fc00bc8556f8b0a	0.12535957500139033
17	0xbfd770ffd478c474	-0.36627193211740594
18	0xbf9be1e0a27b16e4	-0.027228841702501408
19	0x3fd6e1af23b68d97	0.35752466666800714
20	0x3fc57afd79111f35	0.16781586085766667
21	0x3fc60d99e9290b65	0.17229007611066574
22	0xbfc0e9d65e5ff83d	-0.1321361504378177
23	0x3fd42b240a1115d3	0.3151331041629792
24	0xbfbf0ff439e4c012	-0.12133718884865655
25	0xbfa0661bdc1926a5	-0.0320290285277001
26	0xbfb1ed5356ae8629	-0.07002755037549292
27	0x3fe07a0d0f55b2f6	0.5148988055712767
28	0xbfc0226cae664b44	-0.1260505534706572
29	0xbfa6f984467154ea	-0.04487241134544624
30	0x3fc8771a34aba738	0.1911347157650256
31	0xbf79f600eb618791	-0.00633812293207993
32	0xbfcb5fa78fbf818c	-0.21385664481114153
33	0x3fb30515883d6a66	0.0742963273636775
34	0x3fb4fd11071b7644	0.08198648856656471
35	0x3fb466967fb32b50	0.07969036691353648
36	0x3fcb2f589961d770	0.21238238801350517
37	0x3fbbeb649227ff68	0.10906055992381669
38	0xbf9db9d959758e64	-0.0290292702533307
39	0x3fd58953a77aa5fe	0.3365067611253777
40	0xbfb5b9de43f59162	-0.08486737403069847
41	0xbfc3a139dd5f41b9	-0.15335772809204487
42	0xbf9c0b0859844360	-0.027385836089766413
43	0xbfd174ede95aea8c	-0.27276180065715816
44	0x3fcaa45267eb6151	0.20813970636550974
45	0xbfd2d2fa324a186e	-0.2941270342929617
46	0xbfdb4779933842b8	-0.4262374818509147
47	0x3fd8ac7b5d53cbc8	0.3855274592780771
48	0x3fdee383251d5c25	0.4826362478683584
49	0xbfc83a3285b4d97c	-0.18927604225764216
50	0x3fe39ff5531189b7	0.6132761595184125
51	0xbfc1635f0d4299ea	-0.13584507129162599
52	0xbfc03fbf19ce9ba1	-0.126945388413529
53	0xbfd835fe30356cf4	-0.37829546649818657
54	0xbfb31276fb22ec9f	-0.07450050002346352
55	0x3fa238d297fd63b3	0.03558977227539319
56	0xbfdfcf4817ebc8a7	-0.497026465759641
57	0x3fe255e4579998b1	0.5729848586022596
58	0xbfcc8d068d48cb48	-0.22305375956201545
59	0xbfc8796c79a1bba6	-0.19120555819560286
60	0x3fd444b58fd53811	0.3166936783426318
61	0x3fd0d1a6b4ed5e6a	0.26279609364198697
62	0xbfe64664e576cf92	-0.696093033001022
63	0xbfe2c7465f13e7bd	-0.586825547884693
64	0xbfd35156c0498683	-0.30183953073547104
65	0x3f9f7e72a31a1676	0.030755797581625242
66	0x3fae4dd3db7de0c9	0.05918752722112825
67	0x3f2f6d9abdc0519e	0.0002397776978574463
68	0xbfc5faabb5df1392	-0.17171236401022988
69	0x3fd2c28b929ad550	0.2931240970313711
70	0x3fc3b0fa75ba1d09	0.15383845089329665
71	0xbfe017f3432fd7d6	-0.5029236137622728
72	0xbf989e7c707d8bca	-0.024042076459760676
73	0x3fa9537647544462	0.0494648897239436
74	0xbfd5e4a00f360760	-0.34207917676405053
75	0x3fa0ff524e3291b1	0.03319794849929581
76	0x3fc091f88e4eeb28	0.12945467899938845
77	0xbfcc5e77e161ee2a	-0.22163294320113042
78	0x3fd215d8d8b5972a	0.2825834385206344
79	0x3fdccaae1861f871	0.44987060910341997
80	0x3fd43b5610a37dc0	0.3161215937124915
81	0xbfbff6961ce850b5	-0.12485635953663883
82	0x3fa92aef43b15f5c	0.049155690205849395
83	0x3fb2e62e03aa09b7	0.07382476415117521
84	0x3fa41dbf719bd138	0.03928945791077115
85	0x3fb77cf50a43fa59	0.09175044537185197
86	0xbfba798b0439e9c8	-0.10341709950618061
87	0xbf9bf89495353492	-0.027315446478770662
88	0x3fc97e7cc5681c0c	0.19917258872030208
89	0xbf950cccf7b55fc4	-0.020556643122602983
90	0x3fde32a7d90a7c2f	0.4718417758503532
91	0xbfba455d1c2d4bd8	-0.10262090623773135
92	0xbfb6442f83f0da2f	-0.08697792979442263
93	0xbfc12bf16d687715	-0.13415353624525808
94	0xbfe03a94e16dbc40	-0.5071510699180024
95	0x3fde9d185f6cf75e	0.47833833044921004
96	0x3fc9835dd5658d43	0.19932148856887907
97	0x3fbf32239f884ea8	0.1218588127597352
98	0x3fce449d149583d1	0.23646892075615125
99	0x3fd47932138086fd	0.3198971929979136
100	0xbfb73d2d8f0d33fa	-0.09077725164861752
101	0x3fbcc99b13723d27	0.11245125984918457
102	0x3fc34ec3925620da	0.15084118504842686
103	0xbf99677fe628bc14	-0.024808882162854998
104	0xbf8ff48ddec72998	-0.01560316883196293
105	0xbfd7b705ca4e0ea2	-0.37054581409777587
106	0xbfb1424a4a8fdfa5	-0.0674177581821583
107	0x3f9fb64fda1f9302	0.030968902290527296
108	0x3fda64c16ee1e564	0.4123996336780549
109	0x3fcb946ed4be2e0a	0.2154673136504786
110	0xbfc062489164cd52	-0.12799937342934214
111	0xbfc6927b6206bee5	-0.17634527479594123
112	0x3fcf87f7f1fa4dfc	0.24633693042106575
113	0xbfb7028c0c16ad2a	-0.08988261504298536
114	0x3fd5fa4e15871950	0.34340240576093084
115	0x3f85ae7ebcbd33c8	0.010586729178294521
116	0x3f9c3caddb354622	0.02757522249641487
117	0xbf748b36bd36d16d	-0.00501557714908461
118	0x3fdb6542a84487ca	0.4280554431189755
119	0x3fb843934a00567b	0.09478111797974435
120	0x3f84bd5efdcc6f36	0.010126821632688281
121	0x3fefa2d285141800	0.9886257743062288
122	0xbfcf8e2f7ed1e1d3	-0.24652665798545445
123	0xbfd5308b54311d83	-0.33108790609227173
124	0x3fd0e53ea36b9009	0.26399198493004455
125	0xbfc523fab3d5b4b1	-0.16516050129886176
126	0xbfd9493b862379c6	-0.39509475802870175
127	0x3fe14e1e1b122e52	0.5407858399134489
128	0x3fd88070d8f75e4c	0.3828394049464563
129	0x3fc087b1019a16fa	0.1291409738370744
130	0xbfdf52fb1f9a21c8	-0.4894397553075831
131	0xbfd53e258e3d4ddc	-0.3319181336457555
132	0xbfd31b3ab8fd5a8a	-0.2985369497813869
133	0x3fce834d15d0e83e	0.23838199200855742
134	0x3fe0e3ab64285a7b	0.5277916866496776
135	0xbfc8b7998178615f	-0.19310301610745292
136	0x3fcec59422573150	0.24040462185656475
137	0x3fd3204a358a6cc0	0.2988458178385365
138	0xbf94081cd054ff31	-0.019562196937157942
139	0x3fb25804c2a6291a	0.07165555717634611
140	0xbfa0a0e05a021a56	-0.032477389323550085
141	0x3fe013957432bbce	0.5023906011100452
142	0x3fd39a5e44a38ea3	0.30629688933388816
143	0x3fb6d52f4f5eda40	0.08919044196850567
144	0x3fe4e731e6303a1c	0.6532220359675338
145	0xbfc0aaee1cb99c40	-0.1302163734683024
146	0xbfc95e56cc3d4b71	-0.19819149944904838
147	0xbfba649ded5530de	-0.10309779209382294
148	0xbfc335e71b814d1c	-0.15008248179456352
149	0xbfc950641ed2c2e8	-0.19776584153216636
150	0x3fc4478847e444f2	0.15843299398742478
151	0xbfc777a58f6c1a6d	-0.18333882811585359
152	0xbf99c2bd9f4729fe	-0.0251569393601958
153	0xbfc6c51ecf2470f1	-0.1778906356274841
154	0xbfe5135d8a617b07	-0.658613939547508
155	0xbfc3890b95431556	-0.15261978901086576
156	0xbfd03525a5e08289	-0.25324383925366384
157	0xbfc67eea1c9356f2	-0.17574812312403015
158	0x3fd64314f9a2edd2	0.3478443563323853
159	0x3fd2c1d0d716f228	0.29307957653853345
160	0x3fbc76fb464a0d3d	0.11119051424070832
161	0xbf90e2ea4fd65f95	-0.016490613100898683
162	0xbfaa8264c306755e	-0.051776074225225996
163	0x3fd94432899b3d23	0.3947874397099033
164	0x3fbf7f0debfc3df2	0.12303244601593358
165	0xbfbd8510f6489637	-0.11531167996198453
166	0xbfdc26df6facbf99	-0.43987260728590055
167	0xbf8eca5434f91f92	-0.015034349314319493
168	0x3fc0a1cba4203af4	0.12993760599098148
169	0x3fc5d41f74140114	0.17053597610357285
170	0xbfb340820b01a234	-0.07520306366644364
171	0x3fbf6de8b52784b8	0.1227708284636887
172	0xbf8dc27e51de84f6	-0.014531123040628629
173	0x3fbcb6656a912d20	0.11215814449058259
174	0x3fac7ef2cbac6000	0.05565603958365273
175	0x3fbde3d8b5212ccb	0.11675791189297795
176	0xbfe1741b3d609fbb	-0.5454231451776573
177	0xbfe54bb76241eee6	-0.6654927176564029
178	0xbfd604a690f21cba	-0.3440338531003807
179	0x3fc3165097817594	0.14911849401225352
180	0xbf7cd5a460f15a26	-0.007039682487706622
181	0xbfcc1a94cace349c	-0.21956119444476918
182	0xbfc85fd2f9071f4f	-0.1904243198352966
183	0x3fb40d27cf0e5b5e	0.0783257370479595
184	0x3fd04ef4a31c7c83	0.25481906823001327
185	0xbfd60480f335abe5	-0.3440248847097663
186	0xbfd11ab9d8c72c0b	-0.2672562233898936
187	0x3fb1a29fe37df72f	0.0688877039337654
188	0x3fbc0aff223730ff	0.10954279504148089
189	0xbfc364f9325cc200	-0.151518964377388
190	0x3fbd872e3a5ab1d3	0.11534394192376078
191	0xbfa696cd54533c2b	-0.04411927847251492
192	0x3fa59511e68d6fd5	0.04215293826447889
193	0xbfcfbacc2296ba1c	-0.24788810433297293
194	0xbfd4ad75e8b41cce	-0.3230871937270877
195	0xbfd317463d0cadbe	-0.29829555475108893
196	0xbfc778a6ffbc23e9	-0.18336951720291886
197	0x3f9f734972e4892f	0.03071322215795041
198	0x3fb92a7e2fbecc07	0.0983046404424358
199	0x3f8d2b8fe01ebde9	0.014243244196989262
200	0x3facded2dfdc4aa3	0.05638751013443268
201	0xbfcf111b3c83d983	-0.24270954565845324
202	0x3fd0b3ac56ec3116	0.26096638191735744
203	0x3fda3a62260275b3	0.40981343948245835
204	0xbfc70c0aa1d039c4	-0.180054978380623
205	0xbfa7cbea12828f2b	-0.04647761798812974
206	0xbfc4f25a9549c7a6	-0.1636460522600462
207	0x3fa1ea5a6fab6f78	0.03499109852938792
208	0x3fd39a8fe1fb93ca	0.3063087183821237
209	0xbfd5d81cf04905d5	-0.3413154932532881
210	0xbfaf9493076541de	-0.06168040719296973
211	0x3fdbde31a802b50c	0.4354366436699173
212	0x3fd03a986522b576	0.25357637287637347
213	0xbfca6133e3c62c13	-0.20609139081747738
214	0x3fe8d99131db75da	0.776558492066836
215	0x3fcd36825e905753	0.22822599046110756
216	0xbfdaf1515134bd57	-0.42097886019015135
217	0x3fc1eac0dcc5c839	0.13997660427009054
218	0xbfe38b4766e22716	-0.610751820511015
219	0xbfc4143b710e7e83	-0.15686743755667373
220	0x3fdea12fd0ff5c03	0.47858806047355545
221	0xbfda3ae25af1d486	-0.4098440063601817
222	0x3fd130d3b222218c	0.2686051597197767
223	0x3fd914a8777741ea	0.3918858687075316
224	0x3fcf81bf4b9b97e9	0.2461470717600485
225	0x3fd8de9934176fd9	0.3885863312441394
226	0x3fb524af6ce6f19d	0.08259102257483737
227	0xbfd18f14dd7eeb56	-0.2743580019993507
228	0xbfc8294a0607b13f	-0.18876004499851182
229	0x3f87bd725907a6ec	0.011591809598900459
230	0xbfde8606595e2bca	-0.47693022467927604
231	0xbfdf1afafd4b6733	-0.48602175460620173
232	0xbfb20f90235fae5a	-0.0705499731408791
233	0xbf82b6dad1b1ead4	-0.009137830280669425
234	0x3fd43410a520bf25	0.3156777966096221
235	0x3fbeeb8d4e9822f0	0.12078173798375835
236	0x3fd428e9423e4f45	0.31499701947290176
237	0xbfca63715ec4620c	-0.20615975501347383
238	0xbfc597c22d3ff11d	-0.16869380197011533
239	0xbfd93e4c055b08f6	-0.394427304487308
240	0xbfa3b4fc0288d0db	-0.038490176495913984
241	0x3fd16a802498437a	0.27212527822216936
242	0x3f7d15539c261dbc	0.0071004167570047315
243	0x3fdc7296051968a3	0.44449377534841455
244	0x3fb1575586f871bb	0.0677388624685084
245	0x3fc5dd3511c1ea95	0.17081321112694484
246	0xbfb558074cfb2d29	-0.08337445859358596
247	0xbfc7c30beae3852e	-0.18563984841515818
248	0xbf885a2529f9fe9a	-0.011890688270113348
249	0xbfbbf5af0d178e59	-0.10921758718137066
250	0x3fd805b479ec6f8e	0.3753482046756681
251	0x3fdf2e8d21248ce8	0.4872162650737679
252	0x3fdab4bcc2233cc7	0.4172813316226435
253	0x3fc1281d57a23abf	0.13403670100202267
254	0x3fa944efe3137348	0.049354073018298694
255	0x3fbcf7710cc19c69	0.113150659193353

layers.1.bias f8 [20]
0	0xbf880bf14674c282	-0.01174152847542698
1	0xbf7b7fdcb73a6d52	-0.0067137357433709344
2	0x3fa31529c6b30b62	0.03727083731202786
3	0x3fb78dbf7c8bccc1	0.09200665274311161
4	0x3fa2f55e54edd332	0.03702826296549801
5	0xbfb1ea7a43e2dafe	-0.06998409421326454
6	0xbfa0d4a9b60f3716	-0.032872489427616156
7	0xbfa5f8284b5dedb7	-0.042908915710508415
8	0x3f6707fcf6e1609e	0.0028114262304762124
9	0x3fac014d027ef7fb	0.054697424463924414
10	0xbf9c4c32c12248a9	-0.02763442329212099
11	0xbfb54065236d3c1f	-0.08301384081754336
12	0x3f9683e8d3170db9	0.021987569698252083
13	0xbfa2775085703c91	-0.03606654766928686
14	0x3f92739e86520ca7	0.018019177387497944
15	0xbf2789f0a2982d36	-0.00017958700600249352
16	0xbfa5debbac1742e8	-0.04271494365423739
17	0xbfa2f38e7d6a684e	-0.03701443940117653
18	0x3fa6fd372c933ff1	0.04490063113337318
19	0x3fa5b5a3c6bc9982	0.04240142632470435

layers.2.weight f8 [20, 20]
0	0xbfaf87b062ff0ddd	-0.061582099995145724
1	0xbfb09b96f8fe145f	-0.06487411097448746
2	0xbfb276b0b61651cd	-0.07212356992233211
3	0x3f8bb0bb834d0a19	0.013520684189306785
4	0x3fdca8cb66dda8be	0.4478024010228515
5	0xbf891eb05221ad30	-0.012265565401512107
6	0xbfc79612120494ae	-0.18426729087619748
7	0xbf8c922dddffbdfa	-0.013950689637538528
8	0xbfc886867364ba58	-0.19160538324782084
9	0x3fa11cdf7655449c	0.03342340774055083
10	0xbfe214ef112e5386	-0.565055402332846
11	0x3fe2502dd64cf8d6	0.5722874818382262
12	0xbfa11f32ee1fb746	-0.033441154067857456
13	0x3fb18d37063b5aa7	0.06856101896424126
14	0xbfc28c48c0ca7498	-0.14490613378157913
15	0xbfbb87930b62762f	-0.10753745105690692
16	0xbfcdde42352d5e40	-0.2333452949194328
17	0xbfc77d86767d92c4	-0.18351822648687321
18	0x3fd2bb6153dddc99	0.29268677892782474
19	0xbfdd52c7ff0bedc4	-0.45817756564039436
20	0xbfb9d70eb29aec4f	-0.10093776569822065
21	0xbfad92dbf7746ca8	-0.0577610721176936
22	0x3fb467188ee7cb9d	0.07969811905768016
23	0x3fc4056394782048	0.15641445874666915
24	0x3fdaf52fae6105bc	0.4212149813575612
25	0x3fba9cd207b566d3	0.10395538986395118
26	0xbfcc4399ec7b2ef4	-0.2208130268758094
27	0x3fdc68eb8b4cfad9	0.4439038143499779
28	0x3fd011680b72efe1	0.25106240385116335
29	0xbfa6d8f85636ba44	-0.04462410023130706
30	0x3f808f993ed70ce4	0.0080863926222094
31	0xbfc48ea5dcf23663	-0.16060326851259096
32	0xbfb3f1c5834a2b77	-0.0779078908473546
33	0x3fb011ed86195a6c	0.06277355693723913
34	0x3fae94b76c404119	0.05972836681769617
35	0xbfdd2231d25032d9	-0.45521207369237754
36	0xbfbf0e6d4d8791f4	-0.1213138880044154
37	0xbfe03ae110d66b77	-0.5071873978480274
38	0x3fda0d4d18239200	0.40706183774298665
39	0xbfb3d30e81e1d634	-0.0774392191977647
40	0xbfaf620d7c06b176	-0.061294957532797165
41	0x3fb09cdb84366c00	0.06489345529409718
42	0xbfcee789555f34d8	-0.24144093197393235
43	0xbfc422447041a460	-0.1572957561614059
44	0x3fced6a6ae361bc5	0.24092563158430216
45	0xbfc5d7e75da27b32	-0.1706513602448126
46	0xbfbedf0a6d8bdbbb	-0.12059083151312582
47	0xbfc92f55e121b3ec	-0.19675706379658153
48	0xbfd1e493581087c2	-0.2795761451726514
49	0x3fd8e568447a99ae	0.38900191008942897
50	0x3fe4b21662efcb20	0.6467391903264321
51	0x3fc745aeb013f685	0.18181403729970583
52	0x3f989da96b344546	0.02403893200704956
53	0x3fd342151e8d7534	0.30090835555695894
54	0xbfd81f66d182ba11	-0.37691660366081786
55	0xbf87798a92d1db39	-0.011462290387709838
56	0x3fb12d1c19234a21	0.06709457029072798
57	0x3fe3cc311a25e1f1	0.6186757574751579
58	0xbfe797aa9ceb2fed	-0.73726397178825
59	0x3fd1bb19175b2620	0.2770445564352446
60	0x3fc4a1ab75f6b344	0.16118376979775395
61	0x3fb01d42e0c513db	0.06294649112267285
62	0x3fd1d680e6a67498	0.27871725582537854
63	0x3fc9c557445e5fdc	0.20133486593544958
64	0x3fe295d13e358ee2	0.5807882514022504
65	0xbfca0d11051afff9	-0.20352375745096632
66	0xbf9e15e3e2430d7c	-0.029380379376346508
67	0xbfde6d1ab03ffca6	-0.4754091950598628
68	0xbfd32e54166bd636	-0.299702665229549
69	0xbfb22b4c17b4262e	-0.07097316340163992
70	0x3f9c1dc133aa7e7d	0.027457255152170113
71	0x3f88f36baee31d22	0.012183038019783658
72	0xbf9161a6f37279ad	-0.016974075898014074
73	0x3fb42d60a477d77f	0.07881740584693196
74	0xbfcee005c55d2454	-0.2412116254511455
75	0xbfd954c05ec51b95	-0.3957978177535833
76	0x3fd0db46426aba52	0.26338345037485056
77	0xbfb5a63d66acb983	-0.08456786877352411
78	0xbfd3ce79340d3b2d	-0.30947713931247983
79	0x3fbefb18630306a8	0.12101890961914796
80	0xbfd61d3f441f24ba	-0.34553510334496773
81	0x3fe1447c0256740a	0.5396099134119379
82	0xbfc7eaf6c5645e53	-0.18685803068432225
83	0xbfb794cf751bdb27	-0.09211441620923876
84	0xbfb97cca641b9c61	-0.09956040329017092
85	0x3fc3c8e582de198d	0.15456837549227168
86	0xbfd84ee266abd934	-0.3798147204064606
87	0xbfc7ed0966a6c9a1	-0.18692128670006716
88	0xbf957d3de0091ae8	-0.020985571669622255
89	0x3fd1693f411b65f6	0.27204877241237513
90	0xbfb8dea5de02d2a1	-0.09714733762923312
91	0xbfa35ff873d6c630	-0.03784157194185089
92	0x3fc6f86d482b339d	0.179456386793757
93	0xbfdbd210d7092e89	-0.4346963977775223
94	0xbfa3500af7d4b2a6	-0.03772005343703215
95	0xbfaa5158ada51835	-0.051401873776328356
96	0x3fd93b56235ec6a8	0.39424661115763593
97	0xbfd43c574bd41323	-0.3161829224120984
98	0x3fbbecf0a8d8e3e9	0.10908416864630478
99	0xbf9032d5f9d36a60	-0.015818923352393433
100	0xbfc431f293fd3efb	-0.15777427888905735
101	0x3fc7e8d622de1fe8	0.18679310514949
102	0x3fd9b5a5809f7e20	0.4017118221363223
103	0x3fb8d0c498a73a06	0.09693554617772557
104	0xbfcb50c453549b9b	-0.21340231007453955
105	0xbfd141ecfa6e786a	-0.2696487851734505
106	0x3fac1534c4d37547	0.054849289919483506
107	0x3fa4782a9a392e90	0.039979296995253155
108	0xbfcaeeef2ed9d2d3	-0.21041669643059055
109	0xbfb202fa7649ce77	-0.07035794628046142
110	0x3f43e538599576bb	0.0006071591516662792
111	0x3fbcc0a7913a1928	0.11231467528896089
112	0xbfad882e1e368bda	-0.05767959708034427
113	0x3fd85946a7a9a764	0.38044897435485425
114	0x3fd81e9c35256919	0.37686829748203504
115	0x3fd3d1ddcecf5371	0.3096842307689292
116	0x3f844d282b6215b7	0.009912790130566103
117	0xbfd309d62ef23cb1	-0.2974753817042695
118	0x3fb7344b6584b7cf	0.09064170101620948
119	0x3fe27b2ddc868676	0.5775365168703519
120	0x3fc9e5a193944f77	0.20232028680822697
121	0xbfd3a931cc982b11	-0.307201814460016
122	0x3fda3f02b0295c18	0.4100958557441472
123	0xbfb9e1b21754d99b	-0.10110009259810797
124	0xbfa5ed3b775e00c5	-0.04282556373709804
125	0xbfe6bdfed6db9f40	-0.7106928059047064
126	0xbfc0763516ea2625	-0.12860740298155907
127	0xbfc220d41a81d4fc	-0.1416268472127412
128	0x3fdc278104639986	0.439911131178086
129	0x3fc3239d9af22511	0.14952440324513153
130	0xbfa006ef1def5362	-0.03130290260711523
131	0xbfc3d7c3834e49d9	-0.15502208625237193
132	0xbfe399f3f9dad856	-0.6125430946328929
133	0x3fd239d2395a635e	0.28477912522207827
134	0x3fb3280d73674e97	0.07482990329236326
135	0x3fcc59a519be072a	0.22148574597309195
136	0x3fa93924b4e3b7c8	0.049264094430199246
137	0x3fc10882a8eb77fc	0.13307221649205292
138	0x3fd03238c5cf3fbd	0.2530652934774443
139	0xbfbfb92dd159497b	-0.123919356928388
140	0x3fcc37ceac0e96e1	0.2204531040308018
141	0xbfd14aab2ccf4803	-0.2701824128718046
142	0xbfc07d1016484500	-0.12881661499026364
143	0xbfcc4e494532da29	-0.22113910559501562
144	0x3fcf83c5dc452479	0.24620888953566913
145	0x3f686b638a034a3f	0.002980894481973167
146	0xbfa9ce034e28ccb5	-0.05039987877935329
147	0xbfd04b4b8cd84512	-0.25459564928412803
148	0xbfd0f5d3dedc01e9	-0.2650041271554345
149	0xbfb33f1089c470cf	-0.07518103946171383
150	0xbfd04444ccc0c47d	-0.2541667937794683
151	0x3fe02cb31271a946	0.5054564819559253
152	0x3fd745b6dc8b7651	0.36363002336097333
153	0x3fdf67c9b698eb64	0.4907097132851759
154	0xbfc382570dd1531f	-0.15241516279879705
155	0x3fb393a3c40f2baa	0.07647155319788959
156	0xbfcf245e227f7cf4	-0.24329735455010104
157	0xbfc7a28c3a7c3949	-0.1846480641911035
158	0xbf9db1f78b78ec98	-0.02899920262119035
159	0xbf4e1d07840079de	-0.0009189879128859676
160	0x3fbd72675ee4dc4d	0.11502691332576483
161	0xbfcdc99b95b6ba93	-0.23271508035891894
162	0x3fd872727293beb0	0.3819852942387838
163	0xbfc943415410fad9	-0.19736496548463014
164	0x3fd24d6c75cf6616	0.28597556595704654
165	0x3fa4ada3019d942a	0.04038724322052929
166	0xbfc1bbbc2c783525	-0.13854171916356353
167	0xbfbd56f6fe76166a	-0.11460822784837324
168	0x3fbb072d6769c4d7	0.10557826781020495
169	0x3fdce037c9fa7158	0.4511851761287935
170	0x3fa7cfa757d9996b	0.046506146882893194
171	0xbf93489d623a9af5	-0.018831690903108506
172	0xbfd1949330f5e920	-0.2746932962542292
173	0xbfbdc297aeba31c7	-0.11625049606136094
174	0x3fc07fb3281cf146	0.12889708956380214
175	0x3fc9cb68cf608776	0.20152006269296024
176	0xbfcea0a4e11330d1	-0.23927746763218363
177	0x3fc455e2a458b889	0.15887101196989686
178	0x3fb217727352c06e	0.07067027392872813
179	0xbfabfc32f57a144d	-0.05465850111526347
180	0x3fd76e2634c16e0b	0.36609797622597345
181	0x3fd3d05520d19899	0.30959060864405213
182	0x3fea649e6056f6cf	0.8247825509676775
183	0xbfd22897db0cbf16	-0.2837276114614594
184	0x3fe543f1b2d454ad	0.6645439617883732
185	0x3f9af552590ac9af	0.02632645290823071
186	0xbfd33eb2c5ce15d3	-0.30070180241486105
187	0x3fba28c74193c0bb	0.10218472815518258
188	0x3fae1aa5f22f6015	0.05879705983505815
189	0x3fb0424b96ac90af	0.06351158550802681
190	0xbfbb91ff543b474e	-0.1076964932101678
191	0x3f77eeaf183e464f	0.005842861140892787
192	0xbfc4a56bee87d5a7	-0.16129826685907497
193	0x3fafd11d8b00f954	0.06214229890655312
194	0xbfa72f9c94871ed4	-0.045285122996174515
195	0x3fb86cf5fb23f1f2	0.0954126108299034
196	0x3fba34e1c7db9ff5	0.10236941460937017
197	0xbfd2b1e322960f45	-0.2921073758845874
198	0x3fec16bf0215454d	0.8777766266522719
199	0x3fd17783aaa40def	0.2729195753492765
200	0xbfb66a3e05866684	-0.08755862841499079
201	0xbfc4f665c84a4c95	-0.16376945762440145
202	0x3fc13b2815b31093	0.13461781558556093
203	0x3fc607dac8f928ae	0.17211470425747194
204	0x3fc5ef64b167da0e	0.1713682047117832
205	0xbfaf10ca90e26712	-0.06067498224838465
206	0xbfc25bf9b9740327	-0.14343186908083647
207	0xbfe5182d0bc3db8d	-0.6592011670862675
208	0xbfc1169184e7499d	-0.1335012339537344
209	0x3fc25e3c1c7a7009	0.14350081816235186
210	0xbfd5a2725ca68e74	-0.3380399613181233
211	0x3fe06798d207e227	0.5126461126483876
212	0xbfb88bbc6ee9ff27	-0.09588220317709482
213	0x3faa24428312cc59	0.051057890415358194
214	0xbfe0aa7598bdb112	-0.5208080275747611
215	0x3fb9accf0f3551f0	0.10029310342117248
216	0xbf9642bc820ca414	-0.021738954007705827
217	0x3fc2d2c0416dfaa0	0.14705661005787807
218	0x3fa005a4e37633f2	0.03129306103355835
219	0xbfd17b0bc0e4d4ae	-0.27313512646953597
220	0x3f8b49a1a912e9f0	0.013324034664369017
221	0x3fd44ef21850ab0d	0.31731846212885345
222	0x3f9a8cc6f74ad898	0.025927647441414153
223	0xbfd1afce74217c61	-0.2763553747262844
224	0xbfa9f2496bca0c47	-0.05067662659441701
225	0x3fb7cd624683eee4	0.09297765943113806
226	0x3f87c38a50100498	0.011603432243648279
227	0xbfd26fa320290d05	-0.2880637945238081
228	0x3fd25abafdcdfb05	0.2867877462921771
229	0x3fbe373a0fa5a316	0.11803019411094015
230	0xbfc0c3ed99663df3	-0.1309792517681526
231	0x3fc2151130328983	0.1412679181422157
232	0x3fc2ee247afb0564	0.14789253239545552
233	0xbfcfbafcef7954b0	-0.24789392178596392
234	0x3fcd1ba61cbeee2f	0.22740627673725686
235	0xbfae5d8de1b26c3e	-0.05930751209344763
236	0x3fdff30ee346f7a3	0.4992100924972595
237	0xbfd1710c038ca084	-0.27252483698476504
238	0x3fd806079ca2a35f	0.37536802574554956
239	0xbf932aca33a365b4	-0.018717917825460353
240	0x3fc8a2d12b786e9e	0.19246878264026618
241	0x3fd4490d5cd0c131	0.3169587522889002
242	0xbfb5d80aa114f6df	-0.08532778198874834
243	0x3fd06e88137c5e61	0.2567463102618373
244	0xbfc7a2938c533e9d	-0.1846489367658152
245	0x3fd0f4a81d057e29	0.26493265947462646
246	0xbfaf4da0f9c65083	-0.06113913582808641
247	0x3fc203284485ef3f	0.1407213530145501
248	0x3fd27b71f51786b9	0.2887844937778073
249	0x3fd6537a38e5ea20	0.34884505802588883
250	0x3fdeebd9290be181	0.48314503677786297
251	0x3faf53510e6a00af	0.06118253041222609
252	0x3fc0dc297ee95453	0.13171881386611747
253	0xbfdeca4a1c87a530	-0.4810967711078602
254	0x3fc9e275e96a55e6	0.2022235288356306
255	0x3fc5bfa72997cd8b	0.16991128474147063

layers.2.bias f8 [20]
0	0x3f8787926f6b7832	0.011489051842939888
1	0x3fa415d05a42aab1	0.03922892667590839
2	0x3f82fe3104033f40	0.009273894247968095
3	0x3f831bedb297512c	0.00933061314837199
4	0xbf936ce19411da61	-0.018970036184749243
5	0x3fa4740c9e1b4d16	0.03994788579952961
6	0xbf91ab5cfe5af180	-0.017255261444675707
7	0x3fb67efdb277e8a3	0.0878752289499141
8	0xbf70c66572b22e3e	-0.004095455438015315
9	0x3f954e8cdbed6b64	0.020807457850746572
10	0xbf9cbf77f46025f8	-0.0280741446404473
11	0xbf9b43f3428d6ec4	-0.026626397072830668
12	0x3f978a414eacc2ea	0.022988338877612792
13	0xbfb2cd375dcffd89	-0.07344385185569115
14	0x3fa6664bc072e364	0.04374920582035349
15	0xbfc1fe748c08b273	-0.140577858329738
16	0xbfb67c65c77605b2	-0.08783565635351101
17	0xbfac322eae58d58b	-0.05507036093005543
18	0xbfa3bb93b705b110	-0.0385404740253269
19	0x3fb1358b2ebef2e4	0.0672232617498128
