main/continuous_time_identification (Navier-Stokes)/model/pt_model_NS_clean_8400.pt (torch, 38362 bytes, 22 tensors)

linear_in.weight f8 [20, 3]
000000 17 77 7e ea 9b da c1 bf 25 5b 35 09 3e d1 c0 3f
       -0.13948391866591045 0.1313855690920828
000010 e6 7d 8c 9d fe 90 e4 3f 26 9d ef 89 0f 23 b2 bf
       0.6426995350956843 -0.07084748380258485
000020 90 92 55 22 80 60 d7 3f 53 a6 af 2b 50 3e af bf
       0.3652649245544035 -0.06102228673246359
000030 fe dc 04 42 04 61 be bf c7 87 3c e4 1f 61 94 bf
       -0.11866785632888718 -0.019901750855872338
000040 f1 d3 0c 05 0b 10 b0 3f 04 1e d3 4a 95 90 b2 3f
       0.06274479745191265 0.07251866413854918
000050 48 b6 a5 7a 9b 09 cb 3f 44 1a fd 56 ac 8c cb bf
       0.21123069275511086 -0.2152305054425644
000060 71 e8 07 c7 ba 27 e0 bf 3c b1 b5 61 c4 f2 e0 3f
       -0.5048498046228486 0.5296346577065729
000070 35 96 94 fb 25 53 d6 bf ec 74 82 00 0f a5 b4 3f
       -0.3488249737586984 0.08064359438363383
000080 db f6 c2 af 6b f8 d1 3f 51 0f be 8a 31 0f c2 bf
       0.28078739322869034 -0.14108866953403745
000090 d7 02 74 01 16 ee df 3f 8d a6 d1 d8 71 1e d1 bf
       0.4989066137496087 -0.267483197915319
0000a0 af 59 71 15 28 db c2 3f 87 d4 a7 43 a9 69 d9 3f
       0.1473131279660271 0.3970740471552933
0000b0 6d cc f8 76 e5 e7 c7 bf a7 f6 c5 46 1e b7 dd 3f
       -0.18676441487477594 0.46430165206389024
0000c0 0e e3 f1 13 4e 81 a4 3f 38 5b 58 19 ae be d1 bf
       0.04004901879756605 -0.27726318812476647
0000d0 80 e0 e0 2e 36 d3 df 3f 72 c5 a7 a6 a5 e6 c1 bf
       0.4972663362309575 -0.13985129010647374
0000e0 08 5d 98 62 fa 8e b2 3f 88 29 11 ef 54 4b c1 3f
       0.07249417216404563 0.13511144326396285
0000f0 fa 5f 06 16 e9 32 b5 3f b2 e9 d5 56 2e c3 bc 3f
       0.08280808246342977 0.11235322589883515
000100 72 c3 77 f1 25 91 b2 bf 7f 61 20 c6 08 f5 bc 3f
       -0.07252728600702854 0.11311392628738835
000110 2d 6f b2 5a 1c 08 ae bf dd 9c ee 14 e1 34 c7 3f
       -0.058655630179798336 0.18130124589990873
000120 5e 8c a0 bc c3 65 b2 3f cd 2e a0 c5 60 6e ac 3f
       0.07186530451922254 0.05552961742804783
000130 5c 43 c0 e4 3a 66 db 3f 2d d2 6c 82 9e 08 b5 3f
       0.42811462725608407 0.08216276821333031
000140 70 d8 0d ae 42 f0 d1 3f c7 46 ab e6 9e 69 b7 3f
       0.2802893352267182 0.0914553940922601
000150 5d 09 b4 8e 0c be d6 3f e8 14 8a a9 da 64 a9 bf
       0.35534967361322406 -0.04959758109638718
000160 ba a3 86 8a 31 7d d0 bf a0 14 f3 87 fd 3b d8 bf
       -0.25764120605395713 -0.3786615207321322
000170 ef 6c 5e 48 d0 5c ba bf 7e 28 27 6a 2f 58 d5 3f
       -0.10297872320954914 0.3335073982858673
000180 20 36 b6 c5 d3 4e d5 3f 1c 9a 95 8a e8 93 cf 3f
       0.33293623264111893 0.24670130507293286
000190 00 3e ba c9 42 81 e4 bf 85 4d c0 b4 f2 b7 cb 3f
       -0.6407789173117067 0.21655114961377478
0001a0 7e 74 76 ec 1e df d5 3f 15 9f 4b 21 4b 05 ae bf
       0.3417432126241876 -0.058634136022929585
0001b0 1a 39 8c 14 39 84 bd bf 04 31 17 d3 e5 9f c0 bf
       -0.1152988124051472 -0.12987969214589878
0001c0 dd 49 86 4f df 19 a7 3f 99 0e 00 97 41 d4 c4 bf
       0.04511926503905148 -0.1627275454812789
0001d0 1c 2d f6 ab 54 33 d6 3f 4a 4a 5c ea 11 d7 cb 3f
       0.3468829802811386 0.21750091498741347

linear_in.bias f8 [20]
000000 2f 6a ab 1c 65 18 c8 3f 5f a7 21 64 46 bc 95 bf
       0.18824447536356234 -0.021226024495639147
000010 22 57 d6 ec 0d af e0 bf d2 6e 70 d6 41 c5 cf 3f
       -0.5213689447143433 0.24820731135047552
000020 ad 98 c3 a5 17 f8 a7 3f d1 54 ca 01 14 a0 b0 bf
       0.04681466959463996 -0.06494259875974541
000030 21 b3 2f a7 12 31 e2 3f 70 3f 35 bc 76 b1 b2 bf
       0.5684903397901487 -0.0730203828327356
000040 f4 55 cd 03 cb 86 b6 3f 4c 00 0c 1d c6 7e cd 3f
       0.08799427836250812 0.23043133180908837
000050 2c 6b a0 fb 1b 24 c7 3f 76 81 61 59 f7 12 97 bf
       0.1807894686361008 -0.022533287840248183
000060 fd f6 0b 83 3b e0 d7 3f 5c 3a 6c c3 54 64 e5 bf
       0.37306106374295195 -0.6684974495745553
000070 15 3a 4c 74 70 6c c0 bf 3c 56 f4 fa 5a 2a c0 bf
       -0.1283093040332949 -0.12629258397707754
000080 9f f1 fa 65 4e f4 c9 3f 71 a7 a0 42 b5 fc bd bf
       0.20276813487533915 -0.11713726879739085
000090 02 8c 17 67 5b d8 c1 bf 9f 8c 3e e0 82 09 d2 bf
       -0.13941519292629329 -0.28183051966534295

linear_out.weight f8 [2, 20]
000000 9d 97 1f 96 a5 97 a3 bf 3d f7 31 56 0b 12 a9 3f
       -0.03826634843407748 0.048965791961548245
000010 44 3b 4c 9b 78 5e e0 3f 62 d2 82 ed 66 bc e2 3f
       0.5115321190986397 0.585498298538891
000020 77 c3 d0 34 e5 e5 dd 3f 34 d0 23 b5 b7 ec bb 3f
       0.46715669782411545 0.1090807740436624
000030 05 97 55 9a e6 7e e3 3f b2 02 98 36 40 9e dd 3f
       0.6092408193914883 0.4627838643209926
000040 9b 81 15 73 a7 3b de 3f f2 6c 89 a9 bd 1a e5 bf
       0.4723909973017954 -0.6595142661348332
000050 ba 3f 8d 46 97 e1 db 3f d9 51 06 44 9c 80 e8 3f
       0.4356439770681352 0.7656995133025318
000060 ca b0 a7 00 cc 34 cf 3f 55 aa fe 7d 43 8a c3 3f
       0.24379873306259575 0.1526569714745444
000070 43 8c 69 17 67 9d d4 3f ae 73 1a 8a 9d 36 cf 3f
       0.3221070984492977 0.2438542293865828
000080 eb 46 97 50 8a b8 d7 3f eb fb 0e 38 1c 95 ca 3f
       0.3706384455700646 0.20767548310502035
000090 f4 4d 4f 76 43 8e e0 bf 9c 40 79 b2 e7 13 c6 3f
       -0.5173661528337434 0.17248245443852717
0000a0 3c 0a b4 04 c3 25 e8 bf ba 5a e6 cd 86 1d e4 bf
       -0.7546095935688935 -0.6286043187600037
0000b0 c0 8b 91 cb 11 54 da 3f a2 6c 53 e3 7d 0f c8 3f
       0.41138119582882027 0.18797277068992907
0000c0 43 71 9a 9e db 38 ee 3f ee 82 db f5 36 3d dc bf
       0.9444406602592966 -0.44123624810713025
0000d0 b2 05 52 4c 4d 50 a8 bf 18 3a 9b b6 73 9f db bf
       -0.04748765522618771 -0.43160717804576754
0000e0 b6 a6 0f 0f 57 2b cf 3f 5d cb 6f e0 ab eb b0 bf
       0.24351013408095462 -0.06609606007968467
0000f0 ce 8e e5 2b cc 0e d0 bf c2 de ce 76 a9 a2 b2 bf
       -0.25090317045963395 -0.0727945246752553
000100 28 40 62 fa aa 6e d9 3f 1f 42 9e bf 75 77 6a bf
       0.39737963153402456 -0.003230791070514507
000110 2e b1 49 50 87 53 d1 3f 23 a8 c3 e1 71 16 de 3f
       0.270723179250825 0.470119924996313
000120 a3 1c 51 64 a2 8b cd bf 99 3b e9 5d fb 57 d5 3f
       -0.23082380197795258 0.3334949891185999
000130 0b 5b b8 90 8c d7 e2 3f 22 2f 2b f9 ea 03 e0 bf
       0.5888121439519137 -0.5004782549453675

linear_out.bias f8 [2]
000000 00 00 00 00 00 00 00 00 00 00 00 00 00 00 00 00
       0.0 0.0

layers.0.weight f8 [20, 20]
000000 0e d0 7a 82 ba ef d0 3f 7e 48 ec 51 c3 23 7b bf
       0.26463186971818764 -0.006625903099818696
000010 a2 38 c7 20 21 ca d0 bf c5 19 c6 a4 fd 6c 7f bf
       -0.2623369999026953 -0.007672301097392202
000020 38 e4 51 75 4c 2c cc bf 60 be dd 7e cc 08 b5 3f
       -0.2201018879748362 0.08216550919836996
000030 dc 4c 1d 35 86 a1 dd 3f dc 95 8f 69 5b 99 a0 3f
       0.4629836577125397 0.0324200216635224
000040 c4 ec 66 e9 5e 35 e0 bf 93 c2 6d ee fa 36 a5 3f
       -0.5065149840005678 0.04143509064204411
000050 6f 45 0a 30 09 df e1 3f dd d6 63 5f 54 e8 b3 3f
       0.558476060703624 0.0777638180623756
000060 60 d9 00 28 e7 62 d9 3f 0c f0 ac 77 9e 8d d1 bf
       0.39666155726026453 -0.27426873862327805
000070 79 48 d9 25 55 54 87 3f 35 f5 4a 1a f0 5b e4 bf
       0.011391320436050944 -0.6362228883296327
000080 6a 21 7d 68 9f ec ab bf 8d e0 0a eb df f7 92 bf
       -0.05453966284273089 -0.018523691864829096
000090 5b 81 70 9c e1 b9 cc bf 0e 4c 7c d8 a5 45 7c bf
       -0.22442264689108068 -0.006902358851010438
0000a0 97 6d 5a 4a a9 b7 cf bf 88 d2 bf 10 36 02 a5 3f
       -0.24779239779023207 0.04103249506434731
0000b0 4b 9a 11 6a cb b8 bc bf 28 cf cd a5 b7 9e b7 bf
       -0.1121947416264472 -0.09226558492610748
0000c0 73 5e dd 0f 57 1f bc bf 0d 39 04 f9 0f 42 a1 bf
       -0.1098532117588265 -0.03370714106323378
0000d0 e7 d5 57 08 40 26 be 3f f5 56 9d a8 2c ac b5 bf
       0.11777115062417175 -0.08465842358176785
0000e0 1a e7 b9 29 0d 4d a9 3f c3 39 e5 61 11 ee bd 3f
       0.049415980666664264 0.11691387786888811
0000f0 a2 ba 0e 64 53 fb 81 bf 19 1a 39 d0 c0 46 b9 bf
       -0.008780147067083025 -0.09873585780687967
000100 72 6c 0d 0c bd 69 d0 3f 66 96 3b 7b b0 d3 bb bf
       0.2564537637424059 -0.10869887360203165
000110 1e 8e 33 6b 6c 1d a1 3f 09 d3 25 6f f5 d4 c2 3f
       0.03342760857210812 0.14712398459564494
000120 79 0b 1e b0 48 99 c6 3f c8 db 6d 50 a4 47 c5 bf
       0.17655285453301042 -0.1662488358230958
000130 bf a1 a3 c6 ec df 8f bf 07 33 7c 5c 7f 31 b6 3f
       -0.015563821613299276 0.08669277198732682
000140 d4 79 5b 74 74 9f d2 bf 32 dd cd f0 1a c2 d0 3f
       -0.2909823547651318 0.2618472434619036
000150 44 61 60 21 e5 9f cf 3f 56 c6 c5 a6 d1 46 b2 3f
       0.2470671093913187 0.07139311143489499
000160 f7 40 99 fd 59 a1 ab 3f 3c b7 0c fc 02 ea bb 3f
       0.05396538944899192 0.10903948453480167
000170 4e ce c3 bd b2 6a b1 bf 73 8b cf 28 ec 88 b3 bf
       -0.06803433545047108 -0.07630802151065356
000180 d2 72 c5 1f fd 03 cb bf ca b0 0a 5e 31 8a c9 3f
       -0.21105922747928801 0.19952981082804505
000190 2d 30 ae 56 7e 37 d9 3f b7 b6 e3 48 c6 02 bb bf
       0.39401205506215115 -0.1055110862687013
0001a0 df 4f e4 d3 ca eb cd 3f 9c ff 74 a5 3d 56 d3 3f
       0.23375830980569298 0.302138721064688
0001b0 ce d2 0b 70 78 cc ca 3f c7 52 3c 45 06 ef ce 3f
       0.209364943227817 0.24166944866796866
0001c0 e5 cc 14 b7 93 73 d0 bf a9 5c ad 12 eb de b0 3f
       -0.2570542610075804 0.06590146261202058
0001d0 75 9f e2 6f 7f 38 c1 3f 8f c3 d5 65 2f c5 e4 3f
       0.13453667605540046 0.6490704525914327
0001e0 fc 18 0d a6 d2 54 b6 bf 24 95 38 1d ff bc a0 bf
       -0.08723179391845187 -0.032691929165858974
0001f0 90 db 8b 6d f5 8c d2 3f 4a c7 9a ae 25 1a ab 3f
       0.28985343644983974 0.05293386227039194
000200 6f 72 df 20 21 7f cc 3f 53 71 0c 1b 35 e2 72 3f
       0.2226296816360391 0.004610259479502626
000210 f9 7e 37 3c eb 7e a9 bf d0 2c c4 bc 47 5f bd bf
       -0.04979643926685457 -0.11473511084129773
000220 fe 2a b9 d2 5a d5 d1 3f ec 17 77 c1 4b c1 d4 bf
       0.27864714220474684 -0.32429784672819895
000230 6d be 00 30 35 25 a8 bf d4 ca 81 3e 16 a8 d1 3f
       -0.04715887270901651 0.2758842096729215
000240 eb 08 82 c9 63 75 b7 bf 67 ba 09 4d eb b7 cd 3f
       -0.09163497609737063 0.23217526685353393
000250 1d 3e 37 e3 5f 33 b3 3f 4d 8b 3c 3e 41 b5 a4 3f
       0.07500266358624015 0.04044536480639369
000260 d3 3c 12 41 5f e9 c7 bf 0e 78 2c a2 f8 7d 88 3f
       -0.18680945088679 0.01195902104296567
000270 53 f3 10 1d 5a 6c b3 3f d4 74 ad 74 a4 3b c4 3f
       0.07587207040428483 0.15807014176508594
000280 5a 93 9d ae 1b 33 c8 3f 0f 04 5d f6 bd 6e a8 3f
       0.1890596964468852 0.04771989471783666
000290 b7 ae 0b 42 19 4c da bf 20 11 f5 5e b3 fd c7 3f
       -0.4108946938492681 0.18742982994638968
0002a0 f2 82 a0 b1 e5 30 cb 3f c1 81 b7 41 ee 52 a8 3f
       0.2124297253913237 0.047507710954735945
0002b0 68 7a 5c 46 7c 66 cb 3f a7 90 1e 4e 9d 47 a6 bf
       0.21406510768516118 -0.043515125070628095
0002c0 1d da 6a aa ca b1 d0 3f ab 77 32 5e 64 2b c2 bf
       0.26085154192279153 -0.14194922065229085
0002d0 5e 32 65 1e 76 39 d2 3f 29 38 ee 27 6e 65 d3 3f
       0.28475716560641284 0.3030658140131686
0002e0 d2 96 c5 bd 03 50 c2 bf b2 71 38 dd e1 a6 d7 3f
       -0.1430668522472645 0.36956068614542936
0002f0 c7 1e b9 5e 64 61 d9 bf 43 6e 87 1d 0e a7 b4 3f
       -0.3965693402319456 0.08067405911372653
000300 b9 e7 fa 31 4c 18 e3 3f 7c 5e e7 22 30 af c6 3f
       0.5967160202192111 0.1772213144711151
000310 93 b7 58 48 77 95 bb 3f 40 57 28 c8 c4 a9 d0 bf
       0.10774941936753483 -0.2603618578590279
000320 44 4f 9d 72 df 0c be bf 1d 84 91 46 e6 89 c7 3f
       -0.11738392399030056 0.18389585920070398
000330 ba fa 25 f6 7d 58 a4 3f 4f 5d ce ae 0b f0 b2 3f
       0.03973764066448866 0.07397530572631193
000340 33 54 e1 3b 37 01 b9 3f bf 63 e4 b6 75 fc b4 bf
       0.09767480098646857 -0.08197723117008503
000350 cf 7a 1a bf 81 a5 b5 bf 78 b4 c8 00 50 68 cf bf
       -0.08455668368922463 -0.24537086523324425
000360 a0 b8 4d ef a5 9c c7 3f 6f a4 c6 6b c5 3d 99 bf
       0.18446802315469757 -0.024649700835344065
000370 53 82 44 72 91 94 b2 bf 45 6e 1a 7b f3 f1 d0 bf
       -0.07257947005974445 -0.26476752301980283
000380 68 10 b8 76 4a ff cd 3f 2f d1 d5 39 d8 3d cd bf
       0.23435335919214428 -0.22844984840379243
000390 4f 7f 68 59 ec 36 dc bf 48 85 df 1c 49 f9 9d 3f
       -0.44085224849003607 0.02927126158454499
0003a0 41 fa 5d 08 29 b8 88 3f 6b 7d 33 7b b4 c5 8b bf
       0.012070007865756628 -0.01356068612079638
0003b0 07 48 86 9a 22 a3 d1 bf 31 95 24 80 57 ea ae 3f
       -0.2755819806126287 0.060381636040157345
0003c0 e0 ed 91 70 86 91 d6 3f 88 39 38 e4 0c ac ba 3f
       0.3526321505848653 0.10418778011101015
0003d0 56 1c 7a 57 05 f3 ac 3f 8e 20 6d 0e 39 ba a8 3f
       0.0565416020663682 0.048295767794628394
0003e0 a8 d0 47 ae 08 88 c1 3f dd 52 01 fe 72 13 b2 bf
       0.13696392545501124 -0.07060927106187927
0003f0 d3 62 54 aa f4 03 ce bf c7 5f 70 34 69 36 c4 3f
       -0.23449571911694153 0.15791049061294712
000400 0b 37 e7 d1 f7 57 ae bf dc 1c 17 3c 0f 47 74 bf
       -0.05926489293379519 -0.004950580130248041
000410 ff d0 f3 d3 b4 d6 d9 bf 80 2d 3c 0a 50 15 b1 bf
       -0.4037296361778004 -0.0667314553249323
000420 1c c7 fd 8c 73 08 91 3f 71 36 9c 76 a3 b6 d2 3f
       0.016633801918437205 0.2923973711302557
000430 c1 c3 79 75 ee f0 cd bf fa 26 48 c0 34 c0 e0 3f
       -0.23391514526477233 0.5234626536850719
000440 77 79 ef 40 cd 9d b8 3f aa d8 60 e3 16 f9 89 3f
       0.09615786395395341 0.012682131589923113
000450 f7 e6 ac 4a a8 43 b1 3f d0 aa 8f 78 83 b1 b3 3f
       0.06743861983423104 0.0769273919428699
000460 13 8c f2 97 2d b6 b4 3f 8e f0 4e b6 01 88 ac bf
       0.08090481719641245 -0.055725148682058565
000470 35 e2 28 9b 50 36 da 3f ba d9 23 30 f2 32 c7 bf
       0.40956511642756094 -0.18124224997127475
000480 d2 00 c7 eb e7 8a c2 3f 9c 2b 77 22 49 e9 a9 3f
       0.14486407291952347 0.050607953507628894
000490 78 1e 00 5b cf 60 c8 3f a7 b3 6e 07 c5 32 b5 3f
       0.19045440619833065 0.08280593329864293
0004a0 19 d0 74 af 6b 1d b1 3f f2 39 ec 88 3f 02 d0 bf
       0.0668551734314068 -0.25013721820224
0004b0 a0 d3 67 31 b1 34 d5 3f 28 a5 fd 59 39 f3 c2 bf
       0.3313410742260263 -0.1480476083191118
0004c0 0c ee 34 0e 29 d5 d3 bf 5a c6 4a 44 51 08 a5 3f
       -0.30988527667406696 0.041079082094608935
0004d0 c0 6b ef b0 8a d1 d1 3f 00 b4 8c ae 75 e4 c3 bf
       0.2784144142039473 -0.15540953658037893
0004e0 1e a3 08 e1 aa a9 b2 3f 99 15 05 b1 01 94 c5 bf
       0.0729014205359246 -0.1685793032030858
0004f0 68 0e c7 02 02 80 c8 bf bc d1 e4 ae d1 3c b0 3f
       -0.19140648971198293 0.06342802543514997
000500 7e 25 94 f2 c1 f9 9a 3f 03 62 b0 20 56 b6 a9 3f
       0.026343374663189582 0.05021924160991278
000510 11 0b e4 0d ad fe de bf 1c ab cd 3d aa 7c da 3f
       -0.48429418903849447 0.4138589480923416
000520 54 18 10 f0 d2 78 ae 3f ed 98 73 03 62 84 72 bf
       0.05951556377844783 -0.0045207813884415695
000530 1a c7 03 90 dd e8 c0 3f 31 b5 e1 7e 21 10 b3 3f
       0.13210649044008776 0.07446488712021872
000540 9a 3b 10 81 66 62 92 3f 3d 9a f3 59 0d 4d c8 3f
       0.017953492762952196 0.18985144512335408
000550 7f f8 d3 aa 92 ce e1 3f de af e5 43 6a 20 c1 bf
       0.5564664207920628 -0.13380173030179682
000560 0b ff 57 b0 1b 22 c9 3f 6b 16 76 a4 c8 df e3 bf
       0.1963533984235187 -0.6210673534521453
000570 6a 4d d7 5a 43 c1 d2 3f 1d 9b c9 5d a4 c5 e3 bf
       0.2930458438033471 -0.6178762275493203
000580 f2 fe 47 f6 8f 90 b0 3f fb a1 dc 51 87 2c b8 bf
       0.06470584643102109 -0.09442945240574112
000590 91 c1 fd b1 e5 bb d7 bf 22 f9 ff 68 32 68 c2 bf
       -0.37084333784061935 -0.1438048374838639
0005a0 68 b5 ac 83 8f 71 bc 3f d7 dd b2 11 6b f2 ba bf
       0.11110779728615727 -0.1052615087709151
0005b0 fa fc 21 73 fa d4 c6 3f 97 3f 08 b1 59 69 d1 bf
       0.1783745824977599 -0.27205507553389324
0005c0 d6 e7 c2 a5 22 11 7a bf 92 ca 52 59 51 9e d2 bf
       -0.006363997785394168 -0.2909129497813093
0005d0 69 65 d6 27 a4 60 d4 3f bc 7d 26 54 4f 14 d9 bf
       0.31839851274852166 -0.3918646165638753
0005e0 de 04 a5 24 b3 04 83 bf 60 d2 3e 76 6e ca cd bf
       -0.009286307864956485 -0.23274021886540464
0005f0 5f d6 66 90 ed e9 a4 bf 9f 15 68 28 7a cd 95 bf
       -0.040847228886758506 -0.021291645733091277
000600 b1 0f ae b4 93 82 ad 3f c3 fd b1 23 b7 4a c3 bf
       0.05763684826436533 -0.15071763270314706
000610 e6 96 81 8f 34 b2 dd bf 84 37 6c 8a 64 3f e0 3f
       -0.4640017892291851 0.5077383712357322
000620 d7 d5 a5 cf c0 ea 13 bf 63 79 85 3a c9 5a d6 bf
       -7.59773428507729e-05 -0.34929114069918493
000630 7f 5b 7c 3a 93 8d be 3f 01 22 3a 3d b7 8e c4 3f
       0.11934776475787422 0.16060533990481932
000640 90 13 25 cd 89 52 b7 bf 72 8e 51 bd 13 b3 cb bf
       -0.09110318430346198 -0.21640249961921004
000650 26 f2 7c 5b e7 52 9f 3f f9 7f fc f9 b2 e6 dd bf
       0.03058969016932358 -0.4672057572624904
000660 fa b8 64 2b bb 95 a7 bf 0b 5c 5b d5 ce 84 ac bf
       -0.04606423287110491 -0.055700744194545924
000670 0c f9 6f 10 b1 92 d0 bf 4a 03 03 ad bb 29 c5 bf
       -0.258953348209517 -0.16533609340515404
000680 0c 1c ac 4a e1 41 bf 3f 23 d1 53 3e 6f 4a b8 3f
       0.12209899972013732 0.09488578101792604
000690 8b 55 d1 72 f4 1d d0 3f 20 af d1 b3 41 cf bb 3f
       0.2518283005968775 0.10863123550523968
0006a0 d4 24 df 35 af 01 d3 bf ee 9d e6 9e e5 9f cc 3f
       -0.29697780857948186 0.22362966784315524
0006b0 5e cf 5e a3 cf c2 a1 bf b0 b2 2b 6a e0 cb 76 3f
       -0.03468941563860882 0.005565525646244282
0006c0 cb ce 5c 72 9e 92 d4 bf 57 a3 83 c7 b8 9b d0 3f
       -0.3214489094564043 0.25950450404939346
0006d0 00 e5 a9 18 2e 1a cc bf 5d 9a cb 4f 57 17 ca 3f
       -0.21954895214347658 0.20383731266265928
0006e0 51 8b be 3e 23 19 d3 bf b6 b8 85 92 3c 26 d7 bf
       -0.29840928199171396 -0.36170877751181807
0006f0 4e 9f a6 b6 34 69 a1 3f f5 f0 a6 b2 9c ba bf 3f
       0.034005782409905025 0.1239412246858967
000700 7e 54 c6 9f 9f 9c cc bf e9 3c f7 12 6c 64 c4 3f
       -0.2235297708654435 0.15931464124739783
000710 16 98 6e af e4 ba d9 bf a1 36 63 61 b5 62 d3 3f
       -0.40203206188232465 0.30289968977454335
000720 4a 49 67 b9 36 63 c2 bf 41 b0 f9 c1 bc 2a b4 3f
       -0.14365276387122555 0.07877711997724736
000730 9b 6c d4 02 52 a9 79 bf 07 1c f1 f2 99 5e 81 bf
       -0.006264992099455881 -0.00848121903085365
000740 a5 88 88 e3 5e 34 c3 bf 42 1d 2e c4 95 a1 d5 bf
       -0.15003572568918347 -0.33798736723152356
000750 e2 44 10 f7 da 84 99 3f 47 50 f3 c6 19 7c da 3f
       0.024920865373194163 0.413824505126517
000760 8d 47 df 5d 21 33 ce bf 8a 51 7d 4a 04 21 bf bf
       -0.23593537410357293 -0.12159754580108575
000770 b2 b1 9f 2b 6c 38 c0 3f a4 4f 07 29 27 ea cf bf
       0.12672187929218875 -0.24933328154895407
000780 c6 1e 29 35 22 ff 9a bf 31 7e 48 0e 2c 53 c3 3f
       -0.026363882536570647 0.15097571084423714
000790 fe 8f 09 8a 34 a6 c0 3f 1e 42 65 73 02 81 c6 3f
       0.13007218113045832 0.17581205973193986
0007a0 16 66 e3 79 39 cc c9 bf cd 68 54 a7 b8 c4 c6 bf
       -0.20154493762565612 -0.1778784577407521
0007b0 69 3e 5c 97 b4 ef b9 bf af 16 88 6d 01 df dd bf
       -0.1013138646633195 -0.4667361802715772
0007c0 bf d8 8c 1d 84 6e bc bf 49 53 c9 67 22 dc b1 3f
       -0.11106134149017331 0.06976523431633298
0007d0 c2 64 5a c6 bd 61 bc 3f d2 43 4c 14 89 3d c0 3f
       0.11086641399960498 0.1268779133902443
0007e0 10 5c f3 08 fb ab ce bf af 60 26 e0 b8 5f d0 bf
       -0.2396234315590111 -0.25584241761817855
0007f0 b2 a4 f7 e3 44 f3 b6 bf 19 c3 1f 77 1e 37 c3 bf
       -0.08964949193581864 -0.15011959854702964

layers.0.bias f8 [20]
000000 19 b3 5a 72 87 8e de 3f 77 c5 ab b9 0a 83 76 3f
       0.47744928519641544 0.005496065040220591
000010 e1 39 87 1b 0f 8b d0 bf 85 21 f0 30 44 e0 d7 bf
       -0.2584874886350957 -0.37306313304045374
000020 8e 72 ea 21 0c f5 bc 3f 6b 46 37 0b 6e 24 ce 3f
       0.11311412647268979 0.2354867510571695
000030 43 f3 dd 39 ec 21 d0 bf 70 a5 11 ad 8a 89 ca bf
       -0.252070480833755 -0.20732243967658404
000040 ae 21 9e 81 dd 86 e8 3f 7b aa 2d ff 82 45 a3 3f
       0.7664630443187457 0.03763970723124018
000050 16 d0 2d 8a ac c8 ae bf 59 41 f7 e4 b1 95 b5 bf
       -0.06012477099184836 -0.08431541290270185
000060 94 6f 64 40 40 e7 b8 bf fb 6e 67 99 79 85 84 3f
       -0.0972786099632102 0.01002020835306138
000070 0e 0a d5 91 24 69 b6 3f b2 c9 1d dd 02 a6 c7 bf
       0.08754185257297584 -0.18475375935265742
000080 7d 00 3e a1 bf cc b6 3f ba 5f 0f 92 5a 8e c9 3f
       0.08906171499802613 0.19965679294432254
000090 1f a7 72 db 36 d7 b7 bf f3 f2 1e 56 0c dd d4 3f
       -0.09312765939344246 0.3259917107605325

layers.1.weight f8 [20, 20]
000000 4c 8b fe 19 77 65 dc 3f 09 65 57 5b 9c c7 a3 bf
       0.4436929468012536 -0.03863228430754801
000010 65 ec 75 3a 36 88 d9 3f 68 46 2c 45 9b 00 c0 bf
       0.3989387102989837 -0.125018509651045
000020 e9 96 73 bd 8d 38 d6 bf 03 8a a8 2b a1 f0 d1 bf
       -0.34720176221013205 -0.28031186355124776
000030 5f 7d 5a dc ec 60 cb bf 09 00 eb 7a 6b 5f 95 3f
       -0.21389542350241705 0.020871810319249593
000040 81 2e 0c 53 b2 9a d4 3f e8 e1 cb 7c df 5f d1 bf
       0.3219419299136704 -0.2714766234126089
000050 a1 be 01 d3 0e 7f a8 3f ac c4 9d 6a 47 78 b2 3f
       0.047844374902408456 0.07214781144081667
000060 e5 15 43 e6 f5 d8 b9 3f e4 66 fa 95 4d 20 e7 bf
       0.10096680518753194 -0.7226932458172226
000070 c6 42 67 7d 40 ba 92 3f f9 bb d6 c2 a5 e6 b7 bf
       0.018288619665159066 -0.09336315161520749
000080 7c 39 50 07 ed 5d bd 3f 07 d6 f1 76 a6 38 d7 bf
       0.11471444538640257 -0.36283265700998907
000090 7e 60 28 ae 04 b0 9b bf 2a 2c db ee 4c 96 d6 3f
       -0.027038643960708424 0.35292361570162945
0000a0 54 bc 23 e9 ef 58 c5 3f 4d a9 7e c2 73 db c5 3f
       0.16677664645928536 0.1707596492463587
0000b0 44 e2 66 b3 8f a3 c0 bf 5f 26 11 cc 5c 42 d4 3f
       -0.12999149570329582 0.3165504448739735
0000c0 ca 9e ca 38 c4 15 bf bf 0e 3b 2a 04 4c 7a a0 bf
       -0.12142588030348658 -0.03218305159417954
0000d0 4c 34 fa 38 2f e9 b1 bf 15 fb 33 ef d6 76 e0 3f
       -0.06996436253594246 0.5145067855772562
0000e0 c4 15 1a 06 54 2a c0 bf 5b d9 91 5f 64 ce a6 bf
       -0.12629175470298837 -0.04454339663145631
0000f0 81 78 3d ed f4 94 c8 3f f8 d0 5d 34 e2 a3 7d bf
       0.19204579910269007 -0.007236369716214101
000100 33 ee 35 e2 6f 49 cb bf 4b 1d ce a7 2a 82 b3 3f
       -0.21317862077181501 0.07620493504338303
000110 87 ef e5 25 c9 46 b5 3f f1 58 a8 30 38 89 b4 3f
       0.08311135459183393 0.08021880329065191
000120 bc 58 44 22 90 23 cb 3f dd 91 c9 09 8c d8 bb 3f
       0.21202279732887586 0.108772995366571
000130 44 ff 1e e7 f5 77 9f bf ca 24 90 22 8d 8d d5 3f
       -0.03073105071211947 0.3367646062402626
000140 55 4b 7a b0 aa f2 b5 bf 20 7a 52 cf 10 c5 c4 bf
       -0.08573405083215609 -0.16226396678116917
000150 86 77 7c ef 04 7b 9a bf 90 3c ed 1b 27 72 d1 bf
       -0.025859906308248103 -0.2725923321458561
000160 24 1c 5c 39 1b 85 ca 3f 11 24 80 70 d3 b6 d2 bf
       0.20718708325168322 -0.2924088095319926
000170 e2 aa 5c ac 7b 32 db bf 86 38 75 f0 d5 90 d8 3f
       -0.42495624382233477 0.3838400696012133
000180 0b b4 53 cf 37 77 de 3f d2 ca 1c 8d 19 ea c7 bf
       0.47602648970388434 -0.1868316592241031
000190 41 c5 8c 30 ff b3 e3 3f d6 6d 9d 6a d4 cf c0 bf
       0.6157222698440493 -0.131342460687718
0001a0 38 98 ae 33 e6 37 c0 bf d3 12 17 e3 51 4a d8 bf
       -0.12670590899978307 -0.3795361249615727
0001b0 f5 3d e1 a1 12 ae b2 bf 5f f4 77 f9 5c 94 a2 3f
       -0.07296863987107101 0.03628817124624883
0001c0 a5 ca f5 4a 1e d5 df bf 2c cb 17 aa 42 69 e2 3f
       -0.49738271065067813 0.5753491708877383
0001d0 78 15 56 3b 76 1d cd bf 59 8f 5c 55 70 47 c8 bf
       -0.22746160409239358 -0.18968013923687968
0001e0 c3 8e eb c5 64 4b d4 3f 3f 50 3b 78 a8 d2 ce 3f
       0.31710166290416114 0.24080377455413957
0001f0 1c 6d 5f 92 93 c8 e5 bf 45 59 65 50 91 4f e2 bf
       -0.6807344302027647 -0.5722128458244603
000200 18 4b 24 35 bf 92 d3 bf 32 c4 7d 7c c1 ae 9e 3f
       -0.30583172025323924 0.029963515494675082
000210 d6 57 78 e6 40 a1 ae 3f 7c 3b c2 74 d4 a5 59 3f
       0.05982401669841379 0.0015654158369533258
000220 e6 f6 cd 7d 79 9e c5 bf 1a 2a ea 4b 4a 05 d3 3f
       -0.1688987602500937 0.29719788945718195
000230 88 9e 02 8f 79 76 c3 3f 21 c2 c1 a3 6c 78 e0 bf
       0.15205306513711414 -0.5147002409340226
000240 bf 07 ae c3 e9 75 99 bf 6b d2 c1 bf ef da aa 3f
       -0.02486386544070007 0.052451603086329644
000250 78 ac b1 b2 d3 92 d5 bf af a7 66 f3 91 b6 9f 3f
       -0.3370866055544819 0.030969887238519508
000260 2a 96 61 e1 e3 b4 bd 3f c7 33 42 bc f6 44 cc bf
       0.11604141476126331 -0.2208546084624727
000270 db d0 f8 8b 78 d8 d1 3f 4e 7f 85 fe b2 a3 dc 3f
       0.2788373343385168 0.4474914060174243
000280 cd 27 d1 0a 0a 12 d4 3f c2 24 cc 99 7c a2 c0 bf
       0.31360102707241994 -0.12995870122566627
000290 e5 ff a5 ed d5 c4 aa 3f f0 cf aa e8 8f a6 b3 3f
       0.052282986888712725 0.07676028662064005
0002a0 bb b2 af 69 ad 47 a3 3f 3a 85 3e 3f 9e 80 b8 3f
       0.03765623011699889 0.09571255725906705
0002b0 30 8e 85 a8 52 db ba bf 08 c4 f0 39 9e 37 9e bf
       -0.10490910162257516 -0.029509041105658468
0002c0 fe 78 d8 d9 52 35 c9 3f 5b 58 a2 88 7e 39 91 bf
       0.19693980824462892 -0.016820885743605945
0002d0 85 50 4d 88 6f 56 de 3f e5 46 c9 13 26 a3 b9 bf
       0.47402561484091904 -0.1001457022005315
0002e0 ed cd 77 fa 37 22 b6 bf 98 79 7c b8 10 66 c1 bf
       -0.08645963540021002 -0.13592728622547834
0002f0 c9 40 35 8f 51 18 e0 bf dd 39 6f d0 19 b7 de 3f
       -0.5029685780555379 0.479925588177961
000300 c1 c8 b4 87 b4 fd c8 3f bf 2c 39 a8 64 41 c0 3f
       0.19524246813086246 0.12699564184217668
000310 39 98 08 6b 92 e1 cd 3f 70 d4 6f bb 39 24 d4 3f
       0.23344640947579068 0.3147110300481648
000320 44 89 f3 b9 8b c1 b6 bf 88 20 8b 64 d8 23 bc 3f
       -0.08889077462985023 0.10992195563005869
000330 af 89 75 a1 6e 6e c3 3f db 95 90 68 73 7c 9a bf
       0.1518076218008679 -0.025865367180946435
000340 ae 54 85 44 a1 bb 8e bf 2e 97 1a 30 5f ac d7 bf
       -0.015006313232030468 -0.36989574144023407
000350 4b 50 45 52 10 20 b1 bf 57 c3 4b 25 8a 25 9d 3f
       -0.06689550407946958 0.028463514829982852
000360 5d 3a 21 db 1c 3d da 3f a7 36 31 52 1c 64 cb 3f
       0.4099800243319914 0.2139926339463518
000370 3d 0f 8e 3b cb 44 c0 bf 76 13 53 c4 10 b5 c6 bf
       -0.12709942253069953 -0.17740068040998452
000380 07 45 d3 b9 cc 93 cf 3f 3c 35 6f f2 e1 64 b7 bf
       0.24669798921107874 -0.09138309639748327
000390 42 3d 30 5c 0a e9 d5 3f 85 94 28 a7 2d 1b 84 3f
       0.3423486614492114 0.009817463554165915
0003a0 98 3e f4 f3 04 ec 9c 3f cf 47 7a 7d 06 ef 72 bf
       0.02824409235932865 -0.00462248358930313
0003b0 44 7d cf c4 8b 5a db 3f 76 f0 d6 6a f3 f5 b8 3f
       0.4274014875390615 0.0975029121245273
0003c0 bf 08 cd ce a8 4a 87 3f 31 0e 6d 29 e2 0b ee 3f
       0.011372870265067168 0.9389506157971877
0003d0 bc e9 f4 21 2e 62 cf bf 2b dd 52 8c 97 ee d4 bf
       -0.24518372209588601 -0.32706249907956203
0003e0 68 b4 68 30 d1 2a d1 3f ac 47 ae a1 72 94 c4 bf
       0.26823835112992933 -0.16078026670998946
0003f0 e6 76 b6 0d 86 34 d9 bf 54 9e b9 aa bd 46 e1 3f
       -0.39383078898559487 0.5398853620981279
000400 ba 00 94 7a aa a4 d8 3f f7 ce c0 3d 95 5f c0 3f
       0.38505041094323256 0.12791696086207313
000410 63 76 fc 14 1f 11 df bf fd 82 e3 05 c5 47 d5 bf
       -0.4854200081771067 -0.3325054700381285
000420 59 53 8e 73 9e 36 d3 bf ae d9 a1 95 55 21 ce 3f
       -0.30020867619287156 0.23539228254567263
000430 a8 5d 00 58 53 e9 e0 3f 45 7e a4 dd 03 e1 c8 bf
       0.5284821242120659 -0.1943669159163496
000440 5f 9e 92 79 13 45 d1 3f f9 26 84 bc 36 0e d3 3f
       0.26984106895767995 0.29774254236018255
000450 aa 95 1a 64 1c ce 99 bf b2 b1 67 7a 6f 91 b2 3f
       -0.025200313196042913 0.07253166902928035
000460 6a 88 0e 78 ed f1 9e bf 3a 3d f1 3b 14 26 e0 3f
       -0.030219755604442268 0.5046483202694738
000470 cb 56 a3 e0 a7 70 d3 3f 82 ad 44 ed 9a 10 b6 3f
       0.3037509626131906 0.08619087498362002
000480 e7 60 50 bb 24 dd e4 3f 22 5b 95 59 54 68 c0 bf
       0.651995054099669 -0.1281838834208538
000490 35 85 34 18 96 3a c9 bf 05 2f 7f 4b 1d 49 bb bf
       -0.19710041219608745 -0.10658438771423213
0004a0 8b 99 66 60 84 be c2 bf f0 7f 78 18 de b7 c9 bf
       -0.1464391203600822 -0.20092369265421395
0004b0 27 76 19 36 c4 d7 c3 3f aa 04 d7 11 63 d8 c7 bf
       0.15502216950965073 -0.18629110690202327
0004c0 4f 12 38 80 e8 89 98 bf 35 ed 63 39 8a 65 c6 bf
       -0.02396357805811738 -0.1749737529970418
0004d0 2a 23 46 db c6 df e4 bf 78 b0 54 e6 89 94 c3 bf
       -0.6523165018744284 -0.15297054049131353
0004e0 71 c4 f2 58 83 9c d0 bf b4 fd 8a c1 43 6e c6 bf
       -0.25955280004843134 -0.17524001074160156
0004f0 ea 66 4a 5e 21 6b d6 3f 22 f5 e3 9e d5 c9 d2 3f
       0.3502887173468553 0.29356899754187016
000500 74 7c 5e d1 c9 25 bc 3f e9 59 69 8b db 74 93 bf
       0.10995160447645153 -0.019000463851932912
000510 ad de 52 66 f8 2d a9 bf 31 2c 1d 8d 40 55 d9 3f
       -0.04917885064190606 0.3958283784929249
000520 3d 19 3e b6 38 e8 be 3f 49 38 c3 b2 cd 7f bd bf
       0.1207309193542629 -0.11523137678452246
000530 a0 32 49 19 86 e3 db bf e7 e3 37 a9 0d db 91 bf
       -0.43576195210770585 -0.01743718476607006
000540 87 2a 46 1e a1 5a c0 3f f9 c2 29 a6 d2 38 c6 3f
       0.12776578882433773 0.1736090957015433
000550 d2 6c 4c d0 38 a5 b2 bf d7 eb 37 68 85 06 bf 3f
       -0.072833586553702 0.12119325441737715
000560 af c6 0a a8 af 77 8c bf 38 a0 7e dc e9 fa bc 3f
       -0.013900158229577768 0.11320363648576481
000570 ef ff 81 27 25 b2 ad 3f 28 b4 23 73 5f 0a be 3f
       0.057999764511805434 0.11734577713987504
000580 06 13 e6 61 47 ba e1 bf be d0 95 7b d1 4a e5 bf
       -0.5539891159138228 -0.6653830922864683
000590 6a 31 b5 04 d8 49 d6 bf d8 0b 16 2d 52 57 c3 3f
       -0.3482570692038026 0.15110232545347801
0005a0 68 1b e3 b1 c1 08 7f bf 5a 49 59 4d f4 3c cc bf
       -0.00757671033915739 -0.22061017777248076
0005b0 68 02 7b d4 eb 1e c8 bf a5 4a 3b 67 e6 2d b3 3f
       -0.18844364047074014 0.07491912861159251
0005c0 5d 0a 0e e6 f1 30 d0 3f aa 24 0b 6b 7c 30 d6 bf
       0.2529873606328346 -0.34670935109586287
0005d0 29 94 f3 32 98 f4 d0 bf a2 64 b7 51 8f 72 b1 3f
       -0.2649288652012865 0.06815429444340507
0005e0 a1 37 cd 5f 8a fd ba 3f c4 2d 8d c3 22 38 c3 bf
       0.1054312213793467 -0.15015062855159844
0005f0 b3 06 43 a9 2d 93 bd 3f 90 ba 60 2c 9e e8 a6 bf
       0.11552701361054112 -0.044743483464448564
000600 4f b5 fc 16 01 aa a5 3f 1a 80 d0 a6 1c e7 cf bf
       0.04231265454869037 -0.24924047608601613
000610 0e a2 da e1 e7 ae d4 bf 8a 9d 71 bf 1d 13 d3 bf
       -0.32317540222223406 -0.29804176040348607
000620 17 21 b2 b3 99 f1 c8 bf 1e 75 a7 8b bb 5a 9f 3f
       -0.19487305902681193 0.03061955489998979
000630 8d e0 f2 81 3e 69 b9 3f cd 99 8d b5 72 ff 8e 3f
       0.09926214859558709 0.015135666051446695
000640 46 4c b3 55 a3 cc ac 3f 10 6c 4c ab b3 f6 cd bf
       0.056248764239761814 -0.23409124244867074
000650 71 e4 9a cd c8 9d d0 3f 76 c1 93 10 f1 a7 d9 3f
       0.2596303947316932 0.4008753454100068
000660 03 2b 13 e0 1f 20 c7 bf 5c 57 f5 20 08 ff a7 bf
       -0.18066786233097085 -0.04686761286090643
000670 5d f5 73 cf b4 ac c4 bf 66 36 1d 14 13 ee a1 3f
       -0.1615205777124328 0.03501948948415361
000680 fb dd 63 ef e5 8e d3 3f 80 c2 2e 41 b2 d1 d5 bf
       0.305596812991524 -0.34092384686940846
000690 94 54 a0 b9 41 1e b0 bf 3b 9c 56 6b 28 ed db 3f
       -0.06296168119327411 0.4363499687410159
0006a0 82 9f d0 f1 1d 43 d0 3f a4 21 ce 6b aa 62 ca bf
       0.25409649481525076 -0.20613603843618222
0006b0 e6 15 2a f0 1b d9 e8 3f 29 de f8 38 7f 3a cd 3f
       0.7765025797568199 0.22834768564074295
0006c0 08 6a 33 bc e7 06 da bf a4 e2 9b e6 c5 dd c1 3f
       -0.4066714609049602 0.13958047638131632
0006d0 9a 51 c7 c8 7b 85 e3 bf 16 49 29 36 54 07 c4 bf
       -0.6100443765122237 -0.15647366184800465
0006e0 2e ca d2 96 41 c4 de 3f 52 b7 c9 c4 2a 01 da bf
       0.4807285282978765 -0.40632123200963577
0006f0 ad 75 ea ab 85 16 d1 3f 12 07 d0 4f 10 f3 d8 3f
       0.2669996432176401 0.3898354319972991
000700 8f 59 ee d6 6e 77 cf 3f 75 f7 86 4d f6 b9 d8 3f
       0.2458323049037969 0.38635022707955297
000710 e0 44 83 42 ea 87 b4 3f ae 53 9a 6b bc b8 d1 bf
       0.08019889949652592 -0.2769003916558245
000720 de f0 56 45 92 57 c8 bf 3f 88 65 0c 80 97 85 3f
       -0.1901724661419228 0.010542869928659935
000730 94 62 aa 4a 56 92 de bf 4c c8 e6 3f 44 26 df bf
       -0.47768170634803053 -0.4867106079137826
000740 d4 ff ad 74 fd f3 b2 bf 54 d5 27 93 e8 b8 83 bf
       -0.0740354928839218 -0.009630028715927587
000750 02 c9 2d 06 4c 2e d4 3f 39 5c 41 25 dd 1c be 3f
       0.3153257427540127 0.11762792739442397
000760 8a bb c3 8b c6 c4 d3 3f aa 88 34 b0 73 fa c9 bf
       0.30888522766957094 -0.2029556856514934
000770 fa bf 6d b3 8a 56 c5 bf 83 f3 50 38 6a 10 d9 bf
       -0.16670354615371236 -0.39162688731794776
000780 9f 7c 75 bc 3e 73 a3 bf 89 9a 82 52 59 70 d1 3f
       -0.0379886250545891 0.2724822335971245
000790 3c fc 35 ba ea 4c 74 3f 2f 38 68 d9 bd 80 dc 3f
       0.004956166175701656 0.4453577635875971
0007a0 93 63 ac 1e 79 04 b1 3f 6d 24 e0 1a f3 92 c5 3f
       0.06647450445997398 0.16854704677851676
0007b0 cc 77 ad ad ef 80 b5 bf 57 1d 35 5d 14 a1 c7 bf
       -0.08399866094757086 -0.18460325766703065
0007c0 f6 8e 4a 78 6d e4 8d bf 7b 49 6a c0 90 b5 bb bf
       -0.014595847352502283 -0.10823921868931123
0007d0 1a 8f c1 54 7a 02 d8 3f 2c c0 b9 9f f7 58 df 3f
       0.37515123631441016 0.48980513189508446
0007e0 c9 95 a0 1f b7 cb da 3f 63 4e 77 4a 64 17 c1 3f
       0.4186837967739306 0.13352635990178205
0007f0 7a ef 82 17 49 0a a9 3f bd 77 00 a7 3e 66 bd 3f
       0.048906597251941755 0.11484138085549396

layers.1.bias f8 [20]
000000 95 48 77 f7 03 09 87 bf 10 e1 79 68 ad 7e 7c bf
       -0.011247664441644193 -0.006956746459416033
000010 77 b1 8d cb 81 af a2 3f 52 f9 65 db c0 e2 b7 3f
       0.03649526223930171 0.09330373150257756
000020 2b 3d 00 44 db 95 a1 3f 5a dc e1 92 6a 3d b1 bf
       0.034346439410109696 -0.06734338842385182
000030 45 c9 76 0d f7 56 a0 bf f7 90 21 d6 62 97 a4 bf
       -0.03191349067073416 -0.04021748412995579
000040 39 c2 ec f7 08 68 57 3f cb ab 40 f6 cf bf ab 3f
       0.001428612478502468 0.05419778710378117
000050 36 5c ab 4f 1a b7 9c bf 09 31 37 03 7b ad b4 bf
       -0.028042231667168425 -0.08077210262780822
000060 31 0d 30 25 b1 92 97 3f 8c 3c 1f c6 f0 6e a4 bf
       0.023020522970921668 -0.03990890902024899
000070 3d 2e 5d bd 2c c7 92 3f f4 23 01 60 da 43 5e bf
       0.018337916429386637 -0.001847232109883243
000080 d1 97 b6 cb 08 31 a6 bf 45 80 ea 8a 33 10 a3 bf
       -0.04334285246595438 -0.03723298140289492
000090 49 89 64 1a 12 89 a6 3f a3 e1 fc ff 17 18 a6 3f
       0.0440145165651012 0.04315257072306913

layers.2.weight f8 [20, 20]
000000 39 1d 01 21 11 e3 b4 bf b5 50 76 ef eb 2e b4 bf
       -0.08158976608057324 -0.07884096714252815
000010 84 fc c9 ae e3 9e b2 bf 7e 5e 77 b6 22 a4 8b 3f
       -0.07273695962247656 0.013496657555989385
000020 9e 21 05 74 38 9e dc 3f bf 56 52 25 3f a1 92 bf
       0.44715701418001597 -0.01819323220532598
000030 42 4c bf 9f b7 b9 c6 bf 73 16 f0 9d 11 a9 87 bf
       -0.1775426416412263 -0.011552941925411652
000040 70 c0 97 85 e8 27 c8 bf df 8c 34 5d 2e 38 9e 3f
       -0.18871790431103674 0.02951118892555093
000050 c9 15 63 79 45 9c e1 bf bc aa 5f 15 dc 50 e2 3f
       -0.550326096614918 0.5723705689864214
000060 19 41 db 47 53 20 9c bf 5b 4a ca c3 cf 5f b2 3f
       -0.027467061291475667 0.07177446870836361
000070 db 53 e1 16 a5 93 c2 bf ef 24 b1 dd 3e 7a b8 bf
       -0.14513076417156764 -0.0956153193702851
000080 ef 12 a4 8f 8f e4 cd bf 82 91 c4 0c e2 87 c8 bf
       -0.23353762162891864 -0.19164682029180474
000090 71 c6 d7 ba 93 a2 d3 3f 0a 50 26 33 8b 3c dd bf
       0.3067979168546123 -0.45682029719432704
0000a0 41 4e 83 93 45 21 ba bf d1 2b a4 fc 09 35 ae bf
       -0.10207018710507844 -0.05899840554237524
0000b0 9f b9 80 a0 6f 76 b4 3f 57 b9 8d ea 25 cb c3 3f
       0.07993219059492283 0.15463708832562403
0000c0 92 56 52 60 2d 1c da 3f f1 80 ba 6a 3e fd b9 3f
       0.40796980291757123 0.10152044397046091
0000d0 ff ec 1a 04 66 4e cc bf fd 54 e7 a3 7b 46 dc 3f
       -0.221142532352907 0.44180193906989
0000e0 83 c2 ae a7 83 10 d0 3f 93 84 33 d3 3a c6 a7 bf
       0.25100795150050476 -0.046434248238946506
0000f0 d3 a8 43 b9 4a 9c 84 3f 50 60 e9 52 3a 69 c4 bf
       0.010063728121583548 -0.15946129845065338
000100 d1 55 5c 59 e2 b9 b3 bf 62 b3 d6 2b 36 6a af 3f
       -0.07705511743218742 0.061357205249214855
000110 5b 54 8d 73 68 e6 ad 3f 17 f1 1d 0c ca 17 dd bf
       0.05839849863574705 -0.4545769804315269
000120 33 23 4f b5 71 de bf bf 65 1d 9b f3 1b 3e e0 bf
       -0.12448797871105625 -0.5075816877296516
000130 91 e2 6f b9 2a 1f da 3f bb 17 33 9e b2 b7 b4 bf
       0.4081522761257839 -0.08092800485891775
000140 6c fc 39 1b d9 bb af bf 50 aa c8 89 20 05 b1 3f
       -0.06198004205088456 0.0664844833742475
000150 4a 6d 33 bc be 14 cf bf e9 f7 e5 5f 59 49 c4 bf
       -0.24282058896538167 -0.1584884374860274
000160 67 be a5 f5 29 54 ce 3f d0 5f 67 2b 21 e8 c5 bf
       0.23694347853187311 -0.17114653224302723
000170 4f 75 a7 31 f8 b1 be bf 5c 22 8e 5b 33 5d c9 bf
       -0.11990309917697071 -0.19815675707310987
000180 49 8a 31 ca de 3f d2 bf 52 ab 7d 2d 3f cf d8 3f
       -0.28514833207569673 0.3876493400809312
000190 5f 0d ef c9 86 b0 e4 3f c8 bb 6b b9 ff 7f c7 3f
       0.6465486473102081 0.18359371713401473
0001a0 e2 50 8a a5 eb 18 99 3f 80 80 e6 b1 1c 2a d3 3f
       0.02450912664296901 0.29944531796537177
0001b0 49 9d c8 12 01 3a d8 bf 84 15 58 e5 c5 fb 8c bf
       -0.37854029497471636 -0.014152093946004703
0001c0 31 02 1e c0 87 95 b1 3f e5 33 7a 62 5d db e3 3f
       0.06868790092813339 0.6205279277215793
0001d0 4c 0f 26 e2 93 a7 e7 bf 87 0d ef 3b c0 ac d1 3f
       -0.7392062584844807 0.2761688790598886
0001e0 96 97 d3 84 20 96 c4 3f 9f e9 88 4f 84 18 b0 3f
       0.1608315132681894 0.06287409726875247
0001f0 28 ad f3 e5 6e e3 d1 3f 40 7a a8 ee 5e df c9 3f
       0.2795064206718103 0.202129236728938
000200 6e a9 47 e6 86 67 e2 3f 77 55 d8 09 44 09 ca bf
       0.575137567296492 -0.20340776901927501
000210 b2 59 98 31 3e 49 9c bf a7 ae bc 61 b1 66 de bf
       -0.027623149659200492 -0.4750178770507127
000220 4b 0a b9 24 23 36 d3 bf 12 25 83 59 e4 42 b2 bf
       -0.3001792772885536 -0.07133319077833658
000230 ff f8 f2 e7 b0 32 9c 3f 3d e9 3d 6c 29 d7 89 3f
       0.02753712096886662 0.012617419830111326
000240 48 cd 13 6e dd 27 92 bf a0 19 de cd eb 52 b4 3f
       -0.017730197757328342 0.07939027572692803
000250 dc fa cd 43 58 cf ce bf 3a b5 6e 87 99 26 d9 bf
       -0.240702660663337 -0.39298094011140317
000260 76 1e 42 4f d1 99 d0 3f 5d e9 3e 6d c7 13 b6 bf
       0.2593882822043051 -0.0862393037522557
000270 6f ef 36 57 9f a2 d3 bf bc 3b 5f 1b 4d 1d bf 3f
       -0.30680068509149455 0.1215408508135018
000280 dc d5 b2 6a 0a 0a d6 bf c4 0a 06 a3 f3 3c e1 3f
       -0.3443628351190833 0.5386903938345644
000290 b6 17 c3 17 8d 2a c8 bf 24 f8 00 15 31 b3 b7 bf
       -0.18879855785615768 -0.09257799876010658
0002a0 62 e0 ac 4a 5b 35 b9 bf 20 59 6e d3 fc 8a c3 3f
       -0.09847040722968495 0.15267906497747052
0002b0 16 58 55 73 aa 6f d8 bf 8e ed 87 b7 07 03 c8 bf
       -0.3818155409147733 -0.18759247266266893
0002c0 1a 49 59 51 39 2b 96 bf da 14 0d 82 24 5a d1 3f
       -0.021649261083731643 0.2711268682508724
0002d0 17 87 47 54 34 e3 b8 bf d3 3f 46 c1 d7 f5 a2 bf
       -0.09721686418154395 -0.037031881659572406
0002e0 37 ea 8d 55 59 13 c7 3f 9b 90 36 71 ca 05 dc bf
       0.18027798345049614 -0.43785344177218527
0002f0 1b 10 00 66 bd 81 a3 bf b3 c2 e5 2d a0 41 aa bf
       -0.03809921140785396 -0.05128193435928576
000300 72 a1 4a 49 dc 3b d9 3f 0f f5 e4 2a b1 1f d4 bf
       0.394278594564205 -0.31443432988074077
000310 57 79 b6 aa 01 b8 bb 3f 08 af c1 1e f5 1f 8d bf
       0.10827646653931332 -0.014221110344997637
000320 29 a0 0e 81 45 36 c4 bf f8 1a fc 85 43 05 c8 3f
       -0.15790623475663892 0.18766063730455307
000330 45 33 77 af 14 c6 d9 3f e5 02 a0 f6 1f da b8 3f
       0.40271489272418065 0.09707832118148081
000340 59 e6 91 ef 84 65 cb bf 60 7c 84 06 ae f0 d0 bf
       -0.21403562257528355 -0.2646899284026798
000350 5b 10 66 07 0f aa ae 3f 6b ab 2e fc 0e 74 a5 3f
       0.05989119496646885 0.041901081356022406
000360 a4 22 00 83 cb b9 ca bf b7 47 12 c4 f6 58 b1 bf
       -0.20879501244077858 -0.06776373183154659
000370 44 a7 82 fb 0e 0a 20 3f 80 2f 08 7b 88 80 bb 3f
       0.00012237007991205463 0.10743000987730333
000380 91 33 57 99 fb b9 ad bf 63 af c0 81 d1 6e d8 3f
       -0.05805956122239942 0.3817638175121287
000390 8f c7 aa b3 84 01 d8 3f 64 07 c0 e1 3a e1 d3 3f
       0.37509267373672456 0.31062194868001414
0003a0 7f 5a 51 87 ec c7 89 3f d7 e8 53 d1 ce 2c d3 bf
       0.012588355903216495 -0.2996098560539741
0003b0 c2 0e e4 c3 ce 27 b6 3f f1 a4 02 4e 50 94 e2 3f
       0.08654491693965397 0.5806046985282177
0003c0 ee a1 21 f0 23 bb c9 3f 8e ef 73 07 91 97 d3 bf
       0.20102357125439546 -0.3061258862287496
0003d0 8c e0 32 7d 5e 4b da 3f fb 32 44 82 a3 af b9 bf
       0.4108501646655973 -0.10033628397304632
0003e0 a5 ec e6 42 f9 a2 a6 bf 5c c8 f5 25 29 b6 e6 bf
       -0.04421214048076053 -0.709736417904661
0003f0 be 56 29 22 4f 09 c0 bf a7 5f d1 8f 93 64 c2 bf
       -0.12528409164467819 -0.14369434854847649
000400 6c 7e 98 4a 74 1b dc 3f d2 5d ed 31 87 e6 c2 3f
       0.43917567524656564 0.14766015947200956
000410 2e e1 15 b4 76 6d a0 bf 32 1c f9 1b fb cf c3 bf
       -0.03208514164265562 -0.1547845732295357
000420 66 55 61 19 fd 98 e3 bf f7 04 c2 cf 34 29 d2 3f
       -0.6124253745753492 0.28376503266197467
000430 e8 94 78 5a cc 64 b3 3f f3 b2 c5 ed 5b 4d cc 3f
       0.0757568093182105 0.22111081228231164
000440 8a bc 5f 8c 56 a5 a9 3f 65 d6 de bc b2 dc c0 3f
       0.05008955443906256 0.13173517439070107
000450 14 a1 b3 28 c9 cd cf 3f 45 b7 6c 5c 7b c7 bf bf
       0.24846758353601983 -0.12413760191404062
000460 fb 53 6f 32 67 ec cb 3f ca 51 2d 89 3b 16 d1 bf
       0.21815195047989264 -0.26698196788973105
000470 05 a2 82 f6 9d 4b c0 bf 2f 6e 49 b6 4c 16 cc bf
       -0.127307649008131 -0.21943053150867928
000480 f2 a0 c0 5d a1 21 d0 3f be 47 3a dc c8 65 24 3f
       0.2520526328612639 0.00015562130839846632
000490 96 4e db c4 1d 49 aa bf 84 a1 61 46 88 89 d0 bf
       -0.05133908298526284 -0.25839430688076725
0004a0 3b ef 64 16 26 0c d1 bf 98 1a 0c 76 e3 26 b3 bf
       -0.26636650263730005 -0.07481214172376338
0004b0 1f 32 cf 8b 4e 35 d0 bf be ac 17 56 90 12 e0 3f
       -0.25325359013803167 0.5022660905355207
0004c0 de f2 77 e5 e4 50 d7 3f 37 ce d7 1d da 38 df 3f
       0.36431238564527557 0.48784497179369474
0004d0 c8 4b d6 0f c2 60 c3 bf eb 3f a7 12 0c 3e b3 3f
       -0.15139032147689435 0.07516551452067659
0004e0 5d 35 e0 2c 15 f6 ce bf ef 50 15 f1 f0 1c c7 bf
       -0.24188484851076 -0.18057071468013627
0004f0 c7 51 3c 09 26 12 9f bf 5b 9d d2 26 a6 50 75 3f
       -0.030342668832490618 0.005203866033446881
000500 e5 42 d8 21 f8 b0 bd 3f 47 cd 13 a8 a2 57 ce bf
       0.11598158670700405 -0.23704941946889788
000510 80 fe 3f 16 23 82 d8 3f 71 e0 97 f8 8c 7e c9 bf
       0.3829429356846745 -0.1991745199045485
000520 71 2f 8b 3e b9 5f d2 3f b3 cf 51 52 8c a9 a3 3f
       0.28709250552923665 0.0384029245841754
000530 5d 53 d7 97 83 91 c1 bf b1 66 08 f0 0a 42 bd bf
       -0.1372532359515856 -0.11428898201156802
000540 cb 5c 01 dc 57 09 ba 3f d8 c9 e9 5c 6b da dc 3f
       0.10170506592963872 0.45083126138265817
000550 60 08 87 7c 33 5d a9 3f 4e dc 75 24 c3 df 91 bf
       0.0495391931067537 -0.017455147838941358
000560 4c 79 84 f9 bc 72 d1 bf 08 24 65 9d de 4e be bf
       -0.2726280628866291 -0.11839095442441316
000570 29 ba b4 3f 0e 4b c0 3f 3c 9a c4 b9 6a 72 ca 3f
       0.12729051695483065 0.20661672659589836
000580 24 ab 6b 12 86 17 d0 bf f5 42 5f 00 1e 91 c4 3f
       -0.25143577383885174 0.16067862528009128
000590 61 3a d0 be 90 58 b2 3f 23 e6 3c 21 ee b6 ae bf
       0.07166390093355225 -0.05998939662681504
0005a0 ca 9b 0b e8 1d 41 d7 3f 17 3b 8a f7 2f 93 d3 3f
       0.3633494154041129 0.3058586041815245
0005b0 a3 52 41 fc 6c 73 ea 3f 92 65 d4 15 13 3a d2 bf
       0.8265900542124495 -0.2847945893459719
0005c0 e8 8c 17 fe 38 26 e5 3f 66 d7 d6 19 f1 3c 9d 3f
       0.6609158480390791 0.02855278701982602
0005d0 b3 30 be f9 8f 1c d3 bf 2d 20 9d 7f 99 1c ba 3f
       -0.29861831082304063 0.10199889531679736
0005e0 f7 df 98 af a8 0f af 3f 73 01 d2 b4 d5 1e b0 3f
       0.06066634315033064 0.06297050156172705
0005f0 6e 72 42 a9 81 a8 bb bf 4a c4 04 d3 c2 fb 80 3f
       -0.10803995497048799 0.008292696060921884
000600 b3 01 b6 30 b6 96 c4 bf 09 3b c0 c6 af 34 b0 3f
       -0.16084935549225818 0.06330393411938585
000610 0c 0f 80 47 85 da a7 bf b2 74 1f 15 5f 60 b9 3f
       -0.0465890550404123 0.0991267611093061
000620 a7 75 c4 41 bf 8d ba 3f 19 a1 67 28 92 92 d2 bf
       0.10372538905763538 -0.29019597955495297
000630 7e 65 a2 7d d7 dc eb 3f 67 eb 6a cc d5 79 d1 3f
       0.870708222751247 0.2730612274423749
000640 02 31 1b 42 11 aa b5 bf 5a 77 fa e8 4e 82 c5 bf
       -0.08462627281113913 -0.168039191969849
000650 68 59 37 17 be 77 c1 3f 9d ee de da 51 6b c6 3f
       0.13646675237277894 0.17515013873150034
000660 d9 67 fe 8c eb 68 c7 3f d5 80 2f 8c 55 be aa bf
       0.18288940796338585 -0.05223338447808749
000670 c8 86 e6 5f f2 e5 c1 bf 51 5f 5b 99 bb e6 e4 bf
       -0.13982991869584382 -0.653165626073113
000680 82 3b ec dd e5 c7 c0 bf 01 c1 cf bd 58 33 c3 3f
       -0.13110040031503095 0.15000447528974095
000690 88 be ff 18 9c a2 d5 bf e7 95 2e e2 d7 45 e0 3f
       -0.33804991189297384 0.5085257928482719
0006a0 0b d8 c2 2a 45 8b b8 bf fd fc b4 d5 c5 d8 ab 3f
       -0.09587509435627355 0.054388220155027846
0006b0 9e 6a a2 d1 df b1 e0 bf bf 43 30 38 e0 e2 ba 3f
       -0.5217131704733509 0.10502435085096716
0006c0 70 e3 2c fb bf fe 94 bf e9 6a 5c 74 c3 27 c3 3f
       -0.02050304384758611 0.1496509855431534
0006d0 30 eb 7c 21 ab a1 9f 3f 15 25 0a 00 8d 4c d1 bf
       0.030890153807585807 -0.2702972889315601
0006e0 ae d4 77 7c a3 b7 8a 3f 52 ea 9c cc 41 6a d4 3f
       0.013045575366940145 0.3189854143308014
0006f0 3e 75 14 a4 93 a2 9c 3f b6 b9 1e 6f 7c 98 d1 bf
       0.02796393097843474 -0.27493201114239285
000700 89 ed 00 06 6c cd a6 bf eb b8 29 e8 ed 5d b8 3f
       -0.044535995228638 0.09518324773827984
000710 80 92 35 4e ac fc 83 3f 02 3b b8 3f 3c 5c d2 bf
       0.009759279381520658 -0.28687959883329495
000720 1d b8 89 f2 25 6f d2 3f a5 06 ef 4b d5 15 be 3f
       0.2880339497122593 0.11752064803934077
000730 fc b0 6c 38 36 4a c1 bf dd a0 fc b4 fe 8f c1 3f
       -0.13507726435762624 0.13720687710998095
000740 4a a5 89 db f8 e3 c2 3f 14 63 e9 e8 cf b7 cf bf
       0.1475821563683815 -0.2477970015777592
000750 3a 2b 31 05 d2 e2 cc 3f c2 3d bd 15 5e fb ae bf
       0.22567200902479972 -0.060511531976426905
000760 3c 51 70 16 83 9b df 3f 33 b0 42 22 e3 a5 d1 bf
       0.493866702950317 -0.27574995370628413
000770 45 b8 65 7a 07 2b d8 3f a9 c6 4b 71 10 40 9a bf
       0.3776262946402123 -0.025635010638274256
000780 cc 39 b4 3f e0 b0 c8 3f c9 dd 65 47 87 40 d4 3f
       0.19289782629534924 0.3164385030026691
000790 f7 f1 97 f9 ba 41 b6 bf d0 cb cd 9e 60 64 d0 3f
       -0.08694046586601432 0.25612655170624254
0007a0 2b ef 0b 94 60 c5 c7 bf 6b 5c 35 2a 87 fc d0 3f
       -0.18571097592200067 0.26541308519285306
0007b0 99 34 c4 e5 54 20 b0 bf e2 c6 0a 57 a2 e0 c1 3f
       -0.06299334153682636 0.13966778993704226
0007c0 27 e3 a4 34 6d 84 d2 3f bf a3 1a dc 5b 47 d6 3f
       0.2893326772787525 0.3481053971723291
0007d0 b0 d5 3a 7b af f0 de 3f 14 6a 70 13 64 22 b0 3f
       0.4834402755180589 0.06302476381862504
0007e0 c9 53 09 92 7c ce c0 3f 2f c5 c1 c6 b0 d0 de bf
       0.13130147104916848 -0.4814874592767237
0007f0 b1 3f 2f 56 f3 d1 c9 3f 18 d7 46 a7 f4 79 c5 3f
       0.2017196818183016 0.16778429191406796

layers.2.bias f8 [20]
000000 3a c9 a7 32 00 c0 88 3f d2 29 0c 0d 36 c0 a3 3f
       0.012084962411766587 0.038575829594339375
000010 3e 3d c2 12 c5 74 7f 3f 04 ef f2 59 41 ff 85 3f
       0.007679719750867618 0.010740767056965257
000020 2c f7 9b 2f c9 8f 93 bf 8c 5c 3c 19 87 6a a4 3f
       -0.019103187113606854 0.03987524207166712
000030 ee 11 05 92 0a 86 93 bf d7 59 a8 8d e5 81 b6 3f
       -0.019066014444676975 0.0879195662349511
000040 b3 80 65 d7 07 ef 72 bf 15 2d 1a b2 b3 37 94 3f
       -0.004622488623084719 0.019743736024378473
000050 bd c0 90 f1 8b 1d 9d bf c3 45 9e d4 ca 83 9d bf
       -0.028433024043068345 -0.028823060252369147
000060 a2 fe 1c 35 87 7a 97 3f e8 d5 20 4b 7c b0 b2 bf
       0.02292834531476607 -0.0730054553431142
000070 91 3b a6 cd f0 08 a6 3f 6f f6 15 c3 5f 07 c2 bf
       0.04303696165435789 -0.14085003877328314
000080 70 9b 85 6b 6a 4e b6 bf 50 47 b6 bc 51 dd ab bf
       -0.08713402867361508 -0.05442290714849085
000090 d8 6f 74 b3 c1 33 a4 bf 08 56 53 c4 f5 55 b1 3f
       -0.03945737186060655 0.06771789591888233
