main/discrete_time_identification (KdV)/KdV_clean.pt (torch, 66320 bytes, 14 tensors)

linear_in.weight f4 [50, 1]
00000000: ffb7 30be e3ef d4be 80b5 6bbf cba3 d7be
00000010: ba20 af3e 38dd 0b3e eddd 893f aba7 e1bc
00000020: 1a90 23bf d7b9 5bbf 95cb 853e 3d63 813f
00000030: c9f6 133f 4286 6cbb b665 233f e73a 6cbf
00000040: 1589 32bf 05ba 0cbf ef3f b3be a738 293f
00000050: b1c2 79be a75e a2be 2d8a 733e 8f27 cc3e
00000060: d1b1 0dbf 07f0 013d ec7f 23bd 1684 f9be
00000070: b804 29be 2ca4 923e dbc5 5f3f 0ff0 e4bc
00000080: 6eb4 b13e c878 31be 1028 6d3f c654 14be
00000090: 82cc 313f 37c9 963f abba 2d3f dab8 2fbf
000000a0: 1f39 78bf 1351 8abe 3a19 5bbf 791e d63d
000000b0: 86ec 14bd 2580 0b3f e720 ac3e d68a 873e
000000c0: 2d97 ac3e ab73 2dbf
-0.17257689 -0.4158927 -0.9207382 -0.42117152 0.34204656 0.13658607 1.0770851 -0.02754577
-0.63891757 -0.85830444 0.26131883 1.010841 0.5779844 -0.0036090766 0.63827074 -0.9227738
-0.6974042 -0.54971343 -0.35009715 0.6610207 -0.24390675 -0.3171284 0.23783179 0.3987393
-0.5534945 0.03172305 -0.039916918 -0.48733586 -0.16505706 0.28640878 0.8741128 -0.0279465
0.3470797 -0.1733123 0.92639256 -0.14485464 0.6945268 1.1780156 0.6786296 -0.68641436
-0.9696216 -0.2701498 -0.8558537 0.10455031 -0.03635838 0.5449241 0.33618852 0.2647311
0.33709088 -0.6775462

linear_in.bias f4 [50]
00000000: 3942 a7bd 3373 943e 2b95 523e 66f1 91be
00000010: f3c8 96be 4fb9 dc3d 422d 263e 1189 06bf
00000020: ef99 a03e 720f 13be 6897 b1be 6a50 9cbe
00000030: 4b74 93bd 4dcf d8be b272 603e 633c 293e
00000040: 23af 83be c8d6 2cbf 0768 7c3e 13c2 a9bd
00000050: f595 3cbe b67f 13bd 4e05 66bf 382e b0bd
00000060: c3eb 9cbe bd6c 29be 295a 1dbf 4a98 29be
00000070: d389 c5be 8bf6 633e 2f88 09bd 0c71 703e
00000080: 6156 94be 2ffe dcbd 09b0 a1be 3fa9 c2bd
00000090: fd43 b73c a29e e2be d1a4 893e 0675 bb3e
000000a0: 86c0 6ebd 138e bbbd 24b5 dc3e cf74 72bf
000000b0: b828 82bf b662 843d 6473 a63d 48e2 9cbe
000000c0: 618b 3b3e 8f86 a63d
-0.08166928 0.2899414 0.20564716 -0.28504485 -0.29450187 0.10777532 0.16228202 -0.52552897
0.31367442 -0.1436136 -0.34685826 -0.305301 -0.071999155 -0.42345658 0.21918753 0.16526942
-0.25719556 -0.6751523 0.24649058 -0.0828897 -0.18416579 -0.036010467 -0.89851844 -0.086025655
-0.30648622 -0.16545387 -0.614657 -0.16562 -0.38581714 0.22262017 -0.03357714 0.23480624
-0.28972152 -0.10790669 -0.31579617 -0.095049374 0.022371287 -0.44261652 0.26883557 0.3661272
-0.058289073 -0.09157958 0.4310695 -0.94709486 -1.0168676 0.0646414 0.08127478 -0.3064139
0.18314888 0.08131134

linear_out.weight f4 [50, 50]
00000000: 3df9 ebbd ff1a 8abd 2382 803c 024c 5ebe
00000010: 98ee e2bc 8f07 14be f7a1 fd3d fa55 70bc
00000020: c5c8 6e3e afb3 523d eb8d 4e3e 743d c23d
00000030: e6ff 053e fa84 443e 1991 d53b ca50 e73b
00000040: 73af 80be 6512 3bbd 905a 813d df7c 363e
00000050: 5d3b 9d3d b8de 4dbd 8516 43be 2143 a4bd
00000060: c3ed 17be decf adbe 6eae 44be 4dac 873d
00000070: 582b 0d3d 5ef5 29bd 06d9 3b3e 74de 9ebd
00000080: dae9 213e 467d ca3e 8aaf 79be 931f a9be
00000090: fc71 ccbe c714 75bd 2b09 423e 2ba8 453e
000000a0: b5f6 0abe 195e 2abe b3ac 7f3c a9ef 28be
000000b0: 164e bebc 2f8b 3d3d 09d5 213e 26ce d33d
000000c0: a6d4 13be eb77 3a3d 9a30 da3b 12c9 75bd
000000d0: dc5b b43b 2916 a63c 194b 51bd cc5c 27be
000000e0: ff5d 603e 6138 b4bc fd5e 4f3e 0ace 37bd
000000f0: d4b6 473d 58e3 40be d370 0b3d 6821 473e
00000100: 51fc 963e cc6d 8c3b 556d fd3d ddb7 01be
00000110: 342a dbbd 66fc 7cbd d530 b9bb 10eb e4bd
00000120: dafc 8e3d 55bb 28be 0c2d 02be d9bf 1bbe
00000130: 18e9 453d af32 2a3c 2e7c a8bd 6ffe 3e3e
00000140: b962 e13d b513 bc3c e4e0 a2bd 2980 093f
00000150: 8514 56be cfa2 64be 4d4e d9be f811 ce3d
00000160: e550 c6bd afc3 90bc d36f f6bd 4bca 20be
00000170: 1057 67be 992c b6be 47e5 14be b532 afbd
00000180: 02b1 863c cca6 a1bd 0af2 19bd 158a 8c3d
00000190: e7ba 193c 4d05 963d f5ac 343e 1f48 26be
000001a0: a02a c03c c492 8f3d ea09 733d e0fe c9bc
000001b0: 490b a83c 34a8 793b 9670 943e e285 e63b
000001c0: 89d5 563e e7f3 ae3e 5590 6a3e 0ae1 a03d
000001d0: f9b4 593d 2fb0 9bbd 626e 323e ab43 a73d
000001e0: 948f c9bd caaa 36bc b796 943c 7eb7 49ba
000001f0: ccd8 23be 7778 95be bef4 5cbe b824 2a3e
00000200: f637 003e e0f2 3c3d dab3 febd 1d2f 43be
00000210: 155e 1cbe 5d62 733c cd10 bebe f628 05bf
00000220: d74b 9cbe ed22 f53d 2ea7 94bc 4a7f 8c3a
00000230: 0e31 f4bc a21f 08be bc0f afbd 4bac 2ebe
00000240: 8140 33be 926e 01be 9ce7 36bc 4c59 f3bc
00000250: 4d84 90bd f5ba a9bd b88d 0abe cf79 9e3c
00000260: 10f2 5b3e 83ed 633c 3531 de3c ba7f a13d
00000270: 9ce8 1c3e 7c7a 1ebd b85c 103e 2045 cc3c
00000280: 2fa1 9a3d 1b88 fdbc 6021 503e 713f a73e
00000290: 81fd 333e 3d85 bebd a1fd 9abd 9ed9 303e
000002a0: db1c 31be fa10 f43d 55c6 d4bd d57f ae3d
000002b0: 3b5c 2c3d 62a8 cebd 4bc0 aabe 1c4c 21be
000002c0: dc70 31be 8190 0e3e 595f 443d 0061 d63d
000002d0: 4348 cf3d f01d 833d 3f15 46be 92b6 943b
000002e0: 6695 50bd 07b3 b4be a323 dabe b0fa 383d
000002f0: 31bd 22bd e0e6 5abd b01c 92bd 0c5f 9d3c
00000300: 6928 c8bc 5b39 c7bd 3011 53be 1d74 d4bd
00000310: 4cff cdbd 2409 783d 3976 e53c 7f12 433e
00000320: f7f4 cd3c 7268 eb3d 4917 433d 8dbd 65bc
00000330: 7092 36be d3f9 b2bb 56a5 483e 260e c6bd
00000340: 622d ee3d a964 cc3d beb1 513e d1dd b03d
00000350: d688 a63d f602 823e 72ce 593e 7e2e 08bd
00000360: 5b67 bd3b 07f0 08be 7a87 b8bd 8327 1fbd
00000370: efb8 82bd 0030 5d3d 53d6 023e 1dc5 4bbe
00000380: f480 9cbe e93d 1ebe 31f5 ebbd 8cc5 05bc
00000390: 6f9c 313d f71c 683e 3e44 e93d fd30 c83d
000003a0: 15fa 483e 7ee9 7c3e 9b50 58be 5415 b7bd
000003b0: 715e edbe bf82 443e 2eb6 1d3e 9e7d ac3d
000003c0: b6ba 3c3b 5357 12be 428b ba3b 72ec b7bd
000003d0: 78b4 ecbd bb41 f4bc a344 76bc 1ccc 543d
000003e0: 54cb 8d3d 72b5 12bd a5a5 43be edad 3cbe
000003f0: 9cfd 753e 442f d9bc abd7 bbbd 26e1 a53d
-0.11522148 -0.0674343 0.015687054 -0.21708682 -0.027701661 -0.14456008 0.12384408 -0.014668936
0.23318775 0.05144089 0.20171325 0.094843775 0.13085899 0.19191352 0.006517541 0.0070591914
-0.25133857 -0.04567184 0.063161016 0.17821072 0.07677338 -0.05026123 -0.1905156 -0.08020616
-0.14836793 -0.33947653 -0.19207165 0.06624661 0.034465164 -0.041493766 0.18344507 -0.07757273
0.15811864 0.395487 -0.24383369 -0.33031902 -0.39930713 -0.059834268 0.1894881 0.19302432
-0.13570674 -0.16637458 0.01560514 -0.16497673 -0.023230594 0.046275314 0.15803923 0.10342054
-0.14436588 0.04552452 0.006658626 -0.06000621 0.0055041146 0.020274239 -0.05109701 -0.16343993
0.21910857 -0.02199954 0.20251079 -0.04487423 0.048758343 -0.18836725 0.034043144 0.19446337
0.29489377 0.0042855497 0.12374369 -0.12667795 -0.10701409 -0.061764143 -0.005651573 -0.11177647
0.06981821 -0.16477711 -0.12712497 -0.15209903 0.048318 0.0103880605 -0.082268104 0.18651746
0.11005158 0.022958616 -0.07953051 0.5371118 -0.20906265 -0.22327732 -0.4244255 0.10062021
-0.09683398 -0.017671434 -0.120330475 -0.15702169 -0.22591805 -0.355809 -0.14540587 -0.085545935
0.016441826 -0.07893142 -0.037584342 0.068622746 0.00938294 0.0732523 0.17644103 -0.1623845
0.023457825 0.07010415 0.059335627 -0.024657667 0.020513194 0.0038094642 0.28992146 0.007035003
0.20979895 0.34170458 0.22906621 0.07855423 0.053151105 -0.07601964 0.1742492 0.081672035
-0.098418385 -0.011149118 0.018138273 -0.0007694884 -0.1600067 -0.2919347 -0.21577737 0.1661557
0.12521347 0.04613006 -0.12436648 -0.19060941 -0.15270264 0.014854995 -0.37122193 -0.52015626
-0.3052661 0.11969552 -0.018146124 0.0010719087 -0.029808547 -0.13293317 -0.08547923 -0.17057912
-0.17505075 -0.12639835 -0.011163618 -0.029705666 -0.07056484 -0.08287612 -0.13530624 0.019345192
0.21479058 0.013911608 0.027123073 0.0788569 0.15323108 -0.03869103 0.1409787 0.024935305
0.075502746 -0.03094869 0.20325232 0.3266559 0.17577173 -0.09302757 -0.07567907 0.17270514
-0.17296164 0.119173005 -0.10389391 0.08520476 0.042080145 -0.1009071 -0.33349833 -0.1575169
-0.17328209 0.13922311 0.047942493 0.1046772 0.10121205 0.064021945 -0.19344042 0.0045383656
-0.050923727 -0.35292837 -0.42605314 0.04516095 -0.03973121 -0.053442836 -0.07134378 0.019210361
-0.024433332 -0.097277366 -0.20612025 -0.10373709 -0.1005846 0.060555592 0.028010475 0.19050024
0.025141222 0.11494531 0.04762963 -0.014022243 -0.17829299 -0.0054619103 0.1959432 -0.09670667
0.1162975 0.09980137 0.2047796 0.08636058 0.08131568 0.25392884 0.21270159 -0.033247463
0.005780143 -0.13372813 -0.09010215 -0.03885604 -0.063829295 0.054000854 0.1277707 -0.19899411
-0.30567133 -0.15453304 -0.11521376 -0.008164775 0.043362077 0.22667299 0.11389969 0.09774969
0.19626649 0.24698445 -0.21124499 -0.08939615 -0.46361116 0.191905 0.15401527 0.08422397
0.0028797812 -0.14291124 0.0056928704 -0.08980645 -0.11557859 -0.029816499 -0.015031013 0.051952466
0.069235474 -0.03581757 -0.19106157 -0.18425722 0.24022526 -0.026511796 -0.09171995 0.08099584

linear_out.bias f4 [50]
00000000: da7d b7be 0631 c5be 2448 04bf 292c e5be
00000010: 33c7 e7be a639 afbe a8aa adbe 1f46 fcbe
00000020: b50e cbbe 3cd2 edbe b22a d9be 2ce2 8fbe
00000030: 9f66 d4be c5ae 84be c0ed debe d234 adbe
00000040: 0aa8 bdbe f8f6 d2be 42f7 96be 06c2 87be
00000050: 72eb 9fbe 901f 62be 57ec c5be c469 57be
00000060: b1dc c6be 66b8 70be 9be2 90be 187c f2bd
00000070: b526 c8be 95c2 45be 1e5f 88be 5ae2 a0be
00000080: dd73 9abe 2033 37be b5e3 93be 3fa8 6dbe
00000090: e1e9 07be af4d 9abe f0a8 a9be c34c 51be
000000a0: ee37 b1be e78b b2be c8ea 8dbe 700e bebe
000000b0: 5c13 e8be b593 d7be df80 d9be 561c 92be
000000c0: fb2c e5be 8235 cabe
-0.35838205 -0.38513964 -0.5167258 -0.44760254 -0.45269164 -0.3422367 -0.33919263 -0.49272248
-0.39659658 -0.4644946 -0.42415386 -0.28102243 -0.41484544 -0.2591459 -0.43540764 -0.3382936
-0.37042266 -0.41204047 -0.29485518 -0.26515216 -0.31234318 -0.22082353 -0.38656875 -0.2103644
-0.3884025 -0.23507842 -0.28297886 -0.11840075 -0.3909203 -0.19312508 -0.2663507 -0.31422693
-0.30166522 -0.17890596 -0.28884664 -0.23208712 -0.13272811 -0.30137393 -0.33136702 -0.20439439
-0.34612983 -0.34872362 -0.27718186 -0.3712039 -0.4532727 -0.4210488 -0.42481133 -0.28537244
-0.4476088 -0.39493948

layers.0.weight f4 [50, 50]
00000000: 805e a93d 099a 4abd be51 06be c270 e7bd
00000010: 9d59 b23c 2f72 34bd b2c9 c2be 1775 6e3e
00000020: 71c0 c8bd 7726 bd3d d5c8 0c3e d217 573c
00000030: 6cce 5e3d 5de4 8abe 5403 99be 30ef 6a3e
00000040: 69ac 25bd e8cf 3b3e 45ee 36bd 9260 0ebc
00000050: 6be5 3f3e 7804 43bd 2a03 883e 3d57 f3b6
00000060: 5499 adbb fc88 803d 3661 b83e b99b 3b3e
00000070: aa8f 5d3e 2505 e5bc 278a a2bd 7c0f 68bd
00000080: 7c68 803d 6bb9 0bba f28c 59be 6d70 853d
00000090: 6157 5dbe bd39 733d c65b debb b612 ca3d
000000a0: 7db1 5fbc a37d 4b3e 816e cd3d 7b23 733c
000000b0: 266a 523e be0c 1c3e 6443 38be 4bed 123e
000000c0: 383e 55bd da84 1a3e 0def 1f3d e055 89be
000000d0: cb83 893d 2421 413d 0108 203e 84ed 65be
000000e0: f370 84bd 88be 9a3c a7bf 07be 0ddd d53d
000000f0: 8f72 573c c989 0bbe a35d 8c3e f1e4 1abe
00000100: 82f3 98bd e385 083e 8b27 163c 39a3 b33d
00000110: 4d47 8e3e 9e93 91be 9822 013e d970 743e
00000120: 8000 f43c bdd7 823e 6040 413e 6907 5e3c
00000130: 65bb 03be ca57 68be f5bb f43d 1a92 a13d
00000140: fb2c 9438 006a 10bd 2934 01be 796f 513c
00000150: 67a8 27be a0a3 c03d b227 d2bd 652f 24be
00000160: d5af 673e a07b 5c3e c9a0 583b bf88 fdbd
00000170: 436d 71bc e3cc 6bbe 410a 833c 09f1 b93d
00000180: 1514 27bd 386c f0bb ba82 2d3c 0be7 253e
00000190: 1d00 3cbe 29cd 43bd 23bb 12be 9037 61be
000001a0: 3cd1 8dbd 2992 34bd a150 873d a127 58bd
000001b0: 31cb c2be b4d9 c6bd c932 85be 8cdf 073e
000001c0: 6b16 fd3d 56b3 6cbe 2e1f f9be 5a96 2d3e
000001d0: 7933 20be 61bf e3bd 46ce 20be 48f9 9b3e
000001e0: 789c b3bc 65d3 90bd 64f1 5b3e 9799 9a3d
000001f0: eee2 2ebe e9fe 213e 663b 2c3e 2663 35be
00000200: 74d8 15be 1af3 6b3d 9db0 a13e f321 0ebc
00000210: b00f 8dbc c2c0 a3bb 28d2 9438 7bef 2f3e
00000220: 9c5f e83d ff25 51bd 17c7 b93e 865c b3bd
00000230: dae0 953d 350a adbd c19d a7bc 7f98 f3bd
00000240: db87 89bd 597b fd3d c3e9 993d b1fe f3bd
00000250: ff9a 083d ef0c 19be 6d6c a13e 5d97 fc3d
00000260: 8fea 093e d2e9 fb3d fe73 87bd 8a83 203e
00000270: 371c ebbe a915 eabc 46e8 3abd c080 953e
00000280: 7516 91bd 58d1 223e 47d5 643c 368d 4d3e
00000290: 68d3 4dbe 9403 91be e411 963e b41f 023e
000002a0: 148b 98bd dcba 57be 65cb 0abc 5f12 a2bd
000002b0: 882c f93d a14d 95be 388f 9d3d 5086 67bc
000002c0: 30b1 c83c ae1c 4a3e a4c6 30bd ad8a c03c
000002d0: cd35 7ebe ccd4 003e bf9b f93d a1b9 7bbd
000002e0: 8a95 7b3d 662f b1bd 2888 3c3d 38f3 e1be
000002f0: 846f a3bc aafc bc3b c487 573e fb0e 27bd
00000300: 296a 5b3e 6e19 103e 1912 853e 796c 3b3e
00000310: 64bf 71bd c7da cebd 8115 79be 299c 8cbd
00000320: b4dc 673e 0198 9c3d 4239 71be b17d 73bd
00000330: 8299 3bbe 652f dcbe 2641 953e e141 7abe
00000340: 6da1 d6bc 2d8e 7dbe a675 a2be 5b33 fe3d
00000350: f837 473d ed8c 1bbe 460d 933e 5f23 7abd
00000360: 1aed 1cbe 124e 85bd 3976 38be f312 23bc
00000370: 5720 ccbd dfc0 1c3c c2e5 a33d 6ef2 1d3d
00000380: 61e3 d6bd 9d1e 153d 612c 593e 1f5e 3fbc
00000390: 58fb eabd bdc4 083e 43a6 963d c34f b1bd
000003a0: 672c adbd 214d e9bd 6640 be3d e399 803e
000003b0: e106 9cbd f0a0 ff3d dada 843d 539a 0c3e
000003c0: bdc1 95bd d18b 083e 0dce 11be 9282 e53d
000003d0: e9f5 2dbc 091b 193e 6c61 353e 5d3b 753e
000003e0: f767 0cbd e582 8dbd 8786 57bc 8939 9fbd
000003f0: 78f4 153d e61f bbbd bae8 bf3d edcb 2cbd
0.082699776 -0.049463306 -0.1311712 -0.11300804 0.021771247 -0.044054206 -0.38044506 0.23286854
-0.0980233 0.09235852 0.13748486 0.013128238 0.054396078 -0.27127352 -0.29885352 0.22942805
-0.040447626 0.18341029 -0.044660825 -0.008690016 0.1873986 -0.047611684 0.26564914 -7.25212e-06
-0.005297819 0.06276128 0.36011666 0.18321122 0.21636835 -0.027956555 -0.07936507 -0.056655392
0.06269929 -0.00053300586 -0.21245173 0.06515584 -0.21615364 0.059381235 -0.0067858426 0.0986685
-0.013653156 0.19872145 0.100308426 0.014840002 0.20548305 0.15239236 -0.17994457 0.14348333
-0.05206129 0.15089741 0.039046336 -0.2682333 0.06714591 0.047150746 0.15628053 -0.22453886
-0.06466856 0.01888968 -0.13256703 0.10442553 0.0131498715 -0.1362678 0.2741519 -0.15126397
-0.074683204 0.13332324 0.009164701 0.087713666 0.27788773 -0.28432935 0.12610853 0.23871173
0.029785395 0.2555522 0.18872213 0.013551571 -0.12864454 -0.22689739 0.119499125 0.07889195
7.065568e-05 -0.03525734 -0.12617554 0.012782925 -0.16372834 0.09406209 -0.102614775 -0.16033705
0.22625668 0.21531534 0.003305482 -0.12379598 -0.014735523 -0.23027377 0.0159961 0.09079177
-0.040790636 -0.0073371194 0.01059025 0.16201417 -0.18359418 -0.047803078 -0.143292 -0.21993852
-0.06924674 -0.0440847 0.066071756 -0.052772168 -0.38045648 -0.09709492 -0.26015308 0.1326887
0.123577915 -0.23115286 -0.486566 0.16951886 -0.15644635 -0.11120487 -0.15703687 0.30463624
-0.021925196 -0.0707157 0.21478802 0.07548826 -0.17078754 0.15819897 0.16819534 -0.17713603
-0.14633352 0.057604887 0.31580058 -0.008675086 -0.017219394 -0.0049973438 7.0963346e-05 0.17181198
0.11346361 -0.051061627 0.36284706 -0.08757882 0.07318278 -0.084492125 -0.020460965 -0.11894321
-0.067153655 0.12377042 0.0751529 -0.11913813 0.03335094 -0.1494634 0.31528035 0.12333558
0.13468383 0.12300457 -0.06613921 0.15675178 -0.45919964 -0.028574781 -0.04563167 0.2919979
-0.070843615 0.15900171 0.013966865 0.20073399 -0.20100176 -0.28323042 0.29310524 0.12707406
-0.07448402 -0.21067375 -0.008471345 -0.0791366 0.12166697 -0.2916079 0.076933324 -0.014131144
0.024498552 0.19737503 -0.04315819 0.023503626 -0.24825211 0.12581176 0.12187909 -0.061456326
0.06142191 -0.08651619 0.046028286 -0.44130874 -0.019950636 0.0057674246 0.21047884 -0.04078577
0.21427216 0.140722 0.2599037 0.18303098 -0.059020415 -0.10100322 -0.2432461 -0.06865723
0.22642785 0.0764618 -0.23556998 -0.05944604 -0.18320277 -0.4300491 0.29151267 -0.24439193
-0.02620002 -0.24761267 -0.31730384 0.12412139 0.04863736 -0.15190478 0.28721064 -0.06106889
-0.15324822 -0.06509031 -0.18013848 -0.009953248 -0.09967106 0.009567468 0.08002807 0.038561277
-0.10492588 0.03640615 0.21208335 -0.011680155 -0.11473721 0.133563 0.07355931 -0.086577915
-0.08455735 -0.11391664 0.09289627 0.25117406 -0.076184995 0.12481868 0.06487055 0.13730745
-0.07312343 0.13334586 -0.14238758 0.11206545 -0.010617712 0.1495172 0.17712945 0.23948427
-0.034278836 -0.06909732 -0.013154632 -0.07774646 0.036610097 -0.091369435 0.09370561 -0.042186666

layers.0.bias f4 [50]
00000000: 006a 19be 28ac c73d a753 933e dd70 213c
00000010: a06c d4bd 0969 c6bd 0b41 26be aa88 3ebd
00000020: 680e 123f 2b35 6e3c dcf6 d23e 4ddc b5bd
00000030: 3396 583e 99aa c13c f1ed 16be d578 cebf
00000040: b4cb 00bf 6fbc 0f3e a7b8 7abd d73d 0f3e
00000050: 1f98 723f 711f 8abe 21bd ca3e f348 df3d
00000060: b330 d5be 4be0 85be ba9b 223e 211f 9f3d
00000070: 66e5 03be 9b9a f5be 932a a13e c7e4 8c3e
00000080: 6077 70bf 8215 56be 5307 553e 89de dabe
00000090: f65e bfbe 0f53 73be 58b9 033f fba4 01be
000000a0: 07ae 10bf 6031 05bf 175c c0be 6681 9fbd
000000b0: 0f26 fc3d b70a 96bb 7845 743e 1a01 123d
000000c0: f2cc ee3e e7e8 4abf
-0.14981842 0.09749633 0.2877476 0.009853569 -0.10372281 -0.096880026 -0.1623575 -0.04651705
0.5705323 0.014539043 0.41203964 -0.0887991 0.21151046 0.023640918 -0.14739205 -1.6130625
-0.50310826 0.14036725 -0.061211254 0.13988434 0.9476337 -0.26977113 0.3959742 0.10902586
-0.41638717 -0.26147684 0.15879717 0.07769609 -0.12880477 -0.47969517 0.31477794 0.27518293
-0.9393215 -0.20906642 0.20803575 -0.42747906 -0.37377137 -0.23762153 0.5145469 -0.12660591
-0.56515545 -0.52028465 -0.3757026 -0.07788353 0.123119466 -0.004578914 0.23854625 0.03564558
0.46640736 -0.7926163

layers.1.weight f4 [50, 50]
00000000: 1cf4 5b3d d128 f83d 648a c1be 5462 40be
00000010: ed83 8e3e e2ce 753e 4d72 19be 69b1 0c3c
00000020: 7535 06be 7505 283e dbac aa3e 8f87 bbbd
00000030: 72ac 97bd 3184 dcbc 0c75 43bd ab15 193d
00000040: 6825 c13e 3124 48bb 756e 6dbd 3370 c13c
00000050: 849c c4be fbfd 503e 16db b4bd e0ab 65be
00000060: 12ba ce3d 0758 c4bd d65a 803e 47cb 1bbd
00000070: 02bd 5e3e 6990 123e 4621 c9be c03d a2be
00000080: b0d9 013e 00be 6d3d 11c2 02be ecc3 9cbd
00000090: 41c7 1e3b 8e23 84be 7ce4 1bbe c48b c33d
000000a0: 4767 1e3d 5fd0 4e3e 205c 913e 596b c1bd
000000b0: 466a 86be ca28 713d f933 88be a111 703d
000000c0: 458e 39be e028 3e3d 7649 2dbb b8cd ff3d
000000d0: 5600 1e3e 866a 3f3d 0e8e c13d 8b6c bbbd
000000e0: 4862 153b 9d85 68bd b518 a13d 9b42 12be
000000f0: fe2d 433e 2cb5 1dbe c714 1cbe 8577 303e
00000100: aeb1 d1bd 5af4 7fbe e1fd e2be 367d 403e
00000110: a92c bf3a 4022 5abe 98a7 3ebe d749 763e
00000120: d020 9dbe d3fc cbbd f596 adbd 50a3 803c
00000130: 1525 a63c 84da 3dbe 010b d23c fb4c dbbd
00000140: 1b3d a6bc 5e93 4fbd 08a7 463e 3a7f b13d
00000150: 0618 6ebe 652c 34bd 435d 18bd 0452 acbd
00000160: 7b4c 2b3e dd15 1dbd c24e 0bbe 0af9 c03d
00000170: 40b5 b43c c7f5 763d ef4f a9bc bdf8 363e
00000180: 410f bc3e 25b0 41be ddc3 59bd 0a3f 833c
00000190: 9812 adbe 0cd5 ecbc 14be 083e 5174 fabd
000001a0: 54ab 1a3e 600c b23d 2939 adbe 02c5 093e
000001b0: 8c61 753d 9fa7 1f3e 5484 953e a586 9fbd
000001c0: 28f7 5a3b 1827 373e 8026 283e dd95 1e3e
000001d0: a91c 2c3e 0146 b43c 1e52 473e 834d 7bbd
000001e0: 0a87 283e f2a4 50be a701 97bd 3ff6 a13e
000001f0: 29c0 873c 64f9 8cbc a43a 7bbd 9f34 4bbc
00000200: 2b71 cb3d 3f56 67be 02bd 38be a2fd 19bd
00000210: e4ee de3d 879b dd3d 874d 1bbe 09c7 083d
00000220: c5a8 af3e c678 d63c b2c4 28be b01b 753e
00000230: 8f68 553d 1a06 043e 520a e13c 8bcb a43c
00000240: 770e 333e 821b f73d 1f95 1a3e 9227 c83c
00000250: 5a4f 61be c79e e23d 5666 503e eac9 463e
00000260: ea6f 2b3c 808d 283f 5032 8cbd 1351 9d3c
00000270: af2b c63d 8290 a03d 0104 d73d 5311 62be
00000280: b8d6 b3be 668b 27be c997 173e 23e2 6cbd
00000290: 74f8 15bd 33ba bf3e 4f7c b73e 97a1 aabe
000002a0: 708a b83d 5b55 8dbe e392 eebd c64e 07be
000002b0: 8a61 a73e 3971 34bd d973 9d3d 96ad 1b3c
000002c0: 541e 1e3e 206f ac3e 98de a7be 7e0f 96be
000002d0: a28e c3be d5ef 303e dd72 0fbe be38 8fbe
000002e0: bf34 3b3c b796 7fbe 4a4c 23bd c8f4 f03d
000002f0: 2007 4e3e 5575 2c3c 9c8f 97be da84 48be
00000300: 238b 04be 3ca4 453d 8229 123f ab39 9cbe
00000310: e35e 4abd 8a27 e4bd 680f 73be 468f d43d
00000320: 4423 3ebe 5a62 a33b 09e5 c33d 50a9 15be
00000330: f68d 2c3e 4e1f 21bd 5d13 37bd fb6f 95be
00000340: 997f 6fbe f300 4c3e f8b6 133e d09d e03d
00000350: 524d d3bd 105c 723d f92f 28be 95c8 87bf
00000360: 080f 32bb 4da5 a03d 2363 9cbe 88d4 6f3e
00000370: 8eaa eb3d 9c3b 03bd 9a00 4a3d 7df1 cfbd
00000380: 05e7 a2bd d7a1 3dbe 816e d63c cbce e83c
00000390: 1b60 da3d 58c3 4fbd 23f3 4b3e d232 163c
000003a0: d022 853e 8c00 39be d77a 44bd e056 f63d
000003b0: 7130 493c be44 eabd def7 623a 5c33 f3bd
000003c0: b34e 0a3e 99c8 08be 9628 41bd 0db8 8ebd
000003d0: 1d28 49be 9dbf 8f3d 9f20 1dbe cffb cebd
000003e0: 10c7 5f3e f682 9fbd de57 053e 5aaa a83d
000003f0: 2ce8 963d b3ee 6cbc 95c5 41be 643b 323e
0.053699598 0.1211716 -0.37800896 -0.18787509 0.27835026 0.24004701 -0.14985009 0.00858722
-0.1310633 0.16408332 0.33335003 -0.09156715 -0.07405938 -0.026918503 -0.047719046 0.03737418
0.3772385 -0.003053915 -0.05796667 0.023613071 -0.38400662 0.20409386 -0.0883085 -0.22428846
0.10094084 -0.095871024 0.25069302 -0.038035657 0.21751788 0.143129 -0.39283198 -0.31687737
0.12680697 0.058042526 -0.12769343 -0.07654557 0.0024227651 -0.25808376 -0.15223879 0.095481426
0.03867271 0.20196675 0.28390598 -0.09444303 -0.26252955 0.05887679 -0.26602152 0.058610562
-0.18120678 0.0464257 -0.0026441491 0.124904096 0.15429816 0.046732448 0.09450923 -0.09151562
0.0022794176 -0.05676805 0.078660406 -0.1428322 0.19060513 -0.15401143 -0.15242301 0.17233093
-0.10238968 -0.24995556 -0.4433432 0.18797764 0.0014585453 -0.21302128 -0.1861862 0.24051605
-0.30689096 -0.09960332 -0.084760584 0.015702873 0.020281354 -0.18540388 0.025640013 -0.10708042
-0.02029281 -0.05067765 0.19399655 0.08666845 -0.23251352 -0.04398765 -0.037198316 -0.08414081
0.16728394 -0.03835093 -0.13604262 0.094225004 0.022059083 0.060292985 -0.020667998 0.17868324
0.36730388 -0.1891485 -0.053165305 0.01602127 -0.33803248 -0.028910182 0.13353759 -0.12229217
0.15104419 0.086937666 -0.33832672 0.13454059 0.05990748 0.15591286 0.2920252 -0.07789353
0.0033411477 0.17886007 0.16420937 0.15486856 0.16807808 0.022006037 0.19464919 -0.061353218
0.16457763 -0.20375422 -0.07373362 0.31633183 0.016571121 -0.017208762 -0.06133522 -0.012402683
0.099336945 -0.22591494 -0.18040851 -0.0375954 0.108854085 0.1082068 -0.15166293 0.03339294
0.34308448 0.026180636 -0.16481283 0.23936343 0.052101668 0.12892953 0.027470741 0.020116588
0.17485987 0.120657936 0.15095948 0.024432931 -0.22002926 0.110654406 0.20351538 0.19412962
0.010463694 0.6584091 -0.06845534 0.019203698 0.09676301 0.07840063 0.104988106 -0.22076921
-0.35124755 -0.1636177 0.14803995 -0.05783285 -0.036613896 0.37446746 0.35837027 -0.33326408
0.0901078 -0.27604184 -0.1164911 -0.13213643 0.32691604 -0.04405329 0.07688112 0.009501835
0.15441257 0.33678532 -0.32787013 -0.29308695 -0.38194758 0.17278989 -0.1400866 -0.27972978
0.01142615 -0.24959837 -0.039867677 0.11765438 0.20119905 0.010526021 -0.29601753 -0.19581929
-0.12943701 0.04825233 0.57094586 -0.30512747 -0.049406897 -0.11140354 -0.23736346 0.1037889
-0.1856814 0.0049860897 0.09565169 -0.14615369 0.16851029 -0.039336495 -0.0446962 -0.29186997
-0.23388518 0.19922237 0.14425266 0.109676 -0.10317482 0.05916983 -0.1642455 -1.0608088
-0.0027169604 0.078440286 -0.30544385 0.23420918 0.1150714 -0.03203927 0.04931698 -0.10153482
-0.0795422 -0.18518768 0.02617574 0.02841892 0.10662862 -0.050723404 0.19916968 0.00916739
0.26003122 -0.18066615 -0.04796871 0.12028289 0.012279616 -0.11438893 0.0008658151 -0.118750304
0.13506584 -0.13357772 -0.047157846 -0.06968699 -0.19644208 0.07018969 -0.15344475 -0.101066224
0.2185328 -0.07788651 0.130218 0.08235617 0.07368502 -0.014461207 -0.18923028 0.17405468

layers.1.bias f4 [50]
00000000: a91e 59bd 62cd fe3d 1665 b4be b024 b73d
00000010: e8ae 943e f711 31be bff9 7fbb 1b3a b9bd
00000020: b1b9 43be 60fb e23e 63fb 393e 622e 043e
00000030: 04d1 24be 114f 883c c603 ba3e 55e6 ed3d
00000040: 7957 98be 4540 3f3e 5369 e3be f2fa 17bd
00000050: adb2 a13d b673 77bd 3eed 2b3c 4409 993e
00000060: 068c f43e 2bdd cabd eaeb cfbe 1ddf 903e
00000070: e78f 49bc 50ae 2f3d b524 253e 6ff6 993b
00000080: c018 8b3e b38c 143d c171 93bd 2187 9abe
00000090: 5a91 a23e fd7f f0be 00a1 f5bd 266d f13d
000000a0: 5405 0cbe fa1d f53d aea4 dbbd fa58 703e
000000b0: 2840 ad3d 5a91 553e 3206 c2bd a77d 8c3f
000000c0: 8cd6 5f3e 1059 66be
-0.053007755 0.124415174 -0.35233372 0.089425445 0.29039693 -0.1729201 -0.0039058772 -0.09044286
-0.19113804 0.4433241 0.18162303 0.12908319 -0.16095358 0.016639264 0.36331004 0.11616198
-0.29754236 0.1867686 -0.44416294 -0.037104554 0.07895408 -0.060413085 0.010493575 0.29889882
0.4776308 -0.09905466 -0.40609676 0.28295222 -0.012302375 0.042890847 0.16127284 0.0046985666
0.2716732 0.036266994 -0.07199431 -0.3018122 0.3175152 -0.46972647 -0.11993599 0.117883965
-0.13673908 0.11968608 -0.107247695 0.23471442 0.084595025 0.20856228 -0.09473838 1.0975846
0.21859187 -0.22494912

layers.2.weight f4 [50, 50]
00000000: 8606 b8bc fd99 54be 98d4 0a3e e21e 9bbe
00000010: 064f 16bc 9692 51bd 24f8 55be 528b 9ebe
00000020: 0e0e b039 0d15 d63d 284c 23be bb6e a1bd
00000030: 1bb8 0abe 2c25 6ebe 4d9f 443e 2323 26be
00000040: e0df 15bd 9570 dabc d25d a53b 6b1a 67bd
00000050: 8f56 0fbe bf2b d63d b05c fbbd ad92 1b3d
00000060: 9edd febd 9ad3 aa3e b438 a43d b319 553e
00000070: 311e ebbc 3012 a7be ec66 fa3d 8fe9 6cbe
00000080: 45da 14be 7b73 88bc 7298 e63d 51cb 3e3d
00000090: 70a1 cabd 9e4b c13d 466d 30be 6661 0abe
000000a0: 687e 50be 88e8 d6bc 6460 9cbd 7f29 c1bd
000000b0: 77c3 65be cef0 3d3e 5910 47bd 5a26 1b3e
000000c0: ceac 423e 9297 ca3a 24b3 6a3e 7930 94bc
000000d0: ddca 85bd 692b e33d 8029 d03e 94fd 023d
000000e0: b26d a93d 44d2 1f3e 33ef 7fbd e9fd 823e
000000f0: 6822 26bb a040 61bd 8e6f 1d3e 6ced ae3d
00000100: db4c 25bb a988 21be c03f 603d d80b 073d
00000110: b2df 89bd a662 1e3e f093 bdbd 9048 133e
00000120: 56cb 933e 8cd6 8e3e 055c 953c 0256 913e
00000130: 5cea bc3d 539e ddbd a3ae e73e d2c1 5cbd
00000140: 9d54 d53d 18a3 e7bd 4893 233e 4225 7d3c
00000150: 114a 423d fb46 3c3e 2baf e7bd 78dc b63d
00000160: c972 aa3e 0779 16be 4784 ed3d 76c9 64be
00000170: ea5a df3c d06f 84be d085 4a3e 910b b03e
00000180: 8bbb 48bd 5d62 143e 1401 283e eb2d 99be
00000190: 7d83 dc3d 73eb 2abe ce61 02be 7274 22be
000001a0: 8f77 843e 81ec f7bc 7c1a 0f3d 240d 053e
000001b0: a766 abbd 2609 2f3e 91b7 8dbd c6d7 aabd
000001c0: 3756 ca3d 050a 093e a920 3bbe 81c2 04be
000001d0: 03b0 4d3e 9050 b93e 0e02 7bbc 8a70 8d3b
000001e0: 6ab2 3cbe fe36 343e 5c1f 52be 2d16 ee3d
000001f0: 7391 8b3d 7a61 18bd 9b1d efbc da45 6b3c
00000200: 4d6b e93d 41d7 333c 4f0f 213e ad35 0cbe
00000210: 6aad 1e3e b26d b5bd 6eb7 cf3d f4d6 a13c
00000220: 814f 20be 690b f7bd 7233 a1bb 1d7a a6be
00000230: 441b 05bd 658f 783d d13d 103e 6991 863e
00000240: 0fb9 583e 57ed d9bd cf60 e6bd b3cb eb3c
00000250: c69b c43d de25 e1be ab37 babd 57f7 32bd
00000260: 0fea 0a3e 2de6 323e c227 92be 93e7 0fbe
00000270: ebcb 97bd be86 f8bd 5a17 8bbd 9eed adbe
00000280: cf98 d13d 23b0 4e3e 90d7 7c3e f67d ccbd
00000290: 39a2 0a3d 15bb 983d 9510 0dbe 7ada ccbd
000002a0: 7815 e93d 9df6 3e3e 713a 513d 9f2e f9bd
000002b0: e010 223e b794 b9bc 8321 273e c373 1fbd
000002c0: 63ab 8f3e f8a6 2e3e 0f45 54be 09f6 893d
000002d0: d0ca 833e 1274 76be a1fa f43d 8b07 bb3e
000002e0: 9e05 a83d b0fc d23d d05e 37bc b96b 9b3d
000002f0: b80c af3d b045 dd3d 62ad e2bc 4aaf 2c3e
00000300: 724c a0bd e694 43b9 d066 a0be 215f 013e
00000310: 5fcd fc3c 0144 13ba bfd9 85b9 7334 a23b
00000320: c08f a7be 4e11 fabd 6806 8dbd dbea 9abd
00000330: 9f7f 4fbe d237 ccbe a426 e03e dc43 153d
00000340: b56c 17bd 41b1 5a3e 44d5 7d3e 433b 19be
00000350: 9d4a e3ba 6d31 3b3d c0fb 1e3e e1d2 043e
00000360: a59e f63d bdea babe de65 853e ee0a 953d
00000370: 190c 66be 2163 b0bc d249 e3bd 9d03 a33d
00000380: ea89 9b3d 6bbd 8dbd 603c 4b3c 6d1f 31bd
00000390: fb14 f33d dc92 bdbe 5181 aebd 788f f2bd
000003a0: 9031 b5bd e818 b63d 30b8 533e ade2 6abd
000003b0: 12f3 373e e218 683e 248f 53be d9e1 4fbe
000003c0: 387a afbb 2150 bf3e ac75 c63d da2e 083e
000003d0: 16d8 fc3c eee1 f43e 05ed de3d 7005 093e
000003e0: 509d 953e 536c c5be 2221 553d 980b 1c3d
000003f0: 6804 fabc e958 073d f3c0 85be c48e 42be
-0.022464048 -0.20761867 0.1355766 -0.30297 -0.009174114 -0.051165186 -0.2089544 -0.30965668
0.00033579807 0.10453234 -0.1594702 -0.07882448 -0.13546793 -0.23256367 0.19201393 -0.16224341
-0.036590457 -0.026665011 0.0050465846 -0.05642168 -0.13997863 0.10457563 -0.12273538 0.037981678
-0.12444614 0.33364564 0.08018628 0.20810585 -0.02870092 -0.32631063 0.12226662 -0.2313597
-0.14536388 -0.016656628 0.112595454 0.046580616 -0.09894073 0.09438251 -0.17229185 -0.13513717
-0.2036072 -0.026233926 -0.076355726 -0.09431743 -0.22437845 0.18548891 -0.048599575 0.15151349
0.19011232 0.0015456548 0.22919899 -0.01808952 -0.06532834 0.11092264 0.40656662 0.031980112
0.08272876 0.15607554 -0.062483978 0.25584343 -0.0025350098 -0.05499327 0.15374586 0.085413784
-0.0025222811 -0.15774788 0.054748297 0.03297028 -0.067321196 0.15467319 -0.092567325 0.14383149
0.2886607 0.2789806 0.018232355 0.2838593 0.09224388 -0.108212136 0.45250425 -0.05389578
0.10416529 -0.113104045 0.15974152 0.0154507775 0.047433916 0.18386452 -0.113127075 0.0892877
0.332907 -0.14694606 0.115974955 -0.22342476 0.02726503 -0.25866556 0.19777608 0.34383824
-0.04900698 0.14490648 0.16406661 -0.29917845 0.10767267 -0.16691379 -0.12732622 -0.15864733
0.25872466 -0.030264141 0.034937367 0.12993294 -0.08369189 0.17093334 -0.06919778 -0.08341937
0.098797254 0.13382728 -0.18274178 -0.12964822 0.20086674 0.36194277 -0.015320314 0.004316394
-0.18427435 0.17599103 -0.20519775 0.116253234 0.068148516 -0.037202336 -0.029188922 0.014359916
0.11397419 0.0109766135 0.15728496 -0.1369235 0.1549584 -0.08858813 0.10142408 0.019755818
-0.15655328 -0.12062723 -0.004919463 -0.3251504 -0.032496706 0.060683627 0.14086081 0.26282814
0.21164344 -0.10640972 -0.112489335 0.028783655 0.09600024 -0.43974203 -0.09092649 -0.043692913
0.13565849 0.17470618 -0.28545958 -0.14053182 -0.07411941 -0.12135075 -0.06791563 -0.3397035
0.10234224 0.20184378 0.24691606 -0.09984963 0.033846114 0.07457558 -0.13775857 -0.100026086
0.11381048 0.18648763 0.051081125 -0.121670954 0.1582675 -0.02265392 0.16321377 -0.03892876
0.28060445 0.17055881 -0.20729469 0.067363806 0.2574067 -0.24067715 0.11961866 0.36529192
0.082041964 0.103021026 -0.011192039 0.07588906 0.08547348 0.108043075 -0.027670566 0.16863742
-0.07827081 -0.00018652118 -0.3132844 0.12633945 0.030859647 -0.00056177384 -0.0002552997 0.0049501
-0.3272686 -0.12210332 -0.068859875 -0.075643264 -0.20263527 -0.39886338 0.4377948 0.03644167
-0.036968905 0.2135668 0.24788386 -0.14964013 -0.0017340962 0.045701433 0.15525723 0.12971069
0.12041978 -0.36507216 0.2605428 0.07277475 -0.22465552 -0.021531643 -0.110980645 0.079596736
0.075946644 -0.06920894 0.012404531 -0.04324286 0.11869236 -0.37026107 -0.08520759 -0.11843771
-0.08847344 0.08891469 0.2067573 -0.05734508 0.17963818 0.22665742 -0.20660073 -0.20300998
-0.005355146 0.3736582 0.09690413 0.13299122 0.030864757 0.4782862 0.10885052 0.1338098
0.29221582 -0.38559207 0.05203355 0.038096994 -0.03051968 0.033043776 -0.2612377 -0.18999773

layers.2.bias f4 [50]
00000000: 9901 48be ddd4 7f3d b2f9 bdbe a203 92be
00000010: af33 9bbe 184d bd3d 197c 04be dbb6 843e
00000020: 4413 5d3e 83bb 3d3e bcad 94bd 6ee9 e33e
00000030: c7ba 893e ad20 9ebe 7cb6 94bd 9055 9dbe
00000040: ccdd 9bbe ca19 e63e 5df3 593e c5b5 963c
00000050: fe5f fabc e172 ee3e fd01 fc3d 0a02 80be
00000060: 1c6d 003c f496 e93b 81af b63e 41e9 073f
00000070: e454 a03e ca03 953e 0373 8e3e 7eb3 90be
00000080: a931 643e 888c 5b3e b140 7cbe 7559 36be
00000090: 67c2 143e 2059 e83e 17b6 fdbd f792 7d3e
000000a0: 48f5 853d 8308 26be 429e 3b3f 3665 243e
000000b0: 7403 783d 159a 343e 59c1 97bc ba80 cdbd
000000c0: 7a80 91bd 38d9 403d
-0.1953186 0.06245886 -0.37104565 -0.28518397 -0.3031287 0.0924322 -0.12937964 0.25920758
0.2158938 0.18528561 -0.072597 0.4451403 0.26900312 -0.30884305 -0.07261369 -0.30729342
-0.30442655 0.4494155 0.21284242 0.018397221 -0.03056335 0.4657202 0.12305067 -0.25001556
0.007838514 0.0071285907 0.35680774 0.5309029 0.31314766 0.29104453 0.27822122 -0.28261942
0.22284569 0.21440327 -0.24634053 -0.17807563 0.14527284 0.45380497 -0.123882465 0.24763094
0.06540924 -0.16214184 0.7328836 0.16054234 0.06055017 0.17636903 -0.018524813 -0.10034318
-0.07104583 0.047082156

layers.3.weight f4 [50, 50]
00000000: 9829 f73d 357c 30bc b5fa 673d 06dc 82bd
00000010: b4aa 8dbd 2c6e 54bd e18d 183c b03f 073e
00000020: 0d17 bebd dd43 23be ebf3 88be 9acd 113e
00000030: 21a7 04be 2726 da3d c26d 25be 1f17 de3d
00000040: 4d68 43be d216 423d f8da f73d 9479 c5bd
00000050: c60e 3abc 44e1 273e ebf0 883c 05a1 683e
00000060: 234a 88be ffe9 b93e 25a8 08bd fb8d aabe
00000070: f029 fc3d 0055 2f3e 71e1 dbbb 2b61 c7bd
00000080: 4c0a a4be d5a2 8e3e 3ba3 8fbd 0573 62bd
00000090: d421 5e3d 0b9d 983e 8905 85be 0ba4 503e
000000a0: 49bd 2ebd 58b8 94bc 2924 4b3e c330 4e3c
000000b0: 8b32 463c ced1 a13d 0ed1 54bd 514d 7ebe
000000c0: 64c7 c1be 5c63 2ebd f4d2 613e fbe2 0d3d
000000d0: 2ee1 113e 9bd2 b7bc 4321 2d3e 0717 75be
000000e0: cf0c a5be 5ab1 1fbe e3f9 05be e632 1ebe
000000f0: 9f3c 54be 5899 c93c 1b29 bbbd 18f5 d73d
00000100: 9102 763e b916 be3d f31b 3dbe 98f9 9abe
00000110: 78a9 22be 5f69 403e b36c 80be c790 a4bd
00000120: d542 a63d 3162 273e b727 bb3d 4d85 f2bd
00000130: 03e5 333e 07ef f3bd 1233 67bb 9e92 b43b
00000140: f245 c63d 8aba 8c3e 6f94 1cbe 84c9 6cbe
00000150: ea33 2fbd 52f1 ccbd 6409 fdbd 6499 22be
00000160: 8cc2 aebc b884 eb3d 8a74 39be 6fb6 c2bd
00000170: fe9c 74be 163f 50be 4d41 8c3c 8e49 5f3d
00000180: 0c86 cb3d 04b6 ddbd f30a 90bd 295d 943d
00000190: 13dd 493d 5201 7c3e 3960 14be 4ecc 08bc
000001a0: cfd5 a2bc 0c3d 173e b5cc be3d 74d8 913e
000001b0: 7db5 0c3f ca23 d2bd faf1 8fbe 50c1 b43e
000001c0: 948c ff3c 894d 933c b347 893c 2b39 3e3d
000001d0: 58dc ac3e 77ab 913e 82ff 163e f849 51be
000001e0: 1fd7 a9be c5f3 f93d ba1a dbbd daf4 0b3d
000001f0: e911 b2bd d344 18bc 10ee 943e d773 09be
00000200: d520 423d c0d5 40be bad5 353e f5d5 febe
00000210: ce74 aa3d 4b63 57be 46a6 a33d 1abd 2ebe
00000220: 1a92 03bc 8487 a83d 7094 3a3e c9f8 90bd
00000230: 2650 b43d 19b1 1abe 7ceb a53d 0ccf 443d
00000240: 0d39 203d 7725 203d 3d57 6fbe bb02 37be
00000250: 57bf 93bc 225d eabd 0bd8 bc3c 1925 e13d
00000260: 3b58 3e3e 1b2f 953e ea97 b93d 65b0 8ebd
00000270: 7d39 1d3e a482 8c3e c5ee 2a3e 4aba 74bd
00000280: 223e 4cbd 6734 de3e 85c4 113e 3e54 09be
00000290: 6c4e 0fbb 3a69 2ebd afcd c0bd 3304 aabe
000002a0: 6fc3 583e 86f3 c8bd 1580 4dbe a9a3 b0bd
000002b0: b01b 0b3e 6790 dabd 3830 db3e b604 5d3e
000002c0: e74e 30bd b1f4 6d3e 9000 c9bc 4913 ebbd
000002d0: 4944 78bc 246c 6d3e f0e1 93be c867 2fbe
000002e0: 63f0 0a3c 2c66 ac3e 88fd 72be f44c 323e
000002f0: 842a 4dbe cf33 69be 1e20 02be bb44 cabd
00000300: 7522 72be 2e9a 92be 3d20 de3c b953 3a3e
00000310: 0155 81bd af24 823e 25c1 2e3c 2b54 163e
00000320: a14d 563d f1a2 913e 148f 493d e1f5 6dbe
00000330: c79d 00be e9db 993d fd52 3fbe 548a 6f3e
00000340: 1cc1 16bc 444c e13d ebb8 1cbe 4257 053e
00000350: abb7 543c bb25 afbd c183 17be ddd5 92bd
00000360: 1082 983d f92a 1b3e 3ff5 183e 30c2 99bd
00000370: 6019 c23e f14c 85be 175e aa3d d7b0 773e
00000380: 804a 283e 7d4e 263e d0b3 c3be 3484 f1bd
00000390: 5691 0a3e 8905 78be 665e aabc cfbe 0bbe
000003a0: 8a37 47be 3d96 95be 03ce 88be dc23 7c3e
000003b0: 9645 94bd a69f babd fa8a 91bc 2e28 383d
000003c0: 352d 29bd 03b1 48be 7481 8d3e cc94 8ebb
000003d0: 11dd 6bbe 5696 56be 7486 c23d bead 913d
000003e0: fe88 8bbd 6ac8 3dbd d671 cf3d db70 8ebe
000003f0: 444e 74be 359c 5b3d cc1c 5fbd be23 dbbb
0.1206848 -0.010771801 0.056635577 -0.063896224 -0.06917325 -0.05186288 0.00931117 0.13207889
-0.0928174 -0.15943857 -0.26748595 0.14238587 -0.1295438 0.10651808 -0.1615515 0.10844254
-0.19082756 0.047385044 0.12102312 -0.0964233 -0.011356061 0.16394526 0.016716441 0.22717674
-0.26619062 0.36311337 -0.03336348 -0.33311448 0.123126864 0.17122269 -0.0067102243 -0.0973533
-0.32039106 0.27858606 -0.070135556 -0.055285472 0.05423148 0.29807314 -0.25980785 0.20375077
-0.042660985 -0.018154308 0.19838013 0.012584868 0.012097011 0.07901345 -0.051957183 -0.24834181
-0.37847435 -0.042575225 0.22053128 0.034640294 0.14246055 -0.022439292 0.1690722 -0.23934565
-0.32236335 -0.15594998 -0.13083605 -0.15449104 -0.2072625 0.024609253 -0.091386996 0.10544795
0.24024417 0.09281678 -0.18467693 -0.3026855 -0.1588496 0.18790196 -0.2508293 -0.080354266
0.08118216 0.16346051 0.091384344 -0.11841831 0.1756783 -0.11910825 -0.0035278243 0.005510642
0.0968131 0.27486068 -0.15290998 -0.23123747 -0.04277412 -0.10006966 -0.12355307 -0.15878826
-0.021333002 0.114999235 -0.18110862 -0.09507453 -0.23888013 -0.20336565 0.017120982 0.054513507
0.09937677 -0.10825732 -0.070333384 0.072443314 0.0492831 0.24609879 -0.14489831 -0.008349491
-0.019877343 0.14769381 0.093163885 0.28485453 0.5496443 -0.102607325 -0.281143 0.35303736
0.031194963 0.017981308 0.016757822 0.04644124 0.3376186 0.2845113 0.14745906 -0.20438373
-0.33171937 0.122046985 -0.10698457 0.034169056 -0.08694822 -0.009293753 0.29087877 -0.13423096
0.047394592 -0.18831539 0.17757311 -0.4977261 0.0832306 -0.21033971 0.079906985 -0.17064324
-0.008030439 0.082289726 0.18220687 -0.07078702 0.088043496 -0.1510662 0.08101556 0.048049018
0.039116908 0.03909823 -0.23373123 -0.17872135 -0.018035574 -0.11443545 0.023052236 0.10993404
0.18588345 0.291375 0.090621784 -0.06967238 0.15353961 0.2744342 0.16692646 -0.05974797
-0.049863942 0.43399355 0.14235123 -0.13411042 -0.0021866811 -0.04258082 -0.09414231 -0.3320633
0.21168302 -0.098120734 -0.2006839 -0.08624966 0.1358478 -0.10672074 0.42810225 0.21583828
-0.043043997 0.23237874 -0.024536401 -0.11478288 -0.015152999 0.23185784 -0.28883314 -0.17129433
0.008480164 0.336717 -0.23729527 0.17412168 -0.2003575 -0.2277367 -0.12707564 -0.098763905
-0.23645957 -0.28633255 0.027114982 0.18196 -0.06315041 0.25418612 0.010666166 0.14680545
0.052320126 0.28444627 0.049208716 -0.23238327 -0.12560187 0.07512648 -0.18684001 0.23392612
-0.009201314 0.11000875 -0.15304916 0.13021567 0.012983243 -0.085521184 -0.14796354 -0.071696974
0.074466825 0.15153112 0.14937304 -0.075077415 0.37909985 -0.26035264 0.083187275 0.24188553
0.1643467 0.16240878 -0.38223124 -0.11792794 0.13532004 -0.24220861 -0.020796966 -0.13647006
-0.1945478 -0.29216185 -0.26719674 0.24623054 -0.07239835 -0.09112482 -0.017766465 0.044960193
-0.04130288 -0.19598775 0.27637827 -0.004351234 -0.23033549 -0.20955786 0.09498301 0.07113217
-0.068132386 -0.046333708 0.10129134 -0.27820477 -0.23857981 0.053615768 -0.054470822 -0.0066876104

layers.3.bias f4 [50]
00000000: 75b1 293d eac2 43bf 5a90 8bbe f656 9b3d
00000010: 8c9c a0be 6c91 033e 85c3 fdbe 36b0 1d3d
00000020: 85b1 f1bd 328c 1cbf 343d 75be f822 8cbd
00000030: ea79 f0be 478c 74bd f615 75bd 7217 c5be
00000040: e33e 103f be61 553e ca12 a63e acc3 f1bc
00000050: 869c 0abe 1a85 92be 42e5 e3bd bb6a 543e
00000060: 1d44 2cbe 3abe b73d fadd b3be b263 8ebe
00000070: eed3 233e 56e6 6b3e ce60 9abe ce4d de3c
00000080: e8b7 86be cd01 d5be 05fc 5e3e d25d 983d
00000090: 90c3 fabe 7da2 553a d44c 273e be7a 49be
000000a0: 6114 623d 3476 91be 89de 863e 2425 3abe
000000b0: 7f19 063f 5f12 243e 22f0 4ebe 4d56 9fbe
000000c0: 9094 93bd b2e6 1c3e
0.041429 -0.7646929 -0.2725857 0.07584946 -0.31369436 0.12848443 -0.49563232 0.038498126
-0.11801437 -0.6115142 -0.23949128 -0.06842607 -0.46968013 -0.05970409 -0.059835397 -0.3849445
0.5634596 0.20838067 0.3243621 -0.029512249 -0.13536271 -0.28617173 -0.11127712 0.2074384
-0.16822858 0.0897183 -0.35130292 -0.27810436 0.15998814 0.23037085 -0.3015198 0.02713671
-0.26312184 -0.41602936 0.21775825 0.0743977 -0.48977327 0.0008149518 0.16337901 -0.19675729
0.055195216 -0.28410494 0.26341656 -0.1817823 0.52382654 0.16022633 -0.20208791 -0.3112053
-0.072060704 0.15322378

layers.4.weight f4 [50, 50]
00000000: d7f9 223e 6b1d 783d 2f25 a2be b03b 083e
00000010: 477f 9a3c 7ff0 d1bd 14a7 c7bd 567f 853e
00000020: 589c 3ebd c077 04bd 9393 0b3e d5aa 513d
00000030: 98fd 74be 766c 983d c90f 153d 393a 183e
00000040: 025e 783d 22ef a53e 836c 6d3e 34f7 9b3e
00000050: db4d 893d 84b4 2ebd 2933 893d 18a1 a73d
00000060: 7e27 7abe fedb 0ebc f0b3 d0bd 7812 fcbc
00000070: 6e41 ffbd 9fe9 f7bc 3afd 133d f1e0 6dbc
00000080: 5ae0 abbb 856c f7bc 79b7 54be 8766 27be
00000090: 9476 6cbd 3b2c 503e aba2 0d3e 6472 7cbd
000000a0: e1d2 90be 360d 013e 8b15 2bbd 91bb 26be
000000b0: ee3e c4bd 1f4e cd3c d27a 32bd d686 5a3e
000000c0: e16d 85bd ff99 4ebe 7e90 05bd c747 0b3d
000000d0: 1df5 8ebd 0ab8 a53d e07b 10bd 4318 b63c
000000e0: a442 923e e17a d2bc 8bcd 493c 97e7 fe3a
000000f0: 5574 5abe 1c87 7ebd e0aa 953d 433f 813e
00000100: d021 603e 0397 4eba 4d7c 75bd d330 cfbb
00000110: 8a6e aabd be9d 83bc e4bb 18be 995f 0b3e
00000120: 9ace 003e 7409 983e 6a5f 593e da31 efbd
00000130: b8cd 393e 1c95 933d 2af1 adbe db7b 5b3e
00000140: 55b3 d63d 88ba cd3d cdc6 46bc be30 2fbc
00000150: 848a ae3d c8df 3f3e 5949 95bd 849d 36be
00000160: 4853 4b3c ae39 393e 31ed 2cbd ee2f 813d
00000170: 2338 bbbd 3d87 463e f7cd 92be 6d94 e9bb
00000180: f0e8 18bc 2001 ecbd bd69 133d 11c0 083e
00000190: fe71 db3c 6762 bdbd 89d4 9fbe 6144 abbd
000001a0: 8c28 8abe c560 bb3c 7084 2abf 826b d1be
000001b0: 6fb1 8f3d 68a4 b6bd ea87 50bd c91b ac3e
000001c0: e5e8 2c3f 7de1 3bbe c8ac a33e 04a0 643e
000001d0: 93ec 17be ebab 37be e533 6abe 95ff 713e
000001e0: 1ad7 4d3d 6ead 033e 4747 e3be 2c4b 14be
000001f0: ce7c eebb 3c16 0e3f 8a4f 573e 3ae8 1f3e
00000200: 3524 92be 5177 f0bd 8f97 abbe 1734 963e
00000210: ccce cfbd 88fd f6be 1ed0 813d 0c22 e43d
00000220: 34b0 033e ee5f c93e 2187 d5bd ccac 18be
00000230: 9e03 a4bd 69b6 783d fa2f e7bd 4ba0 a43c
00000240: 975f f03b e214 a43d 6b41 29bc f8c9 a03e
00000250: a0e2 803d fc8a 7dbc 658a 12be 9442 c43d
00000260: 7a6f 793e 897f ffbd df96 cbbc ec96 02be
00000270: c010 23be 97a5 9abe 5640 803e f52f 1ebd
00000280: b1fc 0b3e 7266 ff3d 6406 bc3e ebe7 f8bd
00000290: 382c 583c 4643 233e 850f 56be 62ca 063d
000002a0: 3a16 bebe 8290 cebd 008f d43d 44d8 cebd
000002b0: 1d94 8c3e 9062 303e a5de 4c3d 0966 dfbc
000002c0: 52a9 063c 00ed 9ebc 37b2 753e f1ed 84be
000002d0: 3f17 d83b f7c7 2cbe 708f 6bbd 9f3c fcbc
000002e0: 3756 2ebe 7778 9cba e5d1 133e d83b 483e
000002f0: 221f a43e d3a1 63bd 4def 0b3e fd37 28bd
00000300: b89e 233d 8992 0fbb 5036 1bbe 8932 50be
00000310: 7373 f4bb 7dd5 983e a833 6c3d 5960 d1be
00000320: bf24 373e fb7e 6c3e b6bd e53d c245 873c
00000330: 9fe3 3d3e c3f4 f0bd 51f2 c43d 7bdb 70bc
00000340: 2a01 303e dd70 69bc 05f6 0b3d d9d6 15be
00000350: d17e 94be 275e afbc 978b 2abe 3dc2 7cbd
00000360: 3fc2 f13d 1fb4 af3d 348a bb3d 46a2 44bd
00000370: 568a 9bbd 870e 5e3e bc49 673e fefb 3fbd
00000380: 592b 853c 8b9d cbbc 4288 38be 0f34 e0bd
00000390: c73b babd db8e 223d 08f4 cbbd 9919 ce3d
000003a0: 56b0 6c3c 320f 293e a459 af3d 564a 013e
000003b0: c3c1 97bd 2043 41bd 3ee2 3bbd 1e66 68bd
000003c0: c4f8 01bd 7793 163e f03f 943e cb41 903d
000003d0: 82ef 233e 0182 d93d a90a 40be 2243 37be
000003e0: 387c 9c3d 81ab 173e e8f1 d33c a66f 58bc
000003f0: 9277 a83e 1607 e63b 55bd 8fbe e6cc 763d
0.15915619 0.06057493 -0.31668994 0.13304019 0.018859519 -0.10250949 -0.097486645 0.26073712
-0.04653582 -0.032340765 0.13630514 0.05118831 -0.23924863 0.07442562 0.036392007 0.1486596
0.060636528 0.32409006 0.23185925 0.3046204 0.06704303 -0.042652622 0.06699211 0.08185023
-0.24429128 -0.008719442 -0.1019057 -0.030770525 -0.124636516 -0.030262766 0.036130168 -0.014518962
-0.0052452506 -0.030203113 -0.20773114 -0.16347705 -0.057730272 0.20329373 0.13831584 -0.06163253
-0.28285888 0.12602696 -0.04176859 -0.16282488 -0.095823154 0.025061665 -0.04357416 0.21340498
-0.06515098 -0.20175932 -0.0326085 0.034004 -0.069803454 0.08091743 -0.035274386 0.022228366
0.28566468 -0.025693359 0.012317072 0.0019447681 -0.2133344 -0.06214057 0.073079824 0.25243577
0.21887898 -0.0007880779 -0.059932996 -0.006322959 -0.08321865 -0.016066428 -0.14915425 0.13610686
0.12578812 0.29694712 0.21227804 -0.1167943 0.18144882 0.07206175 -0.33973056 0.21433966
0.104834236 0.10045344 -0.012132359 -0.010692773 0.085225135 0.1873771 -0.072893806 -0.17833525
0.0124099925 0.1808841 -0.04221839 0.0630797 -0.091415666 0.19387527 -0.28672764 -0.0071282894
-0.00933288 -0.11523652 0.03598951 0.13354518 0.026787754 -0.092472844 -0.3121684 -0.083626516
-0.2698406 0.022873292 -0.66608334 -0.40902334 0.07016265 -0.08918077 -0.050910868 0.33614948
0.6754287 -0.18347736 0.3196776 0.22326666 -0.1483634 -0.17936675 -0.22871359 0.23632653
0.050253965 0.12859127 -0.44390318 -0.14481801 -0.0072780615 0.55502677 0.21026435 0.15615931
-0.2854325 -0.11741508 -0.33514068 0.29336616 -0.10146865 -0.48240304 0.06338523 0.111393064
0.12860185 0.39331 -0.104261644 -0.14909667 -0.080085024 0.060720835 -0.11288448 0.020095965
0.007335614 0.080117956 -0.010330538 0.3140409 0.06293225 -0.015475031 -0.14310606 0.09583011
0.24358931 -0.12475497 -0.024852214 -0.12752885 -0.15924358 -0.3020446 0.25049084 -0.038619954
0.13670613 0.12470712 0.36723626 -0.1215361 0.013194136 0.15943632 -0.20904358 0.03290785
-0.37126333 -0.100861564 0.103788376 -0.10099843 0.2745675 0.17225099 0.050017018 -0.027270334
0.00821908 -0.01940012 0.23993765 -0.25962785 0.006594568 -0.16873156 -0.05750984 -0.030790625
-0.17025076 -0.0011937757 0.14435537 0.19554079 0.32055002 -0.05557425 0.13665505 -0.04106902
0.039946288 -0.002190741 -0.15157437 -0.20331778 -0.0074600517 0.2985038 0.05766645 -0.4089382
0.17885111 0.23095314 0.11217825 0.016512755 0.18543862 -0.117654346 0.09616531 -0.014700766
0.17187944 -0.0142481 0.03417017 -0.14632739 -0.29003003 -0.0214072 -0.16654812 -0.061708678
0.118046276 0.08579277 0.091572195 -0.04800632 -0.07594745 0.21685229 0.22586721 -0.046871178
0.016256021 -0.024855396 -0.18020728 -0.109474294 -0.09093433 0.03968702 -0.09958655 0.10063476
0.014446339 0.16509703 0.085620195 0.12626013 -0.07410004 -0.047183156 -0.04587006 -0.05673801
-0.031731382 0.14704691 0.2895503 0.07043799 0.16009334 0.106204994 -0.18754067 -0.17896703
0.0764088 0.14811517 0.025872186 -0.013210213 0.32903725 0.0070198877 -0.28074136 0.060254

layers.4.bias f4 [50]
00000000: 54d4 773e cad2 b7bd 87d1 71bf 9a12 fd3d
00000010: fd27 353e 8f3f 08be cf78 173f 7fe2 7e3d
00000020: 6f27 383e c864 75bd 0adc c4be 415a 4d3d
00000030: d5d2 ff3d 5427 adbf d6d6 68be dd31 213e
00000040: 58c8 233e 4b29 74be eb5e 7cbe da5d 843d
00000050: dbae 343f ccb3 843e 70a4 093e 3f86 bb3e
00000060: 68c2 9d3e 539c e83e 9a78 9d3e f74d 31be
00000070: 5a81 51be a78f c33d 665d bfbd 61aa 4b3d
00000080: da69 d93e 97d9 23bf 2341 8b3e afc6 683e
00000090: 55da 533e 3004 9a3e e226 27be c78f 7e3e
000000a0: 94c2 9c3d e58b d8bd beac 04be 71e1 8ebd
000000b0: 127d 423f 8bdc 343b 3770 30bf 9217 d1be
000000c0: 5df4 c43e 3dde 593b
0.2420209 -0.08975752 -0.9446034 0.123570636 0.17691036 -0.13305496 0.59168714 0.062227722
0.17983793 -0.059910566 -0.38449126 0.0501349 0.12491385 -1.3527627 -0.22738203 0.15741678
0.15994394 -0.23843877 -0.24645583 0.06463213 0.7057931 0.25918424 0.13441634 0.3662586
0.30812383 0.45431766 0.30756074 -0.17314897 -0.204595 0.09548884 -0.09343986 0.049723033
0.4246357 -0.6400389 0.27198133 0.22732042 0.20688756 0.3008132 -0.16323426 0.24859534
0.076543 -0.10573558 -0.12956521 -0.06976593 0.7597209 0.0027597274 -0.68921226 -0.40838295
0.38467684 0.0033244037
