main/discrete_time_identification (KdV)/models_iters/KdV_clean_62000.pt (torch, 127868 bytes, 14 tensors)

linear_in.weight f8 [50, 1]
00000000: 6e19 38ca 120e c83f 1adf 3757 8192 c03f
00000010: 59a7 ec35 6a3a b4bf 1d0c 3a9a 8b85 d7bf
00000020: 8d7c 9b9a 6b1b b6bf 13d1 8fde 063b c4bf
00000030: 5059 4315 efb7 ca3f 64a3 05ca f56a e13f
00000040: 33d8 c1c8 109b d2bf 67cc 8450 1a1f b7bf
00000050: 5d5a 32d9 bd65 b7bf b29b 789a a861 d93f
00000060: 42a5 4ae7 7c58 c93f 6c55 f77e e55b 943f
00000070: 8077 61a9 fa0e e43f ee84 138c c614 c73f
00000080: c125 6033 a209 c73f 6238 82e7 ad2c cfbf
00000090: a405 30e1 7d33 ba3f e3e5 286e 9f04 c93f
000000a0: d35f 8f26 667c d3bf c904 901f 4601 d6bf
000000b0: b95f 4505 52da babf 7692 5653 aa2d a83f
000000c0: e8c4 e384 88fc a5bf 98f0 4e99 4a2a 95bf
000000d0: f17a 7593 4f9b d93f 2a99 e837 35e2 cb3f
000000e0: a226 7b32 690a c03f aced a60c 0961 cebf
000000f0: c06a e6a4 6b39 b2bf b72c 67e9 1e99 d93f
00000100: d5f3 fbb9 6078 d23f cbf9 8d9c e3a6 bf3f
00000110: 1c92 5137 a7ef b3bf 6047 1fd6 f531 923f
00000120: 250e 0f6b 5cb2 72bf 35a3 0a5e 20f0 c23f
00000130: ab58 d2fb 3aa1 d7bf 7c89 a1bc 640f a1bf
00000140: b1d2 fc03 be16 cf3f c391 d6d1 c718 babf
00000150: 3c0b a64e cfda d0bf aea5 1e32 38cf bf3f
00000160: acb5 746f 3aa2 d83f 8b08 02d1 57a7 d93f
00000170: 0073 c3b0 0d13 b13f 6211 8e02 2411 bcbf
00000180: 1ead 0558 a7b8 b33f ab41 6df0 d764 d3bf
0.18792948602658605 0.1294709850187637 -0.07901634041323059 -0.3675259595985965 -0.08635590099901176 -0.15805135600351913 0.20873821771847156 0.5443066545241035
-0.29071445088573283 -0.09031834092893264 -0.09139620354322049 0.3965856083399856 0.1980129365304411 0.01988180720748771 0.6268285091607453 0.1803215202299166
0.17998149403164912 -0.2435510044492189 0.10234820125335503 0.1954535758866732 -0.3044677139819189 -0.34382775385172387 -0.10489380482374501 0.04722339885055231
-0.04294230100811963 -0.02066914139480555 0.4001044216183081 0.21784081678306083 0.1253177162637274 -0.2373362838533074 -0.07118866706734206 0.3999707488371302
0.2885972801448678 0.12364027568944562 -0.07787556744148855 0.01776870841405953 -0.004564629562938492 0.14795307723877618 -0.3692157229610397 -0.03332056810974657
0.2428815383406309 -0.10194062111856454 -0.263355089955599 0.12425566886545056 0.3849016273914809 0.4008388081639473 0.06669698300852289 -0.1096365457761457
0.07703634165743664 -0.30302999953439763

linear_in.bias f8 [50]
00000000: 8bde 0533 fb75 b9bf b83c 3abe a110 b23f
00000010: 41b6 f754 403c b7bf f518 4023 c371 a8bf
00000020: 297f 039a 35fe b0bf 3062 47f6 be31 9cbf
00000030: 4920 9f99 fa27 b03f 9dc5 962b d030 a03f
00000040: 788f 72d8 89ad be3f 98f5 699f 07e7 b2bf
00000050: 0978 0cc7 4325 ac3f c1c7 f6c2 47e5 963f
00000060: f17e 456b a76a 9c3f b8b3 6929 bc2b b73f
00000070: 0b67 83e1 bf76 763f 252f 8490 ccf1 b03f
00000080: b3de 3db5 d687 9fbf c433 b9e6 01a2 963f
00000090: 495a d710 1710 bc3f 65fb 944d 87a4 babf
000000a0: aaf6 9e41 07c5 523f cea6 799d 9bab bb3f
000000b0: 3eb5 55eb 463e afbf 1690 f162 231d 98bf
000000c0: 807b cc2e 2bdb a2bf 59cc 9ba6 347e a9bf
000000d0: 1a8e b2d8 a2df a53f 6f0f 79c6 1e4f 9a3f
000000e0: 4741 4e46 52e6 babf b156 82c6 3b6d be3f
000000f0: 7df4 b316 d86b a73f 0650 a4ac 9c82 a63f
00000100: 01b6 b1b5 bad7 a03f 2cee f485 33d1 8b3f
00000110: 8f49 a343 1c11 bf3f 842b 57bc f2a2 a1bf
00000120: 0712 d8df 9eb0 b5bf e34e 0f9e 9b04 bb3f
00000130: a162 e634 1c95 b3bf fb21 7471 d424 bc3f
00000140: 98cf 9bdb d897 b53f 5657 9711 d066 b4bf
00000150: e09d cbfb eaca ad3f a265 7642 c981 aebf
00000160: 2cf1 3ca6 253a 943f 573f 1893 64ee b6bf
00000170: 095e 079f c751 ad3f 001d e077 4bce b13f
00000180: f679 7d0e 6f5f b5bf c3f6 da6e 5811 9e3f
-0.09945650096585205 0.07056628126359754 -0.09076311182408238 -0.04774293713858128 -0.06637892732714747 -0.02753351572195778 0.06311002970244418 0.031622414894978614
0.11983548673975786 -0.07383773462239274 0.05497180752557546 0.022359010004670447 0.02775060264809687 0.0905110932450971 0.005484342131433238 0.06618956115943016
-0.030791621029009075 0.02210238428806456 0.10962051545298225 -0.10407300609675259 0.0011456080305686602 0.10808727831468021 -0.061022011020080744 -0.02354865352062071
-0.036828374350299065 -0.04979099782749392 0.04272183318360252 0.025692444671462974 -0.10507692543456414 0.11885427090086399 0.04574466015945065 0.04396524054951105
0.0328958842081697 0.013582613492523064 0.1213548340922783 -0.034446321001801145 -0.08472626652662295 0.10553906067735457 -0.07649399081709386 0.10993697900642722
0.08434825288332914 -0.0796937983462532 0.058188765751591154 -0.05958393989858314 0.019753063460698758 -0.08957508650951006 0.05726455513257284 0.06955405880590959
-0.08348745445025671 0.029363042608330014

linear_out.weight f8 [50, 50]
00000000: 25a8 e27d c2e8 abbf 18ba b663 9dd2 ccbf
00000010: 5147 2c99 bfec 9f3f 9a8b 5b15 da71 9d3f
00000020: e9d0 d1b8 92e1 c2bf 323a 3633 5453 c33f
00000030: 5d24 3ecf c219 b03f fb2a 9b1e b8be 923f
00000040: 2d1b 891e 22a7 ccbf 6dfe be63 0681 c5bf
00000050: d1a4 80b0 2e4a a33f 7cdb a4d0 3972 cb3f
00000060: 8771 7ae0 2da3 96bf a3be afcd fbce a93f
00000070: 06c1 02c2 3c7f d33f 6d48 c8ab ea73 b93f
00000080: c525 f5fa da85 c33f 0586 fa1d 4e90 a53f
00000090: b424 f096 550d c43f 0930 6e0c c137 bebf
000000a0: d14e de67 a99c d3bf 3928 ae3b 4c58 ab3f
000000b0: aac5 9b8d d618 8f3f 0ce4 b0b7 2b30 9abf
000000c0: a9c3 f055 20a8 c13f aa43 b6b6 e9a0 b9bf
000000d0: 452d d0f3 cb14 a5bf daee 7546 ac54 b43f
000000e0: d4b5 d859 e083 b7bf 52f1 742f 2bee bfbf
000000f0: 7e9b c643 374a 73bf 2d66 0d4a 1d79 b43f
00000100: ac67 7837 afb5 c8bf e3e8 1c93 492f a2bf
00000110: 04d7 67ee 904e cbbf 5856 fa77 966c c63f
00000120: 2fe2 06ce d598 b2bf e27d 5a22 d0b9 ad3f
00000130: c972 303e 1e38 b5bf 1937 9611 4bd8 c03f
00000140: 82b2 4813 312e 673f 4dde 47c9 4c38 bc3f
00000150: dcec b9f5 8e26 c1bf b629 7c00 566e 7c3f
00000160: 2d68 1c6c f7bf 8d3f 20ce 7d45 7364 a73f
00000170: 2b24 d901 1532 85bf 0cc0 09d1 2ca0 a03f
00000180: 85f6 8703 0109 acbf 6c75 a16f 3645 883f
00000190: 87cc f07c 7f92 c8bf 781d b08f bcde b4bf
000001a0: ba01 4602 17ff cebf bc92 ef87 e756 783f
000001b0: 5a75 48de 1e8a bbbf 111c 4750 1165 d13f
000001c0: 5c17 6eca 75db ad3f 1bcd 62f9 1d5f b33f
000001d0: 02cf 52fb 67ec babf 3a14 cfc5 04f3 afbf
000001e0: 347d 303c ecc2 ca3f 56fa 1dc2 aeb2 bb3f
000001f0: 841c bb7e ff77 c0bf 4435 1540 f9f1 c0bf
00000200: ee60 4ce0 7093 c13f 9610 6df4 8661 99bf
00000210: 152d ff8d 7651 6b3f 756e 76d5 6080 c7bf
00000220: c1ca 8596 c7ea ba3f 8041 dfb2 ce5a b6bf
00000230: f2ae 31bf 9696 c0bf 7794 f1c9 90e5 c1bf
00000240: 4d25 a308 82f1 bf3f bb5c 20f0 babe c2bf
00000250: 4ce0 78f4 2bcf b23f 6f0c fdda 004a b13f
00000260: 142c 864a 3b97 ae3f 4620 8cb3 392b d43f
00000270: d022 e0ec f6d4 a03f adfd 22ed 82c4 bbbf
00000280: 318e 2b61 7d16 bebf ede1 3ca4 ae72 c93f
00000290: 7aa6 94f1 491e c0bf 3c4f e567 1458 7e3f
000002a0: 983c 2fa1 52ec ccbf 9e0c 74dd 3f83 ca3f
000002b0: 92d6 0cdd b240 c53f 1566 c8d3 594a 8c3f
000002c0: ab0b 50ce 3881 a5bf 9112 ae13 82b5 b43f
000002d0: bf94 ca89 0c60 c3bf 17ca 0e01 9109 bc3f
000002e0: b173 a60b 618b adbf 9c93 a2e0 362c 703f
000002f0: 9835 9e90 1b7b 913f d2f8 9dfc 68bb ba3f
00000300: 6885 4bc2 7930 bd3f 4249 0b2c 4363 663f
00000310: 7141 68b5 21b8 a23f 9fa6 e01b 484a a33f
00000320: 5587 1bdc 7a6f c73f 8038 993b a026 c0bf
00000330: 561b b5e0 44ff c03f bbb2 b0fe 730e 973f
00000340: 3d29 36be 0d9e d1bf c5a8 b899 c680 be3f
00000350: a34f 0153 a496 b6bf fbc2 b212 943b c83f
00000360: e00c 159f 5341 d0bf ecbd 608e be9c c7bf
00000370: 5669 4329 f9a6 b0bf 234a e8af 354e c03f
00000380: 9032 40ec 2e4c a23f bb73 f201 224e d03f
00000390: f2af 0ab3 d48d d03f 1214 8cf0 48bb ba3f
000003a0: f91b 82e0 5723 c13f fb34 b727 ac7c 98bf
000003b0: b5d8 b2ce 182c bf3f 0434 a4d3 3c7c b0bf
000003c0: 9a38 ba33 a306 d3bf ecda be32 45f0 cc3f
000003d0: 1c2e de7a 4c46 ccbf f278 c93c 91ef 91bf
000003e0: 5761 9c52 36f6 c03f 9da4 f2f6 a7fd b7bf
000003f0: d00c e368 f3ab d3bf 988a 0d6b a27c bd3f
00000400: ec90 f285 7c99 bcbf 36c9 eb8e a983 95bf
00000410: c593 70e0 6ec4 c33f 8fad 33e8 def0 b6bf
00000420: b134 b4c2 8339 a3bf 052d 0279 6698 aabf
00000430: 0769 e11a bc71 d1bf 3b5a 3bf9 1524 c03f
00000440: f631 f3f2 078e 723f dcb2 4479 d011 aa3f
00000450: c34b f0b1 05c6 c1bf fae0 4149 9bf7 ae3f
00000460: 7def d233 7339 a63f 24e5 2c38 6579 9ebf
00000470: 4aca 8221 3beb c7bf 49cd 6c82 cba5 b6bf
00000480: 027b e6ef 1a2c a73f 1693 fc7f b56a c8bf
00000490: 2dc3 8d68 d3cc a53f 4b18 f3cc 1ada b2bf
000004a0: 0736 eadb 1895 993f dd6a 62a2 ae3c aebf
000004b0: 9cd6 38f4 706c b2bf 3c3c 6f7e 073f c8bf
000004c0: a782 e2a4 c6f4 b63f ebf2 9a99 03f2 8c3f
000004d0: 7420 499c d7f5 cbbf f889 bbfb c648 b63f
000004e0: 7b2a 4173 26d8 b2bf c1fb 758d adf9 c23f
000004f0: f82c b439 819a cfbf ca4d fb27 d5a6 c3bf
00000500: 4e1c 76e4 6e09 c03f de8b c810 bbb0 b73f
00000510: 92ac bfbb f928 a53f 2cd3 09b4 865b a13f
00000520: b634 fcd6 30af d63f 1583 c1db 688d d33f
00000530: 1e43 d178 f344 ce3f bde4 c2fd d470 c43f
00000540: 4b2c 1677 a0da d23f 764b bfcb 3882 a9bf
00000550: 7bdf 512e 3404 b8bf 25f4 9f16 4ab8 a8bf
00000560: dfb7 45c7 75a3 b8bf 5822 0085 1a21 c3bf
00000570: f7ef c6de 6bfc c93f 4ce1 a113 122f 8bbf
00000580: 7c60 59c9 3c71 c3bf a260 7e4c 9c14 cbbf
00000590: bde9 25b6 438e d1bf 47da 20da 7808 c2bf
000005a0: 86a1 6f52 acc9 913f 5f43 40a1 573d a03f
000005b0: 72db 6a86 5124 b2bf 785d 7616 eaa1 b7bf
000005c0: d54c 334d 6a02 963f 2e62 cb51 e8ef b93f
000005d0: 1b0a e359 3dc1 a33f a521 4272 ec6e acbf
000005e0: b180 7ece c44e b03f 1f0f 79d3 5f61 9bbf
000005f0: b513 31fa 6f46 a6bf be75 148f e6b5 89bf
00000600: 3b40 efeb 2c71 d1bf 4c40 670d 4893 b3bf
00000610: f33c d82c 7b7f c7bf 5ed0 44f8 344b babf
00000620: 0419 34ff 435b 983f 799d 5e78 d71a bc3f
00000630: e9f9 a285 1a38 a2bf e56d b96c bc8d c23f
00000640: cdc6 8fb0 8aee 763f 3284 4848 5867 d0bf
00000650: 9049 8e33 c808 a9bf 5965 610d f02e 3abf
00000660: 3631 c87a 1e1b c0bf 5bf3 03d9 9150 bc3f
00000670: 753a b300 ab43 7b3f f682 1115 d61e a43f
00000680: 30cf 2962 a54d d6bf 8389 7ccc 0adb bfbf
00000690: f651 6f43 5a2a d4bf 5cf8 2518 aceb d53f
000006a0: ca29 87a8 bcfd a0bf 7a4a 2a85 3d91 cdbf
000006b0: 943c c16c 4dd1 d13f 248b 3bca cb42 c73f
000006c0: ba82 e05e c1c6 c83f 8270 6af4 6fb6 b43f
000006d0: f27c 489e 933c d53f 3d37 34b5 15ec 983f
000006e0: 9d67 f3d0 e167 cdbf b8b7 4f76 4450 a53f
000006f0: 0b3f e183 31a4 5d3f 45ac 30fa b41e d3bf
00000700: 0215 79b8 0dca 8f3f 96d2 5b36 0f73 be3f
00000710: 70b0 8fd0 091a a5bf 2f89 40d6 9632 b73f
00000720: aa6c 0e00 e1c0 aabf e1c0 3a3e df32 c8bf
00000730: eb22 3f27 817b a33f 360e d056 4f31 843f
00000740: f04b e4ff b77e a6bf d436 850c be3e 9d3f
00000750: 7ae5 6648 b157 c9bf 9ff8 d296 ca1e c63f
00000760: a8bb 6d19 e823 883f c82a 8ed7 71ea 9fbf
00000770: 17bb 0059 0d0a b4bf e6e5 5df1 5d37 9dbf
00000780: 8870 19d1 952c b6bf 0e48 dd7a bda0 ce3f
00000790: 6232 2ff3 6bd7 ccbf 32c2 90d0 7edd ce3f
000007a0: 724e f1e2 6e23 9cbf 7476 86d0 2080 b43f
000007b0: 1c48 ce38 58c3 973f bde3 66b5 88aa b53f
000007c0: f4b1 12b0 3288 c1bf 3b00 3b24 702f a2bf
000007d0: 9594 c9d9 30b1 c53f 8a8f 068e 098f b1bf
000007e0: 90c1 d7d3 355c c3bf c99d f5d1 3e7c c1bf
000007f0: 3ddd ef08 a24d d2bf b058 7edd 4072 c73f
-0.05451019083678003 -0.22517745369755526 0.031176561092315428 0.02875462298733176 -0.14750894569772946 0.15098049641206185 0.06289308128011002 0.01830566107563934
-0.223850502881953 -0.16800002928174554 0.03767534164973941 0.21442339599317595 -0.022106854272907064 0.05040728460141721 0.30464095064509455 0.09942499822526125
0.15252244237698967 0.04211658588361548 0.15665693159124816 -0.11803823998906195 -0.3064368738498447 0.05340803364295294 0.015184093662784576 -0.025574381910903596
0.13794330784142275 -0.10011158667317824 -0.04117429114566077 0.07941700668555587 -0.09185602372664131 -0.12472791584599932 -0.004709449651648321 0.07997305925291505
-0.19304456909668255 -0.035517024238701976 -0.21333514824771538 0.17518883569998667 -0.07264457969621028 0.05805826587060971 -0.08288754480640671 0.1316007457611981
0.002829643106699032 0.1102340690048262 -0.13398921011307763 0.006941162056828201 0.014526303278717812 0.04568824981006636 -0.010349430197623096 0.03247203876242119
-0.0547561947641784 0.011850762635897204 -0.1919707641660333 -0.08152369030005058 -0.24215972529419877 0.005942253511396597 -0.10757630278427169 0.27179367866159604
0.05831497284002182 0.07567012156032542 -0.10516977201296743 -0.06240096010837033 0.20907357157646234 0.1081952308577255 -0.12866204917938628 -0.13238444928212278
0.13731203987186497 -0.024786099117833325 0.003334743072604627 -0.18360529349307667 0.10514495301121497 -0.08732311121935332 -0.12959560714386203 -0.1398182855656704
0.1247788687789086 -0.14644562458918195 0.07347368925627612 0.06753545137785165 0.05974755558698788 0.3151382687942753 0.03287479058787357 -0.1084672764727574
-0.1175306665641578 0.19881232280182762 -0.12592434211665077 0.007408218107531724 -0.22596199865663347 0.20713041604185362 0.16603694718803702 0.013813688064192179
-0.04200150984254177 0.08089459400623357 -0.15136868217556373 0.10952097202133647 -0.057704003021377466 0.003948416104468413 0.017071181012899922 0.104422151254741
0.11402092927484875 0.002732878871350015 0.036561063188972016 0.03767609920789749 0.1830895972007577 -0.1261787692078009 0.13279019329112413 0.022516071720178426
-0.2752718312773544 0.11915246251070062 -0.08823611284725401 0.18931818879129722 -0.2539872220551853 -0.1844709582523899 -0.06504781014829084 0.12738677109935378
0.03573748239441443 0.25476885023254753 0.2586566685156405 0.10442024109586637 0.13389109098736166 -0.023913087772418056 0.12176661535599716 -0.06439571539904426
-0.2972801213408133 0.2260824678212069 -0.22089534758957619 -0.017515439353126667 0.1325137999890653 -0.09371423510551087 -0.3073700451170227 0.1151830207213983
-0.11171701688960284 -0.02101006445713801 0.15443216284725572 -0.0896128956698503 -0.037548177259034594 -0.05194397189287695 -0.2725668203835458 0.1261012522652026
0.004529982615349306 0.05091716270758237 -0.13885565937434138 0.06048283833746555 0.04340705878845961 -0.029759961656258174 -0.18686617981218695 -0.08846733030514033
0.04525837114782939 -0.19075649976107262 0.04257832194605835 -0.07364051345493398 0.024982822821177943 -0.05905671818000766 -0.07196718180133604 -0.18942350076255987
0.08967248464115106 0.014133480191384126 -0.21844000941405606 0.08704799314322276 -0.07361069024879356 0.14824456603306937 -0.24690261190003304 -0.1535288281653336
0.12528787761059096 0.09254044685125914 0.04132824341635301 0.03390141437276947 0.35444279665609757 0.3055059572271131 0.236479219429861 0.15969335928619968
0.2945939219432076 -0.04982163893841733 -0.09381414538245096 -0.048281016599482286 -0.09624420275733268 -0.14944774145284856 0.20301578882015267 -0.013273373817569344
-0.15189323264599242 -0.21156648383180704 -0.2743081358709352 -0.14088354731366534 0.0173708844485261 0.0317180046405443 -0.07086667567896912 -0.09231436775586654
0.021493588411271986 0.10131694790778376 0.03858367655040614 -0.055533780047940774 0.0637019161354171 -0.026738641054421138 -0.04350614480112062 -0.012553979150250135
-0.2725326828049252 -0.07646608664731608 -0.18357791604692117 -0.10271006642580136 0.023785650683771045 0.1097845715399809 -0.035584286511482884 0.14495044049077346
0.005598584896675707 -0.2563076692477494 -0.04889512662261375 -0.00039952622080859573 -0.12582760806288612 0.11060439632633516 0.006656330089028208 0.039297761985613563
-0.3484891375185155 -0.12443606846185244 -0.315084997038212 0.3425092922042319 -0.03318585927225433 -0.23099488260466555 0.27839980717266966 0.18172595381391787
0.1935655320421768 0.08090877263242827 0.3318223043188048 0.02433809202653169 -0.22973272993732233 0.04162801689368173 0.001809166292804978 -0.298749203039453
0.015522105400246126 0.11894316746822606 -0.041214281758443216 0.09061568003429409 -0.05225279927909672 -0.1890524915556915 0.038051639595840424 0.009859676205457562
-0.0439355373256588 0.028559655679876908 -0.19798866305590562 0.1728146778531867 0.011787236476917887 -0.03116777303834331 -0.07827838347359904 -0.028531520706996626
-0.08661781649556322 0.2392804002689108 -0.22532414793240024 0.24113450225697047 -0.027478916741826294 0.08008008089969981 0.023206118075513968 0.0846333926082385
-0.13696893307987035 -0.03551817362085826 0.1694699347891954 -0.0685888263456588 -0.15125153392683588 -0.13660416843343473 -0.28598833916426597 0.18317423644174857

linear_out.bias f8 [50]
00000000: 5c4d e8c5 1d7b d1bf bd0c 7916 49ed d1bf
00000010: 7756 9265 1310 d3bf 58df c59e ac58 c6bf
00000020: d52b d5bc d29b b5bf 9343 f869 8439 c3bf
00000030: d96f 82fe 6a28 c0bf 5535 58fb 0197 71bf
00000040: a83d 6aa7 bb90 9c3f 477c efc2 ff04 79bf
00000050: 6155 e903 f9c8 bfbf 5814 91ac c35e 96bf
00000060: 3676 d124 d1cb 833f 5b72 3049 072d 25bf
00000070: 737d 3800 d918 b2bf 260b 49f7 0111 ba3f
00000080: 5d21 5908 c7f5 b43f 8edf cb72 cf49 72bf
00000090: 17a8 b225 23eb aa3f d6a4 78b3 b1bc b53f
000000a0: 409a 2ae8 734e 983f 72b5 bce5 6f3c c0bf
000000b0: de10 7e5b 0bac bdbf 32d3 6220 ada0 bebf
000000c0: d8b0 1a6d fc89 c1bf c070 cb13 0952 c3bf
000000d0: d84e 4cd7 57ff c1bf 680e 86c3 03f2 c5bf
000000e0: 4a59 e1ad 990d a5bf a0bd 0a2d cb32 c4bf
000000f0: e882 4f35 ce55 acbf c70a 16b9 42c0 babf
00000100: 2021 82cf 9bde ac3f 9b9e 26b5 11e5 9bbf
00000110: 0bc9 52bc 58a7 95bf 4732 3612 077a 91bf
00000120: 57a3 384c e555 5c3f 6b1d 0477 25c9 a03f
00000130: 4595 b1c9 12ff bf3f 8434 ac53 7638 8a3f
00000140: 0d77 fe9a 8a2e bc3f a47d a7aa e8ae c53f
00000150: 1a47 1d7e cf3b a53f 6bcc 060b 8e1f d03f
00000160: 7f6d 1be8 7190 a63f 9f11 a126 2f81 c63f
00000170: a758 db77 e9f5 ce3f a192 d46d 3882 cc3f
00000180: b1cd fa9f f378 d03f 0269 b8b1 b6d2 be3f
-0.27313942267320157 -0.2801077575169975 -0.2978561870489566 -0.174581124807214 -0.08440892324612943 -0.1501927869253704 -0.1262334578249227 -0.0042944028296124275
0.027895862668228993 -0.006108283107976459 -0.1241603502797566 -0.02184587231410648 0.009666093765356636 -0.00016155923785356432 -0.07069164519679365 0.10182201659430898
0.08187526658833151 -0.004464922280696627 0.05257520518473784 0.08491049415228544 0.02373677353412007 -0.12684439389833418 -0.11590643867208736 -0.11963922539400754
-0.1370234997497224 -0.1509410235074764 -0.1406049538860461 -0.17144820258191662 -0.04111938712655901 -0.157800099366324 -0.05534214401973775 -0.10449616450027142
0.05638586910305521 -0.027241017037936115 -0.02114618920740789 -0.017067060934595337 0.0017294635043844841 0.03278462484200414 0.1249858610550137 0.012803005627143323
0.11008516582520773 0.16940029461600858 0.04147194303972253 0.25192595555126357 0.044070777495757156 0.1758173884028453 0.2418796382177721 0.22272401202021277
0.2573823034574288 0.12040273512721814

layers.0.weight f8 [50, 50]
00000000: ce28 2a53 81a8 d7bf c126 d547 4186 b8bf
00000010: c18c 1fee 1fb0 d0bf e030 475f 7fbc a5bf
00000020: d103 eb96 b4fe b3bf 95fa b210 5744 c3bf
00000030: f7f2 70c7 04f2 c0bf ad1e 87ec 0c8f 94bf
00000040: 6a54 389d 6638 b93f f8b3 4130 8d61 c5bf
00000050: 196a 796f c125 b53f 7fd1 8471 2f4c d0bf
00000060: ff25 4ce5 5caf bebf ec07 2e1b 6eda b23f
00000070: fc00 414a 86b4 b8bf 0084 80d3 3bd0 bf3f
00000080: 59f0 19bb 9513 c9bf c585 ab5f 8696 c63f
00000090: 40d8 4d10 6f1b bc3f ee28 69a2 89de cfbf
000000a0: 2c60 b6d6 ba1b b43f 63ce ed97 472f d63f
000000b0: 3478 1952 5839 c4bf 3756 55e6 6ee0 c0bf
000000c0: 6570 52b5 ada6 bdbf ca8e 662f 7598 ad3f
000000d0: 79a6 c07f 638c c7bf 961a df2f 421a b2bf
000000e0: 35f3 164c 5c4b 983f 7309 924c a58b d03f
000000f0: 6565 92fd af14 ca3f 6f90 9665 e8d9 be3f
00000100: edb0 5f0d bb73 9abf 7949 04cd fb96 91bf
00000110: b44a c819 2cc1 d53f c243 ac16 a122 d0bf
00000120: a72e a9a0 7b09 b6bf fb5e 9bc1 610b 7dbf
00000130: 1e25 a130 f373 c9bf 12ef 564d adca d23f
00000140: 783f db8a 29a2 b6bf 35fd 26ca c8f8 bd3f
00000150: 4d1d 80d1 156a d23f 9914 eba8 464c bbbf
00000160: 1468 4d5f 04d6 cbbf 0d8b d9ba 3a5b a6bf
00000170: 9d7d 604e 7244 a03f 9a6c 748d 8c09 433f
00000180: 00a2 0bb1 6fe3 dcbf f2d2 5ab0 f5c6 983f
00000190: 0160 7e78 3a07 d6bf 950b 6cff 895c 313f
000001a0: 9afa 0501 a04c c2bf 95ea 2213 1d0c 60bf
000001b0: bd83 28de 807f cfbf 87c4 ac78 25a8 c4bf
000001c0: 525b 4e22 7066 cb3f eb11 1344 7e4b d33f
000001d0: ac8c de3f f304 bd3f b76c 8ef1 664f c7bf
000001e0: 6555 45fb 7670 bf3f 0338 8f96 642f c33f
000001f0: cf08 a3df f08e c2bf f6ba 04be 7f10 d73f
00000200: 886d 9c96 8409 bc3f c886 2dd8 271d ca3f
00000210: 661f 502f 20b4 d13f 8447 5975 7639 cfbf
00000220: 3cfa 3621 d61f ce3f e8e6 ad45 58e6 abbf
00000230: f1f7 3c1a 0659 d8bf 83d6 47af a67b b83f
00000240: e08b c12a 8d59 c8bf 7abe f1e1 17e8 d1bf
00000250: 7432 6f39 3a18 dbbf aa61 52d2 ec41 b7bf
00000260: 06e0 8ba7 5c33 abbf 9f4c dc69 0b0d a93f
00000270: 7d5e 5809 b5ba b8bf 25d3 9323 37f0 b6bf
00000280: bbfd b7b3 b8ce b5bf cf98 0aba 1ad4 d23f
00000290: 5f68 3ea5 1584 a0bf c6da 9c50 a0a6 c73f
000002a0: 32ec bb5f d676 b63f cf2c 9a81 a33b c9bf
000002b0: bb60 2043 960e 913f 26ce 3d5f b571 cb3f
000002c0: c93d 8a96 0bb5 b2bf c9e8 d9bc 8788 bb3f
000002d0: ea41 ee34 5090 c83f 6b1f 00fd a3ed 9bbf
000002e0: f45a dd58 9a5b 9a3f dd95 dbab 9f52 bbbf
000002f0: 91af fc43 e635 c93f f611 f889 569c c83f
00000300: 0d70 54c7 3957 ca3f 9f3d 8c4a 409e d93f
00000310: e4fc 0f37 6f8f c3bf 0401 e18e 9b5f b1bf
00000320: e21e 74b5 bf9a c9bf 246b 21e5 51b8 b1bf
00000330: 67f4 d2a3 2ff4 b5bf 5ff9 2d9f 7fcd c2bf
00000340: 8f84 8e36 6bd9 ca3f aa77 e4fb 54cc cc3f
00000350: 8d8a c7c6 a106 c5bf db00 6eed a367 babf
00000360: 24fa ab5d 375d b63f 7378 3c36 37f3 a33f
00000370: d81e 6dad 3da1 a4bf 9beb 7011 0288 c7bf
00000380: 18a6 0174 2b31 acbf c1ab 4a08 001a 6fbf
00000390: 4fce bc01 b48c d5bf 3ae4 7851 693d c1bf
000003a0: fda0 0714 1ebe cc3f a285 46e8 6460 b83f
000003b0: 1f92 a415 bf49 b5bf 5daa bb59 0cfa d0bf
000003c0: 9d15 6af9 b8b3 ce3f 9d57 ef0e 5aba c63f
000003d0: 4ea9 219b c9bb b63f 64d1 e356 d763 a9bf
000003e0: 0566 a98a 70c6 a13f b1b1 9e4a 89f9 c4bf
000003f0: d952 c5dd 93fb c7bf a65c 21af e62c c4bf
00000400: 5d88 80e3 6a34 abbf d9bd 4c67 255f 983f
00000410: 393f 4a5b 30d7 b63f 9f1a 1ad8 46d3 b53f
00000420: 180e 415a 59a9 af3f dd35 e6ef ccde 923f
00000430: 713b 3c10 a976 b23f 7586 dda5 8010 a6bf
00000440: 8c9d ca94 2f2f 54bf 2b50 dc42 01e1 c23f
00000450: 89eb 179e 400d 83bf 01db e03b f1d0 af3f
00000460: 79be e586 9342 b63f 1d9d 769a 3534 a73f
00000470: 4d07 5d2a 98f1 c83f 9cce 7660 4414 c3bf
00000480: b6ff a7ce c776 cabf b147 3c1a 05f8 d5bf
00000490: f0ce e146 446e 8c3f 596b edf7 39cf c63f
000004a0: 7a1b 9884 bbb8 d3bf 8631 e5b1 6e1b ca3f
000004b0: 0f73 397c 04a4 c8bf 17d3 5863 3e48 cabf
000004c0: c1c4 aa13 577d be3f 0b44 922f 7ed8 b13f
000004d0: a82a 5877 de04 a93f dde9 355d c227 ba3f
000004e0: 12f3 22b5 eb6e d03f bb64 1af8 d306 ccbf
000004f0: 7437 ce52 24c2 b33f 0cd9 f882 eb81 b63f
00000500: b3e7 8dad 4978 683f c485 d754 58c9 aebf
00000510: 543d 2853 d51e b33f afd9 81b9 c307 823f
00000520: f852 5ecc 3c17 aa3f 0649 73d0 0af8 be3f
00000530: 9c86 d5b3 1e6f b13f d8ae 45d9 4aeb d13f
00000540: 8163 caa4 6c1e c7bf d7d9 d346 a915 abbf
00000550: e730 8def 88cc a8bf 7831 aa09 34a2 7dbf
00000560: cd5b 91b7 ae61 ca3f 44e5 a307 9f95 ac3f
00000570: b54d f5fc 792c b63f 10d3 3c1c 0eb7 c7bf
00000580: fb9a 3002 05d4 cebf 5bab e1b2 7052 bebf
00000590: 64d8 cfc9 ebf4 b8bf ff27 5cd3 105c 91bf
000005a0: 2a14 3284 2315 bbbf 700b b414 c50c 8bbf
000005b0: 4543 2711 0532 943f 7bdb fb06 d73e c2bf
000005c0: 4dc5 8974 eb66 c23f 33ba 993d 7ac7 8f3f
000005d0: f776 c4cd 3e28 d63f d5d3 adbc e659 ccbf
000005e0: ec68 4404 ec17 c33f 2d53 b1e5 fa62 b1bf
000005f0: 92f8 4332 b0df a4bf 067b 6e05 ad81 b0bf
00000600: 118d b837 413f b93f 2ffb 2d42 59b1 bb3f
00000610: 0a79 1de0 c084 96bf 75d2 80f5 abdc b6bf
00000620: 6723 4d4f 572f b8bf 9dff 590f f886 c6bf
00000630: d53d af0f 9003 c5bf 56c6 6f51 5b4c 983f
00000640: 455d e8de b7ef 83bf fba8 673d 524c 8d3f
00000650: 6cf6 aa64 6403 a9bf e558 0c28 971f c53f
00000660: a099 a800 e583 a9bf 7728 8f07 acf1 95bf
00000670: 70c2 ff12 c014 b83f 253e 70d1 661d b4bf
00000680: ec07 bbf5 8858 d3bf 818a eaee 1a46 9b3f
00000690: 7833 a176 bf03 bf3f 0a42 fe21 9e72 c03f
000006a0: 56cf 7349 86bd ab3f 837e 8738 6535 b93f
000006b0: 577b 0077 1630 a53f 027a b565 a0e4 9d3f
000006c0: d297 1e73 3768 a3bf 1b43 46f4 60db c6bf
000006d0: acb0 bad0 1650 b13f c81e b1b0 9f85 bd3f
000006e0: 14c3 3a4e 78c9 abbf 611f 2701 0027 99bf
000006f0: 5ba3 c37b 6317 c6bf a6f1 b3f7 c96a a83f
00000700: d3ac 5618 b87a a0bf 6ba3 f46e 9e53 c33f
00000710: c306 3c43 1453 65bf 41b4 8425 f0d9 cd3f
00000720: e76b 195e 51bc b9bf b520 9f92 d940 6c3f
00000730: 65ac 4405 4091 59bf e82c b752 4540 ba3f
00000740: 6f2e 9025 7b1e c13f a8ad 0bb4 918b 80bf
00000750: 0e75 8539 296d b8bf cd8c 21ac 5403 d9bf
00000760: 1da7 1e0e 7c21 cc3f 5a8b 1cdb aec0 cc3f
00000770: 606f 04bc 0446 c7bf 714d cdb8 c49d aabf
00000780: b1a1 c3d6 d235 8bbf de1e 7d9d 821e b6bf
00000790: d555 f4fd 71bc b3bf 3995 cbdd 0bdf c7bf
000007a0: 5cdc 2c9f eae6 85bf 1ad9 31e4 863d bd3f
000007b0: 71ff 0e0b bddf 9b3f dbf0 dddf b572 b9bf
000007c0: e5a7 ee22 3945 c63f 4a16 8c78 0d86 973f
000007d0: 71fb f7a5 e042 d9bf 2148 c31a 4c95 cdbf
000007e0: 9d85 1fa9 9cfb a33f cff0 2c4c 5f90 a63f
000007f0: 1059 ab22 d7cb a13f a32d 783e 4e45 a1bf
-0.3696597396998528 -0.09579856876112115 -0.2607498002455025 -0.04245374715864769 -0.07810524639627593 -0.15052307429683212 -0.13238582361545756 -0.02007694429064937
0.09851685846690975 -0.16703953605920652 0.08260735484638139 -0.254649983270859 -0.11986332510073082 0.07364547885484257 -0.09650458634223819 0.12427114404319184
-0.1959101832943613 0.17646865531336978 0.10979360721634723 -0.2489788096448317 0.07854812376024317 0.3466357215577089 -0.15800003060115986 -0.13184915777917336
-0.11582456280524552 0.05780378535862736 -0.18397182214657784 -0.0707131735681322 0.02372497763075217 0.2585232970960966 0.20375633126676998 0.12051250915698274
-0.025832102481147357 -0.017177519214848645 0.3399152995854522 -0.25211360181952724 -0.0860821978796432 -0.0070909327129908785 -0.19885101198659866 0.2936204200047864
-0.08841189994859444 0.11707739768370547 0.2877249284651569 -0.10663262962323684 -0.2174687829345322 -0.043664775189219275 0.03177220541715118 0.0005809723178659299
-0.4513816098174459 0.02419647110828555 -0.34419118658979647 0.0002649151714850193 -0.142963409900365 -0.001958901201843342 -0.24607859466143892 -0.16138142006233044
0.2140636603841935 0.3014827408590281 0.11335678395566856 -0.18211066050284838 0.12280982622663357 0.14988381721053665 -0.14498721046226712 0.36038201862804387
0.1095202319815397 0.20401475959356774 0.27661900158317676 -0.2439411232940608 0.2353465711766648 -0.05449176645829629 -0.38043358385391374 0.09563676623641908
-0.19023289287278455 -0.27979085030435835 -0.4233537255175073 -0.0908496869545902 -0.05312623543971999 0.04892764727824183 -0.09659892538217636 -0.08960289591398103
-0.08518556964553785 0.29419582527260685 -0.03225772516380298 0.18477252899329794 0.08775081479318272 -0.1971325285743206 0.01665720734317298 0.2144076075597791
-0.07307503152173135 0.10755203590989305 0.19190409264093883 -0.027273714367793838 0.025740062402600253 -0.10672948785539611 0.19695738143616073 0.19227105843323472
0.20578691704656685 0.40028388290462574 -0.15281477154346768 -0.067865106947469 -0.2000350605014694 -0.06921874851233817 -0.08575723409281154 -0.14689631721916904
0.20976009525205483 0.22498571681438523 -0.16426489072826592 -0.10314392611144589 0.08735986744793728 0.038964963312751254 -0.040292670650669826 -0.18383813716522188
-0.05506263533682104 -0.003796577513943217 -0.3367128388374327 -0.13468662717949248 0.22455192544953909 0.09522085829532626 -0.08315653112783437 -0.2652617336558814
0.23985969713627933 0.1775620053219286 0.08880291020765194 -0.04958985267322438 0.03471709911964286 -0.16386524337339162 -0.18736503914501304 -0.15762027312550692
-0.05313428904652604 0.02380045359603664 0.08922102192650251 0.08525507713248225 0.06183890558943633 0.01842804159382704 0.0721231140744132 -0.043094654319031735
-0.001231953111678982 0.1474916054218068 -0.009302620720509374 0.06214097839295186 0.08695337336916421 0.045320201020610386 0.19487287586712868 -0.14905600271378183
-0.20674989309918396 -0.34326293527658 0.013882192052029535 0.1781990490515806 -0.3081501765122351 0.2039621704701739 -0.19250541749615777 -0.20532970286299054
0.1191000388160033 0.06970966969880991 0.048865272587211905 0.10216917777680785 0.2567700642501204 -0.21895837416085392 0.07718112012500261 0.08791992137489418
0.002987045194854121 -0.0601298907820467 0.07468922882275325 0.008803872202616995 0.0509585380051813 0.12097232426757296 0.06810180559616658 0.2799861070441074
-0.18061597868361548 -0.05289963712305095 -0.04843547748768789 -0.007234767219994935 0.20610603297492816 0.05582901924385422 0.0866161577771923 -0.1852738988760838
-0.24084532362868302 -0.1184454380724395 -0.09748719861076577 -0.016952765369786956 -0.10579130151207097 -0.013207950300516663 0.019722060367544775 -0.14254272309309698
0.14376586141910722 0.015517191891572945 0.34620637983776653 -0.22149357045023402 0.14916753967629093 -0.0679165659688123 -0.0407691060408847 -0.06447869665724335
0.0986214409863815 0.10817487588608964 -0.021990789107229104 -0.0893046831486773 -0.09447236715381067 -0.1759939265211842 -0.1641712261757521 0.02372877773809131
-0.009734570016958552 0.014305727480821142 -0.048854005135109485 0.16502656417350817 -0.04983440049209098 -0.02142971798074497 0.09406662429661039 -0.0785736333202683
-0.3022787475312032 0.026634617645536544 0.12115093847496705 0.12849785480331405 0.05418033262858894 0.0984709990511821 0.04138250544223492 0.029192453582590268
-0.03790448456065544 -0.17856990745033205 0.06762831302575262 0.11532018722311499 -0.05427146868658475 -0.02456283576046248 -0.1725887636487425 0.04768973492352595
-0.03218627259351483 0.1509893457198602 -0.0026030917887290574 0.2332134421534722 -0.10052975222917802 0.003448891588934878 -0.001560509224030304 0.10254319447919935
0.13374270757809678 -0.008078707034164648 -0.09541566519097364 -0.39082829293893157 0.2197718686050444 0.2246302194481256 -0.18182429485829754 -0.051984927710374225
-0.013286254099924873 -0.08640304894390335 -0.07709419679698411 -0.1864943345055197 -0.010694344504015678 0.1142200762859357 0.02722068195339439 -0.0994065925169169
0.1739875240867256 0.02297230766546069 -0.3947068806445975 -0.23111869150903977 0.03902902187816013 0.044070222901127935 0.03475830362519805 -0.03373188507620319

layers.0.bias f8 [50]
00000000: 7d73 0b54 d019 c13f a83a 7e2e aa36 c03f
00000010: 0b47 162a 5efe b73f b0bd eb4d 95e3 9ebf
00000020: a372 e754 8030 ca3e c022 8d02 c48d b33f
00000030: 79a6 ecf4 8f40 40bf 44ca 4a25 bd7f bf3f
00000040: f554 7a74 29ff afbf 81a8 7af3 cdf3 62bf
00000050: 5608 85ee f4d0 b33f 7e57 091f d664 bc3f
00000060: 7806 1fb0 ed67 acbf 51de f6e7 3b70 b33f
00000070: 6672 71ec 3541 b23f 3910 d970 5c7d 88bf
00000080: 6001 fee7 f43c c43f ffd5 8454 6466 ba3f
00000090: 65e5 1e1e 08be a43f 135e fdd8 ed6d b33f
000000a0: 72ca d405 1f52 b53f 9568 99a6 2f3d a83f
000000b0: 5e6b f15c 3fc3 a2bf c9b6 a76e adb2 bbbf
000000c0: 210b 6cd7 3eb4 b33f 63f2 6886 da29 9d3f
000000d0: f400 cbf3 a0b6 b73f a2b6 64b7 3e61 a03f
000000e0: 303d ef98 046c c13f 3e9f d0f8 47c6 97bf
000000f0: 7e76 c33f c059 a63f 5650 8227 2619 b23f
00000100: 0a77 8d5f f1c1 b43f 8cf0 adf3 18f3 bdbf
00000110: c2dc 36cd 9699 c13f c038 8211 c577 8b3f
00000120: 0ad6 198c a987 b83f 7991 fb4f ebfa 98bf
00000130: f519 6e15 2e0a bb3f 2f1d 54f5 4399 b63f
00000140: 7c8b 21a3 3a11 bc3f d018 57d0 f6a6 c03f
00000150: 03ed b758 dc32 8ebf 642a c37a aae8 babf
00000160: 1c3e 0a0b fd5f a13f d8b2 21d4 8a26 a13f
00000170: 4843 8ec3 48e1 82bf 7799 49c2 3c49 b43f
00000180: 4a2b 71e4 d20d b5bf bb4b 4ff2 4b5a b23f
0.13360027412172917 0.1266682364480023 0.0937250950576322 -0.03016503608790594 3.122026704034603e-06 0.07638192236221197 -0.0004959776796102509 0.12304289017155506
-0.06249360606049407 -0.002313520668242808 0.0774071771930108 0.11091364152647817 -0.055480411290329934 0.07593130505744596 0.07130753538644682 -0.011957857316822739
0.15811024978394084 0.10312487662744017 0.04051232688602616 0.07589613483047968 0.08328431980479836 0.047341813170264015 -0.03664587029989862 -0.10819515182057694
0.07696907767607943 0.02847997136471959 0.09263044311501628 0.03199192036332234 0.1361089464903471 -0.02321732002397358 0.04365349558223118 0.07069624390197879
0.08108433325602618 -0.1169906229897057 0.13749966640691552 0.01341203651125189 0.09582004232819244 -0.024394680744892015 0.10562408469386482 0.08827614535777138
0.10963789446536326 0.13009534046995563 -0.014745446641418974 -0.10511270043495241 0.03393545875325918 0.03349717940804958 -0.00921875807560614 0.07924251311633222
-0.08224218442152878 0.07169031778111805

layers.1.weight f8 [50, 50]
00000000: 7f21 dc67 78c8 d2bf bd27 c12f e010 afbf
00000010: 2012 225e 9e3e a5bf 24ca f93f 6bdb ab3f
00000020: de2b 9b44 21ec 82bf c5eb 7ed6 66ff 90bf
00000030: 7a00 2840 b828 7bbf 0e43 1b4f 7d46 d4bf
00000040: 79c0 9c8c 9f67 d33f 313d f6fd 918d 8fbf
00000050: 75e3 361f 49ac ac3f 310e 8e9e 4180 b0bf
00000060: a69f f643 8e54 c23f e9e0 5df6 28f1 963f
00000070: 8cad 2d1d c59b c3bf b680 ac6c f443 cc3f
00000080: e5e0 84cf caa3 86bf 43d9 1cc9 8936 c43f
00000090: f7f5 8a48 7f0e a73f 0a31 12d3 de42 81bf
000000a0: a380 57b2 a09b d0bf b323 7555 4f9e c1bf
000000b0: 1f9c 883b ba25 533f 5dc0 bbae 1798 d43f
000000c0: aa7e 9b02 d10e d03f 241d 083e 6f0b 913f
000000d0: 78cf 701f f1dd b03f 68b8 b94e 9431 d9bf
000000e0: ee0b 56a9 febc babf dd48 2192 a22b b73f
000000f0: 9917 dd61 adc8 ae3f cb97 2fd7 a661 9abf
00000100: df24 e769 3ba8 dfbf b84f a374 03aa e13f
00000110: a4b0 63f7 4e5e c8bf 478a 9d7b 4e1d d1bf
00000120: b87a 9249 338e 9a3f b262 a2d8 099c c2bf
00000130: c470 89b9 48d4 b4bf d312 e0ac e152 ce3f
00000140: 8753 93ad 3260 9cbf 9f7f ccc5 6108 c9bf
00000150: e614 9678 de20 a93f 5ffc 8a22 a7f6 c43f
00000160: 26cb 4ab6 967d c5bf 725b 5e50 968b b63f
00000170: dcbb c2a3 5dd4 ad3f bdef b420 2636 cbbf
00000180: 14a3 d7d4 2205 c9bf 1745 a44f 6885 c5bf
00000190: e27b 84db c115 a8bf 15e3 444d a38d dd3f
000001a0: 0077 25be 1de3 c7bf b2d0 7d02 8f6c babf
000001b0: b002 7cb3 87bb d13f ca40 c886 d608 b2bf
000001c0: e928 547b 2cd5 c53f 03f9 3d70 1857 c9bf
000001d0: 2da3 d6c9 55f9 50bf cf18 6844 54e5 c1bf
000001e0: 71e8 754e 0e70 d4bf 98c3 9ffd b37c c03f
000001f0: 6ac0 63e9 88af d43f d80c 7c83 916c d83f
00000200: 6cbb 5d47 f8c2 cebf 1e62 f079 22af c03f
00000210: ae18 3e01 651d 8c3f cc91 7f64 0780 cb3f
00000220: 1b8d 030f f2cf d73f 8ca8 88ef 5621 cc3f
00000230: b484 3fca 7b5b cabf b7de 2087 d0b1 c73f
00000240: 7931 baa4 17c2 c83f 2aa3 31e3 798c c13f
00000250: 760d 7b39 a73b 5ebf 79f3 7d15 d547 b43f
00000260: 8cf4 9fae 686f ad3f ec5e 4463 1931 80bf
00000270: 64b0 659e 3c8a b93f 150e 2376 fc14 cabf
00000280: 24cd 2f12 d330 d23f edcf 0f6d 6196 c33f
00000290: 3b20 d990 742c c23f e2cb 4195 c248 893f
000002a0: 9748 0359 8127 ccbf c2f0 c435 f88f 883f
000002b0: 9526 be6d 2943 843f aa1b fa30 c5cf 963f
000002c0: afc5 52a6 ab8e 963f 0139 a8d7 58bc 92bf
000002d0: 7dd2 6914 e3b0 6bbf ce5d c446 80c6 873f
000002e0: 67e7 b265 0e6f c1bf 385e 248e a5d1 c2bf
000002f0: 4ab4 6fb7 7ca9 a23f 1895 2f39 2352 d0bf
00000300: d9a7 4c3e caae c0bf ba5a c478 fcb9 9fbf
00000310: a0c4 b066 198b b0bf 550c 4143 6257 a03f
00000320: 9c8c ab26 85a4 d43f 697f 6e3c 359c c3bf
00000330: b928 6032 8c89 c53f 6298 77b3 ee0d c33f
00000340: 508b a83d e202 b13f 8509 8e13 d838 c1bf
00000350: dc23 e3d1 9b48 c1bf 33aa 7be3 3d7f cd3f
00000360: 9ea5 e945 cc1a d3bf 274a 7217 f4d6 d83f
00000370: de0a e96b dac0 cf3f 044e 2c5e 9a51 c83f
00000380: 2420 da1e 7b56 c5bf c318 f133 32ff b9bf
00000390: 23e2 4c29 14e5 d13f b400 c0cc 041b d6bf
000003a0: 79e5 60d5 b335 ae3f 9c4b 39f7 710a bbbf
000003b0: 58b7 181f 1e6a cabf 412b bf4e 4f2e bebf
000003c0: 820f fa96 e5b5 c5bf e986 abfc 49bf c63f
000003d0: 4e67 4749 dc13 ae3f 5fcc b1e3 863f dbbf
000003e0: 7377 279d 3440 cbbf daa4 5e99 5e35 ccbf
000003f0: e501 27fc 7cb3 803f 5955 f158 95d9 943f
00000400: ebf8 a01b 552f ae3f bb16 8228 7aa5 b53f
00000410: 5075 7e3e 3acb aa3f 99be 8cd3 3a19 ba3f
00000420: c921 c8bd b6ac b23f 6e44 1eed d5c3 c6bf
00000430: bf85 ab00 c768 ac3f 7cf1 b8c3 4bc5 bb3f
00000440: 6846 5b03 881b c93f d942 9f8d af3e d43f
00000450: 1190 f6ac e71e d53f b62f ae67 0107 c83f
00000460: fd1c 7339 29a3 d43f 65a5 5688 ea19 b33f
00000470: 74cc 4dbb ac05 b03f 5dee 29a1 1571 d2bf
00000480: 5619 4cf0 9693 c6bf 6583 0739 3e31 d73f
00000490: f73b edf6 5cbd a53f 5b80 1b8e ee1c b2bf
000004a0: b06a 95e7 d891 b53f 60d5 46ed 842b d13f
000004b0: b962 c5e5 af7b d03f 552c cae5 dde6 cc3f
000004c0: c752 caea b149 ca3f 9982 f7a6 6db2 c4bf
000004d0: 7fac 49aa ebc8 c5bf 45ff 99a1 f728 993f
000004e0: 18bb 3da5 3531 d23f bb9b 81d3 f71a d43f
000004f0: 101f 4709 505d d3bf e84c a307 721e ae3f
00000500: e574 ce16 9a09 c83f a904 8b5f 6594 c73f
00000510: 7b2e e527 584d d3bf c4fd 1db5 6d06 923f
00000520: 6146 4a4b 3f48 c63f b7f3 a29e f606 d0bf
00000530: 38a3 cd1a 067b c8bf bdcf 7ffc f495 b53f
00000540: 24e5 1f07 6371 c03f 7db3 8a8c c363 c33f
00000550: f111 94ee 5e89 acbf 8e01 0692 f1e3 a63f
00000560: 9b63 d6d1 e458 c43f bddb be5a 1e3c c43f
00000570: 63e5 13e7 4cd8 9e3f dfab 8e30 b608 923f
00000580: 47cc fd45 cf8d 903f fbe5 e931 4be8 c1bf
00000590: 47dc 4714 99fa c23f 76a2 d7a0 bf51 b03f
000005a0: e0ba b87c da60 9fbf d40e 8bf1 c625 b4bf
000005b0: 5a9d 59ae 1326 be3f b83f 62bd efb5 d0bf
000005c0: 08cd cefd ed0f cb3f 4b7e b35b 40b8 a53f
000005d0: f730 0706 ba4c d33f a033 4975 573c cd3f
000005e0: 16e7 730f bb76 b93f ab84 4840 f623 923f
000005f0: 1fce a326 c8ba ca3f d9b3 a19e 8b4b c13f
00000600: c92b 58d7 0a9a b4bf 27e7 38f9 0566 c0bf
00000610: 3058 2bbf 6588 cabf b924 410b 3205 c13f
00000620: d486 b0bc 7fe8 cbbf 7d17 8d11 a568 d03f
00000630: 579a adf5 d0b9 ae3f ea9a 9955 977e d03f
00000640: e259 a6a6 15d5 d1bf 6477 9235 231d b6bf
00000650: 5935 f781 64a4 c6bf 78e8 1c66 220c a4bf
00000660: df97 9437 6bb7 a83f 3aac bf1b 24cb a4bf
00000670: 9490 a6d2 ea35 963f f5da ed74 6a6d c5bf
00000680: bbca 6024 0972 ce3f 905a 62be ed11 b0bf
00000690: 8ea5 d95b df46 b93f d788 1068 bca4 c2bf
000006a0: 68bd 65a5 6a56 ce3f 1cd4 c673 af82 b7bf
000006b0: 9b99 fc91 3905 c4bf f1f1 2586 a04d c33f
000006c0: 7849 c1ad 7865 a13f 0281 1a15 fbd2 b83f
000006d0: 8274 51bb dfb1 c0bf eb87 3cbf e7b6 a5bf
000006e0: 6d16 7441 bfd6 d1bf 6df1 dab7 e606 c5bf
000006f0: b6a3 38d4 b452 ba3f b0fc ace1 371a cb3f
00000700: 3590 9bb7 a75f b33f 05a0 1f3f 0dd5 b0bf
00000710: 73b0 819d cf7e cfbf c234 bcbb 86b7 9e3f
00000720: 15f3 af30 119d 71bf 86dc 2a92 d529 c23f
00000730: 2d2d 973d fd77 a13f cfb9 887b 2863 a4bf
00000740: c429 5abc f590 cbbf add6 88f9 0a70 e03f
00000750: b115 7f15 ff18 9dbf 1949 0f5b 7d86 d3bf
00000760: de85 61b8 fc4b d0bf 57a2 6103 046c 3d3f
00000770: 8dc9 86ef 42ae d5bf 7c56 fef6 d528 be3f
00000780: 33aa 7a35 7c0d d0bf a3e2 a6e4 ae96 d1bf
00000790: 5ee4 1234 e9df cd3f e111 9084 7f89 b83f
000007a0: 358e 3258 96b6 bdbf 7e2c a9f3 e0d9 a5bf
000007b0: 7325 7981 ff3c d5bf 6461 5158 8469 503f
000007c0: 65e5 9fe5 c04b b33f 8129 37bd 5348 b5bf
000007d0: 873c 3d4b 115c c33f 01b7 5376 7175 c93f
000007e0: bf22 cc14 8015 a63f 1601 84bd 72f5 d1bf
000007f0: 4cda 4d3c e66b d83f e10b a384 99e8 a2bf
-0.2934857382065487 -0.0606756265920718 -0.041493367186408614 0.05440840869859567 -0.00923944464320486 -0.01659928020647407 -0.006630630234667584 -0.3168023369335494
0.3031996606032475 -0.015406742632676359 0.05600193506274468 -0.06445703621835076 0.14320543592952822 0.022404327427893476 -0.15319122242668148 0.22082381540622514
-0.011054596384028456 0.15791437454181265 0.045032479863475965 -0.00842832643163451 -0.2594987622851567 -0.13764373467190935 0.0011686628987577286 0.321782990110483
0.2509043240988641 0.01664518180953424 0.0658865644225538 -0.3936510819247645 -0.10444633135016065 0.09050956790568727 0.06012479610085037 -0.025763136752992282
-0.4946430715759344 0.5520036008915588 -0.19037806586800798 -0.2674137313062243 0.025933076253404436 -0.14538691594932157 -0.0813641980143443 0.23690434399772772
-0.027710716098983148 -0.19556829603334067 0.04907889577865791 0.1637772482554025 -0.16789516354546058 0.08806743108867268 0.058260847320859205 -0.21258999440203566
-0.1954692401189041 -0.16813377274278515 -0.047040994688579266 0.4617698912220914 -0.18661853584756471 -0.10321897326304244 0.27707092788481713 -0.0704473570879173
0.17056804677878937 -0.19797044258661609 -0.0010360086228990526 -0.13981107082526598 -0.31933934843221495 0.12880563625324437 0.32321379463156197 0.3816264900235189
-0.24032500729250772 0.1303446860699901 0.013727940655155226 0.2148446312632032 0.37206698862265036 0.2197674436186542 -0.20591685653110903 0.1851139697844155
0.19342322867704434 0.1370994910569377 -0.0018452771236504273 0.07922107481677 0.0574906075635023 -0.00790614923657481 0.09976557604903885 -0.2037654473152634
0.284230010757897 0.15302675080567898 0.14198166916526297 0.012345810108149228 -0.21995560499505437 0.011993350163372777 0.009893726026138064 0.022276955713575276
0.02202861979157483 -0.018296611941019062 -0.003380244746319426 0.011609079513205691 -0.13620166745914306 -0.14702290955095676 0.03644933451855843 -0.25501328072125906
-0.1303341678806749 -0.030982918616326606 -0.06462248570530216 0.03191668578121979 0.3225415113103709 -0.15320458842051757 0.1682601209616388 0.148862683897451
0.06645025258380355 -0.13454724268747156 -0.1350283408012548 0.23044561011859485 -0.298510616563897 0.38811971940700335 0.24807291287478156 0.1899903259114667
-0.16670168882797143 -0.10155023353681529 0.2796068576167576 -0.34539909358137355 0.05900346736639057 -0.10562813077676342 -0.2063634540403949 -0.11789413139846962
-0.16961355087198277 0.1777126773586624 0.058745273537808104 -0.4257523749904006 -0.21289689706366807 -0.22037870873217608 0.00815484661586736 0.02036126475680553
0.05895486795678714 0.08455623139351591 0.052331752899798745 0.10194747605123168 0.07294790395110974 -0.1778514297298303 0.05548688777140453 0.10847924736385112
0.19615268863576607 0.3163260348347144 0.3300112904637454 0.1877137905361203 0.32245855913465943 0.07461419895721162 0.06258658955430169 -0.2881521295418901
-0.1763790772749398 0.36238055772087413 0.04246035112611673 -0.07075396508617031 0.08425670293710641 0.26828120395233235 0.2575492614610471 0.22579549522592637
0.20537399258014075 -0.16169520046880306 -0.17019410910447516 0.024570340383888185 0.28425351273374266 0.31414600043211366 -0.3025703516582192 0.05882603018985738
0.18779302705380654 0.18421618619143956 -0.301595725021549 0.01760264795256973 0.17407981086994354 -0.25042500964974174 -0.19125438984635834 0.08431941189320376
0.12846029136543635 0.1514820514907135 -0.055735556243266766 0.04470782191765742 0.1589628243061981 0.1580846732228717 0.03012199554811924 0.017611357415869718
0.01616596092885583 -0.13990154206457803 0.14827264299649043 0.06374738385023612 -0.030642904150392947 -0.07870143315363559 0.11776850706666178 -0.2611045216990493
0.21142363446197288 0.042421351617801216 0.30155802334481 0.22840398051121458 0.09946793677582053 0.017715308831729597 0.20882512938224893 0.13511796231924114
-0.08047549970085223 -0.12811350506836414 -0.20728751978339366 0.13297105359587194 -0.2180328055701951 0.2563870116613243 0.06001141547203719 0.2577265106141754
-0.2786306502761403 -0.08638210351861414 -0.17689186426143058 -0.03915507790084488 0.04827437451812932 -0.040612343203826076 0.02169005308827872 -0.16740160664968298
0.23785509372972577 -0.06277357004214879 0.098737678455697 -0.14565234261778556 0.23701222492261853 -0.09183785034731823 -0.15640945080049282 0.15080648946958733
0.033977290354090195 0.09696931138251233 -0.13042828222652153 -0.042411081404011806 -0.2787321223444 -0.16427310921961738 0.10282449895079435 0.21173761863062657
0.07567833168610678 -0.06575091162778797 -0.2460574645114125 0.02999697228283505 -0.004300181531104359 0.14190168034631173 0.03411857010686457 -0.039819016532749545
-0.21536132523426776 0.5136771081658559 -0.028415666281736033 -0.30508359806585045 -0.25463788991882363 0.00044894311884616705 -0.3387610758901694 0.1178106048594944
-0.25082307074140714 -0.27482197121893587 0.23339571993509173 0.09584805475612469 -0.1160673108411679 -0.042677907699350634 -0.33184802669401064 0.0010017197066841338
0.0753746567351264 -0.08313487405317767 0.15124717878140734 0.19889658239065258 0.04313278440355849 -0.2806059694994628 0.3815856541545244 -0.03693084472754272

layers.1.bias f8 [50]
00000000: 166f 6019 0c3c adbf ebf4 1718 5c8b 983f
00000010: ccb0 cbbf 4b60 b03f b45f e7ef 6d9f b03f
00000020: dfd0 fcc4 5f2c bcbf b5f0 7df0 bec2 bb3f
00000030: 68f9 9413 7835 ba3f 07e7 532f e660 a43f
00000040: ea52 50e4 d563 98bf aa02 2c99 3c18 bb3f
00000050: 00b4 75a9 e868 ba3f 5440 025c ad8f eb3e
00000060: f4c1 6383 1fe7 943f 8021 afa8 1df6 98bf
00000070: 2d57 91c0 2f9b a7bf 5ea3 c759 1631 c6bf
00000080: a12e 9a63 27e2 a5bf 88e7 e10c 2b66 b9bf
00000090: 6e0d 9b05 c948 993f 9558 ad2b 4791 b73f
000000a0: 3b32 ec30 c7b4 b93f 84ef 98a9 2fda 97bf
000000b0: 7c3b 6120 9586 b13f db8f 7432 1c1a b9bf
000000c0: b14d bef5 1d23 a7bf 0d30 bdb0 67af b7bf
000000d0: 55b5 ccc3 6bdb c83f 0c4f 0fe9 6f20 bb3f
000000e0: 9003 ff8e 97b7 b9bf a215 d774 c431 d03f
000000f0: fcce 2104 d78d b23f c326 31d8 4300 ae3f
00000100: 6d4d 827c 8ff0 81bf cc25 841b a2b0 b33f
00000110: 1cc0 1261 5c88 adbf b57c 659e ccb4 803f
00000120: 8432 5365 74ae 5dbf 9254 7fac 434f c0bf
00000130: f304 563a 380b b13f 3138 dfd1 2d29 b03f
00000140: ec95 cf59 c6cc a33f 3bc8 c017 6fb1 b83f
00000150: d373 e98e 37c5 b7bf f660 9d2f 04f7 ba3f
00000160: 53b2 4303 02f7 af3f 9de4 9d90 8c6c 903f
00000170: 4466 3d51 1149 bb3f b05c 2751 6762 953f
00000180: d608 03d7 c9e7 bdbf 0806 879e 4d54 90bf
-0.05709874925397977 0.023969115229182696 0.06396935875426663 0.06493270022417513 -0.11005209502474454 0.1084403359545288 0.10237837293695906 0.03980178191882371
-0.02381834226624139 0.10583857287930223 0.10316328179551704 1.3142222883538866e-05 0.020412914652242223 -0.024376357479725552 -0.046105854279330984 -0.17337302573948937
-0.0427410420498664 -0.09921521248352694 0.024691716162818116 0.09206051651321652 0.1004147047462504 -0.023293251730350586 0.06845981636545945 -0.09805465919322336
-0.045189796684236845 -0.09252021851460786 0.19419619617967024 0.10596370162903329 -0.10045764199368379 0.2530375615136454 0.07247680521851046 0.058595771923660965
-0.00875961397858901 0.07691395923406857 -0.05768097577072259 0.008157347282290986 -0.001811612766050492 -0.12741895601962888 0.06657744812220638 0.06312834142519887
0.03867168279957042 0.09645742731007172 -0.0928530429750503 0.105331670403192 0.06243139543389433 0.016039081885058527 0.10658367379564831 0.020883192375404647
-0.11681806086838561 -0.015946591187235654
