main/discrete_time_identification (KdV)/models_iters/KdV_clean_21000.pt (torch, 127868 bytes, 14 tensors)

linear_in.weight f8 [50, 1]
00000000: faba 51da cf4b ca3f 1f41 9237 5e57 ae3f
00000010: fc57 4add 981f 88bf a75a 5463 7163 d1bf
00000020: dbca a893 e1b3 96bf d66c 0a3c 0d90 c8bf
00000030: f559 15e1 9e6b ce3f 40d5 8784 6a39 e33f
00000040: 4fda 4f9c da5a d2bf 5778 dcd6 b98f a6bf
00000050: 8e7f 80ff 0752 c5bf 8070 4138 f8a2 db3f
00000060: 0b53 3e65 1ab0 ce3f a52c 4b4f 12d7 9ebf
00000070: c8d0 e0a5 3ea6 e43f de57 ac73 b8e0 bf3f
00000080: fd8f 5ad1 d1da d13f 7d0c 9ac0 abce d1bf
00000090: 3f0b a200 2633 aa3f 3cb5 f44b 7b03 c23f
000000a0: b8aa 88c3 49e3 d6bf 0c97 7103 e86c d8bf
000000b0: 2580 13cb c0ca b3bf fe78 856e 8c1a b23f
000000c0: 4c37 9e46 4312 b3bf a8c9 1fea 3b58 86bf
000000d0: b745 a2c5 57d5 d83f 8083 e39b f25b cf3f
000000e0: 7360 8b00 dd82 c63f 2368 328f 45ca cdbf
000000f0: f2da c0aa 16a5 c1bf fbd3 f688 fa9b dc3f
00000100: d190 71ff 11d0 d23f 9775 ae00 d2c8 c53f
00000110: 2572 051c ac86 babf 67ac a48f 1a18 a93f
00000120: 6736 bf74 140f b5bf f302 7f7d 6172 ba3f
00000130: ebf5 5694 8eda d1bf afd6 f540 9559 b1bf
00000140: 0097 5382 9841 d23f 6430 7259 7bc9 bbbf
00000150: 5f8b ca99 b785 d5bf 47f5 11dd 26fa c03f
00000160: e0a7 5477 78f6 db3f b25d 1258 7c79 da3f
00000170: dab8 8c60 7a88 a93f 1a15 1a9e 546b b9bf
00000180: 9b1e 7546 528c a73f a998 75da 82e9 d4bf
0.20543859634513933 0.059260315211874685 -0.01177901673626635 -0.27169451427600183 -0.022170567166720594 -0.19189610892940462 0.23765932073975163 0.6007587994087444
-0.28679528488956846 -0.04406529186074753 -0.1665658948486421 0.4318218755122487 0.23974924033668574 -0.030117307748508754 0.6452935447510066 0.12452271293690795
0.2789806885214146 -0.2782391911388869 0.05117148168303353 0.14073125084670746 -0.35762256713011764 -0.3816471131925574 -0.0773125167647782 0.070717598898657
-0.07449741815636662 -0.01091048057785289 0.3880214147585223 0.24499352084879078 0.17586863066276556 -0.2327353429034825 -0.13785060250821562 0.44702018142135075
0.2939496035162508 0.17019104989314535 -0.10361743625748739 0.049012022051407915 -0.08226135111109444 0.10330781282301497 -0.27896465765283435 -0.06777317844338414
0.2852536461563062 -0.10854311879865147 -0.3362864496104318 0.13263402742806304 0.43691836980235443 0.41366489983326027 0.049869369779445186 -0.09929398403081216
0.045992442227143125 -0.3267523892776674

linear_in.bias f8 [50]
00000000: f4a0 435e be09 c1bf 954d 70a8 fd35 bf3f
00000010: e275 c5f7 8323 b8bf 4018 b6b3 7d5b b2bf
00000020: 386e 8c8a 77bb b8bf 2680 a0f9 5595 bbbf
00000030: 2be8 1454 f975 b83f c375 c25c 71ec b13f
00000040: bb6d c718 8b8d b73f e25b 127b 35e0 b6bf
00000050: c127 83a6 2f20 c13f 2ab7 5392 57a3 a03f
00000060: 0d09 6141 5a48 3f3f 0934 96a4 edb2 b93f
00000070: 617d d0a5 bcd4 9b3f f015 49b2 0f20 b13f
00000080: 3f87 84de a96a 8c3f 5f16 ae51 a3fc 963f
00000090: ee64 ffc7 cd0f b63f 9be2 7035 8510 bdbf
000000a0: f1b9 1d2b 5253 a5bf e027 18ff 804f c33f
000000b0: 945d ee89 e1b8 b5bf 0510 0e97 b6ee 90bf
000000c0: 30ae f535 58a5 b9bf ff8f 994d ab82 b4bf
000000d0: 5c48 0415 0ed2 b33f 1066 32ea ac63 973f
000000e0: c269 e0ea 032a c4bf e31a 9a5b 7176 ad3f
000000f0: 1e42 4748 8517 933f 9575 d40f 2e10 ae3f
00000100: 1669 3542 be52 963f d304 8c37 712f 423f
00000110: 05c2 9628 2e7b bd3f 58b5 ddac 2bae a6bf
00000120: 1ce3 551b 667e b03f d8cb 63a5 a1ac be3f
00000130: d73f 1683 db18 893f 3346 10af c516 b93f
00000140: c23d 90cd f4d4 c13f ea41 702e 4563 9b3f
00000150: 151f cecd 6b3e c33f b4af eb71 d758 a0bf
00000160: 4c6d 001e 5593 633f ccc1 7a01 7599 b0bf
00000170: 4bc8 c038 8f9e b93f bdb0 8e4b 3160 c13f
00000180: a648 1ea5 96ca b6bf d8b4 313d 5145 a0bf
-0.1331098518633166 0.12191758501312784 -0.09429192351441132 -0.07170854222758383 -0.09661051876576543 -0.1077474340859231 0.09555013945365036 0.07001408114088918
0.09200353007275101 -0.0893586564510396 0.13379474287495266 0.03249620114534786 0.0004773350095811514 0.1003864790747714 0.027178714390286077 0.06689546682999725
0.01387531957931609 0.02244811235461552 0.08617864735369427 -0.11353333048544771 -0.04165131355590635 0.15086376624850484 -0.08485231034716484 -0.016535618753110288
-0.10017920796752189 -0.08011885304000542 0.07742393506149042 0.022841169161074204 -0.15753220528206496 0.05754427188099045 0.018644411598701997 0.05871719306217497
0.02180001525025784 0.0005549719636236634 0.11516083231868642 -0.04429756627255682 0.06442869346018337 0.11982164657437921 0.012254443109469477 0.0980037262345597
0.13931140935208758 0.026745873412496048 0.1503424410732285 -0.03192780748017246 0.002389589542884407 -0.06484156881447872 0.10007567534992849 0.13574806393933683
-0.08902875453194045 -0.03177884933470815

linear_out.weight f8 [50, 50]
00000000: 444c a381 2370 c4bf a34b ad34 c91c b0bf
00000010: 97fa 4fde 3929 c03f d59a 1eab e008 c43f
00000020: 21f1 4752 9f73 96bf 37ee fab2 caf1 bd3f
00000030: 2310 3a2f f645 b7bf e3a7 b842 38ec 93bf
00000040: 89b4 0aea ac5e 833f 24dd be5b 6b0b d63f
00000050: c3c8 4683 e7f2 d3bf 80be aca9 8165 823f
00000060: 35f7 b210 f705 babf 4736 9c14 d12a b13f
00000070: f62f bb9d 39ce b83f 4878 8e6a 5d1d d33f
00000080: 9047 d64c 1714 b83f 6f2b c60d 0ea6 d0bf
00000090: b15d b886 7176 cfbf 5953 b859 b54e bebf
000000a0: 5660 5f20 7e6f 98bf e7ac 3638 f307 d5bf
000000b0: c5a2 7388 ff56 92bf cee9 1847 6b3e 84bf
000000c0: a7d3 7f43 548a d13f 37ca 42c3 f2b9 9cbf
000000d0: 4175 3df1 5be5 a8bf a1e6 91ae dc96 acbf
000000e0: f788 4c27 5fd4 96bf 11a4 3d00 e1f9 bcbf
000000f0: 9213 d54b 702d b93f 412b d30c dc44 9d3f
00000100: 3974 90d2 2269 dfbf 39bb 27df 0125 b2bf
00000110: b401 89eb 9249 61bf 7f92 46bc 1a84 bb3f
00000120: 7e20 00ef 1fdf 98bf 2c83 9841 c27a a1bf
00000130: 0c70 bcc4 d662 ab3f 219a dcf4 9021 ad3f
00000140: f5b3 72bb ddb5 b33f bebb 8b27 1595 963f
00000150: b271 e39c 4699 bf3f 2bc4 0757 7a4d d33f
00000160: 6c75 5f8f 5a12 aabf 8049 f6fe abdd c63f
00000170: bcaa d097 b9e4 acbf 5771 73c6 d8be c73f
00000180: e5a9 7f47 3579 b83f 805e a526 ecf5 b33f
00000190: b300 87ea 070e a2bf aafd a5e3 28bb af3f
000001a0: 7502 aa20 adcd acbf 348b 97bf 8f09 9e3f
000001b0: ba43 ac9a 3167 b0bf c89f 0dc1 e62e b83f
000001c0: 96e5 7e0e 50cb a7bf 2724 426c 6e1c 8dbf
000001d0: 5bba cd26 bfa2 b13f 8d62 c7a8 b6b6 d23f
000001e0: c19c 64af 0951 babf c8d9 fb12 b054 c2bf
000001f0: 4f80 514d ce2b 8cbf fd0c 3488 c2bb d3bf
00000200: 4d5f 4cd7 a993 c13f 5fd2 9017 5d48 be3f
00000210: 9c55 6c55 9108 93bf 2f9a 57d8 bf2f cfbf
00000220: 51b9 725f b4e9 c6bf f463 2894 cd09 bfbf
00000230: 89db 9e6e 7f22 b93f cbcb 9dba d170 d5bf
00000240: 3847 d6d1 0d8c b33f 36e1 bd41 1f0e 9fbf
00000250: ce7a 87cf 4d87 d73f 18f6 d81c 8e2b c23f
00000260: 3a56 7fb8 23b4 973f 8c83 aaaf 0dda c63f
00000270: 3a8a 5c15 2e51 97bf 6d11 43b9 3777 d0bf
00000280: a820 d0ba aa0b 933f b357 5274 26e1 913f
00000290: 7b19 22e8 cc36 e1bf 2f58 95ed c259 923f
000002a0: 5bba 95b9 a108 be3f 1aa2 5716 c61f b03f
000002b0: a79d 82e4 8055 973f 596b d3ea 99d7 58bf
000002c0: 9d33 4f88 c6d5 3dbf aeba d1c1 5ed2 bb3f
000002d0: d30f 17ad 6952 9bbf 61d6 5612 8cae 9cbf
000002e0: 2fd9 c37f 136c c03f 186b e05f 9419 bf3f
000002f0: e168 e968 4338 a9bf ea3b 98bf a2f9 c23f
00000300: 7314 5edb 42f7 b63f d042 4795 d150 a03f
00000310: 7544 56b6 af87 d73f cd25 2d44 3473 b93f
00000320: ea40 bc40 fddb b83f 079e 2809 8e8a 9e3f
00000330: e509 e539 37c6 c23f 9854 a469 e6b0 d03f
00000340: 82a4 7d93 d35c cabf 7ae8 fc64 189f b43f
00000350: 9bec 3c12 ae28 babf 9e1d 4607 739b 953f
00000360: 5793 fa3a a3c0 a4bf 8461 c468 9314 c53f
00000370: 29e7 d1c6 b8ba d5bf e99e e83b 19e8 b03f
00000380: 866c fca0 1421 a73f 955d fafe de93 c13f
00000390: e4c2 c909 f80c b63f b77e a8ec eac3 c93f
000003a0: 9912 0826 a0dd 983f fce9 3236 3197 be3f
000003b0: c261 2ea0 0d5b d2bf 9202 31de a9fd b3bf
000003c0: 678e 5236 1a98 c6bf 955e e9e9 1188 c3bf
000003d0: 981a 9d88 ed33 c2bf 53ca 468c 2cb9 97bf
000003e0: 4e59 e5e3 7ecc d83f c1ca d5ee e28e 9abf
000003f0: bf33 4777 a705 c6bf ce45 049e 076e b73f
00000400: 5ac6 fdad d1de b43f d9a1 93d8 55fd a53f
00000410: 234a 3106 406e cf3f e65c 775d ed60 aabf
00000420: e1b6 03d5 28b3 d6bf d28b be5b a90d aabf
00000430: d214 9199 4169 a93f c7e0 0108 b88b c23f
00000440: 0099 2b7d c503 7f3f 6190 0730 c787 71bf
00000450: 0a25 80f0 389e b4bf d526 8154 ceb3 c23f
00000460: 618d fe60 b880 b73f a307 2f89 4c21 c4bf
00000470: 4109 f95a 0071 953f 757a 61e4 b4f7 c4bf
00000480: e3fe 6594 9e17 a3bf 410a e407 3cb1 ae3f
00000490: ce15 200e 25be a73f 2dea d761 7330 c53f
000004a0: f0f5 619e 8cec c13f 3a03 cc9a 0449 923f
000004b0: 297b e61e 4e88 783f c33f 40ee 3184 a63f
000004c0: 46b5 c624 bc31 afbf f101 f01e 578a c03f
000004d0: 6cf4 0b8d 11d0 d0bf 5703 b83e c06d bc3f
000004e0: ad11 4eb4 bb4a 97bf 1570 76f0 a3d4 b9bf
000004f0: 6c6f 865d 257b d3bf d2d8 9ec5 5781 ce3f
00000500: 653d 0824 89a9 c5bf 1036 deb8 dfe9 b7bf
00000510: 91af fb9d 3887 ca3f 9684 fcf5 b9b9 8abf
00000520: 7e91 443e ec0c b53f 8c92 7cc3 cad7 ce3f
00000530: 831a e7a5 1de9 7ebf 2687 bfbf 515e cc3f
00000540: a715 7aa4 e053 b1bf 9167 522b 773f 803f
00000550: 3520 e32f a2e2 c3bf d4bd a19c bf88 e0bf
00000560: 5181 39c3 136e b1bf 7012 f530 1d81 9b3f
00000570: c1f6 a82a 1dac e03f 30b2 3f6c f792 80bf
00000580: 3e6a 9b51 b1fe 9fbf 5636 357c e5fd c9bf
00000590: 4942 c6a5 026b d6bf 2166 befa 7fcb 9f3f
000005a0: 0a40 d124 6aa4 c73f d0a3 0aad 20c2 c13f
000005b0: b792 e07b 1212 dabf d3af ca6a a935 b2bf
000005c0: 49e4 c1f6 ec3e d23f eb7c 2b95 b1a3 c63f
000005d0: 7ced a0f2 7bd8 c1bf a8d0 1193 d2ba c93f
000005e0: c9e8 27db f6ba b33f dd25 6589 2e37 bbbf
000005f0: f7e3 2f82 41af 923f 68e1 0c40 6aff a0bf
00000600: 341b 50bb 33e7 a6bf dd56 cf88 a896 c63f
00000610: 0fc3 62d9 dc6d a6bf 8de1 ccf1 0989 bc3f
00000620: eebb 8c97 7e0c 7b3f 6bea c29b 0265 df3f
00000630: 8ae4 49c8 6303 be3f d71b f83a 7338 b43f
00000640: 81c0 02e9 f063 673f 22cf 7bab 58a2 79bf
00000650: 610e 714f 64e1 9f3f c568 e487 6d12 bf3f
00000660: 0a38 a8cf 9a8d abbf e8c5 56d5 d314 acbf
00000670: 1dd7 953d 6505 a5bf 3c0e b76c f279 b4bf
00000680: 416c a885 4d48 b3bf 055f 3815 eda8 cc3f
00000690: e5a8 94c4 f02b e1bf 6b93 0cea dbc7 c13f
000006a0: 185f 3ce9 0e7d 69bf 3d18 34ca 5175 c8bf
000006b0: 9bc1 8088 d907 bf3f 5024 bcb4 e492 cc3f
000006c0: 6447 9012 f6db 973f bbc8 1e9d 97ab adbf
000006d0: c8c5 8db6 45b1 c4bf 0be0 fc79 42a3 b4bf
000006e0: 635b bcd6 695a babf add1 bc9f 54e0 d3bf
000006f0: 3cd3 1631 d32d a3bf e447 b14a 4896 b9bf
00000700: 7dac 056b 75eb c43f 96a8 55bf 06ce a83f
00000710: bf58 e90c 9b25 ab3f 7524 f7a0 9cdc adbf
00000720: 6f1b 530f 10cf 94bf bdaa 5376 ac7e cabf
00000730: 4498 3730 5c64 b23f 2d5c c98b a144 64bf
00000740: 8929 7916 4504 e0bf 12a2 dda7 95bc b33f
00000750: 8b82 ae23 1c3e b1bf ce5c 4dcd c6ed 92bf
00000760: fb64 4f04 c2cc c0bf 3b0e ac07 0734 cb3f
00000770: 31db c3d5 8d9e b43f 8dd5 059b a150 89bf
00000780: f740 2210 4d1a a1bf e828 3f79 0ad4 c63f
00000790: 7c0c 4c34 5d36 c03f 3296 348e 3235 c63f
000007a0: 04c6 d873 06a4 9b3f ccdc 6b25 a811 bf3f
000007b0: 56c8 9c0b f6d9 a83f 8396 1137 9d78 d23f
000007c0: e249 a74f 060d a83f 1406 734b 5e83 c4bf
000007d0: c774 3d18 6b1f b63f df17 aa1f d8ed a43f
000007e0: f391 567a 8d72 cabf f81c e280 27a6 a93f
000007f0: 42f9 d932 5225 c7bf ff34 d253 5de7 cc3f
-0.1596722014424775 -0.06293923889215462 0.1262581191549159 0.15652092318960933 -0.021925439259562588 0.11697069997438168 -0.09091128018377552 -0.019455794403405845
0.009457922832860415 0.34444698295142673 -0.31170070476504125 0.008982670774997148 -0.10165352018063063 0.06705958131006994 0.09689674473628415 0.29866729169760164
0.09405656457809486 -0.2601351866257379 -0.2458021076024415 -0.11838849487714977 -0.02386281082712601 -0.3286102341614438 -0.017909996703482606 -0.009884679896562523
0.2740679415867881 -0.02805308644082968 -0.048624871443033964 -0.055838486013226836 -0.02229450871812674 -0.11318784957769902 0.09834958888411752 0.02858299091603134
-0.4907919937412007 -0.07087718675732625 -0.0021102780849846185 0.10748450371336025 -0.0242886533378912 -0.03413970041970624 0.05348845626414808 0.05689671505961181
0.07699380709045996 0.02205308011883366 0.12343255358013641 0.30160387515121795 -0.050921278001377995 0.1786398882800988 -0.056432533056371054 0.18551168146121697
0.09559948916982071 0.07797122901444631 -0.035263297442271656 0.06197479037200122 -0.056256685483281034 0.029333349293561642 -0.06407461191362432 0.09446565831387865
-0.046473027963155264 -0.014214384726317487 0.06888956734995004 0.2924019478064473 -0.10279903919273449 -0.14320946623747788 -0.013755428061074463 -0.3083349542723253
0.1373188306104062 0.11829168153128354 -0.01858737071878168 -0.24364469588836488 -0.17900709782174798 -0.12124333254941161 0.09818264437386238 -0.33501094078308985
0.07635580418562149 -0.03032730902438737 0.36763329760098606 0.14195419701165757 0.023148115287616934 0.17852946355290233 -0.02277061467533257 -0.2572764691542691
0.018599193241272488 0.01746044239970219 -0.5379395040370548 0.01792053771108487 0.11731920987015469 0.06298482938257913 0.022787107417256227 -0.0015162470911522423
-0.00045524689658976177 0.10867874366679572 -0.02668156737287559 -0.028009594554268328 0.12829822290923107 0.12148406353700769 -0.04925738006268588 0.1482432780762502
0.08971040588046879 0.031866597626167725 0.36765663915964036 0.09941412605726115 0.09710676985219249 0.029825419720650028 0.14667406393898755 0.26079712215989437
-0.20595783902834702 0.08055260148549506 -0.10218322701705278 0.021100804633105257 -0.040532208394586426 0.16469042411405266 -0.339521593246547 0.0660415431271947
0.045174259807219605 0.13732516718003454 0.08613538969963092 0.20129143291068427 0.024282934495220763 0.11949451039519227 -0.2868074478406265 -0.0780893485507568
-0.1765167966124068 -0.15259002610649888 -0.1422097127017039 -0.02316732031040154 0.3874814248605575 -0.02593569357618253 -0.1720475513851891 0.0915226708205161
0.08152494905314125 0.04294842022665408 0.24555206587190623 -0.05152074590631077 -0.35468502809713526 -0.050885479401834424 0.04963116645425604 0.14488888159735877
0.007571956101605659 -0.004279878689406131 -0.08053928252788381 0.14611224294849615 0.0918078648378944 -0.15726620386527398 0.02093887858632937 -0.16380940581707973
-0.03728957711700589 0.059945941889982375 0.046372564291271 0.16554109838018985 0.14003141149070997 0.017856666515402277 0.00598936572933332 0.043977318127985686
-0.060926322449953704 0.1292218113958508 -0.26269949697581896 0.11104966670246817 -0.02274602210992931 -0.10090088482542144 -0.30439123280824876 0.23832223081053044
-0.16923631915458795 -0.09341238273028574 0.20725162233372577 -0.013049557513627168 0.08222843666277943 0.24096045060391125 -0.007546535313344041 0.22162839758589675
-0.06768611922787802 0.007933550843791244 -0.15535380686037717 -0.5166929301466845 -0.06808589473940187 0.026859718430630897 0.5210100014880582 -0.008092816344253156
-0.031245012861157877 -0.20306080403172427 -0.3502813929453948 0.03104972808760043 0.18470503614162254 0.13873680543227218 -0.4073530397165927 -0.07113131386967035
0.28509067628289536 0.17687053474126144 -0.139419072600372 0.2010138719666703 0.07707159853444802 -0.10631075720188883 0.01824667317484693 -0.03319866210807981
-0.044732681861253815 0.1764727275864776 -0.04380693582186811 0.11146604684188884 0.006603712558713488 0.49054017268250644 0.11723922386035404 0.0789863604514801
0.0028552727963742646 -0.0062583411852193144 0.03113323912499622 0.12137493674927942 -0.053814733361022674 -0.05484640101657218 -0.04105678917669151 -0.07998576311279576
-0.07532200348980302 0.22390521560804913 -0.53661383051556 0.1389117138689032 -0.003111390231321464 -0.19108030675141832 0.12121352751342444 0.22323283028552732
0.023300022967368675 -0.05794976990672881 -0.16165992177734112 -0.08061614492623918 -0.10294209950039383 -0.3105670509278536 -0.03745899175866049 -0.09994937728450243
0.16343562818233073 0.04844685636165129 0.05302128346072398 -0.05832375969800633 -0.02032113164457477 -0.20699077394177393 0.0718438737600034 -0.0024741320797079442
-0.5005212248736807 0.07709632252011314 -0.0673539721597171 -0.018485170632030194 -0.13124871454673567 0.21252525210012316 0.08054434269784562 -0.012360823195858095
-0.03340378591485831 0.17834597511529826 0.12665906003539706 0.17349845832466 0.026992894001699255 0.12136317170721894 0.04853791133645362 0.2886117017536451
0.04697437021572505 -0.1602590435414163 0.08641690580175797 0.04087710749176642 -0.20662086938422383 0.050095781786746174 -0.1808264492319243 0.2258106860430544

linear_out.bias f8 [50]
00000000: dbfe e1df 9278 c0bf 824a 0de7 8a1e c3bf
00000010: df9d c504 5206 c9bf bc0f c871 7bde 8abf
00000020: 4637 a10f ed57 b6bf c624 e1f8 69e4 b3bf
00000030: e142 e61a 6572 bebf 939a 11da 2812 a8bf
00000040: f4cd af2c e16d b9bf 10d1 f8e5 6338 b1bf
00000050: f90f 5040 3741 9cbf a3ef ab1d 4728 99bf
00000060: 986f b477 0f86 9b3f 50af 25f3 0e10 a8bf
00000070: e286 2bc5 d234 aabf c129 148a db36 963f
00000080: ba1f 9cfd aa30 b43f c48b f0cb dba5 6cbf
00000090: 61af ba2a b269 a23f dd82 f35d 194b af3f
000000a0: 6e16 31c2 5573 9a3f f4c1 0934 76f2 af3f
000000b0: 6702 136f fbf1 65bf 566e 9851 0790 9a3f
000000c0: c514 02b0 73f5 89bf c562 9f2e 38f5 8c3f
000000d0: f731 0c42 e4cc 913f 1d97 8059 35b7 8a3f
000000e0: 1418 e14e c1c9 b0bf db48 a5ea c153 a73f
000000f0: 0e83 215f 65cb 8a3f d257 f787 5dee aebf
00000100: d436 a071 f69a acbf 48f4 2bcd c890 b7bf
00000110: 194b 84a2 9c6d b0bf eac3 e357 4161 b1bf
00000120: 09a4 22da 401a abbf 68a3 8763 8a54 b9bf
00000130: 7b32 b92c 6d9c bcbf 62a2 0916 661d 8a3f
00000140: 2521 8773 e339 b4bf 2955 e2a0 f8b2 91bf
00000150: a2f2 add2 fc5e b13f fde6 450a 6264 afbf
00000160: d8d1 e5a4 044a afbf 0640 47bf 1ca4 b4bf
00000170: c54f fb1a 19fb 89bf 35d5 1368 47b7 81bf
00000180: 1dd5 3b25 c2ef 62bf 1012 23e8 f22e b6bf
-0.12867961818482496 -0.14936958581764165 -0.19550538285260097 -0.013119663629374993 -0.08727914458833394 -0.077704070340718 -0.11893302828526543 -0.04701354658100345
-0.09933287945732855 -0.06726669659184759 -0.027592528629625666 -0.02456771010018567 0.026878587418749683 -0.0469975158510737 -0.05118425995693855 0.021693640043886967
0.07886761371275855 -0.0034970562842473202 0.03596264621350432 0.06111983558526444 0.0258305930876958 0.06239671120863824 -0.0026788626497309845 0.025940050463857688
-0.012675193604318466 0.014139594004448761 0.01738316205141818 0.013044754785436258 -0.0655785386635162 0.04556089391066261 0.013083259549774986 -0.0604123333429666
-0.05586977135690821 -0.09205298432421316 -0.06417254417128183 -0.06789024730439022 -0.052934672000738266 -0.09894623689582505 -0.1117618784130147 0.012751386210952013
-0.07900830812935007 -0.01728428346594516 0.06785564559499815 -0.0613127362766601 -0.06111158860122473 -0.08062915487175823 -0.012685962806621274 -0.00865035807008017
-0.0023115913298804706 -0.08665388266951646

layers.0.weight f8 [50, 50]
00000000: 52c1 4519 f7a8 d2bf aeed 9502 5f18 b5bf
00000010: 30f0 deb2 e402 cdbf 0419 5f66 52dc a2bf
00000020: 5f8a d343 6ecf b9bf bf79 550b e661 c7bf
00000030: 59c2 6cf5 bd00 bbbf 515a 730b e3cb 9fbf
00000040: 3728 22ca 674e b13f b3b5 57c7 7e90 c1bf
00000050: 6a34 a15a fd22 c23f 1791 85ce fb86 d0bf
00000060: f401 2035 803f bfbf 0c7e 4639 e599 9a3f
00000070: 2f99 13fd e059 bbbf d8a3 3451 b30f c13f
00000080: 50be 551e 11dd c5bf e793 d1a9 67e2 c53f
00000090: 7d9d 5f2a 5959 b13f 1231 a8b0 72e6 cfbf
000000a0: 498e 4938 311d b13f b870 ec75 8f3c d83f
000000b0: fa19 f8a1 ef46 c6bf f207 e57a 234a bbbf
000000c0: 65b9 fd7a f4ba b4bf 21e0 1183 82f2 b53f
000000d0: 95d7 9d41 9537 c7bf 8224 1465 b153 a8bf
000000e0: 89b2 b53c 173e a2bf fa08 58d0 9ec2 cd3f
000000f0: 414c bc48 6462 c23f 14f8 7dde efeb bc3f
00000100: bf4e d5f9 0701 a1bf b794 d2f8 72d4 a03f
00000110: d4ad be07 aea7 d53f 431b 7e81 c93e c3bf
00000120: 9402 c5a3 697c ca3f 7568 dced a224 90bf
00000130: 7968 3415 7396 c5bf 0f3c 101e 5b43 d03f
00000140: dfb0 5508 170c b7bf 2658 b9c6 9759 c73f
00000150: 9524 9005 d978 d43f eaa5 6d61 cfd8 a9bf
00000160: 8272 c842 d0ff ccbf 0724 c51e ee9a a5bf
00000170: f8ac 63f0 d6c7 92bf 1035 9725 7c97 15bf
00000180: c3c8 97b4 d156 dabf 88de 389e 3693 8f3f
00000190: c7cf fbdd b6e7 cabf eb26 4fd4 0400 a23f
000001a0: eced 85c9 66b9 bfbf 96f8 5193 fb4e 4fbf
000001b0: 2721 696d 925f d0bf 2015 8179 416b c8bf
000001c0: 5083 5d50 9163 cd3f b2fa f290 5048 d33f
000001d0: 7a09 b3b7 28f3 8fbf 0d8e dea0 eca9 c8bf
000001e0: f2c4 a807 c98c ab3f 317b 2cf5 70a7 c23f
000001f0: 8ca5 853f 0d86 c3bf ba4c fc42 8149 d63f
00000200: b815 9667 072f bc3f a9cd b843 afab cb3f
00000210: 7b29 339b e1c0 d23f 848c 2475 937a cebf
00000220: a545 7250 6c0f d03f 09cf f714 7932 ae3f
00000230: 46a3 88ae cef2 d8bf 395f bf16 013d b53f
00000240: b244 fd5f 573a cbbf e5fd 3b20 ea63 c2bf
00000250: d880 c4d5 6e67 dcbf 22dd 05bb 14f3 b5bf
00000260: bc0c 4b33 d305 aabf 5960 1bc0 877f aa3f
00000270: c63c b0fc 8336 96bf 2f0c 78d7 e8a3 c2bf
00000280: c9a5 4bc9 49e9 b9bf 69ea a9b7 8e6c d23f
00000290: 87d7 0b8f 68c2 a6bf 2987 29ee 80a2 c83f
000002a0: 63fc e53b 9b7a a23f 2ff1 04ab 857c bfbf
000002b0: bd77 675c ab4b cd3f caa0 d7b5 0afd ce3f
000002c0: 6f2d e52b 083c a3bf a49e 1446 612d b43f
000002d0: 4728 e641 a227 ca3f 5550 4b2c 6f88 a33f
000002e0: 224d e077 d829 8ebf 9cb0 df2b 2c4b a23f
000002f0: 137f e964 6b7d c83f 7e7c f0a0 d87c cb3f
00000300: e44d 8f59 b378 cc3f 85d3 945e 4408 d63f
00000310: 55d7 4b75 2805 b8bf dd89 51e9 5ba5 b2bf
00000320: 88fe 72fe 3158 a1bf ee24 790d 56b3 b9bf
00000330: ced2 68fd bbaf 51bf a03d d683 8e7a cbbf
00000340: 9472 bddb d790 cd3f a9b8 17e3 73de c33f
00000350: c87e 52b2 1dcc bcbf 88fc 520a 61fd a0bf
00000360: 460e baa9 1b9e 98bf 67de de65 0dd5 bb3f
00000370: 4ce5 68a8 bcd0 b2bf ef15 328b a5a1 bdbf
00000380: ed18 2628 f3b0 843f 44c5 bd67 3e1a bbbf
00000390: 3a6a ab4e 25b9 d0bf 24c6 8cf5 0d15 c1bf
000003a0: ffb0 49e7 120b d43f 8cb7 f259 d693 913f
000003b0: e5f4 6500 8130 c7bf 1754 1b87 2be4 c5bf
000003c0: 3bd0 14c4 cb4a c43f c800 434e e340 b93f
000003d0: 0bf6 d119 395e b03f a8ac 1133 9504 823f
000003e0: a549 0b16 7012 c13f ab9e a529 765c b2bf
000003f0: 9a81 6899 0050 bebf f427 c50f a15f b5bf
00000400: 6395 223f 543d 7b3f cc51 56b2 7daf b3bf
00000410: b4b3 7e6c c616 77bf 7c29 0e52 069a c23f
00000420: a9b1 54d7 d0b1 bc3f 2b76 dadd 5816 b63f
00000430: e44d a28c 7c94 833f eb0e 316a 4904 a53f
00000440: ebe4 7bba be65 c93f 8893 e328 ebc8 b63f
00000450: 143f 7507 2c6b aebf 7f52 9f45 07a3 9abf
00000460: 5a33 2758 8e6e bf3f 4b62 a6f2 8e11 ae3f
00000470: 6c20 650c 9aea be3f 6b9f f4e0 a4fe a6bf
00000480: 75bb b9cd ea6e c1bf 000f e267 4842 d0bf
00000490: f4ae f5d0 25ce b6bf 26fa 3858 da8f bd3f
000004a0: bd1d db26 4505 cabf 605a a88b 07d7 bf3f
000004b0: fdcd e4d8 d069 cbbf 5ce8 e719 179d cbbf
000004c0: c8ca 657e 8e52 c03f 5d9b 275c 0611 b63f
000004d0: f493 c1fb de7b ad3f 3358 e304 2255 be3f
000004e0: f8ea f1af f700 cf3f f2e0 1973 4821 cfbf
000004f0: 7a49 45f2 2f00 b73f 97f5 2d1c 0a35 ba3f
00000500: 0f22 6c87 d2d5 b23f f919 e9b5 3fae b4bf
00000510: 2443 93d6 1ee5 ac3f 22b4 519c 17e9 99bf
00000520: 89e5 9539 8216 9b3f 1c03 fe1a 4557 bc3f
00000530: f9a7 48e9 fc40 a93f 2d1f 0a7b a8e6 d23f
00000540: 265b 131c 1f3c c9bf bfb8 9532 a4a0 adbf
00000550: c023 a6fb 48dc 9ebf 3e91 407d bcec 953f
00000560: d2bc 73fb 6e01 cc3f c8ac b5ea ac7c 97bf
00000570: e05b a124 382f ba3f d110 8b25 e04b c5bf
00000580: 394e 86ad deae d0bf 08f7 50a9 3d10 c1bf
00000590: ddda 46ee 7b70 c2bf 8c18 78d0 5e39 7bbf
000005a0: 0ec3 87bb 0255 babf 3c34 a91c 7935 a1bf
000005b0: 54e3 1ee0 54c8 623f 06ba 1364 b0f1 c3bf
000005c0: a46b 3d79 1418 c33f aa37 1205 b5fb a73f
000005d0: af0f 01c9 660e d83f 0f22 9a89 c889 cebf
000005e0: fa42 fe36 1d00 c53f dbd4 6877 1baa babf
000005f0: 9bee 17c6 8fcf aebf 10e9 1fff 0091 acbf
00000600: 1246 1c66 a14d c13f df48 0f38 b11d b33f
00000610: 7554 c7e5 fdcf a6bf 93e8 251a 44f4 bbbf
00000620: c88a e9aa f5d3 bcbf e20f 9a4e ef27 c7bf
00000630: 8829 6c70 95fc b6bf 98a3 1d6f cd2d a53f
00000640: 2e55 c41f d7cd b03f bc9d aa06 1f24 8b3f
00000650: 621c 2ce2 5c81 a5bf 861d 71b0 0710 c33f
00000660: f3f7 88cc cd9c aabf 8429 1eb0 8dac a0bf
00000670: eacd dec0 b06a ba3f b4cd 45f3 42bb acbf
00000680: 8cad 9274 126c d3bf 01d4 a0ff fd1a 963f
00000690: e1c0 5eae e101 b2bf dbdc e2f7 c927 c33f
000006a0: 2873 9787 62e2 b33f 0126 0945 8117 b53f
000006b0: 8e7e 38ca 9c7d b03f 4abe a16b 0475 a23f
000006c0: 9c47 e03c be3d 93bf 19c9 038c 61ba c9bf
000006d0: dbfc 566e 05ef b23f 33d0 714a 9285 cc3f
000006e0: d34d f04b 344b b2bf 8e11 7856 fd4d b7bf
000006f0: b30d 20b8 726e c7bf 0de9 3427 d399 be3f
00000700: 95ea 8af3 1620 a5bf 2ae0 d9e7 8873 c33f
00000710: 9103 c242 0f72 8e3f 0dbb 443d c5aa cf3f
00000720: b6c9 6e2c 3f74 a73f e6d3 bdc3 fdd2 90bf
00000730: 74fd 882e 58c0 87bf a27d cd7b ea83 bf3f
00000740: 138a fb50 25b0 c33f acb3 cca4 bc0e 7f3f
00000750: 6f0c c5a2 e82b c6bf 9700 c7ae 3fee d8bf
00000760: 4188 d3e7 1199 b53f a28d cf9f 17d5 cd3f
00000770: 2314 0e2f 9d80 cabf 1e16 61ff 97d2 b5bf
00000780: 142d f6dd b8b3 613f 1431 caa8 84c5 bdbf
00000790: 22f1 51aa 2355 c5bf abf7 6625 ff99 c4bf
000007a0: c267 59cb 933f 903f 83a2 ef22 ea04 c23f
000007b0: b225 9688 bd08 9f3f a079 2825 7c3b c6bf
000007c0: f330 34cc e7c8 c43f 1d83 161b 6ca8 753f
000007d0: ab8d 9dec 71f8 d6bf cb9f 97e4 70b3 cabf
000007e0: 6cd4 74ac 396b a83f 93d6 9cd8 341a 953f
000007f0: 586f 67e2 1657 913f 5829 181f 6b2f afbf
-0.29156281917587024 -0.08240312398077407 -0.226650798167499 -0.03683717250491905 -0.10082139163891089 -0.182675128492475 -0.10548007242028613 -0.031051204275025338
0.06760262188814258 -0.1372221444466227 0.14169279980925192 -0.2582387463392179 -0.12206269547460363 0.025977689381418798 -0.10684019259096965 0.1332916399490205
-0.17080892544935233 0.17097183029105098 0.06776959690579605 -0.24922021509008424 0.06685168861582115 0.3786963130567176 -0.17403979691171384 -0.10660001516683318
-0.08097770693504953 0.0857316560740178 -0.18138375953611488 -0.047513526524263675 -0.03562996498189814 0.23250184224168163 0.1436276774553296 0.1129751127427599
-0.033210992095204166 0.032870858072138125 0.3383593631394579 -0.15035361121064214 0.2069217729240519 -0.015764756935006525 -0.16865385566126515 0.2541110795581866
-0.0900282283161604 0.18242165759392143 0.3198759607626667 -0.050482254641632654 -0.22655680905235803 -0.04219764829264965 -0.0183404525968571 -8.23659442154743e-05
-0.41154902111078345 0.01541750593524617 -0.21019636000676042 0.03515639392533195 -0.12392275257109703 -0.0009554603954169568 -0.25583325085291836 -0.1907731860430113
0.2296010630043619 0.30128873973073234 -0.01560050783735244 -0.19268567900608993 0.05380848139282958 0.14573490115523094 -0.15252843476927713 0.34823638478810504
0.11009260443650859 0.216176899020508 0.2930225387214233 -0.23811572284566662 0.25094135147181823 0.05897882824856821 -0.3898197845870083 0.08296210103378322
-0.21271793543795564 -0.14367415021841548 -0.4438130462240344 -0.08574037137974647 -0.05082569123399014 0.051754228783182206 -0.02169233541286244 -0.14562712212509285
-0.10121594585839157 0.28787582336341316 -0.044451968633366916 0.19245921734823782 0.03609166246587205 -0.12299380708004003 0.22887174617693332 0.2420972240354387
-0.03756738220053079 0.07881744347525427 0.20433452813841965 0.038150285870557944 -0.014728251608210178 0.03572977099961003 0.1913274996504631 0.21474750383729097
0.2224334895423531 0.34425458179912766 -0.09382870544126594 -0.07283567854168589 -0.03387600165433208 -0.10039270237861661 -0.0010794959868124956 -0.21467763364169645
0.23098276357167846 0.1552262171603094 -0.11248956302233204 -0.03318312884356894 -0.02404063437871986 0.10871967064928754 -0.07349757300916798 -0.11574778221446257
0.01010313001894444 -0.1058691981577527 -0.2613003986604415 -0.13345503320447094 0.3131758936567763 0.01716551708221163 -0.18116772193381006 -0.17102569672593468
0.15853259157450048 0.09864636097609314 0.0639377296483518 0.008797803517344896 0.13337517811176017 -0.07172335163852021 -0.11840823884313637 -0.08349043498051839
0.006650284851422358 -0.07689653018889614 -0.0056369543962490505 0.14532546049697348 0.1120882535657929 0.08627849022237714 0.00956055931263839 0.041048330509992535
0.19841751199400134 0.0890032744242274 -0.05941140738525355 -0.02601252901497952 0.12278070118118248 0.05872770988498085 0.12076723864186228 -0.04491152998008271
-0.13619742436591378 -0.25404558319881687 -0.08908306457095333 0.11547627118941559 -0.2032858314253029 0.12437483939752658 -0.21416674223438284 -0.21573151364265442
0.1275194279838472 0.08619727849837262 0.05758568595118865 0.11848652476632608 0.24221702662529032 -0.24320321674509376 0.08984660782633638 0.10237181842781805
0.07357517057619865 -0.08078382674384689 0.05643555039717388 -0.025303238788570444 0.026453051342718168 0.11070663365354644 0.049323943593051874 0.29532825484828856
-0.19714726324920057 -0.057866221594723204 -0.03013719592994213 0.021410889763630474 0.21879374769148413 -0.02293653662256359 0.10228300947470315 -0.16637803872266102
-0.2606732077194667 -0.13330813186069457 -0.1440577424488855 -0.00664650952194824 -0.10285965994240717 -0.03361109232773926 0.0022927911495255558 -0.15581326376509724
0.14917236251752997 0.046842247838056864 0.3758789980822667 -0.2385798141369979 0.1640659826776057 -0.1041581312682242 -0.06017731946118695 -0.055793791907449486
0.13518159376012356 0.0746718179573551 -0.044555601405286284 -0.10919595373516904 -0.11260924742377221 -0.18090621316889527 -0.0897916221112266 0.041365070165574724
0.06564087415275274 0.013252489462799548 -0.04200258503811295 0.148926697877169 -0.051977568833976216 -0.032566478489644474 0.10319046696422843 -0.05611619205128751
-0.30347119697645364 0.021587342002209912 -0.0703412104328467 0.14965176204507355 0.0776731091531927 0.0823899072212484 0.0644166940405688 0.03604902089943758
-0.018790218797284916 -0.2010003980318025 0.07395967429964705 0.22282627711285982 -0.07146002630206931 -0.09103377686557776 -0.18305810919274065 0.1195346804351269
-0.04126044962818757 0.15196334191182476 0.01486598894575922 0.24739900104165038 0.045808767484590104 -0.016429867813219 -0.011597336692942696 0.12310662767912686
0.15381304220416378 0.007582413568155848 -0.17321498821010858 -0.38954155033207755 0.08436691198178982 0.23306556037196652 -0.2070499877701489 -0.08524465546459978
0.002160893505509196 -0.11629513855786328 -0.1666607457772296 -0.16094960523872479 0.01586752823491345 0.14077498155463183 0.030306779347972053 -0.1736903363643707
0.1623811480607241 0.005287573135689863 -0.358913880414742 -0.208601104371381 0.04769306402378323 0.02060778209780396 0.016933782166105388 -0.06090864901132659

layers.0.bias f8 [50]
00000000: a1fe 61ee b9dc c13f 1749 fe4e 8c25 c13f
00000010: 5dff a1c6 de5e a73f 28ca a835 ba88 a2bf
00000020: ef45 dbbf 5208 81bf a289 af9f 8fab b13f
00000030: 628c b11f 9c9e a23f a4ea 6b1d cc08 adbf
00000040: 4095 9df4 190f bc3f 4168 3038 4286 67bf
00000050: 914f 83f1 fc9c ab3f 09f7 8773 9321 b43f
00000060: f5d9 9785 cb85 abbf 13fc c33d 0f6e 803f
00000070: 7c41 30d4 e092 bd3f e1a1 322c 3336 91bf
00000080: 8eab 9c3a a58f 9f3f 82a2 5a43 71e8 b83f
00000090: 4064 f53b 2470 883f f025 531c 6ad6 bc3f
000000a0: 1766 3b97 2d13 9c3f 2c76 ee03 f09b bc3f
000000b0: 73a5 2615 3760 bfbf 54ef 4385 5f37 afbf
000000c0: 9938 735b d45e bf3f 3bf1 069b 68cb aa3f
000000d0: 7847 f135 44ac b63f e6ef a91c 9a51 9d3f
000000e0: 72ca aaf6 d4ab b03f b27b 8eab cecf aabf
000000f0: 8eb3 38cb 98e5 bd3f 0c00 e01d 1e57 b23f
00000100: 44d1 4be2 f816 b43f 49a8 d563 acaf b7bf
00000110: 01f0 ad59 5767 bb3f 9c86 b1cf bf1e 663f
00000120: 65b1 a53a a2e0 893f 6b70 9e2b 5268 b5bf
00000130: e6ba f671 9b5b ce3f d1eb 53fa fa96 753f
00000140: b088 ed64 1014 bc3f c5cc 9207 f78e ae3f
00000150: 85d4 9e64 1082 b6bf b81d 0f48 bedd 90bf
00000160: 627d 2e73 2cdb b33f 65a3 312e acb7 a3bf
00000170: c134 bf32 e73b 96bf 1628 93d1 4872 c03f
00000180: ad5a 4d57 fd8b afbf c80e 59ce a8cc b23f
0.1395485319117045 0.13395837647528516 0.04564567732540923 -0.036199397134982825 -0.00831665657043154 0.06902406357361326 0.03636634718784461 -0.056707743255136195
0.10960542890605485 -0.002871636710108511 0.0539320988479225 0.07863732882102793 -0.053755149896392775 0.008022421905932864 0.11552243404753954 -0.016808318684214178
0.030821401312248357 0.09729679006944461 0.011932643012800281 0.11264670554660206 0.027416908603163117 0.1117544183348051 -0.12256187693005476 -0.06096933843397659
0.12254073364894892 0.05233313457890395 0.08856607739406097 0.028631599425793207 0.06512194654605155 -0.0523666939181945 0.11678461991750863 0.07164180974359641
0.07847552799996033 -0.09252431332939283 0.10704561175765549 0.00270020926613841 0.012635486044665975 -0.08362306179918881 0.23717063011778022 0.005270939237784726
0.10968115295466663 0.05968448607873137 -0.08792211967996096 -0.016470883510718543 0.07756307422686384 -0.038510685576347105 -0.021712887260765926 0.12848768456598297
-0.061614910990717454 0.0734353545931824

layers.1.weight f8 [50, 50]
00000000: d379 cd21 c53c c8bf e75c 01c4 c1dd b3bf
00000010: 24e2 5970 abea ac3f 4cc3 71cf f722 b23f
00000020: 21b4 2b21 f6f8 96bf 98a1 e64b 509b a23f
00000030: e066 034e eb8e 9bbf afa8 3d86 8faa c0bf
00000040: 6583 2782 d692 ba3f 8683 4f35 64b8 a93f
00000050: 557a 2e4c 7cae c13f 136d b19b cd79 873f
00000060: 207b c50f c0db b63f 489a 4376 f175 adbf
00000070: e393 169a 3ec4 bbbf f343 78e5 9d0c a83f
00000080: 8b5d afe4 6b6b 7a3f 04b3 95f6 ad32 be3f
00000090: a4b9 1c1d 3a2a b03f 43fa dac2 7b30 ae3f
000000a0: a257 3980 90d6 c5bf a00f 26ed 76cb b0bf
000000b0: 91ec 7d1d b4a9 9dbf a75e b96e 5e70 c33f
000000c0: 943d a5df 6217 c33f c28b a20f 4fc9 a9bf
000000d0: ffce 45c1 78e5 b33f eb63 2270 d7b8 d5bf
000000e0: 3f22 37d9 b9ab bbbf 0d3b 4272 052e bb3f
000000f0: 1917 3030 8669 ae3f 7643 37ff 6359 b3bf
00000100: 3599 43b1 e925 dbbf 4008 5394 de7c db3f
00000110: 7dc0 62b7 9e61 b1bf fc9c 9a92 a549 c8bf
00000120: 0ef1 7cba cbc7 b23f 9e99 0fd5 9937 bdbf
00000130: d0e8 82ec aad1 aebf 4d0f cf4c fc11 d43f
00000140: e5f0 2384 6d05 a33f 2535 0ea5 1f6a b5bf
00000150: a7cc d3f4 3eac af3f 975a b8db 8833 c53f
00000160: 2cda 33af d269 cabf 3f22 fa30 e83c c33f
00000170: 2d80 8cbe bc7c b13f a806 de88 9ce9 b8bf
00000180: 5b18 1f28 244e c6bf 0b99 b473 1f7b b7bf
00000190: b6f8 d18d 8129 ba3f 4991 741a 48b5 e13f
000001a0: 0a52 8135 d041 c4bf a082 6499 da75 b8bf
000001b0: accf 99c3 2089 cf3f a90c ae11 702e 9b3f
000001c0: 6078 5d28 cb00 c73f e91b 947b f8d2 bdbf
000001d0: 4575 af47 2f82 c03f 0982 117d ec89 b8bf
000001e0: 21ae bc0b 9dcb b9bf f1b1 9cfe 3b03 c53f
000001f0: 698b 2eeb f971 d03f b313 7b85 a39c d43f
00000200: 611f 84eb 094d c6bf d34b 7659 821e 9d3f
00000210: f33b 0edd 1600 aa3f dd1f 86b0 c605 d33f
00000220: ef6c 5b9b d608 da3f 1076 3774 b981 d13f
00000230: 2c7c 8808 4872 c3bf 4acd 446c f338 d03f
00000240: 903d c3be 4562 c03f 6e92 004a 7875 983f
00000250: 4147 6a71 8557 bc3f cdd9 d730 13d9 b73f
00000260: 747e 4678 3981 c93f 17d2 4bc6 0f23 a63f
00000270: 5ca7 7306 d06c c53f 2fbd 5c60 e9ae d3bf
00000280: d977 cf48 2f34 d83f aafe 4137 9bdf cd3f
00000290: 5bf5 cb8c 5523 cb3f 8e91 ced8 e8f8 b5bf
000002a0: 34d0 9771 a7a3 c0bf 2652 707c eb9b b33f
000002b0: 6dc0 9177 d338 a93f 808c b40f de08 91bf
000002c0: 5d20 d155 e461 c73f 7351 7f1b a69e 81bf
000002d0: db03 751e 3f7d a63f e497 0692 cdd3 c13f
000002e0: 137c 75c4 cd01 c6bf 3f7a 0cab 1599 c2bf
000002f0: 349b 30b9 f089 c33f 1e01 5aac e3df d1bf
00000300: 673f dedf 6d8d bdbf 3d71 e41f 7925 993f
00000310: 1bf7 b81f 8d16 c5bf bb8a 36f7 e1fa ba3f
00000320: 4c8a 75bd 0e2b b53f f2c6 4ddf 608a c5bf
00000330: 198b 290f 8a8a 8dbf 7e45 ef1f fb4f a73f
00000340: 7a50 a8c9 f0f1 c03f 6378 164c 9f01 d6bf
00000350: 45b5 01a6 66c3 b2bf 562a 49e7 3ede 6e3f
00000360: b7e8 72eb 5b7d d3bf a71d 29f6 067a d23f
00000370: 6163 d303 201e bc3f 40b5 9618 a7a2 b33f
00000380: 2381 4275 10a7 69bf 86f6 1581 ec46 bbbf
00000390: 8ff2 d86a b3ab c53f e06f 9e69 27cc b6bf
000003a0: 6a8e 7893 8626 b93f 996d fa45 04d0 b5bf
000003b0: 3c88 5c8c 881f c3bf 2d31 6b56 a598 cabf
000003c0: 7e4f 35bc aec8 d3bf 7e32 d226 aa3a c13f
000003d0: 9ae9 0e09 d59c c73f 1402 954e 4374 a0bf
000003e0: aa01 fe9b f79d b8bf f38f 4caf c1e6 babf
000003f0: 3868 a86c 9bcb 7ebf dd31 8646 e0a7 babf
00000400: b273 2486 2b7a b33f 5b0a e9f7 dce4 a13f
00000410: 3d15 b9bf 9db4 9a3f 5a26 02e6 a517 c53f
00000420: 0f95 15a6 4863 c4bf e838 265f 0b98 bb3f
00000430: 1215 9a6c 5996 c2bf e853 33e5 b459 a2bf
00000440: 7cf0 8435 682d c93f cb20 0fc6 28e5 d13f
00000450: fb7b 0b35 0630 d13f a4bc 2484 145d c63f
00000460: 6deb 3973 d384 bc3f 3e47 2f36 3761 8e3f
00000470: 754a 2fc0 4e92 b93f 3b71 d5d2 8186 d7bf
00000480: 981e daf5 e57e c3bf 031c 900b 0a10 cf3f
00000490: 6fb3 9978 6094 933f 3c4e c3ac aa27 d6bf
000004a0: cb4d c0ff 7938 a23f 79e3 4d25 0f78 793f
000004b0: 0f14 63ab b36f c83f bf61 968c 6633 ca3f
000004c0: a837 ad90 1fed c23f 1bfe e97f 80c1 c1bf
000004d0: 794d b208 6c97 c9bf 0d46 9d74 6e52 a7bf
000004e0: 2ded c685 1de5 d03f 4580 5dad dfbe cb3f
000004f0: 9858 61e5 965f cbbf e0a7 e48b f134 a73f
00000500: 435a 489b 908f b53f 270d a24e 5731 be3f
00000510: 2b41 4ff6 f066 d3bf f907 b2b1 79c8 753f
00000520: c3dc bbb4 d6d8 c33f cd3d 186c b71b cebf
00000530: c138 a754 1f76 ccbf 4ae7 d008 2d12 ae3f
00000540: 4aae 3fc5 3c9f b83f e261 6074 be05 b23f
00000550: 2107 af4f 0f10 b8bf 6347 8b73 8d7f a2bf
00000560: f7b2 259d 174d c63f 1522 5658 3e49 c63f
00000570: 64b5 874e e95b a23f 25e7 2d7a 78ab 993f
00000580: df64 db04 b1a1 9ebf 1e1c 5658 2edf c2bf
00000590: 3f9a cfca 92ea bc3f ed07 6ec6 d2ea ba3f
000005a0: 0a97 8b62 44a6 acbf c59b 5e11 27b8 b8bf
000005b0: d7b6 f10c 121a 813f 0bdf 196b 2b40 ccbf
000005c0: c4e3 030b fddc cb3f e284 a106 abda a73f
000005d0: 0ded 365a 76b9 d03f 3fb0 dc5d 9372 ce3f
000005e0: 942e 8094 5b42 a33f 6c9b e836 44fc 99bf
000005f0: c7fd 985b 931a b63f 25e5 c3e6 8123 a93f
00000600: f8da 4077 b55d a6bf e889 a307 b4e2 b2bf
00000610: 3369 26e7 6e49 cfbf c66d cc07 59eb c13f
00000620: fb2a c7ef c3b1 c9bf 4e2e a993 585c c73f
00000630: 4e0e bc32 2297 b83f 0683 85de a331 be3f
00000640: 5c1f c5c5 cc7f d6bf 5683 ee51 4bea 98bf
00000650: 03d4 9444 9208 c0bf f2b4 4ab6 bf34 b0bf
00000660: a120 cdbc 35f9 c03f dd4d e9a6 b50e adbf
00000670: 80d1 9fac ba01 b03f 3de1 8eee 87fd babf
00000680: 0156 5c44 1eb5 b63f 5aa5 776e a0fc adbf
00000690: f378 0f7a 3ad8 c33f dfbc d840 94ce b1bf
000006a0: e41b aaff c8c6 ce3f c18d 3f46 a29c b2bf
000006b0: d171 e0e4 b5d5 c6bf ff85 3866 bbdc c63f
000006c0: 29b5 9a60 8d0f bf3f 49c5 9ede 9a00 c53f
000006d0: 970c 4332 32f2 9dbf e33f 65bf 8df1 b63f
000006e0: c77a 28ce 867c cfbf 386f 7c19 7092 7fbf
000006f0: 8741 fa34 9b9e bf3f 8846 753d 3dad d23f
00000700: fb79 9f54 2e3e a03f 59dc aa8a 609f bbbf
00000710: 5294 b8bc 2b2d bebf 19c7 0212 6abf a03f
00000720: fa00 2a5f 19ac b43f 5c79 6050 a576 a93f
00000730: b85b ca2c 49f5 b93f 22fa a3af 8732 80bf
00000740: f273 3092 d9fb cfbf 39b3 0262 8fd9 e23f
00000750: e56e 5d6b 11b2 afbf 6108 3054 2356 d0bf
00000760: a464 49f5 98a2 c1bf 2e8b b08a a7b8 80bf
00000770: 45e7 b72f e846 cebf e57e 946f 8de7 d03f
00000780: 47eb e001 ebbb cfbf 9875 bbd3 276f c4bf
00000790: 6c6b 3680 6424 c53f cf9b 974a d7e6 9c3f
000007a0: f841 20ad 0112 91bf c806 d550 1af0 52bf
000007b0: 2ec4 80e0 c3ae d6bf 1b21 d677 9b51 a1bf
000007c0: bfdc e12b 3463 88bf 8e54 3846 1a37 a1bf
000007d0: b9c3 5cca c1f7 9e3f e058 8894 24fe da3f
000007e0: 9211 6241 db12 d1bf 22c0 9b3d f050 debf
000007f0: 6721 ed85 81b1 e03f c6b9 9b4d bae6 c0bf
-0.18935455465812243 -0.07760249171529986 0.05647788759683106 0.07084606947479449 -0.02243408753831855 0.03634119917416284 -0.026912380825570348 -0.13020509772042518
0.10380306890102771 0.0502349200321595 0.13813737602045487 0.011462789834857412 0.08929062256855191 -0.05754046028760179 -0.10846320402067948 0.04697125841278895
0.006450101335722445 0.11796080846916018 0.06314433298823602 0.0589636493073056 -0.17061048756539515 -0.06560462274324985 -0.028967680263559507 0.15186672598314496
0.14915119095028884 -0.050363989504397036 0.0777202102524903 -0.3394068331777464 -0.1080890803633645 0.1061709789230287 0.05939883554678555 -0.07558274250847127
-0.42418901740019815 0.42949642643737107 -0.06789581277075914 -0.18974752100368864 0.07336114218646037 -0.11412965251620341 -0.06019338738538382 0.3135977506719783
0.03715078580896306 -0.08365056781459097 0.06186100710501679 0.16563521126291356 -0.2063544612389746 0.15029623404940826 0.0683095898825747 -0.09731462804304647
-0.17425968131118705 -0.09172245573845232 0.10219583237082727 0.5533791081148048 -0.15825846302563235 -0.09554830784737556 0.24637231398412263 0.02654433353337696
0.17971171828225163 -0.11650040642790284 0.12897292137396668 -0.09585454991748334 -0.10076314484165795 0.16416120464545217 0.2569565579125795 0.3220604709170473
-0.17422603606996304 0.02843669577630321 0.05078193138535161 0.2972275470606272 0.4067894475135309 0.27354275082856905 -0.1519250909486528 0.25347600529785963
0.12799903692801395 0.02388561202691835 0.11071046847271494 0.09315605108699927 0.19925611851521163 0.04323624892814253 0.16738319697406723 -0.30755075846078034
0.3781851016082079 0.23338642309316998 0.21201581358756524 -0.08582930844437994 -0.12999432608160222 0.07659789836936479 0.049261673303477284 -0.016635389050077
0.18267492475775074 -0.008603379930641286 0.04392430540838862 0.13927621488727404 -0.17193004696579858 -0.14529677249898218 0.15264710466836962 -0.27929012137612286
-0.11543928828745963 0.024557011195711843 -0.1647507100005264 0.10539066586947403 0.08268825650660822 -0.16828547385698972 -0.01442439898273089 0.0455320812685711
0.13238344046169798 -0.34384901457258915 -0.07329408219239493 0.00376808439094604 -0.30452630990078994 0.2886979488289065 0.10983467191125619 0.07670063352880607
-0.0031314202734195203 -0.10655096198567024 0.16930239407692624 -0.08905264214121145 0.09824410534252484 -0.08520533283665656 -0.14939982274614916 -0.20778338164962787
-0.30912369136535023 0.1346028031879491 0.1844736379842516 -0.032137015669381125 -0.09616038854983935 -0.1050835659958123 -0.007518393637406411 -0.10412408563406168
0.07608291649780943 0.03494921232460931 0.026079621149866162 0.16478418093565744 -0.15927990064225425 0.10778876374226665 -0.14521329691721313 -0.035840657213760896
0.19669821370360185 0.27961177198131953 0.2685561674133507 0.17471558048552993 0.11140176356449923 0.014833861676297407 0.09988872711191184 -0.36758466328844336
-0.1523101282548296 0.24267697872730318 0.01912070022665396 -0.34617106315019774 0.035587131948115656 0.006218012965171543 0.1909088694430072 0.20469362129803234
0.14786142887390707 -0.13871771093180105 -0.19993353294976737 -0.04555077718272225 0.26398408950963664 0.21676250424479995 -0.21385465812881388 0.04532580216103077
0.08422187605933922 0.11794038457633303 -0.30315803579016415 0.005318141334216258 0.1550548918237152 -0.2352208402448767 -0.2223548091264487 0.05873242123239082
0.09617976966517819 0.07040014592383373 -0.09399505324747938 -0.036129398684024115 0.174227668506681 0.1741102153139457 0.03585747798556829 0.02506817098353688
-0.029913679048012006 -0.1474359446840205 0.11295430613936562 0.10514561981656785 -0.05595601752228958 -0.09655994581281309 0.00835050680162956 -0.22070830087226798
0.21768153226710585 0.0465901799768831 0.26131972131743525 0.23787157137974366 0.03761564433815781 -0.025376382686001106 0.08634301172514035 0.04909902517278856
-0.04368369179467452 -0.07377171694273665 -0.24442850386260204 0.13999474411762786 -0.20073746879491935 0.18250567636492793 0.09605611551892787 0.11794494803099206
-0.3515502864215614 -0.024331261516297907 -0.12526157711695882 -0.0633048839615247 0.13260528296291788 -0.05675285017482754 0.06252638544521538 -0.10543107580349882
0.08870114487611859 -0.05856801365355109 0.15503626785261523 -0.06955839713258481 0.2404414413797148 -0.07270254340215045 -0.17839692760106954 0.1786112069249128
0.12133105858329842 0.16408096189619872 -0.029244217221969206 0.0896233169817147 -0.24598774973215695 -0.0077080134285799 0.12351388972661513 0.2918236828018981
0.03172440321917588 -0.1079006517928617 -0.11787675244757281 0.0327103754983808 0.08075102399198278 0.04973332029497854 0.1013990148879732 -0.007908878371833575
-0.2498733485998908 0.5890576280849934 -0.06190542636497102 -0.2552574464936069 -0.13777458168877843 -0.008164700431796481 -0.23653890924452461 0.26413284203043325
-0.2479223021672061 -0.15964219892968567 0.16517311344508856 0.028224338462589146 -0.01667025202920233 -0.001155877779936908 -0.3544168178951307 -0.03382573926779938
-0.011907966221981757 -0.03362352473428941 0.030241992927759507 0.4217616510881168 -0.2667759073740622 -0.4736900903362785 0.5216682067630644 -0.13204125203578893

layers.1.bias f8 [50]
00000000: d125 8d00 f819 9cbf ce6b 7b84 ab72 bb3f
00000010: d188 5c35 3f2d 88bf 3857 afa0 388c 743f
00000020: 6f5b 7fc7 0563 9cbf 6050 b9a8 c186 c83f
00000030: ee76 6207 2b03 a43f a8ed 38c8 6679 a83f
00000040: 9821 831c cc8b 993f b697 f9dc 3a93 c43f
00000050: 08f3 cd26 cb3d 92bf 49fb fbe9 0281 7a3f
00000060: 1ac3 61c3 78e3 b43f 6e4e e504 cc27 a83f
00000070: 1097 6f5d 73c3 86bf 3788 622d 863c a23f
00000080: e01a 11d8 ab46 72bf f082 8e8c f97e acbf
00000090: b29d d312 51b3 b13f eea2 a2cf e1b2 b73f
000000a0: 4f3e 3e9b 08f7 94bf a1b3 8758 80d8 af3f
000000b0: a346 01c1 aa5b b1bf c8c9 e452 bcc2 a0bf
000000c0: 7985 3e5e de99 7fbf e18e 698d d3f2 b1bf
000000d0: 16c8 1814 2a6f b43f 271f 281c 57ae c53f
000000e0: a79c b539 62bf a4bf 0bf1 4a4b d24a a53f
000000f0: f3a0 f8dd 5f28 c03f 3e0b 9243 1086 9d3f
00000100: 8251 210d f16e b1bf 527c 871e 4b7e 9e3f
00000110: f78d 7892 9f09 b1bf c6eb 8812 3eda a93f
00000120: 0df2 7136 2244 af3f 51e2 7ae1 861a 8fbf
00000130: 2631 9e7f c00f ba3f 2f3f 8231 e61b b13f
00000140: 1a68 0594 a267 84bf 1df1 6ab0 7b97 b03f
00000150: 691f ccc6 2fd6 abbf d7d2 722d df76 a3bf
00000160: e658 426f 32bc a83f 3381 e78e 3f13 bd3f
00000170: 84ca 3056 cec4 b63f e4f7 de1e 830e 9dbf
00000180: 4e88 bdd0 f7bb a8bf 4fc6 6492 5076 b0bf
-0.027442812951709975 0.1072184751932774 -0.01180505162807713 0.00501653785882699 -0.027721491147385032 0.1916124414298137 0.039086670543140176 0.047801219884117174
0.024947346916435714 0.16074310102265849 -0.01781384872764405 0.006470691092316746 0.08159594316545019 0.04717862663042359 -0.01111498001950964 0.03561801246657164
-0.004461928620975469 -0.05565624085216381 0.06914240560182952 0.09257327384205968 -0.020473608470238876 0.06219864922227392 -0.06780497753177399 -0.03273571502576861
-0.007715099931290375 -0.07011148645829791 0.07982123366016966 0.1693829429134379 -0.04052264170132363 0.041586467448242535 0.1262321313709048 0.028831724285292674
-0.06809908457336714 0.02977864621959398 -0.06655309034299949 0.05049318290954079 0.06106669344532998 -0.015187314754585264 0.10180285564110089 0.06683195790014616
-0.009963293211217961 0.0648114495952012 -0.0543684892818977 -0.03801629476348516 0.04831082924026635 0.11357495535731203 0.08894052128088431 -0.0283756721107621
-0.048309082251549826 -0.06430533956588501
