main/discrete_time_identification (KdV)/models_iters/KdV_noisy_63000.pt (torch, 127868 bytes, 14 tensors)

linear_in.weight f8 [50, 1]
0	0x3fc1bf2c6d730879	0.13864665359693953
1	0x3fb3a686f095fab8	0.07675975202253482
2	0xbfade999f0ecb940	-0.05842286172843325
3	0xbfd4b6d0850f6bb1	-0.3236581134239556
4	0xbfbe5c8dfb6cc57f	-0.11859977138808196
5	0xbfc3574768f481f1	-0.1511010420299637
6	0x3fcb230952603b83	0.21200672647725236
7	0x3fe18e7ace6b7c39	0.5486425429952596
8	0xbfd15e8732a33285	-0.2713945383555159
9	0xbfb3838f11bed335	-0.07622617896306567
10	0xbfb177a50e98024e	-0.06823188406270583
11	0x3fd8a7890a15de66	0.3852255438318707
12	0x3fc99d6bb614c63a	0.2001165999477495
13	0x3f77634a609be2f6	0.005709925209651292
14	0x3fe33d5e0c04a572	0.601241134140919
15	0x3fc2b4cf0fd99d6a	0.14614284776619552
16	0x3fc9e1dc6d95e21e	0.20220523215154257
17	0xbfca7453adb85a7a	-0.20667501432827234
18	0x3fb3ff0f9b828268	0.0781106714880565
19	0x3fc56eeb440f97ce	0.16744747947012545
20	0xbfd2d71597c4539e	-0.294377706727852
21	0xbfd62d7e39deb534	-0.3465266766678099
22	0xbfc1b9fdbc5d2f10	-0.13848849961720378
23	0x3fa389c50b1091ae	0.0381604743963949
24	0xbf9debcfefedb920	-0.029219864863471945
25	0xbfa9a328569fa3a6	-0.05007291848580246
26	0x3fd8fc5cf04048cb	0.39040301763556035
27	0x3fcd537ea61a949b	0.22911055670298172
28	0x3fba6d7c61772ea4	0.10323312167673265
29	0xbfce7c9c7d0ea1a4	-0.2381778345709452
30	0xbfb0b556e81d8a3c	-0.06526702086333896
31	0x3fd979ec4d2fe61c	0.39806659257701127
32	0x3fd2642dcf6ec432	0.2873644376477983
33	0x3fc0fa777013862e	0.13264363262628492
34	0xbfb6dd2cec696e9a	-0.0893123700311044
35	0x3f968152e4b4f881	0.021977706154978186
36	0xbf77e0ef5b6ef0d7	-0.0058297490967868714
37	0x3fc0a5584a6fdd06	0.13004592547051902
38	0xbfd4a446abe2136a	-0.32252661500415647
39	0xbf971d14de02d500	-0.022571874666671654
40	0x3fcd8c9e83d3b818	0.2308538573919925
41	0xbfbb8d47041d43a5	-0.1076244721455298
42	0xbfcfc5cd6f9f0eb8	-0.2482239527727097
43	0x3fc18bf443d63e05	0.13708356201503605
44	0x3fd6f41ec2eb37da	0.35864991221467124
45	0x3fd82ec32602499e	0.37785414420900476
46	0x3fb53f6e93ebfb58	0.08299914466259162
47	0xbfb70a95034b755f	-0.09000521974981755
48	0x3fa4aeba7fd25cbe	0.04039557276080917
49	0xbfd1f504eddf004c	-0.2805797884902901

linear_in.bias f8 [50]
0	0xbfbe7d536a87ee03	-0.11909982062200446
1	0x3fc123ca9f41d4f1	0.1339047696707563
2	0xbfbcfba7b2da5d84	-0.11321495167282164
3	0xbfb34766833e7825	-0.07530823425483442
4	0xbfb829c33ff67075	-0.09438724814975948
5	0xbfb20dfac718a79d	-0.07052581177472779
6	0x3fba9f498d57c0c6	0.10399303150893777
7	0x3fa31dc2b4fef91a	0.03733643016265571
8	0x3fc1d8d10e792b95	0.13942921835618152
9	0xbfb355e17ea9d004	-0.07552918760649169
10	0x3fb0d92b6f325b37	0.06581374611628808
11	0x3faace01320c3a99	0.05235294090208704
12	0x3fabce9790fcb7da	0.054310547302847303
13	0x3fb66367eaf9992e	0.08745431410497836
14	0x3f95f842918c0c39	0.021454849370467797
15	0x3fb89b1ef7d86392	0.09611695815000434
16	0xbf9c39020661a531	-0.027561217917910944
17	0x3f868d95783c341b	0.011012237293039509
18	0x3fbac70af022a7c9	0.10459965098075864
19	0xbfb5a86f1827de00	-0.08460134830226451
20	0xbf8ae3ceab19d93f	-0.01312982043894506
21	0x3fb9fdee6f60f79c	0.10153093547066167
22	0xbfb62ccb4f748e2b	-0.08662100496126672
23	0x3fa2a88797c3e0ff	0.03644202926256134
24	0xbfa72d58c6d23592	-0.04526784350410219
25	0xbfa9e18b97378f1a	-0.05054889889632204
26	0x3fabb0ae30c5b85a	0.05408233971944361
27	0x3fb314a181ee865b	0.07453355238114893
28	0xbfbc75f9cbccb3d4	-0.11117516732765803
29	0x3fb40c7bcc07c9e2	0.07831548434459237
30	0x3f7608d29b9cde20	0.005379507719957682
31	0x3fb7ac09dbc8ac70	0.0924688493329755
32	0x3fafdf693acd8f92	0.06225136606988636
33	0x3fa0e4d0c4a53785	0.032995723728716654
34	0x3fbdf602a1f25b64	0.11703506902482058
35	0xbfa5002124563418	-0.04101661270679119
36	0xbfbc4a619bab9a25	-0.1105099682859892
37	0x3fb57599e84315ae	0.08382570190868563
38	0xbfaafb378d1d7dd5	-0.05269788358304665
39	0x3fb933d0e03d7a5b	0.09844689821827883
40	0x3fb90fedee2a6b2c	0.09789931358902199
41	0xbf955fdaa6fca31f	-0.020873466913289392
42	0x3fb5fdcf3dc68f3b	0.08590407617753908
43	0xbfa851cfd34cfcdb	-0.04749917463640837
44	0x3f9c415c9760836e	0.027593085040396863
45	0xbfb590462e2a9e59	-0.08423269869910523
46	0x3fb322fe23b0648f	0.0747526967173988
47	0x3fb9fb9c8cdb09e8	0.1014955371747771
48	0xbfb8b463839deaf6	-0.0965025135355225
49	0xbf433061dfc4b39c	-0.0005856016064505923

linear_out.weight f8 [50, 50]
0	0x3fd1dc9eb43d1ed3	0.2790905723709162
1	0xbfe2c8cba5f442d6	-0.5870111695567981
2	0x3fe79eb8d109dd71	0.7381252367767229
3	0xbfe0e01e2a5abf36	-0.5273581340061131
4	0xbfd2505bb26fe125	-0.28615467477313167
5	0xbfe78896f4d1227b	-0.735423544080802
6	0xbf8ab43449186059	-0.013039024811448184
7	0xbfda4b31379d3f43	-0.41083937102392926
8	0xbfd3338fac630179	-0.3000220473732252
9	0x3fd4425309e2d187	0.3165481182616294
10	0x3fdd7cc0eafc8f53	0.4607393545904774
11	0x3fbbdd8d02c99cd0	0.10884934728675266
12	0xbfd6d3794d4b1e3b	-0.35665733860193755
13	0xbfbfa811b6c1f16e	-0.12365828239302853
14	0x3fd6aed553459125	0.3544209778977055
15	0x3fe86985d6d5684e	0.7628812023133464
16	0x3fd12f0d0f1e5dfa	0.2684967658655918
17	0x3fc65f8d82a22d7f	0.17479103926266856
18	0x3fe4cfc335437a40	0.6503616371445062
19	0x3fd1e67eda5007d1	0.27969332999793745
20	0xbfd4cae7051be647	-0.3248841810123832
21	0xbfd7d0259d615097	-0.37207928055910017
22	0xbfb314c9e4aec593	-0.07453595955919061
23	0xbfc6adc37317be60	-0.1771778404213249
24	0x3fbf169988002c53	0.12143859453515064
25	0xbfc868ca90f91835	-0.190697975909815
26	0xbf9e657310351508	-0.029683874000757476
27	0xbfcc0a1e153db808	-0.21905876195108953
28	0x3fd680e26a5729ea	0.35161648163616965
29	0xbfd8b43b020eb5cb	-0.3860003967373273
30	0xbfcd76c3e5903683	-0.230186926928969
31	0x3fd00c572dd1cd6c	0.2507532069641545
32	0xbfdb2f839d98deea	-0.4247750319513971
33	0xbfaee7a413f4e256	-0.060361030040841854
34	0x3fc65b6c94d62d9c	0.1746650435201048
35	0x3fe398cf485558f2	0.6124035275231832
36	0xbfd33b63130a9908	-0.30049969539176447
37	0xbfbba6d7fac09ed6	-0.1080145823658499
38	0x3f91946482aa04ed	0.017167635417085703
39	0xbf92924b6e67a087	-0.018136194814275555
40	0x3fb87a0249c5041a	0.09561170865073657
41	0x3ff5c72fc6bb1049	1.361129547397484
42	0x3fe22839f39a1d9f	0.5674104459621282
43	0x3fe070c52fceead2	0.5137659009700093
44	0x3fcd85f4116eea88	0.23065043307527255
45	0xbfd3419db525de13	-0.30087988558031603
46	0x3feb3476ff2f76e7	0.8501543983545304
47	0xbfc7ced73a52eaa4	-0.18599977825018243
48	0xbfc37fd8efe4fe74	-0.15233909333800322
49	0xbfd74de1c29dbf28	-0.3641285324620065
50	0xbfd13b85b16228b7	-0.26925794909096673
51	0xbfd472629271d67c	-0.31948150922048746
52	0xbfd914f0271f8b50	-0.3919029600203219
53	0x3fa5cdc7d9841db0	0.042585606863265624
54	0xbf90bdcc42373699	-0.016349021474346335
55	0x3fda86f1df90843e	0.41448637802574584
56	0x3fc9aa02a6b45a73	0.20050080432766357
57	0xbf8ef124b7e54831	-0.01510838209347662
58	0x3fd56107bfc4dc28	0.3340472576850879
59	0xbfcaad17d5f58c14	-0.20840738246178658
60	0xbfc9615a032b5b23	-0.19828343539003254
61	0xbfc67d50211ea51a	-0.17569924943135434
62	0x3fc0285e36481067	0.12623193407501107
63	0xbfc676bb70844198	-0.17549841875053285
64	0x3fc7a37059f749d5	0.18467525856847425
65	0xbf80b6e3b055b86d	-0.00816133386498682
66	0x3fb20ae57a720d6e	0.0704787658633472
67	0xbfd05770c810abbc	-0.25533694779977245
68	0xbfb2175a519b2485	-0.07066883556685084
69	0xbfcecf0432954412	-0.24069263906361066
70	0x3fd31992d4d9b123	0.2984358862511433
71	0xbfcd162e649f81d1	-0.22723941720233978
72	0x3fcc2798b6e91293	0.21995839053319752
73	0xbfd9b1233e18bd0c	-0.4014366251385162
74	0x3fa1f6b1d3f0a367	0.03508525573881265
75	0x3fd218e222296070	0.2827687581643721
76	0xbfc0aded8d161c26	-0.13030785931570782
77	0x3fd74296f7792ca0	0.36343931357687076
78	0x3fd3ddbda709b3d5	0.31040898620886753
79	0xbfc43a6831701bb3	-0.15803244031869
80	0x3f9a6b1c69593800	0.025799220972025694
81	0x3f906caa38f6c37b	0.01603952381782701
82	0xbfcbd4462bc77ab3	-0.21741559159905463
83	0x3fc361b9746fa91e	0.1514198130165107
84	0xbfc5d428fcfe1df3	-0.17053711274296254
85	0x3fd6e388538ca02d	0.3576374832068748
86	0x3fc68bcb235dc525	0.17614115931386568
87	0x3f981713d86a3168	0.023525533756172307
88	0xbfc1bede74efaf8f	-0.1386373587587255
89	0xbf9c49b3bd887794	-0.027624901240521263
90	0xbfdd27e6bafb9d01	-0.4555603815083061
91	0xbfdef0c284777b09	-0.48344481407359347
92	0x3fc16f4606e66c12	0.13620829903524673
93	0xbfbc98bce49fac06	-0.11170559484132533
94	0xbfc508bd3b8f6c26	-0.16432919891562497
95	0x3fd3b2af294b139d	0.30778101952119546
96	0xbf6396ade6014cb4	-0.0023911854223484744
97	0x3f9a064d6314a9f0	0.025414666340262515
98	0xbfa9eacd6a71b1d7	-0.05061952518812845
99	0x3fdb1f84a06fba7a	0.423798710514269
100	0x3fc79456ffd23518	0.18421447268739466
101	0xbfdf0fcb8b4f5dac	-0.48533905605787697
102	0x3fd7abd94be7fea1	0.36986381924359973
103	0xbfcb4cd92e837f41	-0.21328272601294354
104	0xbfbd42144ba03d07	-0.11428953977905475
105	0xbfca204d239a9a23	-0.20411075819466004
106	0xbfcf24d04470883c	-0.24331096021438892
107	0x3fa1e33acabdfb60	0.034936749695581026
108	0x3fd1a107c39ddaaf	0.2754535112684761
109	0xbfa700bcf4ff449f	-0.04492750635802988
110	0xbf9d221e0e723888	-0.028450460082745127
111	0x3fbf97eb24fed72c	0.12341184285363899
112	0xbfc2996396f7de27	-0.1453060614728525
113	0xbfbded19e6099a07	-0.11689912668371259
114	0x3fc5191075fe2175	0.16482740174638946
115	0x3fcf5e5e7d98e0b4	0.2450674165027117
116	0x3fd28732f2796e7e	0.28950189284453376
117	0xbfc3e5fe07b64ae0	-0.155456308141388
118	0x3fcde18637d4395e	0.23344495512032898
119	0xbf951a65574a492d	-0.020608504727143973
120	0x3fabfb9996e9371a	0.054653930351021354
121	0x3f4683648b24b24f	0.0006870499549101547
122	0x3fe044e750e65b0c	0.5084110813212148
123	0xbfc38d863c8a7f9c	-0.1527564807520293
124	0x3fd49b642aded886	0.32198433100291657
125	0xbfdeabc94cbe377e	-0.47923500532566965
126	0xbfd3cf900b846db0	-0.3095436203454609
127	0xbfd21bca73ebca2d	-0.2829462177316227
128	0xbfc295f5713f58f1	-0.1452013781515187
129	0x3fc1b1252eb300fe	0.13821854381786375
130	0xbfcb38ecdc3c8162	-0.21267472032287588
131	0x3fc20ea8bc032085	0.14107236080440458
132	0xbfb5284e16c669fe	-0.08264625602752315
133	0x3fcd93e203397a25	0.23107552678534762
134	0xbfa33c1979a3c36e	-0.037567897890659604
135	0x3fe6a9355537fd5e	0.7081553139141012
136	0xbfb2d979067c5a3d	-0.07363087089866212
137	0xbf9f00c6cbbb5f6b	-0.030276399788675173
138	0xbfc390b27920c95c	-0.1528533069081942
139	0x3fc0122735bf881d	0.12555399059698483
140	0xbfb7afc0cdeeb6da	-0.09252553012512568
141	0xbfafb8e668444135	-0.06195755026613129
142	0xbfbbd9fe5f451959	-0.10879506898809178
143	0xbfb51e1eab288ff5	-0.08249084166214955
144	0x3fd1d128a10dbc5a	0.27839103439231894
145	0xbfb985149b4f429f	-0.09968689719904454
146	0x3fca746878ff6359	0.20667749317251596
147	0xbf81e08b7f40b246	-0.008729066677994567
148	0x3fa3708e4112a3f1	0.03796810669275164
149	0x3f9d23a245cdcd16	0.028456244955532638
150	0xbfcea30c7e5e4ac3	-0.23935085459068803
151	0xbfe290ce1170d0ed	-0.5801763859404027
152	0xbfc3d8c0dbd8abe4	-0.15505228743253874
153	0x3fda9e1ee91bc5dd	0.41590092434407017
154	0xbf8a1165e1554ef3	-0.012728496493458396
155	0x3f9535aac49cf00e	0.020712536096866123
156	0xbfd073721724e681	-0.2570462442414297
157	0x3fb33a9884976662	0.07511285054297326
158	0x3fb8cc7d2c6726e2	0.09687025388771134
159	0xbfd1faa14453e9b0	-0.28092223808894357
160	0x3fc3e3f279617f38	0.15539389540480797
161	0x3fc2509e2ba8bd2c	0.14308526164811874
162	0xbfbef40b942567b1	-0.12091133467529748
163	0x3fc4f579a8372882	0.16374130929608915
164	0xbfc54fe8c9170d3c	-0.16650113886690032
165	0x3fc8b7af53da749e	0.19310561746980154
166	0x3f8187ef1f8e881b	0.00856005492261507
167	0xbfd90abf02701826	-0.39128089178155034
168	0x3fc1846d8e9c2ad5	0.13685388053303052
169	0x3fc9803ce2a79e38	0.19922600810171942
170	0xbfcc1a56efe5b9df	-0.2195538207410683
171	0xbfbe44ed904c3bab	-0.11823925755400803
172	0xbfb5ff7b2200c131	-0.08592958049917311
173	0x3facc1050db46d15	0.056160123751590664
174	0x3fc9239e47bf2752	0.19639948371178179
175	0xbfbb268a7117f11d	-0.10605683575699172
176	0xbfbb9763ef01ebb9	-0.10777878365654105
177	0xbfd47d2f4a4be5d4	-0.32014066939845276
178	0xbfca85a23d5885af	-0.2072031783618917
179	0x3fbe238bb2e908b6	0.11772988431860906
180	0xbfa7b71d53488e6b	-0.0463189281620345
181	0x3fc56c0904fa33d0	0.1673594736388666
182	0xbfc4908a9cd8530d	-0.16066105516861065
183	0x3f60588400d9ceee	0.0019953325452720582
184	0xbfad2c7273d74c90	-0.05697972930979589
185	0x3fc7d8cf403b1d0e	0.18630400310778622
186	0x3fbebc67812daec8	0.1200623216988631
187	0x3f81bcf8e1676264	0.008661217097072078
188	0x3fd308d43a2bb07c	0.29741388016441994
189	0xbfc6207043f99dc8	-0.1728649455937854
190	0x3fad57d31b75b1a7	0.05731067381097726
191	0xbfaeeed663841296	-0.06041593518060499
192	0xbfc36f97bcb87938	-0.15184303965447454
193	0x3fb103c62d3de15d	0.06646383862051182
194	0xbfc0cb1acb076c6d	-0.13119826234364798
195	0xbfbd11f77d998baa	-0.11355540100480135
196	0x3fb64ee8eb953cef	0.08714156867539534
197	0x3fd664a732677cde	0.349893378470325
198	0x3f83052ebbe54dc4	0.009287228688356637
199	0x3f9414d30c7a26b2	0.01961068881659029
200	0x3f910cce5a0a3543	0.016650413747403957
201	0xbfdd18c9c4c481a1	-0.45463794913851
202	0x3f8e7ad8fd93b7fd	0.014882750738674838
203	0x3fcb5b618bdeca38	0.21372622804263286
204	0x3fa5d6978b5066af	0.04265283179865997
205	0x3fcceba4424cfbaa	0.22594121205653767
206	0x3fac2ec0dc347313	0.055044199829558015
207	0x3f81f5e0ad3f9439	0.008769755637283537
208	0xbfa2e1a68caa2ea9	-0.0368778273305826
209	0xbfc35acd41b77c5a	-0.15120855053735022
210	0xbfc7ac79bab62563	-0.1849510347058568
211	0x3fc9c62015d79df1	0.20135880533710762
212	0x3f9fe4a9ff33388a	0.031145721627404067
213	0x3fb081d71c6b088e	0.06448120540429356
214	0xbf66b360a9c63bb5	-0.0027710807755236496
215	0x3fd47c0991273221	0.3200706403265788
216	0xbfac2add2bcee26b	-0.05501452598349917
217	0xbfc097e063896046	-0.12963490352808743
218	0x3fc3659489a25aab	0.1515374824563954
219	0x3fae42d10425a794	0.059103519207226146
220	0xbfd0f73450ddfa3b	-0.26508815667321856
221	0xbfc1d25d755b445c	-0.1392323325185626
222	0xbfb085e485d5e127	-0.06454303996531917
223	0xbfa0b7a1202a06d4	-0.032650981117524985
224	0xbfa6862a2a38d7f5	-0.04399234548002077
225	0xbfb98728981945e7	-0.09971860612247206
226	0xbf49604eda0bd24e	-0.0007744202631259718
227	0x3fbd2193a20ab932	0.11379358965016165
228	0x3fa858adcc1d037a	0.04755156628244257
229	0xbfc89ee568bd5be5	-0.19234912504427296
230	0x3fc3ad100cc76de1	0.1537189543149529
231	0x3fab9fcdd0a7837b	0.05395358249712153
232	0xbfc6cc22bfc849b5	-0.1781047283589722
233	0x3fa0c37b70f28e0f	0.03274141076806469
234	0xbfbe8277194b726f	-0.11917824142023802
235	0x3fca69101f0b7380	0.20633126750808728
236	0xbfb1ceadd7c0ff48	-0.06955992238453945
237	0x3fb3e42e37a83bbf	0.07770050867860244
238	0x3fcc97c38b20df6d	0.22338146489505153
239	0xbfc4dd8e55325c90	-0.1630113521575578
240	0xbfb481109d41daa0	-0.08009437407768383
241	0x3fc770166b2f42c3	0.18310814126609473
242	0xbfba3742369e9347	-0.10240568002207083
243	0x3fc87929ce8bd8fb	0.19119761071460303
244	0xbfb05efa2f13f00f	-0.06394923829424236
245	0x3fb8120f46e0e42a	0.0940255687754791
246	0x3fc46a41a342b96e	0.1594926879092315
247	0x3f927dfc395c8d8c	0.018058720589704744
248	0xbfcdba497af72383	-0.23224752906960697
249	0xbfcd3b838386b1ec	-0.22837871477294358
250	0x3fc3ab07d4f02a6a	0.1536569394814536
251	0xbfd511129cc051b5	-0.3291670351766485
252	0xbfc2d69bd17fd0e5	-0.14717433671433536
253	0xbfb267485339aa64	-0.0718884661852513
254	0xbfce7cc08f742aa3	-0.23818213467196356
255	0xbfb2423dff3ee0a5	-0.0713232753904572

linear_out.bias f8 [50]
0	0x3fbb1f520c79cc18	0.10594666294655075
1	0x3fab3a295f0f240a	0.0531781128443712
2	0xbfd658139ea155cd	-0.3491257714389036
3	0xbfb54d295dfb8e47	-0.08320864243028679
4	0x3fc285f23fba3ba6	0.14471271621411325
5	0xbfa6b36f010640cb	-0.044337719798137686
6	0xbfb6bd5ef9dbf0a8	-0.08882707214428598
7	0x3f7cfb1436229e1f	0.0070753850469951465
8	0xbfaf732a4a64d8f2	-0.061425515729227956
9	0xbfa2504ec4d0d5ff	-0.0357689490560169
10	0x3fc3d44165707e46	0.15491502240273486
11	0x3fd0967464ed9beb	0.25918302398934995
12	0x3fd882225c9ba62d	0.38294276279211453
13	0x3fd01f4182e241e9	0.25190770894644615
14	0x3fc0d1436c700db8	0.13138621134576822
15	0x3fbb8a8db21a694c	0.10758290861341385
16	0xbf630ca4f9d41417	-0.00232536527494399
17	0x3fbeccf1efc09cbf	0.12031471350984456
18	0x3fc887dbc2de9d33	0.19164607062450897
19	0x3fa58d432bc00789	0.04209337147768994
20	0x3f89da754a54bf9c	0.012623707133201205
21	0x3fc2d1a2b4ca68e3	0.14702256992024507
22	0xbfcc7e02dc810a06	-0.22259555594253316
23	0x3fb40caa137ad9a5	0.07831824279387563
24	0x3fa6bd541561a366	0.04441321145060932
25	0x3fb5a3238d216e1a	0.08452055163927988
26	0x3fa9d4c1c0e748df	0.0504513309457637
27	0xbfa5d9e59c24d666	-0.04267804652264999
28	0xbfa600726eec9aa2	-0.042972160378032656
29	0x3fa71bf378d2dadd	0.0451351246824083
30	0xbfa1fde429ec46dd	-0.03514016162638509
31	0xbfc0624d627303d2	-0.1279999476155625
32	0x3fc1e91917f81255	0.139926087096813
33	0x3f6d3d72bbc9e423	0.0035693398370395687
34	0x3fb0c7e5294ad525	0.0655501581012073
35	0xbfb068150040d90b	-0.06408816581901904
36	0xbfb101b983e49d78	-0.0664325663570845
37	0x3fb2a3bbae53b58d	0.07281086927442555
38	0x3fc2a63f8bd7d6a0	0.14569849327351836
39	0x3fc0bce6773a1efc	0.1307647783435114
40	0x3fb904b77eda9441	0.09772822234170155
41	0xbf894dbef989f6e3	-0.012355319967578498
42	0xbf6eefd99c815f3d	-0.003776478788534292
43	0x3fb93161e5184e55	0.09840976565492927
44	0x3fbc8e70caa0d324	0.11154847094514914
45	0xbfb0f37e02026687	-0.06621539639527373
46	0xbf8a874d447e8da6	-0.012953380253583568
47	0xbfbe3ff5ca3fa6d3	-0.11816345393858833
48	0xbfb06b1591080a18	-0.06413397589498293
49	0xbfb0796e8ce9a7ae	-0.06435290279628589

layers.0.weight f8 [50, 50]
0	0xbfd17142118db5fa	-0.2725377246304955
1	0xbfae313e32327454	-0.058969443919729386
2	0xbfccc73e38bcd151	-0.22483041544331653
3	0xbfa3aff438c83ac6	-0.03845179741994324
4	0xbfad60a750ece963	-0.057378033283799444
5	0xbfc5430b5582fb28	-0.16610852885602267
6	0xbfc1bdaee2839a6a	-0.13860117016084256
7	0xbf9c87b8fd16a78c	-0.027861490676208286
8	0x3fadc695a226c35b	0.05815570454013282
9	0xbfc094462b8bd097	-0.12952496649052556
10	0x3fb20cf70c06ceb0	0.07051033061616852
11	0xbfd0ab6fbba613f5	-0.2604636509425398
12	0xbfbd1666a26d224e	-0.11362306085096316
13	0x3fb0ad1906024063	0.06514126202296348
14	0xbfba6f7ad97807f0	-0.10326354798601733
15	0x3fbdce99e3767acf	0.11643373301783842
16	0xbfc7fb3a09a56407	-0.18735433073996452
17	0x3fc63ccaad7314aa	0.17373021573272257
18	0x3fab8257baac6ad1	0.05372881082276638
19	0xbfd16a0aeeb5ad8a	-0.2720973330640041
20	0x3fb3175cc8700e00	0.07457523244379871
21	0x3fd53e6b9fcd74c5	0.3319348393031983
22	0xbfc27281241b335d	-0.14411939871788607
23	0xbfb6049b81bead49	-0.08600780408476284
24	0xbfbca41e4095d6b7	-0.11187924458303199
25	0x3fb7168da50583f0	0.09018788603636074
26	0xbfc838d002acdab3	-0.18923378115296927
27	0xbfb197a9d4879720	-0.06872044981681968
28	0x3fa1f401b89fb5d6	0.03506474856099444
29	0x3fcdad43fe3f5b36	0.2318501464312363
30	0x3fc8c2ab87a730c6	0.19344085811315476
31	0x3fbc63a38461eed6	0.11089536649700035
32	0xbfa346b572758a85	-0.03764884016233786
33	0xbf42a365589e308b	-0.0005687947134318678
34	0x3fd5506295f08a99	0.3330313171629001
35	0xbfcec9408a14cd36	-0.2405167268967518
36	0xbfb0245283558cf5	-0.06305423456574373
37	0xbfa03e8ba4fa92f0	-0.03172718418981002
38	0xbfc7203ddac8c752	-0.18067143614603737
39	0x3fd21127c6e5ff21	0.2822970812194275
40	0xbfba70eb8068b5bf	-0.10328552136407775
41	0x3fc61f3c67328cff	0.17282824553431195
42	0x3fd14ad8decf0550	0.2701933074823346
43	0xbfa6af4652055bfc	-0.04430598975402941
44	0xbfcc97670f3fc9d8	-0.22337043995464856
45	0xbfa29051f04b99a9	-0.03625732477466965
46	0xbf753b9766cf248a	-0.005183783924573091
47	0xbf665e45e1a16051	-0.0027304997320634424
48	0xbfdca78704e6a933	-0.4477250621663586
49	0x3f953b19f5b822f7	0.020733266470446456
50	0xbfcf2759c8befe8c	-0.24338838865331913
51	0xbf8200b4b455d651	-0.008790408852955485
52	0xbfbdbc74b303660c	-0.11615685816232019
53	0x3f93a11ddf9bedf1	0.019169298909202884
54	0xbfcc6c2d8e5c7547	-0.2220513291476129
55	0xbfc3fee9ec998538	-0.1562168507835311
56	0x3fc93cb0391a940b	0.19716456211349995
57	0x3fd200d99c1fdbf8	0.28130188223388997
58	0x3fa62a06df5a4c06	0.0432893893859259
59	0xbfc3d219b5d57e30	-0.15484925631152313
60	0x3fb49ee7da9cebc9	0.08054970824461728
61	0x3fc0832c35ec40a2	0.1290030730529042
62	0xbfc39c90184582d8	-0.15321541962750618
63	0x3fd54e68e8f0b2ca	0.33291075466221953
64	0x3fb6cf36936f3565	0.0890993223140036
65	0x3fc78ed7a6bdfec1	0.18404670373637624
66	0x3fd11aefea1d0c2f	0.26726911413806226
67	0xbfcc2a7055d4907a	-0.22004512968954143
68	0x3fca5c94b7e0d538	0.20595034578733773
69	0x3f96e992a0969fbe	0.022375384379898604
70	0xbfd74aa8a4d80769	-0.3639318094066
71	0x3fb964e273a8ca03	0.09919562648500606
72	0xbfc5c127f9a3bd98	-0.16995715798792044
73	0xbfc1ce973422e9c5	-0.13911714597436578
74	0xbfda1bc7d9927536	-0.4079455971458005
75	0xbfb27d6d260774a5	-0.07222635439343834
76	0xbfb2a89a105c061e	-0.07288515948678095
77	0x3fa195432b211ace	0.03434190656166934
78	0xbfb4eac5fcc9c82c	-0.08170735761248754
79	0xbfbb3579d820d559	-0.10628472830361115
80	0xbfab7bfd9bf228d7	-0.053680348669404125
81	0x3fd16a35106cf5f5	0.27210737804475055
82	0xbfad08a48a620b3d	-0.0567065638470212
83	0x3fc6882faf943052	0.17603107522188793
84	0x3fb03b38a2cf5b7b	0.0634036443219496
85	0xbfc48b1df53ed073	-0.16049551463004583
86	0x3f9a9b3fc67b0a68	0.025982853402420153
87	0x3fc8aaa624a3fc2e	0.1927077940854089
88	0xbfa01391beb5aef8	-0.03139930203437119
89	0x3fb34c9cf247bb12	0.07538777270358946
90	0x3fc625785702f500	0.1730184960232819
91	0x3f9d6af35a491552	0.028728296647633052
92	0x3f8aca60fccdedf2	0.013081319537142175
93	0xbf71036bd640c92e	-0.004153653371803663
94	0x3fc621c88879db6a	0.17290598548762698
95	0x3fc6adefa38a3908	0.17718310819004324
96	0x3fc751c2eda6e677	0.18218266109561274
97	0x3fd84a8d29fc9309	0.37955025768523903
98	0xbfc14481c59351d0	-0.1349031653140984
99	0xbfa850fb2f1ccab2	-0.04749283743003242
100	0xbfc383e2e39c1e27	-0.1524623500229023
101	0xbf39c7a79cc46eb7	-0.00039337007616933477
102	0xbfb908e18b74af1c	-0.09779176382715743
103	0xbfc6e90aafcd60d2	-0.17898686966032656
104	0x3fc71d8e5ee8dce6	0.18058948168047734
105	0x3fc3079d8bec6730	0.1486699040622681
106	0xbfbaf4d5779a9bf6	-0.10529836816805002
107	0xbfb1b2336d502dd7	-0.06912537974147114
108	0x3fb3d9d27c3c2085	0.07754245312765036
109	0x3f9b5dfc1b1f76f4	0.026725711017085055
110	0xbf9b198d95328d05	-0.026464664679804368
111	0xbfc33150938617a0	-0.14994246676741074
112	0xbf73e4c75da04925	-0.0048568523143493235
113	0x3f9d66346b751872	0.02871019273631998
114	0xbfd377f73ab8e5ab	-0.3041971276721493
115	0xbfb23d7eb7bda515	-0.07125083909854298
116	0x3fcf5ad9b0a2e426	0.24496003269976646
117	0x3fb3ff10de4c619b	0.07811074664312516
118	0xbfb4e87090774557	-0.08167174841880374
119	0xbfd479778d4f26fe	-0.31991375732160054
120	0x3fcbae3d644a5495	0.21625487706174754
121	0x3fc52c8b70ea78f3	0.16542189610931465
122	0x3fa80431fe7c2973	0.04690700751787604
123	0xbf6b80c731b35a55	-0.003357304621754135
124	0x3f8934dd04a0a987	0.012307860091898671
125	0xbfc5484d8d9c5f79	-0.16626901068297764
126	0xbfc325eac35a1022	-0.14959463633215458
127	0xbfbe418640bd44ef	-0.118187323384763
128	0xbfb19e3e62c40ed5	-0.06882085715556781
129	0x3f8726ea03a621bd	0.011304691540105044
130	0x3fb878b6b8c8648f	0.09559194575594375
131	0x3fbf3c5d1a8db89d	0.12201482675820548
132	0x3fb9833feb0008ec	0.0996589611750413
133	0x3fabf377a241fe00	0.054591883236749794
134	0x3fb9079adf2d154d	0.09777229260096938
135	0xbfb1390b9dfc251a	-0.06727669341139056
136	0xbf8578f862d051fb	-0.01048463870578419
137	0x3fc64365f996116a	0.1739318340952523
138	0xbf9b895fa31ff00e	-0.026891226130814565
139	0x3fb708ba957a34fc	0.08997694157934072
140	0x3fc0a919ec9d4a94	0.13016056111753882
141	0x3fb88578dac75427	0.09578662244105428
142	0x3fc843faefd730c0	0.18957459174123947
143	0xbfbd59fa6a2fb6b8	-0.11465420811119997
144	0xbfc71cc5d5428e07	-0.18056557572445817
145	0xbfd5375aab5f2e25	-0.33150355086829314
146	0x3f9dd695b80b4beb	0.02913888870063978
147	0x3fca5876bfd2ffd4	0.2058247028962784
148	0xbfd53552c34b094d	-0.33137959548561896
149	0x3fc7188ee09c0754	0.18043695418605898
150	0xbfc9fc4b0f8b84ef	-0.2030118776229197
151	0xbfca73495de367b7	-0.20664326748265946
152	0x3fbfefcb641294e7	0.12475272362879118
153	0x3fb264d3afa116b0	0.0718509963781695
154	0x3fac367efb55fc06	0.05510327165665534
155	0x3fbac55ba2ed7b88	0.10457394340254045
156	0x3fd041f8a1c08fc0	0.25402656360733644
157	0xbfcc648a4ca649fa	-0.22181824438719372
158	0x3fb474b6f74f3b6c	0.0799059251578293
159	0x3fb6d6bcb2b51575	0.08921412814114212
160	0x3f7df1d9d21ed93a	0.007310725080904407
161	0xbfaf226d3b2ce629	-0.06080952975612448
162	0x3fb219f009795a09	0.07070827704715311
163	0x3f80317f8540095e	0.00790691018483319
164	0x3fa8cd04d62e25eb	0.048439170022060406
165	0x3fbe8bd80df8695f	0.11932134953568639
166	0x3fb0ada1a627bf2d	0.06514940554165767
167	0x3fd18c654803e1a7	0.2741940692208353
168	0xbfc74ce46e7b2048	-0.18203406710222425
169	0xbfb090df726bd313	-0.06471058410154411
170	0xbfa95f756a96ebee	-0.04955641676084342
171	0xbf628cb0255c7eb8	-0.0022643509245339997
172	0x3fcb346890a48725	0.21253687918311318
173	0x3f989baeb576671c	0.024031381440727903
174	0x3fb65f25aa68d89c	0.08738933000936061
175	0xbfc6cf506eb01337	-0.17820172695805933
176	0xbfcf0e5c2b092b5e	-0.24262573338850307
177	0xbfbe9617ed9933c0	-0.11947774458640392
178	0xbfb728ac7ba53dbd	-0.0904643823498565
179	0xbf8f52a46be86e69	-0.015294346373642758
180	0xbfbb04c65d50d62e	-0.10554160860268588
181	0xbf8dc4b2e680dc23	-0.014535329493908183
182	0x3f93d8600185e2cc	0.019380092709499405
183	0xbfc22542461a8831	-0.14176205084828689
184	0x3fc16b72d0a20971	0.13609156787067492
185	0x3f862462fe643ad6	0.010811589611447497
186	0x3fd76ded9862e915	0.36608447915536263
187	0xbfcc924ac887e9c0	-0.22321448127315868
188	0x3fc2ceda46ad4cd0	0.14693764163039313
189	0xbfb1c76f49e63d82	-0.06944938234504686
190	0xbfa6ec7235895dbe	-0.04477269080660616
191	0xbfaddf4121ff03a6	-0.058343921089096626
192	0x3fbb9fd62b58b1ee	0.10790766294730478
193	0x3fb925a250e1106d	0.09823049997891227
194	0xbf94bb62cbd2ecd3	-0.02024607056658285
195	0xbfb8230e55787839	-0.09428491198238555
196	0xbfb9a7d0c7228ab3	-0.10021691190426445
197	0xbfc6d12d6660bb57	-0.1782585859195602
198	0xbfc187824a447feb	-0.13694790483805205
199	0x3f950243e9bc44c0	0.020516453877523544
200	0xbf90ece8f7247132	-0.016528740009662708
201	0x3f57ab347261462b	0.0014446270156621792
202	0xbfa351d5dccd818c	-0.03773372955652396
203	0x3fc4b31a26901d25	0.1617157638831738
204	0xbfab24fd3cb44bee	-0.0530165802575978
205	0xbf96a57192b6c5e9	-0.02211549241991931
206	0x3fb918b6ff52ad0b	0.09803336842985659
207	0xbfb2a5028a51867c	-0.07283035160937773
208	0xbfd2817d86876d2f	-0.2891534627685414
209	0x3f9e0960e8179ccf	0.029332651296411435
210	0x3fc0555c3e73250f	0.12760499047571058
211	0x3fc128396863a335	0.13404004666451788
212	0x3fada1653747777f	0.05787197398943444
213	0x3fb57957f7512cdd	0.0838828066636554
214	0x3fa8c887870dd0aa	0.04840491794212316
215	0x3f9c5be369ffd8d4	0.027694276184740144
216	0xbf95cbcd5784c7e9	-0.021285255877223994
217	0xbfc832cc0afcdcb3	-0.18905020271788472
218	0x3fb11b45e244e844	0.06682240270757328
219	0x3fc59b894617b7c4	0.16880908892147606
220	0xbfb02f7b7352f2f9	-0.06322452130821067
221	0xbfa46d244cfd2095	-0.03989518585018562
222	0xbfc6c9777bec414f	-0.17802327681466543
223	0x3fa86d34ed234a13	0.04770818133114942
224	0xbf9639037f880819	-0.021701864870927155
225	0x3fc3e2c475b3c972	0.15535789248640303
226	0x3f658ead4a8613d3	0.002631510218807234
227	0x3fcea60bc45be7b3	0.23944232070772173
228	0xbfb8113373c29678	-0.09401246620344661
229	0xbf82f3a81ff15a46	-0.009253800844971082
230	0xbf96951566f34935	-0.022053083809461433
231	0x3fbb6b4714d89d02	0.10710567721308809
232	0x3fc1b52e90457461	0.1383417324495069
233	0x3f57dde389eb2a68	0.0014567110117008845
234	0xbfbc8cfabad456b9	-0.11152617512956454
235	0xbfd7a1ffc5d8c251	-0.3692626411530329
236	0x3fcec3641edfd421	0.2403378630403106
237	0x3fcca2896d0d128c	0.22371023010977742
238	0xbfc825d68fb953b3	-0.1886547281052607
239	0xbfb0f50e5d43c57d	-0.06623925950022698
240	0xbf82dee789d72dbb	-0.009214218992290015
241	0xbfbb10b4d4d84f21	-0.105723669017888
242	0xbfb82b7390fdff3d	-0.0944130162224583
243	0xbfc77d9011655271	-0.1835193715038659
244	0xbf6126525375f3d3	-0.0020934684686708476
245	0x3fc0b27371e9785f	0.13044589101895362
246	0x3f99aff04c0b16b9	0.02508521522647442
247	0xbfbe44f1cc331daa	-0.11823950991958179
248	0x3fc63b9898a08eb8	0.17369372799395477
249	0x3f8f9507d7632b84	0.015420972118951111
250	0xbfda32b118e1b4a6	-0.40934398107385517
251	0xbfba7ef7011140d9	-0.10349983001765696
252	0xbfaf738048c661a1	-0.061428078540475946
253	0xbf7a8dda1aac569a	-0.006482936830044439
254	0xbfa598a60d8eefef	-0.04218024173266587
255	0xbfbb50707eb94e1b	-0.10669615835040995

layers.0.bias f8 [50]
0	0x3fc0e00283010f21	0.13183623692213423
1	0x3fb886b0850cbdf0	0.0958051991299198
2	0x3fba7616c0e9ce85	0.10336439332768961
3	0xbf6e7132869e8bd1	-0.003716086085618888
4	0xbf63b12694fd25f1	-0.0024038079790542556
5	0x3fbb2b851217cafc	0.10613280956003374
6	0x3fac15a12c3b21ce	0.05485252060822497
7	0x3fbcbe51e73f9401	0.11227905173980447
8	0x3fb8382f6f2ce925	0.09460731949085195
9	0x3f5ad0251eb0c0b9	0.0016365396975395587
10	0x3fbf0cc4759afc82	0.12128856536127056
11	0x3fb403be2ebbe963	0.0781821121308091
12	0xbfa2345a8187adff	-0.03555567580391638
13	0x3fb57c1f7a657d4d	0.08392521608538069
14	0x3fb57dcee9b193f6	0.08395093160068243
15	0xbfab0535c9974b4a	-0.052774124964023075
16	0x3fc113ca4e057a8e	0.13341645059241042
17	0x3fb5d6df668448b3	0.08530994656419714
18	0x3f99d9c596e42a8f	0.025244796118423948
19	0x3fb42a27208b9580	0.07876820129930273
20	0x3fb9ffd5c114e000	0.10155998195557459
21	0x3fb4eed7b9be719f	0.08176945004237844
22	0xbfb8c28f6e0b5e7f	-0.09671875416403884
23	0xbfb97c4dc70b4638	-0.0995529757449497
24	0x3fd4c8228cdccd52	0.324715268670123
25	0x3f955d8102e87a3d	0.020864501764771715
26	0x3fb6b6526f57333c	0.08871951311375609
27	0x3f9c32c631707140	0.027537438170939454
28	0x3fb61867115995e3	0.08630985425551034
29	0xbfa4963ff10a9a48	-0.04020881478691202
30	0x3fb585292319c565	0.08406312090825947
31	0x3fb413ede47902fb	0.07842909648844547
32	0x3fbe36ed28c9a573	0.11802561040680874
33	0xbfb5b8a0f1cc22a9	-0.08484846022850924
34	0x3fc2bad53aa2b811	0.14632668841426313
35	0xbf857e0811f34ac8	-0.01049429230480338
36	0x3fb7469c35be291d	0.09092117607193413
37	0xbf8ac4847314ccc5	-0.01307013965797522
38	0x3fbb09bba6af5cae	0.10561726397951318
39	0x3fb3e5eb8148ca81	0.0777270498881908
40	0x3fb8cfecbc04691f	0.09692267980827694
41	0x3fbe48e99c090502	0.11830005702451632
42	0xbfb410ad61df18cd	-0.078379475016024
43	0x3fb056149c0b9c01	0.0638134842844096
44	0x3fc1deae320a785d	0.13960816806224133
45	0x3f8f892d5f678e4d	0.015398363565459006
46	0xbf8bd3869470955d	-0.01358704700948959
47	0x3fb811fffdc6eadc	0.09402465768554741
48	0xbfb21e1affbddc82	-0.07077187293713119
49	0x3fb6b0cfe83d36d3	0.08863543910885179

layers.1.weight f8 [50, 50]
0	0xbfcd511e72aaf184	-0.22903805350314255
1	0xbfa710ae1d5198fe	-0.045049134329746096
2	0xbfa1ccf1c3e398ba	-0.034766726648557136
3	0x3fa3a26e89980166	0.03834863118754832
4	0x3fae0ff6b68b51e4	0.058715543540220044
5	0x3fb3a88bd9fda7c6	0.07679056236307166
6	0x3f9cf324b1f8589d	0.02827126823657321
7	0xbfaca7bd100e07dd	-0.055967243394675605
8	0x3fbc65b0b35bc0e2	0.11092666987292746
9	0xbf406a8b2f5fe802	-0.0005009822477852757
10	0x3fcc3443eb534cd0	0.22034501066682433
11	0x3f9c2f3620eb0bf8	0.027523847350277436
12	0x3fc64734b97511c7	0.17404803329021787
13	0xbfb41f0d15666c9d	-0.07859880230391743
14	0xbfc28e73bdf9a119	-0.14497229362610467
15	0x3fbb9fba8f292dca	0.10790601725709972
16	0x3f75ab1905252cc9	0.005290124640235657
17	0x3fc6a0e8c25301bf	0.17678555954445405
18	0x3fb0e9e4841f86e3	0.0660689184728898
19	0x3fc383b11b87cc18	0.152456415598494
20	0xbfd0d169533bc187	-0.2627814591242203
21	0x3f8f717fc4e24f5c	0.01535320109932286
22	0xbfa92f0d11f5609f	-0.049187096063804996
23	0x3fca5c437f4f0905	0.20594066349264764
24	0x3fc9c991c6a63b9f	0.20146391105342062
25	0x3f99d48013074c0f	0.02522468677655004
26	0x3fc58ec84a5e5dc1	0.16841987258224658
27	0xbfdad1b8129ecedd	-0.4190502340163514
28	0xbfb4fce83c70e968	-0.08198405719386914
29	0x3fa95ea7804989a1	0.049550280008378474
30	0x3fb1c2f5c02af63e	0.06938110295865216
31	0x3f49ec718b4d1434	0.0007911257185716559
32	0xbfdc50b0c31a2025	-0.4424249558728682
33	0x3fe03bf094b17a86	0.5073168663182777
34	0xbfbb63ae595d7d49	-0.10698976213233381
35	0xbfd1e03b0ec94c87	-0.2793109554670043
36	0x3fb0c2419d0add7a	0.06546411594432824
37	0xbfc24c96670bfaf6	-0.14296226531583728
38	0x3f7e9a539b08a7f0	0.007471396049860232
39	0x3fd3e12f40465b22	0.31061917569006614
40	0x3f933890a718768b	0.018770466040328542
41	0xbfc0ebee564fbb08	-0.1322000428621879
42	0x3fa0d93e4c22e155	0.032907435220695426
43	0x3fa603fb4c50fcd7	0.04299912745090644
44	0xbfbca898c0f6406b	-0.111947581395954
45	0x3fae922a3fe55f3d	0.05970890073757438
46	0x3fa89b2ea8bc43a5	0.048058946702560314
47	0xbfbf0df463275d9f	-0.12130668087717432
48	0xbfcc8ede71862c0f	-0.22311001341981337
49	0xbfcd77f759fb54a7	-0.23022357839241644
50	0x3fc004a4d3df17f3	0.12514171929632276
51	0x3fdb4313eee9588e	0.4259691079254332
52	0xbfb2ba8285432925	-0.07315841439700373
53	0xbfa1de7702538223	-0.03490039733310748
54	0x3fc7f7783a7a530b	0.18723967414248252
55	0x3fbbfad38ddfb6d9	0.10929605687826029
56	0x3fba3aea4ba9e39d	0.10246147486931396
57	0xbfbaed2df1aeffb8	-0.10518157148817309
58	0x3fcf42fea77af770	0.24423201730490574
59	0xbfb0dffdf2c338c3	-0.06591784645863456
60	0xbfc8e786a5756033	-0.1945656116392925
61	0x3fcb679dfca969cd	0.21409964406013984
62	0x3fc9a32a9bd2528d	0.20029194458461
63	0x3fd7c22bb88b9789	0.3712262441825876
64	0xbfc39598739db5c0	-0.1530027927905575
65	0xbfa2f1413cdcdf5e	-0.03699687831834696
66	0xbf950a5fd087f6a9	-0.02054738722107766
67	0x3fc782e094d6ad35	0.18368155734547434
68	0x3fd5e5f4fe3cd8b2	0.3421604616918429
69	0x3fd09107ddee3c1c	0.25885197327528586
70	0xbfabd5e115990987	-0.05436614407200851
71	0x3fc5d9dace2c7312	0.1707108980853254
72	0x3fb5d0bad9dda61d	0.08521621531476638
73	0xbfa55d88d66afe56	-0.04172923676878486
74	0xbfab8c40f77ceb67	-0.053804426394399134
75	0x3f8179223c360e4f	0.008531825506685879
76	0x3f97640a679a527b	0.022842562268652316
77	0x3fb5693bdc813b43	0.08363699086588121
78	0x3faed69ae2d8a2cb	0.060231056395712544
79	0xbfc3627ee3d41319	-0.15144334911760707
80	0x3fcf9e955a164327	0.24702708147790384
81	0x3fb9f2882482eb11	0.10135699168578706
82	0x3fd40e7257703829	0.3133817533388333
83	0xbfc37dd191834328	-0.15227717976679256
84	0xbfb1373a3aa5af2a	-0.06724895412270074
85	0x3fbce6eebbbd2070	0.11289875110117165
86	0xbf9b41409f24bb51	-0.02661610575995194
87	0x3fb69ed1b8fc7714	0.0883608891130872
88	0x3fb46b082afb0987	0.07975817727404975
89	0xbfa7fc7b08780db8	-0.04684814909344531
90	0x3fc18a405369be09	0.13703159401801226
91	0x3fbf65ca89e2684d	0.12264695993727166
92	0xbfc804cf7f199eb7	-0.18764680582102297
93	0x3f91f1b7d2698b43	0.017523643701120816
94	0xbf86c0b04c3d8b88	-0.011109711958573035
95	0xbfc574bd76bcb9df	-0.1676251249095477
96	0xbfb2252e2b84ff46	-0.07087982714165006
97	0x3fbdfa7551b82154	0.11710294003581129
98	0xbf92cce2a5df0874	-0.018359700559593198
99	0x3fc8c63b2821d94a	0.19354953250485557
100	0x3fcd32a67bcbe59e	0.22810822529554015
101	0xbfdc98e15036e4e5	-0.44683106263580746
102	0x3fc1217da5cf3393	0.13383455845032852
103	0x3fd8267365626a10	0.3773468484957059
104	0xbfb5b18971618f9b	-0.08474024789899064
105	0xbfd328d5e6d5add4	-0.2993674043889005
106	0xbfd2fae7b9150dae	-0.2965640361255407
107	0xbfdda3f252dfd657	-0.4631315049476589
108	0xbfc5eb6092c61d4c	-0.1712456432980879
109	0x3fdc51b48b4b4df1	0.4424868927282822
110	0xbfda346c9bc31e40	-0.4094497223963778
111	0x3fa0e71c96d9c2c9	0.03301324216307006
112	0xbfd1588cb1cebb02	-0.2710296379472511
113	0xbfbe1e5cef593691	-0.11765080302685706
114	0x3fcd94759621ff2e	0.23109311896041035
115	0xbfcac6bcfa74884c	-0.2091900084424786
116	0xbfd7da46e590c9b2	-0.3726975671626419
117	0xbfdce272adbe27ae	-0.45132128684110284
118	0xbfd941cae8e34650	-0.3946406626028862
119	0xbfd6e45c0969e64d	-0.35768795890144106
120	0xbfc5ceee443c1ed1	-0.17037752467898895
121	0xbfc21de86526fde6	-0.14153771342351645
122	0x3fc6610feae66d54	0.17483710260135388
123	0xbfcf52d2dc2acec8	-0.2447150778804057
124	0xbfdfa510e9d76cfc	-0.4944498332603897
125	0xbfd2da0bd33b8604	-0.2945584833924786
126	0xbfd7587b2d6e4048	-0.3647754615458365
127	0x3fb98e5a0ec8811a	0.0998283659068914
128	0xbfd35256dd1eabbf	-0.30190059274417175
129	0x3fda5744f43eee92	0.4115764985287821
130	0xbfcfa985a6e68558	-0.24736090325772397
131	0xbfc5b2761a110394	-0.1695087077405587
132	0xbf92c9a94a7cbcf6	-0.01834740178236146
133	0xbfb334551f6d80b0	-0.07501728074339797
134	0xbfb83fb29e7a8de3	-0.09472195023641165
135	0x3fcba20854120819	0.2158823404789139
136	0xbfd04108c0d57cb7	-0.25396937209547893
137	0x3fdddc766651c96b	0.4665809630597752
138	0x3fc471c59bf5d4e0	0.159722043182831
139	0xbfd32cbabd9d3f13	-0.2996050693227385
140	0x3fd0abb31ec87efe	0.26047971731348685
141	0xbfa780e9ac07c4de	-0.045905401468084625
142	0x3fc9954be20fb870	0.1998686651053876
143	0xbfcaba389c95d233	-0.20880801816714864
144	0xbfe6e290e20370a4	-0.7151569761586143
145	0x3fe0164a9e16dc7f	0.5027211272889786
146	0x3fc8a87c89a6ff1f	0.19264179917626564
147	0xbfc131cba614dd90	-0.13433213815163159
148	0x3fe09db8af014c3a	0.5192531030719529
149	0x3fd27f03ff34ccba	0.28900241777882807
150	0x3fd3757eba57b32d	0.3040463275672661
151	0x3fca9bd8d78eff6e	0.20788107419320617
152	0x3fccde41a6d2cfc8	0.22553272863080864
153	0xbfc272e8db2ba6f4	-0.14413176252065052
154	0xbfca666865a7f773	-0.20625023807218276
155	0x3fa085aa80995a53	0.032269790838360145
156	0x3fd0e20a8616c167	0.26379645437829996
157	0x3fc8966f15b93c71	0.19209087906571967
158	0xbfaa2dd6fc75fca1	-0.051130979841212516
159	0x3faf49bb7caca281	0.061109408349072865
160	0x3fc15d84a4db40f0	0.1356664471591169
161	0x3fc726ff657c6ad9	0.18087761359568935
162	0xbfd41a40ad4af26d	-0.3141023342430234
163	0x3fade30e71ef658c	0.058372928054903545
164	0x3fc9f382ff7563d3	0.20274388764917592
165	0xbfd7019952dfb58b	-0.3594725903811528
166	0xbfcabbba68ba31e1	-0.20885400880469177
167	0x3fb219bafc023255	0.07070511486581073
168	0x3fbd3c96784e58ed	0.11420574605140006
169	0x3fbff6885c869fdc	0.1248555398839239
170	0xbf91bc095babe599	-0.01731886503237021
171	0x3f8c03685bec7816	0.013678374581612512
172	0x3fc4d17a1d4f539e	0.16264273100992183
173	0x3fb113171f38163a	0.06669754516777796
174	0x3fa979bcf7d0a010	0.049756913424346405
175	0x3f89641d599ef2a5	0.012397984788429748
176	0x3f796faf4e92c390	0.006210026543315275
177	0xbfc0dc748e33ea86	-0.13172776168342554
178	0x3fc020d36b878e81	0.12600176573242908
179	0x3fb62a12264ed156	0.08657945094347971
180	0xbfa9504b2cd1a104	-0.049440716954281455
181	0xbfb7f596bbc8840b	-0.09359113773872722
182	0x3fc408220859255c	0.15649819762829054
183	0xbfd4670e8acb7762	-0.31879008821657895
184	0x3fd6e56b38e9097f	0.35775261457106206
185	0x3fa5bb5e08b626a8	0.04244512420980345
186	0x3fd1a47900d3218b	0.2756636150411615
187	0x3fcf177c06fa14f0	0.24290418949764314
188	0x3fb823f9d08e0db8	0.09429894773170744
189	0xbf81ac9e1f9e9b82	-0.008630023326828388
190	0x3fd1ee6f6dbd3ac3	0.28017793385235396
191	0x3fc4e2997da977f0	0.1631652701934736
192	0xbfb6a942a0aedec4	-0.08852020667006416
193	0x3f93175c907ba746	0.01864380485395791
194	0xbfcc4166986aff3b	-0.22074587290080125
195	0x3fc3114d5a7afdf2	0.14896552007665737
196	0xbfc9921671197de8	-0.19977074167671494
197	0x3fd591da8401f730	0.3370271958482247
198	0x3fb3a22bffbde6d2	0.07669329637237901
199	0x3fcbdcb6b45a83af	0.21767314726187467
200	0xbfd16e568d4fd2ed	-0.2723595027921835
201	0xbfb08e9112dd187c	-0.06467539511240433
202	0xbfc834c86cb6d31a	-0.18911080654438522
203	0xbfa266e893ed26a2	-0.0359413796018775
204	0x3fb78d27e6051fde	0.09199761739466747
205	0xbfb48754794dc4db	-0.08018997155683698
206	0x3fa01cbb31a12844	0.03146920185879812
207	0xbfa47a022effa702	-0.03999335120881932
208	0x3fa2bc0962e92fe0	0.036590855907519204
209	0xbfa870e688ea3648	-0.04773636266064024
210	0x3fb7b4fc88a867d3	0.0926053842198649
211	0xbfc67fc79660ac7b	-0.17577452509553723
212	0x3fd040ae3e70e6c4	0.2539477929854963
213	0xbfc1ba3d6d52167b	-0.13849609220430978
214	0xbfc3ec47fb320f77	-0.15564822926910057
215	0x3fc91c4fc8538730	0.19617650300556866
216	0x3fac2f00c1c4f685	0.05504610410069425
217	0x3fbc690bca5eed59	0.11097787562078078
218	0xbfbdb4c8169e34de	-0.11603975822636722
219	0xbfa6542fae1f0e8f	-0.04361104012016625
220	0xbfd2240215ea8afe	-0.2834477628731945
221	0xbfc46c4e59802327	-0.15955523843901995
222	0x3fc0dd30c799b37a	0.13175019975770025
223	0x3fcf0425e73d2759	0.24231408873520868
224	0x3f89ca2c04d54e37	0.012592643640039742
225	0xbfb3c12a96242ce7	-0.07716623464164095
226	0xbfcfe490f7b31b4a	-0.24916278929432628
227	0x3f9a3bdbef82e345	0.02561896943436472
228	0x3f9f2eed34859f31	0.03045244820660215
229	0x3fbb3ebfb11befd8	0.10642622064545948
230	0x3fa96a094d34a9f6	0.04963711802914254
231	0xbfa6f4acdf38444c	-0.04483547425127962
232	0xbfd11dd12d97e15e	-0.26744489147633554
233	0x3fe1051ce416a3a0	0.5318741278507453
234	0xbfb02ab0dd05d24b	-0.0631514110189723
235	0xbfd3579f4c0c2b76	-0.3022230379726162
236	0xbfcc6be654e11068	-0.222042838520909
237	0x3f4ad029e049f078	0.0008182720635683391
238	0xbfd60ba19f0ade8a	-0.344459920229817
239	0x3fc3c7f54e0b9d7e	0.15453974066552328
240	0xbfd42224e0f49996	-0.3145839878874538
241	0xbfd52d03f5ffce49	-0.33087252639163417
242	0x3fd11fd5fad91265	0.2675681066214451
243	0xbfae808057e28e47	-0.05957413742842426
244	0xbfbb44481de4deec	-0.10651064615091926
245	0xbfafce3f4aac3050	-0.062120416512784105
246	0xbfd555a93fe6d0b6	-0.33335334053414145
247	0xbf8f8c44e277954f	-0.015404260789135064
248	0x3fa9135919a16968	0.04897573888657086
249	0xbfb60b3f9708bd08	-0.08610913693768307
250	0xbfc5693f80d4e1bc	-0.16727441588024117
251	0x3fb668e6ea3b4024	0.08753817766705702
252	0xbfc5d4666ddca824	-0.17054443706848688
253	0xbfc5f3295d1da315	-0.17148320242565576
254	0x3fd479b942c9be0d	0.31992942354460824
255	0xbfd2094acea01405	-0.281817151815915

layers.1.bias f8 [50]
0	0x3fa8c7ab689da3fa	0.04839835788772713
1	0x3fb39d7d34ad276d	0.07662184272808555
2	0xbfbaa290ce5633bb	-0.10404305493848558
3	0x3fa4e6cbfad7a010	0.04082333981551767
4	0xbfb5e9d901ef18fb	-0.08559948250976739
5	0xbfc0bb76eb6286bd	-0.13072096341516284
6	0x3fad0a24f15399e0	0.056718019923028384
7	0x3fa39bf3fe9b02b7	0.038299202756666366
8	0x3fabc2a51a535fa3	0.05421939798696875
9	0x3fae0f91114551b6	0.05871251426529815
10	0xbfa3e3d0a570aa21	-0.038847465701412405
11	0x3faaf534a581c391	0.052652020648458316
12	0x3fa1a3ede586f99b	0.034453806179487866
13	0xbf8e1b3f5b626196	-0.014700407959296762
14	0xbf9a798346143f0d	-0.025854159500396757
15	0xbfca193221bcf1c3	-0.20389391562811285
16	0xbf978284a09d34e1	-0.022958824446779217
17	0xbf86ce7a7275057b	-0.011136013620332666
18	0x3fba3e3b4eae621f	0.10251207991530763
19	0x3fa2574e5a1d7956	0.035822342396147164
20	0x3f963c49394fec02	0.02171434795671346
21	0xbfa6bebf38ddd26b	-0.044424033824644514
22	0x3f7aac836b8aaa43	0.0065121778103881004
23	0x3f9508eefe37b598	0.020541891351901848
24	0xbfa3eb0cd77a67bd	-0.03890266542767005
25	0xbfb5c63ea4d17b4d	-0.08505622409709908
26	0x3fbf89075391204d	0.12318464079101084
27	0x3fb491a1a9efc9ba	0.08034716032833603
28	0xbfad68c1aad0dfd0	-0.057439853765060556
29	0x3f96a64356b2fb43	0.022118618170448256
30	0x3fba723dddad2d19	0.10330568944953135
31	0x3fbdedc5c13a7811	0.11690937011232473
32	0xbf96541231ee3e8c	-0.02180508069755986
33	0x3fb6ade13a340551	0.08859069510437691
34	0xbfa963e38677b202	-0.04959021583986002
35	0x3fa56b8e3fe32a67	0.04183620958209105
36	0x3fa037f9b04bf6c1	0.0316770580011343
37	0xbfb24eb6234dc7b7	-0.07151354181203727
38	0x3fa3060a9bd8cc53	0.03715546753337464
39	0x3fb6fc10082310eb	0.08978367041260397
40	0xbfa09163544d9ecd	-0.0323592224511323
41	0x3fb27a145c525502	0.0721752858538203
42	0xbfc332c15bac8c22	-0.14998642898817233
43	0x3fbc089e662b4cd6	0.10950651163448141
44	0x3fbdc7a5a62ea517	0.11632762248213556
45	0xbf7d66068e63259e	-0.007177377329023042
46	0x3fb76647fc2b988b	0.09140443712712647
47	0xbfa2702ab9a61ea8	-0.03601201549741734
48	0x3fa018403a7d61cb	0.03143501962648861
49	0xbf90df6d7c87319b	-0.016477308965293962
