main/discrete_time_identification (KdV)/models_iters/KdV_noisy_14000.pt (torch, 127868 bytes, 14 tensors)

linear_in.weight f8 [50, 1]
0.22849774724199853 0.11357369617617913 0.01153243571729971 -0.3553947710653789 -0.09046641420785825 -0.14846012555269375 0.2810753090840838 0.620405533510108
-0.3422470336335334 -0.08213924595471554 -0.10439651752388349 0.4632403148689856 0.2362386295718134 -0.023375189483828104 0.6872245680144836 0.16842460957186767
0.2606977706898612 -0.3052068047661445 0.1076994881749557 0.22304407689714836 -0.39190665419431453 -0.3858717901201139 -0.05009320102695348 0.10698066343129915
0.00669529972621968 0.007488644033984309 0.4521906417161408 0.29934907889593254 0.15466714295486383 -0.30488330836849054 -0.15304758138070426 0.456926301748666
0.3443694172685356 0.17119437803977353 -0.12630666946521887 0.07345902829102638 0.052147857252920225 0.18988420288560695 -0.3331768300428877 -0.056329024561023164
0.28963642707570186 -0.08952000852758935 -0.3339451824782107 0.19701263642926117 0.4484336411371931 0.4426098577422664 0.07189936541424172 -0.12292401013888873
0.0755079826954414 -0.3715561183802234
00000000: 7399 ce07 6a3f cd3f 2435 c36e 2a13 bd3f
00000010: 9600 fe51 519e 873f 1d4b b9b5 c9be d6bf
00000020: 76bd 6892 ce28 b7bf c522 01cc bd00 c3bf
00000030: bbab 0e4b 23fd d13f f8dd 95b4 5cda e33f
00000040: 7bfa 261a 60e7 d5bf 67f6 17df 1307 b5bf
00000050: b2d4 94ec bab9 babf 2b44 a3b4 baa5 dd3f
00000060: bc09 0842 113d ce3f bfbe 7b69 aaef 97bf
00000070: 6d28 9460 befd e53f 64f3 f906 f08e c53f
00000080: 2832 d0b3 45af d03f 102f 3f1f 8288 d3bf
00000090: 3ae3 8193 3192 bb3f 4d7d eb53 b58c cc3f
000000a0: f35b b6a5 ff14 d9bf 8df3 c097 1fb2 d8bf
000000b0: e14f 53e8 d0a5 a9bf 75e7 bdb2 1563 bb3f
000000c0: bcc8 c6d5 876c 7b3f 0642 7a93 69ac 7e3f
000000d0: d598 6e04 b1f0 dc3f 3c87 fc09 8928 d33f
000000e0: 00e2 6008 22cc c33f 287e a247 3583 d3bf
000000f0: fb89 612a 1097 c3bf fc55 acd0 473e dd3f
00000100: cf4c 3a06 260a d63f 3f4e 7887 b2e9 c53f
00000110: 8155 4f23 d12a c0bf 121c 1bfc 35ce b23f
00000120: ab60 eaba 1fb3 aa3f d9d9 b524 204e c83f
00000130: 006d 34e9 c452 d5bf ee3f 9c6c 28d7 acbf
00000140: b34e 8139 6789 d23f f0b0 f684 c8ea b6bf
00000150: 88a4 599d 5b5f d5bf 9d63 2ec7 b537 c93f
00000160: 8611 c703 23b3 dc3f cdf9 f84b b853 dc3f
00000170: a2ac 0e2f ff67 b23f 2690 70ab f277 bfbf
00000180: fc8b 43bc 7d54 b33f c897 4450 93c7 d7bf

linear_in.bias f8 [50]
-0.1213457257382193 0.10820790521288955 -0.12106103654255289 -0.11821074674974784 -0.10478459537025987 -0.10303001951936568 0.004717450925883598 -0.003277763552333601
0.12051450056840028 -0.10393336169321059 0.05858112513103133 -0.01711842174724328 0.07975754166017321 0.11128623402975495 -0.035200769595265226 0.10543410868595895
-0.02733317740790432 0.03177928375039988 0.09892168054490542 -0.13014873379281292 0.03069326291576398 0.09570255295578153 -0.10757067869759408 -0.06852005841053103
-0.11791918047058218 -0.11498112533574537 0.0037573606563881478 -0.043997567475909924 -0.12222707406384568 0.06747288290212732 0.03956425815891691 0.00703385629120681
-0.018451580780069872 0.044507108873384355 0.1242970266773842 -0.10756253891904058 -0.1169829639348797 0.0950527315202723 -0.0585831127231767 0.11918840869798557
0.09615980704057153 -0.11576271780154862 0.1171073462888937 -0.08275590496142626 -0.02297744224457284 -0.12021716395536967 0.10597368247497699 0.12361161467533092
-0.11943613533481351 0.026593221909616393
00000000: ee16 8e73 8310 bfbf f5da 0e66 83b3 bb3f
00000010: f326 c528 dbfd bebf 876e 533b 0f43 bebf
00000020: 6967 3dca 29d3 babf e387 57e4 2c60 babf
00000030: f98b 2717 9b52 733f 6684 5ce8 f7d9 6abf
00000040: cf92 a2ce 09da be3f a388 6f75 609b babf
00000050: 238a 3361 58fe ad3f f511 41d6 7d87 91bf
00000060: 6e30 0a81 fd6a b43f e31d a72f 417d bc3f
00000070: e550 69d4 d505 a2bf 1269 b0d0 bafd ba3f
00000080: 6438 407c 3afd 9bbf 45ea cbd0 5f45 a03f
00000090: 3544 ce66 ee52 b93f b1c2 a0b5 b6a8 c0bf
000000a0: d512 b901 0e6e 9f3f eeba 1667 f67f b83f
000000b0: c1c2 0383 c089 bbbf 0345 fed1 878a b1bf
000000c0: c338 b18f f32f bebf f26b f92c 676f bdbf
000000d0: 734c 6ea4 c1c7 6e3f 863e d362 d986 a6bf
000000e0: 973c ca05 464a bfbf 1b75 6e21 e745 b13f
000000f0: 0a1f c435 c441 a43f 9c98 c46b 88cf 7c3f
00000100: d223 0aa0 f8e4 92bf fcf4 19c2 a2c9 a63f
00000110: 81c4 9110 eed1 bf3f fa97 eef2 3789 bbbf
00000120: c619 4a74 98f2 bdbf e268 4635 6055 b83f
00000130: cbe3 7c12 9bfe adbf a38d 6bad 2183 be3f
00000140: 0cce 6dda ed9d b83f 24c1 0d1f a0a2 bdbf
00000150: 15a1 6e3e bffa bd3f b836 5cb1 7d2f b5bf
00000160: 55d6 f10b 6687 97bf cb2e 9b53 8dc6 bebf
00000170: 9a7a 775c 1721 bb3f 5bb1 6fc2 02a5 bf3f
00000180: 6441 39d7 5d93 bebf 539a 96e9 403b 9b3f

linear_out.weight f8 [50, 50]
-0.1208987954673534 -0.043711784324062336 0.03305046870536998 0.06509394467977823 0.012939667069625642 0.12422968239805547 0.16690637168976297 -0.048044247911716784
-0.12418879814651236 -0.032069128180684435 0.05415788334138625 0.08898995590819092 -0.03699090086842397 0.008711031999194523 0.22425067511317956 0.16792743515130742
0.12741256652073013 -0.35523951464956693 0.11904049778114607 -0.07406387894832159 0.011044593721323189 -0.10069448612644477 0.023984133523590898 0.07610823265412138
0.12738215686352566 0.0010477027693818555 -0.0744835915611314 0.06384539448950537 -0.037940440347339635 0.05497505136912354 -0.06150899060223788 0.1654015917171615
-0.38297630440465036 -0.13888750555977586 -0.15054135695031123 0.15345317645192144 0.11408828523968641 0.019657126152406248 0.07974992472425113 -0.019376299408103675
0.05791811042688124 0.0962424050550245 0.00972833918563949 0.25974481208039524 0.007566757465467217 -0.08920591590088454 -0.060076500778528004 -0.060174748241728554
-0.10354266634837561 0.117993673405708 -0.09215666898086725 0.03822079665583381 -0.22124114804425968 0.044957752190215264 0.00811415023073786 0.148846743947535
0.14779133639561748 -0.021849583332757196 -0.1181725192550105 0.1015645501011841 0.15927048334470487 -0.07883276844734752 0.09783729737215792 -0.3724293716125119
0.022674661354056668 0.0471376193954922 -0.13403075315080604 -0.2986988146550029 -0.17218324280165892 -0.09141991155713554 0.1261524704163466 -0.12553974997364073
0.08967798334340951 0.13908166621658927 -0.008824017480803713 0.15208945686195954 0.06407265403400862 0.35615432728219953 0.05431640502605735 -0.12232475147878204
-0.127297842627785 0.08243638374066299 -0.2923402451105637 -0.031098330613291966 0.06472733164446236 0.224520052831776 0.07779414517788186 -0.0729712151756764
0.07008931012297061 -0.04357778987513705 -0.056076892351523314 -0.003498955371238335 0.13840639641941826 -5.430432996757031e-05 -0.26824294524708125 0.07937129748780293
0.041571542983280176 -0.1656886347925423 0.02136598219487251 0.17897465640278953 0.18506469987491728 -0.039889851679359184 0.23342940104235507 0.11775811966319921
-0.20576643619630708 -0.02722329401933824 -0.08364533625417062 0.1469051914643773 -0.11574862434713142 -0.0721792505227935 -0.10052268344696895 0.04903882741594207
0.01892157001453456 0.038169930704369755 0.028660607297534262 0.09314853127593137 0.08283745538874411 -0.04512238130826802 -0.10777485974547064 -0.1035089265926574
-0.0899182811183675 0.13012795896389753 -0.2547460353403284 0.24141158164962614 0.10269437273330989 -0.14953712576958147 -0.29210966270086236 0.02412344372953468
-0.009470861285404565 0.04059227852734707 0.07071253606324328 0.024803542471358 -0.26559343246910105 -0.07068788038389805 -0.08149171346664208 0.1288910223062945
-0.04856326048640029 -0.06325009254210569 -0.10807225804780811 0.06970827490400296 0.014013733752349003 -0.1316869478757265 -0.048580570544969566 -0.14189068907606706
0.07628152958769129 -0.1771857298333763 0.029922031973287234 -0.12430633746858082 0.04486286280795651 -0.04613673975084011 -0.056462875430165475 -0.04441106747931324
-0.046458135119129884 0.0683870021287442 -0.31020516254897584 -0.11498423107872394 -0.08519668453146943 0.18484096962490418 -0.2695399517178699 -0.02597971556278978
0.20400575657620962 -0.08527615387596803 0.28671326208293646 -0.06185082586031153 0.1521399656984669 0.1954467073839488 0.006242434817869952 0.12130292779048135
0.00595872784969536 0.06683357176567081 -0.21486068658751134 -0.1609486025495317 -0.029713645977024083 0.2179538085962986 0.049952373970863495 -0.009943507167785637
-0.13697531997632892 -0.20417809361026548 -0.3736497990015069 -0.13648204946277384 0.027737809932735037 0.12316471372088737 -0.23426758418746732 -0.1296690910764259
0.19346760501389135 0.14071238567229427 -0.09533077886097552 -0.004622803648529101 0.171188776178173 -0.14026896248883386 -0.09240904795302346 -0.01964767566337923
-0.1328521439927008 0.2503111546380045 -0.1920758850049281 -0.16929915555454722 -0.0006543954463466937 0.227504031945941 0.09229344492598776 0.12314270249338043
-0.10154846283833424 -0.12527727652110554 -0.08628679022763262 0.050040682818152896 0.05622674673582768 -0.04843847475696591 0.017481951726982477 -0.011831182718443063
-0.36349796346089314 0.09500437435128727 -0.2919298212497225 0.10028254331732622 -0.0034497165146277686 -0.18534343383469043 0.1844048565091678 0.060900484065938044
0.007707131881240731 -0.007413225737219089 0.17693181944232697 -0.10388133660145596 -0.14664319012150834 -0.0006302008106668121 0.07437256951296267 -0.09110541369380983
-0.30944243821507555 0.03854972796187383 -0.073059220367025 -0.005905915668465688 0.012259231135920807 -0.1561781454346486 0.045344519315383906 0.0671332769407465
-0.2935380320881066 -0.007457856371631219 -0.21696341293085278 0.2138675896407486 -0.0313966174251415 0.152201066783795 0.13310813127928545 -0.07101874205820798
-0.11210944360734172 0.22051998037007228 -0.1619496110501496 0.2215025757853914 0.0006551996088602612 0.1360549322042316 0.09547135222191447 -0.002999450886944267
-0.117852947346093 -0.09655742597326983 0.05975854645835131 -0.06504759113656979 -0.27257898781571654 -0.1291826724247048 -0.24065063534386155 0.17673860042046027
00000000: a977 a834 39f3 bebf 5449 3e18 6461 a6bf
00000010: 8f00 6ab4 fdeb a03f 4f39 912b ffa9 b03f
00000020: 29d4 14b7 1c80 8a3f db94 1737 84cd bf3f
00000030: 1066 f31f 305d c53f ee5e 1573 4199 a8bf
00000040: ed9d 914a d6ca bfbf 639a 7e61 5d6b a0bf
00000050: 3d2e 8b03 95ba ab3f 5854 4cb6 0bc8 b63f
00000060: a57b f5aa 78f0 a2bf 7658 68ec 16d7 813f
00000070: 8dc7 db01 3fb4 cc3f 3abb 096d a57e c53f
00000080: b629 2713 0e4f c03f e6ac 6a84 3ebc d6bf
00000090: fd9c de24 7079 be3f aadf e5b1 d9f5 b2bf
000000a0: d140 a546 8c9e 863f 84f4 cc24 1dc7 b9bf
000000b0: 0c48 6df4 4b8f 983f 01b0 3442 d47b b33f
000000c0: 0251 e9fa 0e4e c03f a5dc 5848 622a 513f
000000d0: 79fb d74d 5b11 b3bf 2b28 55f9 2b58 b03f
000000e0: eaae f9ec ed6c a3bf 55de 739f b025 ac3f
000000f0: bbd9 173e 1b7e afbf bcd6 901d e12b c53f
00000100: 04e6 a30b af82 d8bf 82e3 19d7 10c7 c1bf
00000110: b405 666e f044 c3bf 6306 2a8b 5aa4 c33f
00000120: 690f f6cd e334 bd3f e7eb d467 ff20 943f
00000130: 2893 8cb6 7d6a b43f b8ea 1971 61d7 93bf
00000140: 3357 424c 71a7 ad3f 8b20 339e 57a3 b83f
00000150: e779 2c95 73ec 833f be38 4cb4 a89f d03f
00000160: 1479 9dfd 51fe 7e3f 376e 67eb 32d6 b6bf
00000170: c12b 34dc 58c2 aebf 448c 7c7f 39cf aebf
00000180: 40f8 b4ad c581 babf 6994 6958 d534 be3f
00000190: 3e91 6157 9497 b7bf 15e7 531f ad91 a33f
000001a0: 6596 b043 a151 ccbf 92a0 b7d6 b304 a73f
000001b0: a0bd 01cf 269e 803f b274 affc 680d c33f
000001c0: 94c4 3996 d3ea c23f 7ab5 61b7 bc5f 96bf
000001d0: a177 7ce1 8d40 bebf 0d17 1e65 2200 ba3f
000001e0: dd80 97a6 f962 c43f aea1 5562 622e b4bf
000001f0: addd 8a78 dd0b b93f 0251 c900 e2d5 d7bf
00000200: 73ac dac3 0638 973f de0b 6e0b 6c22 a83f
00000210: 6871 b872 eb27 c1bf 6005 13a2 e11d d3bf
00000220: 164d 60ba 190a c6bf f552 579a 4b67 b7bf
00000230: 71b8 5f9f c325 c03f 0d0e 3ec0 af11 c0bf
00000240: ca94 a1e5 22f5 b63f d9cc ef93 6dcd c13f
00000250: 2cbd fe93 5312 82bf 31ee a4d5 aa77 c33f
00000260: 7fdc a4c1 1067 b03f 1e61 0085 3bcb d63f
00000270: 1a48 721e 5ccf ab3f f5ba 17c7 ac50 bfbf
00000280: 4506 78b3 4b4b c0bf d1a9 2a04 8d1a b53f
00000290: d97c 03dc b3b5 d2bf 8cf2 c6a3 3dd8 9fbf
000002a0: f3ff 916c f891 b03f b4b5 1ab6 12bd cc3f
000002b0: b0f9 5b2d 51ea b33f c899 bad6 3dae b2bf
000002c0: 1901 c77e 5ff1 b13f 20fc b0fc d34f a6bf
000002d0: fa15 6c45 1cb6 acbf ecdd 775c d7a9 6cbf
000002e0: cadc 1601 4db7 c13f ed46 e791 9a78 0cbf
000002f0: fe02 4e75 e42a d1bf e181 f366 ad51 b43f
00000300: a569 1d83 dd48 a53f 9e5d e001 4935 c5bf
00000310: 1f78 18cb f6e0 953f 6c0a 083c a4e8 c63f
00000320: 71ac cd38 33b0 c73f 4c6e cf50 716c a4bf
00000330: a36d b3bd 03e1 cd3f a4b9 ca68 6525 be3f
00000340: 1cef 09f9 8d56 cabf 4a82 0256 6ce0 9bbf
00000350: aab1 acdf c769 b5bf 08df 7910 cacd c23f
00000360: 49bf 20ac b3a1 bdbf e8f7 71e0 567a b2bf
00000370: 3b30 e9c5 dabb b9bf 59a8 f8ff 9d1b a93f
00000380: a608 9b11 2d60 933f a9b7 2158 028b a33f
00000390: db0a 1bcc 3459 9d3f 9824 8007 95d8 b73f
000003a0: c14c c7e1 d534 b53f 29c4 12e0 471a a7bf
000003b0: 9112 f019 2297 bbbf 3e3d 8f9e 8f7f babf
000003c0: b646 b76c e204 b7bf 21c8 0570 08a8 c03f
000003d0: b9a1 a450 c24d d0bf 93c7 0720 93e6 ce3f
000003e0: d46f 5fac 2d4a ba3f b1ed 5b54 0824 c3bf
000003f0: b454 09ba ecb1 d2bf 617e 8ae7 d0b3 983f
00000400: d4d8 e27b 7565 83bf f57a 7dd9 82c8 a43f
00000410: d310 cf7d 371a b23f 0a2d f58e 1966 993f
00000420: da2d 9f98 7bff d0bf 57ef 78d6 9918 b2bf
00000430: 88f6 3b14 a4dc b4bf 72da c642 807f c03f
00000440: 1606 279f 48dd a8bf 09f4 ef76 2831 b0bf
00000450: cb92 eb9d 9faa bbbf 3d28 f9c8 66d8 b13f
00000460: 281e 4a81 3bb3 8c3f bed8 372f 1edb c0bf
00000470: 615f 6c73 8ddf a8bf 7424 985e 7929 c2bf
00000480: 9f34 deb2 2f87 b33f 17e3 79a1 05ae c6bf
00000490: 1d42 0593 e1a3 9e3f bbf3 1c46 8ad2 bfbf
000004a0: d455 21e1 43f8 a63f a272 bf18 3c9f a7bf
000004b0: ff44 d2b6 b3e8 acbf 22e6 ce24 0cbd a6bf
000004c0: 308b f055 5cc9 a7bf db4b 9d81 cf81 b13f
000004d0: 8faf 0cc1 66da d3bf 82f0 0948 9b6f bdbf
000004e0: 7750 ca2d 73cf b5bf 7dfc bf6f dea8 c73f
000004f0: b1fe 657f 2440 d1bf e266 ce32 6d9a 9abf
00000500: 2e64 5852 dc1c ca3f 6ba4 0674 a8d4 b5bf
00000510: b071 fe94 8259 d23f 0eec 9954 e9aa afbf
00000520: fd73 8b88 5279 c33f b197 29d0 6504 c93f
00000530: ba1b 3ed6 aa91 793f 20e8 c46b b50d bf3f
00000540: 38e2 d7d3 2d68 783f 2628 0245 011c b13f
00000550: a873 0b13 8e80 cbbf 08c1 24bc f699 c4bf
00000560: 206e dd06 416d 9ebf f6d8 fa0f e9e5 cb3f
00000570: 90f5 1f89 5b93 a93f a0d5 bef0 425d 84bf
00000580: eb27 d443 6888 c1bf cfcf 4efd 8122 cabf
00000590: 9d94 b7d8 e0e9 d7bf 6f82 7769 3e78 c1bf
000005a0: ca54 18ea 4c67 9c3f 63d1 7301 b987 bf3f
000005b0: 818e 4cee 7afc cdbf 75d6 bc2c ff98 c0bf
000005c0: bb5f 2fe6 8bc3 c83f f064 4d0b dd02 c23f
000005d0: c895 8211 9967 b8bf a1ba c767 5cef 72bf
000005e0: 7952 9089 83e9 c53f 3246 4457 55f4 c1bf
000005f0: 2c0f d08e 1ea8 b7bf c4a0 aa31 851e 94bf
00000600: 1679 d38e 4c01 c1bf 6fa1 bf13 1905 d03f
00000610: 6324 394e f195 c8bf f470 2c40 98ab c5bf
00000620: 5aff 3585 7771 45bf 0a3e 7524 da1e cd3f
00000630: 9ea0 970f 8ba0 b73f 7f3b f3b7 4786 bf3f
00000640: 0c87 d97e 14ff b9bf 4c88 cbf6 1509 c0bf
00000650: 27c0 1a1e e416 b6bf d2d1 58b0 ee9e a93f
00000660: 191e c88c c0c9 ac3f 5b09 e681 edcc a8bf
00000670: d224 c0eb c9e6 913f 372a ca76 f23a 88bf
00000680: 7289 4ef6 8c43 d7bf 07d3 d0e8 3452 b83f
00000690: e7a8 bf6a faae d2bf c059 e8e3 1dac b93f
000006a0: eea6 8b73 9442 6cbf 4096 6c69 55b9 c7bf
000006b0: ef18 f70d 949a c73f 2d5f bf26 592e af3f
000006c0: 07a3 0376 8391 7f3f 4269 96a1 545d 7ebf
000006d0: 7d33 10ad b3a5 c63f a236 5e9f f797 babf
000006e0: ee61 e03c 34c5 c2bf 1ebd 94ef 81a6 44bf
000006f0: d014 c7a9 140a b33f cdaf 4d34 af52 b7bf
00000700: 4035 08a8 e7cd d3bf 1f5d bb39 cabc a33f
00000710: 0ccb 2552 02b4 b2bf a547 622a cd30 78bf
00000720: dd4e 6c26 5e1b 893f 95f1 7e3d a5fd c3bf
00000730: 275b 0697 6537 a73f a40e ef7c a52f b13f
00000740: e6d6 fcbd 53c9 d2bf 0a45 6e13 218c 7ebf
00000750: 1db8 7b05 75c5 cbbf ec36 975f 0360 cb3f
00000760: 298e 17aa 3713 a0bf d958 2016 537b c33f
00000770: e88d 56ef af09 c13f 2d06 8bc6 482e b2bf
00000780: 1dc5 dd59 34b3 bcbf 35ea e6ab ff39 cc3f
00000790: 54b8 87cd c3ba c4bf ae2f 7d47 325a cc3f
000007a0: f062 3a72 3678 453f fc69 237e 3f6a c13f
000007b0: 367e 7f7f cf70 b83f 9c6c e4ee 4d92 68bf
000007c0: b2b3 965a 9c2b bebf 04bb bdca fcb7 b8bf
000007d0: 2ee6 6315 ac98 ae3f 417a 9d7c f5a6 b0bf
000007e0: c0b2 8f23 ef71 d1bf 0b12 a3cc 0e89 c0bf
000007f0: 0021 48d8 a3cd cebf 7f93 5fd6 5e9f c63f

linear_out.bias f8 [50]
-0.025703097386869135 -0.09204132829137178 -0.05628993935875269 -0.04106114466716325 -0.07947617261923258 -0.01326175207645446 -0.07889893188562122 -0.019486440058208834
-0.01887815911719843 -0.07657933482334496 -0.0387475289557186 -0.06881710797016297 -0.030080507073470802 -0.024608136771329968 -0.029383969831452757 -0.07113408483130934
-0.1319642235006667 -0.08302598444779413 -0.08757542591817545 -0.07315150684430603 -0.07007300828533132 -0.04645846754448494 -0.06907669630610476 -0.05794484703094034
-0.09084806849346233 -0.02209217048286741 -0.09765862736471187 -0.08644723496344614 -0.02053105649074995 -0.057568245366285596 -0.025878968636041486 -0.037040609500047394
-0.012367712169373685 -0.04070582073166708 0.07606231748038755 -0.11349776876345036 -0.07231774997065375 0.02307939457756879 -0.08180000773173966 -0.0006392999701229733
-0.011285649004091297 0.031820931385805856 0.018622321305337263 -0.01048862883278432 -0.027729723797494023 -0.01073659461725364 -0.020633657368549323 0.026761565156071393
0.03227793175081635 -0.0466989465375188
00000000: dae2 baaa e951 9abf b74f e43e 0590 b7bf
00000010: 4e82 47f1 08d2 acbf 4ead f662 f705 a5bf
00000020: 91fa 35ea 8c58 b4bf 1bf4 a53b fa28 8bbf
00000030: de58 236c b832 b4bf b4d7 0fdb 40f4 93bf
00000040: f275 11d0 cb54 93bf 8d9e 9d0a b49a b3bf
00000050: b9cc 5453 b7d6 a3bf 521c 237c ff9d b1bf
00000060: abb7 82a8 6ccd 9ebf f6ea 971a e032 99bf
00000070: 229b cfd5 d416 9ebf a03a fbe7 d735 b2bf
00000080: fbb4 1624 34e4 c0bf 24e6 ebdf 3041 b5bf
00000090: 3778 40d6 576b b6bf 6fa6 8ca1 0eba b2bf
000000a0: 3df7 eafe 4df0 b1bf 55a1 737d 67c9 a7bf
000000b0: e5e9 8ca7 02af b1bf ea70 f06d f2aa adbf
000000c0: 648d 15ab d141 b7bf c9e3 e276 549f 96bf
000000d0: e824 b4e2 2700 b9bf 9c64 ffee 6721 b6bf
000000e0: 056c b8e0 1706 95bf 23c9 45c6 9579 adbf
000000f0: 4cb6 c82f 0480 9abf b06c da9c fcf6 a2bf
00000100: 70b4 593a 3e54 89bf 4244 99b1 64d7 a4bf
00000110: 9c46 09ee d178 b33f 9c0b 0295 300e bdbf
00000120: cf54 0b83 6a83 b2bf dd44 b0f3 1fa2 973f
00000130: e736 0566 d8f0 b4bf 56be 643b d6f2 44bf
00000140: e3f9 172b ee1c 87bf 2cb6 4247 d54a a03f
00000150: a398 edd3 ba11 933f 7495 88ee 0f7b 85bf
00000160: 3772 5943 2e65 9cbf c819 0356 11fd 85bf
00000170: 4e10 614e fd20 95bf 9857 8a3c 6267 9b3f
00000180: 5a2a 81aa bb86 a03f 8cc8 45a0 ece8 a7bf

layers.0.weight f8 [50, 50]
-0.24926324699743543 -0.07257278750316219 -0.2551893483244136 -0.028593110074376028 -0.14472349222488096 -0.19298364313174354 -0.18070480027141347 -0.06242407674236571
0.05436134486527453 -0.171986694295322 0.07607209646014523 -0.2953245588643392 -0.11803036635311485 0.039647788753541156 -0.13725235779187292 0.11016284942255258
-0.20203443906755958 0.1942408187178313 0.048058822063900185 -0.20000393331798813 0.09911050965963795 0.3480019833455648 -0.2397729991874097 -0.148637897517867
-0.13526739276220928 0.06218666379044118 -0.2238272776267053 -0.1077061211897148 0.040930055366774167 0.24022156833862704 0.1873170605100748 0.07433641130270852
-0.07980220109180405 0.030127029203756338 0.31854784613488796 -0.23248842832664848 -0.06583082885542756 -0.07248350345212269 -0.16167182649454573 0.264139330750952
-0.12831145444773775 0.06568457540937378 0.2823687592309265 -0.07306986374820877 -0.25272497750107575 -0.05482035374191162 -0.02353026433169684 -0.020059914964906583
-0.4282002623322306 0.045933866285394934 -0.1910927270098862 0.0034994617154582327 -0.12158082162214341 -0.014595854010194427 -0.25008490175318865 -0.18785425759400926
0.21665823856108693 0.31194510018956106 -0.038317482292264976 -0.17816720016021353 -0.003978292325200974 0.15718021375849933 -0.12379779894822568 0.34443036194462323
0.1237177077129054 0.20715257782908889 0.30789005581303736 -0.2622205769814485 0.22643715952834104 0.0839987588784068 -0.40054147674346907 0.04319420303792585
-0.19916446669767954 -0.22084821533594834 -0.42639625347564464 -0.08730286241625287 -0.04615513008884817 0.05589062999385141 -0.030037276217633923 -0.17234972619042502
-0.1274865544022387 0.2979797682834054 -0.03392471495163519 0.21760754263333082 0.02346144657778688 -0.1646402398076438 0.05151714665573294 0.21373081301523797
-0.06825829660127276 0.07333378845824723 0.19778118984860796 -0.019859600639607556 -0.04990636367927931 0.030715055895347905 0.20806564301629468 0.22700109169037505
0.20016591441659 0.3411870086636002 -0.12047715785838298 -0.0848056031699675 -0.10009798171623402 0.009432170732314352 -0.13252096098815788 -0.18783553109171472
0.09656900276014632 0.05449443983768023 -0.16616375152419147 -0.10241289436317721 0.057443861121629795 -0.02470918328193795 -0.03319913979054651 -0.18324163902299612
0.04537217352616843 0.013763334033890993 -0.3312834388587608 -0.05048077306102504 0.2627916624297518 0.07043024407642033 -0.06768235004496417 -0.2335813053457619
0.22261038832475824 0.17240195836744987 -0.07710482053225087 -0.07406757857422767 -0.01987731953849185 -0.20385696895546118 -0.18461798047138495 -0.14668406712338353
-0.046506438619897596 -0.011447614418760675 0.0020704883031409933 0.0808286612885844 0.04863487722464665 0.14199522794013117 0.0729185200469202 -0.04426630583072616
-0.011038528405672727 0.14752301190543943 -0.017039896599451508 0.0675830538174352 0.09121162066652187 -0.0845835854976604 0.1897346202161714 -0.13308428241316672
-0.1990794787994767 -0.3400177947111011 0.03571635669937155 0.17707086786199935 -0.30413261496541966 0.18770339381791634 -0.23678736769394046 -0.19704546477586832
0.05728407195769193 0.08780537824855772 0.027537871155851972 0.10612189784147397 0.22193295315371997 -0.2615953937530701 0.1112073293658045 0.07220861097053694
0.05808952589538128 -0.102064307926917 0.05834835101515535 0.062101573882084524 0.006136961776237251 0.1133590567839004 0.034730443904631786 0.31667904568094357
-0.17963030464372365 -0.09267277136555462 -0.009162995100020815 0.034784127233885014 0.18171369463147902 -0.017939289955980667 0.03220746012486935 -0.23321355243154565
-0.2811507063999413 -0.1604998373546904 -0.1553977231033107 0.01870990497991988 -0.07390928416102018 -0.052037514651596034 -0.01930931236062709 -0.15654936796564534
0.20887064111873305 -0.03591164891594389 0.2818342196921609 -0.23719069137923218 0.17080500851119268 0.0062512206414053195 -0.06693754068869592 -0.08808176385084432
0.14065169601976563 0.05124011987979197 -0.06482110244058534 -0.1374217516172641 -0.07458739525357316 -0.1314782073069749 -0.17366210743440263 0.06189478995556826
-0.023219256071344407 -0.04663047302135766 0.03231972453583793 0.17444942158388752 0.023067657587159285 0.027685820197005915 0.12377628685166495 -0.04775220357778325
-0.2907873575828616 0.09099857740671774 0.09102350405641736 0.16143363513479816 0.04045859562477313 0.04532240076385022 0.07398545212885321 -0.009616052248213573
-0.009967626087216304 -0.20820542008227413 0.018248158178027274 0.13427494044252258 -0.08419930500910598 -0.05437723224197557 -0.09853872362954114 0.10498153850723449
0.04758095917046422 0.22429868140430076 0.027835776114813665 0.27234845140771147 -0.06338848587155416 -0.01922493552100278 -0.030670566837387735 0.13253302589666288
0.1684198973021884 -0.019490674290932087 -0.13451198892639846 -0.35833145970731706 0.28811262441317226 0.20510558125147527 -0.19030814269271365 -0.10981679799584922
-0.009379670271738458 -0.014528748368284328 -0.1081932024065803 -0.15172402462918408 0.02317766454043962 0.15150152237591888 -0.03427974898167157 -0.12136678436182795
0.17222648120347037 -0.0059219012160922156 -0.3021836728353641 -0.11384581979267731 -0.05940030785101228 -0.05662556015448305 -0.09694567421257569 -0.16297327395946293
00000000: d170 f9aa dbe7 cfbf f7d7 e754 2194 b2bf
00000010: 73d1 55b4 0555 d0bf dd38 a422 8347 9dbf
00000020: 96cd 08a5 4c86 c2bf 88f6 f421 b0b3 c8bf
00000030: edad b2bb 5521 c7bf 2fd3 2e70 0cf6 afbf
00000040: 2dd2 b90c 40d5 ab3f 3d3b acf5 a803 c6bf
00000050: 283a 6ffe 7579 b33f 29ca 81fa 98e6 d2bf
00000060: 33e9 6bf3 3c37 bebf 0340 1c08 b74c a43f
00000070: 07eb 013a 7c91 c1bf 7e08 81eb a133 bc3f
00000080: e4fd 3ab6 43dc c9bf 297e f815 e2dc c83f
00000090: bbf3 187a 2a9b a83f 2708 5698 ba99 c9bf
000000a0: d793 ad6d 4e5f b93f bd63 5a1c aa45 d63f
000000b0: 25a4 fcb2 e1b0 cebf 3e89 640e 9106 c3bf
000000c0: 027f 1022 7150 c1bf a75f 742e eed6 af3f
000000d0: 3401 ae4a 5fa6 ccbf 11be 16dc a092 bbbf
000000e0: 3d91 72c2 c8f4 a43f 2774 e791 94bf ce3f
000000f0: ecd2 6f64 01fa c73f a077 7207 b607 b33f
00000100: a28e d6c3 ea6d b4bf 4682 9fb4 9ed9 9e3f
00000110: ce13 5781 1663 d43f 3342 2e4a 2ec2 cdbf
00000120: a7ac 0009 4ada b0bf fd8c d364 478e b2bf
00000130: bd44 bd93 a9b1 c4bf 1e69 caa6 a8e7 d03f
00000140: b111 477e 826c c0bf d022 3c4f b4d0 b03f
00000150: 78c5 936a 5412 d23f df29 1fe3 b4b4 b2bf
00000160: 17f7 4f62 a52c d0bf fe0c f4d4 6911 acbf
00000170: ca5f 154f 5118 98bf 4873 f01a 968a 94bf
00000180: 59c1 b612 a267 dbbf daff f2ca a484 a73f
00000190: bb65 81fa b975 c8bf 074e e333 e7aa 6c3f
000001a0: 3d1b b0b4 eb1f bfbf e43c 0c5d 6ee4 8dbf
000001b0: 5e36 901a 6401 d0bf aaeb 63ba 9b0b c8bf
000001c0: d9b0 8308 75bb cb3f fd8a dd94 e8f6 d33f
000001d0: 84e4 9e5a 599e a3bf 7239 f4cc 2ece c6bf
000001e0: 0302 e4b6 8a4b 70bf c4e4 d532 7b1e c43f
000001f0: 4ca6 cc69 36b1 bfbf 694d 13a5 250b d63f
00000200: cb21 90b4 f6ab bf3f 936d 87c5 f983 ca3f
00000210: 51c2 1e7e 78b4 d33f 004f 9ed0 38c8 d0bf
00000220: 72fd 6291 e4fb cc3f 908f 4952 f180 b53f
00000230: ee80 d3b7 78a2 d9bf 0d6f d9f2 8c1d a63f
00000240: c9f3 7ea3 387e c9bf 00ba 1f1b c144 ccbf
00000250: 0326 f482 134a dbbf 62cc ecfa 7a59 b6bf
00000260: ac67 8c2c a5a1 a7bf 6fee f357 b29d ac3f
00000270: 3308 107c 17c2 9ebf e930 bb4a 8e0f c6bf
00000280: f52d ebba 7a51 c0bf 8d66 e9bb 1912 d33f
00000290: 519e 7c8a 945e a1bf f08d 7c5f 90da cb3f
000002a0: 73e3 1207 4706 983f ae2a ca6e ee12 c5bf
000002b0: c2a3 2398 7460 aa3f d722 0602 885b cb3f
000002c0: 4d48 952f 6079 b1bf 50b5 1ecf 00c6 b23f
000002d0: 61f5 14df e450 c93f ddf1 083d 1356 94bf
000002e0: 58c5 baaf 538d a9bf 32e6 4282 c473 9f3f
000002f0: 9b8d 161e e5a1 ca3f e7b4 7b2c 5f0e cd3f
00000300: 6bba 1864 099f c93f 50ef 0109 02d6 d53f
00000310: 60b2 ea4c 97d7 bebf bdef 21ec d1b5 b5bf
00000320: a4e8 dd75 05a0 b9bf e8c8 9a86 2c51 833f
00000330: bf43 bd64 72f6 c0bf 0d69 88a3 fe0a c8bf
00000340: 7683 a904 bfb8 b83f 9356 d5f9 b1e6 ab3f
00000350: 83dd 4993 da44 c5bf 2e82 fa3f bb37 babf
00000360: cf29 bf21 4869 ad3f 435b 6d38 5d4d 99bf
00000370: c9bb 4f47 7aff a0bf 2242 6f47 7674 c7bf
00000380: 34fc e282 053b a73f 92d3 796c f32f 8c3f
00000390: efb4 e673 bf33 d5bf de6f bfaa 9dd8 a9bf
000003a0: 3e06 f31e 94d1 d03f 3b20 f56a b707 b23f
000003b0: c2a4 f567 a153 b1bf 7b61 b501 fee5 cdbf
000003c0: b566 cd48 7f7e cc3f b82e 7a72 4411 c63f
000003d0: a0ca 8c3a 24bd b3bf 6b93 abc3 17f6 b2bf
000003e0: 0b5d 6655 b85a 94bf aed9 5c33 fc17 cabf
000003f0: b667 30de 8fa1 c7bf 57d1 9123 8bc6 c2bf
00000400: 750e da21 b1cf a7bf d9c9 5dcc d871 87bf
00000410: 7f49 8ff1 20f6 603f cc5d d0e8 2fb1 b43f
00000420: 0fea 3fae abe6 a83f 5b70 184e e62c c23f
00000430: 5ece dfc2 c9aa b23f d824 b7bf 12aa a6bf
00000440: 2a95 fc33 5e9b 86bf b248 c5b7 08e2 c23f
00000450: 66ca 7c1a e872 91bf 96e1 e87d 1f4d b13f
00000460: 6f22 c70f a559 b73f bea9 7d15 45a7 b5bf
00000470: 01ac 5f5a 3949 c83f 3cc0 49e0 e708 c1bf
00000480: 1fce 5fb5 6f7b c9bf f3e6 15ff d9c2 d5bf
00000490: 2e82 e90f 6a49 a23f f553 4519 42aa c63f
000004a0: 9a19 bba4 e876 d3bf 8ce8 e530 aa06 c83f
000004b0: b7fa 2c68 0c4f cebf f6cb 8429 c938 c9bf
000004c0: c2ad 477f 5654 ad3f 208f fdcb 697a b63f
000004d0: eb39 1040 e332 9c3f 805b 9e00 ce2a bb3f
000004e0: 3897 d98b 4c68 cc3f 1309 3d9b fabd d0bf
000004f0: 139e b362 1578 bc3f b4a8 9b76 437c b23f
00000500: fdee eb0b e9bd ad3f 2f8e a2f0 e220 babf
00000510: 1170 c5c6 d5df ad3f a615 b509 c7cb af3f
00000520: 1009 0322 1223 793f 4c9e 9761 1905 bd3f
00000530: f4ed 7d51 30c8 a13f 17cd 2130 7844 d43f
00000540: 145c e835 20fe c6bf 6fa7 3e1a 67b9 b7bf
00000550: b6d1 4d62 0cc4 82bf 8f64 c7a1 39cf a13f
00000560: 68b9 d6f3 6442 c73f 7495 b25e ad5e 92bf
00000570: f7d9 d807 7f7d a03f 55b7 5612 f1d9 cdbf
00000580: fd0a 4f88 5ffe d1bf c7d1 3938 428b c4bf
00000590: ad00 4d95 12e4 c3bf 2406 0078 b028 933f
000005a0: 69a4 5706 b8eb b2bf d4fc 2f3f a9a4 aabf
000005b0: 2b79 6304 d2c5 93bf f89a cf47 cf09 c4bf
000005c0: 9689 59ee 45bc ca3f 1f61 47fb 0263 a2bf
000005d0: 392d 1e65 9209 d23f e3d8 31bb 435c cebf
000005e0: ae37 c642 f0dc c53f c04b 7043 e19a 793f
000005f0: 46f3 2194 d122 b1bf e805 1dc7 868c b6bf
00000600: e612 44f1 df00 c23f 55ef 401e 253c aa3f
00000610: ceae 12a3 1d98 b0bf 7c43 7a34 0997 c1bf
00000620: 00d4 4ed7 2818 b3bf c894 4224 47d4 c0bf
00000630: f61a fe57 8f3a c6bf 0bcd 4d85 acb0 af3f
00000640: b301 dbe5 c9c6 97bf 0a5b 3f09 f3df a7bf
00000650: 9957 cbff 358c a03f 1324 41d0 5b54 c63f
00000660: 308c ba4b 0c9f 973f 997e 3cf1 ab59 9c3f
00000670: de57 0c80 cdaf bf3f 1766 5b11 fa72 a8bf
00000680: 4b27 ba93 429c d2bf b4c2 f1c9 ae4b b73f
00000690: 61f2 16fd 504d b73f ed6d b07b dba9 c43f
000006a0: bbd9 1932 fdb6 a43f 8427 1d6a 7f34 a73f
000006b0: 50f0 45e9 b5f0 b23f efb2 61af 94b1 83bf
000006c0: e4bd 8120 e869 84bf 3b39 0da7 79a6 cabf
000006d0: 60f2 582a a5af 923f e2bd efd6 eb2f c13f
000006e0: 872b 5ced 158e b5bf 03a8 4024 55d7 abbf
000006f0: dce2 6073 d539 b9bf aa84 92f2 11e0 ba3f
00000700: 2e52 190f 885c a83f 346d 95b6 d1b5 cc3f
00000710: d8a0 4950 fb80 9c3f 3464 fa32 286e d13f
00000720: 74e3 c251 3a3a b0bf 7c58 5295 b3af 93bf
00000730: 53c1 10e6 1a68 9fbf fadb ee99 d7f6 c03f
00000740: 474c 747f c88e c53f 5d4c a002 5df5 93bf
00000750: 03ed ad58 b037 c1bf 1c89 2413 e7ee d6bf
00000760: e9d5 daee 6f70 d23f 48e0 d951 e640 ca3f
00000770: e38b 8368 045c c8bf 7990 f123 f41c bcbf
00000780: b8d9 8308 a635 83bf 80ae bf98 3fc1 8dbf
00000790: 7b5b fcb9 8cb2 bbbf 4b61 e65d b16b c3bf
000007a0: 8f9e cbbc e2bb 973f 590b f3e1 6664 c33f
000007b0: 472e 9581 1d8d a1bf bb9c a7c1 e411 bfbf
000007c0: 8714 2370 840b c63f ca25 da40 9041 78bf
000007d0: a7a2 0d30 fa56 d3bf 63bd cbe8 ff24 bdbf
000007e0: f552 2f97 b769 aebf ef5d f681 06fe acbf
000007f0: 964f 3b84 6ed1 b8bf 9893 e3e8 4edc c4bf

layers.0.bias f8 [50]
0.11460061194362801 0.0922540301857023 0.1108618051420315 0.00653526437364695 -0.027899343218176047 0.08627206543284317 -0.0312424688145965 -0.10111085694171272
0.10675179825118719 0.025788839481014507 -0.03479307835717004 0.11993669578988533 -0.05370890422362914 -0.11089482343423576 0.09661685940611828 -0.06534847646648749
0.02645919960754953 0.07671152396191536 0.07699273077299411 0.10385181817724301 0.058990834666016005 0.0960994711753617 -0.1052682139355618 -0.11597360554792198
0.05875700538873842 -0.029877572032017408 0.09011745079432369 0.018443105944601856 0.08104353515145558 -0.07773429941998909 0.08891153114338284 -0.047562087655051606
0.10866639563766343 -0.11585071346951431 0.1195592555116841 -0.05660961455579161 0.08577408742953896 -0.04092308230204301 0.1030764001102237 0.037993762293009395
0.10542391241740338 0.09513896916009057 -0.07318315969338561 0.06638998640491402 0.07047711592978685 0.00897518425825098 -0.002120431119308184 0.10493115603851756
-0.11186355700956964 -0.019613634676918738
00000000: 9f43 6638 7756 bd3f b660 92ca f59d b73f
00000010: 9ae6 7573 7061 bc3f 15a4 16ac b8c4 7a3f
00000020: ceca ce3a a591 9cbf b9a9 9713 ed15 b63f
00000030: c94f 3897 06fe 9fbf 0fcf d5af 66e2 b9bf
00000040: 902d 47fa 1554 bb3f 9ee5 b0b8 6368 9a3f
00000050: efa8 57fb 65d0 a1bf 0203 02da 2bb4 be3f
00000060: bbf9 49c6 bb7f abbf d21b f267 9a63 bcbf
00000070: de39 64eb e1bb b83f 6b59 4481 adba b0bf
00000080: 6996 f8d3 1e18 9b3f 0e8b a4ce 5da3 b33f
00000090: 5322 b3ac cbb5 b33f c28e b362 0896 ba3f
000000a0: 07fe 4ef3 0b34 ae3f 4b6f dc95 f999 b83f
000000b0: 9c5c 2990 dbf2 babf 250c 073b 72b0 bdbf
000000c0: 126e 1cf1 6515 ae3f 30ac 0beb 3998 9ebf
000000d0: f3e3 f5ef ef11 b73f e093 79e3 bfe2 923f
000000e0: 3119 07e5 44bf b43f 974c c921 65e6 b3bf
000000f0: 7384 7ff6 e7c2 b63f a90f 04d6 0e5a a8bf
00000100: 3f1e 7097 8fd1 bb3f 6ce0 9171 64a8 bdbf
00000110: a756 5b74 6f9b be3f 5005 5076 effb acbf
00000120: 40a7 5a64 4af5 b53f a10f 47c8 def3 a4bf
00000130: 7a7b 7607 3763 ba3f 0a3e 001d eb73 a33f
00000140: db92 0cc0 0ffd ba3f 5024 1e09 075b b83f
00000150: ef43 80ad 21bc b2bf f117 6424 effe b03f
00000160: f5ea 08cc c90a b23f 5408 ebd6 9461 823f
00000170: 487a f2c9 dd5e 61bf f153 84ab c4dc ba3f
00000180: c167 f80e 17a3 bcbf 11e4 f8bd 9815 94bf

layers.1.weight f8 [50, 50]
-0.14111091309822638 0.00033513066733623185 0.06084768700336561 0.058612800994769766 -0.0030330299437162783 0.12209957218126365 -0.00578128585100158 -0.08923421206443907
0.1810952546795506 0.04806857868120234 0.2760800929705264 0.06651349951985215 0.08109314858029021 0.035779455509318936 -0.10415160810660194 0.0017353550181307613
0.04125159217040999 0.22137233048865393 0.06690301620713494 0.1710597850795371 -0.18542703781324987 -0.03359350021121994 -0.04823224119747315 0.1015811833096352
0.22344001495570545 -0.01602910069027684 0.18138495935637117 -0.3423215642203241 -0.052267289265993055 0.056521208300832376 0.1249788121803592 -0.002376298514409837
-0.3826969748603679 0.3858444215203875 -0.019935271491069134 -0.21616806769681624 0.1002813922327352 -0.1573514737746424 0.046695826987773054 0.3490589238156648
0.09552499417208546 -0.07809859732095374 -0.0626545497233682 0.13432826976773218 -0.11947051486224082 0.1171184475401723 0.042360875628777384 -0.023790207724620805
-0.2374565494639639 0.023710651391368378 0.08532269860415687 0.4940299378837334 -0.08299052001919419 -0.10999426200300513 0.2786728069895892 0.06787016196278292
0.13026166703689737 -0.13612029501320863 0.14239523974504287 -0.09511258215830584 -0.2048608886201467 0.201270154751929 0.28189575033769115 0.28526583496898067
-0.1515300501234099 0.02307475618151107 0.038444915322614355 0.25017423527799054 0.40191670853709494 0.2741880739308429 -0.1375496366600211 0.22202350781277527
0.10697172462502767 -0.014650438571875169 -0.010285054488016972 0.031587462508036075 0.09061201249892611 0.018622147631059696 0.13269055315833897 -0.2255346317802612
0.31035496863157713 0.13154172731603597 0.2512796338807486 -0.13037395327862233 -0.07659211235728294 -0.01400684650925049 0.04572707747461312 0.030773457130212782
0.06885988426453235 0.020036961850629698 0.09814974767891754 0.07105360418707674 -0.1710856961458668 -0.09119424904953638 0.05977884400686892 -0.2271719742857328
-0.13186966744912604 0.06875707505033501 -0.0948987291878802 0.13140924047600053 0.08351614448652116 -0.18836851834923538 -0.01632904459348721 0.133761596639544
0.09176561346880896 -0.3333527222432316 -0.1264693882303538 0.0900940140017026 -0.30748314747459476 0.27937595718791414 0.08483107966265616 -0.005028341388455778
-0.09242162244573836 -0.059616997758487125 0.16041278500752176 -0.04089906536181439 0.03633676803818243 -0.14689700630160163 -0.2440907706586364 -0.263716373970106
-0.2684601059874049 0.044030435204670516 0.1971630984213024 -0.05272107419965244 -0.15614929570945563 -0.14791426243020253 -0.10808792008964663 -0.05399791794908494
0.018842056354153598 0.11179457691504283 0.014954520966086281 0.11482371923033777 -0.12097042044533951 0.09622002751224079 -0.23530077017778908 0.06689372626408385
0.1311884721789047 0.2963406974508224 0.19934353406535082 0.09662612647364016 0.1025493889406738 -0.10739417561280752 0.1628021687172473 -0.29184542812847336
-0.22994941880117234 0.30334126999464706 0.014726343955898598 -0.3300041776216746 0.12277486958737535 0.13003540787728604 0.24135207472358255 0.2552440207212238
0.23193288735162143 -0.11893954873860933 -0.23497735993833394 0.014747981279990248 0.24156915845075114 0.09935292352144748 -0.11018159760113168 0.07780623469003047
0.023175164506891426 0.1931874483424037 -0.3266534185764708 -0.0775994107199263 0.17226031416787116 -0.2957992919561481 -0.21401864616059044 0.10583685631786703
0.16996135912501142 0.16223991585254272 -0.057629387961587446 0.0664382195556441 0.13823878436258574 0.09024674055533839 0.04793928022038769 0.004327330492899538
0.03989534789681653 -0.11785374749146221 0.17516962152054566 0.03379991980180044 -0.00437845585932361 -0.13396576280167655 0.07556258199029298 -0.2996462246409909
0.27667498835569115 -0.03032159844709697 0.3223111121643086 0.21222812373429098 0.1196675232535335 -0.02726748699250473 0.18612720776531072 0.1440346519049188
-0.07617663720273606 -0.02974046997595762 -0.1898257422930062 0.16178452965110593 -0.1843949403706128 0.2843695976252863 0.02406553600539333 0.04789805270272345
-0.29524249297849897 -0.08741380363635949 -0.21475626306510592 -0.08313140809242704 0.12016104429804499 -0.06766710033640323 0.07078310865823033 0.06707761109257065
0.05718430408844066 -0.09485093565514371 0.2498223282701117 -0.15893010859462214 0.23122734787529006 0.08867075344984869 -0.20082800413618637 0.20634750096457666
0.14713834889199376 0.12513699942757464 -0.15148638553390245 -0.023494133055580763 -0.3103012453177623 -0.15666829676850974 0.15548502730276534 0.26554347249111204
0.11670746208382224 -0.022027355492284687 -0.21932203680291515 0.0007386480320156945 0.0010985078856933124 0.1616183101093061 0.03389969106621976 0.07453149521691997
-0.23864784285495716 0.55105972911157 -0.05363500452756759 -0.15326183203519192 -0.23615518543092184 -0.005527243311299046 -0.3365335508706722 0.2130957984809787
-0.2726157978099167 -0.2744103871100175 0.2116787018255697 -0.05435053873414948 -0.06798572679984079 -0.09603571126465664 -0.40972895838673934 -0.02520690176799769
0.07762624704456483 0.0903174349325162 -0.12828640223443719 0.0993963624629702 -0.1376169502829967 -0.20454967135829294 0.3241773445841675 -0.17409876186821424
00000000: 56cb 6e22 ec0f c2bf 127e 8f41 8ff6 353f
00000010: 3ef3 6e93 6d27 af3f 458a cc3e 7f02 ae3f
00000020: 6048 508d b9d8 68bf 3fc6 5fe5 ea41 bf3f
00000030: 09c5 8a1a 1eae 77bf ba47 80a6 0dd8 b6bf
00000040: 699c 271a 212e c73f 874b cdda 719c a83f
00000050: aaa4 98d6 4bab d13f 9d26 2e59 0707 b13f
00000060: f4fe 1445 85c2 b43f 00fb 8f4e af51 a23f
00000070: 27c7 a406 aea9 babf de44 3043 9b6e 5c3f
00000080: 4347 8fbe ed1e a53f c112 d8b3 ed55 cc3f
00000090: f307 9d5a 8e20 b13f 43e8 497b 49e5 c53f
000000a0: 38dd 99bb 12bc c7bf 1add 87d1 2a33 a1bf
000000b0: ffa2 1c75 e5b1 a8bf 7230 3474 3901 ba3f
000000c0: e91e 6db2 ae99 cc3f bc01 ffbc ee69 90bf
000000d0: ee00 3652 9f37 c73f c4ad c2b4 98e8 d5bf
000000e0: 0895 1834 c7c2 aabf dc6d 5d0a 59f0 ac3f
000000f0: 0ef0 0187 9cfe bf3f 6922 f58c 7577 63bf
00000100: 246b d373 1b7e d8bf e78a f1cc acb1 d83f
00000110: 2835 5d6c e969 94bf 6e42 992e 65ab cbbf
00000120: 4d75 0994 0aac b93f 6f74 ebd4 1724 c4bf
00000130: 7c58 8bf3 83e8 a73f 3993 8a3d fb56 d63f
00000140: 4e71 eb75 5374 b83f 5b62 5b09 45fe b3bf
00000150: b4e9 01ea 200a b0bf 9153 ca32 ab31 c13f
00000160: 516b 2ba2 9e95 bebf 2f7e f17d 79fb bd3f
00000170: 383a e91e 53b0 a53f 3db5 91d0 755c 98bf
00000180: fd98 15e9 f964 cebf 97cf 2be1 9a47 983f
00000190: 607f 1c58 b5d7 b53f ac27 9dbe 2f9e df3f
000001a0: ea47 5ce1 dd3e b5bf aaf1 0c7e 9528 bcbf
000001b0: f081 1378 c6d5 d13f c61e 015e f05f b13f
000001c0: f546 ec0f 6aac c03f 43a9 b3cb 636c c1bf
000001d0: 1cd0 e7d8 013a c23f 7edb ce55 4c59 b8bf
000001e0: 0b30 6db0 e138 cabf ac02 296e 38c3 c93f
000001f0: a13b 2579 940a d23f ebe7 f6a1 cb41 d23f
00000200: ab15 d230 5665 c3bf 93ab a6ac e8a0 973f
00000210: 0928 044c 0daf a33f a487 b4cb da02 d03f
00000220: 947f b8db 00b9 d93f e81d 9f22 4c8c d13f
00000230: 5107 84fb 399b c1bf 89e1 7f2c 446b cc3f
00000240: 5f78 dcba 7f62 bb3f ad5b 4e94 0c01 8ebf
00000250: 3e13 4fa5 5410 85bf 590c df5c 3b2c a03f
00000260: e6c0 4e4e 5932 b73f b40b 3a2c af11 933f
00000270: c3cf 2609 01fc c03f b349 ce9d 51de ccbf
00000280: 631e 1b16 dbdc d33f 58dc 70fc 5bd6 c03f
00000290: 78cb 6a2c f714 d03f 307c cafc 17b0 c0bf
000002a0: 2ac2 b469 8a9b b3bf 1f28 6b1d 9faf 8cbf
000002b0: 2e1a 971c 8a69 a73f 0e24 d6bf 1383 9f3f
000002c0: b629 ec26 cda0 b13f 3049 70bf 9184 943f
000002d0: 1440 6484 5720 b93f 9815 3faa 9130 b23f
000002e0: 1d44 e1d6 22e6 c5bf 0444 409d 8158 b7bf
000002f0: bc1e 0128 559b ae3f 31ff 0fa4 f813 cdbf
00000300: 5aa2 83f2 1ae1 c0bf e0b5 b54c 109a b13f
00000310: 6e3d 4b7a 484b b8bf 9f49 1e9b 04d2 c03f
00000320: 53f3 4165 5061 b53f e7f5 f3a8 751c c8bf
00000330: 4e0c 04a2 8fb8 90bf e887 8399 191f c13f
00000340: 10f4 be84 f37d b73f d94d 04a8 a655 d5bf
00000350: e07e 321f 2630 c0bf c1e2 b3bb 6610 b73f
00000360: b15e 9ecb cdad d3bf 574a dab1 4be1 d13f
00000370: f2e1 d558 7db7 b53f 168d 101d 9998 74bf
00000380: 3f03 d985 f1a8 b7bf ca1a 517f 1e86 aebf
00000390: d4d9 bbf8 6788 c43f 9bf8 54e8 b8f0 a4bf
000003a0: d18f bb9c bb9a a23f 340c f966 85cd c2bf
000003b0: e1fc 9dca 5d3e cfbf 8fc3 67a4 bae0 d0bf
000003c0: 42c8 df4b 732e d1bf 5d25 773e 288b a63f
000003d0: 6f48 d9f1 a33c c93f e0b7 feb2 41fe aabf
000003e0: 2eca 2e3b b3fc c3bf 8ff5 dfc3 daee c2bf
000003f0: 88b0 e061 a6ab bbbf 326d 4977 9da5 abbf
00000400: 0269 52ff 544b 933f 5263 b8c3 919e bc3f
00000410: 3941 d0d3 79a0 8e3f 3a3e e656 1665 bd3f
00000420: 349a 98df eaf7 bebf a8a2 622f e0a1 b83f
00000430: 4d90 51ec 551e cebf 00a0 9c7e f21f b13f
00000440: df6f cfaa c8ca c03f 739b 01f9 3ef7 d23f
00000450: 3e68 bdc3 1684 c93f c4b8 2465 7dbc b83f
00000460: 2998 b93f ad40 ba3f 19b3 0948 2f7e bbbf
00000470: bce1 2d93 b3d6 c43f 5e21 5372 98ad d2bf
00000480: 6f1c be88 fb6e cdbf 06dd 8980 f169 d33f
00000490: 571d 716d d828 8e3f 036c 9bd7 c91e d5bf
000004a0: 4e00 a681 2c6e bf3f dfd5 1310 00a5 c03f
000004b0: 7438 e1f1 9fe4 ce3f 2bd2 5f04 eb55 d03f
000004c0: 6c62 0513 faaf cd3f ff87 0880 d272 bebf
000004d0: fd26 1ef6 bc13 cebf 9193 3c8a 3034 8e3f
000004e0: f954 a2f9 bceb ce3f 045f 4975 316f b93f
000004f0: 6961 5176 dc34 bcbf 2928 6b01 1ceb b33f
00000500: 8bcb 8bf6 3abb 973f 926c 50c6 5dba c83f
00000510: 1267 7abd e3e7 d4bf e31f 3b13 8edd b3bf
00000520: e9f5 df3f a00c c63f 556c 4827 60ee d2bf
00000530: 2939 ff86 f664 cbbf abc0 98cc 1f18 bb3f
00000540: 0448 8337 4bc1 c53f a0a2 580e 47c4 c43f
00000550: 5fc2 2a61 9981 adbf 602a 325c 1802 b13f
00000560: 1c24 f0f8 ceb1 c13f 7d7a 410f 691a b73f
00000570: 790e 7b51 7f8b a83f 58c3 22ef 88b9 713f
00000580: e76f f5bc 296d a43f dcd6 2fc7 a92b bebf
00000590: 027b d749 f56b c63f a4f3 4f1c 394e a13f
000005a0: fa7b 90cb 24ef 71bf 9629 0245 ca25 c1bf
000005b0: c01a 73c2 1158 b33f bafc cc5b 672d d3bf
000005c0: ccf7 a602 0bb5 d13f ee59 c506 a00c 9fbf
000005d0: 9984 78c9 bea0 d43f e377 5d89 4a2a cb3f
000005e0: 3a6a c4e2 87a2 be3f 8af5 8113 02ec 9bbf
000005f0: 22b8 1f2f 04d3 c73f 3b10 b63b ba6f c23f
00000600: 3948 81e5 4f80 b3bf 8a5a a827 4974 9ebf
00000610: 742f 8bbd 354c c8bf bdd4 ecff 5ab5 c43f
00000620: 8546 38df 409a c7bf 05bf 718a 1c33 d23f
00000630: 2a5e 6ac8 a2a4 983f b7f1 ccf3 1786 a83f
00000640: c1db eec4 40e5 d2bf 254e d643 c060 b6bf
00000650: 1ae7 3c1b 227d cbbf f103 0797 1948 b5bf
00000660: 5168 83cb dfc2 be3f b9c2 f58e a152 b1bf
00000670: 37db cb80 d71e b23f c4b7 ef91 ff2b b13f
00000680: d009 cfd7 4247 ad3f 8243 a2a2 2648 b8bf
00000690: c687 dd94 2dfa cf3f a6be 6161 d257 c4bf
000006a0: 0358 8894 db98 cd3f 7bc4 2d62 20b3 b63f
000006b0: 4b64 f166 bbb4 c9bf 2489 204c 9869 ca3f
000006c0: 2941 3dee 6dd5 c23f f9ce 073c 7d04 c03f
000006d0: 5324 d4e7 e763 c3bf 9882 7c94 d80e 98bf
000006e0: 2d10 23c1 f9db d3bf 366b 78ed b40d c4bf
000006f0: cb3a a4f1 eee6 c33f 9fff 800c aafe d03f
00000700: a263 d94c 8ae0 bd3f b1b0 d3cd 568e 96bf
00000710: 1729 ae97 be12 ccbf a87e 0492 3a34 483f
00000720: d07f 61dc 79ff 513f 4258 2da6 e8af c43f
00000730: 48a5 f2e0 4c5b a13f eb88 7afe 7e14 b33f
00000740: ae57 2934 038c cebf 72a8 5503 48a2 e13f
00000750: 08c2 bb1c 0c76 abbf 0f79 286e 159e c3bf
00000760: b072 1a47 553a cebf 7320 2514 bca3 76bf
00000770: 35c3 bf04 c489 d5bf 1006 b21e b946 cb3f
00000780: cddb fd87 8972 d1bf 917e 9495 f08f d1bf
00000790: 10df cca6 4918 cb3f aa2c c474 d5d3 abbf
000007a0: 353a 3339 8367 b1bf 833a 21df cb95 b8bf
000007b0: 33b1 1fcf ff38 dabf c67b e88a d6cf 99bf
000007c0: 841c 5e50 50df b33f 3034 4b1d 0b1f b73f
000007d0: 0728 0f57 b06b c0bf 76ac 1e3e 0a72 b93f
000007e0: 009d 6ba6 6e9d c1bf ec19 7202 af2e cabf
000007f0: b7f5 4555 52bf d43f d3c0 3f44 de48 c6bf

layers.1.bias f8 [50]
0.05139661215352613 0.0697620753366034 -0.06862862387929744 0.08028436946334472 -0.10941975506045495 -0.09869205692295012 0.06777446389120279 0.019832575606840746
0.0783720798932185 0.08451237722701063 -0.10714996591513441 0.006474176460899753 0.04317173809438057 -0.07366063161759046 -0.020706397155104906 -0.08527334319063198
0.006795447041355214 -0.017034443888077858 0.07334022558871958 -0.06660955477112107 -0.03847516982487165 -0.06291240321680318 0.04628831551848828 0.10915630076698775
-0.0738128653447303 -0.08551217125308039 0.06860353326168497 0.0801328606835663 -0.08182491292363839 0.07924238024546838 0.09841967771711385 0.005062908460632289
0.06480348769831064 0.057000649712951774 -0.04618066490419855 -0.10226757923230946 -0.019836805706744343 -0.06463199070308884 -0.0630921104817177 0.0586327169336676
-0.06986662807406586 0.004615859767643691 -0.07185517257122179 0.07528925126590588 0.08453439385675122 0.041315607116281156 0.018997637923638202 0.03240590696858491
0.048559738139368334 0.07233641941906763
00000000: c630 a620 a850 aa3f 7961 1268 eddb b13f
00000010: 9e8d 213f a591 b1bf a89c 3935 848d b43f
00000020: 3e5f 85dd ee02 bcbf 1fea dbf4 e143 b9bf
00000030: 80a9 ead1 aa59 b13f 4bdf 819e fd4e 943f
00000040: 5995 0f50 3110 b43f fe16 4c68 9aa2 b53f
00000050: 0b7e 5f1f 2e6e bbbf f786 b082 aa84 7a3f
00000060: 9f24 7426 9b1a a63f 7cdd cc53 6cdb b2bf
00000070: fd8a 65ca 0e34 95bf ea6e 394c 79d4 b5bf
00000080: 487f deec 8ad5 7b3f c48e 9e2d 7a71 91bf
00000090: 1a83 62ce 6cc6 b23f 78d4 57e3 520d b1bf
000000a0: 9034 3678 04b3 a3bf 1335 54fa 061b b0bf
000000b0: f87b ad22 1ab3 a73f 3d51 f2d5 aaf1 bb3f
000000c0: c0fe ad62 66e5 b2bf 6e22 f12a 20e4 b5bf
000000d0: 7ebd bf4b 0090 b13f 1189 f84f 9683 b43f
000000e0: 924c 013d 7af2 b4bf 298a 9c87 3a49 b43f
000000f0: e4ee 1331 0832 b93f 824a 2d24 d8bc 743f
00000100: 45bb 541c f696 b03f b95a bc6c 302f ad3f
00000110: cb2f f1fa fda4 a7bf 796d 3e44 352e babf
00000120: b0fe 117f 1950 94bf 445b 58de b88b b0bf
00000130: a093 27f7 cd26 b0bf 2655 6983 1b05 ae3f
00000140: c1ef a882 c7e2 b1bf 9752 eb6b 14e8 723f
00000150: d2e8 3dc0 1965 b2bf 9669 ed07 2846 b33f
00000160: 797e 00c9 0ba4 b53f b4f3 c1ba 5127 a53f
00000170: 2746 55e6 1d74 933f 3f2c 41cd 8197 a03f
00000180: 83fc 6b6e d2dc a83f 4ef2 b6bb a384 b23f
