main/discrete_time_identification (KdV)/models_iters/KdV_clean_72000.pt (torch, 127868 bytes, 14 tensors)

linear_in.weight f8 [50, 1]
00000000: b4e2 678f 0b5e c73f 441e 49c3 9749 bf3f
00000010: 08d5 c71e f3f6 b2bf 6c81 5cc1 e5b7 d6bf
00000020: 44ce cf7d 37b4 b3bf e73a 5abf 7a61 c3bf
00000030: c6eb 994e d139 c83f 6925 2db7 90d6 e03f
00000040: 427a 7477 1379 d2bf 63ce 9b48 0488 b7bf
00000050: d6b7 5d3f 4ec2 b6bf 2ed4 83f8 abe5 d83f
00000060: 110d 7810 e466 c83f 45e4 a777 577b 953f
00000070: 8dec 3841 6bb4 e33f 8367 9b84 8261 c63f
00000080: 3d8a dc8a d256 c43f 209a 57b9 7c6b cebf
00000090: b15d eb33 6dc6 ba3f 1847 81d5 d462 c83f
000000a0: 50bb a08f 662b d2bf 222d cef6 d3fd d4bf
000000b0: 4f9f 2494 6716 b9bf 797c 4c20 a92f a63f
000000c0: 2e3f 7d7c 6aa9 a4bf 5e2e 3c80 e82c 8fbf
000000d0: 279c 0c22 5bd2 d83f ec75 a546 972b cb3f
000000e0: 97fe b86c 4065 be3f 0c91 21f9 5240 ccbf
000000f0: 62b7 45b5 9f3d abbf 8572 57cd b725 d93f
00000100: 991b 7ea9 df60 d23f 85bb 53b2 c401 bd3f
00000110: dd1d bbc4 1dc8 b0bf 34e7 9274 81a3 833f
00000120: 0ca9 6146 dcf8 4c3f 2a91 03ed f432 c33f
00000130: aa49 1fdc c35a d7bf f393 9613 1164 a1bf
00000140: bb75 daa3 4a53 cd3f cb1f 74b0 f869 b7bf
00000150: 7c0b e083 f28b d0bf 9bce c341 90c5 bc3f
00000160: d444 fc8b 93ef d73f 4ca1 e99b aba9 d83f
00000170: 2e35 6417 2916 af3f 3ff8 ea7c 2a33 bbbf
00000180: d8f4 2e8c ed85 b13f 27be d720 dd7b d2bf
0.18255753042446587 0.12221668737139973 -0.07408065320472101 -0.3549742115301544 -0.07696863957954131 -0.15141233771688364 0.18926445329620217 0.5261920526183249
-0.28863989511038224 -0.09191920063659036 -0.08890236899398415 0.38901805180586535 0.19063998035571975 0.020978323629581536 0.6157737993120392 0.17485076403573538
0.15889961033197322 -0.23765524911796465 0.10459024922908246 0.19051609444664375 -0.283898964177685 -0.3279924307068588 -0.09799811713002991 0.043332371895524475
-0.0403550412144099 -0.015222374356674336 0.3878391106140406 0.21226778935935842 0.11873247770653915 -0.22071301617246097 -0.053204527738542465 0.39292712262048496
0.2871627001954323 0.11330823281944731 -0.06555353215218625 0.009589206094790727 0.0008841586648149781 0.1499925763411139 -0.3649148606902154 -0.03396657337297162
0.2291043567719678 -0.09146074588727442 -0.2585417068332203 0.11238957982623747 0.37399758024646457 0.38535585618821666 0.060715946298027 -0.10624948072197159
0.068449827885121 -0.2888100453119215

linear_in.bias f8 [50]
00000000: 5271 9838 6c50 b6bf a849 243e c46b b03f
00000010: 1cf4 ed2c 8afa b5bf 5b46 6c47 0c5f adbf
00000020: 26ee f34e 7584 b2bf 3da3 a75d 6e4a a2bf
00000030: d800 f4a7 0d5f b13f b304 6172 bc55 a13f
00000040: a5ea 15ee 9253 bd3f 4e56 7c74 f75e b2bf
00000050: 4077 13be 6d6a a63f 1035 e26c 74b9 923f
00000060: 8c26 2130 954a 9f3f 669d d984 dcec b53f
00000070: d1bf 12bc 2e29 833f ad11 11fd f2b9 b13f
00000080: def0 9e66 dbe9 94bf deba a60e 61ac 9d3f
00000090: 56cc e331 5520 bc3f 46a1 4954 3576 b9bf
000000a0: ffed 5d31 9dfc 73bf 8f66 225a abaf b83f
000000b0: 8789 1c99 ebb7 acbf aee0 3116 5c9d 93bf
000000c0: 01a9 a959 b352 9ebf adfe 75da e158 a4bf
000000d0: c188 bbe0 e652 a73f ddc5 c1ea 4b47 9c3f
000000e0: c47e 4e87 0d5e bbbf 580b 4455 2e52 be3f
000000f0: e2b8 1c45 5319 a83f b39f bd2e 88ce a23f
00000100: ecf0 a52a 6627 983f 3282 3366 ed0b 933f
00000110: 5ae0 445d 5ea0 bf3f 3978 e366 e98e 8abf
00000120: 296f 2db5 f75a b6bf d6aa 3696 b094 bb3f
00000130: 452b b2d4 720a afbf a7ed 3f64 41d2 bb3f
00000140: e285 77e2 f967 b63f 713c 64d0 61fd b4bf
00000150: 3923 e453 2693 a43f 6cfe d74d 10b6 abbf
00000160: c589 2293 cd4a 933f e1aa c3fb fed5 b6bf
00000170: db46 26a8 7f2e a63f b29b 603a 4f57 ad3f
00000180: 1b27 e75f ffd3 b2bf 90b3 3853 f8f6 a03f
-0.08716465360379758 0.06414438740856687 -0.08585418316756982 -0.05736578342306294 -0.07233365228233221 -0.03572411435363285 0.06785664892595678 0.033857239687230666
0.11455648720395091 -0.07176157564057314 0.043780736401215936 0.01828557886670007 0.030557948172179425 0.08564546817216509 0.009355893244304444 0.0692436092222752
-0.020423343790512465 0.028977886695140558 0.10986835926068869 -0.09945996578028823 -0.004879583391694363 0.0964305014662392 -0.05609070056950132 -0.019154967169442365
-0.029612352702693027 -0.039740617673485225 0.04555436604802444 0.027615724757600425 -0.10690388253578492 0.11844148236927532 0.04706821650175798 0.03673196383061796
0.023587795594253544 0.018600186694017924 0.12354078080250144 -0.012967894985589467 -0.0873255555465532 0.10773757617304666 -0.060626591171134815 0.10867699334624224
0.08752404955841755 -0.0819913038032938 0.04018516325056116 -0.05412341070404811 0.018840038400080212 -0.08920282026853556 0.04332350661856107 0.05730674350370836
-0.07354732600574858 0.03313423171889618

linear_out.weight f8 [50, 50]
00000000: 36e3 325e 4383 a5bf fc4d ccdb 8b25 ccbf
00000010: c208 ee3e 9129 a23f 8234 1dff 9bde ac3f
00000020: 5931 c1a9 dc75 c4bf eebb b2a2 296e c33f
00000030: 233c 6300 7730 a83f 888e e0e1 9540 993f
00000040: 6e5c f02c 177e cdbf d529 352f 9966 c6bf
00000050: 09ae 6baa 4a94 a43f f3f4 1f00 e99f ca3f
00000060: 5c1c b653 642a b1bf 7948 65fd 4a98 a63f
00000070: c76e 63e9 eb50 d43f 4cb2 f142 eeb7 be3f
00000080: 9db4 236e 19e7 c23f 9c1c 1d70 b732 a83f
00000090: f1df fb00 c945 c33f 9add c89d 5261 bbbf
000000a0: ebd1 0699 1789 d3bf 0494 130d 4ee5 ad3f
000000b0: e630 a36e 80dd 823f 2985 6366 af60 a8bf
000000c0: 7f75 3f9b cd3e c33f 778a 07ad 885c b4bf
000000d0: 70eb 6a8b 1b10 b1bf 71cd c00b 8384 b23f
000000e0: 9b69 ca2c 4c8a b5bf 2494 f326 e5aa bdbf
000000f0: 6986 8757 ea11 7abf 5d3d d365 210a b43f
00000100: c17a 28ba 0ff3 c9bf a00f 2005 203d 92bf
00000110: efe8 6822 b2f5 c7bf 0d83 7648 aee5 c53f
00000120: 691a e8af e1d3 b2bf 54f7 3373 43e9 ae3f
00000130: b698 01c1 192a b7bf fc36 5dc5 1129 c13f
00000140: 70c7 ab9e 03cf 693f 68ba 83ff 9c18 c03f
00000150: cd71 f8bc 10c4 c0bf fa18 e9f1 364c 953f
00000160: 009f 4d0f 5ea9 7cbf cab3 28f2 7beb a63f
00000170: 946e 8344 639a 773f a6d6 6b1e 327a 743f
00000180: 0e6d d868 0a5c aebf 00ec 1970 901e 8a3f
00000190: d8ec e910 e80c c4bf bf58 00d1 5b43 b9bf
000001a0: a695 abfb ffb3 cfbf 595a b896 3fe3 7c3f
000001b0: 6641 c044 131e b4bf e712 2c8c 2f90 d13f
000001c0: 42ba 7233 693a a93f 8a29 0b7c 5cad b43f
000001d0: acaa 0531 4e5b b7bf fd08 8a46 c182 b3bf
000001e0: f69e 9164 40c3 cb3f a001 b2fa 1dee bb3f
000001f0: 5406 54ca 04d0 c2bf e23b c8ca 0bfb bebf
00000200: 2970 0113 f4b5 c13f f0d8 6d2d e1a0 96bf
00000210: 2de4 ed0c 74a8 8a3f 7a4c b8ea 7f97 c6bf
00000220: 06ea c09c 5dd1 bb3f 0604 8826 3084 bdbf
00000230: 124e 469a a673 bebf 8a53 d46f 45a3 bfbf
00000240: 7504 a409 272b bf3f dd17 311a 9525 c4bf
00000250: 7fa1 1fd9 0e17 b83f 6e0a 56c1 1741 b23f
00000260: aa8a c05c 580d a73f 16b5 1569 a6ea d33f
00000270: 982b ba71 d8bc a13f 749c 4864 0b36 bbbf
00000280: 725c 4a95 199a bbbf 63ff f584 c984 ca3f
00000290: 54ca cde7 64e5 bfbf c7fe ade6 e2e5 973f
000002a0: c8d1 0446 0666 cebf 8767 e855 0868 cc3f
000002b0: 9628 1ffe 873e c53f c5a0 c6f1 214c 593f
000002c0: 98bb fed9 d281 a9bf 3bee 8250 4f2c ba3f
000002d0: 89f4 9bd6 8df1 c4bf 9181 7b30 c026 bd3f
000002e0: 3b63 1ba3 f096 b2bf 4afd 71bc 2bea 62bf
000002f0: cbcf cea0 52fe 77bf 72d7 9b8f 2f51 bc3f
00000300: b666 945f f08b bd3f 210f 212c 73b5 8e3f
00000310: 1c78 1a8e 1cc1 9c3f d722 7c7e 0b52 a43f
00000320: 544f f286 9a16 c33f 46e3 24ac 1094 c4bf
00000330: c1c4 3083 f828 c23f 25cf 8f41 8bcf a23f
00000340: f52d 42fc 570a d2bf 2989 f370 b545 be3f
00000350: d704 d7f5 1641 b5bf dc24 b6a1 482a ca3f
00000360: d3cf 8483 173b d1bf 6ebb cc90 a783 c9bf
00000370: 3b1b 8dea 23c0 b9bf 22f1 d405 4b8e bc3f
00000380: 0c33 d44f 976e 803f bce3 dfa7 3682 d03f
00000390: 3560 0c7e f906 cd3f d229 bb7a c501 c23f
000003a0: f721 21d2 c46e bd3f eca4 ca4d 8a92 91bf
000003b0: e83b 4872 6456 ba3f 728a 761a 6c5a abbf
000003c0: 7b2a 0e35 1889 d1bf 66d0 3c3f 8e94 cd3f
000003d0: 77bf a2e8 1b49 cbbf 223f 2915 e87c 86bf
000003e0: eba5 3a97 ece2 c23f 1f9b 4c9f 9c82 b4bf
000003f0: c02c 4841 31be d3bf d494 0714 fb4e b73f
00000400: 4d4d f7f7 70cf b8bf 9a7a 9690 f9e8 4e3f
00000410: d573 c85b 1ace c13f c156 2915 54fd b1bf
00000420: 0b24 00c5 3369 a9bf 6902 26d9 8a8c a2bf
00000430: 95bd b947 4dcf d1bf ccbf 1a03 809e bd3f
00000440: b4a6 5299 cba9 703f d11b f8e7 9a47 b13f
00000450: cbe9 e5a8 0441 c1bf 6c2c d27c 854d b43f
00000460: 25c6 b093 7d51 a93f 024e fca2 0557 98bf
00000470: 4605 3f7b 69f2 c4bf b559 57fc 44bf b7bf
00000480: fabc fce2 38ae a53f 850d 4a1c d608 c5bf
00000490: 82b7 f616 f465 9f3f 0c1c 28b1 fff2 b3bf
000004a0: 0ec2 67b6 d10d 9a3f 9176 33ee 9171 b1bf
000004b0: 51a7 5300 e7ed b4bf 2d10 c5f9 6af0 cabf
000004c0: 444d d72d 2bf1 b23f 06b7 20fe 5320 69bf
000004d0: 1a6d b3f8 c81e c9bf 803b 9dd4 f745 b93f
000004e0: fe89 83ec 8b2a b2bf 9210 faa0 6b0f c33f
000004f0: 5ca4 9206 bbce cebf ed0a 89ad 1c10 c7bf
00000500: 708a c789 4bb9 bc3f 52a9 0474 81ca bc3f
00000510: 4932 0ae1 f9a9 65bf ea6e 2ec1 468b b03f
00000520: 0a9f 1195 3813 d63f f651 ab72 bfb1 d23f
00000530: 5677 0675 0f49 cc3f e169 cc1f 7b03 c43f
00000540: 7c3d 580e 9d84 d23f 6ca3 ebfb 8cd5 a7bf
00000550: b3d1 2a25 b94c b6bf 1418 54b9 7d64 a3bf
00000560: 863f b90a 4e83 b9bf e8e8 dd35 1a91 c2bf
00000570: 961d 0398 f197 c73f bf13 d5cd 816f 97bf
00000580: b98b 7a11 7fe5 c3bf 203a ca62 f967 c9bf
00000590: 7a51 21a5 85bd d0bf 4b5f 8aca f185 c3bf
000005a0: 711a 5198 e0e4 913f 5b2a 778e c41b a83f
000005b0: 0262 29ed d42f b0bf daff 2ae2 5202 b9bf
000005c0: bcac 50cc 4b49 853f d669 cc06 a471 be3f
000005d0: 8d9b 2b1d b9ea a63f 6120 f840 a322 b2bf
000005e0: aa9f 2641 5907 973f ff4e 0dd8 94be 8abf
000005f0: 8770 e9aa 9776 a3bf aebd e86a 35ac 88bf
00000600: 73b6 7bcf b415 d2bf 6a36 3c6a f10f b6bf
00000610: 4f11 b553 1562 c9bf b6ff deed 608e b8bf
00000620: 451c e025 8689 883f 3864 468c 156a c03f
00000630: 6712 1e56 fc3c a0bf a70c 4dae fed1 c43f
00000640: 71d8 8b30 e9fe 8bbf 78c9 02bf 5782 cebf
00000650: 43fa fad1 bf1f b0bf 4ef2 614f ea79 463f
00000660: 7e00 a1dc fd7f bcbf 428f fdd9 170f ba3f
00000670: 0a58 845a 6cce 843f 7a23 70bd 0a71 a03f
00000680: c135 f778 1f5f d7bf bdeb 386d 03fa c0bf
00000690: 8922 79f6 4017 d6bf ca9d c84b a5bb d63f
000006a0: e455 1915 44c5 b4bf 7e40 b798 7813 ccbf
000006b0: 1125 1a74 f9a8 d13f 78cf 9e3f b1a5 c63f
000006c0: 02b0 b58e cb3c c83f 321b 9eeb a5d4 b03f
000006d0: 868c be0a 31ae d43f 8ca6 bfa5 a2ca 993f
000006e0: 9f81 4b30 5f37 cfbf 263e a1c2 9b72 a43f
000006f0: dcc2 70e1 cd58 443f 9feb 8c66 4288 d1bf
00000700: bc2a 82af 911c 913f 1e82 6c02 1528 c23f
00000710: 0741 4213 4e27 aabf 67e3 47a7 807e b53f
00000720: 5d70 d5dd 1e70 9cbf a5bf 8b31 dae8 c7bf
00000730: 2234 d375 6520 963f 3987 d2ed 8a74 a33f
00000740: be2b 61d1 ea59 a6bf 491a 143c e0e5 8e3f
00000750: 89df dea8 4d18 c7bf 517a 077d b606 c63f
00000760: 3e11 889d c6d2 8b3f 0a58 4ed8 4e30 a3bf
00000770: 65e6 510c e8c8 babf 70ec cddf 11c5 87bf
00000780: 9c9d 305a 3eba b4bf 0dec 55be d9b2 cd3f
00000790: e5ea fe69 886e cdbf 9352 db6f 134a cb3f
000007a0: 2315 87ae cd90 8dbf a290 ccaf c238 b33f
000007b0: fca2 0b8e 2f1e 873f be06 a82d 399a b43f
000007c0: aa0f 7e39 492f c1bf 4b3c 8798 d9a3 96bf
000007d0: 38a9 09fd 1735 c43f 0e25 6429 dd86 b0bf
000007e0: bb7e 2d7a 1f74 c0bf a3fc 7991 0da4 bebf
000007f0: 2eb7 d1f7 df73 d1bf 696c ae72 afcc c43f
-0.04201708340537495 -0.21989582283332243 0.035473383838522846 0.056385874645095604 -0.15984686173249932 0.15179939693686556 0.04724475745899095 0.024660436545799885
-0.23041047758372052 -0.17500605397283545 0.040193875602053515 0.20800507074446947 -0.06705309909567475 0.04413065283974133 0.3174390582259829 0.11999405989053818
0.14767759206680334 0.047261936603313986 0.15056717441598225 -0.10695377685703136 -0.30524244255073424 0.0583900824511048 0.009211543442141989 -0.0476126492010372
0.15035410004103864 -0.0795369551119992 -0.06665203241111128 0.07233447110120551 -0.08414150327226937 -0.11588890267337654 -0.006364741705029078 0.07827957855191899
-0.2027301463103495 -0.017811298668689468 -0.1871855419174788 0.17107180155019144 -0.0735455564937212 0.060373409092774694 -0.09048615419451064 0.13406583916587766
0.003150469846667052 0.1257511375074103 -0.1309834406573728 0.020798548235938498 -0.0069974588594516884 0.04476535159151458 0.005762470020467387 0.00499934747380385
-0.059295964525711495 0.01275360910516632 -0.15664387536876379 -0.09868406155178187 -0.24768066204630407 0.007052658456379556 -0.07858391216746483 0.2744253987187179
0.04927376511601668 0.08077028301628367 -0.09123696038083534 -0.07621391269825391 0.21689610395991793 0.10910212870113023 -0.1469732273035783 -0.12101815891968173
0.13836527755745578 -0.022098081968089767 0.01301661171395282 -0.17649840317662663 0.10866341664306142 -0.11529828015046925 -0.11895219103308133 -0.12358507137498811
0.1217522047554825 -0.15739692477126158 0.09410183716648211 0.07130573721046016 0.045023690531043783 0.31119690191447213 0.034643901713102554 -0.10629340360957135
-0.10782012839114133 0.20717734329445667 -0.12459402713083395 0.023337884263581878 -0.23748854082954396 0.22192482180326698 0.16597080143248338 0.0015440303314822473
-0.04981860076019656 0.10223861423121942 -0.16362164477314803 0.11387253936437093 -0.0726156614504249 -0.0023089269848807535 -0.0058577754652339815 0.11061379676888608
0.11541654904831486 0.014994525703634633 0.028080412076285297 0.039688452901889874 0.14912730778871242 -0.16076858907197272 0.14187532811914674 0.03673968482317339
-0.28188132891293033 0.11825117118454344 -0.08302443983031381 0.20441539665288289 -0.2692316803324932 -0.19933027811336096 -0.10058807827327325 0.11154621975305593
0.008023435710606396 0.257947601261147 0.2267753472776818 0.14067905895929173 0.11497144823182014 -0.017160569189091854 0.10288074293224236 -0.053424242239334854
-0.2739925878637803 0.23109605872889744 -0.21316861018339825 -0.010980427881036873 0.14755017647011867 -0.080117977992455 -0.30848342299641374 0.0910489009762217
-0.09691530279024115 0.000943300111590012 0.13910226327507638 -0.07027173535001464 -0.04963075427810545 -0.03622850323427402 -0.2782777023739638 0.11569976878922644
0.00406817942454445 0.0674988571482651 -0.13479669806458924 0.07930788323771915 0.04944984844076953 -0.023769462654923863 -0.16364782827262497 -0.09276229057954917
0.042344835003285966 -0.1643321645861812 0.030662359143824876 -0.07792661738504608 0.02544334102452877 -0.06813919129805358 -0.0817551017568381 -0.21046197124280877
0.07399244183698267 -0.0030671730501329346 -0.19625198501203373 0.09872387829567053 -0.07096170925391473 0.148908094026528 -0.24068391629160402 -0.1801791999187893
0.11220237840420011 0.11246499140239521 -0.0026445274782587497 0.0646251889833668 0.344923158240349 0.292098867398891 0.22097962583660075 0.1563562302843158
0.28934408570145087 -0.04655113768769223 -0.08710820348171104 -0.03787606131849955 -0.09965980302626862 -0.1450531733533531 0.1843244545218396 -0.022886303127297
-0.15544117310954933 -0.19848553966262816 -0.26156750799170647 -0.1525251616446844 0.017474660202675133 0.04708685149269761 -0.0632298544891299 -0.09769170781782979
0.010393707440093151 0.11892151990870245 0.044759545145829006 -0.0708410295120543 0.022488970376485597 -0.013058817714103109 -0.038014163602128774 -0.012047211957080996
-0.2825748468593254 -0.0861807712901396 -0.19830576503057748 -0.09592252547645228 0.011981056242815433 0.12823743199695214 -0.031715283882509486 0.16265853415288697
-0.01366979770089591 -0.2383527453108163 -0.06298445583795691 0.0006859201519229892 -0.11132799755523767 0.10179280349762812 0.010159346115454344 0.032112441658745675
-0.36518084347775576 -0.1326298030197374 -0.34516929692885207 0.35520298386333293 -0.08113503947364326 -0.21934421021297007 0.27593838060472914 0.17693153006041107
0.1893553206276693 0.06574475290663598 0.32313180970431465 0.02518705498361 -0.24387731416846933 0.03993689299442975 0.0006209378506181989 -0.2739416123837887
0.0167105449077478 0.14184820764877853 -0.05108112320988494 0.08396152576450576 -0.02777145604100927 -0.1867935888217264 0.021607957188099054 0.03799852517228292
-0.04365476423171043 0.01508689101548301 -0.18042917962679564 0.1720798597807112 0.013585616762619265 -0.03747793569998244 -0.10462808895854321 -0.011606349604099203
-0.08096685125257469 0.23202058595401845 -0.2299356954152564 0.21319811784509976 -0.014436346901570979 0.07508484641999982 0.01128804352033929 0.08047826161057522
-0.13425555522200955 -0.022109413084589396 0.15787029128416363 -0.06455785999800787 -0.12854379144390812 -0.11969075013802181 -0.2726974411115063 0.1624965009658326

linear_out.bias f8 [50]
00000000: 3f57 edf6 32ea d1bf a443 f46d 56ba d1bf
00000010: 61c9 217d cbff d3bf 1438 bee3 7e32 c6bf
00000020: bdc8 8a47 342e b2bf 2754 bd3e 3963 c0bf
00000030: a491 6d79 f09f c2bf 6f5d 0b9a a4d9 92bf
00000040: 0932 12c4 7509 8f3f 4ba5 d671 852c 87bf
00000050: 1754 ea3d 173c c1bf c2e2 de5f c4b7 8fbf
00000060: 73a8 4452 355d 743f 4747 81da f75b 51bf
00000070: c097 268b 73c1 b6bf 68fa e221 ab76 bd3f
00000080: 17ca 9584 0465 b83f 5e21 0eb9 e5ff 57bf
00000090: 1cc5 99d6 f06f ab3f 0d71 d141 4783 bd3f
000000a0: a5c8 50d5 640d aa3f aaa2 26ec 1c08 c2bf
000000b0: 7d39 e314 7182 bdbf 1617 d014 6c3f c1bf
000000c0: 5a12 2abc 76a9 c3bf 599c a2d1 0e55 c3bf
000000d0: ab0a 99c6 64a9 c3bf 230f e47a e14f c6bf
000000e0: ebad a292 0eef 9abf 6fc4 1c66 6025 c4bf
000000f0: 2a2e 8c57 867c b0bf 011b 4946 9151 bbbf
00000100: c8b3 2289 6176 a53f bf78 4928 611c 97bf
00000110: 7ecf c7f5 d885 66bf 44b7 90d0 b177 8f3f
00000120: c4db 1b3b 219a 753f c9f7 399a 557a a63f
00000130: eb91 fd80 99c5 c03f 245c a278 57c7 813f
00000140: 398c 8d5e 14fd bb3f 77e5 91cf b2da c63f
00000150: c6dc acc7 1d2d ab3f 600b 5c9b a893 d03f
00000160: c76a fcd9 5793 a73f a1b4 7358 1358 c43f
00000170: ab06 77c1 45d6 cc3f 33af 39b6 f379 cb3f
00000180: a380 9ebc a019 d03f b303 c89d 4d35 c53f
-0.27991937746024925 -0.2769981454630914 -0.3124874803535445 -0.17341600532785206 -0.07101752039560245 -0.12802806437926614 -0.14550596169568764 -0.018408367063640293
0.015154762312044505 -0.01131538633019837 -0.1346463253327392 -0.015487226653804757 0.004971702848971404 -0.001059524578540709 -0.08888933322177106 0.11509198739347826
0.09529140698376924 -0.001464819277517369 0.05358841533314715 0.11528439862144442 0.05088343719434477 -0.14087258845144862 -0.11527163276625703 -0.13474799171688606
-0.15360912502014196 -0.15103326068967496 -0.15360698411139614 -0.17431276798753811 -0.026302554798048588 -0.15739064203220063 -0.06440009724990917 -0.10671337095218904
0.04191880034463896 -0.022569196781085262 -0.0027493703366818214 0.015365018060119369 0.00527394276445298 0.04390208728453577 0.13103026197781217 0.008680995339359461
0.10933043774052544 0.17854914794206042 0.053078585266513253 0.2590123669798938 0.04604601417505232 0.15893785304016197 0.22528907724886457 0.2146591796657674
0.25156420154417897 0.16568918422856668

layers.0.weight f8 [50, 50]
00000000: 2f4a f11b 7d7f d7bf 7f36 83d3 984e b8bf
00000010: 3455 8c3b 37b3 d0bf 0603 2a83 f759 a7bf
00000020: fd86 328b db22 b4bf 292e d90b d371 c3bf
00000030: ad24 6378 ecb9 c0bf 5e11 9661 e519 8fbf
00000040: 9d06 36ac d34e b83f 8418 dc02 4871 c5bf
00000050: 8698 a5e1 87d5 b43f a2e6 6889 a910 d0bf
00000060: 531f 52e8 6e38 bebf 2e0b c126 2dbf b23f
00000070: aed1 8a6d 403d b7bf 4510 b822 c412 c03f
00000080: 7403 53e4 84ce c8bf a41b 60d1 6d46 c63f
00000090: 452d a887 3a2d bc3f b279 0da6 d48b cfbf
000000a0: 5705 be4f 8f51 b33f d6f0 dd5a 96ed d53f
000000b0: ce8d d725 c14f c4bf 87b0 f82c bbcc c0bf
000000c0: a594 fb26 1ab2 bdbf 21a0 42b8 d6a3 ad3f
000000d0: 5af1 cf35 d319 c7bf 15f9 973d ab92 b1bf
000000e0: d235 e616 6e35 9a3f 2834 c26f bb58 d03f
000000f0: b38d bfcb 95ed c93f 6732 de86 fdbc bf3f
00000100: d8b2 2937 b8de 97bf 38b0 1fc7 024e 90bf
00000110: ccbd 5188 16a7 d53f d011 feb8 6b19 d0bf
00000120: b019 7216 44e8 b5bf 0520 0cab 5acd 79bf
00000130: c7e7 92c9 4ad0 c9bf 3228 d362 d9b9 d23f
00000140: e900 3eb2 f829 b6bf 1b18 c0ba 1dd5 bd3f
00000150: eec5 2405 8139 d23f ab4d 2658 7ce8 babf
00000160: 7256 92ac d162 cbbf 1d96 8b04 f029 a4bf
00000170: 43c5 b232 2866 a03f fcb3 3cca c9a3 4ebf
00000180: 3629 12ec eecc dcbf e072 aa9c 7196 953f
00000190: d429 e138 8712 d6bf ed10 4d9a 90f9 38bf
000001a0: 02d9 654a 2d3e c2bf 857c bff7 7045 38bf
000001b0: 0530 08aa 716e cfbf 76a8 2b36 9d8f c4bf
000001c0: 8163 b622 bf44 cb3f cef9 8d57 8626 d33f
000001d0: 2442 651b 884c bd3f 8b8f 0977 0a3f c7bf
000001e0: f290 1143 c586 bf3f 9ad0 425f 12f9 c23f
000001f0: 70ad b0f8 e6ac c2bf d73b 06e3 b10d d73f
00000200: 464a aae9 e963 bb3f e50e 1d7b ab01 ca3f
00000210: ce81 b506 cfa6 d13f a3a0 356c 6119 cfbf
00000220: e6fc 8339 190d ce3f c2c0 cde5 3d40 acbf
00000230: 815c 22d6 7442 d8bf 81c6 349c 4bd2 b83f
00000240: ed54 c791 9b47 c8bf a5ea 4eb6 36eb d1bf
00000250: 4912 40ae 9514 dbbf a945 55be b337 b7bf
00000260: 896b 2201 7c11 acbf 68e9 b1ba 7e87 a83f
00000270: f071 8bf4 c7d3 b8bf f752 fb0a 7fb7 b6bf
00000280: 8948 f1c3 7bb9 b5bf 8567 ffa9 cbb8 d23f
00000290: c3d1 1599 6621 a1bf 3573 04c9 4192 c73f
000002a0: b132 3350 ae83 b63f d20c f736 3f41 c9bf
000002b0: 63ce d8c8 5531 913f 41bd 6af0 f357 cb3f
000002c0: e395 7e35 3053 b2bf c490 2e5d 198a bb3f
000002d0: 99fe 83a7 546a c83f 187f 6840 a55b 9bbf
000002e0: 3b90 66fd 817b 9b3f 099a 2307 6e6f bbbf
000002f0: a545 50b2 f900 c93f 7fe7 5375 ee6a c83f
00000300: e0b3 4881 284d ca3f ec11 d6e2 f9a4 d93f
00000310: e9ba 5df7 c998 c3bf 49a8 1b17 040f b1bf
00000320: bf4f 5777 8476 c9bf 835e 4301 6fd1 b1bf
00000330: f8cc 2188 10c7 b5bf 7dab 6284 c1d2 c2bf
00000340: ec24 78ca 5de9 ca3f 0a3b 6c87 bfcb cc3f
00000350: 09a6 dc14 e30e c5bf a5b5 4ca5 7a45 babf
00000360: 253c f8eb c4fc b53f 62ab bc6c 8c34 a43f
00000370: f059 11e1 3afa a4bf ea5d 0d62 e47b c7bf
00000380: e089 3cfe 4d28 acbf ea31 2433 b6b7 72bf
00000390: c873 2c10 b17d d5bf 6251 1230 1d48 c1bf
000003a0: 1020 4dc6 c1cb cc3f 57f4 ca2c 4e3f b83f
000003b0: 0bb4 3965 df79 b5bf 6231 06b1 ace6 d0bf
000003c0: ada4 b502 f9a5 ce3f 0158 7f0a e58c c63f
000003d0: e6df fa32 53d6 b63f 79d7 c33d 9d37 a9bf
000003e0: 4eb2 0c8e 0bf3 a13f 47de e4fe 9dea c4bf
000003f0: 7da6 7fa7 99f3 c7bf 940a 2cda 7629 c4bf
00000400: 2a7d 0b4a 22ac aabf 3d38 007b 791e 973f
00000410: bd3e ddf5 00c1 b63f a3bd 1971 12df b53f
00000420: cf91 4c3b 66b4 af3f 4415 cd6a f8ee 923f
00000430: a924 6749 262f b23f 318c baf7 7dda a5bf
00000440: 019b abec 7abb 40bf 37c0 589c 00cd c23f
00000450: 1a35 fe99 ecc9 82bf 0e95 39b0 ed4d af3f
00000460: 4ccf 9673 e32a b63f 1e39 4562 ee81 a73f
00000470: f48c 6bda 73d0 c83f bda5 044c dffd c2bf
00000480: bf9f c208 d668 cabf c5b0 e5e7 fee1 d5bf
00000490: ad64 5253 4976 8b3f 92c8 637a 28b4 c63f
000004a0: 7b47 2989 4cab d3bf aff5 444a 7307 ca3f
000004b0: a52a 0b35 fc86 c8bf 2aa0 38d4 a443 cabf
000004c0: ddf2 31e7 6d85 be3f 8aed 09c2 3ea6 b13f
000004d0: 7014 7c80 b9fd a83f 131d 4e92 bb10 ba3f
000004e0: cd82 2175 4575 d03f 18d8 e23b a9dd cbbf
000004f0: 2800 a246 ae71 b33f 68ca 03e3 a380 b63f
00000500: 5f0e e8a0 6ab4 643f 1fb6 539c 024c aebf
00000510: 6bb0 9de9 703e b33f 1d7f 385e 8c67 813f
00000520: 51f3 c1e3 27db aa3f 0aad e787 8506 bf3f
00000530: f6f3 dc20 629a b13f 8b23 70fe 9bdf d13f
00000540: 508a ce17 8922 c7bf 82b0 63c1 73a0 aabf
00000550: 9736 fa89 c842 a9bf 03aa 8a47 f47f 81bf
00000560: cb58 96ec e55e ca3f 46b9 f35e 2fb4 ac3f
00000570: 51fd 6e4f 132f b63f b4e2 5e8f 10b3 c7bf
00000580: 3eae 8eb3 7bb7 cebf 6499 c7d6 912c bebf
00000590: 39c6 cbbb 4ec6 b8bf e733 146d 9b77 92bf
000005a0: eae1 85b7 9932 bbbf 5912 539f 1b57 89bf
000005b0: 2bbc 8d4d 45d2 943f ff2f 2e7b 8132 c2bf
000005c0: 224a e15a 6a50 c23f a935 a065 a133 903f
000005d0: ae00 b532 302d d63f eb16 acd8 1c58 ccbf
000005e0: 8f5e 9d2a 8d05 c33f e855 2d73 4484 b1bf
000005f0: 2835 01a8 4cb0 a4bf c4d9 914c 6482 b0bf
00000600: e646 5fb1 08fe b83f bb89 6781 5ad3 bb3f
00000610: 7a72 92ee 7591 95bf 52ed 4493 5186 b6bf
00000620: e08c e309 c633 b8bf d205 ddc4 af99 c6bf
00000630: 34c2 04bd baf0 c4bf 65df 35f3 875d 973f
00000640: 4e00 b7d0 c9e4 7ebf ddec 3a5c 437e 8e3f
00000650: 9f43 ac6e b5ff a8bf 4fd3 47e4 ecc9 c43f
00000660: ac3a 64a1 ada2 a9bf b833 006b b913 97bf
00000670: 5507 8282 d765 b83f a8df ed90 9213 b3bf
00000680: 359d 1c72 708c d3bf 7525 9510 2707 9b3f
00000690: 9be2 f5f0 1bb5 be3f be1e e65d 5fd3 c03f
000006a0: cfc4 c0af 3c78 ac3f dc37 12e4 2c13 b93f
000006b0: ffff 0f51 3ab1 a73f 69c5 2165 2add 9e3f
000006c0: 506a a9f3 7a95 a2bf d607 5dcb bd1d c7bf
000006d0: f635 a9eb 0156 b13f 47b5 4053 861a be3f
000006e0: 1e62 3b02 d409 adbf e465 14ca 34b2 9cbf
000006f0: 07b7 bb85 cc23 c6bf 931b a20d e8ba a83f
00000700: f86f 7ee8 cd77 a0bf 66f2 1351 355b c33f
00000710: 8b90 f7ac 2561 323f 2e53 0b3f 680e ce3f
00000720: ea34 8830 ee4d b9bf 9706 08b2 71f3 4b3f
00000730: db0c 77c5 0e52 63bf e144 e70f b5f7 ba3f
00000740: 4f03 8c1a 815f c13f 7707 d94f 7337 7dbf
00000750: 7583 58b3 83ca b8bf b0a9 c606 2ffa d8bf
00000760: d54e a3af f333 cc3f c03a c46d 5dd2 cc3f
00000770: 96f7 da8c b790 c7bf fc0e 7c3b 4c26 abbf
00000780: c7a3 158c ae6f 88bf baa2 d44e 6e2c b6bf
00000790: 1732 fe13 ad6b b4bf 5f70 534d b3b1 c7bf
000007a0: 1894 d5de dbd4 7fbf 5dcd c1a3 bc32 be3f
000007b0: e64e a34e 70e5 9b3f c43f 3403 f6d0 b9bf
000007c0: f7d9 d663 196d c63f 51f9 287f f9ed 943f
000007d0: f917 4011 3c55 d9bf 86eb f575 2c86 cdbf
000007e0: 63e9 9c02 1695 a33f a369 594b 9f84 a63f
000007f0: 1e5f 0088 9e90 a13f f524 6427 8a4a a1bf
-0.3671562931896543 -0.09494929469948409 -0.26093846144916033 -0.04560826755642293 -0.07865688465474459 -0.15191114500554306 -0.130673941405154 -0.0151861114889093
0.09495280222292952 -0.1675195707286471 0.0813832212348605 -0.25101698321268817 -0.11804860278982447 0.07322961994308905 -0.09077837633487348 0.12557269759429537
-0.19380246304174487 0.17402432177933946 0.1100651341623023 -0.24645479305304502 0.0754632539447092 0.34262617944456275 -0.15868391368631624 -0.1312478990161063
-0.11599887325026488 0.057890615456301704 -0.18047561767151415 -0.06864423993826947 0.025594444415721736 0.25541578210760685 0.2025630230774432 0.12397751372027131
-0.023310545317530934 -0.015922587779570757 0.33832324325973384 -0.25155156198186734 -0.08557534740439254 -0.006299356625056878 -0.20166907160256484 0.2925933327757121
-0.08657793380371327 0.11653314408621933 0.28475976469334696 -0.10510995056238552 -0.21395321775769421 -0.03938245826229212 0.032029396237144535 -0.0009350524237327069
-0.45000813535502304 0.02108171004020931 -0.34488087229388253 -0.00038108616199773634 -0.1425224889059749 -0.0003703499603470789 -0.2455579834207812 -0.16063275475545752
0.21303548045105106 0.29922636556866855 0.11444903057896078 -0.18161135494585454 0.12315018546502524 0.1482260670796947 -0.14590155737947041 0.36021086855265366
0.10699331240383811 0.20317595969583305 0.27580619483162827 -0.24296205314317829 0.2347747355306417 -0.05517762594433996 -0.3790561762957126 0.09695885242106252
-0.18968529337022436 -0.2799813061098269 -0.4231313897765046 -0.09069369694522912 -0.05482089532707508 0.04790874508849435 -0.0969815227539994 -0.08873743074520833
-0.0848615029692913 0.2925290260442284 -0.03345795267788134 0.1841509086160841 0.08794679124839423 -0.1973036783584577 0.016789760955545307 0.2136216091071024
-0.07158185297028967 0.10757597470234531 0.19074495486710388 -0.026716787391818902 0.02683833226332431 -0.10716903375905686 0.1953422661468213 0.1907632897271547
0.20547968208975842 0.4006943431088803 -0.15310024813103176 -0.06663537563477563 -0.1989293654174826 -0.06960195332373513 -0.08506873439346296 -0.14705676044590268
0.21024677644917433 0.22496790039482334 -0.1645168163170612 -0.10262266669879823 0.0858882022950956 0.039463413499410974 -0.04097160336884886 -0.1834683874865129
-0.05499500015709535 -0.004569732396941787 -0.3357966096826286 -0.13501324507945883 0.2249681680934832 0.0947159633023643 -0.08389087888072326 -0.2640792587997308
0.2394400847654529 0.17617476475305696 0.08920783991459266 -0.04925242785422674 0.035057412233389415 -0.1634099478339854 -0.18712158850330587 -0.15751538899356332
-0.052094527758294554 0.022577188618065448 0.08888250353379142 0.08543505917781728 0.06192321275583234 0.018489724653837372 0.07103194515288415 -0.04268258713752749
-0.0005106306283238772 0.14688117632022266 -0.009174202394002285 0.06114142204459415 0.0865919263076737 0.04591317128744009 0.19386146702809237 -0.14837256633590626
-0.20632434299227317 -0.3419186844464657 0.013409207206040408 0.17737298942626417 -0.30733025927212737 0.20335236669954557 -0.19161942091007692 -0.20518932688105568
0.11922346968089977 0.0689429496505253 0.04881076520363414 0.10181782075789085 0.25715767324986133 -0.21770205902220208 0.07595338081773717 0.08790039341310207
0.0025274355496110314 -0.05917366178787752 0.07517152503504725 0.008498283982646232 0.05245327620739338 0.12119326179497505 0.06876195242234914 0.2792730316874034
-0.18074144041482265 -0.052005402905565226 -0.04933764156622294 -0.008544834550169083 0.20602106144060026 0.05606220277865019 0.08665581406875346 -0.18515212059516772
-0.23997446315239473 -0.11786757939953457 -0.0967759331213295 -0.018034390003823033 -0.10624085169354883 -0.012373176383684003 0.02033336912012033 -0.14216631426495493
0.1430790847540076 0.015821954562900285 0.34650807334765943 -0.2214389856309745 0.14860691624447894 -0.06842449008885121 -0.040407557972324704 -0.06448962087038185
0.09762625055671101 0.10869374903953759 -0.021062700926096835 -0.0879870399993952 -0.0945400022642846 -0.1765651427504467 -0.1635964796964956 0.022817730159175115
-0.007542408314691397 0.014889265300885796 -0.04882590270984299 0.16241227289688218 -0.05006926150428134 -0.02253617969113339 0.09530398308018324 -0.07451740301428222
-0.30544673103073033 0.026394472491380456 0.11995100624870718 0.13145057759196804 0.055604835943435675 0.09794884269851373 0.046274015803646755 0.030140554831125686
-0.036296694034451904 -0.1805951350198131 0.06771862033311735 0.11759223492182001 -0.05671560790296247 -0.028023552736248805 -0.17296749620384608 0.04830098310872368
-0.032164034491159954 0.1512209554565686 0.000280448625714643 0.2348146732171243 -0.0988453739630192 0.0008529954102984458 -0.002358464098252006 0.10534221304193948
0.13572706028210255 -0.007132959782724649 -0.09684012535627835 -0.39027000104638443 0.22033544612951653 0.2251698289841979 -0.1841039121408669 -0.05302656389360824
-0.011931766176262472 -0.0866154615838565 -0.07976800668820548 -0.18511048579864828 -0.0077713574113192005 0.11796168325399976 0.027242426681211372 -0.10084474161362694
0.17520444273914368 0.020439051042779714 -0.3958273094616512 -0.23065715560718675 0.03824681074043459 0.04398057741919394 0.034306482412089986 -0.03377181750153994

layers.0.bias f8 [50]
00000000: 18d7 9967 404d c03f 9403 6e04 730b c03f
00000010: e37e 6b34 b7e6 b53f 40c6 3aa6 a83a a1bf
00000020: 0653 0ca8 adcc 7abf aaec e686 67da b53f
00000030: 5605 1e48 efb7 8dbf db99 f682 2143 c13f
00000040: 2335 570f 9ffc abbf 601b 8682 951c 83bf
00000050: ebdf 8867 3745 b53f 1f30 83e9 a231 bd3f
00000060: 2ec7 2c39 d600 b0bf 3109 864a 2b8b b23f
00000070: df32 2e75 3da1 af3f 2e25 2256 0ffd 64bf
00000080: 148d 421e 4dd6 c43f 3544 a62a bca8 bb3f
00000090: a9d2 e742 d281 a43f 6076 7a22 36d4 b33f
000000a0: 84d9 47a1 2808 b63f d27d fbc4 fb48 a73f
000000b0: b1fd 1789 63ae a3bf 9ed9 856e 178d bcbf
000000c0: 7964 915a 3f9f b53f d949 8df6 c6af 9d3f
000000d0: bb30 00b5 66ce b83f 5c03 a9a1 d5d1 a03f
000000e0: 0b38 744d 9232 c23f 1249 8faa f5ac 80bf
000000f0: 165b 9eb5 390e a33f 6984 d8d0 fa25 b23f
00000100: b4ee 1924 3988 b03f b44c b229 fa0b bebf
00000110: 9dfd 7903 8851 c13f f2cc 290c 1d7d 943f
00000120: 549d 4089 e7fc ba3f 8122 fb68 aba3 a4bf
00000130: a174 a0d4 96dc ba3f e091 b517 9e63 b53f
00000140: 5df3 b981 dcac b93f 0303 9ac1 c500 c13f
00000150: 5b98 1367 fd38 87bf a7da 8590 4845 bbbf
00000160: c38a 8559 2244 a53f ac1f ba5a b3a3 a73f
00000170: 1d40 f72b 95f4 653f 266d a5fa 758c b13f
00000180: a9f1 1423 331b b5bf 1f19 da49 1af2 b03f
0.12735753115310255 0.12534940449043275 0.08555169133932909 -0.033650656024644565 -0.006542852731190823 0.0853638367033677 -0.01451098383745612 0.13486117262546213
-0.05466172277702188 -0.009331863446971844 0.08308740880681824 0.11403864098537085 -0.06251276870605402 0.07243605203078542 0.061777039102798297 -0.00256207461740545
0.16278995492493975 0.10804344216582325 0.04005295817106475 0.07745683995968866 0.08606199204937154 0.045478694720937476 -0.03843985603816281 -0.11152788589774906
0.08446117364054996 0.02899084930261062 0.09689943236316172 0.03285091017142491 0.14216831952984452 -0.008142394321030842 0.03721790639899873 0.0708920249822015
0.06457860118274078 -0.1173702575491003 0.13530063791038752 0.020008519999874026 0.1054215154732579 -0.04031119972711839 0.10492842379649626 0.08355129317130361
0.10029390494487474 0.13283607438281572 -0.011339168270250768 -0.10652593162908862 0.04153544752877771 0.04617081148631938 0.0026801026831222556 0.06854951257030403
-0.08244628530969202 0.06619419386888524

layers.1.weight f8 [50, 50]
00000000: 973a 6897 0b5d d2bf 78d0 31b4 2b5a aebf
00000010: 3ba2 6af4 6c90 a2bf b9b9 c680 1291 ac3f
00000020: de4b 49be 43dc 86bf 34bf 55c0 036c 87bf
00000030: 5df5 11c4 8374 83bf 08a2 cc6e 8df4 d3bf
00000040: 6859 3671 2357 d33f fe3a 6aaa bab6 85bf
00000050: 4b34 323e d82c ae3f db1f 11aa 75aa aebf
00000060: 4a45 cb33 cceb c13f c3d3 76e8 dd7f 963f
00000070: 06b0 1ad2 09f3 c2bf 69e1 f956 a0c4 cb3f
00000080: 4e6e 3caa c3f4 81bf 102f 7424 fe62 c43f
00000090: 0cb1 037b f97a a63f 2bfd 2415 d716 7cbf
000000a0: bdd3 989c 0f56 d0bf 46a6 5291 1f8d c1bf
000000b0: 4d8c 1de6 d390 6bbf 3512 da24 7635 d43f
000000c0: cb44 f173 a7e6 cf3f cceb 6002 8ce2 8b3f
000000d0: a18c c249 85d5 b03f 177b b932 56f4 d8bf
000000e0: dcc3 0439 e14d babf a19c 7629 9d5f b73f
000000f0: 43c2 5f6b 62da ae3f db00 0cb3 2230 9bbf
00000100: 1acc 8daa b453 dfbf c274 9bef bb6e e13f
00000110: 691d 093b b359 c7bf 335b 5326 bbe7 d0bf
00000120: 7f18 b88b fa96 9b3f ce6a 57a6 7249 c2bf
00000130: 943e 5336 a462 b4bf 24a0 5e92 a642 ce3f
00000140: 1057 2712 daf5 96bf 0bae 7d39 de6d c8bf
00000150: 3a25 f907 ebd3 a93f 6537 9642 a8e9 c43f
00000160: 6f31 638d eea3 c5bf 36dc b2b4 9d70 b73f
00000170: ee5f 948a d2f8 ae3f fb3a 0478 6897 cabf
00000180: e241 2d47 180d c9bf ed6f 9abe 7511 c5bf
00000190: 3b07 020d 19ff acbf e78c 1e44 af16 dd3f
000001a0: 8120 473b 8ab6 c8bf 0f36 fe86 6f35 babf
000001b0: a549 7d8e 1fc4 d13f 9c59 f259 9c93 b3bf
000001c0: fdc2 4ff6 a70b c63f 45c1 1d7e bf37 cabf
000001d0: 57f4 e3b7 5a13 6d3f 2902 e887 d8b3 c2bf
000001e0: a882 1c14 e3a0 d4bf 731a 7a7c d7c1 be3f
000001f0: 93e6 fa33 43d1 d43f cf15 2d6b fe48 d83f
00000200: cd4a 7838 5c94 cfbf e9c1 2016 e35a c13f
00000210: 1ce9 4457 f3b5 713f 8892 54fe 3c9f ca3f
00000220: 06d1 2a52 18b2 d73f 42a2 5b63 2c49 cb3f
00000230: 183e 36a3 fceb cabf db90 83a4 880b c73f
00000240: f6df 4b95 fe6e c93f 319e fc39 a498 c23f
00000250: a36f 4b24 e052 53bf 2150 1632 c4f5 b43f
00000260: 7973 f419 6e9f ab3f 69c6 2357 c696 87bf
00000270: 6695 30a8 d48b b73f dc35 5376 c4a7 c9bf
00000280: f347 ae6f 31e9 d13f 2791 c474 3146 c33f
00000290: a6a1 8fa9 4f17 c13f 38e4 22a5 899d 963f
000002a0: 2ce4 4ec0 9786 cdbf 5e19 42bb ace4 823f
000002b0: a15c ec82 8c9c 6d3f 2430 fb4a 1527 953f
000002c0: bd4b eed2 58b3 8e3f ca51 2032 2d74 96bf
000002d0: a2c1 e755 f102 89bf 2ce8 8b6b a092 6d3f
000002e0: 9282 e60f 6e7d c1bf df97 6913 0d1c c2bf
000002f0: 6e84 4c2a 18cc a13f 6c11 f248 3979 d0bf
00000300: 189e 16d9 9db6 c0bf 40ef d886 cb54 a3bf
00000310: 69e6 215b b57f aebf d221 9680 78ab 9c3f
00000320: e1c1 2e0b 9a48 d43f 665d 702c 5353 c4bf
00000330: 3646 01b6 0d3d c53f e70f d0d6 f332 c33f
00000340: a188 a90f 3efa b03f d0de 8b01 aa95 c1bf
00000350: 9fc3 62c6 3c41 c1bf 4c81 6b37 0d05 cd3f
00000360: 165d 426e d8ed d2bf 2b4f 58c1 12a3 d83f
00000370: 17ef 9066 7195 cf3f c41c 63ac 09ad c73f
00000380: 8002 9c55 ea49 c5bf 5c91 dc44 77fb babf
00000390: 851f 90c2 d4c1 d13f 5274 c483 52ee d5bf
000003a0: 732b 6173 8fe1 aa3f c627 8b66 db77 bcbf
000003b0: abc8 f047 65a4 cabf 26fb 84de 4b35 bfbf
000003c0: 41bc 2d0b f5ed c5bf d116 6386 8f55 c63f
000003d0: 0ec4 0158 401a af3f 6ba1 037d 2af5 dabf
000003e0: 085a 7f03 354c cbbf 826f 81cc 091c ccbf
000003f0: 970a dc67 ce8d 753f 0f96 f66e bf4f 933f
00000400: 4d15 13be c029 ab3f deac 74a6 1070 b63f
00000410: 5a6d cc4b 48ad a83f 4997 c141 258e b93f
00000420: bc73 1e06 8b72 b13f 5cb5 a549 1d0c c6bf
00000430: cbaf 733b 3243 a93f 4be2 6eda 287d bb3f
00000440: f58a 4dc1 647f c83f ad6e a4ce b640 d43f
00000450: 2128 e13f b2da d43f 222c 54d2 28ab c73f
00000460: 8c5e ffdc ec4e d43f 7d7d fcd5 d7e6 b13f
00000470: eef3 b9f7 a308 b03f dfa4 ba91 8429 d2bf
00000480: b22c 9ea2 7cc7 c6bf f490 248f 0d30 d73f
00000490: 3c9a 2ec6 3235 a63f 3c52 e024 b308 b3bf
000004a0: cea0 1c0e f19c b63f f111 fe77 f70e d13f
000004b0: e6ee 428e ed72 d03f 2023 0d91 a5a4 cc3f
000004c0: 0f4b 5327 8857 ca3f 4679 0966 4996 c4bf
000004d0: 0402 5ae3 7adb c5bf ac7b 51ce 5b61 993f
000004e0: 6a49 c6f7 3f26 d23f 5113 69cf fa15 d43f
000004f0: 3d67 e263 9a4f d3bf 3b09 5cc6 091a ae3f
00000500: dd9c 9bea 580e c83f 9836 42fe b96f c73f
00000510: 80a7 0359 0859 d3bf a44e 8bca 2ea7 903f
00000520: 08d0 a453 5a57 c63f e18e 7009 9903 d0bf
00000530: e8a7 a818 adc6 c8bf 5187 e921 ee15 b53f
00000540: 9370 9d82 d34d c03f 056d 972f da3c c33f
00000550: 94d7 3304 e755 acbf f636 f9ff 0c3f a63f
00000560: 6c3b 86c2 074d c43f ba7d 61f6 7644 c43f
00000570: 0bf9 b4fc 6353 9e3f 49e3 6e08 8a91 913f
00000580: 77b3 0b05 f880 8e3f 3453 b8fd f3db c1bf
00000590: 09ee f900 28b6 c23f 969e b6c4 88b8 b03f
000005a0: 33bd a44b d787 a0bf b0ec 19cf 6e71 b4bf
000005b0: 4f38 9bc8 5aee bd3f 7634 cc99 bdb2 d0bf
000005c0: 7460 4dca bf0e cb3f 0685 aed2 7aef a53f
000005d0: 0a53 f770 e42e d33f e082 6b9f ee52 cd3f
000005e0: 4b8e c4a7 5b27 b93f fbd1 70aa 4caf 903f
000005f0: 2739 d046 069d ca3f 0254 2ea9 cf30 c13f
00000600: d868 153b 1384 b4bf 7e26 bc26 5a2a c0bf
00000610: 84d9 a366 ceaa cabf 04e6 2609 9d21 c13f
00000620: eb84 008d 46c8 cbbf ddbf 4783 3b64 d03f
00000630: f073 9f49 319a af3f 5d6e 3afb 0a81 d03f
00000640: 0801 5ed3 cb2d d2bf 882e f2a4 ccc2 b5bf
00000650: 7af0 28cb 0943 c7bf 068f e3aa 1d5a a5bf
00000660: c190 f059 f10a aa3f 87fc 7d96 b23f a7bf
00000670: fd4c 1f4d 45aa 993f 968a 1fdb 0ef9 c5bf
00000680: 12fe 9be0 7d5f ce3f ac20 0498 5536 b1bf
00000690: e13a 81b5 9473 b83f abae 0045 550e c3bf
000006a0: 5252 9288 44c5 ce3f fd19 45ca d90a b7bf
000006b0: 182e 0011 ab9b c4bf fcfa fe16 43c2 c33f
000006c0: 6fe6 7d58 81ed a13f e050 d255 642b b93f
000006d0: e1a4 5151 9561 c0bf 5bb8 3613 2a3f a5bf
000006e0: 7449 11b7 151c d2bf a137 f56e 57dc c4bf
000006f0: 4ef2 06f3 4377 bb3f 2e4a 9014 d5c2 cb3f
00000700: 6335 0994 ed23 b43f 8e88 9577 fee3 afbf
00000710: db4d 8870 ad37 cfbf f791 1fd0 680a 9b3f
00000720: 6184 9be0 8d04 69bf 2f77 ea25 dede c13f
00000730: 97a8 3100 9c76 a23f ec92 ac5f d33c a3bf
00000740: 4fc5 ac4e 5b2a ccbf 46ab ad5d 29a1 e03f
00000750: 7423 3f1e 1a18 a2bf e3c4 1f88 50ba d3bf
00000760: 796d 1d52 6031 d0bf 266d b45a 4432 67bf
00000770: 3ac1 8c79 4ba8 d5bf 75e9 aa83 01b0 be3f
00000780: f1ae 54bb ce53 d0bf 0248 9687 36c6 d1bf
00000790: 650e 179e 3296 cd3f 87ce afed ac14 b83f
000007a0: d889 f1a1 8a1f bdbf 12f8 dca6 ffc1 a7bf
000007b0: 80bf 6357 176f d5bf b516 040f f4f9 6bbf
000007c0: a18f 988f 9ad0 b23f 67c6 38d8 5f39 b6bf
000007d0: 6da8 6dfd 250b c43f 2377 7928 db01 ca3f
000007e0: 4fff 8dda 03b0 a83f 4c65 2866 d602 d2bf
000007f0: f2ee 2dc8 686e d83f 4a80 7eb4 d6df a0bf
-0.2869290331445113 -0.059281697985086035 -0.036258129917147795 0.05579431364036531 -0.011162308926179362 -0.011436490351769281 -0.009499577923856856 -0.3118012983345868
0.3021935086811909 -0.010602434468891083 0.058935887901590954 -0.05989425374042386 0.1400084736729162 0.021972148240553723 -0.14804194220539574 0.21693805930022883
-0.008767632134144023 0.1592710187909394 0.04390697123185036 -0.006857719580067904 -0.2552527455584899 -0.1371192416748263 -0.003364957680717795 0.3157630309945348
0.24922650491001827 0.013615697691525507 0.0657580666616462 -0.38991312936370676 -0.10275085107856746 0.09130270254410046 0.060259891135392006 -0.026550810030131138
-0.48948399215368144 0.5447673492268665 -0.18242493040655042 -0.2641437410615481 0.026943125512865592 -0.14286645052091845 -0.0796301491384333 0.23640901705698625
-0.02242222533990118 -0.19085290724920898 0.05044493172006033 0.1633806538706565 -0.1690653028839608 0.091562134376418 0.06049211446423884 -0.2077456079500378
-0.19571212268284827 -0.16459533507156668 -0.056633742177849965 0.45450956012991955 -0.19307067770410316 -0.10237786336639253 0.27759541430455165 -0.07647111125911582
0.1722307160084923 -0.20482629449862536 0.0035492679445483888 -0.14611345897721265 -0.3223197647476277 0.12014529026974134 0.32527237011127247 0.37945518938462625
-0.24671509511298098 0.13558615284411182 0.0043239121917457955 0.2079845659110513 0.37024505638261507 0.21317057467901362 -0.21032674760179826 0.1800394824305219
0.19869978227484325 0.14528324920068905 -0.0011794270405322902 0.08187509749251422 0.053950730007477916 -0.011518048795980467 0.09197739702411453 -0.20043235566701767
0.27985797792746253 0.1505796260982006 0.13352390078877113 0.022085333541984137 -0.23066994562194176 0.009225224938074813 0.003614687382092877 0.020656902982224903
0.014990514695261465 -0.02192755335279787 -0.012212644037362722 0.003609956093325392 -0.13664031769169022 -0.14148105094790162 0.03476024166435186 -0.2573989117011226
-0.1305730161668499 -0.03775630971037325 -0.05956808793503116 0.027997858856481823 0.31693125812583217 -0.1587928740488948 0.16592570673906132 0.1499924467935891
0.06631839640025074 -0.13737988543993263 -0.13480338751608387 0.22671666341831054 -0.2957669331312486 0.3849532020696979 0.24674813755142885 0.18496819417325672
-0.16631821804186941 -0.1053995650405048 0.2774555110959159 -0.34267104022894046 0.052502138933582375 -0.11120387319093003 -0.20814195645067932 -0.1219069879780191
-0.17132437749703125 0.17448610364788533 0.060747156851796644 -0.4212137432901019 -0.21326315565848142 -0.2196056603014505 0.0052621901247699365 0.018858901164682303
0.05305292434926887 0.08764747680531879 0.04819703984523001 0.09982521872879348 0.06815403842342865 -0.17224470230159283 0.04934079147082534 0.1073785336765322
0.19138774336450806 0.3164498346320482 0.3258481620620178 0.18491087217293606 0.31731721479216257 0.0699286363055673 0.0626318435478905 -0.28378404837947174
-0.17796285572362575 0.36230792025368364 0.04337462109770171 -0.07435149812983693 0.08833223909880702 0.26653849332822604 0.2570146455070542 0.22377461989005898
0.20579626007255356 -0.16083638651157112 -0.17076049901153578 0.024785456149739524 0.2835845870660224 0.3138415360920606 -0.30173358682951684 0.058792405570800864
0.18793784575902964 0.18309712328885008 -0.3023091191558862 0.016262751686396584 0.17454079708261383 -0.25021959230273977 -0.19356311515849645 0.08236587837157329
0.1273750674980688 0.1502945644741446 -0.055342883360864153 0.04344978928257419 0.1586007785631084 0.15833937673867898 0.029614984797484072 0.017156750454634637
0.014894426015837443 -0.13952493561432677 0.14618396804495173 0.06531576922008706 -0.03228638456709589 -0.07985584789450928 0.11691825292220524 -0.2609094621591973
0.21138760927238176 0.04284271070287997 0.29973708183142433 0.22909338745286956 0.09825680585759604 0.016293714430689814 0.2079170079964083 0.134302098853965
-0.08014030640098058 -0.126292485154682 -0.20833759319038958 0.13383830019829202 -0.2170494259344545 0.2561177045854473 0.061723270642438766 0.25787615331657837
-0.2840451778538555 -0.08500365283014777 -0.18173334522169055 -0.04170315466924816 0.050864736775368076 -0.04540784918844403 0.02506359370438548 -0.17166314792037402
0.23728917567494584 -0.0672353263981928 0.09551362448949476 -0.14887491101523173 0.2403951327184069 -0.09000931919317874 -0.16100061731445758 0.15436590788700488
0.035015146305295335 0.09831835837605096 -0.12797800512934202 -0.041497530789783986 -0.28296416166008176 -0.1629742900644802 0.10728859599380167 0.21688331131061162
0.07867321838530965 -0.06228633126990345 -0.24388664240596722 0.026406896307792107 -0.0030539294283334216 0.13961388446198827 0.036061167739562076 -0.03757343809983191
-0.22004262296244767 0.5196730451255938 -0.035340133850303795 -0.30824673932427354 -0.25301368731535195 -0.002831586365244515 -0.3383969008455271 0.1198731371359026
-0.25511520666144266 -0.27772296181603917 0.23114617079964997 0.09406548312090922 -0.11376253560732807 -0.046401967162168614 -0.3349054673590146 -0.0034150854845645625
0.07349554067383092 -0.08681296376087176 0.15659022211486065 0.20318164325993235 0.04821788828758022 -0.281423187030289 0.38173884915134615 -0.0329577536897437

layers.1.bias f8 [50]
00000000: 7d4f 5888 f448 aabf 44e8 5827 865c 7d3f
00000010: d99e ca46 0fb4 ab3f 5c89 bb9e 3509 b03f
00000020: f8a8 12db d631 bcbf 6330 0ee1 b48f bd3f
00000030: 5711 3fb5 75ec ba3f 162f 7589 878d a43f
00000040: 0c36 20ba 0ccb 9abf 1859 df65 41b0 be3f
00000050: 8cac a731 316f b73f 2862 daa3 ba2d 713f
00000060: 5779 2945 0a07 8b3f c5d9 82bf 582e 98bf
00000070: 11c9 b6f6 7f04 a8bf a162 2473 c326 c5bf
00000080: 8e04 97b1 d376 aabf a445 eb94 1f43 babf
00000090: 479d 134c 2174 973f c24f 2c2f b26f b63f
000000a0: 3dd4 ed78 72cb ba3f e74e 17ae f2ac 87bf
000000b0: 427c aa96 6fd9 b13f 4aa2 f363 4a1f bbbf
000000c0: 244f f224 2e34 a8bf 3d75 9b5f 1ddf b3bf
000000d0: 48cc ae9b d2be c93f 2ae6 629a 444b bb3f
000000e0: 1839 943d 622b bbbf b73b a560 1439 d03f
000000f0: de5f 165b 821e ac3f bc1a a0d1 b8f8 ae3f
00000100: c681 4e14 c1fe 93bf 2ea0 e1c7 5c2c b43f
00000110: 5120 38be 47e5 abbf 2b62 6457 5e63 8d3f
00000120: d9c4 d9d2 d9c4 83bf 4f94 c153 e1b0 c0bf
00000130: 4801 c7be ce17 b23f 6442 6c4b b203 aa3f
00000140: 9941 5880 a5e2 a43f 3692 04cf 8418 ba3f
00000150: 9704 c2d3 4223 b9bf 8a0b 05ea 0798 bc3f
00000160: 5c33 02ca 7a96 ab3f 6a07 8809 eef3 783f
00000170: b332 d1ec cce5 bd3f 3170 7fe3 b916 903f
00000180: aa9b bd3d 768d c0bf 14ef 5d2e fe14 95bf
-0.05133785404555533 0.007168315923587857 0.05410812129167448 0.0626405251055408 -0.1101354870649266 0.11547403807179672 0.10517059016189499 0.04014228394461676
-0.026165198192805092 0.11987694489593925 0.09154040777473166 0.004194001257609638 0.013197021709115004 -0.02361429852381904 -0.04690933119435859 -0.16524546739744486
-0.05168782751889821 -0.10258672128408947 0.022903938549373917 0.0876418461960489 0.1046668572651734 -0.011560340822064542 0.06972405842178467 -0.10594620647646838
-0.04727310372359586 -0.07762321075593533 0.20113594629001086 0.10661724824139954 -0.1061307335223528 0.2534838622859143 0.05492026674181692 0.060491347874678664
-0.01952649771158279 0.0788019168845728 -0.05448364445698018 0.014349686662670077 -0.00965280699458264 -0.13039795484215452 0.07067577512407752 0.050809451777358544
0.040791675488551955 0.10193662695071101 -0.09819429082746677 0.11169480765697251 0.053882443579914535 0.006092004616677341 0.1167877271811431 0.015711693296779742
-0.12931707396202557 -0.020587894039166235
