main/discrete_time_identification (KdV)/models_iters/KdV_noisy_16000.pt (torch, 127868 bytes, 14 tensors)

linear_in.weight f8 [50, 1]
0	0x3fc99d207b1f0d2a	0.20010763179571117
1	0x3fc06e86430eb8ac	0.12837293886463408
2	0xbfb37e8bbdcad53f	-0.07614968665696596
3	0xbfd51a6cb3c1bc8c	-0.32973783068059315
4	0xbfc08e5f45072c92	-0.12934485311993577
5	0xbfcef3ee1a705993	-0.24181915560684483
6	0x3fd1093c941b3d2a	0.26618875945583176
7	0x3fe30082d8c70e03	0.5938123926102324
8	0xbfd27a16c6eb8dcf	-0.28870171953005025
9	0xbfb6cdb356ec5abd	-0.08907624122762577
10	0xbfc49b0843a83c03	-0.16098120978901428
11	0x3fdbd414f03f3656	0.43481944524396476
12	0x3fcf7acf2e8a1bb1	0.24593534252582352
13	0xbf98fc1747e06d8a	-0.024399150621417877
14	0x3fe4f4c36bb338d8	0.6548783401028926
15	0x3fc3c5d7d594ab76	0.15447519234416135
16	0x3fce45e7c23b29eb	0.2365083406824192
17	0xbfd27d8c43930d85	-0.2889128360659117
18	0x3fb22d6825228924	0.071005353037013
19	0x3fc628940e071339	0.17311335263198105
20	0xbfd82ce41382dbce	-0.37773992448222493
21	0xbfd7d9bdeec7592d	-0.372664912397698
22	0xbfc0a0df0a9b7337	-0.1299094011109447
23	0x3fb78be0b64e627f	0.09197811556658485
24	0xbfb37b799ef1ee45	-0.07610283022398175
25	0xbf90bd8aef0df47d	-0.01634804805825184
26	0x3fdabf2904d04c05	0.41791749448856336
27	0x3fcf52734af21e2d	0.24470368537389345
28	0x3fc0a2c78843d665	0.12996763375820133
29	0xbfce62aac0568207	-0.23738607779979778
30	0xbfc10c9abdcddddb	-0.13319715755254333
31	0x3fdc4eb1d2339868	0.4423031380414444
32	0x3fd2c3fbf2348bde	0.2932119241033301
33	0x3fc4262c57184551	0.1574149537341705
34	0xbfba7fa1d9e5b714	-0.10351001329192072
35	0x3fb02138ebcc4af0	0.06300693280017433
36	0xbfbac331f4cd9205	-0.10454094149242373
37	0x3fc0de084ecce35c	0.13177589271233614
38	0xbfd16e70558dc203	-0.2723656497464903
39	0xbfab20572ef286be	-0.05298111389244074
40	0x3fd3bec22508ce18	0.30851796738281356
41	0xbfb3276e277303e9	-0.07482040846936368
42	0xbfd4c2fd9f3baceb	-0.3244012885104001
43	0x3fc3895a7477dae2	0.1526291912739089
44	0x3fdae09c78274548	0.4199591801999145
45	0x3fdaca94a9f1c7f3	0.4186145457853165
46	0x3fa4bf301c7e1e8d	0.040521148183924806
47	0xbfbb31ff0056473b	-0.10623162992694983
48	0x3fb287360e5574c9	0.07237565851160634
49	0xbfd6cccadaf29c4d	-0.3562495363389118

linear_in.bias f8 [50]
0	0xbfbcbdaa1b0d6775	-0.11226905022104268
1	0xbfa8fd0294e78a71	-0.048805313755811215
2	0xbfc9ae1888013f56	-0.2006254829489033
3	0xbfafc3257ef71161	-0.06203572440020611
4	0xbfc457c3c6e65d9d	-0.15892836772830501
5	0xbfc1f6d9acd23c23	-0.140345773110739
6	0x3fbc736a4ea0ab74	0.11113609714145217
7	0x3fb1d1969279a37f	0.0696043117146825
8	0x3fb71ac024e31151	0.09025193119584186
9	0xbfbfff735c9d9653	-0.12499161730883061
10	0x3fbfbb5a20de9898	0.12395251562574783
11	0x3fa74cbc13be83b4	0.04550731411951095
12	0xbf7f9bd65154f59a	-0.007716977289701355
13	0x3fbf34c59fad90e0	0.12189898632420038
14	0x3fb2de406d324870	0.07370379129341287
15	0x3fba9cb73f117d6a	0.10395379342798142
16	0x3f66ff2121f4d762	0.002807202064697132
17	0xbf981ea4d5aaf060	-0.023554397145503336
18	0x3fbecd190ce03dd2	0.12031704487184605
19	0xbfb6198f66cf734e	-0.08632751712816608
20	0xbf5cf647686d5fcb	-0.0017677018492658788
21	0x3fc01c1a27d9679b	0.1258576101852754
22	0xbfc3bdeb3ef7faf9	-0.1542333657707429
23	0xbfb1343658d9742e	-0.06720294636893762
24	0xbfb9926b6e705be5	-0.09989043661367665
25	0xbfb53e5ce3e1347e	-0.08298283160657324
26	0x3fac9aca29d5938a	0.05586845169708628
27	0x3fa7a7d1eeb7fce9	0.0462022403626124
28	0xbfb28e9b177ba41b	-0.07248849223437086
29	0x3fa543e394cb5205	0.041533576882702795
30	0xbf42276beb4a2b86	-0.0005540158222897419
31	0x3fb46e0ba3da7c31	0.0798041605980735
32	0x3f9475b49109c0d8	0.019980260231421493
33	0xbf6f071635350fcf	-0.003787558912934564
34	0x3fbb97e3df3a5bea	0.10778640937711229
35	0xbfbbc9d3f26230a7	-0.1085483996159292
36	0x3fb8d2b988352658	0.09696540427571543
37	0x3fbf129bf4c8558e	0.12137770391594513
38	0xbfb3f429859759f8	-0.07794436942581473
39	0x3fbedaf1f5062632	0.12052833778411623
40	0x3fc3b5efa9c63025	0.15398975171808718
41	0xbfa372a95d200bd6	-0.03798417341024389
42	0x3fc099a83b181b71	0.1296892441316362
43	0xbf9a254b0e1a9dd9	-0.02553288720687683
44	0x3f60b1b8bf3331d7	0.0020378692948723564
45	0xbfb4434d7bccaeec	-0.07915195724916274
46	0x3fb83cb062288486	0.09467604061548415
47	0x3fbf6132d0781c0c	0.12257688130931416
48	0xbfb53562f7b412b6	-0.08284586474844499
49	0xbf998e4b71a5ba67	-0.024956873713956187

linear_out.weight f8 [50, 50]
0	0xbfa1e3ac81f571ac	-0.03494013868723597
1	0x3fa6107cbb656912	0.04309453761625738
2	0xbfbcfcf3840808c5	-0.1132347295133825
3	0xbfa267a43bdaed4b	-0.03594697218565076
4	0xbfcdb6eeab09d3df	-0.23214515067561955
5	0x3fbe55deca291895	0.11849777637061927
6	0x3fb97402be56b283	0.09942643305721259
7	0x3fa7ed8739878a1e	0.04673407151473817
8	0xbfb5003586591a4e	-0.08203444032651783
9	0xbf9e7032528c2824	-0.029724870956705854
10	0xbf952bc97dff5ebc	-0.02067484694984388
11	0x3fcb4a354d11e643	0.21320215476207424
12	0x3f8def427ae4a764	0.014616507888223836
13	0x3f97b641383aee11	0.02315618425084948
14	0x3fc53d5eb7b532e2	0.16593536348445698
15	0x3fad4048a8edd5d3	0.05713107168314093
16	0x3fcca7ce84b6179c	0.2238710544590362
17	0xbfca77c455e8b01f	-0.20677999682209333
18	0x3fcfdcef7e5d44bc	0.24892991705067924
19	0xbfb427bdbe667c5d	-0.07873140238233263
20	0x3fa68737e37ad584	0.044000383871586585
21	0xbfcc20276a9061e1	-0.21973126128501888
22	0xbfb4955669e4b7dd	-0.08040371022499877
23	0x3fa2f160d28665eb	0.03699781961331524
24	0x3fd1cbea36d10caa	0.27807097771819633
25	0x3f9461c7d1028abc	0.0199042531318223
26	0xbfb7e5e97bec268f	-0.09335192943049207
27	0x3f8701a730aecc95	0.011233621762448723
28	0xbf9945fc25c42729	-0.02468103390223245
29	0xbfb67533d8d19f08	-0.08772586863926446
30	0x3f9cefd32e5a549f	0.02825860948958747
31	0x3fbe84f6c8853677	0.11921636958614977
32	0xbfcc11592ce2acb2	-0.21927942935631034
33	0xbfb55e81d2f00a74	-0.08347331428380206
34	0xbfc270d40b996a80	-0.14406824652072103
35	0xbfb1044ae3e64277	-0.0664717489619394
36	0x3fb29b9bc5c675e6	0.0726868970727633
37	0xbfa45ef3cd368685	-0.039786928940213996
38	0x3fb19d8bfacf99ec	0.06881022332490944
39	0xbf7f2893f9a4ad6e	-0.007607057598117846
40	0x3f8689432d38f4b0	0.011003994767742803
41	0x3fb6b6a17a3720e5	0.08872422441266144
42	0xbfc348ac87d32d72	-0.1506553328712062
43	0x3fca12becb4dd770	0.20369706084209893
44	0xbfc86e734858ad19	-0.19087067635096203
45	0xbfc64fa388bbb180	-0.17430538345741908
46	0xbfb4c9954ba31fec	-0.08120091530429335
47	0xbf963d231f0d1231	-0.021717594881254413
48	0xbfc200363ee85662	-0.14063146659525488
49	0x3fb2c51ca9759e80	0.07332018983071897
50	0xbfd878208ea49ddc	-0.3823319809912087
51	0x3fbfe75b7374796f	0.12462398117756888
52	0xbfced300124a87bd	-0.24081421750184787
53	0x3f87b3e6460fd512	0.011573599827878787
54	0xbfc9065dbd5c0c23	-0.19550678011009479
55	0x3fbfd51f9410ed66	0.12434575428863112
56	0x3fab2c90a4e7a16e	0.053074379091245
57	0x3fba8f8ca51e4feb	0.10375288993083102
58	0xbfce6c5e87aa8607	-0.23768216728517208
59	0x3fc3ed8940161829	0.15568652753080528
60	0x3fa29624d5b9467a	0.03630175694401046
61	0x3fc162907552e876	0.1358204434271248
62	0x3fd126402338d9e4	0.26795962752967584
63	0xbfc352604cb7b995	-0.1509514212224984
64	0xbfa5b47a74b5e8c9	-0.04239256548585641
65	0x3fa9d45faf9b027d	0.05044840830442341
66	0x3fa6a5b7782fc616	0.044233067914216814
67	0xbfcb9d0ca1822f51	-0.2157302654853717
68	0x3fb0108921c84bab	0.06275231432691324
69	0xbfd36313373c80dd	-0.3029220618646045
70	0x3fb9857082e4e174	0.09969237514167678
71	0xbfc8895272eb6514	-0.19169073687843563
72	0x3fbc65576e4e82e1	0.11092134898218432
73	0x3fc66223e78700cc	0.17487000279471088
74	0x3fd1264403a2bf7f	0.2679605517869205
75	0x3fcdc1f6629456b5	0.23248176396798717
76	0xbf7f281323f1e092	-0.007606577651238082
77	0x3fc1007852b391d1	0.13282684362560684
78	0x3fb83b9fe31e4207	0.09465979857328231
79	0xbfcdc52c4c2a3ef0	-0.23257974356646782
80	0xbfb46e2bb6c33cd8	-0.07980607234934511
81	0x3fc045f7fc04da1a	0.1271352749406141
82	0xbfcd08cd2745ade1	-0.22683109681689387
83	0x3fb481eb74208bf2	0.0801074179185404
84	0x3fa85746a885b6bd	0.04754086310536596
85	0xbfc5df1c3087f717	-0.17087128038104346
86	0x3f9d9c523ef260a3	0.028916630832640632
87	0xbfc2b54cfb560033	-0.14615785858404848
88	0x3f97e86574def9c7	0.023347459085693047
89	0x3fbaa8c3a108232b	0.10413763696136573
90	0xbfc8fff091ffb2d7	-0.19531066063736688
91	0x3fa1fe77fd80d2da	0.035144567198960266
92	0xbf5cadd68604f9a2	-0.001750430579775399
93	0x3fb28b843540c50d	0.07244135189172969
94	0xbfd27edd8a133343	-0.2889932487858468
95	0xbfafb6173f4ffb86	-0.06193611762863953
96	0xbfb90821cb669fd1	-0.09778033462373449
97	0xbfbf130fcc204759	-0.12138460858866774
98	0x3fb2c85f80a6d759	0.07336995020781724
99	0x3fca33654a747ace	0.20469347129343024
100	0x3fa09e466ceed58a	0.03245754317996859
101	0x3fc229ec31d5bae9	0.14190437730163488
102	0x3fb0599ad82833d3	0.06386726166984084
103	0xbf98f1bddb91b39f	-0.02435967114108772
104	0xbfd3c2dfa09090cb	-0.30876913719317817
105	0x3fb1307941900548	0.06714589930199566
106	0xbfbed8f918758f3a	-0.12049824568890424
107	0x3fc6374d0a95dcaf	0.17356265084138076
108	0xbfc7e4a16d61e3b2	-0.18666475144325784
109	0xbfc24abdd74e7426	-0.14290593159685833
110	0xbfc60f29c4c8b76a	-0.17233774288746
111	0x3fd0dadd2e61d553	0.26335839776523534
112	0x3fabdfd341b8a1da	0.05444202592144949
113	0x3fbdd169ec761a5b	0.11647665045720983
114	0x3fc0eb7fcf7fada5	0.1321868670632799
115	0xbfa4cd5fc7a6b683	-0.04062938034199439
116	0x3fc4234a093c7547	0.157326941022726
117	0xbfb66e354400ebdf	-0.08761914167636985
118	0xbf4cee9ff053e1c9	-0.000882938475711242
119	0x3f8dce234f2c0d61	0.014553333142891036
120	0xbfa8a83bee4a02ca	-0.04815852435877373
121	0x3fae30b380278de8	0.058965310472355814
122	0xbfd0135458c4b6ea	-0.2511797778014243
123	0xbf95412f8b450910	-0.020756476283403436
124	0x3fd2d57a54ef02d3	0.29427965444851373
125	0xbfa49e0bdf24c136	-0.04026829813881465
126	0xbfd0411c4b1eb448	-0.25397403083735925
127	0x3fc58b531d740321	0.16831435144561005
128	0xbfb10eb3c76495b1	-0.06663058870306916
129	0xbfa3bd3ca273f09f	-0.03855313761775502
130	0x3fc759e545e9bd2b	0.1824308959362296
131	0xbf82c7363429e187	-0.00916902872744242
132	0xbfca16ab61c446c2	-0.20381681703343274
133	0xbfb435b4c9778de5	-0.07894449156406542
134	0xbfad0cb8135e3925	-0.05673766361643321
135	0x3fc3256f56166da5	0.14957992270943268
136	0x3faebb3c1e8f4f6d	0.060022238474316626
137	0xbfa434ffd0445364	-0.039466852353291754
138	0xbfaaf33bba6ab6b9	-0.052636972909892284
139	0x3fb0b0f802276648	0.06520032932839925
140	0x3f86b4babea48014	0.011086901610326584
141	0xbfc70d942382b821	-0.1801018880264005
142	0xbfb875d72bbd7337	-0.09554810350296071
143	0xbf8917faf815763b	-0.0122527701338938
144	0xbfc335ced979ab69	-0.15007959002408747
145	0xbfba7cb57b4ead63	-0.1034654069941801
146	0xbfb093916f12a95c	-0.06475171052685397
147	0xbfaa4be8f3f293a5	-0.05136039712787203
148	0xbf862b9d41fcb104	-0.010825375152841328
149	0x3f50c2e197e30c20	0.0010230258044863286
150	0xbfbd942c22d6e2b6	-0.1155421814972993
151	0x3fb8ac3e46b562b0	0.09637822366984028
152	0xbfb0acfbc645dbd3	-0.06513951864859217
153	0xbf929b9d78db6376	-0.018171749593281793
154	0xbfba5a7c3154fe6f	-0.10294319347758017
155	0xbf84969bd9efc1ac	-0.010052888477702769
156	0xbfb28f38d01d2781	-0.0724978931513345
157	0x3fc810e1b8cf501e	0.18801518939892586
158	0xbfd37a984f1931cb	-0.3043576023526639
159	0xbfbd075ff4cac7bc	-0.11339378095979574
160	0x3f9b50532e826a1a	0.026673602784834306
161	0x3fd6a23417ea0f25	0.35365011535053475
162	0x3fd655e7c3ac72e1	0.3489932452082894
163	0xbfc0a9e5d40b4a49	-0.13018486837116175
164	0x3f84d2610d2d4548	0.010166891302704997
165	0x3fc6f8994e9e7797	0.17946163500613174
166	0x3fc472ba3d6e570c	0.1597512054401523
167	0xbfb6ba2666734ba1	-0.0887779235957127
168	0x3fc0d7510596934f	0.13157093785153015
169	0xbfbf63b95731529d	-0.12261541727759569
170	0xbfa5b9df89eb6b5f	-0.04243372496212915
171	0xbfaf16b960cfd52b	-0.06072024637971148
172	0xbfb184bc9230bc7b	-0.06843164986706711
173	0x3fb9782d7e6d6de1	0.09949001633270128
174	0x3fc6e32a965b96f1	0.17880756704032977
175	0xbfb6ea27cfd982ee	-0.08951042961553998
176	0xbfb9835a54d429bb	-0.09966053553595249
177	0xbfb8bb9b79b18e44	-0.09661266060862156
178	0xbfd4a52233532e91	-0.32257895481300475
179	0xbfb383eb4c2d081d	-0.07623167619479472
180	0x3fc47817fe26fb5d	0.15991496953753429
181	0x3fce2f9d5fd761dd	0.23582808665993485
182	0xbf9aca2b8c43c25e	-0.026161842762066782
183	0xbf9803754118fa36	-0.023450691316833715
184	0x3fc0a7d420f0909a	0.13012172325500587
185	0xbfb8d0a6ca82e40d	-0.09693376964686724
186	0xbfabdbb9a680cda2	-0.054410745215501835
187	0xbfbe96a0a2ef796c	-0.11948589303890395
188	0x3f3a696c24935746	0.00040301218230119997
189	0xbfb4dd95ad627956	-0.08150611384414694
190	0xbfa361fa3f64bb38	-0.03785688423010075
191	0xbf9b9fcab92df0e6	-0.026976745178658577
192	0xbfb8fae5d24c1821	-0.09757839569292105
193	0x3fc1526b6bb7d8d6	0.13532774696040545
194	0xbfc62e7c7bacc720	-0.17329364813627368
195	0xbfcafa00b7343ad8	-0.21075447984227114
196	0xbfafe421cf1f3b9e	-0.06228738454193848
197	0x3fbd610bed4b5107	0.11476206343951754
198	0xbfb35ca7653b243d	-0.07563253613911143
199	0x3fb876d97a32ad8a	0.09556349976872106
200	0xbfd263599de6e314	-0.28731384677989635
201	0xbf80a708b9632cbd	-0.008131092221807962
202	0xbfbcd7265dd0736e	-0.11265792646777381
203	0x3f961f5acc696926	0.021603983618072274
204	0xbfc2ab9d44e37ec0	-0.14586225379661322
205	0xbf768830785e8960	-0.005500974022569188
206	0xbf79f8dc24a58102	-0.0063408469526111694
207	0x3fb748a14504fbca	0.09095199523015576
208	0xbfd3a5d0001af6ba	-0.30699539194379677
209	0x3fa0e778b496f327	0.03301598743880723
210	0xbfd7913b57ce9286	-0.36823924612898684
211	0x3fd43f4182fc2c92	0.31636083404073034
212	0x3f9dfc377f6078ae	0.029282443189111156
213	0xbfcccfceef8cf48e	-0.2250918073349663
214	0x3fa803785614d71d	0.046901474483475016
215	0x3fb563df2232b71f	0.08355516991533961
216	0x3fbaf8aea7278ff1	0.10535708981439008
217	0x3f86198309de5959	0.01079084752909114
218	0x3fccfae699c2df63	0.22640688426849484
219	0xbfac0093eb6b9948	-0.05469190834792187
220	0xbfc1875cd73480a9	-0.13694344051419208
221	0xbfaa50aab0d0f2a1	-0.051396688541420994
222	0x3fb1ef3a9c7d81fd	0.07005659409106353
223	0xbf8157c033fae81a	-0.008468152605349433
224	0x3f94178984dacc4e	0.019621037229353093
225	0x3fa26b697b176c58	0.03597573878843069
226	0xbfb099334adeff91	-0.06483765199572945
227	0x3f8813b80adba930	0.011756360846864128
228	0x3f983708c06707cf	0.023647438758196245
229	0xbfc7d12c4b35d19e	-0.18607095405935764
230	0x3fadaabbd3645569	0.05794321971385836
231	0x3fb0fd9cea28c9aa	0.06636982647686432
232	0xbfc18f8a28a38d4e	-0.1371929834777838
233	0x3fa3c91efd686476	0.03864380687100148
234	0xbfca030b82b609d2	-0.20321792490365326
235	0x3f8699adc803828f	0.011035306612428712
236	0xbfa4f5e3acb1575d	-0.04093848689141908
237	0x3fa4cdd390573e82	0.04063283097241045
238	0x3fb2b8f1d0ca3b34	0.07313453051959301
239	0xbfa76de0aac3a866	-0.04576017460370067
240	0xbfbea50fd408efd1	-0.11970614363320854
241	0x3fccacdda0102df4	0.22402544322572704
242	0xbfc94563a1b970ee	-0.19743008991907324
243	0x3fc8b2a345f63f81	0.19295159259899822
244	0xbfb85389e53f8fa7	-0.09502469870454765
245	0x3f985c8b8c444243	0.023790531574436235
246	0xbf7bac94546c17b9	-0.006756381428891283
247	0x3f95ff87a76d6635	0.021482581705049426
248	0xbfa67d2aeb514a20	-0.04392370340851337
249	0xbfbae7f077584b7e	-0.10510161317533392
250	0xbfbb02d7ae74d6c8	-0.10551212319554815
251	0x3f77257273ca77d2	0.005650946692780283
252	0xbfd1e2d4ee6f3a34	-0.27946971211068505
253	0xbfca48a277632ec6	-0.2053416331240127
254	0xbfc984b1851f8315	-0.19936198234702177
255	0x3fbf5d2ec89585e0	0.12251560589859123

linear_out.bias f8 [50]
0	0xbfc7422913f13490	-0.18170655702343597
1	0xbfc3bd63ffa4ee46	-0.1542172430289261
2	0xbfcc7cb015db5bfe	-0.2225551707003603
3	0xbfc4cf3104f31fde	-0.162572982231949
4	0xbfc95d389073dd8e	-0.19815737775182324
5	0xbfc00de7fa538cb7	-0.12542438242880902
6	0xbfc9bb7d29266745	-0.201034207432537
7	0xbfc71c9a74e25633	-0.18056040484650424
8	0xbfcee92e9da2c95b	-0.24149115273537344
9	0xbfc7166c4c22dc0a	-0.18037179677568843
10	0xbfcb6b7dfa3ecad8	-0.2142178985501093
11	0xbfc7561253ec2c46	-0.18231419656544484
12	0xbfc7b02e427edf86	-0.1850641083417452
13	0xbfc6862e2de0098c	-0.17596986045834873
14	0xbfc0da3620060616	-0.13165928424500412
15	0xbfbf506c1aff9a5d	-0.12232089671270203
16	0xbfb0a494165d81a7	-0.06501126810099454
17	0xbfacc2827ea39126	-0.056171491583685104
18	0xbfb2ca81a6ec96a9	-0.07340250325486387
19	0xbfadd9495cd1b1f1	-0.058298389988383444
20	0xbfb1106e178cb5a5	-0.06665695261900469
21	0xbfb1879551d611d3	-0.06847508666948636
22	0x3f792a01f342510d	0.006143577211464424
23	0x3f709188e083d1f8	0.0040450426824816185
24	0xbfb10989d3b5795e	-0.06655179423021226
25	0xbf951110c753a910	-0.02057291237444142
26	0xbf988868b7e0c8d2	-0.023957859252001175
27	0x3f7fd87000dab2f5	0.0077747702722887795
28	0x3f7101bc878c13f1	0.0041520466263635794
29	0xbf9feaf931d5dad9	-0.03116978995009387
30	0xbfa0981b127c20d5	-0.032410474783377254
31	0xbfa7044321d408a4	-0.04495439327185238
32	0xbfafa98b78748bd7	-0.06184039922143086
33	0xbfa5e2b8edddc680	-0.04274537948266488
34	0xbfa95667d5489e25	-0.04948734739837971
35	0xbfb36e27caa22c3b	-0.07589958855730654
36	0xbf84d635b3eee802	-0.010174197724939663
37	0x3f93a5a756443e18	0.019186606064122896
38	0x3fa23295d4a90922	0.03554218502951502
39	0x3fa20ac6bc37cd50	0.03523846671660158
40	0x3fa91f994fcc207b	0.04906920527543065
41	0xbf9aa34da69b5e2a	-0.026013577741507067
42	0x3f9cccbd66f5b938	0.028124770554705608
43	0x3fa4522a2e6c9309	0.03968936745358149
44	0x3fb3ed2a38c04e41	0.07783759961631011
45	0x3fadad04b99e41ad	0.057960651071997084
46	0x3faefbe0916a7f13	0.06051542067620921
47	0x3f97c19d2d6bc1ee	0.023199516198419028
48	0x3fbbf1753f3bc1ae	0.10915310663018005
49	0x3fba303280a42c72	0.10229793205887619

layers.0.weight f8 [50, 50]
0	0xbfd15461772961ec	-0.2707751907051079
1	0xbfcc742cff464200	-0.22229540314266671
2	0xbfd02a883a7e1d7a	-0.25259595596477136
3	0x3f83da5223760983	0.00969375773161541
4	0xbfc2e9baa930a4e3	-0.14775784741622208
5	0xbfc58f128a819fb7	-0.16842872393612904
6	0xbfc0c8a255c1ab64	-0.1311228674633994
7	0xbfb48ce0cb53b340	-0.08027462924992523
8	0x3fb4412a86dd5508	0.07911935608474974
9	0xbfc5410eddad94f0	-0.16604791473506664
10	0x3fb75ed59a5317f7	0.09129080789270448
11	0xbfd3a8552e9ec78f	-0.3071492152476986
12	0xbfc716cf6c45f589	-0.18038361346036094
13	0x3fa616f16b6447d7	0.04314379154142472
14	0xbfc3b16cce292bdd	-0.1538520819325119
15	0x3fbf4bd91d009a6a	0.12225110014024101
16	0xbfccc3816186c02c	-0.22471635114698196
17	0x3fcbc06b3238423e	0.21680965377938038
18	0x3fb76575e5ec6eed	0.09139191497200345
19	0xbfcc4911cb6bd214	-0.22097990448641325
20	0x3fbfe7fded4d6d93	0.1246336654998486
21	0x3fd8764929e37133	0.3822195920054298
22	0xbfc8d7647758227f	-0.19407325579983944
23	0xbfc112ac5ff87d4f	-0.13338236509387477
24	0xbfb80c34728cf22d	-0.09393623158116134
25	0x3faf8313b9328212	0.06154691348752207
26	0xbfce7573b7176c9a	-0.23795935096754733
27	0xbfb3fcb104907499	-0.0780745159285793
28	0x3f9d537f7e96d0ed	0.028638832188975383
29	0x3fd129d49d103dfb	0.2681781324217522
30	0x3fc9577c3fe33696	0.19798234099873885
31	0x3fb166cdb4db82d2	0.06797490754571392
32	0xbfb49bf4c1e8c173	-0.08050470098601696
33	0xbfa5f185aceb9bb3	-0.04285829292148637
34	0x3fd4c4123f32ae3a	0.3244672410171209
35	0xbfcc36114e83508f	-0.2204000123371128
36	0x3fca598d571789de	0.20585791351830002
37	0xbf9f640f75fd0421	-0.03065513761180594
38	0xbfc2fcdd64f0f9e8	-0.1483418219449526
39	0x3fd094a45f3cb563	0.25907239246847363
40	0xbfbd483e6f690d05	-0.11438360424022072
41	0x3fc3930f8b2fb4e4	0.152925436937415
42	0x3fd40c1b442ebed2	0.31323892267662956
43	0xbfb19d0d25d91550	-0.06880266355536446
44	0xbfd1f31b7f576628	-0.2804630988663086
45	0xbfb5eaaa025d191b	-0.0856119399805703
46	0xbf76fbc7dd7c95f8	-0.005611210559242512
47	0xbf88cccf5e16f8e9	-0.012109394129649025
48	0xbfda35f172006080	-0.40954242833095833
49	0x3fb242b2c651ef68	0.07133023587988208
50	0xbfccf5c5b859d56a	-0.22625037671574982
51	0xbfabd9a34640fc4d	-0.05439481957045498
52	0xbfb973b7c09c0c99	-0.09942196323759091
53	0x3f883528af35e31a	0.011820142600059525
54	0xbfcc7da5e0e121ae	-0.22258447151604116
55	0xbfc4fe7dd0baf77a	-0.16401646320258206
56	0x3fcaf68f5dd3b41f	0.21064941483874208
57	0x3fd319d331a6ba54	0.29845123146779895
58	0xbf8d590748716629	-0.014329964540752265
59	0xbfc35b6523feff0c	-0.1512266565096002
60	0x3fb6b962886253c5	0.08876624898614612
61	0x3fc2a731f927a54a	0.14572739282383856
62	0xbfc396d45b6f4772	-0.15304045166572738
63	0x3fd5a93132f682ef	0.33845167137955817
64	0x3fbcb19527cb293b	0.11208469602130304
65	0x3fc7de1fd71d167a	0.18646619800181324
66	0x3fd2b127335e0515	0.2920625688203285
67	0xbfcfcfa9c3e574e9	-0.24852487626313938
68	0x3fca78e034058418	0.20681383648027984
69	0x3fb5a32d0a208c69	0.0845211171841115
70	0xbfd89bee250cd1ee	-0.38451722734615046
71	0x3fb4f99a88fd716f	0.0819336494873306
72	0xbfc6097144679ea4	-0.1721631607062949
73	0xbfcdbce0eca455d9	-0.23232661776334743
74	0xbfd93f864d691951	-0.3945022350275354
75	0xbfad8544fd01f2b3	-0.0576573904845409
76	0xbfadfb5fb966f34d	-0.05855845583162154
77	0x3fab7707be5642b6	0.053642503723613386
78	0x3f5e4c0bfb964150	0.0018491856593279739
79	0xbfc3bb8ebb213b66	-0.15416130196760064
80	0xbfbdde60be1caa5f	-0.11667446748166686
81	0x3fd24cb93bb04f94	0.28593283490158083
82	0xbfa7199505a32721	-0.04511705106558695
83	0x3fc8c9287e295df4	0.19363886032327537
84	0x3face47c1e1002ef	0.0564307009408419
85	0xbfc43559edfff60c	-0.15787815209471068
86	0x3fd2596854649c71	0.2867070030355939
87	0x3fc8d99cda3762d8	0.1941410127172023
88	0xbfa86aa837d06ea1	-0.0476887291081003
89	0x3fb3390e6c7b9752	0.07508936069970432
90	0x3fc6fc5de70e9419	0.17957662374570374
91	0x3f8e74471e7da28d	0.014870219820026587
92	0xbf87acb582494bfb	-0.011559885061762634
93	0x3fa584ef4d80a56f	0.04202983685565697
94	0x3fc8a16bbf12228c	0.1924261744464001
95	0x3fcb46e5a00a49ba	0.21310110392057685
96	0x3fc6b039105e0015	0.17725289630107058
97	0x3fd77808dea3470e	0.36670133344624467
98	0xbfba47052e63e58a	-0.10264618284772645
99	0xbfb1e5b02f8ac7f6	-0.0699110141820539
100	0xbfb6db02f23114c9	-0.0892793504036319
101	0xbfc3fa339ce5c295	-0.15607304726610907
102	0x3f953d57a4c2dd79	0.02074181502459058
103	0xbfc848c09c4253d2	-0.18972022657240345
104	0x3fcf9cfd0c44fc7e	0.24697840785117714
105	0x3fc62d95f2063e8f	0.17326616590115804
106	0xbfc0705917854971	-0.12842858932942705
107	0xbfabc06552e9c3bf	-0.054202238436921395
108	0x3f8be27775aae850	0.013615544584684752
109	0x3fbec998b6fe8dbc	0.1202636191142607
110	0x3fb075e066f9c4a9	0.0642986537366307
111	0xbfc152d694c1242d	-0.1353405214634064
112	0xbf8b84e253c1df15	-0.01343705003840471
113	0xbfb78b459bd5c4c3	-0.09196887068334818
114	0xbfd20e693248148f	-0.282129572966661
115	0xbfc31b43616e5119	-0.14926950700158484
116	0x3fd2ba8efc4fd4f4	0.2926366294844478
117	0x3fa3c649524fd2e4	0.03862218026907785
118	0xbfc7ee338d923e87	-0.18695682919177534
119	0xbfc93a4ddd5a9f49	-0.19709180172253074
120	0x3fc76ce8d76cb51b	0.18301115530759024
121	0x3fc1255d8fa9b503	0.13395280375281268
122	0x3fb481262c105a30	0.08009565902498461
123	0xbfbf7f37bed0bc7d	-0.12303493889406698
124	0x3fc21ace6767829d	0.14144306229629403
125	0xbfabbfb36480f881	-0.05419693567135742
126	0xbfc1f3714a3c0409	-0.14024177670219753
127	0xbfb912b7db7ac89e	-0.09794186695470095
128	0xbfa278b949227ccf	-0.03607729928739333
129	0xbfa8c664c19638f2	-0.04838862288589664
130	0x3f8a0496ed81b41a	0.01270406639397419
131	0x3fc0363bfa6627a1	0.12665509916797382
132	0x3fb7e49f9fd74493	0.09333226826062661
133	0x3fb0e1ae7024cf62	0.06594362485776409
134	0x3fc3162af9038bdf	0.14911400946502248
135	0x3f91faae19d1a101	0.0175578311213096
136	0x3fd5c4c1eb4685be	0.34013412452813074
137	0x3fb314574b12531c	0.0745291288643099
138	0xbfa6647e382c6fd0	-0.043735451085211374
139	0xbf862a6a1615b47f	-0.010823086546873249
140	0x3fbaefb74f0e6900	0.1052202766426582
141	0x3fb0ebe4659413a6	0.06609942893926632
142	0x3fc47c388624066a	0.16004091787185654
143	0xbfb2c7162f63ca3c	-0.07335032135942127
144	0xbfc44efb13e04292	-0.15866030188091834
145	0xbfd24c560d8979d6	-0.2859091884801307
146	0xbfb97c68de7623bb	-0.09955459052265685
147	0x3fcd8b78644e5b4b	0.23081879518277967
148	0xbfd4e02e84f5a9b8	-0.3261829660829352
149	0x3fc32a696dcf1cf2	0.14973180639046962
150	0xbfc6d2b1f05f6b2c	-0.17830490338277494
151	0xbfcb3a11b8fb270d	-0.21270963222769304
152	0x3fc6ae5b24cbbe67	0.1771959237735132
153	0x3fbc49e34edcf3fe	0.11050244021767239
154	0x3fba4d7fa76188a7	0.10274503551912294
155	0x3fc3b9033293d86f	0.1540836331329873
156	0x3fcacdafd4ea38ef	0.20940206428753735
157	0xbfd0e8bfa0e8faf2	-0.26420584405779757
158	0x3fb6fa35d9e02d7a	0.08975540703993615
159	0x3fc1eead02ac55dd	0.14009630804564113
160	0xbfa3b0e74ca157f6	-0.03845904169490659
161	0xbfba278908e5e5c2	-0.10216576068150743
162	0x3fa221e60f9f46ca	0.03541487637234082
163	0xbfb2db35c0d258c6	-0.07365737874565345
164	0x3f740ffbcd236969	0.004898055647766555
165	0x3fb35c27f2911fa9	0.07562493965190122
166	0x3f9f815ad9c07f69	0.030766887226604398
167	0x3fd4810724e038a6	0.3203752384296287
168	0xbfce2c9efc9084a0	-0.23573672611477026
169	0xbfa6958fe7418c2b	-0.0441098184390046
170	0xbf85f7e869ed0cd8	-0.010726752979854856
171	0x3f9014e83efd6aca	0.015704754681204837
172	0x3fd099a70d9c1132	0.2593782074839225
173	0x3fb104621455289c	0.06647313114550218
174	0x3fc2559d91b85fae	0.14323777785534503
175	0xbfbf4b9db5cc7fec	-0.12224755943725513
176	0xbfd22c5aa2a4d585	-0.28395715602103905
177	0xbfc4452282eff55c	-0.15835982697891893
178	0xbfb97a479cfbdf0e	-0.09952209074606008
179	0x3f7c29135040b380	0.006875110095319381
180	0xbfb405e83bd01e57	-0.07821513614919105
181	0xbfad81d20c4f8da3	-0.057631076815393166
182	0xbf96c7abeccaaa4d	-0.02224606163751224
183	0xbfc6c7390a7078fe	-0.17795479783757878
184	0x3fb75da49985f5db	0.09127262828948039
185	0x3fbb4b013b163a38	0.10661323254155597
186	0x3fd2504d396e10ba	0.28615122421639294
187	0xbfd15f8c41168fe8	-0.27145677906287213
188	0x3fc81660bf2edc3d	0.18818291983709115
189	0xbfc2edb3d5496b6f	-0.14787910379785837
190	0xbfb7ac3befb8ac00	-0.09247183420727367
191	0xbf9b2a35c8597b76	-0.02652820620857762
192	0x3fbed839c34eaf79	0.1204868413757917
193	0x3faf6cc586ecfd30	0.06137673637430863
194	0xbfb02a2adda970bb	-0.06314342414538292
195	0xbfbec10273095fcd	-0.12013259228240188
196	0xbfc3e798984cf215	-0.15550525127936568
197	0xbfd01aa0122b5875	-0.25162507795665273
198	0xbfb34170ffdf6e70	-0.07521730658430115
199	0x3fb051e1b5f8076b	0.0637494153270645
200	0xbf80ed185539a9b4	-0.00826472292029199
201	0x3fa94e2ac4aac178	0.04942449236603158
202	0xbfa58edd06ad1de0	-0.04210558611390147
203	0x3fc500456fbb144b	0.1640707774696771
204	0xbfa55618d658bf8e	-0.04167249313866171
205	0xbf931ae49994e0a6	-0.0186572760332814
206	0x3fb78b2448a20efd	0.09196688435809715
207	0xbfb2f169bef9e2f3	-0.07399617111685668
208	0xbfd1f616f13785ee	-0.2806451182969728
209	0x3f9fb13a0e4fcce2	0.030949504016416614
210	0x3fb0ce0c1ba28fb7	0.0656440322368884
211	0x3fc0f82fc3b09150	0.13257405333673455
212	0x3fb02e791f0dd7eb	0.0632091236892333
213	0x3fb7c0218da5441d	0.09277543743270696
214	0x3fa6e2f9b930d401	0.04470043550137604
215	0x3f9aee690bb76314	0.026300088253125756
216	0xbfa3b1de1396f1cd	-0.03846639622813406
217	0xbfc6d5a80319d448	-0.17839527274523648
218	0x3fb0eba9bec6936e	0.06609593303308056
219	0x3fc35a7693a696f9	0.1511982174826512
220	0xbfacfdec919b44f5	-0.05662478711531974
221	0xbfad2f2a60f297c8	-0.057000469526698405
222	0xbfc5909e411c28c7	-0.16847589663695414
223	0x3fbaf2ee72a215ed	0.10526933954869096
224	0xbfa21246313e618c	-0.03529567099684802
225	0x3fc3734203c575f9	0.15195489105364837
226	0x3f550d1b85b58b91	0.0012848633549189285
227	0x3fcd93ed869771ba	0.2310768992600865
228	0xbfad2a3a41167e3f	-0.056962795682235605
229	0x3f7ee5b0b314b29c	0.007543268425518914
230	0x3f7ccb587c6fe7a0	0.007029863022575272
231	0x3fbb29e6667ee4d9	0.10610809328399586
232	0x3fc1bf458ab0477f	0.1386496474447618
233	0xbf71354d4ed33a17	-0.0042012233581787605
234	0xbfc29aff9c446064	-0.14535517816762245
235	0xbfd902aafcce5143	-0.3907878369148145
236	0x3fb90537d5a309dc	0.09773587194198491
237	0x3fcd0127a1cce822	0.22659774208460798
238	0xbfc7324cbfa0b569	-0.18122252804588904
239	0xbfaf29fa1d1b51ee	-0.06086713414484622
240	0xbf8687301da96334	-0.011000038056566554
241	0xbfb62419c5d80058	-0.08648835258645826
242	0xbfbdeedf09ffa34e	-0.11692613596063703
243	0xbfc8f13c7a4a996a	-0.1948619458318704
244	0xbf6271de277a8cd3	-0.0022515620183455125
245	0x3fbfc5d7f760a07f	0.12411260404098988
246	0x3f9e9e74bf8cf918	0.029901336852384025
247	0xbfc01f3e79e50ea4	-0.12595349265949551
248	0x3fc8a5723f36b201	0.1925490196857851
249	0x3f9542c22718b9a2	0.020762475620523475
250	0xbfda4587b574bcaa	-0.41049378128350134
251	0xbfd0ce46f29630b9	-0.2625901574144894
252	0x3fa98be4fe10c027	0.04989543534645718
253	0x3f96a8cf88b4a257	0.02212833663830546
254	0x3f87cef310849235	0.011625193540177306
255	0xbfaf086039b88c8f	-0.06061077789879576

layers.0.bias f8 [50]
0	0x3fc1a93cd4c8d37a	0.13797722234599147
1	0x3fbf93352ab50ed2	0.12333996098191882
2	0x3fa73f444f6dadc6	0.04540456266007768
3	0xbfb882e39b00696a	-0.09574720892161329
4	0x3f8aae854fa91754	0.013028184407754807
5	0x3fb20aef1e7517da	0.07047934049214125
6	0x3fb258e991c88a41	0.07166919526256611
7	0x3fc3ed7d2270d655	0.15568508321455235
8	0x3fb770ff5459e7d9	0.09156795319896051
9	0xbf8b4e296860c1fe	-0.013332675454962303
10	0x3f90d004d1756a14	0.016418528827992843
11	0x3fbdd1d6f26c9eff	0.1164831487518505
12	0xbfa4d9b938b63bef	-0.04072359864505148
13	0xbfc7b39de5c4d7a7	-0.1851689693373235
14	0x3fb7413669d74121	0.0908388145828707
15	0xbf80b4bdfb408c62	-0.008157238226038813
16	0x3fac670b8c3f890e	0.05547367178930261
17	0x3fc50b8545c79c19	0.1644140806886021
18	0xbf98bd0f5d7bb4ed	-0.024158706742061154
19	0x3fb4a3db5487e789	0.08062525571577174
20	0xbf8f0a84aae8a529	-0.015156780687066789
21	0x3fbd1535c6a466db	0.11360488986647559
22	0xbfb1e675deff65fc	-0.06992279714850008
23	0xbfbbfa4bfd379632	-0.10928797657069181
24	0x3f9a4a88e772a516	0.02567495262761551
25	0x3fb0565cfb6f9d41	0.06381779802869848
26	0x3fb7753c4ea74329	0.09163262291191344
27	0xbfb44359c7e049a3	-0.07915269021785902
28	0x3fc09a07b2c9c850	0.12970062475102617
29	0xbfb967a492667c58	-0.09923771452166485
30	0x3fc55ae834826d9f	0.16683676303806025
31	0x3fb550460bac0289	0.08325612816771345
32	0x3fb4b8faae453bbb	0.08094755892419318
33	0xbfb9964b2fd1192c	-0.09994954984094723
34	0x3fb78a7967078d4e	0.0919566990410676
35	0xbf9ec7bf43adf0cc	-0.030058849817110198
36	0x3f995e5355e7dfa1	0.02477388583972096
37	0xbfa14373310c156f	-0.033717727410514146
38	0x3fc04d3ac7608b7a	0.12735686049662914
39	0x3f9e11d967ddea6b	0.02936496445134155
40	0x3fbe410f4962817c	0.11818023244496162
41	0x3fb96c30358a91fe	0.09930707270775227
42	0xbfa23ccf1c01a599	-0.03562018601298717
43	0xbfaaa38d56d4c0a8	-0.05202905354451676
44	0x3fb48255beed299b	0.08011375342645126
45	0xbf9b18bbfb799b64	-0.026461541389291368
46	0xbf94b685e4835750	-0.02022752005799272
47	0x3fbe0201d5d8ec1d	0.11721812697298657
48	0xbfc69f325d85a39a	-0.1767332989359403
49	0x3fa512f3716149f6	0.04116020926507595

layers.1.weight f8 [50, 50]
0	0xbfd4f4e4f54f7d0f	-0.32744716602424345
1	0xbfb352af085ef78f	-0.07548040346497785
2	0x3f985550cf2a3358	0.02376295341905474
3	0x3fb2e5c6c2c8c566	0.07381860976672314
4	0xbfad078fc4cb5fae	-0.05669831540370694
5	0x3f62f300bea6f83c	0.0023131384416208694
6	0xbfa13bac19deabab	-0.033658388288436335
7	0xbfcf6636109bf61f	-0.2453067380046585
8	0x3fce6691cb17bb7d	0.23750517288814513
9	0x3f9cb16c91354d52	0.028020569193654872
10	0x3fcd4025fac40c44	0.22852015251564428
11	0xbfa2a1cc5645c85a	-0.03639067223674948
12	0x3fb347a92ecd4cb2	0.07531220810533304
13	0x3fc7100294329feb	0.18017608867853538
14	0xbfc2054edc7154f6	-0.14078698886684266
15	0x3fb893be001805a1	0.0960043668965427
16	0x3f7afd80a313a580	0.00658941506228794
17	0x3fc47ea310bc80ee	0.16011465375141348
18	0x3fb50b7e42492174	0.08220662229826364
19	0x3fb0a6e20c6354f6	0.06504643251840378
20	0xbfc9c60ed3804497	-0.20135674788665334
21	0xbfb49853af65c88a	-0.08044932396095042
22	0xbf926d5412c945c0	-0.017995179792995364
23	0x3fd2ac9093b97105	0.2917825167294413
24	0x3fccabdd2981d96c	0.223994870440673
25	0xbfa7840c4d614058	-0.045929321714198224
26	0x3fb55647443a5e8b	0.0833477536747244
27	0xbfd4beab751c6397	-0.32413755833254626
28	0xbfbb347ba6ec111d	-0.10626957726714577
29	0x3fc05f97ed989b7f	0.12791728116391352
30	0x3fafe471ba3f36ac	0.06228976629755087
31	0xbfad2b4838ea97c6	-0.05697084135799417
32	0xbfe00045a774b5a1	-0.5000332136748292
33	0x3fe04cbaf36c77e1	0.5093664888734076
34	0xbfbf16dd1d500d59	-0.12144262281076602
35	0xbfc74326cce1a645	-0.18173680309273457
36	0x3faee656d0e1f147	0.06035109805904653
37	0xbfc008652f1f91c0	-0.12525620270674942
38	0xbfb12c90fcc2ded6	-0.0670862786381535
39	0x3fd435f905194fbc	0.3157942342561417
40	0xbfb1353c3b1cc8cc	-0.06721855586218622
41	0xbfaf6e474ccf7933	-0.06138823330523948
42	0xbf63b5de387206fa	-0.0024060573810523707
43	0x3fc67dd02c0da4d2	0.17571451331176619
44	0xbfcb4db30aa8c738	-0.21330869694207322
45	0x3fc4500e38a1d9c1	0.15869310155149033
46	0x3fb0899fb610efb1	0.0645999736306624
47	0xbfc8b1fa3afb0cff	-0.19293144111552604
48	0xbfc5b623e87a6e6b	-0.1696209798000042
49	0xbfbe577613b6a382	-0.11852205258641216
50	0x3fc3b58adeccca43	0.15397773627189978
51	0x3fdde318d1d1f11c	0.4669858979248305
52	0xbfbc5a0d1a9cbc7e	-0.11074907207215465
53	0xbfacfaf9c1b7cfce	-0.05660229196283205
54	0x3fd0d5584be89fc3	0.26302153981168547
55	0x3fa58040fee189de	0.04199412452068761
56	0x3fc34542e27d9266	0.15055118617160018
57	0x3f916e82ab4eea36	0.017023126321627134
58	0x3fb50fc8d486cc91	0.08227210224758809
59	0xbfb4838cd9be60e2	-0.08013229671485392
60	0xbfce67dc0da64b0a	-0.23754454294665833
61	0x3fca7db7f3e21b06	0.20696162613258923
62	0x3fcbbaaae49bee26	0.21663414156488264
63	0x3fd2724a85f47cec	0.288225775542698
64	0xbfc32966cc3ac162	-0.14970097515243724
65	0x3f960ce81a2f0c0c	0.02153360996068092
66	0xbf083e8430fbf897	-4.62421504589954e-05
67	0x3fcbe3ef9d3d4ec3	0.21789355447491773
68	0x3fd51329fc37e136	0.32929467802707124
69	0x3fcdaa517c73c1e2	0.23176020218626464
70	0xbfbbf37e88d0c9da	-0.10918417778228875
71	0x3fc8cd11e19784e8	0.19375823512294876
72	0x3fbfe59847465054	0.12459708919624407
73	0xbfab757465dfc07e	-0.05363048308925132
74	0xbfa7ce66aaf895a3	-0.04649659001396891
75	0x3face0fee7dda919	0.05640408115762536
76	0x3fafa977d6046c42	0.06183981406703555
77	0x3fa8f9d9bbab008c	0.04878120818966733
78	0x3fba41f1d6fcf8fa	0.10256873606428832
79	0xbfc7ac919fcfd402	-0.18495388320266676
80	0x3fd1a8e9a6c39461	0.2759346130899925
81	0x3fc321b069b629d9	0.14946561013887452
82	0x3fd058bedc74221b	0.2554165985934859
83	0xbfc46206699b5e07	-0.15924148708903393
84	0xbfb48fcfa919709a	-0.08031938436892219
85	0x3fba28a1fd77f420	0.10218250692555886
86	0x3f75b10c0a314017	0.005295798330806198
87	0x3fb60c76e61ef022	0.0861276923960195
88	0x3faae9a875996af6	0.05256391940630138
89	0xbf968513ab50e845	-0.021992022830297015
90	0x3fb6a50c22c435e5	0.08845592354574412
91	0x3fb3d621788b8309	0.07748612587921512
92	0xbfbd075154dac50b	-0.11339290925640826
93	0xbfb85457f580a773	-0.09503698104586338
94	0x3f9f42b7fc9d0b42	0.03052794913606794
95	0xbfca4d751026fec1	-0.20548880852401477
96	0xbfb5beffe3689079	-0.08494567205394955
97	0x3fb8f257ec8ad8b8	0.09744786763153257
98	0xbfae150425bd8655	-0.05875409088799858
99	0x3fbb45f095df9d91	0.1065359464552016
100	0x3fd1bc3ab65f6b69	0.27711360750043085
101	0xbfc188b919d8aca3	-0.13698495637922745
102	0x3fa83d5f50a1d8a2	0.04734323367385797
103	0x3fb595f328f0d003	0.0843193030312364
104	0x3fc0eb5a98157cfe	0.13218243051503714
105	0xbfc9d06c9e62c2f7	-0.20167310460740115
106	0xbfb481dd93ada0b4	-0.080106590799576
107	0x3fc0011db5a462c3	0.12503405923123098
108	0xbfcdf2be8d66fe58	-0.2339704695168503
109	0x3fd22dd08d96c8e8	0.284046304960738
110	0x3fae669851e99420	0.05937648773105075
111	0x3fc79ff1a5a29940	0.18456860149053433
112	0xbfa663f18a525504	-0.0437312585210439
113	0xbfb7073c20c1b6eb	-0.08995414542888695
114	0x3fc628fe9821c414	0.17312605312648144
115	0xbfc7f95ce59bcf69	-0.18729745112761556
116	0x3fb4995608ac192c	0.08046472274518085
117	0xbfb59bed060ed454	-0.0844104900159704
118	0xbfc92da800d1939d	-0.19670581855748717
119	0xbfc2e9faaec7d327	-0.1477654794140559
120	0xbfd1343c7a2bc7a1	-0.2688132470203702
121	0x3fc7ba12cef4ccc6	0.18536601166997552
122	0x3fc2180c39470404	0.14135887905834477
123	0xbfd25712f0896cbc	-0.28656457414554004
124	0xbfc1a31abfa63ebe	-0.13779005391960725
125	0xbfbe0ef200f89980	-0.11741554759701067
126	0x3f9b099b8b051731	0.026403837547398005
127	0xbfb88dcd260e7f36	-0.09591371707074078
128	0x3fb4102bb8821bbe	0.07837174658389665
129	0x3f702e6a928ff48b	0.003950516032088856
130	0x3fae6a3b3652c259	0.059404230481395266
131	0x3fc5d743fd0b2da3	0.17063188415191374
132	0x3f71a7c693d08aba	0.004310393994304712
133	0xbfa3b13fe569814a	-0.03846168208542851
134	0xbfbca6fd421f920f	-0.1119230543550389
135	0x3f8605d0d433fb29	0.010753280139849846
136	0x3fc73de1032b5e4a	0.1815758958316443
137	0x3fd08bd6714ee7ca	0.25853501382118493
138	0x3fd3e50986338416	0.3108543215331009
139	0x3fc2829ee80cbe31	0.14461122828059694
140	0x3fd7970c372e8b5c	0.36859422100876826
141	0x3f7b13979e2c97e7	0.006610481507584232
142	0x3fb54f4d4e15f5e5	0.08324130207434839
143	0xbfd5f47c80222f10	-0.3430472613624582
144	0xbfb8eab9b5475141	-0.09733162570711774
145	0x3fd022127a9c1f03	0.25207960103624333
146	0xbf682b9cf807e8f5	-0.002950483875108318
147	0xbfb8028338bd44a0	-0.09378833899724492
148	0x3fa18005a71b68d6	0.03417985596543509
149	0x3fc756efccafa90f	0.18234059805337963
150	0x3fd1297fbf0db608	0.2681578984982882
151	0x3fc83209e0467b16	0.18902705622618815
152	0x3fc59e3b6d81d103	0.16889136168504856
153	0xbfbf9301f248ba83	-0.12333690800799428
154	0xbfca676a572040d3	-0.20628098730276764
155	0xbf9777ac71a57516	-0.02291745608942105
156	0x3fd001dbf1ff848c	0.2501134742033819
157	0x3fd2929a9f7767fb	0.29019799778836813
158	0xbfd31df531182466	-0.2987034778057648
159	0x3fb08e3d71815313	0.06467041035768899
160	0x3facf9500c649c3d	0.0565896048668084
161	0x3fc538a69efa76d0	0.1657913471471404
162	0xbfd51fe004fc2114	-0.3300705002479998
163	0xbf90873b460aeb38	-0.01614086737638873
164	0x3fc6ec149ae05175	0.17907960474316167
165	0xbfd01d12c0092712	-0.2517744899129052
166	0xbfcef26c4d6d6a5a	-0.24177316456446613
167	0x3fa4277c4c8c123d	0.03936375078595631
168	0x3fb2bf8009510e0d	0.07323456027466353
169	0x3fa56ca763132be3	0.041844588131048764
170	0xbfb1125f2533f630	-0.06668657930637134
171	0xbfa7a9fb29ebb6ca	-0.04621872793891908
172	0x3fc45a505a9115de	0.15900616094783876
173	0x3fb711bc794cb1f2	0.09011438332954194
174	0x3f8bbe39bde08801	0.013546420199478605
175	0x3f7cf47d3bc3b250	0.007069100564177491
176	0xbfae77611c9c83e0	-0.05950454210529421
177	0xbfc06f0ac65451e1	-0.1283887356190823
178	0x3fba657a08a5d6a1	0.10311091147544939
179	0x3fbda852bad4bc23	0.11584965764335257
180	0xbfb2d5d898e00fc0	-0.07357553226762459
181	0xbfbdfca355adc191	-0.11713620034948337
182	0x3faa76a1e4ab65b9	0.05168634334922779
183	0xbfd2a84575285526	-0.2915204662434284
184	0x3fcfcaa5c043c5b3	0.24837180984427007
185	0x3fad07b7af128381	0.05669950496781607
186	0x3fcff10cd308552b	0.2495437651092883
187	0x3fd0a63dec3bb533	0.26014659948016855
188	0x3f86726f4ff88342	0.010960454586042116
189	0xbfa44d67d501cfe0	-0.03965305781539974
190	0x3fc677b353ef3e85	0.17552796934477413
191	0x3f9153114d66be7a	0.016918440198138353
192	0xbf83a23083051fb4	-0.00958669566956858
193	0xbfaca537fbdb13e8	-0.05594801854525838
194	0xbfd0fe033b77a644	-0.26550370032655146
195	0x3fc3f2fff3c02d63	0.15585326578034672
196	0xbfc73144276d6cca	-0.1811909859196475
197	0x3fd0b4183ee73ee6	0.260992108754165
198	0x3fbb2a6e30c0ee3f	0.10611618700289059
199	0x3fc39af4f6128f61	0.15316640868433765
200	0xbfda067101a01cec	-0.40664315375074866
201	0xbf9d29f966aa0107	-0.028480431452863744
202	0xbfc086ee5859040f	-0.12911776841977526
203	0xbfa1d87547614fbe	-0.034854569400209354
204	0x3fb054c437d15cd7	0.0637934337877256
205	0xbf943b7ad841a6d7	-0.019758147668119754
206	0x3fa9070cfabe0844	0.04888191757983454
207	0xbfc4ff7704258f9a	-0.16404617025829965
208	0x3fc6ba949543428c	0.17756898201198046
209	0xbfa1de057d89d415	-0.03489701421214179
210	0x3fca514574bb1138	0.2056052036260867
211	0xbfc1095ff801a28d	-0.13309859857260556
212	0x3fc75105ad7dd738	0.18216010066287835
213	0x3fac7689661a1ac1	0.055591863359088396
214	0xbfc53625b39b81e5	-0.16571494359870012
215	0x3fc37d812ba7d111	0.15226759559266914
216	0x3fbf5a0a8df41733	0.12246767011319264
217	0x3fc6a54ed93fee8e	0.17691979988000067
218	0xbf91caf3c3edb7ef	-0.01737576373437116
219	0x3fa6fc2b663199f0	0.044892650818656565
220	0xbfd0757eae295f6a	-0.2571713162228578
221	0xbfb0c2bb48fc943c	-0.06547136814022364
222	0x3fb7138cd0af83a9	0.09014206023085926
223	0x3fd69793e9303237	0.3530015732983744
224	0x3fb26879b3e24654	0.0719066681069987
225	0xbfbb8bab5dfcb90f	-0.10759993595704408
226	0xbfc1a18a36ac63b6	-0.1377423064193672
227	0x3fb529f3d354c318	0.0826713934845994
228	0x3fb2674e48a3346f	0.07188882134797024
229	0x3fb3f1e73581e9df	0.07790989929518542
230	0x3fba48409b334a72	0.1026649836451641
231	0xbf886396c0a4bfc0	-0.01190870070840322
232	0xbfd015aa9d4fa0e5	-0.25132241594702825
233	0x3fe213e3b21fd8df	0.5649279097549672
234	0xbfa7478dfff01c26	-0.04546779393427185
235	0xbfcc220a524b5c1a	-0.2197888280704497
236	0xbfc283dd1e77a2d1	-0.14464916217482096
237	0xbf9344a898e6f12d	-0.018816599209217678
238	0xbfd44cf596e39c1b	-0.31719722495330566
239	0x3fcf726a44372a8d	0.24567917185625668
240	0xbfd56b914f2ecb58	-0.33469040615743983
241	0xbfc3ec769b43d7bb	-0.15565378743457167
242	0x3fc1511bfef6cd2d	0.1352877612058391
243	0x3fa07a11f6b7e602	0.0321813214940896
244	0xbfa86759697242b2	-0.04766349231897972
245	0xbf8abf5a78b51cf5	-0.013060290154170743
246	0xbfd6ce9eb5e2f0a1	-0.3563610817179868
247	0xbfb5d257a4dd9f53	-0.08524081969301038
248	0xbf4d7525ffa3b6cd	-0.0008989749469756281
249	0xbf8536c1bc8a7f0c	-0.010358346525492411
250	0x3fb268c4bae7c92c	0.07191114009018368
251	0x3fd08ada3f1b45de	0.25847488558528464
252	0xbfc54423b8673464	-0.1661419535070393
253	0xbfd8e129cfc3dbc3	-0.388742878814295
254	0x3fdea9bb65f50e77	0.4791096206356324
255	0xbfbc0d6f1dce1af3	-0.10957998731292289

layers.1.bias f8 [50]
0	0xbfaaf4e178999d2a	-0.052649541827856375
1	0x3fb4344c99adaaf0	0.07892302276529128
2	0x3fba8bfacfd81bdc	0.10369842123337442
3	0xbf95472e80712e8a	-0.02077934893558945
4	0xbfb4f3a04cef4505	-0.08184244039809492
5	0x3fb2fefcd10f5f42	0.07420330146794377
6	0x3fd000c6c5bc1315	0.2500473910334205
7	0x3fb457f4b45c91f1	0.07946710017547055
8	0x3fa081caba999298	0.03224023368674017
9	0x3fc0f0dca39bbd1d	0.1323505209797781
10	0x3f94094b7ada05cd	0.01956670701338741
11	0x3fb6efeb44445026	0.08959837357207387
12	0x3faee616e7d7b443	0.06034919338331026
13	0x3f9eb7d839ab658a	0.029998186607235
14	0xbfb9128cdb233207	-0.09793930387531456
15	0x3f8d0c3b39a11d18	0.014183485695083806
16	0xbfb1246f2ecf0b3f	-0.06696219342033503
17	0xbfbce36a4adb3bf2	-0.11284508063839363
18	0xbfa72f1f0d3d595b	-0.04528138195626027
19	0x3fb0e540586f2ef1	0.06599809798279545
20	0x3fc6ad370d1e1196	0.17716110363484167
21	0xbf7f57e7e711d549	-0.007652192945092403
22	0xbfaa49dd1603c235	-0.051344784676875234
23	0xbf604c4accaf9645	-0.0019895039490503163
24	0x3fa9e0790fe635bb	0.050540717306926074
25	0xbfc516f54990fcd5	-0.16476312725169487
26	0x3fb571140584f044	0.08375668654201812
27	0x3fc5bb4de27990a9	0.16977857168524693
28	0xbfaa77946d6d3b47	-0.05169357143187497
29	0x3fa27687c68a7d7f	0.03606056498142162
30	0x3fbb386beed71a51	0.10632967549381901
31	0x3fc087ffa2111a42	0.12915034688394839
32	0xbf952cb4c1512da0	-0.02067835264123874
33	0xbfc278bded15bf20	-0.144309750332007
34	0xbfa43836beee8719	-0.039491377646539934
35	0xbf82a101b92c6bfe	-0.009096158469722223
36	0x3f9d62b16438e0f3	0.028696796171261373
37	0xbfbfbbda782f5288	-0.12396016534996523
38	0x3fa91753dafbc45d	0.04900610016000748
39	0x3fb731d46c17c0a9	0.09060409201606724
40	0x3fb2c7d38eae0919	0.0733616088237209
41	0x3faafd846ef50361	0.05271543364006593
42	0xbfaec36b6a29b5c4	-0.06008468314108087
43	0xbf9e28578a9165a5	-0.029450767357365532
44	0xbf91f0fc6cad714a	-0.017520851262234495
45	0x3fc1c12c249bb201	0.13870765483387973
46	0x3fa8783eb0f47569	0.047792395688001595
47	0xbf97f184956992cc	-0.023382255191239307
48	0xbf901cc61579f841	-0.01573476320344747
49	0xbf8ff617699b87d7	-0.015606100950609587
