main/discrete_time_identification (KdV)/models_iters/KdV_noisy_4000.pt (torch, 66410 bytes, 14 tensors)

linear_in.weight f4 [50, 1]
0	0xbd9440ac	-0.07238898
1	0xbdeb8540	-0.11500025
2	0x3dd5ad47	0.10433441
3	0x3eb87fc3	0.36034974
4	0x3d8cdf0c	0.0687848
5	0xbdc5217c	-0.09625527
6	0x3f023163	0.5085661
7	0x3d337a2d	0.043817688
8	0xbdb61f0f	-0.08892643
9	0xbea1d106	-0.31604785
10	0xb8aacb8f	-8.1441474e-05
11	0x3e472fd3	0.19451837
12	0xbb79db39	-0.0038125052
13	0xbe66476c	-0.22488183
14	0x3e9e7f83	0.3095666
15	0xbee8e38e	-0.4548611
16	0xbe2e4706	-0.17019281
17	0xbdc85b28	-0.09783012
18	0xbe4036a3	-0.18770842
19	0x3e91cbad	0.28475705
20	0xbea68207	-0.32521078
21	0x3e335bb1	0.17515446
22	0x3ce2c9cb	0.027684113
23	0x3ee78529	0.4521878
24	0xbe8dee42	-0.2772084
25	0xbd10e67d	-0.03537606
26	0x3d4affce	0.04956036
27	0xbdb92d81	-0.09041882
28	0xbc2ca8cd	-0.010538292
29	0x3e9135da	0.28361398
30	0x3ee4be9a	0.44676667
31	0xbc0ae6da	-0.008477891
32	0x3da3c4b1	0.079965
33	0xbe1b52b0	-0.15168262
34	0x3e7ad5ec	0.24495667
35	0xbd550319	-0.052004907
36	0x3eadceb1	0.33946756
37	0x3efde8d3	0.49591693
38	0x3e865b02	0.26241308
39	0xbde787ac	-0.11305174
40	0xbcb58ad5	-0.022160927
41	0xbe5bbaf5	-0.21458037
42	0xbe912849	-0.28351048
43	0x3d520e38	0.05128309
44	0x3d1d7822	0.038444646
45	0xbd29d9d5	-0.041467506
46	0x3e6fe879	0.23428525
47	0xbe256c4b	-0.16154592
48	0x3d91cdf0	0.071193576
49	0xbe123742	-0.14278892

linear_in.bias f4 [50]
0	0x3dbff295	0.09372441
1	0x3c92e30c	0.01793053
2	0x3db05daa	0.08611615
3	0x3e003fa9	0.12524284
4	0xbdabf495	-0.0839626
5	0xbd919816	-0.07109086
6	0xbc7c86a3	-0.015412959
7	0xbcd25803	-0.025676733
8	0x3d9a515e	0.07535051
9	0x3cddbfa3	0.027068919
10	0xbd96b3d9	-0.07358522
11	0xbd800eb3	-0.06252804
12	0xbd8e61e8	-0.06952268
13	0x3ce30a68	0.027714923
14	0xbc0abe3a	-0.008468205
15	0x3d3d4527	0.046208527
16	0x3c134547	0.008988685
17	0xbe025263	-0.1272674
18	0x3da1384f	0.07872068
19	0xbd479803	-0.048728954
20	0xbd5d1a96	-0.053980432
21	0x3dd94810	0.10609448
22	0xbd9acb5c	-0.07558319
23	0xbcd4131e	-0.025888022
24	0x3d888c87	0.066674285
25	0x3d553cc1	0.052059893
26	0xbd9c1962	-0.07622029
27	0x3d956192	0.07294001
28	0xbd8d2f88	-0.068938315
29	0x3aa44884	0.0012533818
30	0xbd949cd0	-0.07256472
31	0x3d844ffd	0.06460569
32	0xbdaf972c	-0.085737556
33	0x3d914202	0.07092668
34	0xbd2ca64e	-0.042150788
35	0xbda8156b	-0.0820721
36	0xbd223b47	-0.039607313
37	0xbd49988c	-0.049217746
38	0xbd58009c	-0.052734956
39	0x3d9c182f	0.076218
40	0x3d6ed6e5	0.05831041
41	0x3d3bf915	0.04589184
42	0x3d866e24	0.065639764
43	0xbda1e422	-0.07904841
44	0xbdc470d7	-0.09591835
45	0xbda26de8	-0.07931119
46	0xbd65ad28	-0.056073338
47	0xbd521419	-0.051288698
48	0xbd9c3932	-0.07628097
49	0x3d050746	0.03247764

linear_out.weight f4 [50, 50]
0	0xbe35bb1b	-0.17747156
1	0xbe02d623	-0.12776999
2	0xbaf04bfa	-0.001833319
3	0xbe83851c	-0.25687492
4	0x3d9e8473	0.077401064
5	0xbce13191	-0.027489455
6	0xbdfef8d7	-0.12449806
7	0xbd73207b	-0.059357148
8	0x3caff9bd	0.02148139
9	0x3d2af11a	0.04173384
10	0x3e423982	0.1896725
11	0x3e50aa08	0.20377362
12	0x3d96cbd6	0.07363097
13	0x3e2741b1	0.16333653
14	0x3c4ac0dc	0.012375083
15	0x3cf8a8f7	0.030354006
16	0xbea64e29	-0.32481506
17	0x3e6a3ed9	0.22875537
18	0x3c98057d	0.018557305
19	0x3ea23d68	0.31687474
20	0xbb87610d	-0.0041314424
21	0xbdc0f9a7	-0.094226174
22	0xbe08d854	-0.13363773
23	0x3e2b4943	0.16727166
24	0xbd8d4604	-0.0689812
25	0xbea66e61	-0.32506087
26	0xbdfcba94	-0.123402745
27	0x3d976ba2	0.07393576
28	0xbe6708f0	-0.22562003
29	0xbd02107b	-0.031754
30	0x3d3920de	0.04519736
31	0xbe0c40d6	-0.13696608
32	0x3deb8ab2	0.115010634
33	0x3ec1f7e7	0.37884447
34	0xbe24d4b8	-0.16096771
35	0xbd9b4dd9	-0.07583208
36	0xbe8b57fe	-0.2721557
37	0xbea50eac	-0.32237756
38	0x3d9d8df4	0.07693091
39	0x3e3653a6	0.17805347
40	0x3db512bd	0.08841465
41	0xbce4a322	-0.027909819
42	0x3e19845e	0.149919
43	0xbe22e9a7	-0.15909444
44	0xbdd7af07	-0.10531431
45	0xbd0db883	-0.034599792
46	0x3e046b2e	0.12931511
47	0x3dab123e	0.08353089
48	0xbeade7f4	-0.3396603
49	0xbd3817ac	-0.04494445
50	0x3c9363ea	0.017991979
51	0xbeab3646	-0.33439845
52	0x3bdc47d3	0.0067224293
53	0xbe673ce7	-0.22581826
54	0xbd1378dc	-0.036003932
55	0x3df48412	0.11939253
56	0xbd0988cf	-0.033577736
57	0xbd332fed	-0.043746877
58	0x3d4cb47e	0.04997682
59	0xbcd48e33	-0.025946712
60	0x3cf2f02a	0.029655535
61	0xbdb7cdd2	-0.08974804
62	0xbd6c82eb	-0.05774204
63	0x3df15a3d	0.1178479
64	0x3eb39a02	0.35078436
65	0xbd33d08f	-0.04390007
66	0x3d8c1013	0.068390034
67	0xbdb0c757	-0.08631771
68	0xbdb02749	-0.08601243
69	0x3e5f22a2	0.21790555
70	0xbd18b802	-0.03728486
71	0xbe37a571	-0.17934205
72	0x3e981823	0.29705915
73	0xbd86f70d	-0.0659009
74	0xbd21f078	-0.03953597
75	0xbba2783c	-0.0049581807
76	0x3dc803fd	0.09766386
77	0xbc543d25	-0.012954031
78	0xbe90ff40	-0.2831974
79	0x3d6bd1ab	0.057573
80	0x3d99e0f6	0.07513611
81	0x3d4ce852	0.050026245
82	0x3d0131b1	0.03154153
83	0x3e8f91ba	0.28040868
84	0xbe775794	-0.24154502
85	0xbd903a2d	-0.07042346
86	0xbee2ab7b	-0.44271454
87	0xbba01361	-0.0048851226
88	0xbe2edd33	-0.17076568
89	0x3c99805f	0.01873797
90	0x3d93a174	0.07208529
91	0x3d0a6287	0.03378537
92	0xbd8daf99	-0.06918258
93	0xbe8b8c9a	-0.27255708
94	0xbdb23474	-0.08701411
95	0xbe364521	-0.17799808
96	0x3d66ca45	0.056345243
97	0xbe4b7d3b	-0.1987199
98	0xbe2a26dc	-0.16616386
99	0x3dd47736	0.103743
100	0xbd938e02	-0.0720482
101	0xbdfea648	-0.124340594
102	0x3c432734	0.011911202
103	0xbea8860c	-0.3291477
104	0x3e65165b	0.22371809
105	0x3e3bf5ea	0.18355528
106	0xbdc895c9	-0.09794194
107	0xbc7e1133	-0.01550703
108	0xbdb5172d	-0.08842311
109	0x3d2499f8	0.0401859
110	0x3e9618bf	0.29315755
111	0x3df016b8	0.11723083
112	0x3e27c7b2	0.16384771
113	0x3e93b379	0.28847864
114	0x3e3aeb10	0.18253732
115	0x3e32d835	0.17465289
116	0x3ce75f7e	0.028243776
117	0x3ddff9d8	0.10936326
118	0x3cbe7ca4	0.023252793
119	0x3e7ac402	0.24488834
120	0xbe1450ac	-0.14483899
121	0xbc006c8a	-0.007838378
122	0x3e922290	0.28541994
123	0x3de3f1a9	0.111300774
124	0xbe370cdf	-0.17876004
125	0xbe8397e8	-0.25701833
126	0xbe47cc85	-0.19511612
127	0x3c28f4c3	0.010312262
128	0xbe34b908	-0.17648709
129	0x3e6ab909	0.22922148
130	0xbdca0cf8	-0.09865755
131	0xbe4a8d9c	-0.19780582
132	0x3bdf5015	0.0068149664
133	0xbdacc112	-0.08435263
134	0xbe6a45e9	-0.22878231
135	0xbe971c7f	-0.29513928
136	0xbe63df2c	-0.22253102
137	0x3dac5012	0.0841371
138	0xbd3393b7	-0.043842044
139	0xbce73423	-0.028223103
140	0x3e6b2a2e	0.22965309
141	0x3e31a570	0.17348266
142	0x3d48bade	0.049006335
143	0xbe63a66f	-0.22231458
144	0xbe0bde25	-0.1365896
145	0xbe9febe5	-0.3123466
146	0xbc66330d	-0.014050257
147	0xbdc5e378	-0.09662527
148	0xbed2477c	-0.41070163
149	0xbe692b0c	-0.22770327
150	0xbe598e4f	-0.21245693
151	0xbe552664	-0.20815426
152	0x3e28531e	0.16437957
153	0xbea4cde0	-0.3218832
154	0xbd3d487e	-0.046211712
155	0x3e9febb2	0.3123451
156	0xbd28ada9	-0.04118124
157	0xbc1980d2	-0.009369092
158	0xbd84ae62	-0.064785734
159	0x3e00c125	0.12573679
160	0x3d3e9516	0.0465289
161	0x3df3e33f	0.11908578
162	0x3e1e51be	0.1546087
163	0x3ebcc447	0.36868498
164	0x3dd453a8	0.10367519
165	0xbd9d1130	-0.07669294
166	0xbe07a2dc	-0.1324572
167	0x3e22ab8c	0.15885752
168	0xbe07f29b	-0.1327614
169	0x3e742104	0.2384072
170	0xbe6be046	-0.23034772
171	0x3c7e75af	0.015530988
172	0x3e3b294f	0.18277477
173	0xbca5d6a7	-0.020243956
174	0xbec4e10c	-0.38452947
175	0xbd56fc28	-0.05248657
176	0xbd7ba30d	-0.061434794
177	0x3d981696	0.07426183
178	0xbdb98fce	-0.09060632
179	0x3e83f11d	0.25769892
180	0x3e9b53ef	0.30337474
181	0xbe24bd10	-0.16087747
182	0xbd87552e	-0.066080436
183	0xbdabaa8f	-0.08382141
184	0x3cb7a7ce	0.022418883
185	0xbd4706dd	-0.04859053
186	0xbeb4a333	-0.3528076
187	0x3b93985d	0.004504247
188	0xbdddd530	-0.10831678
189	0x3c474be7	0.012164093
190	0x3e79d306	0.24396905
191	0x3e5e8dc1	0.21733762
192	0x3b51ba92	0.0032002074
193	0xbd0b3692	-0.03398759
194	0xbd7be0dc	-0.06149374
195	0xbe672a11	-0.22574641
196	0xbe466b69	-0.19376911
197	0xbde07177	-0.10959142
198	0x3d774454	0.060367897
199	0x3e1c843d	0.1528482
200	0x3c991fcc	0.01869192
201	0xbce3814d	-0.027771616
202	0x3cfa6c9c	0.030569367
203	0xbe50c1b1	-0.20386387
204	0xbe8b79f9	-0.27241495
205	0x3e7d9685	0.2476445
206	0xbca9a046	-0.020706307
207	0xbd3f21ba	-0.046663024
208	0xbd0e84c3	-0.03479458
209	0x3dfb4efc	0.122709244
210	0x3dde8af8	0.1086635
211	0xbc8c5dee	-0.017134633
212	0x3e01e0cf	0.12683414
213	0x3e4a57d2	0.19760063
214	0x3e38b1e3	0.18036608
215	0xbd847007	-0.0646668
216	0xbdd671b6	-0.104709074
217	0xbdd61bf7	-0.104545526
218	0xbcd0317c	-0.025414221
219	0x3df22efd	0.118253686
220	0xbdf26662	-0.11835934
221	0x3c61b35a	0.013775671
222	0x3e75fd79	0.24022473
223	0xbdc367b0	-0.09541261
224	0xbe1e5421	-0.1546178
225	0xbe3416ae	-0.17586777
226	0x3d0209f0	0.03174776
227	0x3cf8714c	0.030327462
228	0xbe5ffba7	-0.21873342
229	0x3e56f422	0.20991567
230	0x3dea60f1	0.11444271
231	0xbc883560	-0.016627014
232	0x3d3a19ac	0.04543464
233	0x3e308ac5	0.17240436
234	0xbd9af5dd	-0.07566426
235	0x3e32a9be	0.17447564
236	0xbe9946d5	-0.29936853
237	0xbd95dbf9	-0.07317347
238	0xbc130126	-0.008972442
239	0x3cc12d18	0.023581073
240	0x3ecc06b1	0.39848855
241	0xbcd49496	-0.025949758
242	0x3e6fde8d	0.2342474
243	0x3d495eec	0.04916279
244	0xbdad0214	-0.08447662
245	0xbe6604a6	-0.2246271
246	0xbd3679a5	-0.044549603
247	0x3ce19269	0.027535634
248	0x3dd439f7	0.103626184
249	0x3de76403	0.112983726
250	0xbe4b8d6a	-0.19878164
251	0xbe459e65	-0.19298704
252	0x3e5560f0	0.2083776
253	0xbe81cb18	-0.2535026
254	0xbccd4ccf	-0.02506104
255	0x3e1a70a6	0.15082034

linear_out.bias f4 [50]
0	0xbe32d6f0	-0.17464805
1	0xbe67022a	-0.2255942
2	0xbd338cb6	-0.043835364
3	0xbde59307	-0.11209684
4	0xbde20106	-0.110353515
5	0xbde40e4e	-0.11135541
6	0xbde4bfb8	-0.1116938
7	0xbde2e095	-0.11077992
8	0xbde8aab5	-0.11360685
9	0xbdec1c65	-0.11528853
10	0xbda6f3af	-0.08151948
11	0xbdcbed7f	-0.09957408
12	0xbd5180b9	-0.05114815
13	0xbd869284	-0.065709144
14	0xbdde9ec9	-0.108701296
15	0xbd22793d	-0.039666403
16	0xbddf52f4	-0.10904494
17	0xbdc56c5e	-0.0963981
18	0xbda4be0d	-0.08044062
19	0xbdea9ec3	-0.11456063
20	0xbd9e098c	-0.07716665
21	0xbd974fc8	-0.07388264
22	0xbc8c7966	-0.017147731
23	0xbd19a73d	-0.037513006
24	0xbd9a66e2	-0.075391546
25	0xbca40842	-0.020023469
26	0xbd0feb52	-0.03513653
27	0x3b84e0fa	0.0040551396
28	0xb90937eb	-0.00013086169
29	0xbcf44058	-0.029815838
30	0xbd4b6e0c	-0.049665496
31	0xbbec9e0b	-0.0072209886
32	0xbde815cf	-0.11332285
33	0xbd632deb	-0.055463713
34	0xbdae2d54	-0.085047394
35	0xbdd92a43	-0.10603764
36	0x3d826276	0.06366436
37	0xbd47b574	-0.04875703
38	0xbd59598f	-0.053063925
39	0xbcd0cb5a	-0.02548759
40	0xbd694595	-0.056951124
41	0xbdb3cf85	-0.087798156
42	0xbdbc9380	-0.09207821
43	0xbc56799d	-0.013090518
44	0xbdb0a29c	-0.08624765
45	0xbd65df86	-0.05612137
46	0xbe3e60a0	-0.18591547
47	0xbbe0484a	-0.006844555
48	0xbdae9b6c	-0.08525738
49	0xbd564260	-0.052309394

layers.0.weight f4 [50, 50]
0	0x3d0a560c	0.033773467
1	0x3cf0c700	0.029391766
2	0xbde9ccbb	-0.11416002
3	0xbde7438e	-0.11292182
4	0x3c1c8077	0.009552113
5	0x3c3d0626	0.01153711
6	0xbe6d692e	-0.23184654
7	0x3df67e41	0.120358
8	0xbd9e811a	-0.07739468
9	0x3ce90cef	0.02844855
10	0x3e0e2d89	0.13884558
11	0xbd42abca	-0.047527112
12	0x3d9f9f99	0.07794113
13	0xbeb0ccd7	-0.3453128
14	0xbe733ddb	-0.23754065
15	0x3e2c5800	0.16830444
16	0xbd87fedb	-0.06640407
17	0x3e088272	0.13331011
18	0xbc0b7cea	-0.008513669
19	0x3d34a655	0.04410394
20	0x3df74f3e	0.12075661
21	0xbd8b9945	-0.06816343
22	0x3e63adb7	0.22234236
23	0x3df90299	0.121586986
24	0xbd9ec637	-0.0775265
25	0x3d089a2a	0.033350147
26	0x3eb6715a	0.35633355
27	0x3e1ba990	0.15201402
28	0x3e5fc2f7	0.21851717
29	0x3d199cc0	0.037503004
30	0x3d45e3b9	0.048312876
31	0xbda1b5f9	-0.07896037
32	0x3d111881	0.03542376
33	0x3b07a63b	0.0020698446
34	0xbe6557ec	-0.22396821
35	0x3e0750ac	0.13214368
36	0xbe21a667	-0.15786134
37	0x3e01c700	0.12673569
38	0x3d425c7d	0.047451485
39	0x3e21c804	0.15798956
40	0xbd9e7958	-0.07737988
41	0x3e366517	0.17812
42	0x3da58625	0.08082227
43	0xbd90e3cb	-0.07074698
44	0x3dee0b0b	0.116232
45	0x3e63e5a7	0.22255574
46	0xbe19f925	-0.15036447
47	0x3e0cbed7	0.13744675
48	0xbc2641a8	-0.01014749
49	0x3e1d3155	0.1535085
50	0x3d989480	0.07450199
51	0xbea64ba3	-0.3247958
52	0x3dfb81af	0.122805946
53	0x3e0f7937	0.14011084
54	0x3e0e76e4	0.1391254
55	0xbea657ea	-0.32488948
56	0x3ca99a2d	0.0207034
57	0x3d0a6334	0.033786014
58	0xbe0943a6	-0.13404712
59	0x3ce2f106	0.02770282
60	0xbcb4b240	-0.022057652
61	0xbd8f4fd4	-0.06997648
62	0x3e66f7a0	0.22555399
63	0xbe3a20b1	-0.18176533
64	0xbc25c53c	-0.010117825
65	0x3bb84432	0.005623364
66	0xbc4b0d19	-0.012393259
67	0x3d5eafd5	0.054366905
68	0x3e7b39da	0.24533787
69	0xbe605859	-0.21908702
70	0x3d6894df	0.0567826
71	0x3ea1d5f3	0.31608543
72	0x3d175cfa	0.036953904
73	0x3eb6593a	0.3561495
74	0x3e15d35a	0.14631405
75	0x3d9eb8e4	0.07750109
76	0xbdeebf1d	-0.11657546
77	0xbe50c98a	-0.20389381
78	0x3d6d548a	0.05794195
79	0x3e15602b	0.14587466
80	0x3dcf1fcf	0.10113489
81	0x3c92cf20	0.01792103
82	0xbe064eee	-0.13116047
83	0x3c5d3c43	0.013503137
84	0xbd97c65e	-0.074108824
85	0xbb72efba	-0.0037069158
86	0xbd02dbf6	-0.031948052
87	0xbc8e7d70	-0.017393798
88	0x3e8e02a9	0.27736405
89	0x3e4fdf14	0.20299941
90	0x3d50d7b6	0.050986968
91	0xbe37de22	-0.1795583
92	0xbdd09f32	-0.10186614
93	0xbe5fa4c9	-0.21840204
94	0x3d240faa	0.040054
95	0x3c8c7d72	0.01714966
96	0x3cdd9333	0.02704773
97	0xbd316f35	-0.043318946
98	0xbd0ae0ec	-0.03390591
99	0x3de184ef	0.11011683
100	0xbe1dcdf0	-0.1541059
101	0xbb0a3af5	-0.002109227
102	0xbe2f4b93	-0.17118673
103	0xbe9869f6	-0.29768342
104	0xbdbe09e4	-0.0927923
105	0x3c30de7e	0.010795234
106	0xbe09878a	-0.1343061
107	0xbd64fa19	-0.055902574
108	0xbeb01f1c	-0.34398735
109	0x3d3740e6	0.044739626
110	0xbe72dfdd	-0.2371821
111	0x3d2352e1	0.03987396
112	0x3e07f56f	0.13277219
113	0xbe2854cc	-0.16438597
114	0xbf19ebee	-0.60125625
115	0x3ea42729	0.32061127
116	0xbd1b164f	-0.037863072
117	0x3d150f1d	0.036391366
118	0xbdd3af0e	-0.103361234
119	0x3e358fb4	0.177306
120	0x3dc00626	0.09376173
121	0xbe22a3ad	-0.1588275
122	0x3e702210	0.23450494
123	0xbda0e222	-0.078556314
124	0xbd8a85f5	-0.067638315
125	0x3e13f9b5	0.14450724
126	0x3e34d807	0.17660533
127	0xbe0784fc	-0.13234323
128	0xbdb08913	-0.08619895
129	0xbd2c0d06	-0.042004608
130	0x3e1a47e0	0.1506648
131	0xbd218a48	-0.039438516
132	0xbd01c4d4	-0.03168185
133	0x3cf8ec60	0.03038615
134	0xbde377c3	-0.11106827
135	0x3e7906c2	0.24318984
136	0xbd05ba43	-0.032648336
137	0xbe64f981	-0.22360803
138	0x3e83a7d3	0.25713977
139	0xbd2b69e4	-0.041849032
140	0x3e0be937	0.13663183
141	0xbc9871ff	-0.018609045
142	0x3df1f69f	0.11814617
143	0xbded50dc	-0.11587688
144	0xbd0755e0	-0.03304088
145	0x3e10c702	0.14138415
146	0x3953ac98	0.00020186824
147	0xbd536645	-0.051611204
148	0xbc7d1568	-0.015446998
149	0xbd43bb24	-0.047785893
150	0x3eb13f0d	0.34618416
151	0x3dbcfcb7	0.09227889
152	0x3e93538f	0.28774688
153	0x3e946571	0.28983644
154	0xbe1637c0	-0.14669704
155	0x3d167017	0.03672799
156	0xbe634c2f	-0.2219703
157	0x3c8e807b	0.017395249
158	0x3b4eb71c	0.0031542247
159	0x3df8436b	0.12122234
160	0xbe50a59c	-0.20375675
161	0x3e72a8ee	0.23697254
162	0xbdd94cc8	-0.10610348
163	0x3d87855e	0.06617235
164	0xbd6e9d57	-0.05825552
165	0xbef1d856	-0.47235364
166	0x3e2e48a7	0.17019902
167	0xbdc22bcd	-0.094810106
168	0xbe211251	-0.15729643
169	0xbd3a71e9	-0.04551879
170	0xbe2e0546	-0.16994199
171	0x3da772e9	0.08176214
172	0xbc34e205	-0.011040215
173	0xbd85fc5e	-0.06542276
174	0xbd88307a	-0.06649871
175	0x3db1a297	0.0867359
176	0xbda86e67	-0.082241826
177	0x3e657410	0.22407556
178	0xbe38900d	-0.18023701
179	0x3e362ec7	0.17791282
180	0xbcded98f	-0.02720335
181	0x3e83957d	0.25699988
182	0x3d5186ed	0.051154066
183	0xbe1549c0	-0.14578915
184	0x3e349ad3	0.17637186
185	0xbe5b138e	-0.21394178
186	0x3e5e0524	0.21681648
187	0xbe819528	-0.2530911
188	0x3e0179a2	0.12644055
189	0x3d12111f	0.03566086
190	0x3e8a3036	0.26989907
191	0xbe1d399e	-0.1535401
192	0x3d7b7ec9	0.06140021
193	0x3c47c48a	0.012192855
194	0x3dec1d06	0.11528973
195	0x3d78b603	0.060720455
196	0x3d809efc	0.06280324
197	0xbe71d1b1	-0.23615147
198	0xbe8931bb	-0.26795754
199	0xbe37f490	-0.17964387
200	0x3e6fcdd0	0.23418355
201	0x3d97dd68	0.07415277
202	0xbe0a0176	-0.1347712
203	0x3c30aae7	0.010782934
204	0xbe4c8a4b	-0.1997463
205	0xbef0ed94	-0.47056258
206	0x3e62e53b	0.22157757
207	0xbe70ce0a	-0.23516098
208	0x3c9c5815	0.01908497
209	0xbe4ad5a7	-0.19808064
210	0xbea6d3e7	-0.32583544
211	0x3d87b1a8	0.06625682
212	0x3ca44f5f	0.020057378
213	0xbe42564e	-0.18978235
214	0x3e8da1aa	0.27662402
215	0xbb9b1a85	-0.004733386
216	0xbe0d6c4a	-0.1381084
217	0xbd0c11b4	-0.03419657
218	0xbe2b7b60	-0.16746283
219	0xbd45b338	-0.04826662
220	0xbdd97fee	-0.10620104
221	0x3d8a41f5	0.067508616
222	0x3d911da3	0.07085731
223	0x3cc4ec8a	0.024038572
224	0xbdbedb0b	-0.09319123
225	0x3c5c3c2c	0.0134420805
226	0x3e80e7f2	0.2517696
227	0x3c43c74c	0.011949372
228	0xbde726b8	-0.11286682
229	0x3e0d8749	0.13821138
230	0xbbe2a011	-0.006916054
231	0xbddd7691	-0.1081363
232	0xbdb7197e	-0.08940409
233	0xbdfe9c82	-0.12432195
234	0x3d088237	0.033327308
235	0x3e79b3ee	0.24385044
236	0xbde87665	-0.11350707
237	0x3d14e1a2	0.036347993
238	0x3d222959	0.039590213
239	0x3e361f66	0.17785415
240	0xbcb99d34	-0.022657968
241	0x3e083e57	0.13305031
242	0xbda1357e	-0.07871531
243	0x3dd91dee	0.10601412
244	0xbbc5a077	-0.006031092
245	0x3dfcc17c	0.12341592
246	0x3e2f42c1	0.17115308
247	0x3e2acc43	0.16679482
248	0xbd2d34f9	-0.042286847
249	0xbcf51bc9	-0.029920476
250	0x3d733190	0.05937344
251	0xbd8649d1	-0.06557048
252	0x3c1bba32	0.009504842
253	0xbe361700	-0.17782211
254	0x3ddc0bbf	0.10744428
255	0xbd6ec3f8	-0.05829236

layers.0.bias f4 [50]
0	0xbda08ffc	-0.07839963
1	0x3d835de1	0.0641439
2	0x38a6c314	7.951833e-05
3	0x3dc5e4a2	0.09662749
4	0xbd16508d	-0.036697913
5	0xbd90a0a9	-0.070618935
6	0x3d8d4867	0.06898575
7	0x3d6f97d9	0.058494423
8	0xbd3b483d	-0.04572319
9	0xbcec0550	-0.028811127
10	0xbd8a94b9	-0.06766648
11	0xbc178990	-0.009249106
12	0x3d9e9418	0.077430904
13	0x3d27ffde	0.0410155
14	0xbdc33e99	-0.09533424
15	0xbdf7c00c	-0.12097177
16	0xbd910a50	-0.07082045
17	0xbaf170ca	-0.0018420455
18	0xbd8261e0	-0.063663244
19	0x3e26d7d6	0.16293272
20	0x3d949cb9	0.07256455
21	0x3d1c6126	0.038178585
22	0x3d34d4bc	0.04414819
23	0xbde404a4	-0.11133698
24	0x3cc12712	0.0235782
25	0x3c77f643	0.015134397
26	0x3d1ad618	0.037801832
27	0xbd3ac7d4	-0.045600727
28	0xbde1d3f9	-0.11026759
29	0xbda96961	-0.082720526
30	0x3d89d66e	0.06730352
31	0x3d5823e5	0.052768607
32	0xbda6e11a	-0.081484035
33	0x3c390e6d	0.011294943
34	0x3dae4a8d	0.08510313
35	0xbdb38055	-0.08764712
36	0xbd87419f	-0.06604313
37	0xbc2166bc	-0.009851154
38	0x3de0555a	0.109537795
39	0x3c8fc838	0.017551526
40	0xbd80d6dc	-0.06290981
41	0xbdc8bdd8	-0.09801835
42	0x3d47cfa5	0.04878201
43	0xbc9a6f48	-0.018851891
44	0xbd4fc3a7	-0.050723698
45	0xbda6098e	-0.08107291
46	0x3d1d3c8f	0.03838783
47	0xba422deb	-0.0007407355
48	0x3dda1e36	0.106502935
49	0xbd919131	-0.07107771

layers.1.weight f4 [50, 50]
0	0x3d9d1550	0.07670081
1	0x3d6360f8	0.0555124
2	0xbe72379a	-0.23654023
3	0xbe41be7a	-0.18920317
4	0x3e61775a	0.22018185
5	0xbc201393	-0.009770292
6	0xbe049b42	-0.12949851
7	0x3b0d8f28	0.002160022
8	0x3d73afcc	0.059493825
9	0x3dfba704	0.12287715
10	0x3e48d36b	0.196119
11	0xbcc98845	-0.024601111
12	0x3b32c409	0.002727749
13	0x3e044d43	0.12920098
14	0x3ce77a64	0.028256603
15	0x3d18f06f	0.03733867
16	0x3df7d85e	0.12101816
17	0x3b20a6f0	0.0024513565
18	0x3dad3f98	0.08459395
19	0xbe081bc6	-0.13291845
20	0xbc3ccaef	-0.0115229925
21	0x3c69f3b6	0.014279297
22	0xbd12bcc7	-0.035824563
23	0xbe2ebc29	-0.17063965
24	0x3cab0140	0.02087462
25	0xbd435735	-0.04769059
26	0x3df2e34c	0.1185976
27	0xbe1927de	-0.14956614
28	0x3e41eb6b	0.18937461
29	0x3df7bb09	0.12096221
30	0xbe3516b3	-0.1768444
31	0xbe6de62c	-0.23232335
32	0xbe69b5b9	-0.22823228
33	0xbd06b798	-0.032889932
34	0xbe0f7c3d	-0.14012237
35	0xbe6b45e6	-0.22975883
36	0xbdc8d359	-0.09805936
37	0xbe7f6c4c	-0.24943656
38	0xbdb73a44	-0.0894666
39	0x3dc3c018	0.09558123
40	0xbd737d0d	-0.05944543
41	0x3dd7568a	0.10514553
42	0x3e139082	0.14410594
43	0xbdf9a02f	-0.12188756
44	0xbe7c6b85	-0.2465039
45	0x3dcd9fc8	0.100402415
46	0xbe031372	-0.12800387
47	0x3d6b0dcd	0.05738621
48	0xbe6c997e	-0.23105428
49	0xbd6acffc	-0.057327256
50	0x39c1a4a6	0.000369345
51	0x3df51bc3	0.11968186
52	0x3dfc28d4	0.12312475
53	0x3c3e67fa	0.01162147
54	0x3e063845	0.13107403
55	0x3d233e40	0.039854288
56	0xbd6eabdb	-0.058269363
57	0xbdbafcc3	-0.09130242
58	0x3d25b0e6	0.040451907
59	0xbd676e26	-0.05650153
60	0x3eb32a80	0.34993362
61	0xbe578177	-0.2104548
62	0xbe57b293	-0.21064214
63	0x3e04a1da	0.12952366
64	0xbe000e7b	-0.12505524
65	0xbe426669	-0.18984379
66	0xbe966ace	-0.2937836
67	0x3e8554b9	0.260412
68	0xbb650a88	-0.0034948904
69	0xbe5559cb	-0.20835035
70	0xbea70ba6	-0.32626075
71	0x3e87ff00	0.26561737
72	0xbeaf42ba	-0.34230596
73	0xbdd705f2	-0.10499181
74	0xbd60dd73	-0.05489869
75	0xbd0f2240	-0.034944773
76	0x3dc943c0	0.098273754
77	0xbe0c75e9	-0.13716854
78	0x3d92350b	0.071390234
79	0xbd88820d	-0.0666543
80	0xbe434a59	-0.1907133
81	0xbdbe85cc	-0.093028635
82	0x3e543044	0.20721537
83	0x3dcebab6	0.10094206
84	0xbea4f2f2	-0.32216603
85	0x3cdaf716	0.026729148
86	0x3d7a5918	0.061120123
87	0xbddb537d	-0.107092835
88	0x3e199be0	0.15000868
89	0xbc81c912	-0.015842948
90	0xbdae67c7	-0.08515888
91	0x3e0565d8	0.13027132
92	0x3e018dd4	0.1265176
93	0x3db84f83	0.08999541
94	0xbd43b46c	-0.047779486
95	0x3e863af1	0.26216844
96	0x3e816e56	0.25279492
97	0xbe250896	-0.16116557
98	0xbba39f01	-0.00499332
99	0x3d88e13c	0.06683585
100	0xbd2e7157	-0.042588558
101	0xbcafddd3	-0.021468079
102	0x3d78d7bc	0.060752615
103	0xbe0ad6f1	-0.13558556
104	0x3e3a6a31	0.18204571
105	0x3d319099	0.04335079
106	0xbe5be543	-0.21474175
107	0x3d38b977	0.045098748
108	0x3bc3aa3a	0.0059712203
109	0x3be11e9b	0.0068701035
110	0x3e146ddc	0.14495033
111	0xbe07d304	-0.1326409
112	0xbc3dda9e	-0.011587767
113	0x3e3fc1ee	0.18726322
114	0x3e70ab9d	0.23502965
115	0x3e3c7e4b	0.18407552
116	0x3e26652c	0.16249532
117	0x3cb8e510	0.022570163
118	0x3e4af25f	0.1981902
119	0xbdec1f75	-0.115294375
120	0x3de96f1e	0.11398147
121	0xbe7dbcb1	-0.24779011
122	0xbd87f4f8	-0.06638521
123	0x3eafdd40	0.34348488
124	0xbb276617	-0.0025543028
125	0xbda36339	-0.079779096
126	0x3d6326d2	0.055456944
127	0x3d99501d	0.074859835
128	0x3dc6376a	0.09678538
129	0xbe0424a8	-0.12904608
130	0xbe227ea5	-0.15868624
131	0xbd9c79de	-0.07640432
132	0x3d819732	0.06327666
133	0x3ca0407f	0.019562004
134	0xbe48c60d	-0.196068
135	0x3d7825a3	0.06058277
136	0x3e8d0b07	0.27547476
137	0xbdfa1657	-0.12211292
138	0xbe728a7f	-0.23685645
139	0x3e86e98a	0.2635005
140	0xbd672a4e	-0.05643683
141	0x3e16efa2	0.1473985
142	0xbaf943a2	-0.0019017349
143	0x3d240518	0.04004392
144	0x3e9c1e6f	0.3049197
145	0x3cf87fa2	0.030334298
146	0x3e35eecb	0.17766874
147	0x3e028df0	0.12749457
148	0xbe2e7808	-0.17037976
149	0x3e34c542	0.17653373
150	0x3d46f908	0.04857734
151	0x3dd14cc7	0.10219722
152	0x3d588db7	0.052869525
153	0x3ebf6ab0	0.37386084
154	0x3cf47b2c	0.02984389
155	0x3d816107	0.063173346
156	0xbdae7f87	-0.08520418
157	0xbdc569d8	-0.09639329
158	0xbdd3095b	-0.10304519
159	0x3d6f40d1	0.058411423
160	0xbc9f90c3	-0.019478207
161	0xbd61c82e	-0.055122547
162	0xbe1f6870	-0.15567183
163	0xbd55385b	-0.052055698
164	0xbc120030	-0.0089111775
165	0x3d510a2b	0.051035088
166	0x3ea43aac	0.32076013
167	0xbd82b51a	-0.06382199
168	0xbdcbb2cc	-0.09946212
169	0xbe08b8d7	-0.13351761
170	0xbe210119	-0.15723075
171	0xbbfbd90a	-0.007685785
172	0x3daa7fe2	0.08325173
173	0xbe11fb06	-0.14255914
174	0x3d0f08b5	0.034920413
175	0xbda00ce9	-0.078149624
176	0x3d9b5faa	0.07586606
177	0x3e74b0a0	0.23895502
178	0xbd9e8e6b	-0.07742008
179	0xbd9a5920	-0.075365305
180	0xbea79a2c	-0.3273481
181	0xbd7ceb7f	-0.061748024
182	0xbb69cde2	-0.0035675694
183	0xbd403922	-0.046929486
184	0xbe9fb67c	-0.31193912
185	0xbd7e8f16	-0.062148176
186	0x3e54bcae	0.207751
187	0xbdf75af1	-0.120778926
188	0x3d5a2d4b	0.05326585
189	0x3dc19823	0.09452846
190	0xbdb3f05d	-0.0878608
191	0xbd2dce83	-0.042433273
192	0x3dab0107	0.08349805
193	0x3e7748fa	0.24148932
194	0x3eb45e6e	0.35228294
195	0xbcc864ef	-0.024462191
196	0xbe3355ce	-0.175132
197	0x3d431b55	0.047633488
198	0xbe094684	-0.13405806
199	0x3eb42299	0.35182646
200	0xbe318380	-0.1733532
201	0x3da050dc	0.07827923
202	0x3dab5987	0.08366685
203	0x3ca67012	0.020317111
204	0x3cc8bd70	0.024504393
205	0xbdeafc08	-0.114738524
206	0x3e02136f	0.12702726
207	0xbe179f0a	-0.14806762
208	0xbd804fbd	-0.06265209
209	0x3d66e526	0.056370877
210	0xbdc38b5a	-0.095480636
211	0x3decf38f	0.115698926
212	0x3db605f4	0.08887854
213	0x3d92ddd7	0.07171219
214	0xbdf6ed53	-0.12056985
215	0xbde23203	-0.11044695
216	0xbd8acd33	-0.0677742
217	0xbde00fd9	-0.10940523
218	0xbe3ec7ae	-0.1863086
219	0x3e04de4a	0.12975422
220	0x3e838e38	0.25694442
221	0xbe07d6d7	-0.13265549
222	0x3e37c604	0.1794663
223	0xbd7e411c	-0.062073812
224	0xbd728f77	-0.05921885
225	0xbd22a99e	-0.03971254
226	0xbd638cb1	-0.055554096
227	0xbcf99c44	-0.030470021
228	0xbdb4d8ca	-0.08830412
229	0xbde30b0c	-0.110860914
230	0x3e87eca6	0.26547736
231	0x3e3706c2	0.17873672
232	0x3d8402b8	0.06445831
233	0xbe840cdf	-0.2579107
234	0x3daf2df1	0.085536845
235	0xbd88087a	-0.06642242
236	0xbe069b77	-0.13145243
237	0x3c83e15c	0.01609867
238	0x3dc66840	0.09687853
239	0xbe59f11e	-0.21283385
240	0x3d2d1663	0.042257678
241	0xbe94aa78	-0.29036307
242	0xbe05145b	-0.12996046
243	0xbe59a4f3	-0.2125433
244	0xbe1bb16b	-0.15204398
245	0xbd072613	-0.032995295
246	0xbdadfcd5	-0.084954895
247	0xbe82e4c5	-0.25565162
248	0x3d6b9c94	0.05752237
249	0xbe799263	-0.24372248
250	0x3e09e565	0.13466413
251	0x3dd18f72	0.10232438
252	0x3dafa35b	0.085760795
253	0xbdc6c734	-0.09705964
254	0xbe1b7e19	-0.15184821
255	0xbd0d695f	-0.034524318

layers.1.bias f4 [50]
0	0xbd779f93	-0.060454916
1	0xbcf7b877	-0.030239327
2	0xbdddedd0	-0.10836375
3	0xbd51bf51	-0.051207844
4	0x3dc0cd6e	0.094141826
5	0xbdb1e522	-0.08686282
6	0x3d25d6fc	0.04048823
7	0x3d677d24	0.056515828
8	0xbd7a05ff	-0.061040875
9	0x3d8c79e8	0.06859189
10	0x3d846655	0.06464831
11	0xbd792175	-0.060822923
12	0xbe19a348	-0.15003693
13	0xbce525f8	-0.027972206
14	0xbc0eabaa	-0.00870792
15	0x3d5557e7	0.052085783
16	0x3af4fac2	0.0018690454
17	0x3d25c229	0.04046837
18	0xbdb3f3c6	-0.087867305
19	0x3d2c9dfd	0.042142857
20	0xbd862dd9	-0.065517135
21	0x3d20a3df	0.03921878
22	0xbcafba35	-0.021451095
23	0x3d3fc2d9	0.04681668
24	0x3cd83f67	0.02639742
25	0x3e964000	0.29345703
26	0xbdb0e39b	-0.08637162
27	0x3d4e461f	0.05035984
28	0x3d71ec95	0.059063513
29	0xbd93206e	-0.0718392
30	0x3cd4dbb4	0.025983669
31	0xbdd4ea51	-0.10396255
32	0x3d413805	0.047172565
33	0x3ae3ff87	0.0017394879
34	0x3dd1f58f	0.10251915
35	0x3d8bd0d1	0.06826938
36	0xbce978b4	-0.028499939
37	0xbdc68f7d	-0.09695337
38	0x3d92e770	0.071730494
39	0xbc88060a	-0.016604442
40	0xbdd6ea40	-0.104938984
41	0xbc8b13ee	-0.016977277
42	0x3d871e60	0.065975904
43	0xbca58c55	-0.020208517
44	0x3d91f572	0.07126893
45	0xbb9d45ff	-0.004799604
46	0xbc804caf	-0.015661566
47	0x3d9d23ee	0.07672869
48	0x3db3c636	0.0877804
49	0xbe024ed4	-0.12725383

layers.2.weight f4 [50, 50]
0	0xbd1240fd	-0.03570651
1	0xbd9dc2f8	-0.07703203
2	0x3e1749e9	0.14774288
3	0xbe8f0b62	-0.27938372
4	0xbda8f527	-0.08249884
5	0xbd94256c	-0.072337
6	0xbe28b21b	-0.16474192
7	0xbe874dc6	-0.26426524
8	0xbbf55642	-0.0074870894
9	0x3d836cae	0.064172134
10	0xbe790a18	-0.24320257
11	0xbde36056	-0.11102359
12	0xbe3805e9	-0.17971005
13	0xbdaea6cf	-0.0852791
14	0xbcc4fcbf	-0.0240463
15	0xbe396d8a	-0.18108192
16	0x3da0d5aa	0.07853253
17	0xbd1fa8d6	-0.038979374
18	0xbc356478	-0.011071317
19	0xbe865ccb	-0.2624267
20	0xbda3b771	-0.07993973
21	0x3ddce4d3	0.10785832
22	0xbe45e51c	-0.1932568
23	0x3e3913b6	0.18073925
24	0xbdfc05dd	-0.12305806
25	0x3e2b9af1	0.16758324
26	0x3b989e28	0.0046575256
27	0x3e3da5ec	0.18520325
28	0xbbb7dc9a	-0.0056110146
29	0xbe873a07	-0.2641146
30	0x3e5cbf9c	0.21557468
31	0xbe650718	-0.22365987
32	0xbe035a32	-0.12827376
33	0xbe610c6c	-0.21977395
34	0x3d749ace	0.059717946
35	0x3cdd9ec5	0.027053246
36	0xbe5e3baf	-0.21702455
37	0xbd3b1579	-0.045674775
38	0x3c75a0ce	0.014991952
39	0xbe633db1	-0.22191502
40	0xbe3541b8	-0.17700851
41	0xbd8fdc60	-0.07024455
42	0x3d86264e	0.06550275
43	0xbc136fc3	-0.008998814
44	0xbe54dce2	-0.20787385
45	0x3e0c6d4b	0.13713567
46	0xbe30851b	-0.17238276
47	0x3e2ba903	0.16763692
48	0x3e555967	0.20834886
49	0xbe0d2887	-0.13784991
50	0x3df559e2	0.119800344
51	0xbc9b43a9	-0.018953161
52	0xbe4e5add	-0.20151849
53	0x3dd5c0bb	0.10437151
54	0x3e88bf7f	0.267086
55	0xbe6e00ab	-0.23242442
56	0x3d82af0a	0.06381042
57	0x3e8d047e	0.2754249
58	0xbd8ec802	-0.06971742
59	0x3e7d0064	0.2470718
60	0x3cf31a7c	0.029675715
61	0xbdc79eec	-0.09747109
62	0x3d7f07fe	0.06226348
63	0x3dcd3bad	0.10021148
64	0xbd263fdc	-0.040588245
65	0xbe0d4241	-0.13794805
66	0xbd052a37	-0.032510962
67	0xbcbc9a36	-0.023022752
68	0xbdd0177b	-0.101607285
69	0x3e3c984f	0.18417476
70	0xbe4b110c	-0.19830722
71	0x3e980e05	0.29698196
72	0x3bf05571	0.007334404
73	0x3e829c5e	0.25509924
74	0x3dfdf5e8	0.124004185
75	0x3e4f2acd	0.20231171
76	0xbc244f2d	-0.010028643
77	0x3d56258a	0.052281894
78	0x3e4503b8	0.192397
79	0xbdc103c7	-0.094245486
80	0xbe6ff9a0	-0.23435068
81	0xbe39a29a	-0.18128434
82	0x3e3ae024	0.18249565
83	0x3d3af1d6	0.04564079
84	0x3dc1e405	0.094673194
85	0x3eaa65f7	0.33280918
86	0xbdd6c92c	-0.10487589
87	0xbd93d778	-0.07218832
88	0x3eb1bab0	0.34712744
89	0xbd8f43ec	-0.06995377
90	0xbe28c8e5	-0.16482885
91	0xbd8c570c	-0.068525404
92	0x3dd2252f	0.102609985
93	0xbe8bcf12	-0.2730642
94	0x3d444857	0.04792055
95	0x3e2a5f83	0.16637997
96	0x3d1be36f	0.038058694
97	0x3dd4abac	0.10384306
98	0x3e831c13	0.25607356
99	0xbe442689	-0.19155325
100	0xbc5438c8	-0.012952991
101	0xbe9381e0	-0.28810024
102	0xbe1c7be6	-0.15281639
103	0xbe3d7668	-0.185022
104	0x3e9b83f0	0.30374098
105	0xbe2184e1	-0.15773346
106	0x3e1ef5f4	0.15523511
107	0x3e5c83f9	0.21534719
108	0xbe2b96ba	-0.16756716
109	0x3e1c9b85	0.15293701
110	0x3d78c2e9	0.060732756
111	0xbe5839ff	-0.21115874
112	0x3e1d3170	0.1535089
113	0x3dc5f949	0.09666688
114	0xbea8f7c1	-0.3300152
115	0xbde249eb	-0.11049255
116	0x3e3c13a6	0.1836687
117	0x3e91d2ee	0.2848124
118	0x3cbda4a3	0.023149794
119	0x3da30134	0.07959214
120	0xbe8cc5b8	-0.27494597
121	0x3e5f0c38	0.21782005
122	0xbec1de1f	-0.37864777
123	0x3e7e1d96	0.24815974
124	0x3e22366b	0.15841071
125	0xbe882c37	-0.26596233
126	0x3b2dbf53	0.0026511743
127	0x3e0c2335	0.13685305
128	0x3e333571	0.17500855
129	0xbe445cff	-0.191761
130	0x3dee79a1	0.116442926
131	0xbe9029e9	-0.28156975
132	0x3e348e48	0.17632401
133	0xbe187c9b	-0.14891283
134	0x3e7b60c2	0.24548629
135	0x3e2934d7	0.16524063
136	0xbe8d5dde	-0.27610677
137	0xbea09d67	-0.31370088
138	0x3dacda31	0.08440054
139	0xbeaec0a7	-0.34131357
140	0xbe51b8a2	-0.20480588
141	0x3e3a5351	0.18195845
142	0x3e0ca8d5	0.1373628
143	0x3e8a9d59	0.27073172
144	0x3dff8c27	0.12477904
145	0xbe1be884	-0.15225416
146	0xbdf4c0c7	-0.11950832
147	0xbae6875b	-0.0017587946
148	0x3e785cfd	0.24254222
149	0xbf0cafb3	-0.54955596
150	0x3d15d56d	0.03658049
151	0x3e05a301	0.13050462
152	0x3df104cb	0.11768492
153	0x3e305337	0.17219244
154	0xbe9e59e7	-0.30927965
155	0xbd2c1b64	-0.04201831
156	0xbd82afb8	-0.06381172
157	0xbdda625b	-0.10663291
158	0x3c2633e2	0.010144206
159	0xbefa0172	-0.48829228
160	0xbdadbbf2	-0.08483113
161	0x3e6359f0	0.22202277
162	0x3e917408	0.28408837
163	0x3b8a4e67	0.004220772
164	0xbdae8d4d	-0.08523045
165	0x3ca09bd7	0.01960556
166	0xbceeae9d	-0.029135996
167	0x3c3f8247	0.011688775
168	0x3e225750	0.1585362
169	0x3e53995a	0.20663968
170	0x3de5dec4	0.1122413
171	0xbe6063d6	-0.21913084
172	0x3e779535	0.24178012
173	0xbdbadf0a	-0.091245726
174	0xbc2cc611	-0.01054527
175	0x3dabf87c	0.08397004
176	0x3d3068f8	0.043068856
177	0xbd183fc4	-0.037170187
178	0xbe792e00	-0.24333954
179	0x3e4f844d	0.20265312
180	0x3e058305	0.13038261
181	0xbdf4570a	-0.11930664
182	0xbb57a74f	-0.003290612
183	0x3e9e4024	0.3090831
184	0xbcb160a1	-0.021652522
185	0xbc2bf537	-0.0104954755
186	0xbdf26a25	-0.11836652
187	0x3e02a1cb	0.12757032
188	0x3db9effd	0.09078977
189	0x3c1311e1	0.008976431
190	0x3da9ba1c	0.08287451
191	0x3c587229	0.013210812
192	0xbba8d880	-0.005152762
193	0x3c90a239	0.017655479
194	0xbe377d97	-0.17919002
195	0xbdc83465	-0.097756185
196	0xbcbb677d	-0.022876495
197	0xbe3ba675	-0.18325217
198	0xbe1ee2a7	-0.15516149
199	0x3da7569e	0.08170818
200	0xbe54938c	-0.2075941
201	0xbdadb719	-0.08482189
202	0xbd50008e	-0.05078178
203	0xbd167f1c	-0.036742315
204	0xbe888851	-0.266665
205	0xbe6e09c9	-0.2324592
206	0x3ed03443	0.40664873
207	0x3c3e29df	0.0116066625
208	0xbd3e5976	-0.046472035
209	0x3dc225f2	0.09479894
210	0x3c8f0043	0.01745618
211	0xbe746077	-0.23864923
212	0xba25041e	-0.0006294864
213	0x3e14c236	0.1452721
214	0x39753992	0.00023386467
215	0x3df60e83	0.12014487
216	0x3e2d1b67	0.16904984
217	0xbeae2a60	-0.34016705
218	0x3ebe4e9e	0.37169355
219	0xbe1c605a	-0.1527113
220	0xbdea577c	-0.114424676
221	0xbe03ca50	-0.12870145
222	0xbdf52521	-0.119699724
223	0x3e6dc4ee	0.23219654
224	0x3e1f8a53	0.1558011
225	0xbd9d1183	-0.07669356
226	0xbcce2dd0	-0.02516833
227	0x3d1ba5d7	0.037999954
228	0x3d5fa5d3	0.0546015
229	0xbe89713b	-0.268442
230	0x3d8fa4fe	0.07013892
231	0x3d4edd57	0.050504055
232	0xbe283d6b	-0.16429679
233	0xbdd6a74e	-0.104811296
234	0x3a80fd91	0.0009841194
235	0xbe2883e9	-0.1645657
236	0xbcec94d7	-0.028879566
237	0x3e3b7215	0.18305238
238	0xbdcbbb34	-0.099478155
239	0xbe3537e6	-0.17697105
240	0x3d328036	0.043579303
241	0x3e1e0f33	0.15435486
242	0x3e098a71	0.13431717
243	0x3e1fb896	0.15597758
244	0xbe070d80	-0.13188744
245	0x3e5703a2	0.2099748
246	0xba86e61f	-0.001029197
247	0x3c6cfd27	0.014464653
248	0x3e26987e	0.16269109
249	0xbe786787	-0.24258243
250	0x3e9873d8	0.29775882
251	0x3dcf3740	0.1011796
252	0x3d66d294	0.056353167
253	0x3c3730c2	0.011181058
254	0xbe93b338	-0.2884767
255	0xbcea6e54	-0.028617062

layers.2.bias f4 [50]
0	0x3affef49	0.0019526269
1	0x3de51640	0.111858845
2	0x3d18b591	0.03728253
3	0xbd932eef	-0.07186686
4	0x3c1155fd	0.008870599
5	0xbd850fb7	-0.06497138
6	0xbdba93c8	-0.09110218
7	0xbbbb4fbc	-0.005716292
8	0x3dbfea81	0.093709
9	0x3d445ea8	0.047941834
10	0x3bf47a20	0.0074608475
11	0xbcb82d9b	-0.022482684
12	0x3d5a90e6	0.053360842
13	0xbd60185f	-0.054710742
14	0xbd0b09b8	-0.033944815
15	0xbdd16b94	-0.10225597
16	0x3d160198	0.036622614
17	0xbc3dae53	-0.011577207
18	0x3deffee9	0.11718542
19	0xbdaa7841	-0.08323718
20	0xbcd5539a	-0.02604084
21	0x3d66c132	0.05633659
22	0x3d988e9c	0.074490756
23	0x3d7bf20d	0.061510134
24	0x3d09fed8	0.033690304
25	0x3cf52325	0.029923985
26	0x3d83d469	0.064369984
27	0x3d76c39d	0.060245145
28	0x3e118652	0.14211395
29	0x3d79abee	0.06095498
30	0x3dbc9cc9	0.09209592
31	0x3c1deb0f	0.009638562
32	0xbd99fcc9	-0.07518918
33	0x3d88d80b	0.06681832
34	0x3d8ff5f7	0.07029336
35	0xbd8fe20b	-0.07025536
36	0x3d46ce3b	0.04853652
37	0x3aa3ffa1	0.0012512096
38	0x3da026f6	0.07819931
39	0x3caa5d86	0.020796549
40	0xbca974ba	-0.020685542
41	0xbda07e5d	-0.07836602
42	0x3c88dd3d	0.016707057
43	0x3dbfd292	0.09366335
44	0x3cbd25b7	0.023089273
45	0x3db435a1	0.087992914
46	0xbdd549f9	-0.104145
47	0xbd079961	-0.033105258
48	0xbbc8e9d4	-0.00613139
49	0x3d87f7ec	0.06639084

layers.3.weight f4 [50, 50]
0	0x3e46e8b2	0.19424704
1	0xbd442011	-0.047882143
2	0x3caf0e97	0.021369262
3	0x3d4a8ff4	0.04945369
4	0xbdd7a9b8	-0.10530418
5	0x3cf1240c	0.029436134
6	0xbe250d55	-0.16118367
7	0x3d88deb7	0.066831045
8	0xbd885509	-0.06656844
9	0xbe2ddf46	-0.16979703
10	0xbe264796	-0.16238245
11	0x3d5a0f5d	0.053237308
12	0x3d6819c0	0.056665182
13	0xbd17182b	-0.036888283
14	0xbe4a98a5	-0.19784792
15	0x3d6e3bea	0.058162607
16	0xbdd6c612	-0.10486998
17	0xbd05b32b	-0.03264157
18	0x3e15390c	0.14572543
19	0x3d6fdd7b	0.05856083
20	0xbbe919dd	-0.007113679
21	0x3e0a33a4	0.13496262
22	0x3e12d140	0.14337635
23	0x3e2b02c8	0.1670028
24	0xbcd99e01	-0.0265646
25	0x3e8b22d1	0.27175
26	0x3e580c03	0.21098332
27	0xbe11313a	-0.14178935
28	0x3df263c9	0.11835439
29	0x3e9bbc18	0.30416942
30	0x3de7cf00	0.11318779
31	0xbd885966	-0.066576764
32	0xbe8aa697	-0.27080223
33	0x3e909054	0.28235114
34	0x3b9fd5ed	0.004877797
35	0x3d10a5c8	0.03531435
36	0x3dbef466	0.09323959
37	0x3e50ba3c	0.20383543
38	0xbe948b5f	-0.29012582
39	0x3e397f9e	0.18115088
40	0xbddcbfc2	-0.107787624
41	0xbd4ae424	-0.049533978
42	0x3e8f05d4	0.27934134
43	0xbcebd057	-0.028785868
44	0x3c8128de	0.015766557
45	0x3e0df12f	0.13861535
46	0x3d8a1d03	0.06743815
47	0xbe572623	-0.21010642
48	0xbed938ec	-0.4242624
49	0x3d5a4e16	0.053297125
50	0x3e9bbb0c	0.30416143
51	0x3cd7a830	0.026325315
52	0x3e508f5e	0.2036719
53	0x3e0c521b	0.13703196
54	0x3e2b07b1	0.16702153
55	0xbe82af47	-0.2552435
56	0xbe25bf7d	-0.16186328
57	0xbe01d6ce	-0.12679598
58	0xbe2b770e	-0.16744635
59	0xbe10da72	-0.1414583
60	0xbe63cfda	-0.22247258
61	0xbc450cec	-0.012027007
62	0xbdbecf90	-0.09316933
63	0x3c64f57f	0.013974546
64	0x3e0c8fdd	0.13726754
65	0x3d628572	0.055303045
66	0x3d7dc521	0.061955575
67	0xbef7aaad	-0.48372403
68	0xbe1aed18	-0.15129507
69	0x3d883137	0.06650012
70	0xbc5c3f25	-0.013442789
71	0xbd1f7acb	-0.038935464
72	0xbce47d7b	-0.027891865
73	0x3e3c543b	0.18391506
74	0x3e1d9652	0.15389374
75	0xbde200dd	-0.11035321
76	0x3de2a37f	0.11066341
77	0xbda3e937	-0.080034666
78	0xbd4ce9a9	-0.050027523
79	0xbdc7ca95	-0.09755436
80	0x3e22232a	0.15833727
81	0x3e409558	0.1880697
82	0xbe4abf0f	-0.19799446
83	0xbe56b264	-0.20966488
84	0xbe103a61	-0.1408477
85	0xbd553ac9	-0.052058015
86	0xbdaf3eda	-0.0855691
87	0xbd7cd782	-0.06172896
88	0xbd691b6f	-0.05691093
89	0x3cce894a	0.025211949
90	0xbd55e4f0	-0.052220285
91	0xbd993cc7	-0.074822955
92	0xbea47eab	-0.3212789
93	0xbe86bc6c	-0.2631563
94	0x3e08d4cc	0.13362426
95	0x3ccaa418	0.02473645
96	0x3b8bdf8c	0.004268592
97	0xbd10824b	-0.035280507
98	0xbd06edf9	-0.032941792
99	0x3db035a5	0.08603982
100	0xbd53abd1	-0.05167753
101	0x3e790f48	0.24322236
102	0xbe4e9695	-0.2017463
103	0x3d1778cc	0.036980435
104	0xbd902a5f	-0.07039332
105	0x3e99aaeb	0.30013213
106	0x3ebbea55	0.3670222
107	0x3eafe9dc	0.34358108
108	0x3ea79ba2	0.32735926
109	0x3d0291a9	0.031877194
110	0xbebf4c4b	-0.37362894
111	0x3e515a5e	0.20444629
112	0xbd0512f8	-0.032488793
113	0xbe8d57d0	-0.27606058
114	0x3dd0f287	0.102025084
115	0x3d76121a	0.060075857
116	0x3e803626	0.25041312
117	0x3e872bc6	0.26400584
118	0x3e4f8b4e	0.20267984
119	0xbcf2458e	-0.029574182
120	0x3cdbad19	0.026815938
121	0x3da34f05	0.07974056
122	0xbd443a8a	-0.04790739
123	0x3e0dfaad	0.13865156
124	0xbe0aa366	-0.13538894
125	0xbd0ece94	-0.034864977
126	0x3e683a26	0.22678432
127	0xbe9ac10e	-0.30225414
128	0x3e80c108	0.2514727
129	0xbeeab014	-0.45837462
130	0x3da577fd	0.080795266
131	0xbe3ecac3	-0.18632035
132	0x3e10e80d	0.1415102
133	0xbef49bb1	-0.47775033
134	0xbb23b9e7	-0.0024982633
135	0x3a782f4b	0.00094674964
136	0x3c527bf9	0.01284694
137	0xbe0ec2c7	-0.13941489
138	0xbca7e812	-0.020496402
139	0x3df1dc06	0.11809544
140	0x3e87ac6b	0.26498732
141	0xbe0afef7	-0.13573824
142	0x3df4de4d	0.11956463
143	0x3e115736	0.14193425
144	0xbe1f48b5	-0.1555508
145	0xbdb37553	-0.08762612
146	0xbdeff301	-0.11716271
147	0x3e2162a5	0.15760286
148	0x3e59b215	0.21259339
149	0xbdf51f69	-0.11968882
150	0x3e7b5493	0.24543981
151	0x3e5bacae	0.21452591
152	0x3ea95da3	0.33079252
153	0x3e204ebc	0.15655035
154	0x3dfc51d1	0.12320293
155	0xbe67bffe	-0.22631833
156	0x3d8ffa9b	0.07030221
157	0x3e0179b5	0.12644084
158	0x3e5f9570	0.2183435
159	0xbe7913c5	-0.24323948
160	0x3d841307	0.06448942
161	0x3dba88e5	0.09108142
162	0x3d2c651b	0.04208861
163	0xbe1b222b	-0.15149753
164	0x3decfb76	0.115714
165	0xbd7a3eb1	-0.061094943
166	0xbdab640c	-0.08368692
167	0xbeb7cd12	-0.35898644
168	0x3e5cb850	0.21554685
169	0xbeb160eb	-0.34644255
170	0xbe566c56	-0.20939764
171	0x3c59e97d	0.013300297
172	0x3e5c6d46	0.2152606
173	0x3d2fe13f	0.04293942
174	0x3d787f73	0.06066842
175	0x3dc34371	0.09534348
176	0x3e1b0c5e	0.15141436
177	0x3ec2249f	0.37918565
178	0xbdb4dc4d	-0.088310815
179	0xbdb835d3	-0.08994641
180	0x3d988d4f	0.074488275
181	0x3ebdcb20	0.37069035
182	0xbec4b733	-0.3842102
183	0xbdf8f774	-0.12156573
184	0x3dc7a7f1	0.09748829
185	0xbc9b9e9b	-0.018996527
186	0xbe7380d2	-0.2377961
187	0x3e698647	0.22805129
188	0x3d431efe	0.04763698
189	0xbe954923	-0.2915736
190	0xbe70874c	-0.23489112
191	0xbe339076	-0.17535576
192	0xbe5aec1a	-0.21379128
193	0xbe534d55	-0.20634969
194	0x3e0d0d5f	0.13774632
195	0x3ea7088f	0.32623717
196	0xbe4e0dc4	-0.20122439
197	0x3e546460	0.20741415
198	0xbd63765b	-0.055532794
199	0x3e68dfda	0.22741643
200	0x3d388f91	0.04505879
201	0x3e8ef384	0.27920163
202	0xbd7c75d0	-0.061635792
203	0xbe8c8500	-0.2744522
204	0xbe8041da	-0.2505024
205	0x3dc10b15	0.09425942
206	0xbdee9c74	-0.11650935
207	0x3e2fc608	0.17165387
208	0xbd364af4	-0.044505075
209	0x3e8e79c1	0.27827266
210	0xbe2eeee3	-0.17083316
211	0x3eb45c2a	0.35226566
212	0xbe5e2250	-0.21692777
213	0xbd686038	-0.056732386
214	0xbe2139e8	-0.15744746
215	0xbe0785b1	-0.13234593
216	0x3ca63133	0.020287132
217	0x3ea2c2e7	0.31789324
218	0x3e01b9e8	0.12668574
219	0x3c9ffe04	0.019530304
220	0x3e7152c3	0.23566727
221	0xbdaede4c	-0.085384935
222	0xbd31541b	-0.0432931
223	0x3e2858f1	0.16440178
224	0x3b7baf2c	0.003840397
225	0x3dfbf3af	0.12302338
226	0xbec5ec2a	-0.3865674
227	0xbe7d90d3	-0.24762277
228	0x3e9b574a	0.30340034
229	0xbea4bd5f	-0.3217573
230	0xbd09353c	-0.033498034
231	0xbe43d53c	-0.19124311
232	0xbe485b54	-0.19566089
233	0xbea48cfb	-0.3213881
234	0xbe0b0045	-0.13574322
235	0x3d87a039	0.06622357
236	0x3e3fe0b1	0.18738057
237	0xbd01494b	-0.03156404
238	0x3ce89bf4	0.028394677
239	0x3e760d56	0.24028525
240	0xbda933ae	-0.0826181
241	0xbd86d5b2	-0.06583728
242	0x3e954f66	0.2916214
243	0x3d0555d5	0.03255256
244	0xbea69d3d	-0.32541838
245	0xbdbc8056	-0.09204166
246	0x3e482317	0.19544636
247	0x3e3773a1	0.17915203
248	0x3cfc0585	0.03076435
249	0xbe480a5d	-0.19535203
250	0xbdddb078	-0.10824674
251	0xbe849bca	-0.25900108
252	0xbdbe190b	-0.0928212
253	0x3e111068	0.14166415
254	0xbdd9a2eb	-0.10626777
255	0x3c5e37ac	0.013563078

layers.3.bias f4 [50]
0	0x3d9327dd	0.07185338
1	0xbd98afd1	-0.07455409
2	0xbcba5bf4	-0.022748925
3	0x3b8c022d	0.0042727203
4	0x3d855c25	0.06511716
5	0x3d41e659	0.047338817
6	0xbd90ae23	-0.07064464
7	0x3cec6545	0.028856883
8	0x3daa0bc1	0.08303023
9	0xbdcf01d4	-0.101077706
10	0xbdcda107	-0.10040479
11	0x3c55c1f0	0.013046727
12	0x3d7c229a	0.061556436
13	0x3daca4bc	0.08429858
14	0xbd66aaa5	-0.056315083
15	0x3d2f3702	0.04277707
16	0x3d7d0002	0.061767586
17	0xbd5a9538	-0.053364962
18	0x3da5e250	0.08099806
19	0xbdaf2aed	-0.08553109
20	0xbc806395	-0.015672484
21	0xbdd54d81	-0.10415173
22	0xbdb0de4f	-0.08636152
23	0x3cdfbe8c	0.02731254
24	0xbd0bbb7a	-0.03411434
25	0x3a3b6616	0.0007148696
26	0x3e072165	0.13196333
27	0xbd913737	-0.070906095
28	0xbd64fde4	-0.05590619
29	0x3cbad3c4	0.022806056
30	0xbd5b32a3	-0.053515088
31	0x3be1f4e7	0.0068956497
32	0x3b31886d	0.0027089373
33	0xbd5346f1	-0.051581327
34	0x3d792ac1	0.06083179
35	0x3daab53e	0.083353505
36	0xbb4b10f8	-0.0030985456
37	0xbc698495	-0.014252801
38	0xbc55d9d8	-0.013052426
39	0xbb2987f9	-0.00258684
40	0x3b6f80ba	0.0036545233
41	0x3c89627b	0.016770592
42	0x3c83d122	0.016090933
43	0xbe1a19ff	-0.15048979
44	0x3d1578b4	0.036492065
45	0x3db6b0eb	0.08920463
46	0xbd85e368	-0.06537515
47	0x3db697bb	0.08915659
48	0x3d2a5204	0.041582122
49	0xbc8620df	-0.016373096

layers.4.weight f4 [50, 50]
0	0x3e286d2e	0.16447899
1	0x3beace75	0.007165725
2	0xbe8bff2d	-0.2734312
3	0x3e72a5a9	0.23696007
4	0xbe19fe8f	-0.15038513
5	0xbdf0a1a2	-0.11749579
6	0x3d3a036b	0.045413416
7	0x3e92aef3	0.286491
8	0xbb562d58	-0.0032680836
9	0x3c3d8d78	0.011569373
10	0x3dd70985	0.104998626
11	0xbc0aaac9	-0.00846357
12	0xbe00c83d	-0.12576385
13	0x3d95d916	0.073167965
14	0x3e2f9c5d	0.17149492
15	0x3e5939cb	0.21213453
16	0xbda63119	-0.081148334
17	0x3e469ba2	0.19395307
18	0x3db0c943	0.086321376
19	0x3e8790c1	0.26477626
20	0x3d43af39	0.047774527
21	0x3dc973d9	0.09836549
22	0x3d226389	0.039645705
23	0x3d8f85da	0.07007952
24	0xbe41cf7e	-0.18926808
25	0x3dde2103	0.1084614
26	0xbdef44d6	-0.11683051
27	0x3d96941b	0.073524676
28	0xbe6c9f21	-0.23107578
29	0xbddc5517	-0.10758417
30	0x3d1f9376	0.03895899
31	0xbe18d954	-0.14926654
32	0x3db1652a	0.08661874
33	0xbd2bbf91	-0.04193074
34	0xbe5df259	-0.2167448
35	0xbdbc269a	-0.0918705
36	0xbd6cc1ac	-0.057801887
37	0x3e1dcc69	0.15410008
38	0x3e4df986	0.20114717
39	0x3bf1e050	0.0073814765
40	0xbe4282f6	-0.1899527
41	0xbc7b80c5	-0.015350525
42	0xbd860b3e	-0.06545113
43	0xbda3de08	-0.080013335
44	0xbd7612ad	-0.060076404
45	0x3c91df70	0.017806739
46	0xbdea8a15	-0.11452118
47	0x3d421978	0.04738757
48	0xbe5eaee3	-0.21746401
49	0xbe52ccc3	-0.20585923
50	0xbd8ccc6f	-0.0687493
51	0xbe08cc89	-0.13359274
52	0xbdc80778	-0.097670496
53	0xbc98a02a	-0.01863106
54	0x3e00eb8b	0.12589853
55	0x3dc2d35a	0.09512968
56	0xbd2990fe	-0.04139804
57	0xbdd36346	-0.10321669
58	0x3e0f5c3a	0.14000025
59	0x3b9b1f5a	0.004733962
60	0xbeb39dcf	-0.35081336
61	0xbd941fa2	-0.07232596
62	0x3e1c098f	0.15238021
63	0x3ec0dcfa	0.37668592
64	0x3e4990f6	0.19684204
65	0x3c1348fc	0.008989569
66	0x3c970baa	0.018438179
67	0xbb0e03b4	-0.0021669688
68	0xbe0f6324	-0.14002663
69	0xba0d4936	-0.00053896324
70	0xbe966c46	-0.2937948
71	0xbd06477f	-0.032783028
72	0x3d762c4e	0.060100846
73	0x3ed4a2a8	0.41530347
74	0x3ec07eb4	0.37596667
75	0xb9d8a991	-0.00041325067
76	0x3e172ff0	0.1476438
77	0x3d37aa73	0.044840287
78	0xbe928629	-0.2861798
79	0x3d20d3ae	0.039264373
80	0x3e094d28	0.13408339
81	0x3e20e9de	0.15714213
82	0xbe0f15b9	-0.1397313
83	0xbd869ded	-0.06573091
84	0x3d511eb9	0.05105469
85	0x3e9bcecd	0.30431214
86	0xbe35d1fe	-0.17755887
87	0xbe7b7ed0	-0.24560094
88	0x3d816df8	0.06319803
89	0x3e188d73	0.14897709
90	0x3d7d773f	0.0618813
91	0xbd787a31	-0.060663406
92	0xbe2b1f94	-0.16711265
93	0x3e3bc96a	0.18338552
94	0xbe6df950	-0.23239636
95	0x3d48903a	0.04896567
96	0x3e110e2e	0.14165565
97	0xbdaffe20	-0.08593392
98	0xbecdf09e	-0.4022264
99	0x3e4055ea	0.18782774
100	0x3d1a9e0c	0.03774838
101	0x3dea8ee6	0.11453037
102	0xbdf1c6ac	-0.11805472
103	0x3cedd717	0.029033227
104	0xbdb93b5c	-0.09044525
105	0xbe1b59b1	-0.15170933
106	0xbec73675	-0.38908735
107	0xbdf1d8ca	-0.11808927
108	0x3ca9cfae	0.020728912
109	0x3df2dc2c	0.11858401
110	0x3dd1f46a	0.102516964
111	0x3e3c2d9d	0.18376775
112	0x3ddb0b1a	0.10695477
113	0xbce45301	-0.02787161
114	0x3e77e5ea	0.24208799
115	0x3e8fa60d	0.28056374
116	0xbec97f99	-0.39355162
117	0xbe2c0067	-0.16797028
118	0xbe938d3d	-0.28818694
119	0xbd003073	-0.031296205
120	0x3d873398	0.066016376
121	0xbcb83ad7	-0.022488995
122	0xbeb31ced	-0.34983006
123	0x3dac9c77	0.08428281
124	0x3d1cba24	0.038263455
125	0x3e84ab0d	0.2591175
126	0x3e6c629f	0.23084496
127	0x3e491059	0.19635142
128	0xbd09001f	-0.03344738
129	0xbd88e5e2	-0.06684472
130	0xbdd4856f	-0.10377013
131	0x3e10c335	0.14136966
132	0x3e290159	0.1650442
133	0xbe35e49c	-0.17762989
134	0x3cc9c28c	0.0246289
135	0x3de51f1e	0.11187576
136	0x3e121e35	0.14269336
137	0x3ed471cf	0.4149308
138	0x3d0edd37	0.034878936
139	0x3e1aa8e8	0.15103495
140	0xbd8913a7	-0.066932015
141	0x3e497c7d	0.19676395
142	0xbe5d61c1	-0.21619321
143	0x3d7c7283	0.061632644
144	0x3d37c8f2	0.04486937
145	0x3d9a7a09	0.075428076
146	0x3befd525	0.00731911
147	0x3c51394a	0.012770006
148	0x3e1134ff	0.14180373
149	0xbde333b4	-0.11093846
150	0xbe898e06	-0.26866168
151	0x3e607e12	0.21923092
152	0xbc4d3f4c	-0.012527298
153	0xbe497e8a	-0.19677177
154	0x3c853a4b	0.016263148
155	0xbde534a5	-0.11191682
156	0xbbea6a76	-0.0071538044
157	0xbeae91ad	-0.34095517
158	0x3e425d6d	0.18980952
159	0x3e9e6090	0.30933046
160	0x3ddb6004	0.10711673
161	0xbf6c4ef9	-0.92308
162	0x3e901f5a	0.2814892
163	0xbe371406	-0.17878732
164	0xbddd8646	-0.10816626
165	0x3ecca867	0.3997223
166	0xbe9e7e89	-0.30955914
167	0x3bba7040	0.005689651
168	0xbed15230	-0.40883017
169	0x3a4cb34c	0.00078087
170	0x3c157f6b	0.009124617
171	0xbe3dce85	-0.18535812
172	0x3e5c9301	0.21540453
173	0x3db74a39	0.08949704
174	0x3e07b322	0.13251927
175	0x3f290cfc	0.6603544
176	0x3e398526	0.18117198
177	0x3df722d3	0.12067189
178	0x3e8800b7	0.26563045
179	0xbec90ff7	-0.39269993
180	0x3db01b6e	0.08598982
181	0xbddb5f63	-0.10711553
182	0x3e7244f2	0.23659113
183	0x3edf8df2	0.43662983
184	0xbe9613c4	-0.29311955
185	0x3df87e6e	0.121334895
186	0x3cd8bf5e	0.026458438
187	0x3d9c4d38	0.07631916
188	0x3da4aefc	0.08041188
189	0x3e8e1e5e	0.27757543
190	0x3abc6948	0.0014374638
191	0xbcbd0c52	-0.023077164
192	0xbe1b5b9f	-0.1517167
193	0x3d13699b	0.035989385
194	0xbf47fc05	-0.78118926
195	0xbea07a8e	-0.31343502
196	0x3e0552fd	0.13019939
197	0x3ed505ac	0.4160589
198	0xbf9d2c75	-1.2279192
199	0xbec48bfb	-0.38388047
200	0x3e1d4f98	0.15362394
201	0x3dddb54a	0.10825594
202	0xbc303424	-0.010754619
203	0xbd2a44b6	-0.041569434
204	0xbdafb4ac	-0.08579382
205	0x3cd61d2a	0.026136953
206	0xbd4b40db	-0.049622398
207	0x3e5a1285	0.21296127
208	0xbd692ef0	-0.05692953
209	0x3d0f0bcb	0.034923356
210	0x3dd80d76	0.105494425
211	0xbe4c59cd	-0.19956131
212	0xbe67d92b	-0.22641437
213	0x3c878e3a	0.016547311
214	0xbd60052e	-0.05469244
215	0xbdd3ea00	-0.10347366
216	0x3db58090	0.08862412
217	0x3d3d6dd4	0.04624732
218	0x3dc2bbc3	0.09508469
219	0xbda42058	-0.080139816
220	0xbd801963	-0.06254842
221	0x3e323207	0.17401896
222	0x3e0cd772	0.13754061
223	0x3e30f2a0	0.17280054
224	0xbdf50659	-0.11964101
225	0x3dd0f8ee	0.102037296
226	0xbe908eb2	-0.28233868
227	0xbe4972c1	-0.19672681
228	0xbe07d166	-0.13263473
229	0x3cf2eebd	0.029654855
230	0xbe8662d7	-0.26247284
231	0xbc2b0d61	-0.0104402015
232	0xbd86ebd2	-0.06587948
233	0xbd03f6a7	-0.032217648
234	0x3e19ac5a	0.15007153
235	0x3e646aa3	0.22306304
236	0xbd48b8bf	-0.049004313
237	0xbd75e13f	-0.060029265
238	0xbdd3993d	-0.10331962
239	0x3d012f1e	0.031539075
240	0x3dedf673	0.11619272
241	0x3e67a736	0.2262238
242	0x3eb3b8ab	0.35101828
243	0x3dc7757f	0.097392075
244	0x3eba8bb0	0.36434698
245	0x3dccb0a6	0.099946305
246	0xbe652cd4	-0.22380382
247	0xbe63bc59	-0.22239818
248	0xbdc3cdb2	-0.09560718
249	0x3d786cc6	0.06065061
250	0x3d3ec20b	0.046571773
251	0x3e09b711	0.1344874
252	0x3e0e03e9	0.13868679
253	0xbc3dfd10	-0.011595979
254	0xbea954a6	-0.33072394
255	0x3c221733	0.009893226
