main/discrete_time_identification (KdV)/models_iters/KdV_clean_99000.pt (torch, 127868 bytes, 14 tensors)

linear_in.weight f8 [50, 1]
0.19409399931016905 -0.0726903646248807 0.021751287186800125 -0.20017563981798472 0.05795027093156039 -0.09918997732742539 0.19408985529331177 0.5793897527465507
-0.27218599275097066 0.013185739174134183 -0.14132927924391345 0.4028808663435271 0.2073681504170727 -0.0532731314411229 0.606586990312317 0.036190074542325555
0.3076338055905337 -0.24170079125851957 -0.012315004084328994 0.10136112293633458 -0.33341815354195276 -0.35223933792149753 0.023623970256979765 0.005683254426396426
-0.006733931572795867 0.022500566391714386 0.3458516121595701 0.2171545122630972 0.16751999703222642 -0.21599064720359984 -0.11287415111196841 0.42800121869925767
0.28523676292649386 0.14059048315363393 -0.11721116330464817 0.012295173478492658 -0.05183686566352969 -0.008868315868006679 -0.23858942958224028 -0.07975069113142098
0.2178885333521661 -0.10497499899514073 -0.3221093462811027 0.09454007479559207 0.3974143925109268 0.39357806419737984 0.01625571087247036 -0.10744435386713153
0.035730217315859396 -0.2983833891750284
00000000: f589 b179 12d8 c83f 6355 ccf2 d59b b2bf
00000010: 6ced 732c f845 963f f5af 3cf9 5a9f c9bf
00000020: 550a e46c a8ab ad3f 8f57 b6ac 8364 b9bf
00000030: c32d 7cb6 efd7 c83f 03e3 f560 5c8a e23f
00000040: 90dc 52cc 7e6b d1bf a141 36f4 1f01 8b3f
00000050: 2bf1 28ec 1317 c2bf 4d4b 48d4 ccc8 d93f
00000060: adfc 2220 0a8b ca3f 921b 97aa 9d46 abbf
00000070: 4b41 b21e 2969 e33f fbbb 3265 8187 a23f
00000080: 7df1 89b3 45b0 d33f 76b3 ef30 0df0 cebf
00000090: 19a1 56de 9b38 89bf b7ee 1874 cdf2 b93f
000000a0: c5be 5618 b956 d5bf 9a33 2fdd 168b d6bf
000000b0: 7022 9fce e130 983f abea 56fe 5247 773f
000000c0: e2fd 0efe 0995 7bbf 81f1 2c73 630a 973f
000000d0: 75a1 dfcc 6e22 d63f 93a6 2c14 b8cb cb3f
000000e0: 8cf7 5696 4b71 c53f 649c fdde 94a5 cbbf
000000f0: 60f4 9603 52e5 bcbf 7c88 3d39 5f64 db3f
00000100: 71b7 18b2 5141 d23f 7e08 a373 defe c13f
00000110: be9c 1e01 8d01 bebf 9201 e93f 362e 893f
00000120: d906 8195 5c8a aabf 5e4f fd34 8d29 82bf
00000130: e40e 9d32 198a cebf 712b 3e92 8a6a b4bf
00000140: f9e1 757e c5e3 cb3f 60ee 943b a4df babf
00000150: 81d9 0085 709d d4bf f490 6841 c733 b83f
00000160: 28d3 b2c6 3c6f d93f a4a5 890c 6230 d93f
00000170: 022f 484a 56a5 903f 54ca ff21 7981 bbbf
00000180: 6780 b325 3b4b a23f ee49 8ba4 b618 d3bf

linear_in.bias f8 [50]
-0.12880076242714045 0.061122863879170694 -0.08731734395042794 0.012578620482326776 -0.08361947763184434 -0.08574508414764395 0.0698603869318027 0.059458202857512896
0.08113904009798846 -0.09024210839778708 0.14989683955924327 0.0015305219588599285 0.010471185467821059 0.07856765867358156 0.04812840370993155 0.05191062716763288
0.024423931244274947 0.028305772086720613 0.05187159620797154 -0.14576013911414787 -0.006158777098108424 0.1455426704516799 -0.09396530311262374 -0.0160919891363673
-0.12249913873168392 -0.06079750899776035 0.03465225179651001 0.024556591375829096 -0.1463807993968422 0.04992531477538118 0.06204616278447618 0.05696861384003322
0.01661648601868363 -0.03647960106326804 0.09582257399594932 -0.09111784928108012 0.09581103396407673 0.12202994936830153 0.03438092884420433 0.11941500362453174
0.11179387858025722 0.02174349435473791 0.15085793045783494 -0.02085665650003999 -0.006100654417076969 -0.09783321041672173 0.09112128170363926 0.11895055714306603
-0.08851280035435755 0.006565421054901298
00000000: 0c87 291b 8b7c c0bf 563c ccfa 7e4b af3f
00000010: 0b03 a4f0 6d5a b6bf e198 cddc d1c2 893f
00000020: 9bc4 bc09 1668 b5bf 52f7 34cc 63f3 b5bf
00000030: 9572 28cd 5ee2 b13f ceff 8039 4e71 ae3f
00000040: 4952 a633 87c5 b43f 9d63 4a58 1b1a b7bf
00000050: 7821 d7d3 d12f c33f be4f 9570 7913 593f
00000060: 23bf 13b9 ea71 853f 24bd 8694 021d b43f
00000070: 11bc e23f 49a4 a83f 06ea ff9b 0794 aa3f
00000080: d153 bc47 9602 993f 491b 9a35 30fc 9c3f
00000090: afee 9bf2 e98e aa3f 6020 47ab 44a8 c2bf
000000a0: 0b03 8423 f239 79bf a498 e168 24a1 c23f
000000b0: 80d3 d32f 1c0e b8bf 76ec 451c 6b7a 90bf
000000c0: 2608 a482 1a5c bfbf fcb4 a5e1 d920 afbf
000000d0: e3c4 65a0 f0bd a13f 5d12 71f3 5c25 993f
000000e0: affc 1525 9bbc c2bf 2dd1 6794 cf8f a93f
000000f0: 02d4 00c0 83c4 af3f 69cb ae7a fd2a ad3f
00000100: aa47 1980 e903 913f c962 134b 74ad a2bf
00000110: f2f8 8705 d487 b83f 177d bed6 7f53 b7bf
00000120: 5ebe 7869 1287 b83f 345d abd1 5a3d bf3f
00000130: 45e2 fb89 609a a13f f915 384f fb91 be3f
00000140: ce2b 650c 869e bc3f 8910 9e34 ed43 963f
00000150: 6d4e d40a 504f c33f a24b 4986 725b 95bf
00000160: 02e8 49f3 fffc 78bf 75d7 33e7 980b b9bf
00000170: fc00 e36c b953 b73f 113c c530 8b73 be3f
00000180: bca1 cc5e c6a8 b6bf e5bf 71cb 57e4 7a3f

linear_out.weight f8 [50, 50]
-0.11040017313773776 0.023131242226253294 0.0783139147331487 0.15796613326507164 -0.03259191778854577 0.18171394438078678 0.07317009340573952 0.007642308108430457
0.07109552635457021 0.31160676413166694 -0.24915966195460892 -0.005056989334881232 -0.0551515381389715 0.02494922147007373 0.23944566417365928 0.289905096873921
0.054038323483011234 -0.2522493324929189 -0.14788463529101573 -0.05579775557398466 -0.04127967970565567 -0.2502306198694456 -0.03931164884495337 -0.11733906428662212
0.29864789118652774 -0.058355933809787354 -0.06344543440145886 0.0034982763391747445 -0.026225248848390333 -0.05005944617526638 0.07759085940822587 0.07085295847106814
-0.38319359642113526 -0.05881477353933158 2.149247937532181e-05 0.05021715602550062 -0.08998414626809347 -0.009980408568417875 0.011496927164173085 0.04875288346243318
0.0708166280717192 0.11677821464489241 0.1747111526001058 0.2583526239395814 -0.040541967127419316 0.2001920583170867 -0.03390350849258587 0.11047457580192659
-0.09519484099716267 0.15147117705518615 0.013872065114125733 0.019677173415532385 -0.04457225722220416 0.02345194167962944 -0.00954014118328176 0.08766669760084743
0.03815016607712917 0.04956720274300496 -0.004643913087847307 0.33056970369267596 -0.1033945940991377 -0.14463062206967334 -0.04272088140965791 -0.3111633566707312
0.2454407251572867 0.1310912611706052 -0.04112039747408786 -0.19425149162093056 -0.12048850261595856 -0.1775305134859598 0.05591269025359681 -0.27278459126369153
-0.035163863649891484 -0.06095928599391011 0.35869458194111475 0.096678566744036 -0.10717458502695794 0.11159329529750292 0.02409095339252618 -0.18553957874320579
-0.021148635262040538 0.036331347057214 -0.3999280596299468 0.00931635687251998 0.0883071200657788 0.03213265776769949 -0.04734109924448083 -0.04536026342553082
0.0673460984314748 0.035537846827219575 -0.09539862718737717 -0.025149713903315635 0.16771440918575017 0.08062304649533618 -0.02995349344387257 0.1344620086855175
0.03974529630801772 -0.02999364607334654 0.16490414058938724 0.13860260968250399 0.13103001863808156 0.09794541311810782 0.1312079127352713 0.2635942095850149
-0.2372544615366239 0.14684496663553878 0.035963385765511106 0.10276572168522516 -0.04016157323111053 0.2418653135481791 -0.2715012691392215 -0.044577658346980645
0.09845038519328203 0.07991398568975093 0.24311615553566931 0.19253129847008355 0.08082149706036318 0.12045448666689416 -0.22093997707733823 0.0060729411133616075
-0.12277999145277112 -0.08091085371589926 -0.11631404628839719 -0.06196928653111914 0.37144249031432636 -0.01612564943167987 -0.1256341074035535 0.18965909516375115
0.1032771996075151 0.040779327074254294 0.153669693964643 -0.04585495543560854 -0.19619634383050474 0.016369659234354704 -0.027569880734833466 0.05762942536518165
-0.05783627581233562 0.0409195528422878 -0.10041859377717503 0.09083198926256787 0.049659469951948414 -0.0680187531431691 0.08465459228131449 -0.13744820096756774
-0.04513736386868963 0.11542907907443656 0.09636344368431989 0.17628069202345154 -0.0009861691795915702 0.023603687565953033 0.032888691823338465 0.07558333002154659
-0.0649680133402421 0.21731524011096934 -0.21758995998323521 0.14265619975546867 0.11373862184732093 0.036522534551779236 -0.303076441422261 0.2948214404717622
-0.14301720504880905 -0.059418923806288305 0.22206505750872452 -0.03989491351991888 0.22798194010702605 0.19017385963784228 0.06854378722341853 0.19213034095527157
-0.049593684134095394 0.00974128390061933 -0.0941827753357505 -0.3647777763418849 0.035790109188967516 0.005440077293987731 0.5359656626400544 -0.02600874035812732
0.0038145327614030385 -0.11395619796231235 -0.2889303785642109 0.05603204053455528 0.06243876316848973 0.18238623689024383 -0.322109407101529 0.04400359732088017
0.20087180153630718 0.1106674750186708 -0.14613940601034542 0.17410729180707102 0.04837243105944289 -0.12098080287383546 -0.025805431878012708 -0.03250894132798145
0.022989574528281223 0.09269470435031218 -0.0871156483511908 0.2223516073929789 -0.04433862317181716 0.33962027501184144 -0.15799557463162292 0.13976063728509922
-0.06365486277436692 0.09327528492398535 0.03856971657593368 0.15490975071674 -0.05948441433995919 -0.003459132896789619 0.035607822683376464 -0.0015736347700168402
-0.062188151974770775 0.24455872986835311 -0.47712988509556314 0.058747112090573254 0.06441228364151892 -0.23023252561130528 0.2317081568810986 0.23514332675419564
0.044470797804097746 -0.030328966168070157 -0.08232830116787854 -0.028222282391850026 -0.09936090618755551 -0.2230461172544092 -0.011192732207795276 -0.07168663074118876
0.24144551659961655 -0.0491450545760832 0.059435436855545865 -0.061927562221584014 0.005687289725409149 -0.11205140322419252 0.09083632743480462 -0.03420220184199137
-0.4414343766857636 0.08611887488740269 -0.05303075998258397 -0.10549856466489814 -0.07017181415977189 0.08433212173360016 0.018537582036456342 -0.09466579368611192
-0.06686801994445234 0.21087691791750243 0.09384869818613178 0.10577514906166732 0.0472665466141822 0.14755154280539687 0.03240725727985109 0.18990293287658966
-0.01841867387802807 -0.03199552837959926 0.09015388362584961 0.06899226308026382 -0.13438493414092106 0.045028480130564624 -0.2093572798222436 0.22151405735549692
00000000: 206d 198d 2f43 bcbf c1ac 8263 b7af 973f
00000010: 55c1 9976 610c b43f 36e1 1ff8 3b38 c43f
00000020: 120d 084a e3af a0bf b3db 2b0c 6742 c73f
00000030: 0e11 3976 46bb b23f ed41 4476 8a4d 7f3f
00000040: 7bb4 9500 5133 b23f f51a 4a7f 5df1 d33f
00000050: 3cea c9bb 76e4 cfbf b0db f33c a3b6 74bf
00000060: b80f 4389 d23c acbf 0238 19e9 498c 993f
00000070: 27be 65d0 27a6 ce3f d919 811b ce8d d23f
00000080: f72e 2e40 e9aa ab3f b8ac 5f62 da24 d0bf
00000090: 41f1 133c e2ed c2bf 6bcc c2fe 8591 acbf
000000a0: 8a79 a634 9c22 a5bf 4e03 334a c703 d0bf
000000b0: 7925 480c a820 a4bf 217f a7d3 ee09 bebf
000000c0: 9b97 6a0b 0c1d d33f f52c 7b36 d4e0 adbf
000000d0: 16b4 d5c1 f53d b0bf ce14 03cf 6aa8 6c3f
000000e0: 4f7f 88a8 cada 9abf e276 5b48 64a1 a9bf
000000f0: 297a a09b fedc b33f fb44 7563 6b23 b23f
00000100: e495 2a6f 3e86 d8bf ba03 bf51 f81c aebf
00000110: a6f7 b9ef 5789 f63e 55c2 a725 10b6 a93f
00000120: df43 6175 3309 b7bf 0672 37c3 9b70 84bf
00000130: d29d 6571 b38b 873f 691b 1d50 23f6 a83f
00000140: 5abe 94dd 0921 b23f 14fb c854 2de5 bd3f
00000150: 53fb 545f ef5c c63f a300 aa71 d988 d03f
00000160: 1105 dbad eac1 a4bf 2206 b2b3 e49f c93f
00000170: 4500 64f8 cc5b a1bf e3d6 1bd2 0f48 bc3f
00000180: f7aa d468 b05e b8bf 168c de53 6863 c33f
00000190: f4f9 f10f f568 8c3f 1292 30c1 4026 943f
000001a0: 9212 28c6 2cd2 a6bf 70b5 2a2a c903 983f
000001b0: d424 0d13 c889 83bf a7da 241f 5371 b63f
000001c0: 2fc7 4627 6b88 a33f 5f87 7855 df60 a93f
000001d0: 1a82 67ed 7e05 73bf 1b24 9ad4 0d28 d53f
000001e0: 842e 3d70 1178 babf 7f0a e597 4183 c2bf
000001f0: 5084 05e9 82df a5bf e751 27b6 19ea d3bf
00000200: e61a d407 9a6a cf3f 5073 c233 99c7 c03f
00000210: 990f b394 bb0d a5bf cf05 db9d 3bdd c8bf
00000220: c090 47a2 55d8 bebf ab6d bbe2 51b9 c6bf
00000230: 9222 2490 96a0 ac3f 5923 9580 4d75 d1bf
00000240: c72b c178 ff00 a2bf 2274 7637 0e36 afbf
00000250: 7120 ac1e daf4 d63f 23c9 6332 edbf b83f
00000260: 3535 a729 cb6f bbbf fe71 c1d1 6091 bc3f
00000270: 392b cd83 4cab 983f 6368 68cb c2bf c7bf
00000280: 13d4 38e3 fca7 95bf 2458 dcb6 059a a23f
00000290: 4841 37dc 6b98 d9bf c5c5 ae40 7414 833f
000002a0: 31bc afa0 4b9b b63f 63dd 7d14 b173 a03f
000002b0: 3102 06b2 173d a8bf 04b5 e6df 7539 a7bf
000002c0: eac0 460a 983d b13f fb4c c943 0432 a23f
000002d0: 8b63 da5f 0b6c b8bf b8bd dfba d8c0 99bf
000002e0: 3ba8 426f aa77 c53f e358 0044 b6a3 b43f
000002f0: 4633 f8ea 20ac 9ebf 08ec ed14 0d36 c13f
00000300: d222 a0d7 7e59 a43f 812b e483 a7b6 9ebf
00000310: 4238 6731 941b c53f 7a01 ddf5 babd c13f
00000320: 6a23 6c76 97c5 c03f fbae 225a f312 b93f
00000330: 2353 16bf 6bcb c03f 7649 653f bade d03f
00000340: 39a0 90ac 5a5e cebf ab13 a4dc d0cb c23f
00000350: 27bf 6efb ca69 a23f 82b2 c9b5 da4e ba3f
00000360: 49c4 2ac7 0e90 a4bf 9df4 dc4d 71f5 ce3f
00000370: fba0 f1db 4660 d1bf ea0f 7701 e2d2 a6bf
00000380: 2c0a af60 0b34 b93f 57ce 0733 3e75 b43f
00000390: 5fd5 9320 6e1e cf3f 9055 3197 dda4 c83f
000003a0: 1422 b0b6 b7b0 b43f 0f0a e4f0 1ad6 be3f
000003b0: 538c f6db c247 ccbf 4d0a 8fb7 f0df 783f
000003c0: 4b8f e46f 826e bfbf 0aea 99de 92b6 b4bf
000003d0: c3c4 dfe0 c1c6 bdbf 75e5 0336 70ba afbf
000003e0: 45ab 0fb9 b6c5 d73f 2e49 be03 3e83 90bf
000003f0: a3bb 4747 c714 c0bf 7902 8fcd bf46 c83f
00000400: 159b bce2 5f70 ba3f e70b 4628 07e1 a43f
00000410: c373 fbd2 72ab c33f 2a34 e9fb 4c7a a7bf
00000420: 9763 2c38 f61c c9bf 769d 3b3c 35c3 903f
00000430: 4163 7160 473b 9cbf fc21 76a2 9a81 ad3f
00000440: 7ed8 4562 b79c adbf d5fa 725a 68f3 a43f
00000450: 2beb 2e70 08b5 b9bf d937 50e7 c340 b73f
00000460: 67b8 c24e f76c a93f 62bd 4350 ad69 b1bf
00000470: 13f1 4d61 ecab b53f d95d 0614 e797 c1bf
00000480: a38f 499b 3e1c a7bf 80d1 a197 c28c bd3f
00000490: 8d72 274f 46ab b83f ac17 949f 5d90 c63f
000004a0: 7493 fa17 4b28 50bf eca0 a4a8 902b 983f
000004b0: 4634 945f c9d6 a03f a7b8 90da 6d59 b33f
000004c0: 3c1a 9564 bea1 b0bf db78 995c fcd0 cb3f
000004d0: da70 08e1 fcd9 cbbf 9ebc 42f0 8e42 c23f
000004e0: c558 206d f91d bd3f 6110 efe6 14b3 a23f
000004f0: da2f 06bb 9a65 d3bf d417 3fbf 5ade d23f
00000500: 5298 3945 634e c2bf 7de6 053d 286c aebf
00000510: 5ccb cab7 a06c cc3f 9b89 b029 1b6d a4bf
00000520: aa4d 6b20 832e cd3f 9c6c d9f5 9d57 c83f
00000530: e4f3 77ec 158c b13f bb71 7c1d ba97 c83f
00000540: 4360 e3e6 5764 a9bf b795 31fe 3cf3 833f
00000550: 51df e9c3 5c1c b8bf 3c8b ece2 8458 d7bf
00000560: ef48 f9c8 1453 a23f d7d5 0ba1 5548 763f
00000570: 142d 1a76 a126 e13f 8b45 fe04 09a2 9abf
00000580: 8c3e b6ae a73f 6f3f c6b4 6cbf 3b2c bdbf
00000590: 9244 b0d7 d57d d2bf f684 3f4b 3bb0 ac3f
000005a0: a069 9f3b f9f7 af3f c990 57a5 6e58 c73f
000005b0: 860a 4fc6 709d d4bf a98f ccb6 a387 a63f
000005c0: cabd 24cd 2ab6 c93f 78a3 ef21 b454 bc3f
000005d0: 8a53 bc30 b2b4 c2bf 5a3b 27d2 2549 c63f
000005e0: 004d db72 45c4 a83f 4d75 c90f 99f8 bebf
000005f0: 30a0 e637 bd6c 9abf 529b a90f 03a5 a0bf
00000600: 64df fd3a 948a 973f 446d b213 d7ba b73f
00000610: 2161 a30c 364d b6bf d5a1 fb78 0476 cc3f
00000620: 93fb f150 8db3 a6bf 2a00 8fad 56bc d53f
00000630: 634f faf0 3239 c4bf df2c 3433 ade3 c13f
00000640: efe6 d861 af4b b0bf 940a 469a e3e0 b73f
00000650: 1287 9eee 68bf a33f f677 942c 15d4 c33f
00000660: 0d76 6cbc bd74 aebf 815d 41d5 5356 6cbf
00000670: 1e51 d043 303b a23f 6464 e077 4dc8 59bf
00000680: ae52 dc1d 20d7 afbf 2731 5e51 b34d cf3f
00000690: e77f 1bc9 4b89 debf cfb0 53fa 1914 ae3f
000006a0: b574 b3cb 527d b03f d5ee fc67 4278 cdbf
000006b0: 21a8 02e6 9ca8 cd3f b215 2431 2d19 ce3f
000006c0: 6929 645c e0c4 a63f 49df 4077 8e0e 9fbf
000006d0: 7c20 0db1 7713 b5bf 2cde 904f 4de6 9cbf
000006e0: dd93 9362 b76f b9bf 8ac1 8d71 c68c ccbf
000006f0: 476e 4816 37ec 86bf 8105 9816 0e5a b2bf
00000700: b0d4 c7ca afe7 ce3f e02d 5464 8a29 a9bf
00000710: e03c 0953 526e ae3f 1fe8 ec2c f8b4 afbf
00000720: b2e4 f935 8e4b 773f ea9d 5198 66af bcbf
00000730: 2709 9faf 0c41 b73f 5a9f b974 f382 a1bf
00000740: 1083 ccf8 7540 dcbf 92af 35f7 e20b b63f
00000750: 6c4c 9d07 d926 abbf d7bb 0235 f401 bbbf
00000760: 46ce eaae c7f6 b1bf 501d d938 ca96 b53f
00000770: b2bd 5f12 84fb 923f 1e86 ee77 043c b8bf
00000780: 6748 cf36 431e b1bf f5ed f7cc 03fe ca3f
00000790: d44a 7be1 7706 b83f fa0a f385 1414 bb3f
000007a0: 2438 ce1f 5233 a83f 3969 690d f8e2 c23f
000007b0: a50c 571c af97 a03f ac49 0f43 bd4e c83f
000007c0: 7a6c c447 58dc 92bf ab69 04c8 b761 a0bf
000007d0: 36c9 c72d 5314 b73f b654 9b19 7aa9 b13f
000007e0: 66ed 9a88 8633 c1bf d445 1913 f90d a73f
000007f0: 280e 0227 38cc cabf b51a f997 925a cc3f

linear_out.bias f8 [50]
-0.07814923320627354 -0.14664291246447245 -0.13750908871793024 0.08526535281553187 -0.09454901173898052 -0.1660388576051523 -0.12801044849006923 -0.0413232566415672
-0.0456955886613785 -0.08673648822979671 0.019860511460155175 -0.0005975725516704685 -0.01538722335670195 -0.0003820229251663351 0.009173333939727107 0.034521399246911146
0.13159467533125935 0.05264927522567048 0.03291962964382803 0.024006019072557398 0.057359568205955475 0.0767982645080134 -0.0006715243055091944 0.024972140592926215
-0.004334309909518188 0.010007406972278988 -0.017257130230122923 -0.11150203877955332 -0.07235208070774389 -0.022431975175781764 -0.07825948328153098 -0.007052013582431573
-0.006384876815970222 0.04017285171187061 0.013089032357253887 0.06618353496845164 0.099039835634427 -0.08919812267529352 -0.08321091575314345 0.017895093167196435
-0.03130713492538107 -0.001963532416056609 0.0256972978094278 -0.07336618757709273 -0.07957063644164301 -0.10892496797192872 0.0009862778061911722 -0.08140627549337254
-0.0556650665132111 -0.230955275354326
00000000: 7813 d490 9601 b4bf 13d0 9ce8 31c5 c2bf
00000010: 791f 79d7 e599 c1bf b319 d33d f3d3 b53f
00000020: 15bd 4931 5d34 b8bf 16c1 a3e3 c240 c5bf
00000030: 6fd3 e778 a562 c0bf 2df3 ad67 5228 a5bf
00000040: 7682 be85 6965 a7bf 1e1e 51cc 5c34 b6bf
00000050: 9413 d05c 5056 943f ab2f 8048 cd94 43bf
00000060: bf0a bf28 5683 8fbf 8021 4cf8 4709 39bf
00000070: 109e 210a 78c9 823f 2527 8ef1 c9ac a13f
00000080: 4810 7025 18d8 c03f 0835 8186 d8f4 aa3f
00000090: d5ef 6e79 d7da a03f a18e 4bab 0895 983f
000000a0: 3451 1dbb 3b5e ad3f df93 7312 0da9 b33f
000000b0: 83eb 1e77 2701 46bf 8984 a1fc 4b92 993f
000000c0: 5c66 fe74 dac0 71bf 4742 4f6d c37e 843f
000000d0: 6e42 d867 daab 91bf 6fd9 fec9 658b bcbf
000000e0: b7f3 6f7c aa85 b2bf be04 0f5f 68f8 96bf
000000f0: e8c8 4b41 d008 b4bf 82e2 517b 92e2 7cbf
00000100: 033a d151 0727 7abf d53e 9438 8991 a43f
00000110: 7c18 492f 6cce 8a3f d021 3976 67f1 b03f
00000120: 8a13 0db7 ac5a b93f 7b46 c12b b0d5 b6bf
00000130: 6978 d481 4f4d b5bf 8bde a55f 1753 923f
00000140: 019e 4521 7d07 a0bf de04 5f70 d315 60bf
00000150: ed8d bf76 6450 9a3f cc9b 4660 20c8 b2bf
00000160: 8b1f 3dc1 bd5e b4bf 9643 28b7 81e2 bbbf
00000170: 6af9 07bb bf28 503f 48e6 eeaa 0ad7 b4bf
00000180: 6c66 68b0 2180 acbf 0725 3e45 f18f cdbf

layers.0.weight f8 [50, 50]
-0.3101719356711505 -0.07509816607331624 -0.2206795826511017 -0.04032132751412984 -0.10388168948646358 -0.18610563364723537 -0.10132948139934134 -0.021819240845053416
0.07124387150326816 -0.13424716670488593 0.17879628136625114 -0.25221323152913744 -0.11963361543419668 0.0211587477384969 -0.09777904278060437 0.1347176219501673
-0.165959792331185 0.16872035024103554 0.061390227188669724 -0.27619259972046417 0.0614783076306377 0.3863375504431014 -0.17705892692040023 -0.0978264832463614
-0.07859168100189745 0.09362196973569896 -0.17526455024379395 -0.04313752715660611 -0.09303529705500525 0.2330112858715046 0.13905691993501643 0.12021860403549997
-0.02946333684152745 0.03685372022197808 0.34762725344042295 -0.10329415019526281 0.18064658225388097 -0.012994568876047713 -0.17071775797597755 0.2502997004842931
-0.08282244775478712 0.17347178562337814 0.3293158457687346 -0.05136339921363597 -0.22169390759510638 -0.041695995701061354 -0.022211609909608108 0.008025715468287441
-0.40411866443971844 0.011443634730223029 -0.20807410741125984 0.08028596748247613 -0.15458710211236737 -0.041054107015174736 -0.2780212469632675 -0.28498142046001357
0.29347048664142267 0.3380421804651629 -0.02788294679271204 -0.23136352129937326 0.05488468931944862 0.17831037890900134 -0.12512698980324446 0.36410929937986986
0.1413970553849186 0.3033246434239005 0.3242355669089107 -0.26092292024305175 0.30095408707439114 0.057912115638399736 -0.42507726996684647 0.0738960739640698
-0.29521305518398283 -0.12591007515456304 -0.5147927275198564 -0.11753024008460562 -0.00954036765889554 0.08514394396492027 -0.0246854004760038 -0.16064709652523548
-0.12065519626691319 0.32485773917116745 -0.012271272914667737 0.21894124650724509 0.04113844565326918 -0.11787196603194129 0.2288220604864373 0.31216101787687656
-0.06074018583047836 0.08700892831909593 0.27626460429641625 0.025200362354162967 -0.022342556293181094 0.05183930639979514 0.21967656533668664 0.23356610052532256
0.27909321775018386 0.35287595818678286 -0.10557796371868138 -0.10663128465129368 -0.03571427951219976 -0.07261608299858563 -0.003970068241369463 -0.2186680377497599
0.21575721299286454 0.14572201377083852 -0.10557374912494534 -0.02929560809697305 -0.023952244654010753 0.09957727441561962 -0.07133990071431326 -0.11343249879675804
0.012618271792238449 -0.10353234893487426 -0.25810052217151747 -0.1192964850027579 0.31542487052016693 0.016053241105629987 -0.1795213532386185 -0.17283036751258338
0.15565822614975847 0.09939253477023553 0.03684751324315312 0.01742405505451858 0.13161161923341438 -0.07273929830444302 -0.1146248081860296 -0.0805907582083945
0.004067947442356307 -0.07716925542649204 -0.0077869178530562905 0.14845548014176183 0.11496349924446952 0.08894255876303303 0.011499407162459873 0.047542950458917
0.19785596433599797 0.10470365830340808 -0.060531570933419626 -0.02407807735063841 0.12914855976143808 0.056610734131408845 0.12194994760824265 -0.041362176079140306
-0.13429271831157377 -0.2533567981008049 -0.08807334059122193 0.11824525462861203 -0.20468183699950523 0.12129501736545491 -0.20986810156196972 -0.21687909518410772
0.14855079674239674 0.08590884501693205 0.0683251755880533 0.12152902984701407 0.2405362447130986 -0.2403805100261822 0.08803917324817244 0.11707722010878564
0.06617743128586351 -0.07900509615144563 0.05747540784609115 -0.0555870509503995 0.029929179321206575 0.1084604461612195 0.05064290238384593 0.2939943002709207
-0.21431873779187446 -0.04816116201474282 -0.031107618351870953 0.019513468127871202 0.22198163348815442 -0.010980383769755095 0.11406696566145215 -0.1431576162341186
-0.2599379271800445 -0.1324286829489666 -0.13641235952817127 -0.00859978182041452 -0.10753060263398827 -0.03198768542633876 0.0030972544665377505 -0.1529465325194509
0.12786564049643165 0.0760586188829093 0.3541538079971898 -0.24536673124338368 0.1626139924946296 -0.14447261626181587 -0.060920021687417066 -0.06494574612426382
0.13322692639889605 0.0782513138299386 -0.04272270857281312 -0.10719650967160045 -0.12782729621129657 -0.20665662501052234 -0.0451865380589319 0.04079251347072963
0.08152244022010659 0.012554332360391407 -0.054185789128912594 0.1489652078137101 -0.055700931291326264 -0.03700538285449082 0.10626907105225183 -0.05707373894623717
-0.30613133779288665 0.011722097297914387 -0.10638293759509472 0.14847018371015622 0.07836614820873565 0.09364301655337569 0.06206997663388656 0.03969037941678218
-0.01874448123413432 -0.20077011562596456 0.08590300997564794 0.24732736414772336 -0.07117205469121116 -0.09482149506347419 -0.186070913846142 0.1125148286126597
-0.05119043300500447 0.13792606092194945 0.015253875354399905 0.24757481481925703 0.08901935488905655 -0.017604842043891625 -0.007176103556452379 0.12282908366119338
0.15454366067106812 0.0050571825781661126 -0.17297689293405166 -0.42591878617221507 0.11780928868153322 0.23928794141036824 -0.20621775156901065 -0.07329750435680876
0.0046053151231970745 -0.10828197964565503 -0.17252402587407484 -0.15816403091975054 0.01480214529141744 0.13964272646977882 0.04154069939637105 -0.17191257855393735
0.14843597926066754 0.004857243264928377 -0.3766228243763574 -0.2016315713297314 0.055641912137648616 0.02305507407603555 0.014832915472506083 -0.05951950451286523
00000000: 0b0e f663 dbd9 d3bf aa43 4627 a239 b3bf
00000010: 12d2 3083 3a3f ccbf dc4c 023e ffa4 a4bf
00000020: ef61 ff8a fd97 babf bae0 0e35 4fd2 c7bf
00000030: 7416 bb98 baf0 b9bf 6b86 6977 c857 96bf
00000040: 609f 25d2 093d b23f a900 4adb 022f c1bf
00000050: b8a6 8eea cbe2 c63f d04f 42f7 4224 d0bf
00000060: 16c8 ca01 4fa0 bebf 3ea0 3e86 a3aa 953f
00000070: da14 fa1e 0c08 b9bf 2645 3c52 6d3e c13f
00000080: cdb6 41a4 2b3e c5bf 9a3a 3ae1 a098 c53f
00000090: 6281 2334 8a6e af3f 4c95 ccb9 23ad d1bf
000000a0: 95c0 5fb1 157a af3f f7ab 1722 c1b9 d83f
000000b0: b342 4bee dda9 c6bf f4ce 390a 280b b9bf
000000c0: 640c a49b 951e b4bf 9bb1 3302 9cf7 b73f
000000d0: c0fd b89b 116f c6bf fe61 bc38 1f16 a6bf
000000e0: 9192 3946 29d1 b7bf e260 3556 50d3 cd3f
000000f0: 27a2 b3fd 9dcc c13f ee07 b47c a5c6 be3f
00000100: 9c5c a910 a32b 9ebf a0bc 2da6 7dde a23f
00000110: 1765 2e61 863f d63f 9aee f444 7c71 babf
00000120: 6011 755d 6d1f c73f 5d34 c982 e59c 8abf
00000130: d837 ad59 14da c5bf 25d5 f108 e904 d03f
00000140: 3a42 7b18 da33 b5bf 23fc 03cf 5234 c63f
00000150: 2467 e8c4 8213 d53f 9ffc aaaf 4d4c aabf
00000160: 72f5 6b49 7760 ccbf b707 d273 2d59 a5bf
00000170: 79f4 9ce8 a3be 96bf 79d4 b44b c96f 803f
00000180: ca31 de87 14dd d9bf 4036 4fa7 c26f 873f
00000190: 73e5 3c1f 2ca2 cabf 743a aa04 9f8d b43f
000001a0: 345f fa99 82c9 c3bf 2d4a fe3d 0b05 a5bf
000001b0: 5139 d3a0 19cb d1bf fff9 35b6 223d d2bf
000001c0: d5d4 9d6f 38c8 d23f c60c 71ab 7ba2 d53f
000001d0: 54fc 5ce2 588d 9cbf 3aee bbe2 519d cdbf
000001e0: c836 5b93 d819 ac3f b3cb f9de dfd2 c63f
000001f0: 5da3 8644 2904 c0bf 8962 4017 914d d73f
00000200: a680 5078 4c19 c23f 9be5 e4c3 ab69 d33f
00000210: ffb8 0489 46c0 d43f 5620 4e0c f6b2 d0bf
00000220: 3f40 65ee d442 d33f c40e 6b25 a8a6 ad3f
00000230: d6f4 314b 7734 dbbf 767d fa64 daea b23f
00000240: 4b84 574c c5e4 d2bf ca4b 8343 d21d c0bf
00000250: 5553 1d99 2e79 e0bf 2d54 7439 7616 bebf
00000260: beb5 b178 e689 83bf 5523 c856 fecb b53f
00000270: 8bb1 ee2e 2147 99bf 95f9 e284 1590 c4bf
00000280: 0511 0f4a 42e3 bebf 2eee 651d 78ca d43f
00000290: a451 ca5e ae21 89bf 673e bf4a 4406 cc3f
000002a0: 0fcd 602d 1910 a53f e9ef 386f db2c bebf
000002b0: 2140 3291 0a4a cd3f 2081 b734 72fa d33f
000002c0: a1c5 636f 5619 afbf aa2c 9795 3746 b63f
000002d0: 17b6 1fbc 51ae d13f 7448 a2b0 1fce 993f
000002e0: ad5e 5a92 f7e0 96bf ccd5 447b ae8a aa3f
000002f0: 63ca e897 5c1e cc3f f4f1 9a75 7ee5 cd3f
00000300: c36f b1cc a9dc d13f c83d fd0a 8595 d63f
00000310: 539a 594d 2807 bbbf 38ca 4e18 304c bbbf
00000320: 939c 025d 2449 a2bf f47d a4b5 f796 b2bf
00000330: f432 2714 eb42 70bf 4269 6873 50fd cbbf
00000340: 4c19 d7ae ee9d cb3f 55fc b9d9 04a7 c23f
00000350: a1c8 ce97 e106 bbbf fa8f c5fa aaff 9dbf
00000360: 72ae d1ed ef86 98bf 2237 0a71 e57d b93f
00000370: d6c5 77ec 5443 b2bf fcb8 a288 e909 bdbf
00000380: 5c08 70c5 9bd7 893f 3edb c094 1881 babf
00000390: 02a9 730d b884 d0bf 6756 9de5 368a bebf
000003a0: 6baa cecb eb2f d43f fc86 2cc6 4270 903f
000003b0: ccf8 8b42 8efa c6bf 4371 1c34 4e1f c6bf
000003c0: a552 55d7 9bec c33f 1d01 4e06 ca71 b93f
000003d0: 3af4 a260 addd a23f 39cf 7d8a 9cd7 913f
000003e0: 85c8 3048 a6d8 c03f 8f00 5aeb 0a9f b2bf
000003f0: 1822 782a 0d58 bdbf f369 dd8e 98a1 b4bf
00000400: a0d6 a053 8da9 703f 833e 5044 5dc1 b3bf
00000410: f98c 3fd8 2ce5 7fbf d577 0fd4 9600 c33f
00000420: 941c 7d75 3f6e bd3f e01a 1c85 f0c4 b63f
00000430: f33d 7d4d 008d 873f 12b7 c0b2 8c57 a83f
00000440: b521 1220 5853 c93f 4648 2fe4 dbcd ba3f
00000450: 6caf 117b fefd aebf 4811 166b eca7 98bf
00000460: c61c 40a4 f087 c03f e3d6 6407 15fc ac3f
00000470: d2ef b99c 1c38 bf3f 2444 1a53 6c2d a5bf
00000480: 759c 9ef8 8030 c1bf 9cfb 836e ff36 d0bf
00000490: de1f 7d75 f98b b6bf 297e 892d 5245 be3f
000004a0: 03c1 ffb1 0333 cabf 099c c0b4 300d bf3f
000004b0: 8254 573c f5dc cabf 6f3b 80b6 b1c2 cbbf
000004c0: c2d3 e666 b603 c33f 4eec c83f 1ffe b53f
000004d0: c9e6 a43a c27d b13f e720 b5c8 861c bf3f
000004e0: 0ad0 4544 e4c9 ce3f 9f41 94de c9c4 cebf
000004f0: bf26 de39 bc89 b63f c94c 79cf c5f8 bd3f
00000500: 7827 1b0f 01f1 b03f 4c13 3090 ad39 b4bf
00000510: ece3 0baa 6a6d ad3f 7f7b d3eb e775 acbf
00000520: acd6 8539 c1a5 9e3f 9e08 2c55 10c4 bb3f
00000530: 1eba 06d3 dded a93f c1ef 3778 cdd0 d23f
00000540: 8738 dee0 cb6e cbbf bbd3 946f 94a8 a8bf
00000550: 6833 e9ed acda 9fbf b352 c3ad 56fb 933f
00000560: d277 12e8 e469 cc3f 0b4f 8229 e27c 86bf
00000570: 71e4 111f 7e33 bd3f c80d f31f fd52 c2bf
00000580: ce9c 0eb0 d2a2 d0bf 9cb9 284f 6cf3 c0bf
00000590: d2ca 78cf f575 c1bf 330f 5f2d c39c 81bf
000005a0: a7d4 a125 2087 bbbf fccc 8f9d b060 a0bf
000005b0: 0976 84d4 695f 693f 0494 9a81 c093 c3bf
000005c0: 1b6d 1bbc e65d c03f 8e57 aee0 9378 b33f
000005d0: c983 c6bb 74aa d63f 9bbe 1b53 2d68 cfbf
000005e0: 5476 d109 89d0 c43f 158b 0125 147e c2bf
000005f0: c15c a3b9 e830 afbf 5637 9ecf 48a0 b0bf
00000600: c638 ea75 940d c13f 34c4 c431 4708 b43f
00000610: 6fc9 3b38 c0df a5bf 59ed 48ff 3a71 bbbf
00000620: 6abe 6114 a55c c0bf c601 f66a b973 cabf
00000630: 0e7a 5d9e b022 a7bf 7d8d 8e9e c1e2 a43f
00000640: 59ae a296 a7de b43f 0db8 49f7 15b6 893f
00000650: 61ea 6e60 3dbe abbf 0a9f e6bb 4a11 c33f
00000660: d287 811c d584 acbf 6da1 459a 5ef2 a2bf
00000670: a2e7 be28 7334 bb3f 5614 78e4 c438 adbf
00000680: af79 06e5 a797 d3bf f7d3 4744 c101 883f
00000690: 75c6 d285 e93b bbbf 85ad bb2b 1201 c33f
000006a0: af85 abcb cd0f b43f ff74 981d fdf8 b73f
000006b0: 5d7c 69cf a2c7 af3f bb2f 1f23 4c52 a43f
000006c0: 253d 86d7 c031 93bf 0b57 50cc d5b2 c9bf
000006d0: c12e 795a bdfd b53f 2fce 354e 6ca8 cf3f
000006e0: 32b2 49ef 5438 b2bf fb64 41b4 3846 b8bf
000006f0: a65e daf4 2bd1 c7bf d7d7 3495 c5cd bc3f
00000700: 0fc8 3fe7 a135 aabf 1f83 76a8 8fa7 c13f
00000710: b477 467e 6c3d 8f3f ac21 7b12 88b0 cf3f
00000720: d0a2 f5f1 f8c9 b63f b1ac 51f3 0007 92bf
00000730: 061b 67a1 b064 7dbf a08d 5211 ba71 bf3f
00000740: 3674 3130 16c8 c33f 78ad 871c d7b6 743f
00000750: eac6 0e59 1b24 c6bf c725 57de 4042 dbbf
00000760: 835d 0de2 bf28 be3f 1ca4 57bd fca0 ce3f
00000770: 8ff9 6be1 5765 cabf f445 1710 a0c3 b2bf
00000780: 0e72 78dd 05dd 723f 7a00 5329 5eb8 bbbf
00000790: eaa2 736c 4415 c6bf 2118 1a0e b83e c4bf
000007a0: c38b 7f4f 9650 8e3f c0ee a717 d0df c13f
000007b0: ce83 b892 d244 a53f 2b81 543b 3b01 c6bf
000007c0: e8b5 3c3e f3ff c23f 4a9b 8b4f 30e5 733f
000007d0: 2ce9 679e 961a d8bf 8fe4 5936 10cf c9bf
000007e0: 0612 d6c1 187d ac3f 395a a7d4 bf9b 973f
000007f0: 3bb6 de36 b860 8e3f 0db9 b62a 5779 aebf

layers.0.bias f8 [50]
0.16677102638085553 0.1793550744222923 0.06103604307209396 -0.04426568844108312 0.021433782736885367 0.08447909035223626 0.03323304564652854 -0.037526530750241
0.09214241384373667 -0.03522634736919463 0.06102402657428007 0.10419770722841289 -0.07611984137826275 -0.015665532423340383 0.16909916946197362 0.005895573965818128
0.04850630428884418 0.10482625331834622 0.018920982857607505 0.10440588602758082 0.03137957136654287 0.10420555599612683 -0.10742675963645372 -0.06848922510717056
0.1262088624587401 0.048461869827771474 0.09316296693288252 0.024494279693593288 0.01004708144874105 -0.045368374359170634 0.1513461509866653 0.07270311916908029
0.047870269489409964 -0.11412851900598993 0.10364992816610084 -0.01528316305221893 -0.02778144056847923 -0.04692016303035639 0.304252246192068 0.017740122855434626
0.11091927935585319 0.03126551794967606 -0.08722344469998895 0.01163776138638959 0.0838258495996362 -0.02329382191883425 -0.022254024012982924 0.14520663419183133
-0.08158248277089451 0.10207065684000416
00000000: c1f1 1cc4 c058 c53f 59f8 8169 1bf5 c63f
00000010: 7d68 bec1 1d40 af3f 0df6 6008 fea9 a6bf
00000020: 47b8 89cf bcf2 953f 1b39 42f2 6ba0 b53f
00000030: 9489 65f8 eb03 a13f 9af7 9b6c ad36 a3bf
00000040: 6889 082e a596 b73f 1303 d113 3009 a2bf
00000050: df43 d08c 8a3e af3f 453d dd70 b3ac ba3f
00000060: 56dd 4b05 977c b3bf 0b0f bb15 a00a 90bf
00000070: 265a 4fa5 0aa5 c53f b849 fd15 f525 783f
00000080: d10c 247d d1d5 a83f d4b6 c3b1 e4d5 ba3f
00000090: 2d8f 53aa 0560 933f b794 ff19 58ba ba3f
000000a0: 0b48 90b1 fb10 a03f c29a 101f 37ad ba3f
000000b0: 0d94 5af3 5180 bbbf b6b3 f685 8288 b1bf
000000c0: 21e2 5cac 9c27 c03f a3cd 0684 fecf a83f
000000d0: b9d0 2c38 87d9 b73f dc69 e448 0715 993f
000000e0: 9cd3 f071 9093 843f c167 4a08 863a a7bf
000000f0: 857d 6e88 4f5f c33f ecfc 25ef ab9c b23f
00000100: fec0 d0b3 7382 a83f adf0 abd0 8637 bdbf
00000110: 67c6 b43b cd88 ba3f dae3 e86b c74c 8fbf
00000120: a9a4 b5ea bc72 9cbf 7f0b 7a6b eb05 a8bf
00000130: 4749 c869 de78 d33f 8de6 f67d 772a 923f
00000140: 864b 54b5 3465 bc3f 5537 2cb2 0802 a03f
00000150: 9550 6e92 4654 b6bf 74f1 6ce4 89d5 873f
00000160: 8d00 9762 9c75 b53f 2868 5ced 55da 97bf
00000170: fe52 5c45 c2c9 96bf 3c11 8288 2196 c23f
00000180: 076f 6def 96e2 b4bf 8851 0275 4d21 ba3f

layers.1.weight f8 [50, 50]
-0.19726662829233044 -0.06132526964441704 0.061768179174525074 0.05782181117296171 -0.009824940136146071 0.028232679793927094 -0.026591192886335022 -0.13399640492886283
0.10031867642581474 0.04013912415959465 0.12392351811905693 0.010857409237970999 0.09634535778274207 -0.04925935302855561 -0.11562277420279425 0.0565277076259152
0.00494475154774937 0.12499119885633618 0.07491393732135405 0.06266552824936478 -0.16716442267190007 -0.04911833690334162 -0.019264250665529236 0.15266442418332318
0.1549086728505768 -0.04981907130915323 0.08308762081388946 -0.3454045172247344 -0.0962821785845506 0.0946928543210215 0.0800611340318532 -0.07948766971334868
-0.42987219950856564 0.43506972486915224 -0.07841172376717706 -0.18311693069033255 0.09665561831073685 -0.12204324019399274 -0.04896793194638878 0.32241120832178893
0.032586145016518554 -0.06962463802108136 0.06021535995477212 0.18600770003694725 -0.20192013306611079 0.14262778449110244 0.05719650094267869 -0.09941892287869525
-0.17585720037951444 -0.07104591296858885 0.10760144368500539 0.6366884552900125 -0.18285450700021272 -0.133192166026978 0.2608908603063192 0.023859720115840328
0.22134868909700992 -0.1731411664927707 0.1319486408897423 -0.10119422964632133 -0.06850685410788632 0.15878834441041143 0.27282371690785695 0.30891095342847696
-0.17116334995447885 0.029419438051393663 0.1315967712669498 0.34590438066366275 0.45283459503051376 0.2806536546008866 -0.17873454289489127 0.2850469261460028
0.12670336653113495 0.03126983498450638 0.21142033110500313 0.13579808895576492 0.34201743997946643 0.030137006264291676 0.16201983812875823 -0.42385202318880993
0.4737713369154433 0.30172695381710674 0.2059449571386623 -0.08518042076809118 -0.12184319378828824 0.054256893310481454 0.0751675813349633 -0.11947999359237305
0.2607352660494432 0.014846168511687565 0.044774269542322255 0.14355597935047576 -0.17161163805950222 -0.1779454331115358 0.2863356149515191 -0.35969855395519035
-0.1394698813012624 0.023731962559321945 -0.24623354825626742 0.09407705145290327 0.07770604587924718 -0.15963132388699217 -0.028504558005986197 0.037480369982259065
0.13849570153833796 -0.35699120252689287 -0.06638644624201981 0.0018748770869847441 -0.3246138918499819 0.3064557492228034 0.12476026495169336 0.04933669538325579
0.011924457158648436 -0.12422548640946811 0.17715905242775457 -0.09653003206518228 0.10610908119266714 -0.0802694913769752 -0.13779564376967202 -0.2219095102092412
-0.321218429087192 0.13469018921731518 0.1860214824573202 -0.007162552312793217 -0.08837262184029812 -0.09829834906078062 -0.000485409628966449 -0.10802446568427738
0.0636766036351892 0.032488912950787104 0.03359135070716544 0.17103242005467328 -0.1707246828650067 0.11566576516010108 -0.1212954733127115 -0.0524939045373916
0.2115425463077613 0.2741945981806891 0.2795025177461606 0.1855720434582529 0.0898314129414555 0.019181262049826918 0.12448732702246329 -0.3748779582275063
-0.1467029947470267 0.23911397353653163 0.02431951555040964 -0.367331658214658 0.030392271167921224 -0.030630848913243223 0.19379203557746869 0.19703640970404293
0.13814010144099984 -0.13694081186849338 -0.20418588074202892 -0.04352381184073092 0.27069959522337755 0.20898177029851037 -0.21357998669287345 0.05036528991278606
0.11269374349638488 0.1137801967008045 -0.30293605752447916 -0.009275922845901476 0.15716736799927322 -0.23857875390988106 -0.21189452460887304 0.05800568832494865
0.09673944680196508 0.06635025814519505 -0.10201107684225863 -0.04660974446612666 0.16984200480070086 0.1772014705404841 0.03998610004588369 0.031845719908365405
-0.025113087911114714 -0.1474476902632257 0.11515077624726809 0.1075588918326863 -0.06630884971134733 -0.08402084647203989 0.009242415349467875 -0.2213110421639599
0.22330127979844663 0.03658654373204389 0.250931443980779 0.23454716214658308 0.03599243492944418 -0.02606917235054524 0.08664770061256723 0.04136547344568916
-0.03973923263560417 -0.09505818712094186 -0.23970994754038027 0.1355710327001174 -0.19902044385822515 0.18108691666837934 0.08750841838290241 0.09594336045691292
-0.35134270883592267 -0.01615061043439807 -0.11891596375096686 -0.0657375781574546 0.13499919224038934 -0.05640334329186931 0.06007866273434409 -0.09733838414571315
0.090868073828353 -0.057013813238502534 0.1223657294514921 -0.06447546355028722 0.24006353129263977 -0.06558013564474356 -0.1774688969868467 0.17749896868365772
0.11830555477202624 0.1711075246157136 -0.026849629780337978 0.09973007891587214 -0.2416991846687761 0.01598662322265135 0.12443606871095202 0.28768698245821345
0.032426412645312236 -0.1111444927000576 -0.11825219743325421 0.0340698994571943 0.09279790220482403 0.040088233667442 0.11215714383282238 -0.015092354599377274
-0.24825407638025723 0.5868663596892161 -0.06245896740204834 -0.25061911821427435 -0.1313893436574335 -0.005073232924542447 -0.2339015227251361 0.2643396876162619
-0.24537268764026193 -0.15960263330943814 0.15827098924308758 0.04947324781598503 -0.0156447743415176 -0.0037489737063948186 -0.35328595373009225 -0.03013680176464714
-0.011040253340841072 -0.01434759010943693 0.01740086875910504 0.4554504300346004 -0.2790033385145195 -0.5370596474475035 0.5416845366012606 -0.14538781757535987
00000000: acca 8d6a 0840 c9bf f911 1597 0666 afbf
00000010: 25e2 f92a 14a0 af3f b17a f707 d29a ad3f
00000020: 702a 8f24 191f 84bf 26cc 9211 07e9 9c3f
00000030: d9d6 3bbf b83a 9bbf a6bb 7950 cb26 c1bf
00000040: 0a48 6d1a 7cae b93f 1170 1c83 1d8d a43f
00000050: 1bd0 86a1 73b9 bf3f 965f c5cc 683c 863f
00000060: 255d cce0 16aa b83f 583d 8f9c 8538 a9bf
00000070: f3b0 df41 7499 bdbf 816e 241f 33f1 ac3f
00000080: bf6b f3a2 f240 743f 3334 6057 6cff bf3f
00000090: ad4f cf4e 8f2d b33f e8e6 6a1a d90a b03f
000000a0: aa1b 37d0 a465 c5bf 7a7c 44e5 0926 a9bf
000000b0: 5390 5cfa 01ba 93bf 4da5 9002 828a c33f
000000c0: 5e47 e121 0cd4 c33f d5d4 faa3 e281 a9bf
000000d0: 5a1d 19f6 3a45 b53f e0bc 578c 1b1b d6bf
000000e0: 9a51 35e8 f2a5 b8bf 1143 7978 ca3d b83f
000000f0: 97f4 58f0 e27e b43f 23a5 dacd 4d59 b4bf
00000100: ff53 96af 0683 dbbf 09bc f2af 2ed8 db3f
00000110: 8ef8 336d ca12 b4bf 1556 5426 6070 c7bf
00000120: b688 9e2f 6cbe b83f 1ac1 54cd 393e bfbf
00000130: 8a65 8624 5312 a9bf 80c7 e69e 62a2 d43f
00000140: 3d1d 4c96 21af a03f bbdf 4b97 ebd2 b1bf
00000150: 80fa 7133 8cd4 ae3f 353f 3bae 19cf c73f
00000160: 0c22 f6d7 84d8 c9bf c3f2 f192 a041 c23f
00000170: ff26 fd19 dc48 ad3f 4017 5ebe 8473 b9bf
00000180: 7fb4 321e 7d82 c6bf d7ec b6a0 1030 b2bf
00000190: db25 a1a9 c48b bb3f 7ac3 a677 c05f e43f
000001a0: aefd bec7 c667 c7bf bbaa 95de 700c c1bf
000001b0: 0dd2 3594 6fb2 d03f b563 5bb6 ae6e 983f
000001c0: 8d91 5762 2755 cc3f 39c0 d65f 7d29 c6bf
000001d0: 77c1 af6c b1e3 c03f 12f7 df72 dde7 b9bf
000001e0: 9cf9 f149 aa89 b1bf 1746 1d2d 2d53 c43f
000001f0: 6950 6c9b f175 d13f c67e 9672 32c5 d33f
00000200: 6605 2a3f aee8 c5bf 7992 3011 2120 9e3f
00000210: 1ce5 6cba 29d8 c03f 9796 9f20 4c23 d63f
00000220: 4dd2 09f4 3dfb dc3f 43e0 00bf 3af6 d13f
00000230: a214 3304 c6e0 c6bf 8ed5 6776 353e d23f
00000240: 76ac c5df d037 c03f fb33 388d 9902 a03f
00000250: f819 e747 d20f cb3f c34f 76ef d461 c13f
00000260: a0e6 d71d 9de3 d53f 93c9 3741 3cdc 9e3f
00000270: 3d7a 08e9 10bd c43f ad1e 7c3c 6420 dbbf
00000280: b160 7503 4552 de3f d3d5 bd91 7e4f d33f
00000290: 02e5 d783 675c ca3f 585e 7551 62ce b5bf
000002a0: 6196 8f94 1d31 bfbf a1c0 b33c 8fc7 ab3f
000002b0: 2397 8dbf 2e3e b33f 886a 01a9 3d96 bebf
000002c0: 6e28 26f8 e2af d03f db2d d401 ab67 8e3f
000002d0: 95eb c52e a7ec a63f 4a4f 3ad6 0a60 c23f
000002e0: f50d 8ac2 5ef7 c5bf 91e2 d77b eac6 c6bf
000002f0: 8d65 799d 5253 d23f 76fc 6915 4d05 d7bf
00000300: 65a3 7b29 26da c1bf 38ad 3f0c 314d 983f
00000310: 8827 78b6 9484 cfbf 2259 4b03 6f15 b83f
00000320: 44ba c01d 8be4 b33f 2783 c199 cc6e c4bf
00000330: 08ca b081 4c30 9dbf 48ae a186 a030 a33f
00000340: d232 5f26 3aba c13f 9003 f4a0 f1d8 d6bf
00000350: bed3 81bf b3fe b0bf e697 72f1 cdb7 5e3f
00000360: 44ab 5458 79c6 d4bf ce51 2593 f89c d33f
00000370: 29cd cee9 49f0 bf3f 4edd 53ca a842 a93f
00000380: 45ce 268c d96b 883f f356 75d1 3dcd bfbf
00000390: 0d0c 2fd8 25ad c63f 0f42 cd32 31b6 b8bf
000003a0: 17f7 87f9 f629 bb3f 4ca6 5498 8a8c b4bf
000003b0: 24d1 c2a3 49a3 c1bf a091 82e4 8767 ccbf
000003c0: b853 f3bd d78e d4bf d2e4 e332 873d c13f
000003d0: f4f9 c04b 8dcf c73f 3785 07ff 7a56 7dbf
000003e0: 8675 aa90 969f b6bf 2983 77a2 142a b9bf
000003f0: 9b75 487b d2cf 3fbf 0927 48cb 7da7 bbbf
00000400: 8e2c 2222 1c4d b03f a962 3605 63a2 a03f
00000410: be75 6eb1 e232 a13f 2664 58ed 63e4 c53f
00000420: f238 c370 4eda c5bf a823 a186 459c bd3f
00000430: 77eb 075b 380d bfbf 6673 7426 7be0 aabf
00000440: fd5c 0d7f d313 cb3f 4942 fb7f 678c d13f
00000450: 91a4 3787 5ee3 d13f 4a40 da20 d3c0 c73f
00000460: 82ad bc04 31ff b63f 16d0 ccb4 40a4 933f
00000470: acf3 53c6 66de bf3f 6704 a51e 00fe d7bf
00000480: 6af5 54ea 29c7 c2bf d491 2d64 499b ce3f
00000490: f637 c60f 37e7 983f 6150 b4a4 5c82 d7bf
000004a0: 469a deca 261f 9f3f 090b 5379 b15d 9fbf
000004b0: 4fe7 836b 2dce c83f 616a e633 7d38 c93f
000004c0: 8b44 fa28 93ae c13f 403f 3bca 4687 c1bf
000004d0: b0c5 0b50 c322 cabf 6b09 e8c8 c048 a6bf
000004e0: 0d97 2165 2453 d13f 6f36 7226 eabf ca3f
000004f0: 6387 f6c8 9656 cbbf cad5 0eb2 7ac9 a93f
00000500: 93e1 c746 7fd9 bc3f ce2c c3ef b220 bd3f
00000510: 2e32 f6ea 4d63 d3bf ae5f 1b4a 41ff 82bf
00000520: 4413 c770 0f1e c43f 8d1c c8a4 bf89 cebf
00000530: 08c3 b21a 5c1f cbbf fcdc acec ebb2 ad3f
00000540: de60 3f98 eac3 b83f ca94 d09c 54fc b03f
00000550: b003 dede 651d babf 4259 5080 3bdd a7bf
00000560: 3394 0d00 62bd c53f 6122 63ac 89ae c63f
00000570: 25ba fbdf 0e79 a43f 744a 0c0b 154e a03f
00000580: af86 1ecd 3eb7 99bf bd90 c6df 90df c2bf
00000590: bf4d 1772 857a bd3f 58bd d0c2 fa88 bb3f
000005a0: e113 f2e4 9df9 b0bf 0897 c7e3 6382 b5bf
000005b0: 70cd 4bfd afed 823f cf3f 2b94 eb53 ccbf
000005c0: b9d3 f1e6 2295 cc3f e708 9bb1 78bb a23f
000005d0: 43df 5bc2 420f d03f f703 6533 a405 ce3f
000005e0: 34ca d9b5 996d a23f 32af b78a e0b1 9abf
000005f0: 4192 6730 8b2e b63f 3bfd 43f7 da2d a53f
00000600: 0d7c 1361 b358 a4bf 4ac8 e6bc bb55 b8bf
00000610: 8e1c 9bc8 d0ae cebf 90b0 dd3f 645a c13f
00000620: 2ca1 cd7c 8079 c9bf 4a7e 6928 db2d c73f
00000630: cc49 14a3 f366 b63f a347 6e7b be8f b83f
00000640: 88da 0821 667c d6bf 4c34 811e c989 90bf
00000650: 9c60 48cf 4671 bebf 76f4 4d8c 2dd4 b0bf
00000660: 7b56 d44d a747 c13f 19b4 a525 e6e0 acbf
00000670: b849 4367 a1c2 ae3f 7f23 8d18 2beb b8bf
00000680: d5e1 574d 2143 b73f 622a 8f1e ea30 adbf
00000690: 2c35 2546 5c53 bf3f d8c9 57c7 7681 b0bf
000006a0: cf9c eedb 66ba ce3f db85 dc19 dcc9 b0bf
000006b0: 3ecf 4e02 4db7 c6bf 02f7 c844 49b8 c63f
000006c0: 5355 aed8 4549 be3f fe78 29f3 d9e6 c53f
000006d0: 79d9 4327 787e 9bbf ff04 5f13 e987 b93f
000006e0: 26a6 cfb6 ffef cebf 49b7 a81f cc5e 903f
000006f0: cf6c 8ecd 0adb bf3f 2226 49a9 7669 d23f
00000700: c42a addb 319a a03f 64fa 4629 f773 bcbf
00000710: 20ed a7a8 c645 bebf 50b0 e41f 9c71 a13f
00000720: 946c 1b73 9ac1 b73f 25b5 1ce9 7186 a43f
00000730: 6055 c6a0 54b6 bc3f 7145 648b bde8 8ebf
00000740: 2971 9321 cac6 cfbf b29b bff5 9bc7 e23f
00000750: 5cde aa2c 9ffa afbf 01e4 1ec5 240a d0bf
00000760: 3c9a 06b3 5dd1 c0bf 1935 ef97 abc7 74bf
00000770: 5466 4b2f 7cf0 cdbf 5a30 5602 f1ea d03f
00000780: e68e 5f4a 5f68 cfbf bcb2 35ed db6d c4bf
00000790: 4831 5a49 3942 c43f cc09 cbba 8e54 a93f
000007a0: 8ab8 9908 2f05 90bf fc0a cdee 2ab6 6ebf
000007b0: e70a 5ab0 3c9c d6bf d7d6 f087 2edc 9ebf
000007c0: ddc7 4eb8 459c 86bf 631e 5ff2 4462 8dbf
000007d0: 1729 f888 88d1 913f daa7 7c8f 1926 dd3f
000007e0: 6a42 99d1 30db d1bf e539 b9b6 972f e1bf
000007f0: 4a71 2ecf 7a55 e13f c38a dc68 119c c2bf

layers.1.bias f8 [50]
-0.01834793001385585 0.12648656636876826 -0.007502673374022317 0.002778361503102802 -0.01839709077317585 0.17324094494490336 -0.004767337566768514 0.01643685385120301
0.05549053107214484 0.17921575856243852 -0.012749099908841476 -0.024460686869628163 0.08096107899252056 0.056674723952721356 -0.022222271748027208 0.10254786944050737
-0.001718775769025385 -0.09361860648795052 0.11715920815122455 0.0681510813348144 0.014449193416189776 0.06475575413613188 -0.07188783058859104 -0.08047600585239187
0.012461206682306217 -0.18955153923411452 0.056710711056612365 0.2132133080489049 -0.047498016973895905 0.02353314962440731 0.06435203055934717 0.02687973976301499
-0.0372054264428713 0.04449596830945055 -0.0804928203699574 0.059246741813340796 0.13640616367750039 0.04151930942476907 0.06854604347589964 0.045114968527378944
-0.03129395416917289 0.08614596791933533 -0.08963253707843491 -0.03641926704447656 0.03797983905092602 0.13359697738574794 0.11019306296999992 -0.024911680048159208
-0.057054564189327604 -0.06953067854317421
00000000: 496b 6fbd ccc9 92bf f2f5 f738 b630 c03f
00000010: 7349 628c 1fbb 7ebf 9f74 5a79 a5c2 663f
00000020: fd6d d9dc afd6 92bf 5be9 6e60 c22c c63f
00000030: 0c20 036f ea86 73bf 4bcf f596 d2d4 903f
00000040: ce93 6240 4169 ac3f 770c fabe 8af0 c63f
00000050: d997 4b39 331c 8abf f22c 92e8 380c 99bf
00000060: 4e91 8582 ddb9 b43f 3406 c62b 7804 ad3f
00000070: 4f37 9a69 6fc1 96bf 347e 85c1 9340 ba3f
00000080: a550 e56d 1129 5cbf f1af 2995 63f7 b7bf
00000090: d44c 6f57 25fe bd3f e822 8569 5972 b13f
000000a0: 40ae 68e9 8997 8d3f b014 3e46 d593 b03f
000000b0: 3fbf 5ba9 3d67 b2bf 9eac 3f55 139a b4bf
000000c0: 8286 5ad9 4285 893f b15f f58e 3943 c8bf
000000d0: 6a61 a4b2 2f09 ad3f b72d 92dc 924a cb3f
000000e0: 6333 0efb a851 a8bf b9e9 08f0 1219 983f
000000f0: abff aeea 5f79 b03f 8e1c d4cc 5c86 9b3f
00000100: 739a 9cf3 960c a3bf 5dc9 62f1 2cc8 a63f
00000110: c740 0d6f 2d9b b4bf b338 f7c4 9655 ae3f
00000120: 2ddd fbd5 c175 c13f ca86 43d8 0442 a53f
00000130: 77ca ffc6 3b8c b13f ef33 c524 4f19 a73f
00000140: 8d30 70db c205 a0bf d553 e582 a90d b63f
00000150: 7acd 686f 28f2 b6bf 67f6 ccd1 8ba5 a2bf
00000160: bb1b 43ed 1772 a33f b8ad 5bac b419 c13f
00000170: 94c4 b3d1 9c35 bc3f b58b 618c 7282 99bf
00000180: 3bb7 8f7e 4136 adbf 1260 6936 c3cc b1bf
