main/discrete_time_identification (KdV)/models_iters/KdV_noisy_58000.pt (torch, 127868 bytes, 14 tensors)

linear_in.weight f8 [50, 1]
00000000: b68d b7d9 8202 c43f 82c9 4a2b 91a6 b33f
00000010: 2817 d6a5 7181 b0bf b9e9 a7b1 747a d5bf
00000020: 4e3b 83b6 45f6 bfbf 5b21 79de 20e7 c3bf
00000030: 05e7 d1a0 8d5a cc3f 83b9 6bb9 81d5 e13f
00000040: da3b a97d ca14 d2bf 467d 912b 3628 b4bf
00000050: 8a92 f6ef 77e7 b1bf 5a46 ea92 5e15 d93f
00000060: b6a6 36be 4a1f ca3f f4e1 8adb b0eb 653f
00000070: b795 82ed 4cbb e33f 4264 715c 792f c33f
00000080: cc89 528d c6e8 cb3f 9a6f 11cb b03f ccbf
00000090: 6b9f 9540 2003 b63f 263f 929c c649 c63f
000000a0: 46a0 81d8 15ea d3bf 0d49 9c4f 5fbe d6bf
000000b0: e122 8988 c328 c2bf bec1 5392 efcc a23f
000000c0: 1f9b 4e1f 082b 9ebf f6e7 1df5 93fd a5bf
000000d0: 74b3 3b78 d08a d93f 218f a9a5 ef17 ce3f
000000e0: efa3 8670 3227 bc3f bf7d 6b15 cdc7 cfbf
000000f0: b988 b5c5 5582 b3bf 1516 1f48 0d08 da3f
00000100: 17d2 af8e 6b91 d23f 4adf e333 cedc c13f
00000110: 3152 3735 2bf2 b6bf a3fa 30d3 faba 9c3f
00000120: 9b67 c475 b058 6dbf 25ed 3a05 73e5 c03f
00000130: 61c0 30f4 a5f3 d4bf ed9b 63e5 f277 9ebf
00000140: ae72 73e1 4895 ce3f 04d6 f98b 4d13 bebf
00000150: e670 fa6e fc78 d0bf 2fa9 14f6 c6f8 c13f
00000160: 5bfd 9c11 da72 d73f 08f2 be83 6d13 d93f
00000170: d8bb 3947 5d32 b43f 849e 6f28 2700 b9bf
00000180: f71a 7c74 705c a83f 8719 fe05 26d4 d2bf
0.15632663374627292 0.07676036173760362 -0.06447515772569246 -0.33559911107263535 -0.12485156732439615 -0.15549097884128113 0.2215134654286929 0.5573128339290608
-0.2825189807089693 -0.07873858035735734 -0.06993817909694591 0.39192928645306824 0.20407995498435633 0.0026758627176059983 0.6166138304585534 0.14988629354300725
0.2180412473727088 -0.22069368281779306 0.08598519875306258 0.17412645955163802 -0.31116243498991414 -0.35536940359556085 -0.14186901251584685 0.03671978627415083
-0.029461028014021836 -0.04295027129315081 0.399097554602853 0.23510547245961624 0.10997309920516306 -0.2482849459256453 -0.07620750500567199 0.40674144785984484
0.2901257413316513 0.13955094846437027 -0.08963270234318867 0.02805702127465771 -0.003582329414837338 0.13200223689441618 -0.3273711094543668 -0.02975444340782112
0.23893080719326093 -0.11748203914051919 -0.2573844035885159 0.14040457740458964 0.366384999466353 0.3918107782917848 0.07889349926857336 -0.09765858399588906
0.047580255717596324 -0.2941985186120281

linear_in.bias f8 [50]
00000000: e3dc 6c3e 6924 bebf 76e4 dc2c 84de c03f
00000010: 4e67 7f76 1c63 bdbf 5364 fb6a a096 b3bf
00000020: 2138 654a 7bea b8bf f6c7 b6a0 2ab1 b2bf
00000030: 5122 7a64 e09b b93f 0181 070e 6c7b a63f
00000040: 5fbe 33d7 f1fd c13f c876 8920 0628 b4bf
00000050: a3ad 9f6f bbc9 b13f 56ee aacd ae4c a83f
00000060: b5c6 150d 974b ae3f 4b56 9df8 8bce b63f
00000070: 0798 6829 cec2 953f 1537 ff2b b92f ba3f
00000080: 3f8c 8730 6392 9abf 7c1a 1fbf 01c6 8c3f
00000090: e69d fe51 d2f8 ba3f 7458 0d5b 6b70 b8bf
000000a0: b1d4 3d16 ac53 87bf d5c9 e86e 81aa b93f
000000b0: d760 a188 218d b6bf a774 dcc1 e5bd a03f
000000c0: 9eff 8811 fdb8 aabf fe26 3a49 9cff acbf
000000d0: c40a 4694 b662 ad3f 7779 3f84 b326 b23f
000000e0: 4d72 90a4 651f bdbf f857 0942 712d b43f
000000f0: d13b 808b 7904 8b3f 4a61 338a e52e b83f
00000100: c66e 26d2 d08b af3f 4157 9718 a1c4 9a3f
00000110: a4e1 6534 3645 bf3f b6b4 5c88 b178 a9bf
00000120: 8217 38de fc4e bdbf e2a0 53c3 b7e5 b63f
00000130: 18a3 2437 0d98 a6bf 8b32 9f4d 4d83 ba3f
00000140: f3e8 5a4f 05bb b93f 434a 714a 24e1 95bf
00000150: db80 b516 debd b63f 02ad fad0 3af8 a6bf
00000160: 4f92 835d b3a5 943f f1f4 61a5 0919 b8bf
00000170: 6f32 5325 d83a b43f 32a6 52fa a6c4 ba3f
00000180: 29cf 47f0 9b59 babf 95bb 66e6 a88d 61bf
-0.1177430894284615 0.13179065886086833 -0.11479356663713 -0.07651713001122688 -0.09732790533345838 -0.07301584647828449 0.10003473713926182 0.043910385811388515
0.14056227691570464 -0.07873571676597202 0.06948443865956348 0.04746004353134185 0.059170456263826145 0.08908915347759565 0.02125093581903317 0.10229070018905546
-0.025949048840527175 0.014049543042245143 0.10535921575375759 -0.09546538327171722 -0.01139006083369973 0.10025795896289165 -0.08809098802283032 0.03269880286664178
-0.052192600622674265 -0.056637653292524334 0.05739374694805613 0.07090303400716445 -0.11376033084565869 0.07881839620799258 0.01319212872479439 0.09446558593788726
0.06161358418759515 0.026140706182409493 0.12214983729598444 -0.049748943229454154 -0.11448650765677651 0.08944271582334154 -0.04412881181844436 0.10356600899758399
0.10050996005421435 -0.021366660159694694 0.08883464865130312 -0.04486259270682959 0.02016334779991019 -0.09413204467451287 0.07902289305929754 0.10456317531011264
-0.10292982689116727 -0.002142743952581803

linear_out.weight f8 [50, 50]
00000000: 4980 bd45 f0fe d03f 6284 2de3 ecc0 e2bf
00000010: e4e1 a50a 6818 e83f 5712 6d18 c22d e1bf
00000020: 0672 7510 73d8 d2bf f87e a1bc 891c e7bf
00000030: 359a 25b6 2493 7ebf bdff d135 3679 d9bf
00000040: 95eb a1ff 1310 d4bf 1912 f903 a598 d43f
00000050: f783 f5fd f07f dd3f 0332 3986 374d bb3f
00000060: ce5c 712d 8635 d7bf 904d d905 2a03 c1bf
00000070: d24a 5815 fdea d73f 3235 9fbd 3145 e83f
00000080: d824 1ea2 9570 d03f 2e81 0558 08b4 c53f
00000090: 85df e700 dfcf e43f 5536 4784 b887 d23f
000000a0: 42ad 9859 7a1e d5bf bc27 3488 1e69 d7bf
000000b0: 5d29 5e9a 092a b5bf 593b ace8 ece6 c5bf
000000c0: 6553 ae8b 2322 c03f 0311 6173 ee38 c8bf
000000d0: c382 b86c 6ff7 99bf ba95 438e 7246 cdbf
000000e0: 3d40 ddc2 0ab5 d63f c278 d650 3872 d8bf
000000f0: 11ae b695 dff0 cdbf 4a85 944a e02b d13f
00000100: c422 5fb4 cbea dbbf 1422 45d4 dd53 b0bf
00000110: ab98 c5ed c684 c63f 091f e241 68aa e33f
00000120: ad1e dc26 bd8c d3bf edf0 db2f 7286 bcbf
00000130: ce1b 26ec 5636 8e3f c6d5 a605 d1d3 85bf
00000140: 1962 c723 f28e b83f dcdf 0f9e 8baf f53f
00000150: 2d29 885c 4e9f e23f cd04 4aac 703f e03f
00000160: b2ef e2d8 9ed1 cc3f 28d3 4471 cb78 d3bf
00000170: bc7b 0010 3e09 eb3f 559e 93fc 7d68 c9bf
00000180: 6d9f 8bc2 a5a2 c4bf 5c12 01ac e034 d7bf
00000190: 00cb bd43 6129 d2bf 2265 1ab5 8388 d5bf
000001a0: 144a f8f0 e12c d9bf 2b84 f30a 031e 8a3f
000001b0: 50b9 858d d113 9cbf 52b7 8af7 bf90 db3f
000001c0: 788a 936e 26ad cb3f 3faf 59dd 7d2f 90bf
000001d0: 1fdf f1df a6a9 d43f 5ae4 a1bf d80e cabf
000001e0: cec4 8b70 420f c9bf b6fe 60d4 5eae c5bf
000001f0: 7f71 f89a 69ef c03f ae33 e20e f512 c7bf
00000200: 4b87 f319 a460 ca3f 7fb3 8221 0fc8 96bf
00000210: 1a3d c365 5361 b13f 6f44 2200 48f3 d0bf
00000220: c19e cf1c b1f3 b0bf c551 2022 5b50 d0bf
00000230: 27cc 6ed8 14c3 d33f 5233 11c6 a03b cbbf
00000240: 1d54 f6a6 aad6 cc3f 9366 b51d 6b15 dabf
00000250: e8a9 2b65 7509 983f c6d1 bdac ed27 d33f
00000260: b0db dedf a1a5 bfbf ddef 0aed e32f d73f
00000270: 4611 bae5 ba1a d43f 8f5d e01d 1986 c4bf
00000280: f593 5a89 f5d3 4abf fa90 4f4f 295c 9f3f
00000290: a1d7 e797 3850 ccbf 2544 f17f 3640 c43f
000002a0: 5702 bab9 b4d2 c5bf fd49 f76e c3a9 d53f
000002b0: de9f 59c2 39d5 c83f b4aa 4764 f25c 963f
000002c0: 1b34 9e75 2853 c2bf ed75 ba21 45c8 7bbf
000002d0: 6bff cb19 9452 ddbf a42a 125d f28d dfbf
000002e0: 8309 0cff f0d0 c23f b182 b71f dd0f bebf
000002f0: 40aa 7632 8b50 c4bf f3ce 2538 f353 d23f
00000300: 312a 3abf 7866 81bf 6e20 67b5 f454 a23f
00000310: 2c28 01ec dfec b1bf b7d6 4670 f9db da3f
00000320: f007 693e 4d08 c53f b1f2 91d6 868f dfbf
00000330: 77f0 f48c 0423 d83f d086 bc5b ceb1 c9bf
00000340: 6e23 7b2d 02b7 c0bf f1ba b3a2 55cc cabf
00000350: c09c ca08 b1ea cdbf 3179 916a 823e a43f
00000360: 0e51 c1d3 0911 d23f 80b7 238a 0627 acbf
00000370: 29c1 207a f88d 67bf 717d 8b20 296e c03f
00000380: 1d0a a30f a916 c3bf bf88 63dc 34d0 bdbf
00000390: 5d3c 3a9a c789 c73f 79a5 1a58 9bbe ce3f
000003a0: aee9 4519 0328 d23f e1e9 3d12 3d39 c4bf
000003b0: 5555 6eb4 763d cd3f b85c 27a7 1e2e a0bf
000003c0: bf6e b4b1 e6b0 b03f 28e5 246a 2271 8b3f
000003d0: f3cd 7703 3eed e03f a0a0 9d5c 2755 c2bf
000003e0: 7beb 7596 0cd8 d23f 02a3 8096 3b1f dfbf
000003f0: d1f4 1fb6 36b1 d4bf fe65 3b5a 498b d2bf
00000400: 0691 b6e0 64a5 c2bf 1afe 8288 c6d0 c53f
00000410: 4c1c 5ec7 dd25 cabf 77fb eba0 b3b8 c13f
00000420: 603e 6387 0faa babf 28bc 8e83 de9b cd3f
00000430: e19e e604 1c9d 9bbf a1da 8824 9eee e63f
00000440: cf23 867c 4eab b2bf 805b e564 4627 adbf
00000450: cb98 6cd0 dec8 c4bf 22e5 cb49 79f0 bd3f
00000460: 79e6 4b7c 65b6 adbf ded4 384d 6032 b0bf
00000470: 1af6 3c31 bfb8 b8bf 3a38 ad41 49d9 babf
00000480: a17d e893 67fa d23f b466 dfdc a7ab bebf
00000490: e9e3 f4e5 92f6 c73f 71d6 6f31 b372 9dbf
000004a0: 28fa bc16 3333 a43f 20b3 c2ec c16b 973f
000004b0: 9f41 17bb eace cdbf 7882 7f5c 2f52 e2bf
000004c0: c58a 84f7 0adc c3bf e9ef 04a4 9135 db3f
000004d0: 217e 2631 8c4f a3bf 141a 4700 e70b 7e3f
000004e0: 0f83 bf04 6c22 d0bf 333b 9d19 2177 b43f
000004f0: 5655 18c9 f341 bc3f 9ffd 41f9 29e3 d1bf
00000500: 2b43 a112 7383 c53f b159 3cac 55e4 c03f
00000510: 605e b8bd c371 bdbf c6b4 5eaa 24d0 c33f
00000520: ba80 71f3 8285 c2bf b94f a61c ec25 c93f
00000530: b4b7 3e63 76d5 8e3f acbf 63d5 3189 d9bf
00000540: d07a 727e 8410 c13f 2cb7 9592 096b ca3f
00000550: 9c9e a4f5 30c4 cdbf 2b75 eb37 57ba bcbf
00000560: aaad fdf6 0896 b8bf 33c4 508f 46e0 b03f
00000570: 2c49 968f 3733 ca3f e195 64a1 2981 bbbf
00000580: d785 dbb3 0d43 bebf 5350 0670 f40b d5bf
00000590: 4851 12e5 382f c9bf 9e73 e22f 0dae c03f
000005a0: 7882 6850 7df9 acbf 96c3 9fa7 d2eb c43f
000005b0: 35a4 9972 10b1 c3bf e47c 07a9 aeed 70bf
000005c0: 0a2e 9995 871c abbf a97b 7cd1 9462 c83f
000005d0: 92d7 38ca 5a16 bd3f 4523 99e9 f3ff 443f
000005e0: f7d9 020e 09a5 d33f bbca 703d 2e61 c8bf
000005f0: 5a99 e301 f2b7 a93f 64ec a6de c344 b0bf
00000600: f9ad 6df1 ddff c4bf 350c 2b8b a174 ac3f
00000610: 5e99 1934 d1d7 c1bf d1d5 b459 b52b bcbf
00000620: 789a 7314 2d17 b13f d733 dba6 33d5 d43f
00000630: 28fa 6913 dbdb 843f 86cb 623a 97ec 983f
00000640: c2f3 c7ca b227 a03f 89a3 27d5 e298 ddbf
00000650: cf40 5580 aa64 723f 92c6 ed82 a667 ca3f
00000660: 90a0 573e bdaf 9a3f a919 fc05 a52f ce3f
00000670: 4c56 5d77 00f9 a73f 13a2 89ee 050d 913f
00000680: 2d84 faa9 0de3 a8bf df79 be68 28d1 c2bf
00000690: 58f7 3bc0 2e41 c9bf cea4 ff33 7f8f c93f
000006a0: 8b52 c3ff c5a2 aa3f 8a57 1462 99ea af3f
000006b0: d191 30ac 489a 793f 8ed3 263a 1e6b d53f
000006c0: 2f79 1421 bc6e a6bf f698 d37f 0c53 c0bf
000006d0: 454c 94af 53f8 c33f 7a34 8243 fc68 ae3f
000006e0: b4ec d599 6af8 d1bf 1077 4e5a 9710 c2bf
000006f0: 1064 4081 ff7e b1bf 87c9 1494 c944 a2bf
00000700: a316 ab5e ba6b b0bf 1f3f 26e6 3a62 b8bf
00000710: 1fa4 0799 3485 78bf bcf6 4e91 8add ba3f
00000720: ed48 2e6a 924f b13f 3d80 9779 9f8f c7bf
00000730: eb3d 6634 3e67 c33f cb1e 2a5e 4ff3 b23f
00000740: e0d2 0556 7861 c7bf 43f8 938f 3128 a93f
00000750: c3a8 4f9f 2f3e c0bf 9f38 0e9b ed8e cb3f
00000760: f0d8 d72f d2c5 a7bf 95c6 5cbd a5d5 b83f
00000770: f593 2492 6d45 ce3f e9cc 52da d4f3 c4bf
00000780: 86a7 c77a 6c45 b9bf b6a1 018e 18be c63f
00000790: a521 e935 6457 bcbf f9f4 d0ae f655 cb3f
000007a0: 277b 0522 9564 b4bf eea4 b047 3060 b63f
000007b0: 4e13 d0b0 d933 c33f 54bf 54c3 1d52 943f
000007c0: 3987 b1bc 9da8 ccbf 0265 3649 b86d cdbf
000007d0: a768 09fe 5701 c73f 211b 0ea5 4b12 d6bf
000007e0: d4e2 e54c a9ed c2bf 0a4e 5a2b 4213 b4bf
000007f0: 5d0e 064d 7053 cfbf 00b1 e454 f680 b0bf
0.26556021509714306 -0.5860504567209655 0.7529792983978578 -0.5368357159682756 -0.29446102721502176 -0.7222336467929997 -0.007464545635548482 -0.39802317863358977
-0.31348133052932187 0.3218166865156334 0.4609339218205259 0.10664698626460027 -0.3626418536927759 -0.13290906224811438 0.37371756634199216 0.7584465697815743
0.25687161285220617 0.1695566587250225 0.6503748910608783 0.28953373830595314 -0.32998522519729445 -0.36579097081323275 -0.08267269152398656 -0.1711097847077905
0.12604183502539992 -0.18923740991352397 -0.025357953081882167 -0.22871238657459775 0.3547999289485267 -0.3819714345389792 -0.23391337213739452 0.2683029869386543
-0.4362057935182231 -0.06377970154165552 0.17592703447298183 0.6145516669066363 -0.3054650191774993 -0.11142648380695493 0.014752081948939646 -0.010657914147354296
0.09593118070132113 1.3553577589318513 0.5819465453398941 0.5077441563627417 0.22514710989150682 -0.3042477232113918 0.8448782265221477 -0.1985013469013547
-0.16121360778128793 -0.36260239407810047 -0.28377563109749815 -0.33645718274927294 -0.3933644154759872 0.012752555629449066 -0.027419351828421867 0.43070983098993054
0.21622162245974486 -0.015806166300918575 0.32285472745523863 -0.20357808453607867 -0.19577818389328744 -0.1693838631635935 0.1323062903110319 -0.18026602961290678
0.20607424990799425 -0.02224753992111372 0.06789132341804241 -0.2648487092311091 -0.06621844247240018 -0.2549045403732431 0.308781825409087 -0.21275720282792548
0.22530110504581638 -0.40755727673750036 0.023473581600152033 0.29931203717503896 -0.12362109866704318 0.3622979941244447 0.314131473867992 -0.1603423496132845
-0.0008187245282057486 0.030625005212542945 -0.22119815270678791 0.15820962187947987 -0.17049273556405595 0.3384865363742902 0.1940071295714451 0.02183893906650765
-0.1431627821260982 -0.006782789274124107 -0.4581651927874108 -0.4930387410064816 0.1470013852450159 -0.11742956184708465 -0.15870799984016237 0.286373905975082
-0.008496230445662696 0.03580441202535743 -0.07002067100361903 0.41967617001078444 0.1643158488023455 -0.49313517526733636 0.3771373154193109 -0.20073871115987751
-0.13058497639419947 -0.20936079449116776 -0.23372471741934042 0.03953940916902566 0.2822899406358069 -0.05498524128220961 -0.0028753140514014186 0.12836183632951362
-0.14912904037017052 -0.11645822887979572 0.18389220266951414 0.24019185831029313 0.283692145043143 -0.15799678221431093 0.22843822298151886 -0.031601865677367724
0.06519929731842476 0.013399380554448628 0.5289602344259364 -0.14322368643047856 0.2944365949003253 -0.48628129670628095 -0.32331626687648646 -0.2897513753101463
-0.14567242595979496 0.17043382325754025 -0.20428058848139796 0.13844914777288483 -0.1041574197326951 0.23131925033291734 -0.026966512488484255 0.7166281426969655
-0.0729264310849793 -0.05694026929511775 -0.16238007714236455 0.11695058871909628 -0.05803219930926402 -0.06326867947867096 -0.09656901313879765 -0.10487802365716528
0.2965334839263623 -0.11980675833128879 0.18721233585691202 -0.028757858173739274 0.03945312168660947 0.02287199981280985 -0.23287710318846863 -0.572532349262544
-0.1551526745398261 0.4251445867300832 -0.037716275214958246 0.007335569713581087 -0.2521009489410497 0.07994276881548217 0.11038135203883334 -0.27948998776988704
0.16807402047791106 0.1319682208056299 -0.11501716024246766 0.15478952711911215 -0.14469944846041988 0.19646979712399373 0.01505558481570888 -0.3989986976512181
0.13331657575778033 0.20639152200185984 -0.23254978174485508 -0.11221833338955338 -0.09603935270359068 0.06592217444337294 0.2046880198582327 -0.10743961515671387
-0.11821065560390963 -0.3288546651831485 -0.19675360856184398 0.13031163061250778 -0.05659095388933094 0.16344674286622468 -0.1538410720416167 -0.0041329214731995224
-0.05295203877593842 0.1905084631807459 0.11362235486089237 0.0006408635119409053 0.3069479595973514 -0.19046571731595016 0.05023151658115195 -0.06354927240220004
-0.16405844009874196 0.05557732414083497 -0.13939871829934253 -0.1100419372567878 0.06675988911920594 0.3255128030257856 0.010184966592757652 0.02434002202853549
0.03155287480692649 -0.4624564248647905 0.004490533848482594 0.2062881602574192 0.026061016969749107 0.23582899849152497 0.046821608134149345 0.016651241954976536
-0.04860727977689581 -0.14700799097495484 -0.19730171572148936 0.1996916774653869 0.0520231127463023 0.062336724493589804 0.006250652196318333 0.33466296843408194
-0.04381359008606222 -0.12753444901972671 0.15601583550651035 0.059394725075528634 -0.2807871343899919 -0.1411313239049652 -0.06834408670000891 -0.03568105633384549
-0.06414379893530024 -0.09524887198335506 -0.005986409626054927 0.104942951656052 0.06762042133621878 -0.18407052456950793 0.15158822592319096 0.07402511643351344
-0.1826620502503351 0.04913477780972688 -0.12689776686540286 0.21529932089874124 -0.04643112978003383 0.09701000092607111 0.2364937747562689 -0.1636911455185335
-0.09871557233387138 0.17767626699357003 -0.11070848766497095 0.21356090103100892 -0.07965976791954842 0.08740522146458193 0.15001984723508105 0.019844498679219072
-0.22389575685070343 -0.22991088461711945 0.1797285070813974 -0.34486666792547466 -0.1478778481939772 -0.07841886099259213 -0.2447338462917398 -0.06446780750838244

linear_out.bias f8 [50]
00000000: a987 52b0 cd99 bc3f 59a7 74c6 1cf0 b13f
00000010: b63c f39d 24d8 d5bf e8bf ae94 8c23 b3bf
00000020: e2f6 c5b7 bce3 c23f 4dab c8ba 9888 a9bf
00000030: 8af9 ad53 6f55 b3bf 1cbf bd18 312b 883f
00000040: b5fd 15b1 22d1 a9bf 83f9 fbb6 2acd 91bf
00000050: f050 b5c7 878a c43f 9084 9252 1e43 d23f
00000060: 3aa0 787d 0668 da3f 8659 7d3b e226 d13f
00000070: c5b3 0887 e162 c03f 68db 9762 88e1 b43f
00000080: 546f 2024 e739 a1bf 39c9 ee84 50a3 b93f
00000090: 5398 2cb7 2e31 c53f 8961 1010 38e0 a63f
000000a0: 9545 001d 2a4a 8d3f a9c1 fb9f 1718 c33f
000000b0: 252b 0596 48aa cbbf fa16 62f8 497a bb3f
000000c0: 0a25 0fa7 765f b33f 244c d321 aae7 ba3f
000000d0: e87f 26b7 ac42 a83f 1b05 7a88 06a8 9abf
000000e0: 1d9e a495 a61f b3bf 963c c7f0 a01f a53f
000000f0: cd89 185d 8f2c acbf 13b1 f00f d2d8 c1bf
00000100: 08d5 eecd bc64 c33f 110d 5f77 77c6 813f
00000110: 64c9 e99d ad39 b13f 1ad7 6a6e 2ff6 b0bf
00000120: deae 7bf4 f45e b4bf 1496 999a 95b7 b13f
00000130: 6cbd ddf4 1c51 c23f ede8 013d dc79 c03f
00000140: a91e 9f38 61cc b83f e910 31e0 6dd0 77bf
00000150: 8077 adc9 f211 8abf 2cac b4b5 b817 b93f
00000160: 9018 8261 11d3 bb3f 3ad0 15a2 e0c0 adbf
00000170: 12bc b580 43d8 7ebf 85d6 e804 7b58 bebf
00000180: 4c9d 1217 8b2f aebf c673 a5cd 862a aabf
0.11172185473199527 0.07007007451161708 -0.3413173239213835 -0.07476118688532518 0.14757498715692124 -0.04987027435375655 -0.07552238266905512 0.0118011317897238
-0.050423702351504764 -0.017384211939309956 0.1604776120317477 0.2853465849276029 0.41259920361563085 0.2679982739404284 0.12801760762650197 0.08156635672626822
-0.03364488903045407 0.10014823193958912 0.16556343025257778 0.044679405175148075 0.01430161381725518 0.14917273818674673 -0.21613414120869226 0.10733473123590534
0.0756754072055125 0.10509742093863444 0.047383687360024684 -0.02603159149157817 -0.07470170167345498 0.041256932632330365 -0.05502746592926009 -0.13942933824854062
0.1515117650539326 0.008679326372549786 0.06728634934714744 -0.06625648923622088 -0.07957392662836635 0.06920752548611403 0.1431003757129291 0.12871888140563872
0.09686858780252784 -0.005814007951873126 -0.012729546336853081 0.0980182117097434 0.10868939047404269 -0.05811216333941656 -0.007530463869769315 -0.11853760595189484
-0.05895647675179791 -0.051105702021892394

layers.0.weight f8 [50, 50]
00000000: 4977 49fa 5a76 d1bf c26e 2ace 9a2a aebf
00000010: 1107 62c8 b2c8 ccbf 50be 4756 b890 a3bf
00000020: 947c 8f30 115a adbf a3f4 d3af 4f40 c5bf
00000030: fb86 3f05 30c2 c1bf 8c29 5be7 59fc 9cbf
00000040: 7b70 2cbb 94fc ad3f 986f 22c0 4494 c0bf
00000050: 5d1e 2190 c615 b23f a2a9 528a 9bb0 d0bf
00000060: 3602 50e8 6e1f bdbf 9cea 8b77 17b3 b03f
00000070: f206 e055 0593 babf 31af 92ec 00cc bd3f
00000080: 2394 3da2 1c04 c8bf b412 8ab3 3545 c63f
00000090: 3f21 e19f 8a82 ab3f 0031 54ad ce6e d1bf
000000a0: 32de 31d1 412b b33f c4d1 ecd4 7145 d53f
000000b0: a002 201c d070 c2bf fa0e fce9 0205 b6bf
000000c0: 9bfd 0107 6fa6 bcbf 12cf 1f25 aa13 b73f
000000d0: e328 7b6a d742 c8bf f248 cfd0 81a3 b1bf
000000e0: 88d9 1d59 09d6 a13f 110c 9b39 c5b7 cd3f
000000f0: 0f9b 670d 68c7 c83f 7bef cbed 3e51 bc3f
00000100: 74c4 5ac1 e661 a3bf baeb 4649 f8cd 46bf
00000110: 989d 2508 df53 d53f b1ab 1e32 6dcc cebf
00000120: c057 dd57 e32b b0bf 8c86 156f 3143 a0bf
00000130: 2f83 06b8 fe17 c7bf e540 ff4e a813 d23f
00000140: a805 837f da7a babf c0c2 fa11 b023 c63f
00000150: 4dc3 19e5 7450 d13f fb79 e335 bfc6 a6bf
00000160: d9c7 0f5a f0a1 ccbf 379e f296 27cd a2bf
00000170: 5612 4747 7427 75bf a995 fac6 af98 64bf
00000180: 1dd3 9cb5 7daa dcbf 079b b494 f284 953f
00000190: 89b5 82d9 e404 cfbf 696c 8587 9197 82bf
000001a0: b40d 41ab 96ab bdbf 950f 348a 74c8 923f
000001b0: ae96 4c33 226d ccbf 12b7 3ed2 7506 c4bf
000001c0: dc0f c260 6a48 c93f 5b86 001d ce1c d23f
000001d0: 0096 b439 e25c a53f 31dd db17 2bd0 c3bf
000001e0: 36aa 43de 137c b43f eb44 6780 69a8 c03f
000001f0: 56de 75a2 e78d c3bf e8f1 7d86 4748 d53f
00000200: 638b e1ad 7e53 b73f 84f8 fe49 9691 c73f
00000210: 6047 04e4 3b29 d13f 4abb 7e82 b145 ccbf
00000220: a511 c74c 1858 ca3f 0422 70c7 5bf5 973f
00000230: 87d1 b962 945b d7bf 421e b504 45f9 b83f
00000240: 37d2 f08c 1ec5 c5bf f5e7 59dc e8ce c1bf
00000250: 05ab c8da 9f19 dabf f251 5364 4876 b2bf
00000260: d1b7 3795 435f b2bf 662b 4dc3 33d9 a13f
00000270: fdc5 4ccc fbb1 b4bf 8de5 4cdf 3e83 bbbf
00000280: 147a 7563 28aa abbf e549 2628 787a d13f
00000290: 5ce5 7058 1ba9 acbf fa37 d29f ae94 c63f
000002a0: a852 c0a3 0605 b03f eae7 75da 8680 c4bf
000002b0: 4909 58b4 7a17 9b3f 1743 9445 08ad c83f
000002c0: 18ad e161 058d a0bf 56b1 f5ff 7928 b33f
000002d0: b0a2 00b8 a632 c63f 1e6e 1546 e413 9d3f
000002e0: 9bbc 729e ab2f 883f 4bb8 1516 1584 6cbf
000002f0: 32da 8a6f 6c48 c63f 9f70 35f5 00e7 c63f
00000300: 9a98 0925 394f c73f c837 e0be 9e3d d83f
00000310: bb4b 31f5 4f30 c1bf 44ae 5878 c1d4 a8bf
00000320: ee33 1af6 959f c3bf 1dc6 6019 d176 3a3f
00000330: efa8 42f0 a337 b9bf 64f6 5ae5 a5f2 c6bf
00000340: 2995 4144 560a c73f 1d8d 1143 9dfa c23f
00000350: 0692 5bec 04d7 babf 748c ff1c 21b1 b1bf
00000360: 14b4 4372 4922 b43f c1f0 1a22 b3db 9a3f
00000370: 3618 07d3 af94 9abf 66d4 1723 9c2e c3bf
00000380: b48a c52e 4ca1 72bf 0186 109f a80a 9e3f
00000390: d8f1 4229 127c d3bf 299a c5e5 9815 b2bf
000003a0: 47b6 0c1a 1451 cf3f c1f7 9a2e 1010 b43f
000003b0: d9b2 aa4f debf b4bf 443d 0cf0 3987 d4bf
000003c0: cc81 02c9 b9b3 cb3f a36f 1354 e148 c53f
000003d0: 384d 9d20 e4c2 a73f 44f9 cf8f 082e 6abf
000003e0: 4dfd 1822 7559 883f 14fc 7aad 5f56 c5bf
000003f0: d68a 9b7c b920 c3bf 6c2f d2ba 812d bebf
00000400: a35d 4f55 fed5 b1bf 4ff7 d6bc cd84 883f
00000410: 2dfd ffd0 8187 b83f f571 26d7 6354 bf3f
00000420: 50d5 226e 2b93 b93f 61af cf60 96fb ab3f
00000430: fa37 e20a a041 b93f 3e51 eb55 6d55 b1bf
00000440: c26e fc7b d606 87bf bc13 88d7 e455 c63f
00000450: fe36 54ad ed97 9bbf ce7a c72a bd39 b73f
00000460: 2dfc 03ba 3fba c03f e58a f1cd fe81 b83f
00000470: d87c b217 225d c83f 72cd 8f30 8672 bdbf
00000480: cd6b fe93 3e22 c7bf 7057 cedb e345 d5bf
00000490: 78c2 77b9 335f 9e3f 0ecf 06a8 c372 ca3f
000004a0: 7417 a046 1642 d5bf 885a 3598 0e1e c73f
000004b0: 8e3d 2d1a 40f3 c9bf 4d30 d7a6 be81 cabf
000004c0: c5ea ee0b d504 c03f a47a aac3 167d b23f
000004d0: 9bb9 e001 5369 ac3f 8362 ed35 8bd9 ba3f
000004e0: 9540 9517 b63b d03f cca1 2244 1671 ccbf
000004f0: 5565 aebd 9a5e b43f dbe0 0ce7 9dea b63f
00000500: 7f68 e001 e821 7d3f 43cb 0fd6 994a afbf
00000510: 2178 04c4 5706 b23f 01b2 93d4 f224 7f3f
00000520: a36a bfd8 aca6 a83f 63b9 e480 6771 be3f
00000530: b9c9 9714 fcab b03f 1c58 b70e 0f8d d13f
00000540: 7951 ae8d e758 c7bf 305e 812b 9e7e b0bf
00000550: e937 ab20 484d a9bf b8e4 8f0f b9f6 63bf
00000560: e15a 5b38 cb3f cb3f 6340 8319 4880 983f
00000570: 0945 61d7 d86d b63f 3f35 debb b1c7 c6bf
00000580: 6d78 810b d719 cfbf bac5 370e 55ab bebf
00000590: e3d1 421b e312 b7bf 54d0 e425 fa9f 8fbf
000005a0: 22ff 03bf 0007 bbbf 25f2 eb0c 6ab2 8ebf
000005b0: 5380 92fc 5285 933f ab00 c21f c429 c2bf
000005c0: 5c4d 95f2 8a5f c13f 65e6 f9c6 da86 863f
000005d0: aba0 ae45 f573 d73f 3c9a 6e26 7c9e ccbf
000005e0: a644 9b9b aad6 c23f 115b 9070 87dd b1bf
000005f0: f681 af5c c024 a7bf 382a a420 dace adbf
00000600: 55ce 662f ca93 bb3f 2411 f738 022b b93f
00000610: 66fd 5137 59e6 94bf a0d1 067e 6c18 b8bf
00000620: 6d36 4b03 a7bb b9bf 3940 7d6f 77db c6bf
00000630: f08a 1baf 7d7c c1bf 73d6 4037 5423 953f
00000640: 6780 fded bf6d 91bf a522 88e9 2fb8 4e3f
00000650: ba40 d745 6a1a a3bf f60c a64b dbe5 c43f
00000660: 71ff 1efe 0cd1 aabf e375 cefb e0dd 95bf
00000670: 9bd8 0e26 acd1 b83f 2e78 2f0f 0a46 b3bf
00000680: 3925 d8da a870 d2bf 62de 1724 f87c 9e3f
00000690: e71e 6618 5c5c c03f 562d 0dff f6ee c03f
000006a0: 21c8 0d86 a925 ad3f aca6 9cfa c371 b53f
000006b0: 76b3 fc9b 8768 a73f b9c8 9f10 7891 9b3f
000006c0: 9efa 6153 eeb0 96bf 3050 f9d5 b914 c8bf
000006d0: 1328 fe74 a3fa b03f 508e e310 0587 c53f
000006e0: f81f d375 4bae afbf fd70 a327 5eb5 a3bf
000006f0: a8cb 5c7f c5b1 c6bf f869 93c5 fb51 a83f
00000700: 91a0 0ca1 0709 96bf 41f8 1845 39eb c33f
00000710: 1a14 f9a2 f39e 4b3f d1ba 53c4 3982 ce3f
00000720: 9299 6299 8626 b8bf c903 a364 fffc 80bf
00000730: d054 97f1 9c45 96bf 4523 4c8b e1f0 ba3f
00000740: dff1 556a e289 c13f 93ab 369d 67b1 4a3f
00000750: 4a47 55ec 487e bcbf f7d9 825d 50a3 d7bf
00000760: 3c41 af5f c9c8 ce3f 3570 8e08 698c cc3f
00000770: 397f ff4a d5f5 c7bf 346e 0fe0 74f5 b0bf
00000780: 2d15 8da9 c230 85bf 65aa 6968 a0ef babf
00000790: 8248 d015 0ee9 b7bf 4619 4a58 3b8f c7bf
000007a0: fab5 d56f b978 6ebf 3ed6 ce3f fb7e c03f
000007b0: 692c 1f92 3940 993f 0c4e b92a a632 bebf
000007c0: ba9f 48e2 5939 c63f e611 86b6 2517 913f
000007d0: 4925 b7ef 574a dabf c528 ad45 db25 babf
000007e0: bbc8 b82b db07 b0bf 248d cf16 bec7 7cbf
000007f0: ba03 7d91 aa15 a6bf 57b3 4737 457c bbbf
-0.2728488392075304 -0.058918798128812636 -0.22487482818910867 -0.03821350148416214 -0.057327782800478705 -0.1660251244101448 -0.1387386346460103 -0.02830639338098133
0.05856766495546225 -0.12952479726379518 0.07064476984771191 -0.26077927120300093 -0.11376088306133955 0.06523272198311719 -0.10380586000976758 0.11639409805019053
-0.1876254837217469 0.17398711458749505 0.05373032762196538 -0.2723881428398869 0.07487880093855706 0.33236356538261824 -0.14406777737896892 -0.0860139676333879
-0.11191457673157006 0.09014380842546313 -0.1895398397376261 -0.06890117023366196 0.03483609402512672 0.23217072785163897 0.19358540205504268 0.11061471276837935
-0.037856303313113765 -0.0006959402403973116 0.333244092899315 -0.24061360308891502 -0.06316967864162759 -0.03176264267928017 -0.18041976914994381 0.2824497958618067
-0.10343709576684168 0.17296410444170895 0.27053568242177023 -0.044485068634219936 -0.2236919822458379 -0.03672145574210755 -0.005164579594240401 -0.002514212908709641
-0.4479059480247985 0.02101496727587018 -0.24233685131677543 -0.009078156421926846 -0.11589948349960971 0.018342801032317963 -0.22208049301950922 -0.1564471508585759
0.1975224468661726 0.2830081256125589 0.04172427133952894 -0.15479029335959063 0.08001827408194448 0.1301395298928932 -0.15276809151304133 0.33253658422452625
0.09111778016226206 0.1841304646786207 0.2681417204595302 -0.22087687370136627 0.20581344365031132 0.02339690594456735 -0.364964577114073 0.09755355229310061
-0.17007810479994287 -0.1391268802579472 -0.4078139912186745 -0.07211735200264238 -0.07176611321457861 0.034860246267803416 -0.08084081399717742 -0.10747139884633423
-0.05403257574174716 0.27309993668418847 -0.055977682634373166 0.17641241840141203 0.0625766896994927 -0.16017232577343005 0.02645675397617112 0.19278052709025736
-0.032325905035430036 0.07483637331978818 0.17342075333114826 0.028396193292207987 0.01180967404647353 -0.0034809505311193304 0.17408519216924528 0.17892467473109705
0.18210520084830223 0.3787609924337372 -0.13428687546055848 -0.04849819749901177 -0.15330767170635745 0.0004038105483941972 -0.09850525489551719 -0.17928003024092043
0.18000295956441306 0.1482731416209412 -0.1048434330983313 -0.06910902936901825 0.07864817657146289 0.026228712994211593 -0.025957820181950995 -0.14985992158441092
-0.004548356617621142 0.0293375346265119 -0.3044476893371928 -0.0706420479742539 0.24466182014423252 0.0783701051504684 -0.08105267949094798 -0.3207535595147031
0.21642229380542088 0.16628662686605108 0.046408776265389695 -0.0031957785818114443 0.01188937673862136 -0.16669841738436786 -0.14943617424349637 -0.11788187800465061
-0.0696715315128729 0.011972052884512556 0.09581767418420802 0.1223814392346368 0.0999018806349643 0.05465383464601704 0.09865761056627767 -0.06770976398121761
-0.011243510874514032 0.17449627422334213 -0.026946748451385887 0.09072477621473782 0.13068386633673992 0.09573357131879907 0.19034219891634652 -0.11502875028218343
-0.18073255754720066 -0.3323907515090161 0.02966004199510272 0.20662732796119382 -0.33215863129623036 0.18060476715136908 -0.20273591306839162 -0.20708449503433926
0.1251474674480361 0.07222120549202288 0.05549106023714786 0.10488195482811062 0.2536444883635423 -0.22220114066045793 0.07956854945077414 0.0895174683654462
0.007112413672098693 -0.061116034870698964 0.07040928397734138 0.007603596264044389 0.04814663072439387 0.11891791245282017 0.06512427809483413 0.2742345470154548
-0.1824006501962108 -0.06443203508512663 -0.049417737949269576 -0.002436982580999638 0.21288433315085967 0.023926855618640618 0.08761363275813862 -0.1779691855739802
-0.2429760748081579 -0.1198018226348471 -0.09013194480468871 -0.01544185093062126 -0.10557560599772534 -0.014988735694253805 0.019063278833187102 -0.14189960051226555
0.13572823376544363 0.010999402234335773 0.3664525204171791 -0.22358657719196795 0.1471760997579043 -0.06978651521818004 -0.04520226603904469 -0.05821878097966188
0.10772384316697388 0.09831251040219918 -0.020409959794503683 -0.09412267758199855 -0.10051959829726238 -0.17857258743106444 -0.13661166238951905 0.020642581818000893
-0.01702022447659637 0.0009374841638996779 -0.03731090643452846 0.1632646674516775 -0.05237618066848782 -0.021354213112877118 0.09694934777403079 -0.07528746481645562
-0.2881261956359427 0.029773595049816477 0.12781859580376606 0.13229262784657675 0.05692796479606011 0.08376717441992793 0.04571937350406234 0.026922107710512153
-0.02215931304862783 -0.18813250492041922 0.06632444006223208 0.16818297695782514 -0.06187663853921771 -0.03849310144298277 -0.17730015486594408 0.04750048434080506
-0.021518820957823485 0.15561595796492791 0.0008429231292629319 0.23834917150767024 -0.09433785671953945 -0.008295054682436647 -0.0217499277549294 0.10523805285278083
0.13702039901899263 0.0008146053245828726 -0.11130195398189105 -0.3693428910441123 0.24050252124880866 0.2230349818972869 -0.18718973314298085 -0.06624536962720456
-0.010346909331597398 -0.10521891163959081 -0.09339988739546537 -0.18405858813293657 -0.0037196752370423055 0.12887516608832245 0.02465906099659457 -0.11796034377157855
0.1736252169514481 0.016689862504351803 -0.41078756723125714 -0.10214014483532015 -0.06261987512042115 -0.007026426826061614 -0.04313405061703386 -0.10736496543513617

layers.0.bias f8 [50]
00000000: e4c7 8b2f 44fd c03f f6a8 456f f676 b73f
00000010: 279b 4234 0719 bc3f 1c34 eb2d a223 7cbf
00000020: 20cd a0cf f783 6ebf d4ec f7d3 3df0 bd3f
00000030: 159f 825a 24e3 ab3f 58c8 0873 7c19 bd3f
00000040: 24e1 9914 c183 b83f 7cbc a405 9c78 5ebf
00000050: 17dd 6248 e688 bf3f b355 b34a ffcb b43f
00000060: d70e dddf 9314 a2bf 4b40 bb6c c182 b63f
00000070: 85d5 5272 02e5 b63f e382 e5ce 1d24 acbf
00000080: 9438 8fc6 c8cd c03f 9f1f d527 5518 b73f
00000090: 2a56 a23b b4bb 9b3f d460 c295 5d87 b53f
000000a0: 103a 5df4 ddf6 b93f 76c8 f181 401e b53f
000000b0: ddf1 d776 c73a b9bf 2ba5 1bb5 9507 b8bf
000000c0: 12c8 aef0 4b0f d43f c742 c542 0830 943f
000000d0: 44d4 397c 6c52 b63f e235 28b7 3db9 983f
000000e0: 2aac 40e1 d115 b63f 55f0 de4e 977c a3bf
000000f0: 3092 7f35 4e49 b73f 267b 7afb b13f b43f
00000100: 26b0 8d55 295f be3f ccb6 a094 06ff b5bf
00000110: 620a 96a3 8adb c23f da29 86b7 4115 8abf
00000120: 03d4 892e e2ee b63f 3f6c 7d47 c3ec 90bf
00000130: 81b5 7062 9583 ba3f 2659 5d30 e332 b43f
00000140: 61a5 b5ce 04b9 b83f 6099 6128 7ea7 be3f
00000150: 131f 16f2 bb4c b3bf 144a b64f 06d8 af3f
00000160: db15 a6d3 10ce c13f 7658 5f27 c2a3 913f
00000170: f22c 5eb7 5237 91bf 16eb b254 207c b73f
00000180: eef0 cee2 613f b4bf 0f86 f2f0 fad2 b63f
0.1327290756376548 0.0916589757595466 0.10975689912684726 -0.006869920266308529 -0.0037250366267699425 0.11694704461108368 0.054467330978978414 0.11367013748602639
0.09576040986019457 -0.0018598102238447647 0.12318267123452063 0.08123775075667687 -0.035313244893158284 0.08793267159058009 0.08943190852263257 -0.054963046556400184
0.13128003783498754 0.09021503660653572 0.027083221568849826 0.08409676462395349 0.1014231416313367 0.08249285862419406 -0.09855314876035189 -0.09386573478299869
0.313433632890452 0.019714478564597095 0.08719518692835587 0.0241441386261182 0.08627044438678469 -0.03805992925433147 0.09096230321990428 0.07909691228495017
0.11863954867084256 -0.08592263344390999 0.14732487666704502 -0.012735856450281458 0.08958257328215784 -0.016528178442382076 0.10357030537917035 0.07890148096825964
0.09657316252346028 0.11974323736067083 -0.07538962040245804 0.06219501231239036 0.13910112699902197 0.017226251271346325 -0.016812603418242263 0.09173776691288213
-0.07909213816941804 0.08915680296424731

layers.1.weight f8 [50, 50]
00000000: bf63 f61a 9142 cdbf 1da6 be67 729f a5bf
00000010: 68ad f541 0fdb a1bf c363 ce22 02f1 a23f
00000020: 34d9 c4c2 dc81 ae3f 0c86 5c8f 4bf9 b33f
00000030: d1b3 5907 c4bf 9e3f d9ff de5c ad7b abbf
00000040: 9ae7 b514 649a bc3f 2b8e 7cd0 8813 5bbf
00000050: 1f1e 575a 3b75 cc3f 73d2 aac1 66fa 9c3f
00000060: 610c 1330 6c69 c63f 333e 2ba1 e40f b4bf
00000070: 0c63 5a70 8989 c2bf 5681 40f4 e2af bb3f
00000080: ff84 07d3 1112 813f 4f08 29e6 bf0a c73f
00000090: 8216 0f5d 172b b13f d2a8 dbe2 06cb c33f
000000a0: 135e 6f2c b3cf d0bf 7a88 6f58 18ef 913f
000000b0: 0b37 26d1 0dd9 a9bf 83ec 7e8e 9655 ca3f
000000c0: fdb1 c812 3047 ca3f 516e 61b7 25ef 9a3f
000000d0: 5029 4c63 a1df c53f 0af4 603c 33df dabf
000000e0: 10cc 7c01 7245 b4bf 77fb 0b9c ac1f a83f
000000f0: db3c 0fd0 839e b23f 92f3 bc0d 27b0 693f
00000100: 81c6 a84b c841 dcbf b671 f514 e13e e03f
00000110: fd68 53a9 5620 bbbf 168a 8cd0 eaf5 d1bf
00000120: f87d 3383 d37d b13f be16 8f79 e588 c2bf
00000130: ffd6 3142 6d0c 823f a213 9622 69fe d33f
00000140: 3b9a ab82 8bdb 933f 5d99 cf44 6bc9 c0bf
00000150: 102a 2730 5966 a03f ae8a f89c 1a03 a63f
00000160: 8278 35e1 9acc bbbf 0af3 12fa 2ed5 ad3f
00000170: 3f31 b309 70d0 a73f 7cac 673d ea0a bfbf
00000180: 9ac2 3a71 81ee ccbf 4114 3550 ad80 cdbf
00000190: 980d 98b9 ce4c bf3f 38a1 31da f082 db3f
000001a0: f501 50b7 f179 b3bf a483 c32f 346c a3bf
000001b0: 4cc9 a6e1 175b c83f 2d75 d91e 7e27 bb3f
000001c0: ea20 5f0d 5d17 bb3f ed18 fe0d cb05 babf
000001d0: 1a78 b86b 4cdb ce3f 58e2 3076 c4a6 b1bf
000001e0: 7f04 ba9a 548e c8bf 2cfe b728 2901 cb3f
000001f0: 40eb cacb 9c0b ca3f 0c2c 5c5b f08e d73f
00000200: a40d b069 8af5 c3bf cc09 44e2 1b66 a1bf
00000210: 7bbc 52c3 9dd7 90bf 522e 8eaf 2806 c83f
00000220: e2fb 0dd0 61e3 d53f e322 f145 3280 d03f
00000230: f9c3 6f75 8d70 adbf 862e 8f07 4a21 c63f
00000240: bd63 2b2c f79e b63f 177c 4b9b d3e2 a3bf
00000250: 6fd0 f511 ea83 a8bf 50a3 2b53 280a 883f
00000260: c373 8ccd 3a8a 9a3f 0b20 9375 2c9a b43f
00000270: d4ff 452f da69 b03f fb47 0b4c f1d9 c3bf
00000280: 1fb4 559b 8512 d03f 1721 7052 d4db ba3f
00000290: b547 3552 2cdd d33f 6ec3 9625 d930 c3bf
000002a0: 86bc 1329 fbd7 b1bf 0cfd 4cb7 d011 bc3f
000002b0: e462 bd55 1e41 97bf 1bcb 67ab fac3 b53f
000002c0: d6e2 f92d b29d b33f 9917 92c6 0d91 a6bf
000002d0: 929d 5c6a 8026 c13f c307 45de b199 be3f
000002e0: 887f db1f dca4 c7bf 2814 fbc2 8490 8d3f
000002f0: fb89 af4c 0e2b 7bbf a76b 7695 84dd c5bf
00000300: d6e1 0e0d 30f9 b2bf d30b 2444 6435 bd3f
00000310: ae89 8faa 43e0 96bf 3435 2cf4 2c60 c83f
00000320: 7e15 3626 f4f8 cc3f 208d fcb0 1166 dcbf
00000330: dbe3 b9e3 f2da c03f 95d3 d7b3 3007 d83f
00000340: 6cc7 eeb1 2a36 b5bf 56ee 3fc6 873e d3bf
00000350: 73d5 6a4e 8fcf d2bf f41b 4271 f478 ddbf
00000360: 2b53 9b2f 8f1b c6bf 2ba8 5f42 e028 dc3f
00000370: 13ad db15 9917 dabf 3b06 b340 1211 a03f
00000380: c66c 7847 3231 d1bf dec4 30a6 8291 bebf
00000390: 390c 585b 8c53 cd3f 74be 81c6 dc7f cabf
000003a0: 71be ec04 47a4 d7bf bda9 d3d0 44a1 dcbf
000003b0: f13e 17e2 893f d9bf fb1e 6644 39e0 d6bf
000003c0: 2fa2 3b61 f908 c6bf 110e dd4d 58ea c1bf
000003d0: d550 04d6 ef83 c63f d736 4f35 fb15 cfbf
000003e0: 393b 9b3c fe6b dfbf 53fc ff96 aab2 d2bf
000003f0: 6660 eb92 c035 d7bf d238 c7b5 43fb b83f
00000400: a374 12b3 bd1f d3bf 65f4 5c07 da24 da3f
00000410: 6f36 f09c 5423 cfbf 84b3 a6fa 6455 c5bf
00000420: 0900 a643 3c4e 94bf e1fe baa8 82a3 b2bf
00000430: c175 9da2 0399 b8bf 9293 416c db50 cb3f
00000440: 7e07 4029 650f d0bf f921 e3d0 53b5 dd3f
00000450: 7965 bff2 5352 c43f df16 b561 ce0e d3bf
00000460: 36a0 b7b2 fa90 d03f ab09 bad2 f434 a8bf
00000470: 4558 f1d4 35b7 c93f 03d9 9c3d abf2 cabf
00000480: 4b26 e218 4ac6 e6bf b7d4 6984 1cff df3f
00000490: 62ef 2d82 d35d c83f 164a cb60 2373 c1bf
000004a0: 7b49 2704 3183 e03f 1bc9 69c7 b85e d23f
000004b0: ff59 1a06 6ead d33f 231b 5f57 7bca ca3f
000004c0: f68f 6e74 ec38 cd3f 51c2 4d88 a46a c2bf
000004d0: f096 5dba c883 cabf fc8d 9c3e f02a a23f
000004e0: 0586 1ef4 6fde d03f 60ed afae aeae c83f
000004f0: 484d 1d9f 5eb2 a8bf 26f2 229c a6fe af3f
00000500: 27f3 3adf 7175 c13f 6872 402c 8b8e c73f
00000510: 37d4 e3be b52d d4bf 9f74 6f7c 1d24 af3f
00000520: 9b35 5f0f cb55 ca3f 3eed e893 0a29 d7bf
00000530: ad15 8378 0c82 cabf f8d4 abeb c891 b23f
00000540: 851f 797d b26e bd3f e403 44ad f838 c03f
00000550: 0781 c83f 16d5 8ebf 4abf 900a e240 8e3f
00000560: a72d 04d7 f379 c43f 6639 bde1 e247 b03f
00000570: 3eb3 467b 7430 ab3f d9b8 f391 082f 873f
00000580: ad63 2de9 4d9a 7e3f 65e6 c34c acad c0bf
00000590: 0425 8ca5 b04e c03f fe72 1b4e f3f9 b53f
000005a0: 5094 4c60 3346 a8bf 28c1 bbf8 1cc4 b7bf
000005b0: 7faa 638c 0180 c43f c6f0 4ce3 e39b d4bf
000005c0: 4c79 bee7 aa34 d73f 45d5 bad9 ec1f a63f
000005d0: 8d9a 18f6 cebd d13f 11b7 d9d8 2913 cf3f
000005e0: cfb2 378f 50d4 b83f f813 6837 0bd7 80bf
000005f0: f904 4a6d d022 d23f 397c 6e29 ff53 c53f
00000600: 5631 6898 4f34 b7bf f61f 1cf6 25fd 943f
00000610: 5a87 3918 3ef6 cbbf 131d 1d93 5b2e c33f
00000620: cec3 845a 5a8a c9bf 6222 49a5 cebd d53f
00000630: 890f b734 793e b33f c7ce fa78 a01f cc3f
00000640: 7a12 fce3 f699 d1bf 257e d596 2022 b0bf
00000650: 9987 2162 4f8d c8bf 0168 7bda 3d3f a3bf
00000660: a785 4704 55fd b73f 107f efe2 1aec b4bf
00000670: ea99 a00f 2f2d a13f 2b40 a7fd 2a95 a3bf
00000680: 250b bf41 d7db a13f 2354 3faf 3dc1 a9bf
00000690: 380e 349b c412 b83f bb06 741c 57c1 c6bf
000006a0: db41 0274 9664 d03f e34d 90c3 f0f9 c1bf
000006b0: debf 9381 1642 c4bf 06d7 2ce5 696d c93f
000006c0: 3393 f036 5afc ac3f f528 5e03 d3d2 bc3f
000006d0: 1c61 98bc d69d bdbf 5b4a 5f71 3f03 a6bf
000006e0: 18c5 7ac6 1a43 d2bf 8a4f c359 0642 c4bf
000006f0: edc6 ef32 e4fc c03f 986e 9a09 8b5a cf3f
00000700: d74b 6441 80bc 8b3f fd41 234a 0d35 b3bf
00000710: a53e 4c4c 57b4 cfbf e41f ddbe cc04 983f
00000720: 2880 aed4 0571 a03f 8adc fb6e e8c2 ba3f
00000730: e9dd 5b4f 6333 aa3f 6fd3 35e6 320b a6bf
00000740: 79f6 a2dd 1944 d1bf 5a28 aa77 7423 e13f
00000750: 1255 1f3a 020b b1bf 778a 8106 207a d3bf
00000760: 0235 8784 b237 ccbf 2628 6a6d cd74 50bf
00000770: 246d 0441 e91a d6bf eb5a 029c 47f9 c33f
00000780: c593 f517 5946 d4bf 6844 ec61 ff4c d5bf
00000790: ba09 49d7 fa2e d13f 0095 47d9 e657 afbf
000007a0: 932d a63c c6e9 babf c2a5 89ec a482 b0bf
000007b0: 52b1 a58b e673 d5bf 9c2c e85d da39 92bf
000007c0: 3787 9dab 2b3c a83f f7d9 9b8e 9696 b6bf
000007d0: 3f0d fa80 ca45 c5bf 8bef 32ae 1f48 b63f
000007e0: 1070 a4a4 ceb1 c5bf 4873 2088 3edf c5bf
000007f0: 1305 5ad0 c56f d43f c7af 0f9e 07fe d1bf
-0.22859395805860847 -0.04223210827269617 -0.034874417115896617 0.036994997738652134 0.05958452107954529 0.07802269220385244 0.03002840323317796 -0.05367795714073482
0.11173081880215677 -0.0016526065900927072 0.22232763205669046 0.02829895550776702 0.17509224269278703 -0.07836750922000917 -0.14482229219427045 0.10815256560500094
0.008335246327023869 0.18001555193228788 0.06706377050348958 0.15463338925412146 -0.262676995652755 0.01751363792198688 -0.05048411539165273 0.2057369418888336
0.20529747883973917 0.02630289966360372 0.17088715885649686 -0.4198730554233526 -0.07918465172114986 0.04711665539615855 0.07273124532297308 0.003135753895462342
-0.44151503933526476 0.5076756867743402 -0.10596219667369051 -0.28063459745513464 0.06832620576050619 -0.14480274615759997 0.008812764723397757 0.312402995849249
0.01939218506859162 -0.131146820639695 0.03203085625462532 0.04299243131778972 -0.10859077451957158 0.05826708605443372 0.04651212805183257 -0.12126029967446245
-0.22602861431871163 -0.23048941055654562 0.1222657397375343 0.42986699398035766 -0.07607947087672769 -0.03793490489056886 0.19027994650020685 0.10607136014137515
0.10582524849371891 -0.10165089694610048 0.24106745967668602 -0.06895091901322681 -0.1918435817242745 0.21097292412012913 0.20347938490689366 0.36809929773215866
-0.15593080673725723 -0.03398215424569492 -0.016447510763722733 0.18768795558968293 0.34200330083689157 0.2578244860674614 -0.05749933298637439 0.17289090508562682
0.08836312130314546 -0.038839924532787666 -0.047881426517876295 0.01173812393013099 0.025917929454511112 0.08047750349498999 0.0641151776708278 -0.1550885793026849
0.25113048715030745 0.10491683018347363 0.3103743365110135 -0.14992822966953717 -0.06970185997828268 0.10964683985820417 -0.022709344847814075 0.08502165493682094
0.07662500021423155 -0.04407542275389104 0.13398747628637558 0.11953269649987334 -0.18471862369096592 0.01443580360445125 -0.006632858140593441 -0.17082268999078318
-0.07411480253984534 0.11409594215005762 -0.022339875493239063 0.1904350464105079 0.22634746423515745 -0.443729803884894 0.13168178672256556 0.37543885767745994
-0.08285776943264772 -0.3006915508301281 -0.2939184442323814 -0.46050749836325555 -0.17271604370639557 0.43999487382700647 -0.4076903069933035 0.03138024368082567
-0.2686277101472111 -0.1194078117121253 0.22911219082024717 -0.20702705090251394 -0.36940169793067584 -0.4473430671047501 -0.39450308875255674 -0.35743552856045796
-0.17214886901571577 -0.1399641399567462 0.17590139341394342 -0.2428583154964403 -0.4909663764819246 -0.2921549296006038 -0.3626557764778283 0.09758399188942526
-0.2988123177290822 0.40849924773266927 -0.24326570189480232 -0.16666853178812968 -0.019829694394047723 -0.07280747050662796 -0.09608481140227011 0.2134050634951135
-0.25093964603740193 0.4641923465647149 0.15876244881546223 -0.29777869741188384 0.25884883358822053 -0.04727902481410536 0.20090363404841774 -0.21053066738540602
-0.7117052541736454 0.4999457638835553 0.190363348545243 -0.13632623888277412 0.5160145836946833 0.2870313594240927 0.307460313758753 0.20930425420939355
0.22829967198515505 -0.1438794770761143 -0.20714673137552309 0.0354838444166283 0.2635764965035324 0.19283088235520562 -0.048235852168228066 0.062489706573135614
0.1363966312400404 0.18403758679132243 -0.3152899135741935 0.060822411956658266 0.205743200784508 -0.361879963343842 -0.2070937717855207 0.07253700021449905
0.11497035563763632 0.12673862896193022 -0.01505486852789818 0.014772191951209063 0.15997169493526295 0.06359689723214998 0.05310405735813227 0.01132017798815037
0.007471374835255879 -0.13030008076002556 0.12740142901774487 0.08584519059099802 -0.04741058874632442 -0.09283619949906508 0.16015643458316117 -0.3220147819263385
0.3625895751119017 0.04321231992563893 0.27720998795340607 0.2427723225441061 0.09698966499827154 -0.008222663524984228 0.28337488816039486 0.16662587664629472
-0.09064195128320782 0.020496934076646732 -0.21845222647521717 0.14985222514426563 -0.1995346967683233 0.3397099126928308 0.07517201935757901 0.2197151747437742
-0.27502224220396665 -0.06302074129552489 -0.1918124417452958 -0.03759187023179323 0.09370929102398994 -0.08172767677706028 0.03354785028232128 -0.03824743601182975
0.034880377555529564 -0.05030243648767676 0.09403637684959498 -0.17777527703588256 0.2561393864534957 -0.1404400782490561 -0.15826684309968092 0.198651539709026
0.056612796026718114 0.11259192306730255 -0.11568967918754364 -0.04299352892816862 -0.2853457392003107 -0.15826491721110997 0.13271763312473386 0.24495065659435933
0.0135431308704365 -0.07502825794222896 -0.24769107079963706 0.023455809735679525 0.032112295353045106 0.10453655919615037 0.05117330878959676 -0.043054190255964346
-0.2697815575046217 0.535577996940684 -0.06657422942165095 -0.30432892451623367 -0.22044974776364518 -0.0010044103743518467 -0.3453925261435009 0.15604491346012792
-0.316793702504864 -0.33282455981049575 0.2684924223323396 -0.061217512153044495 -0.10512961369220468 -0.06449347281308973 -0.3351990092985676 -0.017798816663383663
0.04733406515039323 -0.08823529225978875 -0.1661923532266005 0.0870380211153458 -0.1694887451093341 -0.170875374286789 0.31932206484641873 -0.28112974582358813

layers.1.bias f8 [50]
00000000: 71cc e012 19c2 aa3f 72e0 90ef 72b1 b23f
00000010: 6e48 1cb7 789c babf 6a98 1466 76e3 a63f
00000020: 5cce 73b7 bbbe b5bf 511d 724c a5c5 c0bf
00000030: 98cb b807 7588 a83f 8975 0c2b 8ed3 a33f
00000040: 66db b405 e573 ab3f 4b4f d114 05f8 af3f
00000050: cf56 38b3 db58 a5bf b5a8 d251 e985 a83f
00000060: 0c7a 39e3 e963 9f3f 86f4 e562 f815 94bf
00000070: 837c 0826 4c94 9fbf 9f3c 4368 e6d7 c9bf
00000080: 76c7 8fcb 25ef 96bf 10d4 bb58 b60b 81bf
00000090: b306 a10c dc3e b83f a91b 8b0a 08fb a03f
000000a0: 5850 a1b5 d45f 973f 190f 99f7 73be a7bf
000000b0: fb78 7145 3719 703f 9162 e630 c16b 923f
000000c0: f6f3 68fa 3575 a1bf d4ec 2947 eccc b5bf
000000d0: 8bbc c97b 6416 bf3f 3912 a4f4 087c b43f
000000e0: 4576 542e 2368 acbf 40bc 6c85 ab6c 953f
000000f0: 82b7 e34a 5278 ba3f d1cb aa85 0b63 be3f
00000100: 6a75 a778 0e6d 83bf a9d8 b84d b783 b83f
00000110: 9d75 34f8 789a abbf 81e7 6f5d f184 a53f
00000120: 78c1 2fdf ce2c 9c3f dcd2 db58 6770 b1bf
00000130: 3187 d9a3 afb7 a13f 1719 a4e3 d953 b73f
00000140: 8d5f 3295 7ab6 9fbf fcbe 222e d072 b03f
00000150: a80d 5745 5837 c2bf 2a35 3432 b02f bd3f
00000160: 7d9c 72c0 2487 be3f acbb ff88 3e56 8abf
00000170: 33aa 43be 5d01 b83f 490b b147 a413 9dbf
00000180: d97a 0822 a15e 9f3f be28 218d 0b35 91bf
0.05226209979482455 0.07302015637185535 -0.10395006628485401 0.04470415111636401 -0.08494160870378081 -0.1310316680212318 0.04791608542691178 0.038723414187397394
0.053618580767241394 0.062439116278851424 -0.04169355929131557 0.04789666293921028 0.030654577726062768 -0.01961505988719072 -0.030839147397383925 -0.2019012459845486
-0.022396650838295305 -0.008323120673120271 0.09470916088414576 0.033165217673335086 0.022826503358672617 -0.04637491605219974 0.003930297759408892 0.0179891763778835
-0.03409737283480034 -0.08515812623402336 0.12143543264549998 0.08001762364080713 -0.05548200550604724 0.020922355669594106 0.10339845970494646 0.11869880689009384
-0.009485352570602418 0.09575982711325771 -0.05391290693135462 0.042029898315333554 0.027514679310060214 -0.06812139434243697 0.03460453868025438 0.09112321670190614
-0.030969539028404425 0.06425191046104922 -0.1423139895033334 0.11400891519243275 0.11924962709837135 -0.012859810405613313 0.09377084632038972 -0.028395239711481755
0.03063442011090953 -0.016803913582670964
