main/discrete_time_identification (KdV)/models_iters/KdV_noisy_9000.pt (torch, 127850 bytes, 14 tensors)

linear_in.weight f8 [50, 1]
0.19869605579162472 0.12826942176033906 -0.08294551378844207 -0.3362549436656253 -0.14107298073661104 -0.258650238824315 0.2692197147933086 0.5948107174112071
-0.2883186797526237 -0.10760437754361059 -0.15971866634811233 0.4357570531740332 0.2485955266881405 -0.020303731658297276 0.6554850893537241 0.1807784988710059
0.23573847917601629 -0.2903235772918872 0.07817649698691 0.1721170255892557 -0.37733232337486383 -0.37271848563810694 -0.14567534531118637 0.09108642087125104
-0.0862394388613609 -0.023226515554681325 0.41954092536119364 0.24701070694922322 0.1288878079235261 -0.23696696383873736 -0.13309054595226502 0.4448060085999382
0.29892436350215373 0.1575339400015607 -0.10110497353488535 0.059438273946514915 -0.10276019084817185 0.16494234020151935 -0.2949162617542012 -0.04923884099972029
0.32055387410028124 -0.099875603493009 -0.3239766174311295 0.1561756057871357 0.4202309200901246 0.4174059450891624 0.047771926943706244 -0.10410096959464024
0.06988088577400649 -0.35644044753897924
00000000: 630f bc52 df6e c93f 60cc c4e5 216b c03f
00000010: 213f 12cd ea3b b5bf 3561 8a74 3385 d5bf
00000020: 3576 4eef ad0e c2bf eb97 36bb b98d d0bf
00000030: ff71 9e53 e53a d13f 03ed 527c b008 e33f
00000040: 3642 1731 d073 d2bf 6dcc 74e2 f58b bbbf
00000050: fa4f 4348 a971 c4bf 4590 188d 71e3 db3f
00000060: ce5a 876c fad1 cf3f 8a2a d65d 80ca 94bf
00000070: b846 b9dd bbf9 e43f de47 3cf6 bf23 c73f
00000080: 5321 3cb1 ad2c ce3f 127d 6e57 a994 d2bf
00000090: 29e7 dff9 5f03 b43f 91cd fe41 ee07 c63f
000000a0: 6199 2779 3626 d8bf 488a 9ba2 9eda d7bf
000000b0: 7af7 f85d 7da5 c2bf 6670 c08e 7051 b73f
000000c0: 9af1 88b1 c913 b6bf 765e d412 b1c8 97bf
000000d0: 43a2 702e c2d9 da3f a4eb 0dfe 0b9e cf3f
000000e0: 023d f14b 657f c03f bbbb f5f7 ee54 cebf
000000f0: 25c9 226b 1c09 c1bf dd10 009f b377 dc3f
00000100: 190a 4ea7 9321 d33f 978a 2878 122a c43f
00000110: 5897 cbfa 03e2 b9bf c141 7685 b16e ae3f
00000120: bd0b 06eb 7d4e babf e113 72a2 d41c c53f
00000130: 61be d274 e8df d2bf edcf 9257 d535 a9bf
00000140: ce79 7765 f483 d43f 6cb5 ab92 7291 b9bf
00000150: 1244 226c 08bc d4bf 4ff5 a4ef 8ffd c33f
00000160: 5786 a33a 10e5 da3f 5617 d46c c7b6 da3f
00000170: c0bd c7df 8f75 a83f 1210 e473 5ca6 babf
00000180: 7dce 03b7 b6e3 b13f 7fb2 4998 ebcf d6bf

linear_in.bias f8 [50]
-0.11032732551275848 -0.04592507065443477 -0.20042498167219494 -0.07323718031473228 -0.1582313723252846 -0.14197856101403467 0.1221212835702402 0.07153440051999381
0.08659585358819981 -0.12640907080109048 0.12200861657137134 0.048936898591053615 -0.0024776731933385866 0.12144649695074608 0.0774914332904209 0.1080357900508534
0.005146591203127708 -0.031075373785012926 0.12142113295593453 -0.08337445424968651 -0.004605279157879488 0.12290100417052355 -0.1551394071836993 -0.06486316670523452
-0.10001598926502012 -0.08299200163912455 0.059466280751028514 0.053323389068818464 -0.07028026304446348 0.038142758577896604 -0.0029674177446816635 0.08379056836194136
0.053396582251515376 -0.000979782347677727 0.10632748508949857 -0.10849280975009937 0.09499035840333978 0.12345408879643245 -0.0863766557493493 0.12056686079593704
0.15390800695801155 -0.04121455624354642 0.1268835620937885 -0.017921519037898216 0.005501510562434265 -0.07669298893765632 0.09489719672344844 0.12112685146160433
-0.08127405018555117 -0.02826018645023172
00000000: a8b4 ee5e 693e bcbf 84f8 0da9 7d83 a7bf
00000010: 5daf ca9a 86a7 c9bf 6293 4dfe abbf b2bf
00000020: 504d abf4 ec40 c4bf eeea 247e 5a2c c2bf
00000030: c768 1427 5743 bf3f ffb7 c516 1450 b23f
00000040: eb69 2157 252b b63f 4e14 8124 2c2e c0bf
00000050: 1b16 01ea f43b bf3f 1a51 08d6 410e a93f
00000060: 0df3 bcaa 0e4c 64bf 0202 9e1c 1e17 bf3f
00000070: 93d8 b383 7ad6 b33f 48e1 10c9 3ba8 bb3f
00000080: 38fa 738e 9714 753f c66d 7808 39d2 9fbf
00000090: 23c9 1693 7415 bf3f 2a02 533a 0758 b5bf
000000a0: 2ce3 f335 fcdc 72bf 5ad6 8eb1 7076 bf3f
000000b0: 5f60 16ac 9bdb c3bf 49c7 b65b df9a b0bf
000000c0: c268 f8da a59a b9bf 4f9f debc f63e b5bf
000000d0: 2ab2 1446 5d72 ae3f da2d 5308 344d ab3f
000000e0: 238b 5427 e3fd b1bf 3eb3 5799 7287 a33f
000000f0: e0e1 5745 204f 68bf 13ea d376 4c73 b53f
00000100: d613 fafc cb56 ab3f 6786 fd48 810d 50bf
00000110: 3c15 202f 4738 bb3f da52 ba4d 2fc6 bbbf
00000120: ee14 c7c2 4951 b83f 152b f0e9 af9a bf3f
00000130: 72d0 94cf c71c b6bf 4895 1944 78dd be3f
00000140: e414 3df0 41b3 c33f 80d0 5e06 131a a5bf
00000150: 19e1 cb76 b83d c03f ea4f a6c8 045a 92bf
00000160: cea9 1b7f c088 763f 69d9 51d7 26a2 b3bf
00000170: 31c7 68c4 2e4b b83f 2bee b159 2b02 bf3f
00000180: b476 8f4b 60ce b4bf 1497 5402 3df0 9cbf

linear_out.weight f8 [50, 50]
-0.04161554872358953 0.028741564943693107 -0.10263498078229467 -0.029923950430358084 -0.2484558997005021 0.11813103993142537 0.10630149510863503 0.012537038408427173
-0.0672584646304798 -0.02970211680245069 -0.018769389525057995 0.1616468114043269 0.028029980714409618 0.01761402613566309 0.12213930601449713 0.07805220193976513
0.19825275934134265 -0.21417571642686684 0.241585502898183 -0.07486862268419861 0.038472171455936385 -0.2157131367335225 -0.07193606208440195 0.01411692180544741
0.24503505364682152 0.015508096711550116 -0.08996788457712729 0.006755850945859261 -0.02718796548982297 -0.04398204697650416 0.020563615487600297 0.11255352065692506
-0.27144234962495767 -0.09245787720787667 -0.14313189675771434 0.01327675919081548 0.10994668405660428 -0.06926130892963392 0.08570277489229582 -0.009441863500871117
0.02431173401100158 0.09805164873708525 -0.14161687944980142 0.19649515379459515 -0.15249715580740592 -0.16232390445759332 -0.07406012141045014 -0.04142853665489805
-0.1552867399088601 0.0605930903546354 -0.3802360414236652 0.10436806619643688 -0.2788700800689148 0.015123799346421218 -0.18089076043860006 0.12357067475141242
0.06023635257855323 0.04198657758237519 -0.23246769500710615 0.17251751677860808 0.0006916415944218105 0.10077674002982871 0.2774208190472874 -0.1735933539920386
-0.07927702226828011 0.05294467268790109 0.005607425483556711 -0.1992510745790922 0.06066480881821102 -0.3012309908914973 0.09398208670748356 -0.19535389529811342
0.10817763382036086 0.14270856279706762 0.23447029004858705 0.2378494009189732 0.01097096166460779 0.11586338136203128 0.08046888119280729 -0.22180890995856062
-0.08668224718532787 0.14751350780012634 -0.2290646880148996 0.06355569818220123 0.052178667547475875 -0.0735522454132424 0.09256433154969149 -0.0966269072098796
0.03353770616676121 0.12899252320036916 -0.1702690047156862 0.03758777212633565 -0.0010038581933138504 0.045438718265791926 -0.28273736888011464 -0.04419787519123409
-0.07842264544106814 -0.12492878902183656 0.0652473553821435 0.2106845827748123 0.05090354913791467 0.12468827240573953 0.08466733640099121 -0.01975565480337015
-0.35750223948308885 0.049466457818641084 -0.11853868757414847 0.15051769710071122 -0.15445957748160788 -0.1355119541601957 -0.17706152166569522 0.2582839438730448
0.05983605632630242 0.11049193840498789 0.05233820136591297 -0.021944846647964093 0.13639558324053747 -0.08581696210145089 0.0032092440787449108 -0.01409271624433308
-0.06029016222381974 0.057453911215493446 -0.256473647346945 -0.006736977419537736 0.262410598615204 -0.07165404913336501 -0.2505823677896873 0.13564492886857873
-0.0528944284154369 -0.006200746854029131 0.17110032463368358 0.009167086649063171 -0.2297858154909394 -0.08541984286545921 -0.05381746103437227 0.1907796451261848
0.10888282356764928 -0.027358173580337267 -0.05625745295748394 0.0972406429534308 0.035673476430271286 -0.16220343296379106 -0.08155316815196549 -0.06858993540164472
-0.09723013888921507 -0.13281693869115885 -0.06308184130328277 -0.08428445011261242 -0.017288387614016194 -0.010956089947120213 -0.12609435101101588 0.08083761763994855
-0.10837907117574938 -0.02529061658406236 -0.16208740317328532 -0.006634824609621058 -0.06980559779085585 0.17810275286278907 -0.3147855301584487 -0.11863857986637112
0.07436407381012 0.3455733861272412 0.36149552793903156 -0.07248618441858931 -0.019731529328174367 0.13304746030664916 0.15273257706770474 -0.06757010780377856
0.10499969082604763 -0.08879974359985014 -0.04696064107394702 -0.10454403998339366 -0.08536417695210238 0.11558707844094247 0.10891785987337801 -0.06792837968788785
-0.11383333058791183 -0.1625199159306655 -0.3885519045038755 -0.09543993937228187 0.16392728145075924 0.227536719562837 -0.12245779840074932 -0.03694167638419977
0.1278578123982243 -0.05938264286846479 -0.030849185971771532 -0.0869206819025496 0.01950962503169885 -0.09636648692418434 -0.021254283905525403 0.003986041133506399
-0.13568915090999428 0.17385617592174038 -0.21740496945115376 -0.2502692379926802 -0.02964377683300501 0.12484083061675147 -0.035421113800723616 0.09451944078146748
-0.2986690692876848 -0.021565486082810562 -0.15273260239571312 0.02019611722293935 -0.11984992345365611 -0.0033927099433064185 -0.008934364631092073 0.053426077031745935
-0.3085408194212785 0.05180553294591645 -0.3831580157403526 0.3346436635132445 0.04738967464770503 -0.20082114485241712 0.02907329688216515 0.061331129090037545
0.07814642955386426 0.021898393185663268 0.2091311774869942 -0.053956513619127865 -0.14191982351253493 -0.07423308768106526 0.06526561925808577 -0.06585330286279521
-0.043680699817524746 0.054604966803701645 -0.06844457372375462 -0.021820156900291685 -0.023071219509255496 -0.1634611497827284 0.05394067762242302 0.07736987559167627
-0.17503631110023307 0.0288887936274615 -0.2094344724359364 0.0678150131803104 0.053527380302517955 0.10073791055867931 0.09134545636229209 -0.03298487671081328
-0.09362478113592482 0.2428619458404372 -0.1850529154118501 0.19294868703241275 -0.09121861332097149 0.02317493855873543 0.018040714741911934 0.013466530341148898
-0.04986255985421654 -0.09020408329414696 -0.10312698345644215 0.012790380195386532 -0.2987428279282319 -0.1951791104608867 -0.24607090544015373 0.114627168247102
00000000: 11bb 8b19 a24e a5bf 4c47 e0c5 6d6e 9d3f
00000010: 05b3 e23d 4946 babf 77af dc51 62a4 9ebf
00000020: f51f db25 67cd cfbf 88df 25f9 d53d be3f
00000030: f5ea 0125 9336 bb3f 1b85 9fcf 04ad 893f
00000040: c892 f7c9 d937 b1bf f86b 2751 3b6a 9ebf
00000050: b83b b468 4838 93bf 5cfc 3dbc d7b0 c43f
00000060: 5652 e729 e4b3 9c3f 9e72 d048 6909 923f
00000070: 446e e384 8544 bf3f cf4a b6a6 3afb b33f
00000080: db3d dbae 5860 c93f 344c d320 1c6a cbbf
00000090: 1755 1115 46ec ce3f b2d9 ec0d 972a b3bf
000000a0: 1e30 6bdc 9fb2 a33f 6645 cbf1 7c9c cbbf
000000b0: 5837 0eda 666a b2bf b1f3 cb2b 55e9 8c3f
000000c0: b7b2 e402 4f5d cf3f 5c31 9881 b5c2 8f3f
000000d0: e4f5 f2a1 2208 b7bf 61e6 e7ed 05ac 7b3f
000000e0: 2888 7e7a 29d7 9bbf f91c c09a d084 a6bf
000000f0: b7ec 06e0 a00e 953f 526a 45ba 4ed0 bc3f
00000100: adde 98bb 4f5f d1bf c78b ddc6 51ab b7bf
00000110: d55e cb5f 2552 c2bf 34de 2b74 d830 8b3f
00000120: 8ba6 5344 7725 bc3f 421e bbf0 1bbb b1bf
00000130: 8fbf 56f7 9df0 b53f 20a7 9877 4156 83bf
00000140: 55f9 f1d9 2ce5 983f 7e08 a5b0 e919 b93f
00000150: 5134 e67c 8020 c2bf 3865 afd1 c026 c93f
00000160: 6e81 76dc 0685 c3bf ea8f 809a 07c7 c4bf
00000170: cf4a 65a7 9af5 b2bf f99b 1b04 1f36 a5bf
00000180: 0c9c b496 6fe0 c3bf 599b dfba 0e06 af3f
00000190: 8c35 ab8c c955 d8bf 467a 0f97 ddb7 ba3f
000001a0: 24a6 6ee4 01d9 d1bf 6054 acfc 39f9 8e3f
000001b0: e7bd 1dae 6d27 c7bf dc4d cde6 53a2 bf3f
000001c0: 45de b598 4cd7 ae3f 6aae 2cc3 437f a53f
000001d0: 8b4c b75d 80c1 cdbf 758f 46d2 0d15 c63f
000001e0: 0300 a903 e9a9 463f df27 a022 81cc b93f
000001f0: 9568 4240 43c1 d13f dd70 1999 4e38 c6bf
00000200: 4d6e f7b9 7f4b b4bf 8748 626b 901b ab3f
00000210: d4ed 10d1 cff7 763f 9449 8128 0f81 c9bf
00000220: b1dc c833 750f af3f 02ec 9a59 5e47 d3bf
00000230: ca87 d1c4 350f b83f 34ce b93f 5b01 c9bf
00000240: f2c7 6a87 87b1 bb3f e649 0931 4644 c23f
00000250: 6637 d259 1f03 ce3f bbfb 2863 d971 ce3f
00000260: d2f7 708c f177 863f 9cff c0f9 38a9 bd3f
00000270: fa9d 11cd 9b99 b43f ece0 1dff 3b64 ccbf
00000280: 7d05 cec8 ce30 b6bf de21 dcfd b8e1 c23f
00000290: c6a1 d8df fd51 cdbf 93c0 2aad 2f45 b03f
000002a0: ab9d 548d 29b7 aa3f dce4 98e8 51d4 b2bf
000002b0: da32 c8c8 4bb2 b73f 944b 617e 8abc b8bf
000002c0: df93 56ae da2b a13f 557c 49b6 d382 c03f
000002d0: 2d5f 63ef 5fcb c5bf 8b33 0658 b43e a33f
000002e0: 4ef4 0b87 7c72 50bf aff3 d861 be43 a73f
000002f0: 9b9e 2c7a 5e18 d2bf 3182 ff98 1aa1 a6bf
00000300: b068 6fa9 8113 b4bf e77b 2d47 55fb bfbf
00000310: bd4c 84f9 0cb4 b03f 4905 6560 b6f7 ca3f
00000320: 8868 98ad 0710 aa3f 7769 2d14 92eb bf3f
00000330: 47b6 e130 c2ac b53f 7d89 2a8d d33a 94bf
00000340: 73e7 b412 51e1 d6bf 4bf9 28e5 aa53 a93f
00000350: 2b15 712a 8d58 bebf 2226 42f5 2944 c33f
00000360: ac32 ebd8 54c5 c3bf 49e4 aaa9 7458 c1bf
00000370: 7092 77b2 f3a9 c6bf 6b10 0161 b987 d03f
00000380: f30e 16e2 d4a2 ae3f 34cb eb1d 3349 bc3f
00000390: f467 659e 12cc aa3f 71ca acba b578 96bf
000003a0: 5021 ab14 6975 c13f 23f5 aab5 19f8 b5bf
000003b0: 1a71 9ecb 454a 6a3f 4cbc 0c5b a4dc 8cbf
000003c0: ab2e 0b26 5ade aebf 3b4a 655b 996a ad3f
000003d0: 9605 e971 106a d0bf 9889 0d9b 3b98 7bbf
000003e0: f644 cbd2 55cb d03f 1e5e a775 eb57 b2bf
000003f0: d119 a7a0 8a09 d0bf e5ec ad22 d05c c13f
00000400: 20ad 5e80 fa14 abbf 5f68 2e4f f465 79bf
00000410: e27d 518d 9de6 c53f f9cc db8a 31c6 823f
00000420: a223 4f21 9f69 cdbf 075f 8927 13de b5bf
00000430: 2559 3156 f68d abbf 0b9c 47a8 776b c83f
00000440: 8cb6 51a6 bedf bb3f 112e 39f3 c703 9cbf
00000450: 3ca1 37e1 c6cd acbf 26b6 5345 c3e4 b83f
00000460: 7e8d 343d cb43 a23f c56f f003 15c3 c4bf
00000470: b30e 191e abe0 b4bf 5983 6229 1c8f b1bf
00000480: a9f7 b60a 13e4 b8bf 4845 043c 2500 c1bf
00000490: d17a 5ead 2126 b0bf 0786 cb6c aa93 b5bf
000004a0: 0270 9c0d 0cb4 91bf 1d8c 1e80 2570 86bf
000004b0: 7dbd e614 dc23 c0bf 6fd5 0c2c c6b1 b43f
000004c0: 964c 4516 bbbe bbbf 5534 7f8c c8e5 99bf
000004d0: 9985 dcaf 47bf c4bf fe85 682b 1e2d 7bbf
000004e0: 92e6 9697 c7de b1bf a3c6 6f2d 12cc c63f
000004f0: 3636 5235 7225 d4bf 1de8 9114 195f bebf
00000500: 0805 0321 8609 b33f f034 f2d5 df1d d63f
00000510: 4d7f 8923 be22 d73f be5a 7d5f 748e b2bf
00000520: 0686 a884 8034 94bf 009d 6afd b207 c13f
00000530: 5511 c5b7 bd8c c33f 1655 344b 464c b1bf
00000540: d61f 307e 42e1 ba3f 0b90 a77a 94bb b6bf
00000550: 6d3d 39a3 390b a8bf 9f6b b8f0 65c3 babf
00000560: 565d 423c 6dda b5bf 0d79 be61 1d97 bd3f
00000570: 9241 1b76 0ae2 bb3f d5d0 3a19 c163 b1bf
00000580: e3e0 1160 2e24 bdbf ec78 efdd 73cd c4bf
00000590: 5921 a9ce 08de d8bf 760f 567a c06e b8bf
000005a0: ce68 60b4 91fb c43f 4eac 9458 ec1f cd3f
000005b0: 1f79 45ef 6459 bfbf 71ee dbf7 04ea a2bf
000005c0: ceec 6411 a55d c03f a9e4 23da 6667 aebf
000005d0: 5a8c 6dd3 ed96 9fbf 7d12 1e0e 6f40 b6bf
000005e0: 439c dfc5 54fa 933f 8610 c55d 79ab b8bf
000005f0: bcb5 18d9 aec3 95bf e356 f1c4 aa53 703f
00000600: aa4b ca18 435e c1bf cb4f e54e eb40 c63f
00000610: 31ea e310 edd3 cbbf d2e5 1744 6904 d0bf
00000620: e057 1c30 f05a 9ebf 1255 b494 91f5 bf3f
00000630: 5a58 b95a b722 a2bf ca1b fe12 6d32 b83f
00000640: 18b6 3adf 641d d3bf 51c4 ca45 4315 96bf
00000650: 9e49 29ee bd8c c3bf 2132 ea7b 4aae 943f
00000660: c25b a90d 7cae bebf edc5 0a48 07cb 6bbf
00000670: 3369 351f 2e4c 82bf cdb8 35ab a95a ab3f
00000680: c54e 39fe 21bf d3bf e955 823b 4186 aa3f
00000690: 3a86 b332 a985 d8bf c697 a641 cd6a d53f
000006a0: ad58 8f9d 7543 a83f b142 bedc 81b4 c9bf
000006b0: b1e5 2eed 63c5 9d3f 1c41 5633 cb66 af3f
000006c0: dda6 3b87 6701 b43f 6dfd 444a 886c 963f
000006d0: e1b7 f077 cfc4 ca3f 6bf8 cc2a 30a0 abbf
000006e0: 97f9 51c4 6d2a c2bf ee0b df8b f000 b3bf
000006f0: 3c44 4464 3fb5 b03f 0f19 2116 c3db b0bf
00000700: de85 5d12 515d a6bf 21fc 3da5 2ef5 ab3f
00000710: 9c70 bb65 9585 b1bf d911 1ff1 0558 96bf
00000720: 7e98 1555 fb9f 97bf 44df 3d82 4bec c4bf
00000730: 0cf1 9fcc 1c9e ab3f 6ea1 5c1d 83ce b33f
00000740: 9fdc e4ff 9667 c6bf b142 671f 0695 9d3f
00000750: dd38 e2b0 bfce cabf b388 c91f 535c b13f
00000760: 5603 aed7 f067 ab3f 6820 51af f5c9 b93f
00000770: 69d8 b673 6a62 b73f 0e98 78cd 64e3 a0bf
00000780: b4ee 122d cbf7 b7bf d4ee 69a9 1916 cf3f
00000790: c096 dc5d d0af c7bf 0420 4ee6 8ab2 c83f
000007a0: c902 0061 1a5a b7bf c14b c9cc 2bbb 973f
000007b0: 007d 40df 4379 923f d421 3f1b 5794 8b3f
000007c0: 95c6 bcdf 9587 a9bf 17ca b663 9d17 b7bf
000007d0: 43d2 47ad 8766 babf e106 24c5 d731 8a3f
000007e0: a671 f73c 9a1e d3bf 525c 250c a1fb c8bf
000007f0: a768 ae5d 407f cfbf 7bb9 dac2 3458 bd3f

linear_out.bias f8 [50]
-0.20653803016089686 -0.16648170473883844 -0.24057788273638395 -0.1508555181685799 -0.21887271896914073 -0.12603736334229185 -0.1925940399669494 -0.1586338919525919
-0.21845896621347957 -0.16164393401430271 -0.18746769058910945 -0.14886257706339345 -0.1664672962131913 -0.157915411601858 -0.10152469125554323 -0.11145714256451282
-0.051479478908857366 -0.05728659740022691 -0.07259463492757268 -0.05911259489446195 -0.0745280476226708 -0.07736438221572885 -0.014260541767347186 0.0011555120033775164
-0.07957234471893418 -0.0294826853483802 -0.02111573109453115 0.008312081052350121 -0.006642959014103666 -0.026307822576039596 -0.0217218112850563 -0.03695888079151028
-0.054107514929023603 -0.028144039151454033 -0.04978131174501677 -0.06898887912220136 -0.005077318729433642 0.027283989360042702 0.03894497615265267 0.03971685919921721
0.036222535810254565 -0.020847070646074963 0.03390772349137911 0.027915064120126808 0.0817021937013971 0.06864515967079607 0.06746418644642099 0.025502003410801825
0.09511238989822379 0.08185733605799718
00000000: 9bed 7592 d66f cabf 6e29 9ec2 454f c5bf
00000010: 4d31 3f8d 41cb cebf 7c43 7ace 3b4f c3bf
00000020: 6cc2 fa70 0504 ccbf 0b8a d008 fe21 c0bf
00000030: 1e02 88e7 eba6 c8bf 439e fc88 1d4e c4bf
00000040: 93d2 b3a1 76f6 cbbf 5617 1899 bfb0 c4bf
00000050: 0685 11f8 f0fe c7bf 74f3 0ace ed0d c3bf
00000060: f36a 8be4 cc4e c5bf 52a3 2e7c 9236 c4bf
00000070: 92d6 adac 85fd b9bf 835e 388e 7488 bcbf
00000080: ab46 a8ac 845b aabf 318b aa3c ab54 adbf
00000090: 1805 e1de 8f95 b2bf 3ef2 b48b 0144 aebf
000000a0: ed91 2c27 4514 b3bf 91e6 7df3 26ce b3bf
000000b0: 17ab 1c84 a134 8dbf 79e4 ef90 91ee 523f
000000c0: 4ade 3b6a da5e b4bf aa6b 7a85 b530 9ebf
000000d0: 85b6 edb9 5c9f 95bf af9a 40a2 ec05 813f
000000e0: bf8a 6dbb a535 7bbf 434b 5f16 70f0 9abf
000000f0: f219 5114 3e3e 96bf 89b4 9740 46ec a2bf
00000100: c80c 2dee fab3 abbf 426d ee7e cad1 9cbf
00000110: 012d cba3 ef7c a9bf e417 9e53 41a9 b1bf
00000120: 97fe 4e5e f4cb 74bf 39ef 0588 55f0 9b3f
00000130: ed99 d68d 98f0 a33f 2390 b8a6 c455 a43f
00000140: 9dd0 5d9d c28b a23f 67b5 913a ef58 95bf
00000150: 995e f466 5a5c a13f a6c4 d83d c495 9c3f
00000160: 417e f559 6fea b43f 9694 d0ab ba92 b13f
00000170: b449 703a 5545 b13f 0e0a 877a 321d 9a3f
00000180: 60a9 0e1c 4959 b83f 1989 4e35 9af4 b43f

layers.0.weight f8 [50, 50]
-0.26790867045993605 -0.22195705198842963 -0.2519494749434203 0.009309679700961113 -0.14793066096770252 -0.16829344868954857 -0.1315816325084449 -0.07958779194478213
0.07725914786366975 -0.16645968574650358 0.08703803385776805 -0.3066105525322271 -0.17986784507514197 0.04208062468389867 -0.15313039168022863 0.1223817996387747
-0.22453119275899625 0.2166044990095139 0.09184123201600931 -0.21905566130131182 0.12389213054391482 0.3798676761864552 -0.1941884780130866 -0.13271196012577377
-0.09490182796667512 0.06038942492338836 -0.2375420916629874 -0.07815209405460784 0.02997575612767855 0.26731593899698924 0.19883046947650534 0.06835230301561698
-0.08017616233810523 -0.04325868178400935 0.3192395659453024 -0.21723990287920475 0.20224772041930097 -0.030607953822702667 -0.14900964755157056 0.25659386775443416
-0.11432544265847328 0.151888757875169 0.310665814540309 -0.06866021104569434 -0.2796344195254467 -0.08397117717510272 -0.004755292268017361 -0.019281182963545626
-0.4074680517077123 0.07084355698552153 -0.22467250544779568 -0.05641283050693249 -0.09207965332260483 0.021189311553024535 -0.21486314427018713 -0.15512068057715023
0.200610272172897 0.28936283147097064 -0.012327504315964136 -0.1440383778744509 0.08580613433731782 0.13648147479201003 -0.16146804667025455 0.3327785991649063
0.10293312956172185 0.17805535416189702 0.28298159173384396 -0.23866064122379585 0.19979605394649863 0.08494630043547889 -0.37622722949514187 0.08291112894370196
-0.1643969187327373 -0.2309956230668548 -0.38742983467223285 -0.05167750440189792 -0.06813688921179267 0.04288283945196568 0.0025272523965999072 -0.1486156498736693
-0.10593802037834239 0.27650841245869257 -0.05418604856755521 0.18379786288254257 0.052767876510461637 -0.15324808998582445 0.28355397013740546 0.18622565292574567
-0.039488123725855084 0.06991569934945593 0.17083638463717232 0.021349716356636756 -0.011476158548106538 0.03426484787841136 0.18423191824888205 0.20896815268822752
0.17083159863665573 0.3625693243646604 -0.09927019925311896 -0.0606808558885589 -0.08824815575011914 -0.15692811581897126 0.021713883615783105 -0.18907868015971885
0.24735045934119265 0.17424223675978784 -0.1297418190727393 -0.054433962358085446 0.01314986500691451 0.1204806312548198 0.06272230219281259 -0.13571811195779843
-0.014068856058442398 -0.09271401043637396 -0.2823162557255355 -0.15002834247978117 0.29194594271486674 0.03932234937473899 -0.18698666537692452 -0.1967465303646517
0.18325905572005163 0.13306078332355964 0.0805334888719371 -0.12411805813450273 0.14112496813993916 -0.05488752504665682 -0.14073036803493089 -0.09894006453687935
-0.036243950053390636 -0.0481106378452812 0.014386693888321787 0.1261726598881334 0.09267081228253883 0.06464530430230851 0.14773947733983925 0.018462432738550295
0.3394449222236909 0.07383984240435618 -0.04380495118107796 -0.012036732841658841 0.10451692604786199 0.06587183958933716 0.15904890266199712 -0.07447391377181137
-0.15881531311000402 -0.28547439394226887 -0.09923605970406366 0.22875522652959568 -0.3264938456349478 0.1501988852324294 -0.180262269518913 -0.21429709370611644
0.17042670901759002 0.10923672778809353 0.09786233571795461 0.15183297771321877 0.21149229645740994 -0.2631981772370774 0.09058347405555095 0.13465174393013965
-0.03572040628416177 -0.10126420808104047 0.03574452786302617 -0.06581730956002603 0.0058871514244431405 0.07818551927084781 0.03100984747665057 0.31967087782407666
-0.22958525169111305 -0.04591513021091365 -0.01119888288283695 0.016564044189930658 0.2548458749670263 0.06350433525385021 0.13752331839584406 -0.13097717729596134
-0.28293350181818727 -0.1573050820579414 -0.10177406438403955 0.007264333990560795 -0.07809861182081593 -0.056453843695523295 -0.021349123621352536 -0.17802810345484768
0.09513477283388112 0.10099824153524643 0.28966099516246263 -0.2683186850162307 0.18700458861478925 -0.14143959107974885 -0.09051346012101362 -0.027339040324997566
0.12161554729127287 0.06093723920710364 -0.06265490015609593 -0.12040786251605 -0.1481172101335935 -0.24756391145040885 -0.07974332634781671 0.06301181672534775
-0.014707973945647176 0.04833591247335266 -0.04715171720272751 0.16201828590868403 -0.04549689992168607 -0.021986166833327114 0.09540469741893672 -0.07237170588434226
-0.27859875141629015 0.02739389573020129 0.07606389604216775 0.13430207662649013 0.06440642136065274 0.09929078759776745 0.04631810373175581 0.029512859946053384
-0.03669587748616369 -0.18045709513335353 0.06991584476113567 0.14689005927380192 -0.05777325288233568 -0.05410136852780539 -0.17232866219999457 0.09893824626906679
-0.03841445515865888 0.14807653565065304 0.0032369376818521 0.2338155348496017 -0.06149371397990882 0.007429069303198689 0.004226833989608728 0.10820935111287458
0.14056609013344842 -0.0019499504289699984 -0.13435936166206042 -0.39958109622316357 0.10811159255624588 0.2301326136889642 -0.1834531092711116 -0.05280250734925736
-0.007935262801531905 -0.08859701400994398 -0.11309585190927639 -0.19373007525598931 -0.0011774431561605517 0.12327667705625488 0.03353806073598711 -0.11443221305009743
0.18346269036103177 0.019113965787882492 -0.4012920592821388 -0.26098526367819863 0.04934536239740773 0.0204860546782392 0.010344245220356407 -0.0617628385560649
00000000: 542d 7c68 6a25 d1bf 8c14 b4b3 1669 ccbf
00000010: 4f16 c8b0 f01f d0bf 929d d00e f410 833f
00000020: 024a 7753 64ef c2bf 5557 20c5 a38a c5bf
00000030: 5064 30bc aad7 c0bf 164e 9093 dd5f b4bf
00000040: 922b 6469 41c7 b33f 1b1c 310d 8d4e c5bf
00000050: 8d60 ede4 1f48 b63f 7f00 efdd 819f d3bf
00000060: bc90 19d8 e805 c7bf 780c a075 978b a53f
00000070: fe26 25d4 c699 c3bf 47fc 12e3 6954 bf3f
00000080: 2477 ea28 70bd ccbf 1ec7 b43b b2b9 cb3f
00000090: 2de0 ee2f e882 b73f 0c7a a512 040a ccbf
000000a0: faf9 ea08 65b7 bf3f 60d0 8183 c04f d83f
000000b0: a5c1 2905 2bdb c8bf d79d 439c b4fc c0bf
000000c0: 908e 7277 7c4b b8bf 4cf1 23da 5ceb ae3f
000000d0: f2d7 8e7d c767 cebf bd15 1490 c601 b4bf
000000e0: 7f0a f7f0 f6b1 9e3f 2c43 ec4f b41b d13f
000000f0: 12ca ecdd 4673 c93f 7ef0 0e5a 897f b13f
00000100: f233 29cb 6c86 b4bf 6c8f 0f7f 0026 a6bf
00000110: 7bc1 d4c9 6b6e d43f aa4e 2063 84ce cbbf
00000120: 011b 72d8 40e3 c93f 45f8 a902 b157 9fbf
00000130: b1e0 8285 bf12 c3bf 2001 97af 086c d03f
00000140: 34a1 51a5 6e44 bdbf d519 da3f 1771 c33f
00000150: 9de4 5bde f2e1 d33f 8a4b fa30 b793 b1bf
00000160: bba7 acc3 87e5 d1bf 6810 c693 227f b5bf
00000170: ca88 620c 497a 73bf 9cc7 0649 72be 93bf
00000180: 2cf7 0fe1 f413 dabf b497 62a8 cd22 b23f
00000190: 83b5 9a93 11c2 ccbf 0442 347c 24e2 acbf
000001a0: 79c9 a53b 8892 b7bf a979 94a0 a6b2 953f
000001b0: 9fca e0b0 a280 cbbf 3c8d 0195 feda c3bf
000001c0: 46b4 1cef 98ad c93f 3c21 76ae eb84 d23f
000001d0: 22e4 069f 293f 89bf de79 2b7d d96f c2bf
000001e0: f463 c60c 64f7 b53f 81ea 5e97 3978 c13f
000001f0: 821c e625 fcaa c4bf af34 0e9c 3e4c d53f
00000200: 987c 2459 d359 ba3f c963 8091 84ca c63f
00000210: 067b 77d2 5e1c d23f 1505 7390 6e8c cebf
00000220: d6f7 c8c6 ea92 c93f cf5c 496e 0abf b53f
00000230: ecf6 a25f 1b14 d8bf b5a2 49eb a939 b53f
00000240: 6b98 c24e f50a c5bf 37af 4bbb 4391 cdbf
00000250: 035d 5a81 a6cb d8bf 14aa b04e 7975 aabf
00000260: e4d9 d04e 6b71 b1bf aef9 0252 bdf4 a53f
00000270: 125d 8c4c 08b4 643f 09cb f06d d605 c3bf
00000280: ed8e ed0c c11e bbbf bd0d 2557 50b2 d13f
00000290: 2886 fe14 46be abbf 02de 1339 b086 c73f
000002a0: ec99 c81f 6404 ab3f 3af0 5427 a29d c3bf
000002b0: 1008 198d bf25 d23f 7c04 7f00 3ed6 c73f
000002c0: 2045 f78f c937 a4bf 56d1 2eca fee5 b13f
000002d0: 60e4 7d76 f7dd c53f c55d 1f36 b3dc 953f
000002e0: abc0 2eed cf80 87bf 0494 1482 298b a13f
000002f0: c70f e157 e994 c73f d3c9 d9ea 77bf ca3f
00000300: 6748 a250 cfdd c53f 4475 abf7 5534 d73f
00000310: d771 4293 c569 b9bf 94bd 11a7 8f11 afbf
00000320: 210b e15e 6e97 b6bf 08f8 a172 3816 c4bf
00000330: c7e9 fe0f 2a3c 963f 3813 d4ed ba33 c8bf
00000340: 22b0 c20a 2ea9 cf3f f28a 3bd2 914d c63f
00000350: b8a4 eb42 619b c0bf a745 3db0 c4de abbf
00000360: 424c 3601 51ee 8a3f 8977 0a93 d1d7 be3f
00000370: a7e0 a59c 910e b03f c2b3 2a0a 365f c1bf
00000380: 2a1d 4ee5 21d0 8cbf e189 b4fa 1abc b7bf
00000390: 2d1a 5e33 7811 d2bf 5d3d 36f4 2034 c3bf
000003a0: 6841 0a09 3eaf d23f dffd 2119 0f22 a43f
000003b0: 877e 4ad6 2def c7bf 5b42 c284 fd2e c9bf
000003c0: 2cb9 8161 0875 c73f 4c9e 60c0 2208 c13f
000003d0: 5f10 f0bc d79d b43f 01dd 8778 33c6 bfbf
000003e0: b9b0 6709 6210 c23f 8d4a 11ba 371a acbf
000003f0: 1ccd 21e4 7303 c2bf eb34 73d5 2254 b9bf
00000400: 9e78 5028 918e a2bf a936 4520 f5a1 a8bf
00000410: b2b5 fb5d c576 8d3f ef36 effb 6c26 c03f
00000420: 3119 0c3c 46b9 b73f 8f81 d13b 988c b03f
00000430: df59 c08f 20e9 c23f fd45 44e3 d0e7 923f
00000440: f59d ef31 77b9 d53f aabc 44fc 2ae7 b23f
00000450: af82 7341 9a6d a6bf 7cb2 3eef b6a6 88bf
00000460: 4f07 410b 9fc1 ba3f bf78 c314 fadc b03f
00000470: 84f0 b2e5 b65b c43f 0218 0ef0 b810 b3bf
00000480: f6aa f467 0f54 c4bf 31f5 7464 3645 d2bf
00000490: 964a 03cf 8867 b9bf 64e9 5dec d947 cd3f
000004a0: 5d3b 5671 46e5 d4bf 4806 fc91 b739 c33f
000004b0: 04ab 2484 d512 c7bf 323d 8c50 166e cbbf
000004c0: f337 ccda 8ad0 c53f e535 5f2d f0f6 bb3f
000004d0: ac35 6b8b 810d b93f e7c4 dd54 436f c33f
000004e0: 4ffc 51f8 2d12 cb3f 5e67 e62a 3dd8 d0bf
000004f0: 846c a082 7a30 b73f a3c0 43b2 443c c13f
00000500: 35a3 94f1 f149 a2bf e4a1 f67d 73ec b9bf
00000510: 5f85 5d54 1b4d a23f 5d2e 1238 67d9 b0bf
00000520: d073 5a2d 201d 783f 6f00 4a58 f703 b43f
00000530: db8c 10a3 0bc1 9f3f bc3b 6fd7 7c75 d43f
00000540: 1221 d4ad 0c63 cdbf 517f 4b1d 3082 a7bf
00000550: 283f de9d 70ef 86bf 094c 5730 2af6 903f
00000560: 9f3f a012 654f d03f 2ecb 11f3 d141 b03f
00000570: 2b49 7935 5d9a c13f 1718 8132 dcc3 c0bf
00000580: a71e 501e 951b d2bf 717b 77ab 9222 c4bf
00000590: 5646 1c76 dd0d babf 6db8 aace 34c1 7d3f
000005a0: ba26 a247 45fe b3bf dec0 cfa8 84e7 acbf
000005b0: 7c04 026f 8bdc 95bf c1c1 0df9 9fc9 c6bf
000005c0: 3dae 08a2 c05a b83f b3ee 5850 05db b93f
000005d0: e792 4945 ce89 d23f 583a 4322 222c d1bf
000005e0: ceb6 2630 c4ef c73f 8208 0649 b11a c2bf
000005f0: 334b 11df e32b b7bf 8049 66f0 c3fe 9bbf
00000600: b718 4d4e 3222 bf3f 578e 0173 2a33 af3f
00000610: 94c5 1acb 260a b0bf 0b0d b0b7 0cd3 bebf
00000620: 49d0 bf36 81f5 c2bf 5eb7 ac9b 2cb0 cfbf
00000630: f3f5 bc02 0f6a b4bf 62cf 18dc 8a21 b03f
00000640: cb1f b2d8 361f 8ebf 7e3a 9716 7cbf a83f
00000650: 5402 ac16 4524 a8bf 9f77 aae3 03bd c43f
00000660: 444f 77a2 5e4b a7bf 63dd 0dae 8a83 96bf
00000670: 6592 4c37 716c b83f afd1 edbd f386 b2bf
00000680: 8785 82db 8fd4 d1bf 30c2 1539 250d 9c3f
00000690: ed4e e869 ec78 b33f 06a5 7279 cf30 c13f
000006a0: 6d7a 6571 f07c b03f 49c8 86fd 1e6b b93f
000006b0: 6e33 7ba9 01b7 a73f ea70 1e81 9e38 9e3f
000006c0: 05f6 6653 cdc9 a2bf a9e6 f6d4 3719 c7bf
000006d0: 81a6 b83a 01e6 b13f 2320 5820 4bcd c23f
000006e0: 8d24 6daf 7494 adbf 47d5 fdb0 2cb3 abbf
000006f0: fdfc 2798 dd0e c6bf b99a 0c54 0454 b93f
00000700: 1840 3339 0fab a3bf 1857 f602 2cf4 c23f
00000710: 45a5 72af 5984 6a3f 9ce6 bcdd aaed cd3f
00000720: 2715 e8a4 1a7c afbf 35bb 269b f16d 7e3f
00000730: d00e 041c 2850 713f 92b3 26a8 9bb3 bb3f
00000740: 2f5e 06d4 11fe c13f e550 8f54 aff2 5fbf
00000750: 88ff 1f04 b032 c1bf 5736 1897 bc92 d9bf
00000760: 3df9 588a 33ad bb3f ccbf c448 fc74 cd3f
00000770: c99f 5538 647b c7bf ea78 6c24 ee08 abbf
00000780: 06f1 bdf1 5c40 80bf a52a b23d 4bae b6bf
00000790: 5f7b 4389 d9f3 bcbf 9df0 bca8 25cc c8bf
000007a0: 689a 4ff6 8d4a 53bf 67f0 5070 0f8f bf3f
000007b0: 148d 1094 e62b a13f 00b9 a8f4 6d4b bdbf
000007c0: db82 9197 b47b c73f 00c2 d287 9c92 933f
000007d0: cdb8 b0e3 c4ae d9bf 5817 0f89 fbb3 d0bf
000007e0: 718a 699b cb43 a93f 6bea 77db 4bfa 943f
000007f0: 13c9 6217 5d2f 853f c0b0 69f7 609f afbf

layers.0.bias f8 [50]
0.13416454315364146 0.11581544021292049 0.042002447008038124 -0.08900501954766027 0.02107981417816058 0.06880949023612484 0.07387723180400846 0.15303899382169622
0.0901247651837797 -0.012026349273861483 0.003135132667745025 0.11626768642827312 -0.04034919306327067 -0.1849423606711512 0.08752769759489643 -0.006756628075802914
0.05706186836651152 0.15205086878594573 -0.02076117359006883 0.08022378072698572 -0.017717423186611986 0.10909422687255303 -0.0679720235568282 -0.10754646778767495
0.022774044576179563 0.06367129727276104 0.08784057659293791 -0.0755559671057621 0.12595865138180795 -0.096006434206868 0.14522431017237766 0.07880911258322713
0.07883853585222189 -0.0977700120697889 0.09023861899175001 -0.027823639623590107 0.02652497648598537 -0.029549888298726814 0.12526887834704473 0.027013637089755634
0.11691764317417003 0.09431719111953253 -0.03075383158719745 -0.05429551465888824 0.08235087432465828 -0.023578114193243332 -0.019597722714807652 0.11578699914890572
-0.16895235224280597 0.04234979100283867
00000000: 8457 90c2 4d2c c13f 2b1a 16a8 14a6 bd3f
00000010: 30c4 8040 5881 a53f 2815 2370 08c9 b6bf
00000020: d2fa 0062 f295 953f 5af5 37ae 7f9d b13f
00000030: 0469 8446 9ee9 b23f 160c bd20 c896 c33f
00000040: bb25 06a7 6a12 b73f 0173 9246 45a1 88bf
00000050: 21cb d988 d9ae 693f 0880 ca16 b8c3 bd3f
00000060: c0e3 4041 a6a8 a4bf 0323 5df7 30ac c7bf
00000070: d00c aa16 3768 b63f 0973 de89 d6ac 7bbf
00000080: b234 f794 3637 ad3f 8bcb 6122 6776 c33f
00000090: 0b3a 62c6 6a42 95bf 1479 95b2 8b89 b43f
000000a0: c8a1 9f24 8424 92bf e39a 9968 99ed bb3f
000000b0: 6132 3852 9d66 b1bf 1fc9 f251 2a88 bbbf
000000c0: 56fe 9b42 1452 973f abfb 7a1b c34c b03f
000000d0: cb7b ba53 b87c b63f 7aa5 bcc7 a257 b3bf
000000e0: 04a4 2ac0 691f c03f 4cc3 1faf e093 b8bf
000000f0: 8b23 63cf b596 c23f 53f7 2b81 d52c b43f
00000100: 605a 2625 c32e b43f 6388 5e9c 7407 b9bf
00000110: 98e0 67cd e019 b73f d8be f4d8 cc7d 9cbf
00000120: b84d 230a 5d29 9b3f 77ba 5f6f 5342 9ebf
00000130: 3584 da83 cf08 c03f 52d4 627f 76a9 9b3f
00000140: 4c2a c28d 50ee bd3f e918 4fe3 2b25 b83f
00000150: 5b27 93b3 ee7d 9fbf 4c0f 8f27 9fcc abbf
00000160: 597b 0568 f214 b53f 6b01 7275 dc24 98bf
00000170: 8371 8be8 6c11 94bf fc82 a57e 37a4 bd3f
00000180: 2e89 bb0d 3ba0 c5bf 5402 b32e dfae a53f

layers.1.weight f8 [50, 50]
-0.3269542377979026 -0.07621300097199718 0.023849307377842053 0.07424294181261452 -0.05698212073118495 0.002401784424337345 -0.03337081124213477 -0.24496742090226217
0.23820425902616826 0.027895821666988695 0.23165923314681613 -0.03674914412838045 0.07574058723489245 0.18533733898333885 -0.14048116544843586 0.09581895876060847
0.00607761864914434 0.1608477947779259 0.08256379669594902 0.05744409329672302 -0.2032215771927603 -0.08995061379863926 -0.01845926618064326 0.29220382818008267
0.2244614197337868 -0.04545764787633558 0.08282344005246207 -0.3253083653949744 -0.10748829143109415 0.12743713161593087 0.061890061395940214 -0.056902211712479805
-0.49987364021542924 0.5097109893209066 -0.12090579250366265 -0.1814916212124285 0.058471669163717814 -0.13228838607792437 -0.06979856207424828 0.31651699481516604
-0.0676658835163554 -0.06614132201524624 -0.0006327609958510273 0.17914570863822166 -0.22264788267300115 0.15924587353520575 0.0643614001734127 -0.19338696765428526
-0.16939717617620773 -0.11951882963666992 0.15313238162111242 0.4620612737249638 -0.10902041849007221 -0.04972231350786951 0.25518057374939707 0.0423019808663216
0.14335029574499764 0.016054736493282075 0.07103782142504646 -0.0778922283328406 -0.23973421692171157 0.20619869250779205 0.21403289984151241 0.28976040040549583
-0.1496698265056403 0.021198481550982758 -0.005473175147564669 0.21380546991820948 0.3263885057231366 0.2316040487386301 -0.10554983003167798 0.19162780944119903
0.12378757921114568 -0.05284587642731874 -0.048921695541099645 0.051057653943768086 0.05530108918165054 0.05619662812755505 0.09793764768952001 -0.18077156108303646
0.27150267977129483 0.14144757430593735 0.25590688631680303 -0.15848278961496176 -0.08110965640082747 0.10408969452394978 0.003424059399741834 0.09018144861387332
0.05175892310692179 -0.026151399739969557 0.088069546787697 0.07320256966218128 -0.11099132423684996 -0.08970959217613916 0.027064979256713664 -0.20283770806171622
-0.08308356276888014 0.09735302874339742 -0.0540709677453606 0.11023364869988665 0.27788646493218805 -0.13560385270944184 0.04733063138906002 0.08387789388463013
0.1316920018651634 -0.19934787836997225 -0.07954782364317066 0.12614813094050667 -0.23306010278063163 0.28418456749713483 0.05443289469988659 0.18849705893921162
-0.0436779233328393 -0.09964619109913644 0.17349016015755142 -0.18860990387967116 0.08097048968576159 -0.08349911552862871 -0.19669173785847074 -0.13727950181104878
-0.2691778370568913 0.19034031812844399 0.14091647092330403 -0.28981975531203047 -0.13789324416736365 -0.11730359350241132 0.02864059285027806 -0.09662489753463067
0.07955236296080047 0.002779341091571585 0.060520607466253214 0.17219080119418423 0.004938678726943817 -0.041784135772802294 -0.1114575060403811 0.009068008688405401
0.1815592186036364 0.2598991418306868 0.3341976325351703 0.14487332465811872 0.37161751423162065 0.010410808067094272 0.07965293847139371 -0.34557338838377216
-0.09173534213320818 0.2518383029997035 -0.003039307591023719 -0.09063331758391377 0.03298500618549991 0.18420151004606244 0.2667347218245702 0.19915542460223032
0.16469190237119072 -0.1323529107136186 -0.19971523917874362 -0.024468962299161203 0.2567312514845506 0.28946113802362705 -0.2916467299703769 0.06013702127148662
0.05555432183857153 0.16653584200268115 -0.32436551318331563 -0.028030792376990524 0.17640356044181968 -0.24925329199994262 -0.2328585044135119 0.04880836859707785
0.08011807759864548 0.05527771353417972 -0.072519275979004 -0.03303185066302141 0.16288640410796065 0.08913821735986205 0.018283661215698913 0.012674780059924024
-0.050538545995605144 -0.1365307267281235 0.11296314981471015 0.10633510526543237 -0.06358250943490999 -0.10896319890881878 0.049170000475553734 -0.2922253468582371
0.24680801172256733 0.04994289418109038 0.25740637079197337 0.25490856658655175 0.017849930000112698 -0.033930418293029715 0.17559681998903526 0.02852428845236174
-0.017176308634371987 -0.06589623781435627 -0.2525619500528058 0.1481624003659598 -0.18788883833664535 0.2612304740130396 0.09620016088270421 0.14980562601493833
-0.407215333564528 -0.023007267522416358 -0.13253194489465234 -0.03970911229158938 0.0686405571735299 -0.021634134504910765 0.054260543429605686 -0.1644566932643999
0.18340707325635672 -0.038814558103668836 0.21264895395556674 -0.13387933973797678 0.18669979173203613 0.054413496361709286 -0.16759989845064116 0.1544558802110427
0.1274677172256943 0.18335364334052365 -0.012611222077151457 0.044611333398684797 -0.26279671636867197 -0.06351182969992641 0.09269578808163731 0.3536460878117821
0.076382942324397 -0.102591751852486 -0.13351952682227675 0.07707560749346232 0.07736654004233778 0.07279296919371143 0.10851067486921841 -0.0066561251529818986
-0.25360397896891074 0.565777803882104 -0.04598024750158864 -0.22304494568092234 -0.14159087316681718 -0.027137905771418495 -0.31750144507257666 0.25035041414988096
-0.3361063492005263 -0.1533301010247777 0.13338311234502465 0.028970169274294567 -0.0460001910048713 -0.01650989095021309 -0.3607819879990142 -0.08689418543784626
-0.0067598173446846085 -0.01545714007615553 0.08598823746339361 0.2716757190051843 -0.15341363434142813 -0.401262808180713 0.48184116067636273 -0.09636426737347009
00000000: bb5b a877 d1ec d4bf 1c6a b4fa b182 b3bf
00000010: 795d e1ec f36b 983f 4344 0bdf 9501 b33f
00000020: 258c feb1 c22c adbf db0b bf31 e8ac 633f
00000030: 2a17 da9d fa15 a1bf db2a aeaa 175b cfbf
00000040: e484 2427 7a7d ce3f 06e1 04e7 b890 9c3f
00000050: 404c 177f 02a7 cd3f dbf0 5fa8 c8d0 a2bf
00000060: c358 2731 bc63 b33f 219f d448 22b9 c73f
00000070: 260a a76d 49fb c1bf 94ad 365e 9787 b83f
00000080: 6dc2 5e55 d8e4 783f 893a 1a19 a996 c43f
00000090: 9687 a4a6 e622 b53f ba97 1dec 4f69 ad3f
000000a0: 7e35 f125 2a03 cabf 3331 85e0 0007 b7bf
000000b0: 7251 3762 fce6 92bf 532a 73af 77b3 d23f
000000c0: 3634 7cdc 26bb cc3f 84c1 f68d 3946 a7bf
000000d0: 2d17 5ebe ea33 b53f ff24 9f2d dad1 d4bf
000000e0: 6e43 6648 5a84 bbbf 7911 4b24 dc4f c03f
000000f0: af36 49db 0db0 af3f 2416 c064 4922 adbf
00000100: 32e5 3602 eefd dfbf 7471 b16b 8d4f e03f
00000110: da3f b398 aef3 bebf c27d cd10 1e3b c7bf
00000120: 4ff5 99a5 ffef ad3f 0433 ec69 d3ee c0bf
00000130: 50ae 6a8d 51de b1bf 6cff 567f d041 d43f
00000140: 19f8 c124 8d52 b1bf 6f3d f83e a3ee b0bf
00000150: 2a4a 45e4 fbbb 44bf b4f2 e81f 3fee c63f
00000160: ef55 4dcf b97f ccbf 0ea7 6d35 2b62 c43f
00000170: 8d9c de1c fd79 b03f 2a1d c676 e7c0 c8bf
00000180: 7b14 db81 ceae c5bf 87b2 8b38 c998 bebf
00000190: f4b8 8285 d799 c33f 8f65 d972 6992 dd3f
000001a0: 0cd7 021c c3e8 bbbf 03a7 cbfc 3375 a9bf
000001b0: d800 b5e6 e054 d03f faf4 c0f0 9aa8 a53f
000001c0: 6e60 0c70 4d59 c23f 2af9 bc20 a770 903f
000001d0: b1b6 ccdf 882f b23f 6857 4dbd bef0 b3bf
000001e0: 0f99 b45e 9caf cebf 3e43 6600 b864 ca3f
000001f0: f02d 8b18 6e65 cb3f d3b7 da34 6f8b d23f
00000200: 8415 0581 6128 c3bf 9200 f203 0eb5 953f
00000210: b4a1 3944 0a6b 76bf 7097 8046 fa5d cb3f
00000220: 6cc1 779d 8ce3 d43f c60f 7a93 33a5 cd3f
00000230: 429c 154c 5005 bbbf c3eb 4693 4287 c83f
00000240: b7e5 5cf4 8ab0 bf3f 7fb3 f75d 9d0e abbf
00000250: a7e9 d3b4 430c a9bf b645 cc93 3a24 aa3f
00000260: fecd efa2 6c50 ac3f e819 e8ef cdc5 ac3f
00000270: 14a8 df11 7112 b93f 4f02 73c3 8523 c7bf
00000280: 7a38 99c6 4c60 d13f 400b df40 f41a c23f
00000290: a851 e346 c760 d03f 9403 30ff 2949 c4bf
000002a0: 39a0 a139 9ac3 b4bf 10bc d449 9fa5 ba3f
000002b0: 89c7 86e4 c50c 6c3f 37a3 80a4 2116 b73f
000002c0: e472 0a44 2580 aa3f f2db 82ba 6ec7 9abf
000002d0: 0b09 3acf b98b b63f a6a6 ae52 67bd b23f
000002e0: 36ac bc6b ed69 bcbf 38b5 8834 35f7 b6bf
000002f0: 7717 1903 ecb6 9b3f 35a5 4205 96f6 c9bf
00000300: dd70 ede0 f644 b5bf 9d93 9eca 20ec b83f
00000310: 0340 429c 30af abbf 3bb3 15bc 4538 bc3f
00000320: 8aa0 b84f e4c8 d13f afa0 4c90 775b c1bf
00000330: a080 d473 b83b a83f 2483 178b 0579 b53f
00000340: 44ec 9394 48db c03f 5021 1035 3b84 c9bf
00000350: d5f0 0305 3f5d b4bf f3a5 6b38 9f25 c03f
00000360: b1fc b8d7 e9d4 cdbf f865 db77 1430 d23f
00000370: 5610 20dd a0de ab3f df9e c4ef ab20 c83f
00000380: 8521 8be8 f35c a6bf 0217 f1ab 6982 b9bf
00000390: 62f9 06f2 ec34 c63f c1b4 6e8c 5e24 c8bf
000003a0: 2836 2465 7bba b43f 24bd 70b2 3260 b5bf
000003b0: c16d bfe2 312d c9bf b545 58ed 5f92 c1bf
000003c0: 4fe9 bdad 353a d1bf 5067 bc50 125d c83f
000003d0: 6baa 0a09 8d09 c23f 7331 b328 688c d2bf
000003e0: bee2 045f 7ca6 c1bf 7ccf cbb9 9b07 bebf
000003f0: 971d 85a6 f553 9d3f b1fd e3c6 68bc b8bf
00000400: f774 3c2d 8b5d b43f 98a2 f762 b3c4 663f
00000410: c16c 9a9b 8efc ae3f 1a89 e621 590a c63f
00000420: c5fe e179 943a 743f d488 45f1 ba64 a5bf
00000430: 1250 56a7 7a88 bcbf 7e67 0d86 3f92 823f
00000440: bb4f 181d 553d c73f 03f6 9a02 30a2 d03f
00000450: 5ce8 8877 7e63 d53f a315 bc87 358b c23f
00000460: 53b8 8fd3 94c8 d73f c283 6201 4352 853f
00000470: dcd2 c38d 2264 b43f 307a 5ed8 df1d d6bf
00000480: d578 59a6 f77b b7bf 2be3 d066 1e1e d03f
00000490: 7bfd 96d6 e3e5 68bf 9e6d f3be be33 b7bf
000004a0: dd70 a625 69e3 a03f 8cc5 c242 ea93 c73f
000004b0: 8d6d bc82 2e12 d13f cb68 bec9 ec7d c93f
000004c0: 45d6 4ccf 9f14 c53f aacf 85af f0f0 c0bf
000004d0: fa8b 64da 4490 c9bf 4729 5e43 640e 99bf
000004e0: dd2f 3fea 486e d03f 1a90 5102 8886 d23f
000004f0: b451 cd0b 57aa d2bf d79f 4797 47ca ae3f
00000500: 6b70 e5b6 9d71 ac3f 15b5 81e5 0b51 c53f
00000510: 70a5 c491 67c2 d4bf 911a 29a2 1ab4 9cbf
00000520: ff6e 7f51 6494 c63f 18b1 c728 88e7 cfbf
00000530: ba97 86b6 4ece cdbf 3487 ca15 69fd a83f
00000540: 44c5 1a4b 9e82 b43f 1a67 a747 5c4d ac3f
00000550: c9cf a88e 9f90 b2bf a3e7 a5fc 8ce9 a0bf
00000560: 5da9 4d31 76d9 c43f 9064 6220 c3d1 b63f
00000570: 81e9 e3bb f3b8 923f 6a1e bb2e 3cf5 893f
00000580: c01e 7a34 30e0 a9bf c023 19bf d679 c1bf
00000590: e279 1b2a 27eb bc3f bb20 8807 c738 bb3f
000005a0: 5bdc 9e7e f146 b0bf 58ea c71f 03e5 bbbf
000005b0: dd3e f96f cf2c a93f 6a60 f4f0 d1b3 d2bf
000005c0: 7a9e 5ea9 6797 cf3f 58ca 5972 1d92 a93f
000005d0: 4c59 1592 5879 d03f 1768 3d05 6c50 d03f
000005e0: 3f72 5886 4047 923f b6fa d0e9 535f a1bf
000005f0: 7a37 91e3 f479 c63f 38a2 2d98 7835 9d3f
00000600: 940b 678f aa96 91bf c893 576a 93de b0bf
00000610: d835 ec98 f929 d0bf b6c9 084c fcf6 c23f
00000620: bb3b f8cf bd0c c8bf 7db1 a605 00b8 d03f
00000630: 8774 dce0 92a0 b83f 01d8 3eac d42c c33f
00000640: 62b8 05e7 d00f dabf e8ff 5096 378f 97bf
00000650: 1bb8 7f88 cef6 c0bf e487 4ab5 c054 a4bf
00000660: c851 3d74 6d92 b13f d413 b430 4227 96bf
00000670: 9997 fcb6 09c8 ab3f 3be6 96bb ea0c c5bf
00000680: 4bdd be0a e279 c73f 2ef1 5373 80df a3bf
00000690: 4146 62b7 1438 cb3f 8270 e44c f522 c1bf
000006a0: 995d d45d c7e5 c73f f94a abf6 15dc ab3f
000006b0: 4447 54d9 e973 c5bf 8f35 17d5 35c5 c33f
000006c0: 65db 63b6 dc50 c03f e9ff dfd6 2178 c73f
000006d0: f058 1293 e9d3 89bf 3ae4 f4f3 4bd7 a63f
000006e0: 342d 9351 a9d1 d0bf f065 78af 4f42 b0bf
000006f0: c49e 4942 e9ba b73f fea2 6033 23a2 d63f
00000700: 076b 411f d58d b33f e5b7 0bfb 7343 babf
00000710: 141f 8af8 2a17 c1bf f8f5 801d 3abb b33f
00000720: 1059 4927 4bce b33f 6dd3 105e 8fa2 b23f
00000730: d186 d407 5bc7 bb3f aa2c 9afd 7343 7bbf
00000740: f6a4 f32e 0c3b d0bf 2a3e 8f0d da1a e23f
00000750: b907 9016 b98a a7bf 936b 9e9d bc8c ccbf
00000760: a8ef d454 a61f c2bf fea7 1407 0aca 9bbf
00000770: c93e c194 f151 d4bf 3515 54be bd05 d03f
00000780: 70d4 7234 c482 d5bf eb67 b21c 52a0 c3bf
00000790: 5027 aea4 b212 c13f 4de7 5e26 5baa 9d3f
000007a0: c18b f347 568d a7bf cd4a c406 f8e7 90bf
000007b0: ac43 dc55 0d17 d7bf 3309 ab84 b23e b6bf
000007c0: 38f6 c1a6 2eb0 7bbf cd29 ef38 fea7 8fbf
000007d0: 13f7 be3b 5303 b63f bea6 0f8e 2263 d13f
000007e0: 4ae3 20d7 0ea3 c3bf a82f 8f33 4aae d9bf
000007f0: aa2f be4e 7cd6 de3f ec3e df20 54ab b8bf

layers.1.bias f8 [50]
-0.05627911703094495 0.07607634004976245 0.10569015535182652 -0.010786866853982563 -0.07638857501120005 0.08826007687421127 0.25205986963352206 0.06811545038192064
0.026133198541576304 0.1275106503814104 0.014191683608766756 0.08319174477881598 0.05487424635309466 0.03406098228657582 -0.09711394649659019 0.011978244326036405
-0.05961432342179622 -0.11045137766323594 -0.044711832347636905 0.0686030601624809 0.17323645031769078 -0.006892035507600176 -0.046676574319896316 -0.007653338924080065
0.05075340639297642 -0.14748300140937037 0.06675473488855618 0.15593566559182398 -0.05173347419949003 0.042755857049475855 0.10362907046915466 0.13096547543665382
-0.018397409854696626 -0.1471241223803853 -0.040292963984407376 -0.01026003097071473 0.029390767430628576 -0.11680492612851515 0.050214720295325414 0.0859143264666392
0.06660205135916993 0.05676741752340236 -0.0545087180977154 -0.0205761200095781 -0.013601036561236617 0.13634982004807655 0.05327917508229328 -0.02768909427263475
-0.015177433015387432 -0.01886035131963762
00000000: 07fb 30ce 9dd0 acbf d55a 8330 bd79 b33f
00000010: fcc8 be90 820e bb3f 83cd e9c2 6c17 86bf
00000020: bc0d 769f 338e b3bf 5399 b75f 3698 b63f
00000030: a770 2db8 bf21 d03f f51e be9f 0370 b13f
00000040: 8fc4 4d44 a9c2 9a3f 0cd2 a3dc 4452 c03f
00000050: f874 cc87 8710 8d3f 1148 1fdf 0d4c b53f
00000060: 3d58 f52a 7a18 ac3f fe1f fbe9 7070 a13f
00000070: 9e37 30a8 75dc b8bf 288d 26bd 0c88 883f
00000080: 3687 f0c2 c485 aebf 359b dc9e 8a46 bcbf
00000090: b5cb 5a23 78e4 a6bf 0baa cd5b f88f b13f
000000a0: 5d78 4bac 9c2c c63f 616c bab1 d23a 7cbf
000000b0: 0af4 62f0 fde5 a7bf 1863 2586 1b59 7fbf
000000c0: ffa2 3cb9 59fc a93f 1674 e215 b9e0 c2bf
000000d0: 5e12 339b d616 b13f a699 ff2b b3f5 c33f
000000e0: 8f2d 9757 cf7c aabf b5da 7a7f 18e4 a53f
000000f0: 3d74 944c 6f87 ba3f 10e8 f308 7ac3 c03f
00000100: 81cc a046 c5d6 92bf 54c9 0997 f6d4 c2bf
00000110: bcd4 2485 47a1 a4bf 4e24 cd0b 3603 85bf
00000120: f1f1 ac03 9d18 9e3f b2d1 bb79 ede6 bdbf
00000130: a775 e46a beb5 a93f f79c 6e36 7bfe b53f
00000140: 4524 6f00 d50c b13f 8797 7b73 9e10 ad3f
00000150: 5034 2713 91e8 abbf a22e 140a e811 95bf
00000160: dc16 c739 dcda 8bbf 3e03 f630 e973 c13f
00000170: ee96 1275 6847 ab3f 1964 6da9 875a 9cbf
00000180: c0ad 8193 5815 8fbf 2887 6fc0 2050 93bf
